hyperparameter_tuning/ray_results/SUD_learning_rate_tuning/MyTrainableClass_02d5ade0_5_batch_size=16,name=SUD_v2,patience=1000,steps=200,steps_per_print=5,swa_step_start=2500,t_size=7,train_2024-03-12_13-59-25/checkpoint_000000/checkpoint.pt (torch, 61346 bytes, 66 tensors)

_initial._model.0.weight f4 [16, 5]
0	0xbf545b01	-0.8295136
1	0xc006d4d3	-2.1067398
2	0xbfb8dc1e	-1.4442174
3	0xbf91418e	-1.1348131
4	0xc031bd77	-2.777189
5	0xbfe05fa0	-1.7529182
6	0xc05b638b	-3.4279506
7	0xc071f6d4	-3.7806902
8	0xc0511276	-3.2667518
9	0x40211f4f	2.517536
10	0x40395eaf	2.896404
11	0xc020e9c1	-2.5142672
12	0x40524e05	3.286012
13	0xc063290b	-3.54938
14	0x3fff5eba	1.9950783
15	0x3f81f0bf	1.0151595
16	0x404b389c	3.1753302
17	0xc0142ec5	-2.3153546
18	0x404b116e	3.1729388
19	0x3e6557bd	0.22396751
20	0x402f5fad	2.7402146
21	0xbf8b51be	-1.0884321
22	0xbe58f957	-0.21188866
23	0xc01c7630	-2.4447136
24	0x3faf23e9	1.3682834
25	0xc02d4158	-2.7071133
26	0xbf878900	-1.0588684
27	0xc03eb001	-2.9794924
28	0xbfd38da6	-1.6527603
29	0x3df7c4ea	0.12098105
30	0xc04f086a	-3.2348886
31	0x3f46f589	0.77718407
32	0xc02755aa	-2.6146035
33	0xbdb6d073	-0.08926477
34	0xbf653455	-0.8953298
35	0xbf5c6123	-0.8608572
36	0xbf516313	-0.817918
37	0x3fca97fd	1.5827633
38	0x3f1dbd88	0.61617327
39	0x4002bcf5	2.042783
40	0xbf0b884a	-0.54504836
41	0xc06835bb	-3.6282794
42	0xc05c7a35	-3.444959
43	0x406cbf00	3.6991577
44	0xc05c0609	-3.4378684
45	0x4026e9db	2.6080234
46	0x3f225ffe	0.6342772
47	0x3fcb56ca	1.5885861
48	0x3fdf484f	1.7443942
49	0xbefdd847	-0.4957907
50	0x403b8303	2.9298713
51	0x3dfa65eb	0.122264706
52	0xbff1394d	-1.8845612
53	0xbf1f8aea	-0.6232134
54	0xbfc03454	-1.5015969
55	0x3f8719d8	1.0554762
56	0xc02cb0b0	-2.6982841
57	0xc061ef7d	-3.5302422
58	0x40642bae	3.565166
59	0x3f43d499	0.76496273
60	0x3e86bd6e	0.26316398
61	0x3f9b6920	1.2141457
62	0x40120efd	2.2821648
63	0xbe40ca6f	-0.18827222
64	0x4023fbb1	2.562237
65	0xc0782a63	-3.877587
66	0xbff49e83	-1.9110874
67	0xbf201003	-0.6252443
68	0x3fe65651	1.7995092
69	0xc0188425	-2.3830655
70	0x403c83e9	2.9455512
71	0x404f97e8	3.2436466
72	0x404250bc	3.0361776
73	0xc0774502	-3.863587
74	0xc055b0a8	-3.3389072
75	0xbf83bc75	-1.0291888
76	0x3ef1bb1c	0.47213066
77	0x4049d55f	3.1536481
78	0x3f41887f	0.755989
79	0x405a39d7	3.4097803

_initial._model.0.bias f4 [16]
0	0x3ff6789b	1.9255556
1	0xc05c9043	-3.446305
2	0xbfc46967	-1.5344666
3	0x3f47c4a2	0.7803441
4	0x3ed37493	0.41299877
5	0xc060cd19	-3.5125182
6	0xbfd08aa1	-1.6292306
7	0x401e0356	2.4689536
8	0x3fe8249c	1.8136172
9	0xbf480e7a	-0.7814709
10	0xc06051a1	-3.5049822
11	0x406433f9	3.5656722
12	0xc003e3d8	-2.0607815
13	0x3fa51b4a	1.2898953
14	0xbf19b08e	-0.60035026
15	0x3e43dd28	0.19127333

_initial._model.2.weight f4 [16, 16]
0	0xbe5f9678	-0.21834743
1	0xbe9fffd6	-0.31249875
2	0x3d3d125c	0.046160087
3	0xbfc32780	-1.524643
4	0x3ffa9448	1.9576502
5	0xbfd26686	-1.6437538
6	0x3f30480a	0.6885992
7	0x3e2f936c	0.1714608
8	0xbf4db810	-0.8035898
9	0x3fdf6977	1.745406
10	0xbe9b75ae	-0.3036322
11	0xbfbfd10f	-1.4985675
12	0x3f20d0d8	0.6281867
13	0xbf2b5e20	-0.669405
14	0x3fd221f0	1.6416607
15	0xc004b85d	-2.0737526
16	0x3f93cb62	1.1546443
17	0xbf04d8ca	-0.51893294
18	0xc0196833	-2.3969848
19	0x4006f62c	2.1087751
20	0x3fbe9d96	1.4891841
21	0x3f1f64de	0.62263286
22	0x3f63de30	0.89010906
23	0xbfddaff4	-1.7319322
24	0x40140634	2.3128786
25	0x3a82b2b3	0.0009971469
26	0xbeef7453	-0.46768436
27	0xc0034c6b	-2.0515392
28	0xbfb3617d	-1.4014126
29	0xbec8b5c0	-0.39201164
30	0xbf69ecd1	-0.9137698
31	0x3f95fe34	1.1718202
32	0xbd322e28	-0.04350105
33	0x3fd96512	1.6983969
34	0x3f0daca7	0.5534157
35	0xbf7447db	-0.9542214
36	0x3f6a753c	0.91585135
37	0x40157ec2	2.3358617
38	0xbf39d944	-0.72597146
39	0xbf50d215	-0.8157056
40	0xbe68873a	-0.22707835
41	0x3f49a678	0.78769636
42	0xbfae4fe1	-1.3618127
43	0xbe53d65d	-0.20687242
44	0xbfa67f7f	-1.3007659
45	0x3fc23769	1.517316
46	0xbeff9525	-0.49918476
47	0x3fbed170	1.4907665
48	0xbec4f108	-0.38465142
49	0xbff8b99e	-1.9431646
50	0x3f807d90	1.0038319
51	0xbf985223	-1.1900066
52	0xbff2ea95	-1.8977839
53	0x4013a954	2.30721
54	0xbeec79d8	-0.4618671
55	0x3e93c36c	0.28860033
56	0xbfc65379	-1.5494224
57	0xc0029a95	-2.040685
58	0x3fb54246	1.416085
59	0xbf43182c	-0.7620876
60	0x3f5c8724	0.8614371
61	0x3f3f1271	0.74637514
62	0x3f75e9a7	0.9605965
63	0xc00f64e7	-2.2405336
64	0xbf20feab	-0.6288859
65	0x3f02640b	0.50933903
66	0xbfd5ba54	-1.6697488
67	0x3ff754cd	1.9322754
68	0x3fb2ca3b	1.3967966
69	0xc00dcdbf	-2.2156827
70	0x3fe292f4	1.7701097
71	0x3f4b4d25	0.7941459
72	0x3fcec516	1.6153896
73	0x3fbba8fe	1.4660947
74	0x3f93bb9d	1.154163
75	0x3f5f3f60	0.8720608
76	0x3fb2b161	1.3960382
77	0xbf46ff81	-0.7773362
78	0x3fa55416	1.2916286
79	0xbfe7e2dd	-1.8116108
80	0xbf2a0a90	-0.6642237
81	0x3f0cd92f	0.55018896
82	0xc001d4da	-2.0286164
83	0x401bca7c	2.4342337
84	0xbf8b1f72	-1.0868971
85	0xbfabc1dd	-1.3418537
86	0xbfd08dff	-1.6293334
87	0xbf095c93	-0.5365688
88	0xbfb35497	-1.401019
89	0x40014810	2.0200233
90	0x3edde632	0.43339688
91	0x3fe74ac2	1.8069689
92	0x3ebfa636	0.37431496
93	0xbfeee311	-1.8663045
94	0x3f4ebdcc	0.8075836
95	0xbc489cb8	-0.012244396
96	0xbdab7ea0	-0.08373761
97	0xbf045c3e	-0.5170325
98	0x3e73fd6c	0.23827142
99	0x3eebbe11	0.46043447
100	0x3f4e27d2	0.8052951
101	0xbdbb4478	-0.09143919
102	0x3f845239	1.0337592
103	0x3f14e644	0.5816386
104	0x3fd6c44b	1.6778654
105	0xbd24f557	-0.040273037
106	0xbf2743d4	-0.6533787
107	0xbf9d0858	-1.2268171
108	0x3ff4e78e	1.9133165
109	0x3f8abb37	1.0838383
110	0x3fd06355	1.6280314
111	0x3f5ac20b	0.85452336
112	0xbd748ad6	-0.059702717
113	0xc0116448	-2.2717457
114	0xbfac79f0	-1.3474712
115	0xbeb67563	-0.35636434
116	0x3f7fac84	0.9987261
117	0xc007d9c1	-2.1226656
118	0xc014e63c	-2.3265524
119	0x3fd55547	1.666665
120	0xbface2fd	-1.3506771
121	0x3eaea070	0.3410678
122	0x3f1aa1c6	0.60403097
123	0x3f91d5ba	1.1393349
124	0x3d1b99fe	0.037988655
125	0xbf970176	-1.1797321
126	0xbecb8f89	-0.39757946
127	0xbf2acd35	-0.6671937
128	0x3fb26857	1.3938092
129	0x3f270b67	0.65251774
130	0x3e964094	0.29346144
131	0x3fbee0cb	1.4912351
132	0xc015e5c3	-2.3421485
133	0xbe20a743	-0.15688805
134	0x3f20fd38	0.6288638
135	0x3eed35f6	0.4633023
136	0xbfa32d50	-1.2748203
137	0xbfe94a57	-1.8225812
138	0xbee889fd	-0.45417777
139	0xbe609d86	-0.2193509
140	0xbfd7494e	-1.6819246
141	0x3e9b2bb1	0.3030677
142	0x3f6ce76d	0.9254063
143	0x3f139b1d	0.5765856
144	0x3f8b3978	1.0876913
145	0x3e0fd256	0.1404508
146	0x4007ac9f	2.119911
147	0x3f9164a2	1.1358836
148	0xbf6c256b	-0.92244595
149	0xc00f88f3	-2.2427337
150	0xbe4c5ff2	-0.19958475
151	0x3f33ee9d	0.7028597
152	0x3ffa0d40	1.9535294
153	0xbf158323	-0.58403224
154	0x3cee5475	0.029093007
155	0xbf56c9d9	-0.83901745
156	0x3f3dc6f4	0.74131703
157	0x3e2e67a2	0.1703172
158	0x3f0906e3	0.53526133
159	0xbfbca6f9	-1.4738456
160	0x3f92c602	1.1466677
161	0xc010fa69	-2.2652838
162	0x3f9a5f96	1.206042
163	0xbec23e91	-0.3793836
164	0xbfae0ffd	-1.3598629
165	0x3f7c8abe	0.98649204
166	0xbf9ff7b9	-1.2497474
167	0x3ff7f8a7	1.9372758
168	0x3ffadc58	1.9598494
169	0xbff0004d	-1.8750092
170	0xbfe29c95	-1.7704035
171	0x3f4305ea	0.761809
172	0xbfc2812d	-1.5195671
173	0xbfa638c6	-1.2986076
174	0x3f82ff37	1.0234135
175	0x3ff1438b	1.8848737
176	0x3e15ee71	0.1464174
177	0xbfbd92a9	-1.4810382
178	0x3f725df0	0.9467459
179	0xbda0e0f8	-0.078554094
180	0xbfcff3b7	-1.6246251
181	0x40111530	2.2669182
182	0xbfb1a235	-1.3877627
183	0xbf108332	-0.5645019
184	0x3f01fab9	0.507732
185	0xbf842b3d	-1.0325695
186	0xbf218a6c	-0.6310184
187	0x3f59e6b7	0.8511767
188	0xbed8ccf0	-0.42343855
189	0x3d690e14	0.05689819
190	0x3f96cde3	1.1781582
191	0x3f8e0968	1.109662
192	0xbf9430fc	-1.1577449
193	0xbfe090b7	-1.7544163
194	0x3feee4b3	1.8663543
195	0x3d8ef129	0.069795914
196	0xbfbe7791	-1.4880239
197	0xbff8c511	-1.943514
198	0xbfa7bcfd	-1.310455
199	0xbe0364a0	-0.12831354
200	0xbebca271	-0.36842683
201	0xbf4d8472	-0.8028022
202	0x400159d6	2.0211082
203	0x4012cbfc	2.2937002
204	0x3fdb0049	1.7109462
205	0xbffa08e9	-1.9533969
206	0xbfb06100	-1.3779602
207	0x3fc700a0	1.5547066
208	0xbf5101b2	-0.8164321
209	0xbdcbdf6f	-0.09954726
210	0xbf47e005	-0.780762
211	0x3ff70996	1.92998
212	0x40110039	2.2656386
213	0x3fb0736d	1.3785225
214	0x3fe8039c	1.8126101
215	0xbfcdaad7	-1.6067761
216	0x3fefc148	1.873086
217	0x3dacb6bd	0.08433292
218	0xc0085a62	-2.1305165
219	0xbdd3b3a6	-0.103369996
220	0x3fcaf15d	1.5854908
221	0xbf3b90b7	-0.7326769
222	0xbf0511cd	-0.51980287
223	0xbf27d0b2	-0.6555282
224	0xbf854f9c	-1.041492
225	0x3fbeace3	1.4896511
226	0x3f98ce40	1.1937943
227	0x3cb8f907	0.022579683
228	0x3fdd2b86	1.7278907
229	0x3f2bb732	0.6707641
230	0xbf6fe6ca	-0.9371153
231	0xbfd3a0d5	-1.6533457
232	0x3e8e0f93	0.27746257
233	0xbf427c39	-0.759708
234	0xbf1ff438	-0.62482023
235	0x3fa8db2a	1.3191884
236	0x3fb098be	1.3796613
237	0xbee1205e	-0.43970007
238	0xbf22d54a	-0.63606703
239	0x3f46a364	0.77593064
240	0x3e8f7fbf	0.2802715
241	0x3f35a2a5	0.709513
242	0x3f634a02	0.887848
243	0x3fb622cf	1.4229373
244	0xbfefd8fa	-1.8738091
245	0x3d99bbf4	0.07506552
246	0x3f1dc34b	0.6162612
247	0x3ed2b59c	0.41154182
248	0xbf3ef3b9	-0.7459064
249	0xbfebc51e	-1.841953
250	0x3ffbab01	1.9661561
251	0xbfd527a9	-1.6652728
252	0x3fa0187c	1.2507472
253	0xc00ec84d	-2.2309754
254	0x3f01a461	0.5064145
255	0x3fe16e51	1.7611791

_initial._model.2.bias f4 [16]
0	0x3f0744e5	0.528395
1	0xbea4f8fe	-0.32221216
2	0x401b5c7f	2.4275205
3	0xbf9bfacf	-1.2185916
4	0xc01a06d9	-2.406668
5	0x3e34a877	0.17642389
6	0xbf92b319	-1.1460906
7	0xbf67d649	-0.9056135
8	0x3fe453f3	1.7838119
9	0xbb49373c	-0.0030703088
10	0xc00c2d45	-2.190263
11	0xbf281067	-0.6565003
12	0xbfaee727	-1.3664292
13	0xc011588a	-2.271029
14	0x3f60f7d8	0.8787818
15	0xc009c8c8	-2.1528797

_func._drift._model.0.weight f4 [16, 17]
0	0x3a33ed9d	0.0006863715
1	0xbbb33b21	-0.005469695
2	0x3ba195fb	0.004931209
3	0xb9a99f53	-0.00032352898
4	0x3aee4b73	0.0018180445
5	0x3a91fb45	0.0011137506
6	0xbb379ec7	-0.0028018223
7	0x39e0ea54	0.00042899197
8	0x3ae90384	0.0017777537
9	0xbbadf67a	-0.0053089233
10	0xbb9398ea	-0.0045043128
11	0xbb8f7cff	-0.0043789144
12	0xb99648ca	-0.00028664462
13	0xbb3a87cc	-0.002846229
14	0xbbb1367a	-0.0054081054
15	0x3babd6e5	0.0052441233
16	0x3b97d577	0.0046336013
17	0xbb0557b9	-0.0020346476
18	0xbb8627d2	-0.0040941024
19	0x3b327448	0.0027229954
20	0xba810d39	-0.000984586
21	0xbb51785d	-0.0031962611
22	0xbbacfb64	-0.0052789915
23	0x3842a6ff	4.640873e-05
24	0xbb3fd2ae	-0.0029269862
25	0x3ac49b93	0.0014999978
26	0x3ac10262	0.0014725442
27	0xba3593a9	-0.0006926605
28	0x3bbed538	0.0058237575
29	0xba935ba7	-0.0011242524
30	0x3bb9b9d5	0.005667905
31	0x3ae1fe40	0.001724191
32	0x3ae1395a	0.001718323
33	0x3b9cc23b	0.0047838963
34	0xbafe39f7	-0.0019395937
35	0x3bb18eb3	0.0054186224
36	0x3b29fe8c	0.0025939075
37	0xbad67424	-0.0016361517
38	0x3b2f86b2	0.0026783166
39	0xbbb83866	-0.0056219576
40	0x3a3eda5b	0.00072804623
41	0xbaa73d62	-0.0012759382
42	0xba9c3c05	-0.0011919743
43	0xbb98af68	-0.004659582
44	0x3b3e6247	0.0029050277
45	0x3b059445	0.0020382565
46	0xbb1f2835	-0.002428544
47	0x3b96ba1b	0.004599822
48	0xba915bff	-0.0011090039
49	0xb9136e11	-0.00014060015
50	0xbb6553b8	-0.0034992527
51	0x3af30977	0.001854225
52	0x3b0a2479	0.0021078868
53	0x3a863d7a	0.001024171
54	0x39c2d2d2	0.00037159637
55	0xbbba65cb	-0.005688404
56	0x3ba10616	0.0049140556
57	0xb9725c27	-0.00023113248
58	0x3b621cae	0.0034501958
59	0x3b6ac82f	0.0035824885
60	0xbba695f4	-0.005083794
61	0x3b7e51c7	0.0038806067
62	0xbb81ef88	-0.003965322
63	0x3af1a77d	0.0018436756
64	0x3ba538d6	0.0050421758
65	0x3ba4a12f	0.0050240974
66	0x3aedba44	0.0018137177
67	0xbbaa0661	-0.0051887487
68	0x3b4c10bc	0.0031137904
69	0xbb6642d0	-0.0035135038
70	0x3b19cb51	0.0023467133
71	0xbbb370ed	-0.0054761083
72	0xbb1f0321	-0.002426334
73	0xbb91cd65	-0.0044495338
74	0xba93ebb7	-0.0011285458
75	0xbb02ae6a	-0.0019940385
76	0xbbb92d55	-0.005651156
77	0xbbbb4b05	-0.00571573
78	0x3a4cef8c	0.00078176777
79	0x3a505a3e	0.00079480174
80	0xbb1691ae	-0.0022975015
81	0xbb4a84b4	-0.003090185
82	0xbb9234f2	-0.004461878
83	0xbb6929f4	-0.0035577985
84	0xbb12ef55	-0.0022420485
85	0xbb1ddea1	-0.0024088996
86	0x3b723b1f	0.0036961508
87	0x3ac624f0	0.0015117209
88	0x3b9d613d	0.0048028515
89	0xbb9e4f71	-0.0048312475
90	0x3b073c7e	0.0020635421
91	0x3aaf0484	0.0013352786
92	0xbb9aaef8	-0.004720565
93	0x3b4c8aab	0.0031210582
94	0xbb242ee3	-0.002505236
95	0xbb17b6cb	-0.0023149725
96	0x3b05bd9f	0.0020407212
97	0x3ab28fc4	0.0013623168
98	0x39a508dd	0.00031477856
99	0x3bab939d	0.0052361027
100	0xbada6429	-0.001666193
101	0xbb69eaf3	-0.003569302
102	0xbbbee3b5	-0.0058254846
103	0x3aa31033	0.0012440741
104	0xbb94322c	-0.0045225825
105	0x3b9b541a	0.0047402503
106	0x3ae28021	0.0017280617
107	0xbab5100c	-0.0013813986
108	0x3b74783a	0.0037303106
109	0x3ba6f4cc	0.0050951
110	0x3b8c5922	0.0042830864
111	0xbb133e71	-0.0022467638
112	0x3a08d352	0.00052194775
113	0xbb4b20a2	-0.0030994792
114	0x3b6dc09c	0.0036278134
115	0x3bb47ea1	0.0055082594
116	0xb9307a58	-0.00016830245
117	0x3b7c86f2	0.0038532582
118	0x3b011ecd	0.0019702197
119	0x3b3b56f3	0.0028585761
120	0xbb8e91a8	-0.0043508597
121	0xbb83fdcd	-0.004028058
122	0xbba32d61	-0.004979775
123	0x3bb71179	0.0055867997
124	0x3b1c3878	0.002383737
125	0x3b8d216f	0.004306964
126	0x3b8400a8	0.0040283985
127	0x3b9a31ef	0.0047056596
128	0xbab9cb33	-0.0014174938
129	0xbbba228c	-0.005680388
130	0x3a39c351	0.00070862944
131	0xbb1d01ca	-0.0023957365
132	0x3b20ad8e	0.002451751
133	0x3b247636	0.0025094873
134	0x3a140411	0.0005646358
135	0xbbb758f8	-0.0055953227
136	0x3ace4505	0.0015737122
137	0xbb51fec6	-0.0032042726
138	0xbb2ffca7	-0.0026853473
139	0x3b92a6c6	0.0044754473
140	0xbb453b09	-0.0030095002
141	0x3af2c6de	0.0018522402
142	0xbadbacc3	-0.0016759861
143	0x3976c550	0.00023533893
144	0xbb3243a8	-0.002720097
145	0xbb0a62c9	-0.002111601
146	0x3ba2edeb	0.0049722097
147	0x3b5150f2	0.0031939116
148	0xbba27aeb	-0.0049585006
149	0x3baa9736	0.005206014
150	0xbb65ef88	-0.0035085399
151	0xbb768aea	-0.003761942
152	0xbba9d52d	-0.0051828832
153	0xb9afaa94	-0.00033505692
154	0xbb2ecf4e	-0.0026673856
155	0xbbbab1a8	-0.005697448
156	0x3b22caa1	0.0024840015
157	0xbabb3b89	-0.0014284711
158	0x3b134286	0.002247007
159	0xbb91c63d	-0.0044486807
160	0xbb72fff0	-0.003707882
161	0xbb5b7c93	-0.0033491
162	0xb9c872c8	-0.0003823249
163	0xbba87866	-0.0051413057
164	0x3a8789a6	0.0010340705
165	0xb84d5292	-4.895271e-05
166	0x3b9bd201	0.004755259
167	0xb9af4e72	-0.00033437047
168	0x3ba5c692	0.005059072
169	0x3b43a3bf	0.002985224
170	0x3697fe25	4.529737e-06
171	0xb97ccd5e	-0.00024109098
172	0x39e24c24	0.00043162808
173	0x3a0309d2	0.0004998717
174	0xbabb1c19	-0.0014275342
175	0xbb6669db	-0.003515831
176	0xba396ad4	-0.00070731086
177	0xbb46e1b5	-0.0030346934
178	0xbab79e2c	-0.0014008931
179	0xbb9b40d6	-0.0047379537
180	0x3b98420c	0.0046465453
181	0x3b32a4b9	0.0027258827
182	0xbadc49f2	-0.0016806705
183	0xbafe6bce	-0.001941079
184	0x3bb64f11	0.0055636247
185	0xbbb186c0	-0.005417675
186	0xbbb7e08d	-0.0056114853
187	0xba976c5d	-0.001155268
188	0x3ac98671	0.001537515
189	0xbb91cc90	-0.0044494346
190	0x3b7032cd	0.0036651373
191	0xbad38bc1	-0.0016139672
192	0x3b90219c	0.004398538
193	0x3b7d042b	0.003860722
194	0xbb85e2de	-0.0040858826
195	0x3b524bcd	0.0032088638
196	0x3b3ffa6f	0.0029293557
197	0xba6bd981	-0.0008996949
198	0x3b85f66f	0.004088215
199	0xbb9e533f	-0.004831701
200	0x3aa8f092	0.0012889078
201	0xbab5f861	-0.0013883227
202	0xb8afa9f0	-8.3763036e-05
203	0xbb110163	-0.002212607
204	0xbb2301ab	-0.002487282
205	0x3b7e6925	0.0038819995
206	0x3b5e9723	0.0033964596
207	0x3b86b782	0.0041112313
208	0xbb93e592	-0.004513451
209	0x3a3ac049	0.00071239896
210	0x39c4566f	0.0003744843
211	0xbb89c7ec	-0.0042047407
212	0x3b70ebdf	0.0036761684
213	0xbaf2a5e9	-0.001851258
214	0xbb487294	-0.0030585872
215	0xb983270b	-0.00025015356
216	0x3b31efd6	0.002715101
217	0x3ae04d51	0.0017112886
218	0x3b99068e	0.004669971
219	0x3a0f6a30	0.000547084
220	0xbba0206c	-0.0048866775
221	0xbb0901c3	-0.002090559
222	0xba5d1594	-0.00084336963
223	0x3baa1e6a	0.005191614
224	0x3b2a8fd5	0.0026025672
225	0x3ad0e677	0.0015937825
226	0xbb9ba8f8	-0.0047503673
227	0xbb29e782	-0.0025925343
228	0x3b193ad3	0.002338101
229	0xbb4ec40f	-0.0031549965
230	0xbb083dd4	-0.0020788806
231	0x3bb644e9	0.005562414
232	0x3a9f9010	0.0012173671
233	0x3b2413c0	0.0025036186
234	0x3b730e84	0.003708751
235	0xbbb53bd9	-0.005530816
236	0x3ad5c573	0.0016309455
237	0xbb8e8b53	-0.004350105
238	0xbaebc3b6	-0.0017987404
239	0x3b374255	0.002796312
240	0xbbb69b2c	-0.005572697
241	0x3b866240	0.004101068
242	0x3aeb367f	0.0017945318
243	0x3b6482ab	0.0034867923
244	0x3b2d26f0	0.0026420914
245	0x3b21f3f0	0.0024712048
246	0xb91d4392	-0.00014997859
247	0x3bb1f6b1	0.0054310192
248	0xbb4c75df	-0.0031198186
249	0xba266fea	-0.0006349074
250	0xbaa227dd	-0.0012371499
251	0x3ad0b676	0.0015923518
252	0x3b3e1d89	0.0029009304
253	0x3b6742b1	0.0035287554
254	0x3b343be6	0.0027501523
255	0xbb8222cb	-0.003971433

_func._drift._model.0.bias f4 [16]
0	0x3bb6e857	0.0055818963
1	0xb9c6ab32	-0.00037893053
2	0x3b192e92	0.0023373705
3	0x3b0edde7	0.0021799745
4	0xb7c8f25f	-2.395472e-05
5	0xbb15c5a4	-0.0022853399
6	0x3b81a5f9	0.003956553
7	0xbbae18a3	-0.0053129955
8	0xbbac5caf	-0.005260072
9	0xbba92987	-0.005162421
10	0xbb0ba17e	-0.0021305974
11	0x3aac96ce	0.0013167502
12	0xb9acf762	-0.0003299071
13	0x38f97444	0.000118949014
14	0x3b9888ac	0.0046549644
15	0xbb998a1f	-0.004685655

_func._drift._model.2.weight f4 [16, 16]
0	0xbb24567f	-0.002507597
1	0x3b125790	0.0022330023
2	0xbbb1ad11	-0.0054222425
3	0xbbc34d7f	-0.005960166
4	0xbb79d079	-0.0038118644
5	0xbbbb2a6c	-0.005711844
6	0xbb06d24d	-0.0020572126
7	0xbbb38a09	-0.0054791016
8	0xba357b16	-0.0006922943
9	0x3b504514	0.0031779455
10	0xbba1cfd1	-0.0049381037
11	0xbbbc8ff6	-0.005754466
12	0x3b633736	0.003467036
13	0xbb00fb31	-0.0019680972
14	0x3b202695	0.002443706
15	0x3b2ffad3	0.0026852384
16	0xbaaaa494	-0.0013019019
17	0xb9d1e48a	-0.0004003386
18	0xb8a48c30	-7.846241e-05
19	0xbb9b5b93	-0.004741141
20	0x3bb2f4d7	0.005461316
21	0xb99c5aad	-0.00029822197
22	0x3b0ba6ef	0.0021309217
23	0x3a7a8cd9	0.0009557731
24	0x3ba3c81d	0.0049982206
25	0xbb9cf36d	-0.004789761
26	0xbb8161b0	-0.003948413
27	0xb91537ef	-0.00014230584
28	0xbb19fc1e	-0.002349622
29	0x3b06c903	0.002056659
30	0x3bb029ba	0.005376068
31	0xb9abda4e	-0.0003277831
32	0xbba9668b	-0.005169695
33	0x3ba3a31c	0.0049938094
34	0xbac41b88	-0.0014961818
35	0x3afcc556	0.0019284885
36	0xbb0003cb	-0.001953351
37	0x3bafbdcc	0.0053632017
38	0xbb60e508	-0.00343162
39	0x3a453dbc	0.0007524153
40	0x3b314fdd	0.002705566
41	0xbba1fb6b	-0.0049433014
42	0x3add90c8	0.001690411
43	0xbb639efd	-0.0034732216
44	0x3bad72c2	0.005293221
45	0x3ba05b13	0.0048936694
46	0x3af7f48f	0.0018917489
47	0xbb40664e	-0.0029357853
48	0x39654432	0.00021864547
49	0x3ba7fcad	0.005126557
50	0x3b76d6bb	0.003766461
51	0xbb39d981	-0.0028358402
52	0xbb54957e	-0.0032437737
53	0xbac454de	-0.0014978906
54	0xbade8774	-0.0016977624
55	0xbb3eb357	-0.0029098594
56	0xbbc0b6aa	-0.0058811503
57	0x3863b3bb	5.4288404e-05
58	0x3aac8c9c	0.0013164463
59	0xbb8b4e20	-0.0042512566
60	0x3b498849	0.0030751398
61	0xbb2b4b96	-0.0026137582
62	0x3b7025d3	0.0036643639
63	0xbb2f04f5	-0.0026705835
64	0x3bb2afe5	0.005453097
65	0xbb639db0	-0.003473144
66	0x3aa66a95	0.0012696559
67	0x3add1879	0.0016868255
68	0x3b9022a4	0.0043986607
69	0x3b422bbd	0.002962812
70	0xbb9b6da7	-0.004743296
71	0xba86cde8	-0.0010284754
72	0xb99ccfe8	-0.0002990954
73	0x3b52c0ea	0.0032158443
74	0xbb57bdf8	-0.0032919627
75	0x3b4db588	0.0031388719
76	0xbb7ce1e9	-0.0038586801
77	0x3b1a7115	0.0023565937
78	0xbb8beb19	-0.004269969
79	0x3abadeff	0.0014257132
80	0xb7d1ad90	-2.4995563e-05
81	0x3b91fbee	0.004455081
82	0xbb35caa0	-0.0027739182
83	0x3acb139e	0.0015493517
84	0xbb8a4db3	-0.0042206882
85	0xbb3a45d6	-0.0028422973
86	0x3b55a6e2	0.003260069
87	0x3aac57ca	0.0013148722
88	0x3b9a579a	0.00471015
89	0x3b308512	0.0026934785
90	0x3b717463	0.0036843054
91	0xbb464e8f	-0.0030259227
92	0x3a165b31	0.00057356345
93	0xbbb20cf6	-0.005433674
94	0x3ae614bf	0.001755379
95	0xba8c25aa	-0.0010692377
96	0x3b100561	0.0021975862
97	0xbb0783c5	-0.0020677906
98	0xbad82fbd	-0.0016493719
99	0x3b694436	0.0035593635
100	0x3b65e47d	0.0035078817
101	0x3bac6fbe	0.005262344
102	0xbbba99fc	-0.005694626
103	0xbb07b2b2	-0.0020705876
104	0xbba9798c	-0.00517196
105	0x3a9af046	0.0011820875
106	0x3baaaf1b	0.0052088625
107	0xbaea0783	-0.0017855022
108	0xba1e5a5a	-0.0006040685
109	0xbae2872f	-0.001728272
110	0xbb0690db	-0.0020533118
111	0x3ad86064	0.0016508219
112	0x3b83f03d	0.0040264414
113	0xbb7ee65e	-0.0038894634
114	0x3b9dbb04	0.0048135538
115	0x3b9350dc	0.004495723
116	0xb979aea9	-0.00023811556
117	0xbb877699	-0.004134011
118	0xbb994801	-0.004677773
119	0xba87c5a8	-0.0010358589
120	0xb98bd055	-0.00026667365
121	0xbb975891	-0.0046187122
122	0xbbb8279b	-0.0056199557
123	0x3af008c5	0.001831316
124	0x39fae692	0.00047855504
125	0x3b87f152	0.0041486407
126	0x3a976f1c	0.0011553499
127	0x3b1780ca	0.0023117536
128	0x3a25e4be	0.0006328336
129	0x3b238f65	0.0024957296
130	0xbb30165a	-0.0026868791
131	0x37f5ba2d	2.929297e-05
132	0x3b50be7f	0.0031851826
133	0x3b005b31	0.0019585604
134	0x3b378add	0.0028006353
135	0xbbaaa3c2	-0.0052075097
136	0xb829438c	-4.0355648e-05
137	0xbb4ab082	-0.003092796
138	0xbab97114	-0.001414808
139	0x3b2fcdb2	0.0026825485
140	0xba9df139	-0.0012050039
141	0xbb3a0fd7	-0.002839079
142	0xb9058544	-0.00012733514
143	0xbb761b3b	-0.0037552852
144	0xbb23d921	-0.0025001245
145	0xbb306700	-0.0026916862
146	0x3bb2419b	0.0054399497
147	0xbb33e6a4	-0.0027450705
148	0xbb5602cb	-0.0032655473
149	0xbac8ed35	-0.0015329482
150	0x3b8d1db9	0.0043065217
151	0x3805d3a5	3.190678e-05
152	0xba686814	-0.00088656065
153	0x3b5a585c	0.0033316826
154	0x3b7bb6c0	0.0038408488
155	0x3bb5c664	0.0055473316
156	0xbb85cbf8	-0.004083153
157	0x3b4ba3d9	0.0031073003
158	0xbb811b09	-0.0039399904
159	0xbb3c2b0f	-0.0028712188
160	0x3ba23db3	0.004951203
161	0x3b099e75	0.0020998989
162	0xbb327b66	-0.0027234196
163	0xbac4595d	-0.0014980246
164	0x3b65a34e	0.0035039964
165	0x3a8abb42	0.0010584372
166	0xbaa83017	-0.0012831715
167	0xbacad6fa	-0.0015475445
168	0xbae503cb	-0.0017472444
169	0xba73613d	-0.0009284204
170	0x3b963e64	0.0045850743
171	0xbb8a4e8a	-0.0042207884
172	0x3b7c5d1a	0.0038507641
173	0x3a7b6474	0.0009589859
174	0x3bc2d60d	0.005945927
175	0x3b01c917	0.0019803697
176	0xbbc456d4	-0.005991796
177	0xbb0a5b09	-0.002111139
178	0xba844d39	-0.0010093815
179	0x3b091d1d	0.0020921894
180	0xbbb4e303	-0.005520226
181	0x3b06bbdb	0.0020558748
182	0xbaa275f2	-0.001239477
183	0xbb5dbb7d	-0.0033833676
184	0xbb8b6b06	-0.0042547015
185	0xbb723f51	-0.003696401
186	0xbbae2a75	-0.00531512
187	0xb9e41ac1	-0.00043507482
188	0x3b1bb057	0.002375623
189	0xbb5bc0ee	-0.0033531743
190	0xbb611324	-0.0034343684
191	0x396e9e66	0.00022756457
192	0xbb9fad51	-0.004872956
193	0xbb8a3102	-0.004217268
194	0xbad112ee	-0.0015951076
195	0x3b822a7c	0.0039723497
196	0x3b48c020	0.0030632094
197	0x3a925b00	0.0011166036
198	0xbb0203cd	-0.0019838691
199	0xbba6f40e	-0.0050950116
200	0x3b67a519	0.0035346209
201	0x3966b255	0.00022000943
202	0x3b26c1d6	0.0025445125
203	0xb95a8caa	-0.00020842502
204	0x3b535b63	0.0032250516
205	0xb83af762	-4.457625e-05
206	0x3b4a20e5	0.003084236
207	0xba7ff382	-0.00097637635
208	0xbb00953d	-0.0019620203
209	0x3a9a9e55	0.0011796454
210	0xbbc14ed9	-0.005899292
211	0xbb939ee3	-0.0045050248
212	0x3a1ccb73	0.0005981244
213	0x3bbbdbd9	0.005732995
214	0xbad92c82	-0.001656905
215	0xbaf82c0e	-0.0018934028
216	0x3b654dcd	0.0034989
217	0x3ba69aed	0.0050843866
218	0xbb6d2fea	-0.003619189
219	0x3bafdfc0	0.0053672493
220	0xbafe068c	-0.0019380613
221	0x3b54b1e4	0.0032454664
222	0x3ae78415	0.0017663265
223	0x3a53453d	0.00080593285
224	0x3b9df861	0.004820869
225	0xba932367	-0.0011225761
226	0xb9c36fce	-0.000372766
227	0x3b768035	0.0037613038
228	0xbb177d32	-0.0023115394
229	0x3ac4e05d	0.0015020479
230	0x3b65af9b	0.0035047296
231	0x398ef07c	0.00027263525
232	0x3bbccc33	0.005761647
233	0x39c9e21f	0.0003850618
234	0x3b28e526	0.0025771349
235	0x3b5d78b1	0.0033793862
236	0x3ba2828a	0.004959409
237	0xbb372891	-0.0027947763
238	0xb91f3627	-0.00015183595
239	0xbb1d9c23	-0.0024049364
240	0xbb30bb34	-0.002696705
241	0xbb21fdf2	-0.0024718014
242	0x3a45d3cb	0.0007546513
243	0xbb88cd15	-0.0041748383
244	0xbb1de3c0	-0.0024092048
245	0x3b9b3200	0.004736185
246	0x3b0039e7	0.0019565762
247	0x3bc4862e	0.005997441
248	0xba6b5722	-0.00089775224
249	0xb96ed89b	-0.0002277814
250	0xbb498b32	-0.0030753133
251	0x3a6fc8df	0.00091470586
252	0x3abbe125	0.0014334066
253	0x3b924bdc	0.0044646095
254	0xbb940a21	-0.004517809
255	0xbaf387fd	-0.0018579956

_func._drift._model.2.bias f4 [16]
0	0x3ba77231	0.005110048
1	0xbb82cf66	-0.003992009
2	0x3b25a03d	0.0025272511
3	0xbb8ed5d2	-0.0043589855
4	0xbb31f512	-0.002715413
5	0xbbb9725a	-0.0056593837
6	0xbb60266c	-0.0034202589
7	0xbb3f1c68	-0.0029161219
8	0x3ba0c273	0.0049059927
9	0xbb7c5871	-0.0038504864
10	0x3b8899d5	0.004168729
11	0x3a2c153e	0.00065644446
12	0x3b2e322a	0.0026580193
13	0x3b84d500	0.004053712
14	0x3b92b5bf	0.004477232
15	0xbb983b96	-0.004645775

_func._diffusion._model.0.weight f4 [16, 17]
0	0x3da33f93	0.0797111
1	0xbd7b92af	-0.061419185
2	0xbd26e347	-0.040744092
3	0x3d97432c	0.07385859
4	0xbde6327d	-0.112400986
5	0xbd3ad0e7	-0.04560938
6	0x3d5ba9e0	0.053628802
7	0x3c73809e	0.014862208
8	0xbcacecae	-0.021108951
9	0x3da96d8e	0.08272849
10	0x3d8a6fd2	0.06759609
11	0x3d7b1717	0.061301317
12	0x3cd8011c	0.026367716
13	0x3cc80b05	0.024419317
14	0xbd009cf1	-0.03139967
15	0x3cdfcab8	0.027318344
16	0xbd83bcdc	-0.064325064
17	0xbd4e0aa1	-0.050303105
18	0x3c392ccd	0.011302185
19	0xbd6b0709	-0.057379756
20	0xbcae5635	-0.021281341
21	0xbc46fb1d	-0.012144831
22	0x3d2fb96b	0.042901438
23	0x3cb88cde	0.022528108
24	0x3d40de71	0.047087137
25	0x3cf41d2a	0.029799063
26	0xbc8687ed	-0.016422236
27	0x3c5f683e	0.013635693
28	0xba5c43b4	-0.00084024225
29	0x3d33df9c	0.043914422
30	0x3d278e43	0.040907156
31	0x3b67f044	0.0035391012
32	0xbc8da257	-0.017289324
33	0xbd9c7241	-0.0763898
34	0x3c63f23b	0.013912733
35	0x3d0e8c27	0.03480163
36	0x3d1fd38f	0.039020117
37	0x3d5810d8	0.05275044
38	0xbd13bb06	-0.03606703
39	0x3d5f3fb9	0.05450413
40	0xbd5ce97a	-0.053933598
41	0xbaecfa4b	-0.0018079964
42	0x3d0ac461	0.033878688
43	0x3d09fa5e	0.033686034
44	0x3d5a59aa	0.053308167
45	0x3d85171e	0.0649855
46	0xbd54ce8e	-0.0519548
47	0xbb03bbd1	-0.002010096
48	0x3d2a5c5d	0.04159199
49	0x3c9619a2	0.01832277
50	0x3bbf29c6	0.005833837
51	0x3ce93968	0.028469756
52	0x3c57666c	0.013146978
53	0xbc2d2abd	-0.010569272
54	0xbcaf296e	-0.02138206
55	0xbdf49dfa	-0.11944194
56	0x3ccf5b7e	0.025312182
57	0xbc80cf96	-0.015723985
58	0x3cd745bb	0.026278367
59	0xbda8aaa9	-0.08235676
60	0x3d95b08d	0.07309065
61	0x3c921157	0.017830534
62	0x3d2f6560	0.042821288
63	0x3d0d1327	0.034442093
64	0xbcf758fd	-0.0301938
65	0xbd9f611d	-0.07782195
66	0xbd1562bf	-0.036471125
67	0xbd4971ad	-0.049180675
68	0xbdadbf5e	-0.08483766
69	0x3c611637	0.013738207
70	0x3cd94f2e	0.026527014
71	0xbd92d483	-0.0716944
72	0x3d85e870	0.065384746
73	0xbd8c82db	-0.06860896
74	0x3b48cea0	0.0030640736
75	0xbdc8e659	-0.0980956
76	0x3cfefaf7	0.031125529
77	0xbde3f3e4	-0.11130503
78	0xbd397bba	-0.04528401
79	0xbcd43925	-0.025906155
80	0xbdb1c221	-0.08679605
81	0xbd11de65	-0.035612483
82	0x3baba3b5	0.0052380213
83	0xbd338d3b	-0.04383586
84	0x3c3ed005	0.011646275
85	0x3db18669	0.08668215
86	0xbda9d516	-0.08292596
87	0x3caa601f	0.020797787
88	0xbc9d905c	-0.019233875
89	0xbdcf5dd0	-0.10125315
90	0xbd5f0349	-0.054446492
91	0xbcf3878d	-0.029727722
92	0x3afe63c5	0.0019408396
93	0xbd9ddd79	-0.07708258
94	0x3d85f453	0.06540742
95	0xbcbcd271	-0.023049565
96	0x3d90c41c	0.07068655
97	0xbd49b477	-0.04924437
98	0xbd36cfdf	-0.044631835
99	0x3d06e0e5	0.03292932
100	0x3d440f11	0.04786593
101	0x3b06cfbf	0.0020570604
102	0xbdee9089	-0.11648662
103	0xbc96eefa	-0.0184245
104	0xbcc6cd73	-0.024267888
105	0xbd56c55c	-0.05243431
106	0x3b1bd9af	0.0023780873
107	0xbd876991	-0.06611932
108	0x3c08427f	0.008316635
109	0xbc97fe37	-0.018553836
110	0x3d642d0d	0.055707026
111	0xbda8d77b	-0.08244225
112	0xbd6d5052	-0.057937928
113	0xbd563f0a	-0.052306212
114	0xbd7b1771	-0.061301652
115	0xbd191b3b	-0.037379485
116	0x3d31544f	0.043293294
117	0xbdb8ad8b	-0.09017476
118	0x3d2a2c08	0.041545898
119	0xbd0bbb78	-0.03411433
120	0xbb1868d6	-0.0023255846
121	0xbc9758f2	-0.01847503
122	0xbdac7d40	-0.08422327
123	0xbbc34fd1	-0.0059604426
124	0xbc927bf7	-0.017881377
125	0xbd135a4f	-0.035974797
126	0xbd836077	-0.064148836
127	0x3b872bf7	0.004125114
128	0xbd9427f2	-0.072341815
129	0xbd54716d	-0.051865984
130	0xbda3293e	-0.07966851
131	0xbcfe7f0e	-0.031066444
132	0x3bd2d772	0.0064343745
133	0xbcdb0a9e	-0.026738461
134	0xbd86990f	-0.06572162
135	0x3ced9c42	0.029005174
136	0x3d16c9cc	0.036813542
137	0xbd93c697	-0.072156124
138	0xbbbe7b44	-0.0058130343
139	0x3d00b256	0.031420074
140	0xbdc36970	-0.09541595
141	0xbc73a3f6	-0.014870634
142	0x3d1a0659	0.03760371
143	0x3d71ec57	0.059063282
144	0xbae68355	-0.0017586747
145	0xbbdf5816	-0.0068159206
146	0x3bce7e21	0.006301657
147	0x3d4d6ca2	0.05015243
148	0xbd3a31f9	-0.045457814
149	0x3cfa6731	0.030566784
150	0xbd68c0f9	-0.056824658
151	0x3ca1aa19	0.01973443
152	0xbd50c8b7	-0.050972667
153	0xbd14d5a6	-0.036336564
154	0x3d3d3713	0.0461951
155	0x3b9e29c4	0.004826756
156	0xbde104bb	-0.109872304
157	0x3bacd5d9	0.005274516
158	0xbd10f7e9	-0.035392676
159	0xbd08bbf7	-0.033382382
160	0xbd8282ed	-0.06372628
161	0x3d2ddc9a	0.04244671
162	0xbd3f5946	-0.046715997
163	0xbdb92038	-0.09039348
164	0xbd2787eb	-0.040901106
165	0xbc47c19f	-0.012192159
166	0xbb556702	-0.0032562618
167	0xb98f26a9	-0.0002730389
168	0xbd9f3afa	-0.07774921
169	0x3d354bba	0.04426167
170	0xbdc9e263	-0.09857633
171	0xbd356536	-0.044285975
172	0xbd30a0a2	-0.04312194
173	0xbcbb7f7a	-0.022887934
174	0x3d43d6d2	0.04781229
175	0x3c9f94ee	0.019480195
176	0xbd8f8a5a	-0.0700881
177	0xbd3091f4	-0.04310794
178	0x3d763d59	0.0601171
179	0xbe00fb50	-0.12595868
180	0xbd888635	-0.06666223
181	0xbcf02267	-0.02931328
182	0xbd3ba651	-0.04581291
183	0x3bf419ee	0.00744938
184	0xbd0e43d9	-0.034732673
185	0xbd411247	-0.04713657
186	0x3cb887eb	0.022525748
187	0x3bf66efa	0.0075205537
188	0x3ccf40fa	0.025299538
189	0xbb4c4b04	-0.0031172642
190	0x3d11eded	0.035627294
191	0xbc0ee9e3	-0.008722755
192	0xbc5f8248	-0.013641901
193	0xbba42e97	-0.0050104368
194	0x3d5c2b85	0.05375244
195	0xbdaa85a9	-0.08326275
196	0x3c0ba160	0.0085223615
197	0xbce73326	-0.028222632
198	0x3d7ae394	0.06125219
199	0x3d06a3fd	0.032871235
200	0xbdb13e52	-0.08654465
201	0xbc9f43d9	-0.019441532
202	0x3d6eb8f7	0.058281865
203	0xbd8052ee	-0.062658176
204	0xbd817a84	-0.06322196
205	0x3b845d20	0.0040394217
206	0x3bddfb6e	0.0067743575
207	0xbdbaba5f	-0.09117579
208	0x3d24f5ec	0.040273592
209	0x3b42d6db	0.0029730115
210	0xbd82d242	-0.0638776
211	0xbda5a1cf	-0.08087503
212	0x3c82b8ff	0.015957354
213	0xbd3b92ae	-0.04579418
214	0xbda0dcc9	-0.078546114
215	0xbd61996f	-0.055077966
216	0xbd293e23	-0.041319024
217	0x3cdaa608	0.026690498
218	0xbc79c8d0	-0.015245631
219	0xbd3ae51c	-0.045628652
220	0x3d724745	0.05915
221	0x3d83827f	0.064213745
222	0x3c53ca31	0.012926624
223	0xbb21b969	-0.0024677163
224	0x3d850e80	0.06496906
225	0xbd8bfec3	-0.06835701
226	0xbd19f6c9	-0.03758887
227	0xbc67875a	-0.014131391
228	0x3d03aca8	0.03214708
229	0xbd617027	-0.055038597
230	0x3d9eafa7	0.07748347
231	0x3d893c19	0.06700916
232	0x3d5c3bd9	0.053768013
233	0x3cb9f09f	0.022697745
234	0x3c903093	0.017601287
235	0xbc6d5b8a	-0.014487157
236	0xbc72accb	-0.014811705
237	0xbc4642c8	-0.012100883
238	0x3c128625	0.008943115
239	0x3b1f5258	0.0024310555
240	0x3cd06310	0.025437862
241	0x3c113f97	0.008865259
242	0xbc9320f2	-0.017960045
243	0x3c2395de	0.009984462
244	0xbba32fc9	-0.0049800617
245	0x3d13c2c9	0.036074433
246	0xbd9beb59	-0.076132484
247	0x3c78e6c8	0.015191741
248	0x3ce0824e	0.027405884
249	0x3d0392ca	0.03212241
250	0xbb949db7	-0.0045354026
251	0xbdb766e5	-0.089551724
252	0xbd006cf3	-0.031353902
253	0x3d22a985	0.039712448
254	0xbccf6d52	-0.025320683
255	0xbb62e7e9	-0.0034623093

_func._diffusion._model.0.bias f4 [16]
0	0x3ddbba17	0.10728853
1	0x3c689389	0.014195331
2	0x3c7a537d	0.015278694
3	0x3dc759e2	0.09733941
4	0xbc36437d	-0.011124489
5	0x3c6f4bb0	0.014605448
6	0xbd6ecaad	-0.058298755
7	0xbdcd19dc	-0.10014698
8	0x3d6fadb6	0.058515273
9	0xbce0b609	-0.027430551
10	0xbc9f7d04	-0.019468792
11	0x3d4c55d1	0.04988653
12	0xbda99a2a	-0.082813576
13	0x3dbd6e18	0.09249514
14	0x3d9eb15b	0.077486716
15	0x3c0b8929	0.008516588

_func._diffusion._model.2.weight f4 [48, 16]
0	0x3d9460de	0.072450384
1	0x3d577dbc	0.052610144
2	0xbc04621d	-0.008080033
3	0x3d3d4eb7	0.046217646
4	0xbdc746aa	-0.09730275
5	0x3d264478	0.04059264
6	0x3b892ee7	0.0041864994
7	0xbbc038c3	-0.0058661415
8	0x3d194b2a	0.037425198
9	0xbdafd42d	-0.08585391
10	0x3c345cb0	0.011008427
11	0x3d7b3848	0.06133297
12	0xbd66976e	-0.05629676
13	0xbccfddb8	-0.025374278
14	0xbc95b5c8	-0.018275157
15	0x3d9130fd	0.07089422
16	0x3d102eb1	0.03520078
17	0xbd21e66c	-0.039526388
18	0xbce45939	-0.027874576
19	0x3c298810	0.010347381
20	0xbd934acc	-0.07192001
21	0x3d4e851b	0.050419908
22	0xbd0c33e2	-0.034229167
23	0xbdb38bfe	-0.08766936
24	0x3d9e7d3a	0.07738729
25	0xbc146713	-0.009057778
26	0x3c138cb1	0.009005711
27	0x3d89086c	0.066910595
28	0xbc6c6f88	-0.014430888
29	0xbcd4af3a	-0.02596246
30	0xbcf33313	-0.02968744
31	0xbc711eee	-0.014716847
32	0x3c20c05b	0.009811486
33	0xbcbdd25c	-0.023171596
34	0xbd0bbd06	-0.034115814
35	0x3dc74e7e	0.09731768
36	0xbdaf3213	-0.08554473
37	0x3d22d5fa	0.039754845
38	0xbd3955de	-0.045247905
39	0x3cc9b08e	0.02462032
40	0xbc5ae649	-0.013360568
41	0xbcf98b3f	-0.030461906
42	0xbdb670c8	-0.0890823
43	0xbcb0153c	-0.0214945
44	0xbcf397eb	-0.029735526
45	0x3a81579a	0.0009868026
46	0x3cb7766f	0.02239534
47	0xbc9f064b	-0.01941218
48	0x3d95b86a	0.07310565
49	0x3d6d8dcb	0.057996552
50	0xbd550b6a	-0.05201284
51	0x3c63bf03	0.013900521
52	0x3bb2b2a6	0.0054534255
53	0xbc8bcffa	-0.017066944
54	0xbd315c6b	-0.043301027
55	0xbd0adbf2	-0.033901162
56	0x3d639a0d	0.055566836
57	0xbd2cf27d	-0.042223442
58	0xbc949355	-0.01813666
59	0xbc4a0488	-0.012330182
60	0xbcbf9b96	-0.023389619
61	0xbbd210d0	-0.0064106956
62	0x3d7fd554	0.062459305
63	0x3d25580e	0.04036718
64	0x3d894457	0.06702488
65	0x3bf14d14	0.0073639248
66	0xbc0e9248	-0.008701868
67	0x3dc28895	0.09498707
68	0xbd2bb1be	-0.041917555
69	0x3d89e1c1	0.06732512
70	0xbd8bbf0f	-0.06823551
71	0x3c169d31	0.009192751
72	0x3d40e75c	0.04709564
73	0xbda8935b	-0.08231231
74	0xbd129264	-0.03578414
75	0xbd1cafb5	-0.038253505
76	0xbce023c9	-0.027360814
77	0x3baee06b	0.0053368113
78	0x3b1c34da	0.0023835213
79	0x3c6805f4	0.014161576
80	0x3db9c117	0.09070032
81	0x3c8ac363	0.01693887
82	0xbd4ca28e	-0.04995971
83	0x3d897ef1	0.06713665
84	0xbcea9c2a	-0.028638918
85	0x3d37ab29	0.044840965
86	0xbcf09ebf	-0.029372571
87	0xbc9685b8	-0.018374309
88	0x3d0d9390	0.034564555
89	0xbd2bd2a2	-0.041948922
90	0xbba3de98	-0.0050009005
91	0x3d754430	0.05987948
92	0xbdbd9e44	-0.092587024
93	0x3cc12a66	0.023579787
94	0x3ca7d052	0.020485077
95	0x3d799ef5	0.06094261
96	0x3da15292	0.07877077
97	0x3d1f02eb	0.038821142
98	0xbd733d36	-0.059384547
99	0x3cd3f783	0.025874859
100	0x3b8d31cb	0.0043089143
101	0x3c01c4ca	0.007920453
102	0xbd359575	-0.044331986
103	0xbd91961c	-0.07108709
104	0x3d52cc26	0.051464222
105	0xbcab00e5	-0.02087445
106	0xbd25e319	-0.04049978
107	0x3d3a472f	0.045478042
108	0xbd385392	-0.045001574
109	0xbb9c7aa5	-0.0047753626
110	0x3d9867f4	0.074417025
111	0x3d519409	0.051166568
112	0x3db020ff	0.086000435
113	0x3bc252d5	0.0059302845
114	0xbd0da6ff	-0.034583088
115	0x3c810e25	0.015753815
116	0xbd80cda7	-0.06289225
117	0x3a35a93d	0.00069298205
118	0xbc53a3c9	-0.012917467
119	0xbd7d892f	-0.061898407
120	0x3dbe5f5e	0.092955336
121	0xbdad7243	-0.08469059
122	0xbcc52ad6	-0.024068277
123	0x3d6cfed9	0.05786023
124	0xbdb50aaa	-0.08839925
125	0x3d2f809e	0.04284727
126	0x3da51ae7	0.08061772
127	0x3d250e16	0.040296637
128	0xbcdd24f6	-0.026995163
129	0xbcbb2f2f	-0.022849647
130	0xb82a32fd	-4.0578645e-05
131	0x3d183bf1	0.03716654
132	0xbd6138a6	-0.054985665
133	0x3d3d0cde	0.04615485
134	0xbcbea720	-0.02327305
135	0x3ca22281	0.019791843
136	0x3d295bd2	0.041347332
137	0x3c02331d	0.007946757
138	0xbd36c032	-0.044616885
139	0x3cbedbe5	0.023298213
140	0x3bb9ac07	0.005666259
141	0x3ce3fe31	0.027831169
142	0x3d89f2d0	0.06735766
143	0x3d6ccb04	0.0578108
144	0xbab2de8c	-0.0013646646
145	0xbc65d4ad	-0.014027757
146	0xbc1cb46d	-0.009564501
147	0x3c97e663	0.018542474
148	0xbce131c8	-0.027489558
149	0x3d3dfad8	0.0463818
150	0x3c16adf6	0.009196749
151	0xbda00f98	-0.07815474
152	0x3d428001	0.047485355
153	0xbd19ffe0	-0.037597537
154	0xbd7ca90e	-0.06168466
155	0x3d85d909	0.06535537
156	0xbdb87d9f	-0.09008335
157	0x3b22a9d7	0.002482047
158	0x3d750f8b	0.059829276
159	0xbcfb69a8	-0.03069003
160	0x3aa3c347	0.001249411
161	0xbbed0324	-0.0072330404
162	0x3d294ff1	0.041336004
163	0x3d305890	0.04305321
164	0xbdd3fb94	-0.10350719
165	0x3b5ce587	0.0033706145
166	0xbd84b627	-0.06480055
167	0xbd91fc9e	-0.07128261
168	0x3c7216f9	0.014775985
169	0xbd84b772	-0.06480302
170	0xbdce711e	-0.10080169
171	0x3d1fe4fb	0.039036732
172	0xbd590854	-0.052986458
173	0x3d951fe2	0.07281472
174	0x3c9ed681	0.019389393
175	0x3d84551c	0.06461546
176	0x3db008ed	0.085954525
177	0x3b3fabe2	0.0029246737
178	0xbd1eaa1c	-0.038736448
179	0x3cf96880	0.030445337
180	0xbdb92ddb	-0.09041949
181	0x3cd0852d	0.025454128
182	0xbd86cdd5	-0.06582228
183	0xbda00239	-0.07812924
184	0xbcb804a5	-0.022463152
185	0xbca7ba36	-0.020474534
186	0x3c653aac	0.013991039
187	0xbc45e3bc	-0.012078222
188	0xbda92f2d	-0.08260951
189	0x3c8e12ad	0.01734289
190	0x3d05ed9a	0.032697298
191	0x3d93d015	0.07217423
192	0xbd06f7ff	-0.03295135
193	0x3cb2a1cd	0.021805668
194	0x3c39ee65	0.011348342
195	0xbd4c61a6	-0.049897812
196	0x3b128310	0.0022355951
197	0xbd4dec0e	-0.050273947
198	0x3bff800c	0.007797247
199	0xbce2c778	-0.027683005
200	0xbc898d40	-0.016790986
201	0x3caf8627	0.021426274
202	0x3d6c069d	0.057623494
203	0xbc918341	-0.017762782
204	0x3d779103	0.06044103
205	0xbd475f6f	-0.048674997
206	0xbdab1714	-0.08354011
207	0xbd9499be	-0.072558865
208	0x3c27dc8f	0.010245456
209	0xbc01f790	-0.007932559
210	0xbab23d50	-0.0013598595
211	0xbdc8304b	-0.09774836
212	0x3c80426e	0.015656676
213	0xbd8009a7	-0.06251841
214	0x3ba3da82	0.0050004134
215	0x3d0517d4	0.032493427
216	0xbd90c2be	-0.07068394
217	0x3c61c370	0.013779506
218	0x3d311bf7	0.04323956
219	0xbd2997bf	-0.041404482
220	0x3d5cd29d	0.053911794
221	0x3cf37eca	0.029723544
222	0x3d19219f	0.03738558
223	0x3cc9a70d	0.024615789
224	0xbd5423d4	-0.05179198
225	0x3cbfb2cd	0.023400689
226	0x3d151f2f	0.036406692
227	0xbd515319	-0.05110464
228	0x3d8fd49b	0.07022973
229	0x3c23761c	0.00997689
230	0x3d04d004	0.03242494
231	0x3dac47ba	0.08412118
232	0xbce60060	-0.02807635
233	0x3d97bae5	0.07408694
234	0x3bd64197	0.0065385806
235	0xbcc26a2e	-0.023732271
236	0x3da79c5c	0.0818412
237	0xbd55d80e	-0.052208
238	0xbd1a9f18	-0.03774938
239	0xbda082ea	-0.0783747
240	0xbbefbfde	-0.0073165735
241	0xbbcfe1b1	-0.006344043
242	0xbd2ee9cc	-0.042703435
243	0x3ceb813e	0.02874815
244	0xbd25d9d3	-0.040490936
245	0xba7a7c71	-0.00095552864
246	0xbd87dbb9	-0.06633706
247	0xbca28b01	-0.019841673
248	0x3b9fcb75	0.004876549
249	0xbdb5b157	-0.088717155
250	0xbd81b52a	-0.063333824
251	0x3d4be10a	0.04977516
252	0x3abfb59c	0.0014626267
253	0x3d888521	0.06666017
254	0xbb30df56	-0.0026988587
255	0x3cf7ebb8	0.030263767

_func._diffusion._model.2.bias f4 [48]
0	0x3d89bb4c	0.06725177
1	0x3db03ab4	0.08604947
2	0x3dca4bc1	0.0987773
3	0x3da05cd8	0.078302085
4	0x3cf06e77	0.029349549
5	0x3d5354d7	0.05159458
6	0x3d175df9	0.036954854
7	0x3d6c44b0	0.057682693
8	0x3cb6aae1	0.022298278
9	0x3ce89f3e	0.028396245
10	0x3de0382f	0.10948216
11	0x3cdc6ec1	0.02690828
12	0xbd2be952	-0.04197056
13	0xbc711e60	-0.014716715
14	0xbd9f6742	-0.07783367
15	0x3a928ffe	0.0011181829
16	0x3bb64c1a	0.005563271
17	0x3d8c8714	0.068617016
18	0xbd60d394	-0.054889277
19	0xbdd7f7f6	-0.10545342
20	0xbdbca70a	-0.09211548
21	0xbc23158d	-0.009953869
22	0xbd4c2c35	-0.049846847
23	0xbdd18e1f	-0.102321856
24	0xbcc4a42d	-0.024004066
25	0xbcb07f74	-0.02154515
26	0x3d6c9345	0.057757635
27	0xbd9192d5	-0.07108084
28	0xbcd4d0a9	-0.025978403
29	0xbd31c439	-0.043400023
30	0xbc5fc666	-0.013658142
31	0xbd693b5c	-0.056941375
32	0xbddc3528	-0.10752326
33	0x3dc032fc	0.093847245
34	0x3d91ef58	0.07125729
35	0x3db19acc	0.08672103
36	0x3d2f6496	0.042820536
37	0x3c24f912	0.010069149
38	0x3c96ab25	0.018392155
39	0x3ba6b297	0.0050872075
40	0xbccc9a50	-0.024975926
41	0xbd8fc494	-0.07019916
42	0x3d3bb0bd	0.045822848
43	0x3d903c9d	0.07042811
44	0x3dc468d3	0.09590306
45	0xbd5dad81	-0.054120544
46	0xbc8e5a58	-0.017377064
47	0x3a9cfe72	0.0011977686

_readout.weight f4 [1, 16]
0	0xbdc2b237	-0.09506648
1	0xbe4568fa	-0.19278327
2	0xbe765328	-0.24055159
3	0xbe531dc1	-0.20616819
4	0x3da052ed	0.07828317
5	0xbdcb7585	-0.099345244
6	0x3c09086c	0.008363824
7	0x3e048455	0.12941106
8	0xbce33448	-0.02773489
9	0x3d909d88	0.07061297
10	0x3db274d1	0.08713687
11	0xbe8ab2f6	-0.2708966
12	0xbe71f6e3	-0.23629336
13	0xbb9f21b4	-0.0048563126
14	0xbd8d8a88	-0.06911188
15	0x3e15e432	0.14637831

_initial._model.0.weight f4 [16, 2]
0	0xb62662db	-2.479347e-06
1	0xbeb18836	-0.34674233
2	0xb6323106	-2.6552602e-06
3	0x3f99e1d5	1.2022043
4	0x34c62340	3.6906022e-07
5	0xbf376b2a	-0.71647894
6	0x36bc6372	5.6144136e-06
7	0xbf1197c3	-0.56872195
8	0xb68c7191	-4.185546e-06
9	0xbea143fc	-0.3149718
10	0x363fca89	2.8579109e-06
11	0xbf320b2e	-0.6954831
12	0x36432d41	2.9083606e-06
13	0x3f62ccc9	0.8859373
14	0xb5e38061	-1.6950181e-06
15	0x3faa50e2	1.3305933
16	0x346283da	2.1095858e-07
17	0xbf3d9761	-0.7405911
18	0xb658b445	-3.2291439e-06
19	0x3f3a7517	0.72834915
20	0xb68168d4	-3.856703e-06
21	0x3deef7eb	0.1166838
22	0x36bd9584	5.650045e-06
23	0xbeaed3fa	-0.341461
24	0xb6c3d298	-5.835969e-06
25	0xbfb16825	-1.3859907
26	0x363afd1a	2.7863484e-06
27	0x3eba23c9	0.36355427
28	0x35a0b35a	1.1973127e-06
29	0x3f1c9789	0.61168724
30	0xb5dd7f0c	-1.6502759e-06
31	0x3f1d3393	0.6140682

_initial._model.0.bias f4 [16]
0	0xbf01187e	-0.50428
1	0xbcfda2b7	-0.030961378
2	0x3d9b4bbd	0.07582805
3	0x3f0bac01	0.5455933
4	0xbe7d82c5	-0.24756916
5	0x3aab8f00	0.0013088882
6	0xbea53484	-0.3226663
7	0xbf04e9b1	-0.51919085
8	0x3f41211f	0.75441164
9	0x3e13fef7	0.1445273
10	0xbd954fd1	-0.072906144
11	0xbdfc0f36	-0.12307589
12	0xbe5d133b	-0.21589367
13	0xbeb254fd	-0.34830466
14	0x3d8479bc	0.064685315
15	0x3ebd0c88	0.36923623

_initial._model.2.weight f4 [16, 16]
0	0xbd1f02e9	-0.038821135
1	0xbef82634	-0.48466647
2	0xbc9abe38	-0.018889531
3	0xbd7a6b9c	-0.06113778
4	0xbe7ce50d	-0.24696751
5	0xbe1cc25d	-0.15308519
6	0xbe1cae23	-0.15300803
7	0xbe447a78	-0.19187343
8	0xbd345da8	-0.04403463
9	0xbe5b4711	-0.21413828
10	0x3a77222d	0.0009427395
11	0xbe2cb837	-0.16867147
12	0xbe3d7923	-0.18503241
13	0xbddb77a3	-0.10716178
14	0x3daf5784	0.08561614
15	0xbe5396cb	-0.20662992
16	0x3dd1315e	0.10214494
17	0x3ec045b1	0.3755317
18	0x3ed71198	0.4200561
19	0x3e8a88f5	0.27057615
20	0x3e291818	0.16513097
21	0x3ec22aa1	0.37923148
22	0x3e6f460e	0.23366567
23	0x3e880ac7	0.26570722
24	0x3e54d229	0.20783295
25	0x3e60c333	0.21949463
26	0xbb45a25a	-0.0030156584
27	0x3e0ec0cd	0.13940735
28	0x3f0134fa	0.5047146
29	0xbe3640bc	-0.17798132
30	0x3d84f253	0.06491532
31	0x3e8fc706	0.2808153
32	0xbe8e8b84	-0.27840817
33	0x3ec23e6e	0.37938255
34	0x3e050510	0.12990212
35	0x3e1ee399	0.15516509
36	0xbebe5547	-0.37174436
37	0x3e169c07	0.14707957
38	0x3d8d3a60	0.068959
39	0x3dfbaccb	0.12288817
40	0x3e800473	0.25003394
41	0x3ee3058f	0.44340178
42	0xbe89f74c	-0.26946485
43	0xbe882a92	-0.2659498
44	0x3e90dc48	0.2829306
45	0xbcdb4361	-0.026765527
46	0x3d8a2eed	0.06747232
47	0x3f07b113	0.5300457
48	0x3c7a40dd	0.015274254
49	0x3f1a7ac6	0.6034359
50	0x3e2fc7d8	0.17166078
51	0x3dccf1aa	0.10007031
52	0xbd925eaf	-0.07146966
53	0x3db46d97	0.08809965
54	0x3ea66333	0.32497558
55	0x3edaacfc	0.42710102
56	0x3e37edf4	0.17961866
57	0x3de9264d	0.113842584
58	0xbe4482f1	-0.19190575
59	0x3e33541f	0.17512558
60	0x3e8cfa33	0.27534637
61	0xbd0c751b	-0.034291368
62	0x3ea36d17	0.31919166
63	0x3caa6501	0.020800116
64	0xbddd2de1	-0.10799766
65	0x3ee63ee3	0.44969854
66	0x3e3f81da	0.18701878
67	0x3e1fc721	0.15603305
68	0xbd83744f	-0.064186685
69	0x3eaab708	0.33342767
70	0x3dc2ba9b	0.095082484
71	0x3efcbfd7	0.49365112
72	0xbe2203b8	-0.15821731
73	0x3e995370	0.2994647
74	0xbe4622f7	-0.19349276
75	0x3deeedb4	0.11666432
76	0x3f1b7e5e	0.60739696
77	0x3d0878a2	0.03331817
78	0xbda00cc2	-0.07814933
79	0xbc80a72b	-0.015704712
80	0x3ccd45aa	0.025057632
81	0x3f037ce6	0.51362455
82	0xbd7e567c	-0.062094197
83	0x3dbe8132	0.09301986
84	0x3e72db42	0.23716453
85	0x3e5f3acb	0.21799771
86	0x3e8e761d	0.27824488
87	0x3eee95bb	0.4659861
88	0x3da7ef98	0.08199996
89	0x3e99b7a9	0.30022934
90	0x3e0566d8	0.13027513
91	0xbda086da	-0.07838221
92	0x3ea1da9a	0.31612092
93	0x3e27f0d8	0.16400468
94	0x3dde01a4	0.10840157
95	0xbd8c4cd0	-0.06850588
96	0x3e5b6d94	0.2142852
97	0xbb8fa249	-0.0043833596
98	0x3bc71935	0.006076003
99	0xbdd4858b	-0.10377034
100	0x3e9f6ede	0.31139272
101	0xbdb4d1c8	-0.08829075
102	0x3dbf67fe	0.09346007
103	0xbc42dc72	-0.011893379
104	0xbe282b44	-0.16422755
105	0xbed57389	-0.4168971
106	0x3dbb3785	0.09141449
107	0x3ecb8f5b	0.3975781
108	0x3e15004f	0.14550899
109	0xbc37c2b5	-0.011215855
110	0xbd619d54	-0.05508168
111	0xbd9b6206	-0.07587056
112	0xbe2057c9	-0.15658487
113	0xbea3149b	-0.31851658
114	0x3d54f2dc	0.05198942
115	0xbe91373c	-0.28362453
116	0x3d9ab42b	0.075538956
117	0xbe0519df	-0.1299815
118	0xbe310275	-0.17286094
119	0xbed2c83c	-0.41168392
120	0xbe0a5eb1	-0.13512684
121	0x3c0b507d	0.008503077
122	0x3dfda568	0.12385064
123	0xbd161e94	-0.036650255
124	0xbf19a250	-0.60013294
125	0x3d8795a1	0.06620336
126	0x3d4539b3	0.04815073
127	0xbe744b68	-0.2385689
128	0x3e9dab62	0.30794817
129	0x3e0aee3f	0.13567446
130	0xbd6c709a	-0.057724573
131	0x3de61d08	0.11236006
132	0x3e16a31d	0.1471066
133	0x3db079ae	0.086169586
134	0x3ea6a90c	0.32550848
135	0x3f0091fb	0.5022275
136	0xbddee668	-0.1088379
137	0x3e5e71ea	0.21723142
138	0xbbfcb73a	-0.007712272
139	0x3e413ec5	0.18871601
140	0x3f1cfb06	0.6132053
141	0x3e06d496	0.13167033
142	0xbe2980d5	-0.16553052
143	0x3e639b2b	0.2222716
144	0x3e09d2a3	0.13459258
145	0xbe6a8b24	-0.2290464
146	0xbe6ec9f5	-0.23319228
147	0xbc25bcec	-0.010115843
148	0xbe088a33	-0.13333969
149	0xbeea0c3b	-0.45712456
150	0xbe7b13a1	-0.24519207
151	0xbe932e0b	-0.28746065
152	0xbe590a80	-0.21195412
153	0xbbbcd3f5	-0.005762572
154	0x3e52379b	0.20529024
155	0x3d70e4e0	0.058812022
156	0xbf1fed0d	-0.62471086
157	0xbe042663	-0.12905268
158	0xbdf7b41b	-0.12094899
159	0x3c7f4bd0	0.01558204
160	0xbdf5a18b	-0.119937025
161	0x3e0913be	0.13386437
162	0x3e41508d	0.18878384
163	0xbe162328	-0.14661849
164	0xbd8c28e7	-0.06843739
165	0x3ed3ba3d	0.41353026
166	0x3e9480a3	0.29004392
167	0x3ea8d76d	0.32976857
168	0x3bfabad2	0.0076516652
169	0x3e7b3bb3	0.24534492
170	0xbdc5a1e9	-0.096500225
171	0x3e8cc69d	0.2749528
172	0x3e5e40eb	0.21704452
173	0x3e2f1daf	0.17101167
174	0xbc995def	-0.018721549
175	0xbd5d6eee	-0.05406087
176	0xbdb5c255	-0.088749565
177	0x3e7b2d2b	0.24528949
178	0x3e39fbb4	0.18162423
179	0x3dcfb00d	0.10141001
180	0x3e4e9762	0.20174935
181	0x3eb82b42	0.35970503
182	0x3e4f5e9d	0.20250936
183	0x3dd7592c	0.10515055
184	0x3e527f6c	0.2055642
185	0x3d4932f7	0.04912087
186	0xbdaa0a6e	-0.083027706
187	0x3d9b70bc	0.07589862
188	0x3f169a7a	0.5882946
189	0xbe167726	-0.14693889
190	0x3e22c600	0.15895844
191	0x3da67ffa	0.08129878
192	0xbd10eaf9	-0.035380337
193	0x3e9767fc	0.2957152
194	0x3e0bdab9	0.13657655
195	0xbe3c5294	-0.18390876
196	0x3da89306	0.082311675
197	0x3e9f13a3	0.3106967
198	0x3ea11ffe	0.3146972
199	0x3eb1a668	0.3469727
200	0x3e4e23fe	0.20130917
201	0x3e6be198	0.23035276
202	0xbdabefa8	-0.0839532
203	0xbd9c6524	-0.076364785
204	0x3f0cbdbb	0.54977006
205	0x3eaf23ea	0.34207088
206	0x3e5ec0b5	0.217532
207	0x3e2f35b2	0.17110327
208	0x3e2089b8	0.15677536
209	0x3ebedea9	0.3727925
210	0x3ec251fa	0.37953168
211	0x3e8b1513	0.27164516
212	0xbd94c793	-0.07264628
213	0x3eee2f13	0.4652029
214	0x3ea3d463	0.31997976
215	0x3d98ddde	0.07464193
216	0x3e2e3176	0.17011055
217	0x3bf48935	0.0074626454
218	0xbde110e9	-0.109895535
219	0x3dd364a4	0.1032193
220	0x3f1ba233	0.6079437
221	0xbe1dc8df	-0.15408657
222	0x3e2c7fdc	0.1684565
223	0x3e584c17	0.21122776
224	0x3ea1ca09	0.31599453
225	0xbe7838f8	-0.24240482
226	0x3e9ba1b3	0.30396804
227	0x3e365182	0.1780453
228	0x3e1c0700	0.15237045
229	0x3ee46e5f	0.44615456
230	0x3e22e763	0.1590858
231	0xbd2bc8ea	-0.041939653
232	0xbd87dae1	-0.06633545
233	0xbda57347	-0.08078628
234	0xbcd6494f	-0.026158003
235	0x3ed2d208	0.41175866
236	0x3eb6cc47	0.35702726
237	0xbd7af874	-0.0612721
238	0xbd961983	-0.07329085
239	0xbe9c1322	-0.30483347
240	0x39427f71	0.00018548757
241	0xbed33545	-0.4125158
242	0xbe6e41f6	-0.2326735
243	0x3d88640b	0.06659707
244	0xbe6f02c8	-0.23340905
245	0xbe4d870a	-0.20071045
246	0xbe96a436	-0.29422158
247	0xbecef99c	-0.40424812
248	0xbe20f419	-0.15718116
249	0xbe0646b1	-0.13112904
250	0xbca63a39	-0.020291435
251	0xbe51b05e	-0.20477435
252	0xbeebb9a4	-0.4604007
253	0xbe6df54f	-0.23238109
254	0xbb02c3e2	-0.001995318
255	0xbda87f1f	-0.082273714

_initial._model.2.bias f4 [16]
0	0x3eaccc8a	0.337498
1	0x3ddbb2ea	0.107274845
2	0x3ea1acb2	0.3157707
3	0xbc9f0afe	-0.019414421
4	0xbe5ea0ab	-0.21740977
5	0x3de763ea	0.11298354
6	0xbeadfd27	-0.33982202
7	0x3ce93884	0.028469332
8	0xbe7bcc34	-0.24589616
9	0xbe6864c7	-0.22694694
10	0x3dd38ecb	0.1032997
11	0x3e43d15f	0.19122837
12	0xbda41548	-0.080118716
13	0x3d2f1821	0.04274762
14	0xbe951e6e	-0.29124779
15	0x3e1a254f	0.15053295
