hyperparameter_tuning/ray_results/SUD_learning_rate_tuning/MyTrainableClass_ed1afc81_3_batch_size=16,name=SUD_v2,patience=1000,steps=200,steps_per_print=5,swa_step_start=2500,t_size=7,train_2024-03-12_14-35-13/checkpoint_000000/checkpoint.pt (torch, 61346 bytes, 66 tensors)

_initial._model.0.weight f4 [16, 5]
-0.8295312 -2.1069703 -1.4444238 -1.1348804 -2.777562 -1.7530098 -3.428241 -3.7808914
-3.266872 2.5177815 2.896115 -2.514176 3.2856286 -3.5491288 1.9947869 1.0153674
3.175785 -2.3156178 3.1735127 0.22408788 2.7406497 -1.0884776 -0.2119415 -2.4450047
1.3684492 -2.7069876 -1.0587014 -2.9793062 -1.6527377 0.120931275 -3.235152 0.7772813
-2.614854 -0.08921042 -0.89547575 -0.86094373 -0.8180391 1.5830507 0.6163335 2.043137
-0.54503757 -3.6284494 -3.4452488 3.6995375 -3.438097 2.6085958 0.6344664 1.5890143
1.7449507 -0.49593228 2.930373 0.12230047 -1.8849912 -0.6233363 -1.5019065 1.055321
-2.6980917 -3.5299869 3.5646012 0.7648217 0.26323247 1.2145177 2.2828412 -0.1882794
2.5627851 -3.8772645 -1.9109011 -0.62519485 1.7992036 -2.3828235 2.9458182 3.2441347
3.0367157 -3.8638728 -3.3390987 -1.0290349 0.4719489 3.1529791 0.75576496 3.4092367
00000000: 285c 54bf 9ad8 06c0 e1e2 b8bf c343 91bf
00000010: 93c3 31c0 a062 e0bf 4d68 5bc0 20fa 71c0
00000020: 6e14 51c0 5523 2140 f359 3940 42e8 20c0
00000030: bd47 5240 ed24 63c0 2d55 ff3f 8ff7 813f
00000040: 1040 4b40 1533 14c0 d51a 4b40 4b77 653e
00000050: ce66 2f40 3c53 8bbf 3107 59be f57a 1cc0
00000060: 5829 af3f 493f 2dc0 8783 87bf f4ac 3ec0
00000070: e98c d3bf d1aa f73d bb0c 4fc0 e8fb 463f
00000080: c559 27c0 f4b3 b6bd e63d 65bf cf66 5cbf
00000090: 036b 51bf 68a1 ca3f 08c8 1d3f c2c2 0240
000000a0: 9587 0bbf 8438 68c0 f57e 5cc0 39c5 6c40
000000b0: c809 5cc0 3cf3 2640 646c 223f d264 cb3f
000000c0: 8b5a df3f d6ea fdbe 3b8b 3b40 ab78 fa3d
000000d0: 6447 f1bf f892 1fbf 793e c0bf c214 873f
000000e0: 89ad 2cc0 4eeb 61c0 6d22 6440 5bcb 433f
000000f0: 68c6 863e 5175 9b3f 121a 1240 51cc 40be
00000100: ac04 2440 1a25 78c0 6898 f4bf c50c 20bf
00000110: 4e4c e63f 2e80 18c0 4988 3c40 e79f 4f40
00000120: 8d59 4240 b149 77c0 cbb3 55c0 6ab7 83bf
00000130: 49a3 f13e 69ca 4940 d079 413f ef30 5a40

_initial._model.0.bias f4 [16]
1.9262751 -3.4459064 -1.5349243 0.78114337 0.4134955 -3.5127714 -1.6288167 2.469837
1.8142989 -0.78065914 -3.50445 3.5648363 -2.060142 1.2892221 -0.599866 0.19056045
00000000: 2f90 f63f bb89 5cc0 6678 c4bf 03f9 473f
00000010: afb5 d33e 3fd1 60c0 117d d0bf cf11 1e40
00000020: f23a e83f 47d9 47bf e948 60c0 4726 6440
00000030: 5ed9 03c0 3b05 a53f d190 19bf 4722 433e

_initial._model.2.weight f4 [16, 16]
-0.21874985 -0.31268832 0.04577498 -1.52545 1.9571552 -1.6438327 0.68838847 0.17069928
-0.80422986 1.7446483 -0.30397522 -1.4992689 0.627737 -0.66995543 1.6411829 -2.0743873
1.1542393 -0.5191225 -2.3973713 2.1079621 1.4886873 0.6225556 0.88989806 -1.732696
2.3122349 0.00023647869 -0.4680276 -2.0522416 -1.4018637 -0.39256257 -0.9142508 1.1711867
-0.043905355 1.6982073 0.55302835 -0.95503163 0.91535443 2.3357825 -0.7261829 -0.81646854
-0.22772135 0.7869356 -1.3621577 -0.20757711 -1.301216 1.516764 -0.4996666 1.4901332
-0.38505432 -1.9433548 1.0034469 -1.1908134 -1.8982801 2.307132 -0.46207872 0.28783715
-1.5500636 -2.041447 1.4157413 -0.76279086 0.8609856 0.74582434 0.96011835 -2.2411702
-0.62848437 0.5095266 -1.6693645 1.9330807 1.397291 -2.2156053 1.7703199 0.7949013
1.6160291 1.4668508 1.154506 0.8727616 1.3964853 -0.77678746 1.2921095 -1.8109839
-0.66462684 0.5500001 -2.0290027 2.433421 -1.0873938 -1.3419313 -1.629545 -0.5373301
-1.4016608 2.0192618 0.43305448 1.8062656 0.37386686 -1.8668559 0.807102 -0.012877828
-0.08335058 -0.5168429 0.23863715 0.46120694 0.8057687 -0.09136114 1.0339694 0.5823684
1.6784803 -0.03954348 -0.6530465 -1.226144 1.9137703 1.0843749 1.6284785 0.85514116
-0.059297796 -2.2715583 -1.3470838 -0.35555288 0.99922335 -2.1225867 -2.32634 1.6674272
-1.3500352 0.3418288 0.6043737 1.1400404 0.038436312 -1.1791819 -0.39709583 -0.66656137
1.3934008 0.6523319 0.2930713 1.490418 -2.342649 -0.15696453 0.6286542 0.46254417
-1.2754678 -1.8233451 -0.45452088 -0.22006042 -1.6823678 0.3025175 0.92491555 0.5759634
1.0880948 0.1406399 2.1202955 1.1366885 -0.9219516 -2.2426553 -0.1993737 0.7036195
1.9541688 -0.5832747 0.02943563 -0.8383166 0.74176663 0.17086707 0.53573906 -1.4732134
1.1470708 -2.2650943 1.2064257 -0.3785786 -1.3593688 0.98657006 -1.2495366 1.9380375
1.9604888 -1.8742528 -1.770062 0.76251006 -1.5191172 -1.2980576 1.0238901 1.8855078
0.14601296 -1.4812284 0.9463584 -0.07936475 -1.6251222 2.266839 -1.3879744 -0.5652658
0.5070893 -1.0333318 -0.6313618 0.8504712 -0.42388847 0.056346808 1.1776764 1.1090277
-1.1581497 -1.754606 1.8659683 0.06898682 -1.4885207 -1.9435925 -1.3106663 -0.1290764
-0.36906883 -0.8035622 2.0207653 2.2929978 1.710496 -1.9539481 -1.3784409 1.5540726
-0.816836 -0.09976023 -0.78115404 1.9291662 2.2651296 1.3784418 1.8123981 -1.607607
1.8724369 0.083537474 -2.1309044 -0.104095824 1.5850065 -0.73325235 -0.52027893 -0.6562347
-1.041899 1.4894615 1.1934052 0.021766346 1.7273916 0.6706871 -0.93732727 -1.6541123
0.2768168 -0.7604716 -0.6251647 1.3184811 1.3792111 -0.4402525 -0.6365524 0.77529454
0.2806766 0.7097017 0.88823605 1.423749 -1.8733119 0.07514304 0.61647224 0.41230518
-0.74526256 -1.8411919 1.9665009 -1.664567 1.2511967 -2.2304251 0.50689834 1.7618129
00000000: f6ff 5fbe af18 a0be 8c7e 3b3d f241 c3bf
00000010: 1084 fa3f 1c69 d2bf 3a3a 303f cbcb 2e3e
00000020: 02e2 4dbf a350 df3f a4a2 9bbe 0be8 bfbf
00000030: 5fb3 203f 3382 2bbf 4812 d23f c3c2 04c0
00000040: 1dbe 933f 36e5 04bf 886e 19c0 dae8 0640
00000050: 4e8d be3f ce5f 1f3f 5cd0 633f fcc8 ddbf
00000060: a8fb 1340 44f7 7739 50a1 efbe ed57 03c0
00000070: 4570 b3bf f6fd c8be 570c 6abf 72e9 953f
00000080: 1ad6 33bd db5e d93f 4493 0d3f f47c 74bf
00000090: ab54 6a3f 767d 1540 1fe7 39bf 1504 51bf
000000a0: c92f 69be 9d74 493f 2f5b aebf 188f 54be
000000b0: 3f8e a6bf 5325 c23f 4dd4 ffbe afbc be3f
000000c0: d725 c5be dabf f8bf f370 803f 936c 98bf
000000d0: d8fa f2bf 0da8 1340 9595 ecbe 645f 933e
000000e0: 7c68 c6bf 11a7 02c0 0337 b53f 4346 43bf
000000f0: 8d69 5c3f 58ee 3e3f 51ca 753f 556f 0fc0
00000100: 5ae4 20bf 5670 023f bcad d5bf 306f f73f
00000110: 6eda b23f 7acc 0dc0 d899 e23f a77e 4b3f
00000120: 0bda ce3f c4c1 bb3f dac6 933f 4e6d 5f3f
00000130: 08c0 b23f 8bdb 46bf d863 a53f 52ce e7bf
00000140: fc24 2abf cecc 0c3f 2edb 01c0 2bbd 1b40
00000150: b82f 8bbf 68c4 abbf ee94 d0bf 778e 09bf
00000160: 9f69 b3bf 963b 0140 51b9 dd3e b633 e73f
00000170: 7a6b bf3e 22f5 eebf 3d9e 4e3f 87fd 52bc
00000180: b5b3 aabd d14f 04bf 4c5d 743e 5123 ec3e
00000190: dc46 4e3f 8d1b bbbd 1c59 843f 1816 153f
000001a0: 71d8 d63f 58f8 21bd 0e2e 27bf 49f2 9cbf
000001b0: 6df6 f43f cccc 8a3f fc71 d03f 88ea 5a3f
000001c0: 3fe2 72bd 3661 11c0 3e6d acbf 070b b6be
000001d0: 1acd 7f3f 76d8 07c0 c1e2 14c0 416e d53f
000001e0: f4cd acbf 2f04 af3e 3cb8 1a3f d8ec 913f
000001f0: 656f 1d3d 6fef 96bf 2550 cbbe c4a3 2abf
00000200: f55a b23f 39ff 263f 710d 963e 04c6 be3f
00000210: f6ed 15c0 4fbb 20be 7bef 203f 97d2 ec3e
00000220: 8742 a3bf 5f63 e9bf f6b6 e8be 8557 61be
00000230: d457 d7bf 93e3 9a3e 44c7 6c3f 5672 133f
00000240: b146 8b3f e803 103e ecb2 0740 027f 913f
00000250: 0505 6cbf aa87 0fc0 9f28 4cbe 6820 343f
00000260: 3422 fa3f 7e51 15bf fe22 f13c eb9b 56bf
00000270: 6be4 3d3f c7f7 2e3e 3226 093f 4292 bcbf
00000280: 37d3 923f 4ef7 10c0 286c 9a3f 0ed5 c1be
00000290: ccff adbf db8f 7c3f d1f0 9fbf 9d11 f83f
000002a0: 4cf1 fa3f 84e7 efbf 6491 e2bf dc33 433f
000002b0: 6f72 c2bf c026 a6bf d50e 833f 5258 f13f
000002c0: 6c84 153e e498 bdbf 8b44 723f fc89 a2bd
000002d0: 0104 d0bf e413 1140 25a9 b1bf 42b5 10bf
000002e0: 9bd0 013f 3744 84bf eda0 21bf 7bb8 593f
000002f0: e907 d9be e9cb 663d 1abe 963f 9ff4 8d3f
00000300: 403e 94bf ee96 e0bf 0dd8 ee3f f648 8d3d
00000310: d987 bebf a4c7 f8bf eac3 a7bf 9b2c 04be
00000320: 97f6 bcbe 41b6 4dbf 3854 0140 7ac0 1240
00000330: 88f1 da3f f91a fabf c070 b0bf daeb c63f
00000340: 2a1c 51bf 174f ccbd b6f9 47bf ebee f63f
00000350: e2f7 1040 c870 b03f a9fc e73f 11c6 cdbf
00000360: 03ac ef3f b215 ab3d bd60 08c0 3130 d5bd
00000370: 7ee1 ca3f 6db6 3bbf 0031 05bf fffe 27bf
00000380: f25c 85bf ada6 be3f 80c1 983f 564f b23c
00000390: 2b1b dd3f 26b2 2b3f aef4 6fbf f4b9 d3bf
000003a0: eeba 8d3e 44ae 42bf cb0a 20bf fdc3 a83f
000003b0: fd89 b03f c768 e1be 19f5 22bf b479 463f
000003c0: d8b4 8f3e 03af 353f 7063 633f 683d b63f
000003d0: afc8 efbf 98e4 993d 20d1 1d3f aa19 d33e
000003e0: 87c9 3ebf 2dac ebbf 4db6 fb3f 8810 d5bf
000003f0: 3727 a03f 49bf 0ec0 17c4 013f 1683 e13f

_initial._model.2.bias f4 [16]
0.52755374 -0.3230553 2.426678 -1.2194326 -2.405829 0.1755812 -1.1452875 -0.90476906
1.7829643 -0.0022313104 -2.1894224 -0.65734553 -1.367273 -2.2719166 0.8779345 -2.1520362
00000000: c30d 073f 8167 a5be b14e 1b40 5e16 9cbf
00000010: 1af9 19c0 8fcb 333e c898 92bf f29e 67bf
00000020: 2d38 e43f 2d3b 12bb 7f1f 0cc0 cc47 28bf
00000030: cd02 afbf 1567 11c0 51c0 603f f6ba 09c0

_func._drift._model.0.weight f4 [16, 17]
0.0006877316 -0.0054805917 0.0049410383 -0.0003241717 0.0018216658 0.0011159554 -0.0028074046 0.00042984518
0.0017812881 -0.0053194473 -0.004513277 -0.0043876553 -0.00028721459 -0.0028518832 -0.005418898 0.005254554
0.0046428214 -0.0020386989 -0.0041022846 0.002728397 -0.0009865417 -0.0032025941 -0.005289455 4.6501096e-05
-0.0029327986 0.001502978 0.0014754778 -0.0006940404 0.005835371 -0.0011264876 0.005679174 0.0017276136
0.0017217266 0.0047934237 -0.0019434539 0.0054293447 0.0025990764 -0.0016393986 0.002683625 -0.005633132
0.0007294983 -0.0012784761 -0.0011943491 -0.0046688104 0.002910802 0.0020423078 -0.0024333869 0.004608949
-0.0011112158 -0.00014087955 -0.0035062255 0.0018579088 0.0021120778 0.0010262199 0.0003723356 -0.00569976
0.0049238345 -0.00023159232 0.003457048 0.0035896 -0.005093852 0.0038883153 -0.003973222 0.0018473349
0.005052209 0.0050340625 0.001817326 -0.0051990864 0.0031199837 -0.0035204792 0.00235137 -0.0054870048
-0.0024311768 -0.0044583725 -0.0011308023 -0.0019979966 -0.0056623723 -0.0057270825 0.0007833161 0.0007963837
-0.0023020518 -0.0030963032 -0.0044707255 -0.0035648763 -0.0022465081 -0.0024136808 0.0037035027 0.0015147171
0.004812351 -0.00484084 0.00206764 0.001337939 -0.0047299713 0.0031272687 -0.0025101956 -0.0023195825
0.0020447725 0.0013650194 0.00031540365 0.0052465 -0.0016694955 -0.0035764035 -0.0058371066 0.001246545
-0.004531523 0.0047496567 0.0017314998 -0.001384146 0.0037377265 0.00510521 0.0042915978 -0.0022512341
0.0005229828 -0.003105626 0.0036350312 0.005519179 -0.00016863714 0.0038608972 0.0019741312 0.0028642558
-0.004359521 -0.0040360764 -0.004989678 0.0055978824 0.0023884866 0.004315542 0.004036419 0.004715033
-0.001420311 -0.005691704 0.00071003806 -0.0024005224 0.0024566306 0.00251447 0.0005657628 -0.005606446
0.0015768443 -0.0032106342 -0.0026906724 0.0044843126 -0.0030154926 0.0018559287 -0.0016793177 0.000235807
-0.0027254988 -0.0021157966 0.0049820817 0.0032002425 -0.0049683484 0.0052163973 -0.0035154955 -0.0037694185
-0.0051932014 -0.00033572048 -0.0026726942 -0.005708717 0.0024889375 -0.0014313069 0.0022514774 -0.0044575273
-0.0037152527 -0.003355759 -0.00038308176 -0.0051514856 0.0010361194 -4.9049824e-05 0.0047646887 -0.00033503308
0.005069136 0.002991146 4.538741e-06 -0.00024156939 0.00043248603 0.00050086126 -0.0014303654 -0.0035228156
-0.00070871745 -0.0030407198 -0.0014036841 -0.004747353 0.004655806 0.0027312941 -0.0016840205 -0.0019449296
0.0055746357 -0.005428409 -0.005622661 -0.0011575636 0.0015405712 -0.004458274 0.0036724308 -0.0016171621
0.0044072596 0.0038683885 -0.0040940084 0.0032152433 0.0029351765 -0.0009014867 0.0040963567 -0.0048412937
0.001291465 -0.0013910836 -8.392893e-05 -0.0022170106 -0.0024922187 0.0038897013 0.003403218 0.004119339
-0.004522472 0.0007138079 0.00037522774 -0.0042131017 0.0036834523 -0.0018549428 -0.0030646413 -0.0002506499
0.0027204822 0.0017146919 0.0046792044 0.00054817833 -0.0048963632 -0.0020947035 -0.0008450433 0.0052019516
0.0026077575 0.0015969573 -0.0047597736 -0.0025976994 0.0023427366 -0.003161275 -0.002083025 0.0055734185
0.001219775 0.002508569 0.0037161168 -0.0055418056 0.0016341778 -0.004358766 -0.0018023214 0.002801867
-0.005583754 0.0041092634 0.0017980966 0.003493726 0.0026473159 0.0024760943 -0.00015027545 0.005441786
-0.0031260375 -0.0006361647 -0.0012395979 0.0015955204 0.0029067046 0.0035357825 0.0027556005 -0.0039792573
00000000: e348 343a 8996 b3bb 6fe8 a13b 97f5 a9b9
00000010: f6c4 ee3a 4045 923a 6ffc 37bb d85c e139
00000020: 1c7a e93a c24e aebb 1de4 93bb 52c6 8fbb
00000030: 4a95 96b9 a9e6 3abb 0391 b1bb 652e ac3b
00000040: cf22 983b b19b 05bb 756c 86bb e8ce 323b
00000050: d94e 81ba 9de2 51bb 2a53 adbb 2c0a 4338
00000060: 3234 40bb 93ff c43a d264 c13a 43f0 35ba
00000070: a436 bf3b a7a6 93ba 5d18 ba3b 1871 e23a
00000080: 8fab e13a 2712 9d3b 7ebb feba a5e8 b13b
00000090: 4455 2a3b 17e1 d6ba c2df 2f3b 2396 b8bb
000000a0: cd3b 3f3a 8a92 a7ba b58b 9cba d2fc 98bb
000000b0: 27c3 3e3b 3dd8 053b 7579 1fbb ab06 973b
000000c0: 37a6 91ba 11b9 13b9 b4c8 65bb 1385 f33a
000000d0: c96a 0a3b 3a82 863a 0a36 c339 0dc5 babb
000000e0: 1e58 a13b 97d7 72b9 a48f 623b 7f3f 6b3b
000000f0: 54ea a6bb 1bd3 7e3b cd31 82bb 4622 f23a
00000100: 008d a53b c7f4 a43b 5733 ee3a 195d aabb
00000110: a478 4c3b d7b7 66bb 7119 1a3b 55cc b3bb
00000120: 6154 1fbb 8a17 92bb 6e37 94ba d2f0 02bb
00000130: 6c8b b9bb 40aa bbbb 7457 4d3a 68c4 503a
00000140: 05de 16bb 59eb 4abb 2a7f 92bb b3a0 69bb
00000150: 273a 13bb d82e 1ebb 77b6 723b 7989 c63a
00000160: edb0 9d3b e99f 9ebb 3e81 073b c85d af3a
00000170: e0fd 9abb ddf2 4c3b 1882 24bb 2304 18bb
00000180: 9701 063b 73ea b23a c35c a539 d5ea ab3b
00000190: f9d2 daba 1862 6abb 3345 bfbb 1c63 a33a
000001a0: 2c7d 94bb 02a3 9b3b 7ef3 e23a 3c6c b5ba
000001b0: a5f4 743b 9b49 a73b 88a0 8c3b 7189 13bb
000001c0: c818 093a c287 4bbb b439 6e3b 3bda b43b
000001d0: 30d4 30b9 1b07 7d3b 6d60 013b 3db6 3b3b
000001e0: 50da 8ebb 1041 84bb 7480 a3bb 716e b73b
000001f0: 2888 1c3b 6469 8d3b f043 843b 9080 9a3b
00000200: bb29 baba 7981 babb d921 3a3a 1552 1dbb
00000210: 6cff 203b cec9 243b b34f 143a 47b6 b7bb
00000220: 1dae ce3a 8169 52bb fe55 30bb 24f1 923b
00000230: 929f 45bb a242 f33a 8d1c dcba f642 7739
00000240: 489e 32bb 2da9 0abb bb40 a33b 29bb 513b
00000250: 87cd a2bb 50ee aa3b 3a64 66bb 5908 77bb
00000260: bb2b aabb a403 b0b9 5e28 2fbb 3010 bbbb
00000270: 711d 233b b19a bbba 868d 133b 7310 92bb
00000280: 997b 73bb 4bec 5bbb 5dd8 c8b9 cbcd a8bb
00000290: 66ce 873a d9ba 4db8 1b21 9c3b 61a7 afb9
000002a0: ff1a a63b 1a07 443b 7d4b 9836 ca4d 7db9
000002b0: 4bbf e239 3b4c 033a 197b bbba 0adf 66bb
000002c0: 39c9 39ba d046 47bb d3fb b7ba af8f 9bbb
000002d0: bb8f 983b 83ff 323b 5aba dcba 02ed feba
000002e0: 6fab b63b cce0 b1bb 4d3e b8bb 64b9 97ba
000002f0: feec c93a b716 92bb 2aad 703b f5f6 d3ba
00000300: c66a 903b ca84 7d3b 0827 86bb d5b6 523b
00000310: 175c 403b c051 6cba bb3a 863b b7a3 9ebb
00000320: 6046 a93a 0555 b6ba 0003 b0b8 444b 11bb
00000330: 7e54 23bb 5cea 7e3b 8608 5f3b 85fb 863b
00000340: 3f31 94bb d61e 3b3a 37ba c439 0f0e 8abb
00000350: 1366 713b 8d21 f3ba 26d8 48bb a969 83b9
00000360: 1e4a 323b 83bf e03a 0354 993b a0b3 0f3a
00000370: ac71 a0bb 4b47 09bb e585 5dba 2275 aa3b
00000380: e9e6 2a3b ff50 d13a e0f7 9bbb 2a3e 2abb
00000390: 9988 193b 652d 4fbb 5c83 08bb 39a1 b63b
000003a0: dbe0 9f3a ce66 243b 188a 733b 0998 b5bb
000003b0: e831 d63a fbd3 8ebb df3b ecba 879f 373b
000003c0: ecf7 b6bb 00a7 863b 1cae eb3a fff6 643b
000003d0: 977e 2d3b f845 223b 4293 1db9 0251 b23b
000003e0: 35de 4cbb 4ac4 26ba 017a a2ba c820 d13a
000003f0: 697e 3e3b 96b8 673b 4e97 343b 6e64 82bb

_func._drift._model.0.bias f4 [16]
0.005592979 -0.00037968197 0.0023420018 0.002184305 -2.4002295e-05 -0.0022899013 0.0039644693 -0.0053235427
-0.005270541 -0.0051726657 -0.0021348263 0.0013193768 -0.00033056148 0.000119185854 0.004664259 -0.004694968
00000000: 4f45 b73b 0d10 c7b9 457c 193b 8f26 0f3b
00000010: 8958 c9b7 2b12 16bb 61e8 813b 1d71 aebb
00000020: 81b4 acbb 777f a9bb 71e8 0bbb f0ee ac3a
00000030: 364f adb9 6bf3 f938 a4d6 983b 3fd8 99bb

_func._drift._model.2.weight f4 [16, 16]
-0.0025125698 0.0022374261 -0.0054329634 -0.0059720436 -0.0038194351 -0.0057231775 -0.0020612779 -0.005490015
-0.00069367234 0.0031842678 -0.0049478826 -0.0057659214 0.0034739214 -0.0019720087 0.0024485488 0.002690563
-0.001304493 -0.00040113297 -7.861812e-05 -0.0047505475 0.0054721883 -0.0002988157 0.0021351527 0.00095767033
0.0050081857 -0.0047993227 -0.003956273 -0.00014258815 -0.0023542896 0.0020607205 0.005386746 -0.00032843504
-0.0051799393 0.0050037745 -0.0014991474 0.001932315 -0.001957216 0.005373819 -0.0034384478 0.0007539136
0.0027109676 -0.0049530803 0.0016937678 -0.0034801103 0.005303718 0.004903373 0.0018954985 -0.0029416196
0.00021908112 0.0051367795 0.0037739542 -0.0028414766 -0.0032502182 -0.001500864 -0.0017011442 -0.0029156564
-0.0058928644 5.439609e-05 0.0013190713 -0.0042596487 0.003081253 -0.0026189338 0.0036716545 -0.0026759044
0.005463927 -0.0034800326 0.0012721705 0.0016901732 0.0044073835 0.0029686887 -0.0047527025 -0.001030507
-0.00029969146 0.0032222422 -0.0032985273 0.0031451117 -0.003866339 0.002361297 -0.004278444 0.0014285354
-2.50451e-05 0.004463901 -0.0027794542 0.0015524251 -0.00422907 -0.0028479656 0.0032665452 0.0013174887
0.0047195503 0.0026988336 0.0036916162 -0.0030319265 0.00057470094 -0.0054444545 0.0017588612 -0.0010713565
0.0022019364 -0.0020718884 -0.001652639 0.0035664416 0.0035148347 0.0052728252 -0.0057059084 -0.0020746954
-0.005182219 0.0011844261 0.005219218 -0.0017890481 -0.0006052676 -0.0017317109 -0.0020573733 0.0016540951
0.0040344507 -0.0038971794 0.0048230914 0.004504664 -0.00023858962 -0.0041422066 -0.0046870536 -0.0010379166
-0.00026720334 -0.00462788 -0.005631147 0.001834958 0.00047950554 0.0041569066 0.001157646 0.0023163522
0.00063409423 0.0025007122 -0.0026922124 2.935106e-05 0.0031915219 0.001962432 0.0028062116 -0.0052178754
-4.0435683e-05 -0.003098926 -0.0014176221 0.0026878589 -0.0012073978 -0.0028447313 -0.00012758834 -0.0037627358
-0.0025050957 -0.0026970413 0.005450753 -0.0027505087 -0.00327202 -0.0015359923 0.0043150964 3.1970165e-05
-0.00088831875 0.0033382846 0.0038484938 0.005558401 -0.004091259 0.0031134791 -0.0039478135 -0.0028769386
0.004961009 0.0021040628 -0.0027288212 -0.0015009987 0.0035109348 0.0010605524 -0.0012857326 -0.0015506146
-0.001750722 -0.00093026017 0.0045942063 -0.0042291703 0.0038583986 0.00096089375 0.005957755 0.0019843278
-0.0060036913 -0.0021153314 -0.0010113847 0.0020963338 -0.0055312067 0.0020599307 -0.001241938 -0.003390092
-0.0042631165 -0.0037037537 -0.0053256783 -0.00043593842 0.0023803262 -0.0033598426 -0.0034411703 0.00022801597
-0.004882607 -0.00422565 -0.0015982804 0.003980182 0.003069285 0.0011188155 -0.0019877984 -0.005105121
0.0035416512 0.00022044648 0.002549551 -0.00020883829 0.0032314581 -4.4664557e-05 0.0030903828 -0.0009783081
-0.0019659167 0.001181997 -0.005911001 -0.004513994 0.00059931615 0.0057443883 -0.0016601977 -0.0018971586
0.0035058728 0.005094445 -0.0036263736 0.005377881 -0.0019419204 0.0032519184 0.0017698433 0.000807538
0.004830449 -0.0011248112 -0.00037350925 0.0037687777 -0.0023161366 0.0015050315 0.0035116696 0.000273177
0.0057730814 0.000385829 0.0025822455 0.0033860938 0.004969262 -0.0028003233 -0.00015213863 -0.0024096945
-0.0027020632 -0.0024766908 0.0007561491 -0.004183126 -0.0024139879 0.004745574 0.0019604412 0.0060093617
-0.0008995365 -0.00022823275 -0.0030814272 0.0009165232 0.0014362558 0.004473457 -0.0045268144 -0.0018616796
00000000: eda9 24bb c8a1 123b 0007 b2bb 22b1 c3bb
00000010: 7d4f 7abb 7e89 bbbb 8116 07bb 95e5 b3bb
00000020: 90d7 35ba 26af 503b d921 a2bb 0ef0 bcbb
00000030: bbaa 633b d13c 01bb d577 203b 2854 303b
00000040: 86fb aaba 284f d2b9 c8df a4b8 7baa 9bbb
00000050: 0b50 b33b 5daa 9cb9 ebed 0b3b 2b0c 7b3a
00000060: b51b a43b a343 9dbb a0a3 81bb b783 15b9
00000070: 6d4a 1abb 270d 073b 4d83 b03b ce31 acb9
00000080: 7bbc a9bb b4f6 a33b 0a7f c4ba bb45 fd3a
00000090: a344 00bb dc16 b03b 9557 61bb 49a2 453a
000000a0: 7daa 313b 734d a2bb 6b01 de3a 9012 64bb
000000b0: d0ca ad3b 79ac a03b 6072 f83a 30c8 40bb
000000c0: 24b9 6539 6e52 a83b 7254 773b 1138 3abb
000000d0: 9d01 55bb a4b8 c4ba edf8 deba 9914 3fbb
000000e0: ee18 c1bb 5b27 6438 b0e4 ac3a 8694 8bbb
000000f0: d9ee 493b 6ba2 2bbb 24a0 703b 3a5e 2fbb
00000100: be0a b33b 4211 64bb f5be a63a cd88 dd3a
00000110: d06b 903b 558e 423b 8fbc 9bbb 1412 87ba
00000120: e81f 9db9 412c 533b 1b2c 58bb 381e 4e3b
00000130: 6862 7dbb fdbf 1a3b 3132 8cbb b23d bb3a
00000140: f117 d2b7 ea45 923b 8127 36bb be7a cb3a
00000150: 0394 8abb efa4 3abb 8913 563b 96af ac3a
00000160: 75a6 9a3b eade 303b 0bef 713b 49b3 46bb
00000170: 87a7 163a 6567 b2bb 9789 e63a c26c 8cba
00000180: 5d4e 103b 85c8 07bb 5d9d d8ba f6ba 693b
00000190: 2459 663b aac7 ac3b a1f8 babb 9df7 07bb
000001a0: 9bcf a9bb bf3e 9b3a f905 ab3b 7e7e eaba
000001b0: d2aa 1eba 93fa e2ba ffd4 06bb 39ce d83a
000001c0: 6d33 843b d267 7fbb 060b 9e3b dc9b 933b
000001d0: ea2d 7ab9 59bb 87bb db95 99bb b40a 88ba
000001e0: 6d17 8cb9 79a5 97bb 7c85 b8bb f982 f03a
000001f0: 2566 fb39 a936 883b 27bc 973a f1cd 173b
00000200: 5839 263a fde2 233b d46f 30bb ec36 f637
00000210: da28 513b 259c 003b 6be8 373b b6fa aabb
00000220: 7c99 29b8 5a17 4bbb 81cf b9ba ca26 303b
00000230: 8c41 9eba ac6e 3abb 3cc9 05b9 3b98 76bb
00000240: 882c 24bb d8c0 30bb 3b9c b23b e141 34bb
00000250: 636f 56bb 5953 c9ba a765 8d3b b417 0638
00000260: 10de 68ba 1fc7 5a3b 0337 7c3b 3f23 b63b
00000270: f80f 86bb 830b 4c3b a95c 81bb 058b 3cbb
00000280: f68f a23b 51e4 093b 06d6 32bb 29bd c4ba
00000290: b617 663b 3c02 8b3a 0786 a8ba fe3d cbba
000002a0: 7b78 e5ba b4dc 73ba ff8a 963b da94 8abb
000002b0: 30dd 7c3b 7de4 7b3a 4539 c33b 7f0b 023b
000002c0: 9dba c4bb 5fa1 0abb 7090 84ba a562 093b
000002d0: 203f b5bb e7ff 063b 86c8 a2ba 4e2c 5ebb
000002e0: 9db1 8bbb adba 72bb 0783 aebb aa8e e4b9
000002f0: 3fff 1b3b ce30 5cbb 4285 61bb 9217 6f39
00000300: 47fe 9fbb 5277 8abb 647d d1ba 306c 823b
00000310: 0f26 493b 38a5 923a b945 02bb dc48 a7bb
00000320: 0c1b 683b a727 6739 5e16 273b 9afb 5ab9
00000330: dfc6 533b 3456 3bb8 0588 4a3b 933a 80ba
00000340: 9cd6 00bb 3ded 9a3a 12b1 c1bb 20ea 93bb
00000350: 6d1b 1d3a 6c3b bc3b fe9a d9ba 14aa f8ba
00000360: c9c2 653b 4def a63b 74a8 6dbb f038 b03b
00000370: 0988 feba 231e 553b 16fa e73a f5b0 533a
00000380: be48 9e3b 676e 93ba 90d3 c3b9 99fd 763b
00000390: 53ca 17bb 7a44 c53a 0a24 663b 3239 8f39
000003a0: 1e2c bd3b 1749 ca39 e43a 293b 3ae9 5d3b
000003b0: 31d5 a23b a185 37bb 6787 1fb9 f7eb 1dbb
000003c0: 1915 31bb fa4f 22bb 4f38 463a 9b12 89bb
000003d0: ff33 1ebb c380 9b3b bf7a 003b 2eea c43b
000003e0: dfce 6bba c351 6fb9 c5f1 49bb d542 703a
000003f0: bf40 bc3a 1496 923b ac55 94bb 9a03 f4ba

_func._drift._model.2.bias f4 [16]
0.0051201996 -0.003999925 0.0025322803 -0.0043676468 -0.0027207958 -0.0056706406 -0.0034270575 -0.0029219051
0.0049157664 -0.0038581197 0.0041770353 0.0006577483 0.0026633008 0.0040617213 0.0044861087 -0.004655031
00000000: 59c7 a73b ce11 83bb 9df4 253b 7a1e 8fbb
00000010: 614f 32bb c8d0 b9bb 7c98 60bb 6f7d 3fbb
00000020: 7014 a13b 82d8 7cbb 83df 883b be6c 2c3a
00000030: c68a 2e3b 3018 853b 3500 933b 3b89 98bb

_func._diffusion._model.0.weight f4 [16, 17]
0.07973075 -0.061276138 -0.04054181 0.07407193 -0.112209864 -0.045551497 0.05370084 0.015003968
-0.021075618 0.08302279 0.067658745 0.06143751 0.026722718 0.024507606 -0.031284638 0.02750671
-0.0641444 -0.050249267 0.011387208 -0.057445336 -0.020888522 -0.0120809 0.04291798 0.022463784
0.047274407 0.029788328 -0.01620299 0.013790428 -0.0006641611 0.04420244 0.04099431 0.0035111636
-0.017189935 -0.07629685 0.013705507 0.034766722 0.03902309 0.052551463 -0.035983942 0.054409835
-0.053848945 -0.002165782 0.03401353 0.033467863 0.05310344 0.064761266 -0.05220826 -0.0019330091
0.041579287 0.018289043 0.005799749 0.028478974 0.013306901 -0.010370214 -0.021140672 -0.11923378
0.025353689 -0.01564577 0.026420549 -0.08232326 0.07335148 0.017899275 0.042920355 0.034762964
-0.03008818 -0.077704094 -0.036249936 -0.049022805 -0.08487249 0.013821383 0.026699457 -0.0716068
0.06551519 -0.06869116 0.0030246037 -0.09825827 0.03119677 -0.11115758 -0.04535543 -0.025911769
-0.086729705 -0.035617527 0.0052204574 -0.043839585 0.011715603 0.08668417 -0.08289388 0.021019628
-0.019047674 -0.10114652 -0.05444036 -0.029665666 0.0020193795 -0.077058 0.06567512 -0.023030674
0.07079597 -0.04894157 -0.044503193 0.033059902 0.048033692 0.0022277771 -0.11638334 -0.018537473
-0.02417234 -0.052302238 0.0023276922 -0.06611787 0.008371191 -0.018522505 0.05573539 -0.082261264
-0.05809392 -0.05230573 -0.061320353 -0.037360217 0.043290596 -0.09014886 0.041655548 -0.033996392
-0.0023813287 -0.018530197 -0.084018536 -0.006035942 -0.017914273 -0.036006924 -0.06418803 0.004153297
-0.07218308 -0.052037045 -0.07967794 -0.03112101 0.0064106015 -0.026769117 -0.06566079 0.028977845
0.036806736 -0.07213187 -0.0056306743 0.031581774 -0.09531836 -0.014889399 0.037631605 0.059127625
-0.0016823788 -0.0065323026 0.006286777 0.050350446 -0.045225993 0.030704709 -0.056721173 0.019873604
-0.050791953 -0.036275126 0.04629423 0.0048823147 -0.10972528 0.0053604417 -0.035438944 -0.03341534
-0.06361586 0.04249639 -0.046424963 -0.090330265 -0.040745616 -0.011989027 -0.0032812012 -0.00032751428
-0.07777994 0.044380743 -0.09841022 -0.04438634 -0.04331558 -0.022656968 0.04765883 0.019403847
-0.07017934 -0.043006107 0.060180888 -0.12598485 -0.06673899 -0.029186111 -0.045813072 0.0076320427
-0.03483264 -0.046962883 0.022486525 0.007544377 0.025514435 -0.0029874924 0.035846356 -0.008452041
-0.013614497 -0.0050231563 0.05387818 -0.08323196 0.008790507 -0.028181093 0.061375298 0.03313185
-0.0864744 -0.01936501 0.058506392 -0.06250537 -0.063221365 0.00404524 0.006901994 -0.09100479
0.04034204 0.0028818855 -0.06391983 -0.08089027 0.016010223 -0.045600273 -0.078568 -0.055018984
-0.041268144 0.02674329 -0.0152579425 -0.045595296 0.059266135 0.064189695 0.013112189 -0.0022798493
0.06517512 -0.06812576 -0.037548807 -0.0140251685 0.03220939 -0.05493667 0.07773379 0.06702725
0.053811457 0.022954792 0.017762436 -0.0143585885 -0.014576597 -0.011898455 0.008910635 0.0026550218
0.025606912 0.009070472 -0.017671123 0.009957843 -0.004970826 0.036118858 -0.07609096 0.01540972
0.027425067 0.032145742 -0.0042836317 -0.08948474 -0.031270638 0.03988488 -0.025166554 -0.0035682973
00000000: e049 a33d b0fc 7abd 2b0f 26bd 06b3 973d
00000010: 49ce e5bd 3594 3abd 69f5 5b3d 34d3 753c
00000020: c6a6 acbc da07 aa3d ab90 8a3d e6a5 7b3d
00000030: 9ae9 da3c 2dc4 c83c 5224 00bd c055 e13c
00000040: 245e 83bd 2dd2 4dbd 6991 3a3c cd4b 6bbd
00000050: 681e abbc f8ee 45bc c4ca 2f3d f805 b83c
00000060: cfa2 413d a706 f43c 22bc 84bc 3ff1 613c
00000070: 191b 2eba 9e0d 353d a6e9 273d 8d1b 663b
00000080: e8d1 8cbc 8641 9cbd 108d 603c 8d67 0e3d
00000090: add6 1f3d 3440 573d e663 13bd d9dc 5e3d
000000a0: b690 5cbd cbef 0dbb c551 0b3d 9915 093d
000000b0: fe82 593d 8ea1 843d 54d8 55bd 065d fdba
000000c0: 0b4f 2a3d e7d2 953c d20b be3b bd4c e93c
000000d0: 3005 5a3c d4e7 29bc 342f adbc d730 f4bd
000000e0: 8ab2 cf3c 8f2b 80bc e86f d83c 1999 a8bd
000000f0: 4d39 963d 80a1 923c 41cd 2f3d 9c63 0e3d
00000100: 7d7b f6bc 5323 9fbd d07a 14bd 23cc 48bd
00000110: a1d1 adbd 1573 623c d2b8 da3c 96a6 92bd
00000120: d42c 863d f3ad 8cbd 6e38 463b a23b c9bd
00000130: 5e90 ff3c 96a6 e3bd 9ec6 39bd eb44 d4bc
00000140: 589f b1bd afe3 11bd 5f10 ab3b 2391 33bd
00000150: cdf2 3f3c 7887 b13d 44c4 a9bd 5b31 ac3c
00000160: de09 9cbc e825 cfbd dbfc 5ebd 6905 f3bc
00000170: 9157 043b 96d0 9dbd ad80 863d d3aa bcbc
00000180: 7afd 903d f576 48bd fb48 36bd d269 073d
00000190: fabe 443d e6ff 113b 635a eebd e6db 97bc
000001a0: 1205 c6bc df3a 56bd 328c 183b ce68 87bd
000001b0: 5227 093c 82bc 97bc cb4a 643d 9878 a8bd
000001c0: e4f3 6dbd 883e 56bd 0d2b 7bbd 0707 19bd
000001d0: 7b51 313d f79f b8bd 029f 2a3d cd3f 0bbd
000001e0: 1110 1cbb a4cc 97bc e911 acbd 27c9 c5bb
000001f0: f4c0 92bc ff7b 13bd 0475 83bd 6118 883b
00000200: b9d4 93bd cc24 55bd 302e a3bd 7df1 febc
00000210: 0610 d23b e84a dbbc 2a79 86bd f262 ed3c
00000220: a9c2 163d e0b9 93bd 8581 b8bb e45b 013d
00000230: 4636 c3bd aaf2 73bc 9923 1a3d cf2f 723d
00000240: 4483 dcba ed0c d6bb 4f01 ce3b 453c 4e3d
00000250: e43e 39bd 7188 fb3c 7654 68bd f8cd a23c
00000260: 390b 50bd 3a95 14bd 059f 3d3d d3fb 9f3b
00000270: a6b7 e0bd a5a6 af3b 6d28 11bd 86de 08bd
00000280: 0849 82bd b210 2e3d 1a28 3ebd 13ff b8bd
00000290: e0e4 26bd a06d 44bc 6c09 57bb 39b6 abb9
000002a0: 174b 9fbd 95c8 353d 4c8b c9bd 73ce 35bd
000002b0: ad6b 31bd 1b9b b9bc e835 433d d1f4 9e3c
000002c0: 30ba 8fbd 2c27 30bd 3c80 763d 2c02 01be
000002d0: 74ae 88bd b617 efbc 7da6 3bbd 3716 fa3b
000002e0: acac 0ebd 275c 40bd a935 b83c d236 f73b
000002f0: a603 d13c cec9 43bb a1d3 123d 6e7a 0abc
00000300: 570f 5fbc 4a99 a4bb 5eaf 5c3d 8575 aabd
00000310: 0f06 103c 09dc e6bc aa64 7b3d 43b5 073d
00000320: 7d19 b1bd 5fa3 9ebc 66a4 6f3d d102 80bd
00000330: 347a 81bd ef8d 843b 1f2a e23b b860 babd
00000340: b23d 253d 04de 3c3b 66e8 82bd cca9 a5bd
00000350: df27 833c 5ac7 3abd 42e8 a0bd 965b 61bd
00000360: c908 29bd be14 db3c 73fc 79bc 22c2 3abd
00000370: 0cc1 723d e375 833d 82d4 563c 8669 15bb
00000380: 897a 853d 8585 8bbd c7cc 19bd d2c9 65bc
00000390: feed 033d 4605 61bd e532 9f3d 9545 893d
000003a0: 6769 5c3d b00b bc3c 8782 913c 4940 6bbc
000003b0: aed2 6ebc bdf1 42bc e9fd 113c e0ff 2d3b
000003c0: 96c5 d13c 519c 143c 08c3 90bc 3926 233c
000003d0: 50e2 a2bb 5ef1 133d 94d5 9bbd 0d79 7c3c
000003e0: 89aa e03c 41ab 033d b55d 8cbb c643 b7bd
000003f0: a415 00bd 545e 233d 172a cebc 18da 69bb

_func._diffusion._model.0.bias f4 [16]
0.10737788 0.014350547 0.014902154 0.09740182 -0.011179463 0.014650601 -0.058141597 -0.09999591
0.05854834 -0.027344406 -0.019327722 0.0499734 -0.08279379 0.09249629 0.07749073 0.008475775
00000000: efe8 db3d 8f1e 6b3c 2a28 743c 9b7a c73d
00000010: 112a 37bc 1309 703c e225 6ebd a8ca ccbd
00000020: 62d0 6f3d 6001 e0bc 2c55 9ebc e8b0 4c3d
00000030: ca8f a9bd b26e bd3d 76b3 9e3d fadd 0a3c

_func._diffusion._model.2.weight f4 [48, 16]
0.07246488 0.05258923 -0.008002674 0.046105504 -0.097202234 0.040498223 0.004317909 -0.005747065
0.037362978 -0.0857504 0.010998002 0.06132834 -0.05620861 -0.025321519 -0.018322138 0.07078647
0.03520147 -0.03963124 -0.02773063 0.010339365 -0.07178357 0.05040054 -0.034129906 -0.08755106
0.0772858 -0.008972253 0.00894023 0.06701293 -0.014329334 -0.02582203 -0.029620383 -0.014904737
0.009717096 -0.023241362 -0.034102526 0.09708102 -0.08538396 0.039587222 -0.04496088 0.024928903
-0.013484454 -0.03020744 -0.088985495 -0.021613978 -0.029540868 0.0008792015 0.02226605 -0.019599894
0.073144294 0.05800249 -0.05193419 0.013812399 0.0055566025 -0.017151203 -0.043197367 -0.033810735
0.055511847 -0.042120945 -0.018169645 -0.012325285 -0.02331294 -0.0063485536 0.0624249 0.04026571
0.067134865 0.0073240255 -0.0084828455 0.09509305 -0.041789014 0.067398414 -0.06820065 0.009258289
0.04708759 -0.08227744 -0.03594209 -0.038090084 -0.02730932 0.0055565205 0.0025233007 0.014022446
0.090635166 0.016868955 -0.049882088 0.06684551 -0.028474376 0.044671707 -0.029129753 -0.018073373
0.03445157 -0.041747585 -0.0049113105 0.059735514 -0.09240759 0.023510389 0.02036033 0.060742494
0.07886629 0.03885256 -0.059252765 0.025844598 0.004418957 0.007872245 -0.044221602 -0.071004525
0.051461916 -0.020782592 -0.040570404 0.04553872 -0.044933893 -0.0046481276 0.07441616 0.05110491
0.08612618 0.0059151333 -0.034330416 0.015882876 -0.06279095 0.00077337364 -0.012900362 -0.061870605
0.09296385 -0.0846829 -0.024259154 0.058066074 -0.08838091 0.04311357 0.08078993 0.04013603
-0.02703547 -0.022899745 4.6428526e-05 0.03693075 -0.054818504 0.046015467 -0.023017436 0.020104062
0.04127965 0.008170285 -0.044557486 0.023210654 0.0058664926 0.027788542 0.06726305 0.05765986
-0.001355494 -0.014053629 -0.009511995 0.018413117 -0.027377654 0.04627318 0.0093172565 -0.07804787
0.04739774 -0.03747591 -0.06169101 0.065338425 -0.08999767 0.002514379 0.059755594 -0.030807676
0.0012578752 -0.0073514944 0.041497376 0.043043453 -0.10335166 0.0033600137 -0.06471019 -0.071170285
0.01470152 -0.064720266 -0.10090327 0.039163504 -0.052894305 0.07298619 0.019472044 0.06436566
0.08580505 0.0028148529 -0.0387526 0.03011261 -0.09022674 0.02522852 -0.06549617 -0.07782508
-0.022639498 -0.020161277 0.014141319 -0.012263318 -0.08238544 0.01717411 0.03252948 0.07192281
-0.033074997 0.021765457 0.0111956075 -0.04989861 0.0021469377 -0.050256714 0.0077025606 -0.027759615
-0.016822815 0.021374734 0.05771904 -0.01786772 0.060414393 -0.04886027 -0.08357482 -0.07251862
0.01009397 -0.007929172 -0.0016021106 -0.097885214 0.0155929 -0.0626162 0.005011175 0.032493047
-0.07071439 0.013798735 0.043426502 -0.041585557 0.053930763 0.029479422 0.03723711 0.024697639
-0.051753223 0.02344813 0.036321133 -0.05085445 0.07009857 0.010115501 0.032209385 0.08390001
-0.028000403 0.07391879 0.0064787744 -0.023651253 0.081691734 -0.05217035 -0.037653543 -0.078202054
-0.0072497274 -0.006315905 -0.042605594 0.02868788 -0.040412545 -0.0010292109 -0.06625502 -0.019770313
0.0048638876 -0.08866524 -0.06339378 0.04979944 0.0015189642 0.066744916 -0.002728257 0.030184854
00000000: 7868 943d ce67 573d a61d 03bc 20d9 3c3d
00000010: f711 c7bd 77e1 253d 3f7d 8d3b e051 bcbb
00000020: ec09 193d e89d afbd f730 343c 6d33 7b3d
00000030: 003b 66bd 136f cfbc 4f18 96bc 7ff8 903d
00000040: 6b2f 103d 5e54 22bd 592b e3bc 7166 293c
00000050: 4403 93bd cc70 4e3d cdcb 0bbd f84d b3bd
00000060: 0448 9e3d 5b00 13bc 0b7a 123c 133e 893d
00000070: 95c5 6abc b988 d3bc 72a6 f2bc ff32 74bc
00000080: 7434 1f3c ab64 bebc 17af 0bbd 6ad2 c63d
00000090: c9dd aebd 3626 223d e628 38bd b337 cc3c
000000a0: e6ed 5cbc 9875 f7bc 073e b6bd cc0f b1bc
000000b0: b1ff f1bc 377a 663a 4b67 b63c f58f a0bc
000000c0: adcc 953d 0594 6d3d f2b8 54bd 664d 623c
000000d0: 2914 b63b ae80 8cbc b9ef 30bd 207d 0abd
000000e0: 6460 633d 0387 2cbd 82d8 94bc feef 49bc
000000f0: c7fa bebc 8707 d0bb 40b1 7f3d a8ed 243d
00000100: 017e 893d 61fe ef3b a2fb 0abc 25c0 c23d
00000110: f52a 2bbd 2e08 8a3d c8ac 8bbd 14b0 173c
00000120: ebde 403d 1381 a8bd 0338 13bd 5904 1cbd
00000130: ccb7 dfbc 7913 b63b f65d 253b 67be 653c
00000140: ee9e b93d c330 8a3c 2951 4cbd 4ce6 883d
00000150: 1843 e9bc aef9 363d 85a1 eebc 9c0e 94bc
00000160: 171d 0d3d 84ff 2abd 0fef a0bb 3aad 743d
00000170: 3140 bdbd dc98 c03c b5ca a63c 1fcd 783d
00000180: a684 a13d dd23 1f3d 07b3 72bd 0db8 d33c
00000190: e6cc 903b 97fa 003c b621 35bd d26a 91bd
000001a0: bbc9 523d 4140 aabc 272d 26bd cf86 3a3d
000001b0: 9a0c 38bd 524f 98bb 8067 983d 6253 513d
000001c0: ec62 b03d bcd3 c13b 0d9e 0cbd ce1c 823c
000001d0: 8b98 80bd 3abc 4a3a 0a5c 53bc 086c 7dbd
000001e0: d563 be3d 3a6e adbd 22bb c6bc b1d6 6d3d
000001f0: 0d01 b5bd db97 303d 3175 a53d ae65 243d
00000200: 7d79 ddbc 3f98 bbbc 40bc 4238 b344 173d
00000210: 5e89 60bd b77a 3c3d 108f bcbc 46b1 a43c
00000220: da14 293d a9dc 053c e981 36bd 4524 be3c
00000230: b53b c03b cca4 e33c 36c1 893d bf2c 6c3d
00000240: d5aa b1ba 3141 66bc 33d8 1bbc 1bd7 963c
00000250: 1a47 e0bc f288 3d3d 68a7 183c 90d7 9fbd
00000260: 2224 423d 5780 19bd b6af 7cbd 27d0 853d
00000270: b350 b8bd 48c8 243b 48c2 743d 6160 fcbc
00000280: 4adf a43a cee4 f0bb 27f9 293d 554e 303d
00000290: 09aa d3bd ad33 5c3b c786 84bd bac1 91bd
000002a0: a5de 703c 0f8c 84bd 60a6 cebd e969 203d
000002b0: b3a7 58bd c979 953d d683 9f3c 25d2 833d
000002c0: 8fba af3d 6579 383b 0cbb 1ebd b8ae f63c
000002d0: ccc8 b8bd 0bac ce3c db22 86bd c162 9fbd
000002e0: 7876 b9bc 4329 a5bc feb0 673c 15ec 48bc
000002f0: b3b9 a8bd b8b0 8c3c a23d 053d 444c 933d
00000300: a679 07bd 794d b23c c86d 373c 7c62 4cbd
00000310: a3b3 0c3b fcd9 4dbd c365 fc3b 2268 e3bc
00000320: 00d0 89bc 111a af3c cd6a 6c3d 535f 92bc
00000330: 1575 773d b521 48bd 4629 abbd a484 94bd
00000340: 2e61 253c 5ce9 01bc e9fd d1ba 0b78 c8bd
00000350: 5d79 7f3c ec3c 80bd c834 a43b 6e17 053d
00000360: b5d2 90bd 1714 623c fddf 313d 9e55 2abd
00000370: 81e6 5c3d d47e f13c f185 183d b452 ca3c
00000380: 30fb 53bd 4b16 c03c 78c5 143d c14c 50bd
00000390: d78f 8f3d 7cbb 253c fded 033d c5d3 ab3d
000003a0: 1a61 e5bc bc62 973d e64b d43b 46c0 c1bc
000003b0: ff4d a73d 94b0 55bd 9a3a 1abd 6628 a0bd
000003c0: 1f8f edbb a7f5 cebb 3483 2ebd d802 eb3c
000003d0: a087 25bd 96e6 86ba b6b0 87bd 5af5 a1bc
000003e0: 3f61 9f3b 1f96 b5bd 99d4 81bd 7ffa 4b3d
000003f0: fb17 c73a 8fb1 883d 8fcc 32bb 3a46 f73c

_func._diffusion._model.2.bias f4 [48]
0.06725795 0.086133905 0.09861627 0.07834506 0.029536892 0.05149847 0.037064783 0.057890214
0.022212625 0.028368201 0.10955897 0.026695978 -0.04210184 -0.014959533 -0.07775909 0.001194282
0.0057764156 0.068502076 -0.054674417 -0.10516661 -0.09192738 -0.010058155 -0.050139025 -0.10232297
-0.023759833 -0.02118198 0.05800781 -0.071047604 -0.02609479 -0.043187406 -0.013613787 -0.05699344
-0.10734469 0.09394266 0.07144953 0.086614385 0.042838167 0.010226928 0.018243857 0.0046387967
-0.02571618 -0.07077659 0.04592122 0.07065106 0.09582442 -0.05426077 -0.01763376 0.0012286454
00000000: 89be 893d f966 b03d 54f7 c93d 6073 a03d
00000010: 5af7 f13c 0ff0 523d 3ed1 173d 4a1e 6d3d
00000020: 40f7 b53c 6e64 e83c 7460 e03d 86b1 da3c
00000030: fb72 2cbd d418 75bc 2840 9fbd 7489 9c3a
00000040: 1648 bd3b d14a 8c3d 48f2 5fbd 9761 d7bd
00000050: 6c44 bcbd f6ca 24bc 945e 4dbd b58e d1bd
00000060: fba3 c2bc d585 adbc 9999 6d3d 6881 91bd
00000070: bec4 d5bc 47e5 30bd 5c0c 5fbc f471 69bd
00000080: 88d7 dbbd 0265 c03d 2254 923d e262 b13d
00000090: 1377 2f3d d88e 273c 2474 953c 0c01 983b
000000a0: bdaa d2bc 51f3 90bd e417 3c3d 81b1 903d
000000b0: 983f c43d 8b40 5ebd ad74 90bc 800a a13a

_readout.weight f4 [1, 16]
-0.09552145 -0.19291149 -0.2402647 -0.20692296 0.079071 -0.099374406 0.009158231 0.12916477
-0.027437272 0.071261615 0.08783215 -0.27019235 -0.23638752 -0.00460953 -0.06855384 0.14578207
00000000: c0a0 c3bd 978a 45be f307 76be 9de3 53be
00000010: faef a13d cf84 cbbd 680c 163c c543 043e
00000020: 21c4 e0bc 9cf1 913d 58e1 b33d a756 8abe
00000030: 920f 72be 8a0b 97bb f565 8cbd e547 153e

_initial._model.0.weight f4 [16, 2]
-2.4845447e-06 -0.3472682 -2.6608323e-06 1.2013574 3.6983835e-07 -0.71588445 5.626195e-06 -0.56909376
-4.19436e-06 -0.3150028 2.8639274e-06 -0.69486845 2.9144678e-06 0.8850995 -1.698576e-06 1.329744
2.1140283e-07 -0.7406798 -3.235948e-06 0.7275106 -3.864789e-06 0.11749355 5.66194e-06 -0.34153435
-5.8482487e-06 -1.3853025 2.7922017e-06 0.36277184 1.1998302e-06 0.61085516 -1.6537408e-06 0.6132271
00000000: 27bc 26b6 23cd b1be c090 32b6 14c6 993f
00000010: 328e c634 3444 37bf a6c8 bc36 21b0 11bf
00000020: 47bd 8cb6 0c48 a1be e631 4036 e6e2 31bf
00000030: 2d96 4336 e195 623f a1fa e3b5 0d35 aa3f
00000040: f8fd 6234 319d 3dbf 2a29 59b6 223e 3a3f
00000050: 49ae 81b6 75a0 f03d b2fb bd36 97dd aebe
00000060: 133c c4b6 9851 b1bf a961 3b36 3bbd b93e
00000070: da09 a135 0161 1c3f 1af6 ddb5 74fc 1c3f

_initial._model.0.bias f4 [16]
-0.50418216 -0.030631438 0.07616379 0.54593104 -0.24724658 0.0016435 -0.3223393 -0.51886666
0.75474906 0.1448577 -0.07323932 -0.122750245 -0.21555917 -0.34798357 0.06501734 0.3695694
00000000: 1512 01bf c8ee fabc c3fb 9b3d 23c2 0b3f
00000010: 352e 7dbe b66a d73a a809 a5be 72d4 04bf
00000020: 3c37 413f 9455 143e 7ffe 95bd 7b64 fbbd
00000030: 8bbb 5cbe e72a b2be d027 853d 3338 bd3e

_initial._model.2.weight f4 [16, 16]
-0.03849222 -0.48415944 -0.019230228 -0.06147024 -0.24664049 -0.1534986 -0.1526535 -0.19151655
-0.04436674 -0.214416 0.0012807287 -0.168348 -0.18470237 -0.10682475 0.08540008 -0.20694515
0.10180925 0.37497333 0.42040882 0.27091715 0.16479792 0.37977278 0.2332939 0.2653327
0.20817311 0.21975218 -0.003364563 0.13907948 0.5043771 -0.17832853 0.06506495 0.28113118
-0.27873588 0.3786472 0.13030303 0.15551652 -0.3720591 0.14795402 0.06849932 0.12242009
0.25038308 0.4431123 -0.26985064 -0.2662366 0.2825966 -0.027143106 0.06692225 0.5302595
0.014942938 0.6029151 0.1720054 0.10040555 -0.07179912 0.088546544 0.32461584 0.42673904
0.17995352 0.11411603 -0.19224721 0.17480028 0.2750135 -0.034631744 0.31939343 0.021116244
-0.108328566 0.44919717 0.1873604 0.15636726 -0.06451602 0.3338359 0.094727814 0.49329427
-0.15788351 0.2997501 -0.19383208 0.116338134 0.60706466 0.032979716 -0.07791637 -0.015386109
0.024728708 0.5131051 -0.061751787 0.09335288 0.23683763 0.21843202 0.27788675 0.4656258
0.08233257 0.3004983 0.12993568 -0.07870494 0.31579074 0.1636667 0.10859466 -0.068192564
0.21460326 -0.0035607892 0.0055934894 -0.10414868 0.31167474 -0.08929079 0.094034836 -0.011305456
-0.16460028 -0.41630274 0.09186544 0.39776874 0.14584689 -0.010781966 -0.05426443 -0.075805284
-0.15625304 -0.31799212 0.051644303 -0.28396067 0.07586874 -0.13043942 -0.17250006 -0.4113208
-0.13546215 0.0082303565 0.12419276 -0.036324557 -0.5997997 0.066544384 0.04795171 -0.23888516
0.3076259 0.13513455 -0.057384454 0.112687655 0.1467871 0.086622275 0.32514897 0.50186557
-0.10851069 0.21746655 -0.008048266 0.18840215 0.6128816 0.13133591 -0.16543137 0.22257261
0.13492557 -0.2285708 -0.23353286 -0.010451197 -0.13300784 -0.45749503 -0.24484152 -0.2871086
-0.21228915 -0.0060639773 0.20562902 0.059141733 -0.6243764 -0.1287143 -0.12121753 0.015257817
-0.12026697 0.1333289 0.18912917 -0.14628391 -0.06876495 0.4140005 0.28968087 0.3294033
0.0079858005 0.24560408 -0.09684208 0.27462995 0.2167129 0.17067116 -0.018558709 -0.053748995
-0.08908377 0.2447274 0.18197682 0.10174979 0.20141809 0.36024478 0.2021364 0.10477447
0.20590338 0.04936834 -0.08337627 0.07557301 0.58795863 -0.14728567 0.15907694 0.08161143
-0.03570465 0.29522124 0.13691191 -0.18358113 0.081989005 0.31108195 0.3143487 0.34662244
0.20163646 0.2306296 -0.08428598 -0.07668412 0.5494446 0.34173915 0.21775283 0.17141491
0.15643933 0.37219402 0.37989214 0.27198878 -0.07297868 0.46582484 0.31959447 0.07425266
0.1704532 0.0076763304 -0.1102504 0.10289469 0.60760474 -0.15443899 0.16844366 0.21153498
0.31629854 -0.24160624 0.3035119 0.17768615 0.15264158 0.44520926 0.15963627 -0.041376032
-0.0666895 -0.08016148 -0.025730139 0.4119481 0.3573467 -0.060860127 -0.072214395 -0.30475903
0.0005135947 -0.4119837 -0.23301712 0.0662643 -0.23308331 -0.20116782 -0.29386067 -0.4038852
-0.15751341 -0.13138685 -0.019951478 -0.20445329 -0.46007115 -0.23204246 -0.0021566707 -0.0825839
00000000: 05aa 1dbd bfe3 f7be b688 9dbc 38c8 7bbd
00000010: 538f 7cbe bd2e 1dbe 3351 1cbe ea1c 44be
00000020: e6b9 35bd de8f 5bbe 20de a73a 6b63 2cbe
00000030: 9e22 3dbe efc6 dabd 3de6 ae3d 6ee9 53be
00000040: 5e81 d03d 81fc bf3e d33f d73e a7b5 8a3e
00000050: c9c0 283e 9471 c23e 99e4 6e3e b0d9 873e
00000060: 552b 553e b706 613e 0080 5cbb da6a 0e3e
00000070: dc1e 013f c19b 36be c640 853d 6df0 8f3e
00000080: 78b6 8ebe 0cde c13e 286e 053e b93f 1f3e
00000090: 887e bebe 4281 173e 5f49 8c3d 62b7 fa3d
000000a0: 3632 803e 9edf e23e dd29 8abe 2a50 88be
000000b0: 80b0 903e 385b debc 880e 893d 16bf 073f
000000c0: 3ad3 743c a558 1a3f 2f22 303e 6da1 cd3d
000000d0: 6b0b 93bd e457 b53d 0c34 a63e 8a7d da3e
000000e0: bc45 383e aab5 e93d 74dc 44be d8fe 323e
000000f0: 92ce 8c3e 04da 0dbd 8987 a33e f9fb ac3c
00000100: 5edb ddbd 2cfd e53e 68db 3f3e bd1e 203e
00000110: fa20 84bd 8aec aa3e a800 c23d 1191 fc3e
00000120: 37ac 21be d878 993e eb7b 46be b042 ee3d
00000130: 9768 1b3f bd15 073d 9e92 9fbd 0516 7cbc
00000140: dc93 ca3c db5a 033f 71ef 7cbd cb2f bf3d
00000150: 9085 723e a5ac 5f3e 2c47 8e3e 8166 ee3e
00000160: fa9d a83d eada 993e dc0d 053e 0e30 a1bd
00000170: 53af a13e 3e98 273e e166 de3d 8ba8 8bbd
00000180: f5c0 5b3e 215c 69bb 9749 b73b e74b d5bd
00000190: d593 9f3e 17de b6bd 5695 c03d 853a 39bc
000001a0: fa8c 28be a225 d5be f323 bc3d 58a8 cb3e
000001b0: e358 153e d8a6 30bc 6144 5ebd cd3f 9bbd
000001c0: cc00 20be ddcf a2be fa88 533d 4b63 91be
000001d0: 1261 9b3d e991 05be dba3 30be a498 d2be
000001e0: 97b6 0abe 9ed8 063c c658 fe3d 0fc9 14bd
000001f0: 798c 19bf 6c48 883d 0369 443d 509e 74be
00000200: 2481 9d3e b660 0a3e f60b 6bbd c9c8 e63d
00000210: 5c4f 163e 0567 b13d ed79 a63e 437a 003f
00000220: da3a debd 8daf 5e3e e0dc 03bc 7eec 403e
00000230: cfe5 1c3f ec7c 063e d766 29be 13ea 633e
00000240: ee29 0a3e 770e 6abe 3d23 6fbe 7f3b 2bbc
00000250: 3533 08be ca3c eabe bcb7 7abe e6ff 92be
00000260: 5462 59be 54b4 c6bb 6a90 523e 9a3e 723d
00000270: 22d7 1fbf aecd 03be e540 f8bd ecfb 793c
00000280: 874e f6bd 5f87 083e 14ab 413e 73cb 15be
00000290: a3d4 8cbd e0f7 d33e 0d51 943e 8da7 a83e
000002a0: e0d6 023c a37f 7b3e 2455 c6bd 4c9c 8c3e
000002b0: fde9 5d3e 6cc4 2e3e 6f08 98bc e827 5cbd
000002c0: 8d71 b6bd d299 7a3e 2258 3a3e 3262 d03d
000002d0: 8b40 4e3e 0172 b83e d8fc 4e3e ff93 d63d
000002e0: 56d8 523e 7536 4a3d 2ec1 aabd 06c6 9a3d
000002f0: 7584 163f 0ed2 16be 11e5 223e e523 a73d
00000300: 0a3f 12bd 3d27 973e a332 0c3e b1fc 3bbe
00000310: dae9 a73d 2246 9f3e 50f2 a03e 7f78 b13e
00000320: ca79 4e3e 2a2a 6c3e 219e acbd 900c 9dbd
00000330: 67a8 0c3f 6ff8 ae3e 99fa 5e3e 6487 2f3e
00000340: a231 203e 3790 be3e 3981 c23e 1d42 8b3e
00000350: d975 95bd 9880 ee3e e3a1 a33e c711 983d
00000360: 498b 2e3e ba89 fb3b f6ca e1bd 74ba d23d
00000370: fc8b 1b3f 4125 1ebe 7f7c 2c3e a09c 583e
00000380: e2f1 a13e a067 77be e965 9b3e 5cf3 353e
00000390: 134e 1c3e 78f2 e33e b177 233e ea79 29bd
000003a0: 8194 88bd b42b a4bd 03c8 d2bc ddea d23e
000003b0: 26f6 b63e 7848 79bd 24e5 93bd 6009 9cbe
000003c0: c2a2 063a 87ef d2be 0a9c 6ebe 94b5 873d
000003d0: 64ad 6ebe f0fe 4dbe e874 96be 0aca cebe
000003e0: 324b 21be 468a 06be 4871 a3bc 345c 51be
000003f0: 728e ebbe 8a9c 6dbe ee56 0dbb bf21 a9bd

_initial._model.2.bias f4 [16]
0.33716854 0.10761149 0.31610307 -0.019082345 -0.21707818 0.11331332 -0.34015283 0.02813676
-0.24557278 -0.22728038 0.103630565 0.19156364 -0.079793744 0.0430851 -0.29156327 0.15020391
00000000: 5ba1 ac3e 6a63 dc3d 43d8 a13e 9452 9cbc
00000010: be49 5ebe d010 e83d 8328 aebe 107f e63c
00000020: 6e77 7bbe 30bc 68be 433c d43d 4229 443e
00000030: e76a a3bd 007a 303d c847 95be 0ecf 193e
