hyperparameter_tuning/ray_results/SUD_learning_rate_tuning/MyTrainableClass_f318c934_20_batch_size=16,name=SUD_v2,patience=1000,steps=200,steps_per_print=5,swa_step_start=2500,t_size=7,trai_2024-03-12_14-36-54/checkpoint_000000/checkpoint.pt (torch, 61346 bytes, 66 tensors)

_initial._model.0.weight f4 [16, 5]
000000 cf 59 54 bf a7 d5 06 c0 57 df b8 bf fa 41 91 bf
       -0.8294954 -2.1067903 -1.4443158 -1.134826
000010 59 bf 31 c0 6e 5f e0 bf eb 65 5b c0 9c f8 71 c0
       -2.777304 -1.7529123 -3.4280956 -3.780799
000020 2d 12 51 c0 5f 20 21 40 96 5e 39 40 a1 ee 20 c0
       -3.2667344 2.5176008 2.896398 -2.5145648
000030 e9 4c 52 40 9b 29 63 c0 cb 5e ff 3f 4d f1 81 3f
       3.2859442 -3.5494144 1.9950804 1.0151764
000040 c3 3b 4b 40 a2 31 14 c0 40 15 4b 40 42 6e 65 3e
       3.1755226 -2.3155293 3.173172 0.22405341
000050 e2 62 2f 40 94 4d 8b bf fc 0f 59 be 0d 76 1c c0
       2.7404103 -1.088305 -0.21197504 -2.4447052
000060 46 22 af 3f 12 42 2d c0 15 85 87 bf 06 ae 3e c0
       1.3682334 -2.7071576 -1.0587488 -2.9793715
000070 19 8f d3 bf 2b ac f7 3d de 06 4f c0 48 f6 46 3f
       -1.6528045 0.12093385 -3.2347941 0.77719545
000080 9a 57 27 c0 06 c9 b6 bd 21 38 65 bf 17 62 5c bf
       -2.6147218 -0.08925061 -0.8953877 -0.86087173
000090 15 61 51 bf 51 9b ca 3f ad c3 1d 3f 6c be 02 40
       -0.8178876 1.5828649 0.616267 2.0428724
0000a0 20 8d 0b bf 86 36 68 c0 c3 7c 5c c0 75 c1 6c 40
       -0.54512215 -3.6283278 -3.4451149 3.6993077
0000b0 00 07 5c c0 d4 eb 26 40 fe 66 22 3f dc 59 cb 3f
       -3.4379272 2.6081438 0.63438404 1.5886798
0000c0 5d 52 df 3f 98 eb fd be 85 87 3b 40 2d 9e fa 3d
       1.744701 -0.49593806 2.9301465 0.12237201
0000d0 c6 40 f1 bf 2b 8c 1f bf 02 3b c0 bf a0 1b 87 3f
       -1.8847892 -0.62323254 -1.5018008 1.0555305
0000e0 b8 ae 2c c0 4a ec 61 c0 c4 26 64 40 b8 d0 43 3f
       -2.698164 -3.530047 3.564866 0.76490355
0000f0 25 b3 86 3e c8 6a 9b 3f 05 16 12 40 d2 cb 40 be
       0.2630855 1.2141962 2.282594 -0.18827751
000100 3a fe 23 40 87 2a 78 c0 60 9c f4 bf 63 0b 20 bf
       2.5623918 -3.8775957 -1.9110222 -0.62517375
000110 2c 50 e6 3f 8a 83 18 c0 74 85 3c 40 2a 9d 4f 40
       1.7993217 -2.3830285 2.9456453 3.2439675
000120 b5 55 42 40 1d 47 77 c0 19 b1 55 c0 1d bb 83 bf
       3.0364811 -3.8637154 -3.3389342 -1.0291477
000130 2c a9 f1 3e 1b cf 49 40 e4 83 41 3f 76 37 5a 40
       0.4719938 3.1532657 0.75591874 3.409635

_initial._model.0.bias f4 [16]
000000 0d 80 f6 3f d7 8f 5c c0 ef 66 c4 bf 0b da 47 3f
       1.9257828 -3.4462793 -1.5343913 0.7806708
000010 e1 79 d3 3e bf cd 60 c0 25 8a d0 bf b1 04 1e 40
       0.41303924 -3.5125577 -1.6292158 2.4690363
000020 f6 2a e8 3f 31 f9 47 bf f1 4c 60 c0 a6 2f 64 40
       1.8138111 -0.7811461 -3.5046961 3.5654082
000030 1c e1 03 c0 21 15 a5 3f 1d aa 19 bf 65 ca 43 3e
       -2.0606146 1.2897073 -0.600252 0.19120176

_initial._model.2.weight f4 [16, 16]
000000 bc a1 5f be d7 08 a0 be 08 37 3d 3d 9f 34 c3 bf
       -0.2183904 -0.31256744 0.04619506 -1.5250434
000010 05 8f fa 3f 07 66 d2 bf 63 47 30 3f 36 43 2f 3e
       1.9574896 -1.6437386 0.6885893 0.17115483
000020 62 cf 4d bf 3d 5d df 3f c6 89 9b be 36 dd bf bf
       -0.80394566 1.7450329 -0.3037855 -1.4989383
000030 cf c0 20 3f 5c 67 2b bf a5 1d d2 3f b7 bc 04 c0
       0.627942 -0.6695459 1.6415297 -2.0740182
000040 f8 c9 93 3f 44 dd 04 bf 97 67 19 c0 93 ef 06 40
       1.1546011 -0.51900125 -2.3969476 2.1083724
000050 57 98 be 3f f6 65 1f 3f 8e dd 63 3f ed b9 dd bf
       1.489024 0.62264955 0.8900994 -1.7322365
000060 55 00 14 40 3a 49 23 3a 77 88 ef be 8b 52 03 c0
       2.3125203 0.0006228868 -0.46783802 -2.051913
000070 86 69 b3 bf 2c c8 c8 be 65 f5 69 bf 93 f5 95 3f
       -1.4016578 -0.3921522 -0.9139007 1.1715568
000080 31 5b 32 bd d7 62 d9 3f 15 af 0d 3f 40 62 74 bf
       -0.043544 1.6983289 0.5534528 -0.9546242
000090 d2 6a 6a 3f fc 7e 15 40 e9 d9 39 bf ed e5 50 bf
       0.91569245 2.3358755 -0.7259813 -0.8160084
0000a0 f2 e4 68 be e9 8d 49 3f f4 54 ae bf 28 38 54 be
       -0.22743586 0.7873216 -1.3619676 -0.20724547
0000b0 7d 87 a6 bf c5 32 c2 3f 5b a6 ff be d8 c8 be 3f
       -1.3010098 1.5171744 -0.49931607 1.4905043
0000c0 b0 f6 c4 be e7 bb f8 bf b1 7e 80 3f 3e 5f 98 bf
       -0.38469458 -1.9432343 1.0038663 -1.1904066
0000d0 df ef f2 bf 90 a9 13 40 2e 7b ec be 40 9b 93 3e
       -1.8979453 2.3072243 -0.4618773 0.28829384
0000e0 2a 5f c6 bf b8 a0 02 c0 3f 3d b5 3f 88 30 43 bf
       -1.5497792 -2.0410595 1.4159316 -0.7624593
0000f0 04 77 5c 3f 32 09 3f 3f 23 e1 75 3f 49 69 0f c0
       0.86119103 0.74623406 0.96046656 -2.240801
000100 e2 fb 20 bf 64 68 02 3f 8c bb d5 bf e9 61 f7 3f
       -0.6288434 0.5094054 -1.669786 1.9326755
000110 64 cf b2 3f fe cd 0d c0 43 93 e2 3f a0 60 4b 3f
       1.396954 -2.2156978 1.7701191 0.79444313
000120 c1 d0 ce 3f 29 b5 bb 3f a1 c0 93 3f aa 57 5f 3f
       1.6157457 1.4664661 1.1543161 0.8724314
000130 46 b9 b2 3f 69 f6 46 bf 69 58 a5 3f 6e da e7 bf
       1.3962791 -0.7771974 1.2917606 -1.8113534
000140 66 0d 2a bf c5 d4 0c 3f 3c d4 01 c0 e3 c3 1b 40
       -0.66426694 0.5501216 -2.0285788 2.433831
000150 a3 24 8b bf 5f c1 ab bf 57 8e d0 bf 5a 70 09 bf
       -1.0870556 -1.3418387 -1.6293439 -0.5368706
000160 50 60 b3 bf f0 41 01 40 19 d2 dd 3e 8e 3e e7 3f
       -1.4013767 2.0196495 0.43324354 1.8065965
000170 7d 86 bf 3e af e7 ee bf 31 b5 4e 3f 95 e5 4c bc
       0.37407294 -1.8664454 0.80745226 -0.0125059085
000180 1d 68 ab bd 39 57 04 bf 8c f7 73 3e ee ef eb 3e
       -0.083694674 -0.5169559 0.238249 0.4608149
000190 95 32 4e 3f b8 4c bb bd ab 52 84 3f d8 fa 14 3f
       0.8054593 -0.09145492 1.0337728 0.5819526
0001a0 8d cf d6 3f cb 7b 23 bd fc 39 27 bf a3 fc 9c bf
       1.678209 -0.03991298 -0.6532285 -1.2264599
0001b0 24 f0 f4 3f f6 bf 8a 3f 62 67 d0 3f 04 d4 5a 3f
       1.9135785 1.0839832 1.628155 0.8547976
0001c0 cf 5d 74 bd 39 63 11 c0 2d 7b ac bf 6f 40 b6 be
       -0.059659775 -2.271681 -1.347509 -0.35596034
0001d0 e2 b6 7f 3f f9 d9 07 c0 10 e6 14 c0 1e 5f d5 3f
       0.9988843 -2.122679 -2.326542 1.6669652
0001e0 47 d7 ac bf 7b d1 ae 3e e0 ab 1a 3f f7 e1 91 3f
       -1.3503197 0.34144196 0.6041851 1.1397084
0001f0 b6 96 1c 3d e6 fc 96 bf 22 7e cb be 2a bc 2a bf
       0.038229667 -1.1795928 -0.3974467 -0.66693366
000200 f8 66 b2 3f 4b 07 27 3f 29 46 96 3e 5d d3 be 3f
       1.3937674 0.65245503 0.29350403 1.4908253
000210 50 e8 15 c0 ea a2 20 be b6 fc 20 3f 4e 10 ed 3e
       -2.3423042 -0.15687147 0.62885606 0.46301502
000220 14 39 a3 bf ac 56 e9 bf 7e 9e e8 be 04 00 61 be
       -1.2751794 -1.8229575 -0.4543342 -0.21972662
000230 ff 50 d7 bf 1c 1a 9b 3e 9a de 6c 3f ed 8a 13 3f
       -1.6821593 0.30293357 0.92527163 0.5763386
000240 eb 3a 8b 3f 41 e4 0f 3e 08 ac 07 40 b6 71 91 3f
       1.0877355 0.14051916 2.119875 1.1362827
000250 f2 1a 6c bf 2c 89 0f c0 42 5d 4c be 92 02 34 3f
       -0.92228615 -2.2427473 -0.1995745 0.7031642
000260 ea 18 fa 3f c4 6a 15 bf d3 94 ef 3c 8e b1 56 bf
       1.9538853 -0.58366036 0.02924577 -0.83864677
000270 f3 d6 3d 3f b6 8c 2e 3e 6c 0f 09 3f 50 9e bc bf
       0.7415611 0.17045864 0.53539157 -1.4735813
000280 6c c7 92 3f 49 f9 10 c0 74 5e 9a 3f 65 0a c2 be
       1.1467109 -2.2652152 1.2060075 -0.37898555
000290 ba 0a ae bf ad 89 7c 3f 5b f7 9f bf b2 02 f8 3f
       -1.3597023 0.98647577 -1.2497362 1.9375823
0002a0 03 e8 fa 3f 19 f4 ef bf 9a 97 e2 bf 38 1e 43 3f
       1.9602054 -1.8746368 -1.7702515 0.76217985
0002b0 1d 79 c2 bf 23 34 a6 bf 77 03 83 3f 42 4c f1 3f
       -1.5193211 -1.2984661 1.0235432 1.8851397
0002c0 18 e3 15 3e e8 94 bd bf 52 60 72 3f 2b b4 a1 bd
       0.1463741 -1.4811068 0.94678223 -0.078956924
0002d0 f1 f8 cf bf 69 15 11 40 8f a2 b1 bf 2a 97 10 bf
       -1.6247846 2.2669318 -1.3877734 -0.5648066
0002e0 48 e3 01 3f 87 37 84 bf 84 94 21 bf 43 ce 59 3f
       0.5073743 -1.0329446 -0.6311724 0.85080355
0002f0 dd ec d8 be d2 7a 68 3d 9a c9 96 3f ca 00 8e 3f
       -0.42368212 0.056757756 1.1780274 1.1093991
000300 67 32 94 bf f2 92 e0 bf e4 e5 ee 3f 8f 1e 8e 3d
       -1.1577882 -1.7544844 1.8663907 0.06939422
000310 cf 7c be bf 96 c4 f8 bf 56 bd a7 bf 51 b4 03 be
       -1.4881839 -1.9434993 -1.3104656 -0.12861754
000320 43 d1 bc be f7 9c 4d bf 4f 57 01 40 dd c5 12 40
       -0.36878404 -0.80317634 2.020954 2.2933266
000330 48 f8 da 3f 88 0d fa bf 3e 65 b0 bf fd f7 c6 3f
       1.710702 -1.953538 -1.3780897 1.554443
000340 ed 04 51 bf 03 13 cc bd 69 df 47 bf a7 fc f6 3f
       -0.8164814 -0.09964564 -0.7807527 1.9295853
000350 18 fd 10 40 d3 73 b0 3f 08 03 e8 3f c9 b7 cd bf
       2.2654476 1.3785347 1.8125925 -1.6071712
000360 25 b5 ef 3f 2a e2 ab 3d 00 5d 08 c0 c0 7d d4 bd
       1.8727156 0.08392747 -2.1306763 -0.103755474
000370 d8 e7 ca 3f f7 9b 3b bf d0 19 05 bf 8b e6 27 bf
       1.5852003 -0.7328486 -0.5199251 -0.65586156
000380 0c 51 85 bf ab aa be 3f 6e cf 98 3f 84 a7 b5 3c
       -1.0415359 1.4895834 1.1938303 0.022174604
000390 4c 26 dd 3f 48 b8 2b 3f 62 e7 6f bf cb aa d3 bf
       1.7277312 0.67078066 -0.9371244 -1.6536497
0003a0 7b e0 8d 3e e5 94 42 bf 58 fe 1f bf dd ce a8 3f
       0.27710328 -0.76008445 -0.6249747 1.318813
0003b0 c2 90 b0 3f c7 32 e1 be 06 de 22 bf 2c 92 46 3f
       1.3794177 -0.43984053 -0.6362003 0.7756679
0003c0 68 85 8f 3e 09 a7 35 3f 8f 47 63 3f 11 30 b6 3f
       0.28031468 0.70958 0.88781065 1.4233419
0003d0 ca d3 ef bf 69 b3 99 3d e5 c3 1d 3f 17 dd d2 3e
       -1.8736508 0.07504923 0.61627036 0.41184303
0003e0 3e dc 3e bf d8 b8 eb bf 15 b0 fb 3f 6a 1b d5 bf
       -0.7455481 -1.8415785 1.9663111 -1.6648991
0003f0 75 20 a0 3f 08 c6 0e c0 13 ad 01 3f e8 76 e1 3f
       1.2509905 -2.2308369 0.50654715 1.7614412

_initial._model.2.bias f4 [16]
000000 fd 31 07 3f b7 1e a5 be d9 57 1b 40 38 04 9c bf
       0.5281065 -0.32249996 2.4272368 -1.2188787
000010 36 02 1a c0 47 5d 34 3e e9 a9 92 bf 7f c3 67 bf
       -2.406385 0.17613707 -1.1458102 -0.9053268
000020 b7 4a e4 3f 9f 6d 36 bb 8e 28 0c c0 54 23 28 bf
       1.7835301 -0.0027836335 -2.1899753 -0.65678906
000030 97 f0 ae bf 12 5e 11 c0 ec e4 60 3f 20 c4 09 c0
       -1.3667172 -2.2713666 0.8784931 -2.1525955

_func._drift._model.0.weight f4 [16, 17]
000000 95 0c 34 3a 99 59 b3 bb ef b1 a1 3b 74 bc a9 b9
       0.000686833 -0.0054733274 0.0049345414 -0.000323746
000010 37 74 ee 3a 08 14 92 3a 25 be 37 bb ab 10 e1 39
       0.0018192594 0.0011144886 -0.002803692 0.00042927763
000020 34 2b e9 3a 2a 14 ae bb 1d b2 93 bb 9c 95 8f bb
       0.0017789365 -0.0053124623 -0.0045073167 -0.0043818485
000030 6c 62 96 b9 d4 a7 3a bb db 54 b1 bb 95 f4 ab 3b
       -0.0002868356 -0.002848138 -0.005411727 0.0052476623
000040 3f ef 97 3b 74 6e 05 bb 25 3f 86 bb c0 92 32 3b
       0.0046366747 -0.0020360025 -0.004096883 0.0027248114
000050 19 23 81 ba 4d 9c 51 bb 14 19 ad bb 8c c8 42 38
       -0.0009852379 -0.0031984032 -0.0052825306 4.6439978e-05
000060 5a f3 3f bb 2b bd c4 3a 32 23 c1 3a 8b b2 35 ba
       -0.0029289336 0.001500999 0.001473522 -0.0006931207
000070 cc f5 be 3b a7 74 93 ba 94 d9 b9 3b af 24 e2 3a
       0.005827641 -0.0011249975 0.0056716893 0.0017253364
000080 c7 5f e1 3a 07 dd 9c 3b 81 65 fe ba 2b ad b1 3b
       0.0017194682 0.0047870907 -0.0019408913 0.0054222546
000090 7c 1b 2a 3b b8 98 d6 ba bc a4 2f 3b ef 57 b8 bb
       0.0025956323 -0.0016372418 0.002680107 -0.005625717
0000a0 f5 fa 3e 3a 4a 5a a7 ba a8 56 9c ba 7c c9 98 bb
       0.00072853203 -0.0012767997 -0.0011927681 -0.0046626907
0000b0 ad 82 3e 3b ed aa 05 3b 8d 43 1f bb e3 d3 96 3b
       0.0029069588 0.002039607 -0.0024301738 0.0046028956
0000c0 ff 74 91 ba 11 87 13 b9 e2 7a 65 bb f8 32 f3 3a
       -0.001109749 -0.00014069329 -0.003501587 0.0018554619
0000d0 e9 3b 0a 3b bf 54 86 3a 33 f4 c2 39 c5 85 ba bb
       0.0021092838 0.0010248645 0.00037184506 -0.005692216
0000e0 6e 21 a1 3b 8f 85 72 b9 14 43 62 3b 6b f0 6a 3b
       0.004917315 -0.00023128673 0.0034524845 0.0035848867
0000f0 14 b2 a6 bb 39 7d 7e 3b 6c 05 82 bb d5 d0 f1 3a
       -0.0050871465 0.0038831963 -0.0039679315 0.0018449078
000100 20 55 a5 3b 4f bd a4 3b df e2 ed 3a 49 23 aa bb
       0.005045548 0.00502745 0.0018149278 -0.0051921946
000110 88 33 4c 3b 43 6a 66 bb 76 e5 19 3b 65 8f b3 bb
       0.0031158645 -0.0035158552 0.0023482717 -0.0054797404
000120 79 1e 1f bb 35 e6 91 bb 52 05 94 ba 12 c5 02 bb
       -0.0024279638 -0.0044524916 -0.001129309 -0.001995389
000130 ec 4c b9 bb f8 6a bb bb b4 12 4d 3a 18 7e 50 3a
       -0.0056549218 -0.005719539 0.00078229164 0.000795336
000140 3d ab 16 bb 61 a7 4a bb f2 4d 92 bb cb 51 69 bb
       -0.002299025 -0.003092252 -0.004464858 -0.003560173
000150 83 08 13 bb b8 f9 1d bb 6f 64 72 3b 03 47 c6 3a
       -0.0022435493 -0.0024105143 0.0036986133 0.0015127364
000160 e0 7b 9d 3b 7a 6a 9e bb ee 53 07 3b 68 22 af 3a
       0.004806027 -0.0048344703 0.0020649391 0.0013361694
000170 88 c9 9a bb 91 ad 4c 3b d0 4a 24 bb 93 d0 17 bb
       -0.0047237314 0.0031231383 -0.0025069006 -0.0023165091
000180 47 d4 05 3b 4b ae b2 3a 38 25 a5 39 05 b1 ab 3b
       0.0020420717 0.0013632266 0.00031498983 0.005239608
000190 89 89 da ba e3 12 6a bb 5b 04 bf bb c9 2b a3 3a
       -0.0016673069 -0.0035716824 -0.0058293766 0.0012448962
0001a0 4d 4b 94 bb aa 6e 9b 3b ee a6 e2 3a 29 2f b5 ba
       -0.004525578 0.004743417 0.001729218 -0.0013823259
0001b0 d5 a1 74 3b 5b 11 a7 3b e0 70 8c 3b 71 57 13 bb
       0.0037327905 0.0050985045 0.0042859167 -0.002248254
0001c0 83 ea 08 3a 22 43 4b bb 3c e9 6d 3b 4b 9d b4 3b
       0.0005222933 -0.0031015356 0.0036302349 0.005511915
0001d0 b4 98 30 b9 f3 b1 7c 3b ad 34 01 3b f5 76 3b 3b
       -0.00016841554 0.0038558214 0.0019715235 0.002860484
0001e0 e0 a9 8e bb 49 14 84 bb fc 48 a3 bb b9 30 b7 3b
       -0.004353747 -0.0040307385 -0.0049830656 0.005590525
0001f0 22 53 1c 3b 7f 39 8d 3b 23 17 84 3b 38 4c 9a 3b
       0.0023853262 0.0043098326 0.0040310784 0.004708793
000200 d7 ea b9 ba 31 42 ba bb 01 e3 39 3a f4 1c 1d bb
       -0.0014184368 -0.00568416 0.0007091016 -0.0023973556
000210 0e c9 20 3b 56 92 24 3b 8d 1d 14 3a 6c 78 b7 bb
       0.00245339 0.0025111637 0.00056501554 -0.005599072
000220 57 68 ce 3a 89 22 52 bb 9e 1a 30 bb ec bf 92 3b
       0.0015747648 -0.0032064042 -0.0026871334 0.0044784453
000230 c5 5c 45 bb 6f f0 f2 3a 55 d2 db ba 5e ef 76 39
       -0.003011511 0.001853479 -0.0016771058 0.0002354956
000240 20 62 32 bb 4d 7a 0a bb a6 09 a3 3b d9 74 51 3b
       -0.0027219132 -0.0021130026 0.0049755154 0.0031960516
000250 d7 96 a2 bb 85 b4 aa 3b e2 16 66 bb f7 b4 76 bb
       -0.004961829 0.005209508 -0.0035108854 -0.0037644485
000260 3b f2 a9 bb 63 c8 af b9 fe ec 2e bb b0 d1 ba bb
       -0.005186347 -0.000335279 -0.0026691551 -0.005701266
000270 9b e6 22 3b 69 5b bb ba 86 5b 13 3b 0f df 91 bb
       0.002485669 -0.001429421 0.0022484972 -0.0044516395
000280 73 29 73 bb 13 a2 5b bb 17 95 c8 b9 38 95 a8 bb
       -0.0037103563 -0.0033513352 -0.00038258053 -0.0051447414
000290 96 a0 87 3a 93 75 4d b8 c3 ec 9b 3b a9 6c af b9
       0.0010347541 -4.898531e-05 0.004758449 -0.0003345956
0002a0 bf e2 a5 3b 57 c5 43 3b ed 17 98 36 a2 f8 7c b9
       0.0050624306 0.0029872262 4.5327383e-06 -0.00024125216
0002b0 bb 72 e2 39 d0 1f 03 3a f0 3b bb ba 44 91 66 bb
       0.0004319156 0.0005001994 -0.001428483 -0.00351818
0002c0 b9 8a 39 ba a0 03 47 bb 8a bd b7 ba 57 5b 9b bb
       -0.0007077861 -0.003036715 -0.0014018279 -0.004741113
0002d0 2b 5c 98 3b 5b c3 32 3b 85 6f dc ba 3d 97 fe ba
       0.004649659 0.0027277085 -0.0016817903 -0.0019423735
0002e0 32 6e b6 3b 38 a5 b1 bb cd ff b7 bb 5b 86 97 ba
       0.0055673355 -0.005421307 -0.0056152106 -0.0011560427
0002f0 06 a9 c9 3a 61 e5 91 bb ea 5b 70 3b dd af d3 ba
       0.0015385456 -0.004452393 0.0036675879 -0.0016150434
000300 56 3a 90 3b 84 2f 7d 3b b8 f9 85 bb bd 6f 52 3b
       0.0044014854 0.0038633058 -0.0040886067 0.0032110058
000310 3f 1b 40 3b fc 01 6c ba 6b 0d 86 3b 40 6e 9e bb
       0.0029313115 -0.0009002981 0.004090955 -0.00483492
000320 58 0d a9 3a a1 17 b6 ba c0 c7 af b8 0c 1a 11 bb
       0.0012897654 -0.001389254 -8.3818566e-05 -0.002214077
000330 46 1d 23 bb 94 94 7e 3b 01 bd 5e 3b 35 ce 86 3b
       -0.0024889275 0.0038845884 0.0033987167 0.0041139373
000340 31 ff 93 bb 3d e0 3a 3a d2 77 c4 39 8f df 89 bb
       -0.004516505 0.0007128751 0.00037473306 -0.0042075585
000350 e4 14 71 3b 83 cf f2 ba e1 94 48 bb 21 3d 83 b9
       0.0036786133 -0.0018524978 -0.0030606317 -0.00025031812
000360 1c 0e 32 3b bb 73 e0 3a 73 20 99 3b f3 82 0f 3a
       0.0027169054 0.0017124334 0.0046730577 0.000547453
000370 c4 3b a0 bb 33 19 09 bb 7d 3b 5d ba 52 3b aa 3b
       -0.004889937 -0.002091956 -0.00084393454 0.00519506
000380 19 ad 2a 3b f5 09 d1 3a 88 c3 9b bb 8a 04 2a bb
       0.0026043116 0.0015948402 -0.0047535338 -0.0025942647
000390 09 55 19 3b 37 e7 4e bb 44 55 08 bb 0c 64 b6 3b
       0.0023396632 -0.003157092 -0.0020802775 0.0055661257
0003a0 38 ab 9f 3a b7 2f 24 3b 03 38 73 3b b0 5a b5 bb
       0.0012181764 0.0025052854 0.0037112243 -0.0055344924
0003b0 ff e9 d5 3a 8b a3 8e bb 2f ec eb ba cf 61 37 3b
       0.0016320347 -0.004352992 -0.0017999465 0.0027981882
0003c0 34 ba b6 bb 35 79 86 3b 7e 5e eb 3a a7 a9 64 3b
       -0.0055763964 0.0041038045 0.0017957238 0.003489116
0003d0 7f 44 2d 3b 5e 0f 22 3b 6c 5e 1d b9 f5 14 b2 3b
       0.0026438532 0.0024728398 -0.00015007862 0.005434627
0003e0 ad 98 4c bb 4a 8c 26 ba 51 43 a2 ba 01 da d0 3a
       -0.0031218932 -0.0006353302 -0.0012379681 0.0015934111
0003f0 59 3e 3e 3b 6a 6a 67 3b 81 5a 34 3b ae 38 82 bb
       0.0029028861 0.003531123 0.0027519765 -0.003974042

_func._drift._model.0.bias f4 [16]
000000 97 07 b7 3b dd cc c6 b9 b5 48 19 3b 1f f6 0e 3b
       0.0055856216 -0.00037918138 0.0023389284 0.002181418
000010 91 14 c9 b7 63 df 15 bb 83 bc 81 3b 85 36 ae bb
       -2.3970644e-05 -0.0022868745 0.00395924 -0.005316558
000020 e9 79 ac bb 6f 46 a9 bb 91 b9 0b bb 58 b4 ac 3a
       -0.0052635563 -0.005165867 -0.0021320323 0.0013176305
000030 12 15 ad b9 0b 9f f9 38 06 a3 98 3b af a4 99 bb
       -0.0003301283 0.00011902869 0.004658106 -0.0046888213

_func._drift._model.2.weight f4 [16, 16]
000000 75 72 24 bb 90 70 12 3b 6c cb b1 bb ba 6e c3 bb
       -0.0025092636 0.0022344925 -0.005425861 -0.0059641274
000010 20 fb 79 bb 3e 4a bb bb 31 e9 06 bb a5 a8 b3 bb
       -0.0038144067 -0.0057156375 -0.002058577 -0.0054827505
000020 d8 99 35 ba d6 68 50 3b 80 eb a1 bb fe af bc bb
       -0.00069275266 0.0031800768 -0.004941404 -0.0057582846
000030 dc 5d 63 3b 11 11 01 bb ed 41 20 3b c8 18 30 3b
       0.0034693396 -0.001969401 0.0024453357 0.002687024
000040 f5 c1 aa ba 54 08 d2 b9 50 a8 a4 b8 23 76 9b bb
       -0.0013027774 -0.00040060526 -7.85148e-05 -0.0047443076
000050 75 13 b3 3b 3d 75 9c b9 0b bf 0b 3b cb b7 7a 3a
       0.005464966 -0.00029841988 0.0021323587 0.00095641305
000060 3d e4 a3 3b 83 0e 9d bb e0 77 81 bb 4d 51 15 b9
       0.0050015734 -0.0047929897 -0.003951058 -0.00014240034
000070 15 16 1a bb d7 df 06 3b ed 47 b0 3b fa f7 ab b9
       -0.0023511697 0.0020580196 0.005379668 -0.0003280042
000080 73 83 a9 bb 3c bf a3 3b fd 3c c4 ba 93 f0 fc 3a
       -0.0051731407 0.004997162 -0.0014971789 0.0019297771
000090 ab 19 00 bb 7c db af 3b 61 0b 61 bb 78 5f 45 3a
       -0.001954655 0.0053667407 -0.0034339058 0.00075291796
0000a0 55 6e 31 3b cb 16 a2 bb 6b b6 dd 3a 00 c6 63 bb
       0.002707382 -0.004946565 0.0016915327 -0.0034755468
0000b0 38 90 ad 3b 91 76 a0 3b c8 1e f8 3a 58 87 40 bb
       0.005296733 0.0048969467 0.0018930072 -0.0029377546
0000c0 60 6b 65 39 66 19 a8 3b da 00 77 3b 17 f9 39 bb
       0.00021879142 0.005129981 0.0037689717 -0.002837723
0000d0 bd b9 54 bb 41 76 c4 ba 57 ad de ba c1 d3 3e bb
       -0.0032459341 -0.0014988856 -0.0016988915 -0.0029117914
0000e0 9b d7 c0 bb cb da 63 38 18 aa ac 3a a6 65 8b bb
       -0.005885077 5.4324784e-05 0.001317325 -0.004254061
0000f0 e1 aa 49 3b 9b 68 2b bb e4 4e 70 3b da 22 2f bb
       0.0030772018 -0.002615488 0.0036668116 -0.0026723654
000100 96 ce b2 3b b2 c4 63 bb fe 86 a6 3a 61 3e dd 3a
       0.005456756 -0.003475469 0.0012705026 0.0016879552
000110 60 3b 90 3b b5 4c 42 3b 37 88 9b bb c4 e4 86 ba
       0.0044016093 0.0029647772 -0.0047464627 -0.0010291566
000120 c8 ea 9c b9 0a e5 52 3b c2 e2 57 bb b0 d8 4d 3b
       -0.00029929564 0.0032179975 -0.0032941555 0.0031409673
000130 40 0d 7d bb a5 8b 1a 3b 39 03 8c bb e9 fe ba 3a
       -0.0038612634 0.002358177 -0.004272845 0.0014266643
000140 6a d1 d1 b7 b2 14 92 3b c9 e9 35 bb 31 36 cb 3a
       -2.5012258e-05 0.0044580335 -0.0027757755 0.0015503821
000150 23 65 8a bb a7 65 3a bb 4d cb 55 3b fe 74 ac 3a
       -0.004223482 -0.0028441937 0.0032622397 0.0013157425
000160 1d 72 9a 3b 5c a3 30 3b cb 9d 71 3b 95 70 46 bb
       0.0047133104 0.0026952839 0.0036867734 -0.0030279506
000170 cc 74 16 3a 3d 2b b2 bb 3f 3c e6 3a 50 3d 8c ba
       0.000573945 -0.0054372833 0.0017565562 -0.0010699425
000180 ed 1d 10 3b c2 9a 07 bb b5 54 d8 ba 0e 6c 69 3b
       0.0021990493 -0.0020691608 -0.0016504737 0.0035617384
000190 cc 0b 66 3b 12 8d ac 3b 04 ba ba bb 85 c9 07 bb
       0.0035102246 0.0052658403 -0.0056984443 -0.002071948
0001a0 93 96 a9 bb aa 0a 9b 3a 8b cc aa 3b 6c 2f ea ba
       -0.0051754205 0.001182874 0.0052123717 -0.0017866916
0001b0 4e 75 1e ba 03 ae e2 ba 83 a7 06 bb 91 85 d8 3a
       -0.00060447014 -0.0017294291 -0.0020546622 0.0016519298
0001c0 c5 06 84 3b e2 11 7f bb e6 d5 9d 3b dc 69 93 3b
       0.0040291273 -0.003892057 0.0048167584 0.0044987034
0001d0 67 d9 79 b9 b2 8d 87 bb 4b 62 99 bb 9c dc 87 ba
       -0.00023827479 -0.0041367644 -0.004680907 -0.0010365429
0001e0 8d e8 8b b9 96 72 97 bb 0f 47 b8 bb b9 31 f0 3a
       -0.0002668541 -0.004621814 -0.005623705 0.0018325365
0001f0 74 11 fb 39 91 08 88 3b 18 89 97 3a c0 9a 17 3b
       0.00047887454 0.004151412 0.0011561243 0.002313301
000200 18 01 26 3a 85 ab 23 3b 74 34 30 bb 1c e4 f5 37
       0.00063325604 0.002497406 -0.0026886733 2.9312498e-05
000210 08 e2 50 3b 2d 71 00 3b 40 aa 37 3b 22 c1 aa bb
       0.0031873006 0.0019598708 0.002802506 -0.0052110115
000220 74 60 29 b8 5f d3 4a bb 01 91 b9 ba 6a eb 2f 3b
       -4.038257e-05 -0.003094874 -0.0014157594 0.0026843199
000230 6c 0c 9e ba 64 2f 3a bb ec 9b 05 b9 5f 45 76 bb
       -0.0012058145 -0.0028409595 -0.00012741954 -0.003757797
000240 41 f5 23 bb 78 85 30 bb 13 60 b2 3b 9e 05 34 bb
       -0.002501801 -0.0026935022 0.005443582 -0.0027469168
000250 83 27 56 bb 61 0f c9 ba ca 35 8d 3b 64 ea 05 38
       -0.003267736 -0.0015339666 0.0043093907 3.1927964e-05
000260 e1 8f 68 ba af 7d 5a 3b db e1 7b 3b 87 e5 b5 3b
       -0.0008871537 0.0033339073 0.003843418 0.0055510434
000270 a8 e2 85 bb c3 c6 4b 3b e9 30 81 bb 36 4b 3c bb
       -0.0040858574 0.0031093813 -0.003942598 -0.0028731353
000280 46 59 a2 3b 29 b6 09 3b de 99 32 bb c1 7a c4 ba
       0.00495449 0.0021013117 -0.0027252357 -0.0014990197
000290 5e ca 65 3b 5c d3 8a 3a ff 4c a8 ba c8 f9 ca ba
       0.0035063247 0.0010591554 -0.001284033 -0.0015485818
0002a0 09 2b e5 ba ac 8a 73 ba 08 58 96 3b fa 65 8a bb
       -0.0017484139 -0.0009290378 0.004588131 -0.0042235823
0002b0 20 88 7c 3b 55 8f 7b 3a 69 f7 c2 3b 52 df 01 3b
       0.0038533285 0.0009596248 0.0059499037 0.0019816947
0002c0 37 78 c4 bb 7f 72 0a bb ba 63 84 ba 8d 34 09 3b
       -0.005995776 -0.0021125374 -0.0010100522 0.0020935864
0002d0 30 02 b5 bb 97 d2 06 3b d6 91 a2 ba 4e e1 5d bb
       -0.0055239424 0.0020572299 -0.0012403082 -0.0033856216
0002e0 bd 82 8b bb a5 68 72 bb 61 48 ae bb b4 41 e4 b9
       -0.0042575286 -0.0036988643 -0.005318687 -0.00043536501
0002f0 e7 ca 1b 3b 96 e6 5b bb 6c 39 61 bb 16 c7 6e 39
       0.0023772062 -0.0033554188 -0.0034366501 0.00022771614
000300 6e c8 9f bb 72 48 8a bb 90 36 d1 ba 70 40 82 3b
       -0.004876188 -0.004220062 -0.0015961695 0.0039749667
000310 58 e2 48 3b 00 74 92 3a ad 19 02 bb 9c 10 a7 bb
       0.003065249 0.0011173487 -0.001985173 -0.0050984155
000320 92 cc 67 3b 87 d9 66 39 1e de 26 3b 2a b2 5a b9
       0.0035369736 0.00022015545 0.0025461982 -0.00020856471
000330 53 7f 53 3b 44 17 3b b8 45 43 4a 3b 9b 0f 80 ba
       0.0032271936 -4.4605942e-05 0.003086285 -0.0009770276
000340 59 ab 00 bb e5 b8 9a 3a e1 6f c1 bb 20 b8 93 bb
       -0.001963338 0.001180437 -0.0059032296 -0.0045080334
000350 4d e6 1c 3a 24 fc bb 3b 8e 51 d9 ba 7c 56 f8 ba
       0.0005985245 0.0057368446 -0.0016580091 -0.0018946673
000360 f8 74 65 3b 0d b7 a6 3b 72 58 6d bb 90 fd af 3b
       0.0035012346 0.0050877393 -0.0036216048 0.005370803
000370 19 32 fe ba 43 d6 54 3b 96 ab e7 3a 2d 69 53 3a
       -0.0019393592 0.0032476343 0.0017675038 0.00080646836
000380 9e 13 9e 3b 67 3c 93 ba 33 91 c3 b9 43 aa 76 3b
       0.004824116 -0.0011233211 -0.0003730148 0.0037638105
000390 29 97 17 bb 12 02 c5 3a b2 d6 65 3b c2 08 8f 39
       -0.002313087 0.0015030524 0.0035070595 0.0002728161
0003a0 86 ec bc 3b 9c 04 ca 39 dc 01 29 3b 4f 9e 5d 3b
       0.0057655005 0.00038531877 0.0025788462 0.0033816283
0003b0 81 9e a2 3b e9 47 37 bb 7f 51 1f b9 d7 b6 1d bb
       0.004962743 -0.0027966446 -0.00015193781 -0.002406528
0003c0 31 d9 30 bb 4e 19 22 bb 8c f5 45 3a 41 e4 88 bb
       -0.0026984925 -0.002473432 0.0007551543 -0.0041776006
0003d0 df fe 1d bb 6b 4c 9b 3b c7 4f 00 3b c6 a7 c4 3b
       -0.0024108214 0.0047393343 0.00195788 0.0060014455
0003e0 2f 7f 6b ba 4b 01 6f b9 cc ad 49 bb a9 f1 6f 3a
       -0.00089834904 -0.00022793298 -0.0030773757 0.00091531366
0003f0 63 01 bc 3a dc 64 92 3b 91 23 94 bb 92 b1 f3 ba
       0.0014343675 0.00446759 -0.0045208414 -0.0018592349

_func._drift._model.2.bias f4 [16]
000000 cd 8e a7 3b e5 e5 82 bb 5d bc 25 3b 0a ee 8e bb
       0.0051134587 -0.0039946907 0.0025289275 -0.0043618726
000010 57 13 32 bb 48 92 b9 bb b4 4c 60 bb 38 3d 3f bb
       -0.0027172172 -0.00566319 -0.0034225406 -0.0029180776
000020 ec dd a0 3b 77 83 7c bb 17 b1 88 3b 86 32 2c 3a
       0.0049092676 -0.0038530508 0.0041715014 0.0006568808
000030 11 50 2e 3b a8 eb 84 3b fd ce 92 3b ab 55 98 bb
       0.0026598016 0.0040564127 0.0044802413 -0.0046488843

_func._diffusion._model.0.weight f4 [16, 17]
000000 32 61 a3 3d aa 6b 7b bd de 5c 26 bd 14 6f 97 3d
       0.07977523 -0.061381973 -0.04061591 0.07394233
000010 48 24 e6 bd e7 ad 3a bd b6 b5 5b 3d cd bc 75 3c
       -0.11237389 -0.045576002 0.05364009 0.014998627
000020 c9 f7 ac bc 8c a2 a9 3d d0 91 8a 3d ff 92 7b 3d
       -0.021114247 0.082829565 0.06766093 0.061419483
000030 6a f3 d9 3c eb d9 c7 3c 77 69 00 bd 11 36 e0 3c
       0.026605327 0.024395904 -0.03135058 0.02736953
000040 43 84 83 bd 9e 70 4d bd 34 48 3a 3c ee 2e 6b bd
       -0.06421711 -0.05015623 0.011369754 -0.057417803
000050 34 91 ab bc e8 a7 46 bc 93 d2 2f 3d 57 6b b8 3c
       -0.020943262 -0.012124993 0.04292543 0.022512121
000060 e5 9f 41 3d 15 e5 f3 3c ca 99 84 bc 83 c5 61 3c
       0.047271628 0.02977232 -0.016186614 0.013780001
000070 cc be 35 ba 10 ec 34 3d ef b9 27 3d a9 3e 64 3b
       -0.0006933033 0.04417044 0.040948804 0.0034827387
000080 e9 c8 8c bc bb 36 9c bd ae 8e 5f 3c d7 2f 0e 3d
       -0.017185645 -0.076276265 0.013644857 0.034713592
000090 94 f2 1f 3d 93 56 57 3d 91 71 13 bd 82 02 5f 3d
       0.0390497 0.052572798 -0.035996977 0.05444575
0000a0 24 be 5c bd ef ff 09 bb 86 14 0b 3d 5f 32 09 3d
       -0.05389227 -0.002105709 0.03395512 0.033495303
0000b0 0d c7 59 3d d7 be 84 3d d8 9f 55 bd 15 78 fe ba
       0.053168345 0.06481712 -0.052154392 -0.0019414449
0000c0 d3 7a 2a 3d e8 93 95 3c 57 b6 bc 3b e5 22 e9 3c
       0.04162104 0.018259004 0.0057590413 0.028459022
0000d0 a8 ef 57 3c fc 1a 2c bc 42 73 ae bc 6f 6b f4 bd
       0.013179697 -0.01050448 -0.021295194 -0.11934554
0000e0 37 79 cf 3c 92 f3 80 bc 58 c4 d7 3c 70 9c a8 bd
       0.025326354 -0.015741143 0.026338741 -0.08232963
0000f0 45 d9 95 3d 86 62 92 3c 2d b9 2f 3d 06 c3 0d 3d
       0.073168315 0.017869245 0.042901207 0.034609817
000100 df 0a f7 bc b6 41 9f bd 7d 1d 15 bd ec 26 49 bd
       -0.03015655 -0.07776205 -0.036405075 -0.049109384
000110 58 92 ad bd 46 13 5f 3c 8f f9 d9 3c 48 c8 92 bd
       -0.084751785 0.013615435 0.026608257 -0.07167107
000120 28 bb 85 3d 61 85 8c bd 31 ce 47 3b a9 37 c9 bd
       0.06529838 -0.068613775 0.003048789 -0.098250695
000130 92 07 ff 3c 1f db e3 bd b2 84 39 bd 36 d3 d3 bc
       0.03113154 -0.111257784 -0.045292564 -0.02585755
000140 2c a2 b1 bd a6 b2 11 bd b5 95 ac 3b 52 71 33 bd
       -0.0867351 -0.035570763 0.00526687 -0.043809243
000150 de 14 3f 3c 10 ab b1 3d 70 d7 a9 bd 4b 36 ab 3c
       0.01166269 0.08675206 -0.082930446 0.020899912
000160 28 ee 9c bc db 55 cf bd 6a f8 5e bd c9 62 f3 bc
       -0.01915653 -0.101237975 -0.054436125 -0.02971019
000170 f2 e3 03 3b 39 cf 9d bd f1 0a 86 3d 92 9f bc bc
       0.002012488 -0.0770554 0.06545056 -0.023025308
000180 06 fa 90 3d db fe 48 bd 68 a9 36 bd b7 18 07 3d
       0.07078938 -0.049071174 -0.044595152 0.032982554
000190 0f 58 44 3d 60 ed 0c 3b 6d 6e ee bd 9c 63 98 bc
       0.04793554 0.0021503791 -0.11642156 -0.018602185
0001a0 1a 22 c6 bc 2b aa 56 bd cf 6c 17 3b 90 5f 87 bd
       -0.024186183 -0.05240838 0.0023105626 -0.06610024
0001b0 f4 ee 07 3c a5 60 98 bc 28 f5 63 3d 20 ed a8 bd
       0.008296717 -0.018600771 0.05565372 -0.08248353
0001c0 b7 70 6d bd ef 31 56 bd fd 2d 7b bd 2f 0d 19 bd
       -0.05796882 -0.052293714 -0.061323155 -0.03736609
0001d0 76 ad 31 3d cc 88 b8 bd d3 d0 29 3d af 6a 0b bd
       0.043378316 -0.09010467 0.041458916 -0.03403729
0001e0 b4 fc 1f bb 78 6d 97 bc 90 43 ac bd e5 f9 c5 bb
       -0.0024412097 -0.018484816 -0.08411324 -0.0060417526
0001f0 13 7a 92 bc 76 a2 13 bd d3 85 83 bd 4d 23 85 3b
       -0.017880475 -0.036043607 -0.06422009 0.004063046
000200 6a 1c 94 bd 22 55 54 bd f3 1d a3 bd 3d a7 fe bc
       -0.07231982 -0.051839 -0.07964697 -0.031085605
000210 67 13 d2 3b 86 6e da bc 5c 77 86 bd c3 0a ed 3c
       0.0064110043 -0.02666403 -0.06565735 0.028935796
000220 5c 37 17 3d 2a cd 93 bd 47 97 ba bb 0f 22 01 3d
       0.03691803 -0.07216866 -0.005694303 0.03152662
000230 cb 58 c3 bd bf 2e 74 bc 24 fb 19 3d c8 45 72 3d
       -0.0953842 -0.014903723 0.037593022 0.05914858
000240 5c 9a e2 ba 4c f4 d8 bb a0 7b cf 3b b5 3f 4e 3d
       -0.0017288434 -0.0066209193 0.006331876 0.050353725
000250 53 6b 39 bd f9 76 fa 3c 13 b0 68 bd 49 24 a2 3c
       -0.045268368 0.030574309 -0.056808542 0.019792693
000260 18 40 50 bd ab b2 14 bd e7 15 3d 3d 5a 9e a0 3b
       -0.050842375 -0.036303204 0.046163466 0.0049016895
000270 8c e7 e0 bd 13 41 ad 3b 94 fa 10 bd 2c e4 08 bd
       -0.10981664 0.0052872985 -0.03539522 -0.033420727
000280 f4 5c 82 bd be d6 2d 3d f9 ac 3e bd 31 f2 b8 bd
       -0.06365386 0.042441122 -0.04655168 -0.09030569
000290 8f fb 26 bd 30 e5 44 bc 2e ed 55 bb 04 35 83 b9
       -0.04076725 -0.012017533 -0.003264259 -0.00025025767
0002a0 04 35 9f bd ea 72 35 3d 62 b2 c9 bd f6 a1 35 bd
       -0.07773784 0.044299044 -0.09848477 -0.04434391
0002b0 4b fe 30 bd 84 90 ba bc 8d 8e 43 3d 77 18 9f 3c
       -0.043211263 -0.022773989 0.04774337 0.019420845
0002c0 fd 89 8f bd 23 7f 30 bd 36 70 76 3d bc f8 00 be
       -0.07008741 -0.043089997 0.060165606 -0.12594885
0002d0 9f b1 88 bd 88 23 f0 bc 3e 92 3b bd d2 a8 f5 3b
       -0.066745035 -0.029313818 -0.045793764 0.0074969316
0002e0 13 9c 0d bd 86 b0 40 bd 5f 79 b8 3c e8 c3 f7 3b
       -0.034572672 -0.047043346 0.022518812 0.0075611956
0002f0 b8 1e d0 3c 1b d9 48 bb 79 84 12 3d e9 bb 0b bc
       0.025405273 -0.0030646983 0.035770867 -0.008528688
000300 e2 78 5f bc c2 08 a7 bb 4d a7 5c 3d f1 8c aa bd
       -0.013639661 -0.0050974796 0.053870488 -0.08327664
000310 cf 21 0e 3c 06 9a e6 bc d0 7b 7b 3d 8a 72 07 3d
       0.008675053 -0.028149616 0.061397374 0.033068217
000320 96 40 b1 bd b4 33 9f bc 63 4d 6f 3d 3c 24 80 bd
       -0.08654897 -0.019433834 0.05842341 -0.06256911
000330 c0 67 81 bd b2 6b 80 3b b7 b0 e0 3b 15 8d ba bd
       -0.06318617 0.0039190883 0.0068570036 -0.091089405
000340 d1 b3 24 3d 71 af 41 3b 00 e9 82 bd 50 c7 a5 bd
       0.04021055 0.0029554034 -0.063920975 -0.080946565
000350 dc c0 82 3c be 65 3b bd c1 d4 a0 bd f2 60 61 bd
       0.015961103 -0.045751326 -0.078530796 -0.055024095
000360 7a 36 29 bd b5 fb da 3c 78 5b 79 bc c1 b1 3a bd
       -0.04131172 0.026731351 -0.015219562 -0.045579676
000370 c9 3f 72 3d 43 88 83 3d c9 7f 54 3c d8 6d 1d bb
       0.05914286 0.06422474 0.0129699195 -0.002402177
000380 15 35 85 3d 1f d1 8b bd c7 d6 19 bd 6f 40 67 bc
       0.06504265 -0.06826996 -0.037558343 -0.014114483
000390 28 da 03 3d 73 47 61 bd 3c cb 9e 3d 5d 4e 89 3d
       0.032190472 -0.05499978 0.07753608 0.067044
0003a0 c5 72 5c 3d c8 35 bb 3c d9 ce 90 3c eb 4f 6c bc
       0.05382039 0.022852793 0.017676758 -0.014423351
0003b0 08 9f 70 bc c0 01 45 bc 62 0a 13 3c 75 4d 26 3b
       -0.0146863535 -0.012024343 0.008974643 0.0025375758
0003c0 5c 31 d1 3c 78 81 13 3c 07 bb 91 bc ff b3 22 3c
       0.025536232 0.009003036 -0.017789377 0.00993061
0003d0 10 f5 a4 bb ee 06 14 3d a4 e1 9b bd 0e b2 7a 3c
       -0.0050340965 0.03613942 -0.07611397 0.015301241
0003e0 ad e4 e0 3c c9 e6 03 3d d7 a7 8e bb 9e 61 b7 bd
       0.027452791 0.032202516 -0.004353504 -0.08954166
0003f0 f9 7b 00 bd 4b 0c 23 3d f3 95 ce bc 91 63 64 bb
       -0.03136823 0.039806645 -0.025217986 -0.0034849385

_func._diffusion._model.0.bias f4 [16]
000000 4a e7 db 3d ac bf 6b 3c 47 d0 74 3c d2 67 c7 3d
       0.10737474 0.01438896 0.014942235 0.09736599
000010 61 09 37 bc 36 bc 70 3c 62 80 6e bd 29 f8 cc bd
       -0.01117167 0.0146933105 -0.058227904 -0.1000827
000020 42 ff 6f 3d de 67 e0 bc 76 04 9f bc 53 a7 4c 3d
       0.058593042 -0.027393278 -0.019411307 0.04996426
000030 2f 96 a9 bd 86 81 bd 3d 7a b9 9e 3d a0 e3 0a 3c
       -0.08280598 0.0925322 0.077502206 0.008477122

_func._diffusion._model.2.weight f4 [48, 16]
000000 33 70 94 3d 7b 4f 57 3d fd 11 03 bc 0e 54 3d 3d
       0.07247963 0.052566033 -0.007999894 0.04622274
000010 73 2b c7 bd dd 32 26 3d 5d 9c 8a 3b 07 15 bf bb
       -0.09725084 0.04057585 0.0042300657 -0.005831364
000020 7c 2d 19 3d b9 b1 af bd 3e bd 32 3c c8 57 7b 3d
       0.037396893 -0.0857882 0.010909377 0.06136301
000030 08 66 66 bd e7 41 cf bc b6 7c 95 bc e9 40 91 3d
       -0.05624965 -0.02529998 -0.018247943 0.07092459
000040 1a 6b 10 3d dc 27 22 bd 60 47 e3 bc f0 14 2a 3c
       0.03525839 -0.039588794 -0.027743995 0.010380968
000050 2c 63 93 bd 6c 9e 4e 3d a7 e1 0c bd ee c2 b3 bd
       -0.0719665 0.05044405 -0.034394886 -0.08777414
000060 71 6e 9e 3d 8c ce 16 bc f1 c2 11 3c 6c 39 89 3d
       0.07735909 -0.009204518 0.008896575 0.067004055
000070 d3 e8 6d bc 10 76 d3 bc 4f d5 f2 bc 02 f1 72 bc
       -0.014520842 -0.025813133 -0.02964273 -0.014827969
000080 52 97 1f 3c 0e 3c be bc 80 bb 0b bd c7 ec c6 3d
       0.009740667 -0.023221996 -0.03411436 0.097131304
000090 f4 e3 ae bd 92 54 22 3d 93 5a 38 bd ed ad cb 3c
       -0.08539572 0.039631434 -0.045008253 0.024863208
0000a0 6a 2d 5c bc a1 76 f7 bc d1 39 b6 bd 77 fa b0 bc
       -0.013438562 -0.030207934 -0.08897746 -0.021603806
0000b0 46 38 f2 bc 5e 5e 6a 3a f6 94 b6 3c 39 0c a0 bc
       -0.029567849 0.00089404534 0.022287827 -0.019537078
0000c0 09 cd 95 3d 04 56 6d 3d ee b8 54 bd 2f a9 63 3c
       0.07314498 0.05794336 -0.051934175 0.013895317
0000d0 26 5a b4 3b 46 36 8c bc c0 47 31 bd b9 d1 0a bd
       0.0055039106 -0.017115723 -0.043281317 -0.033891413
0000e0 c8 75 63 3d 77 b0 2c bd 9d 6c 95 bc 9e ae 49 bc
       0.055532247 -0.042160477 -0.018240267 -0.012309698
0000f0 ac 51 bf bc e8 bc cf bb d3 d6 7f 3d bd 4f 25 3d
       -0.023354374 -0.006339658 0.06246073 0.040359247
000100 d2 91 89 3d f6 de f0 3b 71 9a 0b bc 63 c9 c2 3d
       0.06717266 0.0073507978 -0.008520708 0.09511068
000110 da d1 2b bd 0b 17 8a 3d 7e 0f 8c bd e0 ab 13 3c
       -0.041948177 0.06742676 -0.068388924 0.009013146
000120 88 20 41 3d 95 b9 a8 bd 92 2b 13 bd 57 1e 1c bd
       0.047150165 -0.08238522 -0.035930224 -0.03811487
000130 dc 3f e1 bc 06 b8 b5 3b d8 65 22 3b 5b a1 67 3c
       -0.02749627 0.005545619 0.0024779942 0.014137591
000140 c2 8e b9 3d 72 2b 8a 3c 11 a8 4c bd 60 fb 88 3d
       0.09060432 0.01686642 -0.049964968 0.06688571
000150 4e 41 e9 bc b3 24 37 3d d6 aa ee bc 12 3d 94 bc
       -0.028473523 0.044712733 -0.029134195 -0.018095527
000160 37 32 0d 3d aa dd 2a bd c4 6d 9f bb 00 73 74 3d
       0.034471717 -0.0417153 -0.00486538 0.059679985
000170 45 3d bd bd 55 ea bf 3c 44 a3 a6 3c 7f 1f 79 3d
       -0.09240202 0.023427168 0.020341523 0.060821053
000180 7c 7b a1 3d cc d7 1e 3d bb ca 72 bd 23 44 d4 3c
       0.07884881 0.03878002 -0.05927537 0.025911396
000190 6a dc 8e 3b 47 af 01 3c d4 73 35 bd ab 8e 91 bd
       0.0043597715 0.0079153245 -0.044299915 -0.0710729
0001a0 c6 cb 52 3d da 8e aa bc d4 54 26 bd 3e 95 3a 3d
       0.051463865 -0.02082007 -0.040608242 0.045552485
0001b0 c0 35 38 bd fb 5c 98 bb 43 7d 98 3d 7c a6 51 3d
       -0.044973135 -0.004649756 0.07445767 0.051184162
0001c0 88 77 b0 3d 89 41 c2 3b 4a c8 0c bd c5 45 82 3c
       0.08616549 0.0059282226 -0.034370698 0.01590241
0001d0 86 e0 80 bd 2f 19 57 3a c4 cc 55 bc 34 31 7e bd
       -0.062928244 0.0008205352 -0.013049308 -0.062058643
0001e0 bc 85 be 3d f4 96 ad bd 40 7d c6 bc 6d bd 6d 3d
       0.093028516 -0.08476058 -0.024229646 0.05804198
0001f0 0f 55 b5 bd cf 89 30 3d f0 5d a5 3d 73 09 25 3d
       -0.08854114 0.043100175 0.08074558 0.040292215
000200 96 82 dd bc 4a 89 bb bc 69 c7 9c b7 f3 77 17 3d
       -0.027039807 -0.022892613 -1.8689507e-05 0.036979627
000210 ef 88 60 bd 5f a7 3c 3d 34 c0 bc bc c4 55 a4 3c
       -0.05481809 0.046058055 -0.023040868 0.020060427
000220 18 2f 29 3d a8 40 06 3c 9a 55 36 bd ad db bd 3c
       0.041304678 0.008194126 -0.04451523 0.023176039
000230 f3 0e c0 3b a6 40 e3 3c d1 bb 89 3d 56 6f 6c 3d
       0.005861157 0.027740788 0.06725276 0.057723366
000240 03 27 af ba e8 54 66 bc 7f d0 1b bc f1 e5 97 3c
       -0.0013363067 -0.014058329 -0.009510159 0.018542262
000250 d7 c1 e0 bc 44 d0 3d 3d 81 0b 17 3c 7a 06 a0 bd
       -0.02743618 0.046341196 0.009219051 -0.07813735
000260 07 4e 42 3d d6 b2 19 bd 86 0c 7d bd 89 e5 85 3d
       0.047437694 -0.037524067 -0.06177952 0.06537921
000270 e6 69 b8 bd 56 3b 26 3b 41 0f 75 3d 49 4e fb bc
       -0.090045735 0.0025364957 0.059829 -0.030676978
000280 32 c3 ae 3a 8c b3 ee bb 73 f6 29 3d 48 8d 30 3d
       0.0013333319 -0.0072845872 0.041494798 0.043103486
000290 bd 34 d4 bd 31 d5 60 3b a0 1a 85 bd 99 4c 92 bd
       -0.103616215 0.003430676 -0.06499219 -0.07143516
0002a0 8d 55 72 3c 3d 12 85 bd 5a b1 ce bd 87 6f 20 3d
       0.014790905 -0.06497619 -0.10092421 0.03916886
0002b0 b3 69 59 bd 6e 83 95 3d eb 6b 9f 3c 05 0f 84 3d
       -0.05307932 0.07300459 0.019460639 0.06448177
0002c0 3f cc af 3d ec 81 3a 3b c5 ca 1e bd a8 4d f7 3c
       0.08583879 0.0028458787 -0.038767595 0.030188397
0002d0 e7 d3 b8 bd 93 2e cf 3c c1 3f 86 bd 9a 85 9f bd
       -0.09024792 0.025290763 -0.06555129 -0.07789154
0002e0 a8 f2 b8 bc a8 3c a5 bc 5a 65 67 3c 17 99 48 bc
       -0.022576645 -0.020170525 0.014123285 -0.012243531
0002f0 50 cc a8 bd 4b dc 8c 3c e3 60 05 3d 5f 7b 93 3d
       -0.082420945 0.017194888 0.0325631 0.072012655
000300 1d 5b 07 bd f2 bd b2 3c 32 0c 38 3c 70 93 4c bd
       -0.033045877 0.021819089 0.011233376 -0.049945295
000310 7e aa 10 3b aa fa 4d bd b7 bb fe 3b 43 df e2 bc
       0.0022074278 -0.05028788 0.007773842 -0.02769435
000320 13 bd 89 bc 22 5e af 3c b8 79 6c 3d e0 69 92 bc
       -0.01681379 0.02140719 0.057733268 -0.01787275
000330 e0 8f 77 3d a8 12 48 bd cb 36 ab bd bb a6 94 bd
       0.060439944 -0.048845917 -0.0836006 -0.07258364
000340 8c 40 25 3c 8c e3 01 bc 62 e1 ca ba 14 71 c8 bd
       0.01008619 -0.007927787 -0.0015478546 -0.09787193
000350 2c 8d 80 3c 0b 3a 80 bd ac a9 a7 3b d5 a2 05 3d
       0.015692316 -0.06261071 0.005116662 0.03262599
000360 42 e1 90 bd f3 18 63 3c 4d b5 31 3d 49 27 2a bd
       -0.070742145 0.013860929 0.043385793 -0.04154137
000370 ba 42 5d 3d 0d c4 f1 3c 66 c9 18 3d 98 25 ca 3c
       0.054018714 0.02951243 0.037301444 0.02467613
000380 d9 e8 53 bd 5c 0f c0 3c ee 12 15 3d 45 75 50 bd
       -0.051735733 0.023444824 0.036395006 -0.050893087
000390 09 8a 8f 3d b8 2d 25 3c 8b f3 03 3d 56 d7 ab 3d
       0.0700875 0.010081701 0.032214683 0.083906814
0003a0 d4 91 e5 bc 64 4e 97 3d ed cf d2 3b 0b 57 c1 bc
       -0.028023638 0.07387999 0.006433478 -0.023601076
0003b0 29 49 a7 3d b4 63 55 bd f6 22 1a bd c1 48 a0 bd
       0.08168251 -0.052097037 -0.037630998 -0.07826377
0003c0 9a ed ed bb fa 5b d0 bb 0d 92 2e bd 47 79 eb 3c
       -0.0072609903 -0.0063586207 -0.042619754 0.028744353
0003d0 1d c4 25 bd a9 1b 83 ba fa d7 87 bd bc 8d a2 bc
       -0.04047023 -0.001000275 -0.06632991 -0.019842975
0003e0 6e bf 9f 3b 2a a6 b5 bd 8b e7 81 bd 97 03 4c 3d
       0.004875115 -0.08869584 -0.063429914 0.04980811
0003f0 2c b3 c1 3a a8 b0 88 3d 9c 22 31 bb 4e ee f7 3c
       0.0014778129 0.066743195 -0.0027028685 0.030265

_func._diffusion._model.2.bias f4 [48]
000000 73 d7 89 3d bc 82 b0 3d d1 f5 c9 3d 8d 81 a0 3d
       0.06730547 0.086186856 0.09861339 0.0783721
000010 bb 10 f2 3c e2 b2 52 3d 26 d5 17 3d 03 1f 6d 3d
       0.029548993 0.051440127 0.03706851 0.057890903
000020 98 92 b5 3c 5c d9 e8 3c cf 83 e0 3d 22 c5 da 3c
       0.022164628 0.028423958 0.109626405 0.026705328
000030 5a 68 2c bd e9 c7 74 bc ee 1e 9f bd 94 38 9d 3a
       -0.042091705 -0.01494024 -0.07769571 0.0011995011
000040 a2 3b bd 3b 35 3b 8c 3d 53 7c 60 bd 9e e1 d7 bd
       0.005774931 0.0684723 -0.054806065 -0.1054108
000050 55 3c bc bd 5f a7 24 bc e3 39 4d bd 03 53 d1 bd
       -0.09191195 -0.01004967 -0.050104033 -0.10220911
000060 87 64 c3 bc 73 79 ae bc 70 b5 6c 3d aa a0 91 bd
       -0.023851646 -0.021298146 0.05779022 -0.07110722
000070 6b 28 d6 bc 08 eb 30 bd b9 40 60 bc 47 d4 69 bd
       -0.02614232 -0.043192893 -0.013687306 -0.05708721
000080 81 d4 db bd 99 6b c0 3d 81 57 92 3d 33 55 b1 3d
       -0.10733891 0.093955226 0.07145596 0.086588286
000090 f1 9b 2f 3d d3 d7 27 3c 25 6b 95 3c e0 42 a0 3b
       0.042873327 0.010244328 0.018239567 0.0048907846
0000a0 74 5b cf bc 73 66 90 bd a2 0e 3c 3d 55 a9 90 3d
       -0.025312163 -0.07050791 0.045912392 0.070635475
0000b0 f8 22 c4 3d ef 29 5e bd 38 3e 90 bc 1a f6 ae 3a
       0.09576982 -0.05423921 -0.017607793 0.001334849

_readout.weight f4 [1, 16]
000000 3d 0f c3 bd ea 6b 45 be 94 5f 76 be 93 85 53 be
       -0.09524391 -0.19279447 -0.24059898 -0.20656423
000010 42 2b a1 3d e4 71 cb bd 43 3d 0d 3c 46 7e 04 3e
       0.07869579 -0.09933832 0.008620563 0.12938794
000020 d5 5a e3 bc 34 0e 91 3d 31 45 b3 3d 9b 7d 8a be
       -0.027753273 0.07082787 0.087534316 -0.27048954
000030 f1 fa 71 be 0f 52 9a bb 84 e4 8c bd 77 87 15 3e
       -0.23630883 -0.004709489 -0.068795234 0.14602457

_initial._model.0.weight f4 [16, 2]
000000 b7 d6 26 b6 25 e0 b1 be 37 ad 32 b6 e9 ba 99 3f
       -2.4860908e-06 -0.3474132 -2.6624891e-06 1.2010165
000010 72 ad c6 34 a1 3f 37 bf ea e6 bc 36 12 b3 11 bf
       3.7006572e-07 -0.71581465 5.6297185e-06 -0.56913865
000020 27 d3 8c b6 4d 49 a1 be 5e 50 40 36 10 de 31 bf
       -4.1969065e-06 -0.31501237 2.865701e-06 -0.69479465
000030 6d b5 43 36 0a 80 62 3f 91 1e e4 b5 78 2a aa 3f
       2.9162868e-06 0.8847662 -1.699622e-06 1.329421
000040 e8 21 63 34 f5 9e 3d bf dd 4a 59 b6 f8 27 3a 3f
       2.1153357e-07 -0.74070674 -3.2379096e-06 0.7271724
000050 61 c3 81 b6 04 4e f1 3d 62 19 be 36 33 e1 ae be
       -3.8672447e-06 0.117824584 5.665396e-06 -0.34156188
000060 8b 5a c4 b6 8d 4f b1 bf 59 7f 3b 36 9b 8f b9 3e
       -5.851796e-06 -1.3852402 2.7939298e-06 0.36242375
000070 a2 23 a1 35 df 4a 1c 3f 42 19 de b5 7c e6 1c 3f
       1.2005805e-06 0.61051744 -1.654764e-06 0.6128919

_initial._model.0.bias f4 [16]
000000 d6 10 01 bf ab 66 fa bc 1c 1e 9c 3d 4e c6 0b 3f
       -0.50416315 -0.030566534 0.076229304 0.54599464
000010 3a 1a 7d be a2 20 e0 3a 0d 01 a5 be 39 d0 04 bf
       -0.24717036 0.0017099569 -0.32227364 -0.5188022
000020 76 3b 41 3f 74 66 14 3e 24 20 96 bd 03 3e fb bd
       0.75481355 0.14492208 -0.07330349 -0.12267687
000030 de a9 5c be 2c 21 b2 be 18 49 85 3d 66 40 bd 3e
       -0.21549174 -0.34790933 0.06508082 0.36963195

_initial._model.2.weight f4 [16, 16]
000000 a7 62 1d bd 73 d1 f7 be f4 22 9e bc eb 10 7c bd
       -0.03842416 -0.48401985 -0.019303776 -0.06153957
000010 a0 7d 7c be 45 4c 1d be a6 3d 1c be 56 09 44 be
       -0.24657297 -0.15361126 -0.15257892 -0.19144186
000020 81 02 36 bd fa 9e 5b be 86 24 b1 3a 04 52 2c be
       -0.04443598 -0.21447363 0.0013514913 -0.16828161
000030 48 11 3d be 1b a2 da bd f4 cc ae 3d 73 fa 53 be
       -0.18463624 -0.106754504 0.085351855 -0.20701008
000040 b8 60 d0 3d ac e8 bf 3e a4 48 d7 3e ff bd 8a 3e
       0.10174698 0.37482202 0.42047608 0.2709808
000050 97 b0 28 3e da 7f c2 3e 3e d2 6e 3e 67 d0 87 3e
       0.16473614 0.37988168 0.23322389 0.26526186
000060 fa 3b 55 3e ca 13 61 3e 57 c7 60 bb fb 5a 0e 3e
       0.2082366 0.21980205 -0.0034298503 0.13901894
000070 dc 1a 01 3f c7 ac 36 be 0a 55 85 3d 21 f8 8f 3e
       0.5043161 -0.17839347 0.065103605 0.28118995
000080 92 be 8e be 3e bc c1 3e 22 81 05 3e c4 50 1f 3e
       -0.2787977 0.3783893 0.13037542 0.15558153
000090 5e 86 be be 89 ae 17 3e 88 1a 8c 3d 65 87 fa 3d
       -0.3721189 0.14812674 0.06840998 0.12232856
0000a0 b3 3a 80 3e 7b e1 e2 3e 43 33 8a be 9c 57 88 be
       0.25044784 0.44312653 -0.26992235 -0.2662934
0000b0 44 a8 90 3e af ee de bc 2d ff 88 3d 40 c2 07 3f
       0.28253376 -0.027213423 0.06689296 0.53030777
0000c0 10 bf 73 3c 4e 4f 1a 3f d3 34 30 3e 9e c4 cd 3d
       0.014877096 0.6027726 0.17207651 0.100472674
0000d0 a3 2d 93 bd 0b 92 b5 3d 88 2a a6 3e fa 73 da 3e
       -0.07186439 0.08865746 0.32454324 0.42666608
0000e0 4b 57 38 3e 71 d2 e9 3d 6e ee 44 be 05 ee 32 3e
       0.1800205 0.11417092 -0.19231579 0.1747361
0000f0 2a c6 8c 3e 65 21 0e bd 70 8d a3 3e 4e 7f ad 3c
       0.27494937 -0.034699816 0.31943846 0.021178868
000100 26 fe dd bd ce eb e5 3e 13 ee 3f 3e 6e 30 20 3e
       -0.108394906 0.44906467 0.18743162 0.15643474
000110 7f 43 84 bd e3 f9 aa 3e e0 da c1 3d 99 87 fc 3e
       -0.06458186 0.33393773 0.09465575 0.49322203
000120 8e 9a 21 be 4e 80 99 3e e7 8d 46 be c7 20 ee 3d
       -0.15781614 0.299807 -0.19390069 0.116273455
000130 61 64 1b 3f 40 ce 06 3d f9 78 9f bd 50 0b 7b bc
       0.6070004 0.03291154 -0.077867456 -0.015322521
000140 40 06 ca 3c 54 51 03 3f b6 a2 7c bd d9 53 bf 3d
       0.024661183 0.5129597 -0.06167861 0.093421645
000150 04 74 72 3e 5e cb 5f 3e 66 3d 8e 3e ac 5c ee 3e
       0.23677069 0.21854922 0.27781218 0.46555078
000160 00 c2 a8 3d 47 e2 99 3e 6d fb 04 3e 7b 52 a1 bd
       0.082401276 0.30055448 0.12986536 -0.0787706
000170 b1 a6 a1 3e ee 85 27 3e a1 7e de 3d ec 86 8b bd
       0.31572488 0.16359684 0.10863996 -0.06812844
000180 bb cc 5b 3e a0 9e 55 bb c9 e2 b4 3b f7 67 d5 bd
       0.21464817 -0.0032595769 0.005520199 -0.1042022
000190 17 99 9f 3e 02 48 b7 bd b2 d2 c0 3d f5 38 37 bc
       0.31171486 -0.08949281 0.09415187 -0.011183013
0001a0 bd 9a 28 be a2 1b d5 be 79 49 bc 3d 67 ac cb 3e
       -0.16465278 -0.41622645 0.09193701 0.3977997
0001b0 6a 65 15 3e 1e 8b 2f bc 12 b2 5d bd cc 44 9b bd
       0.14589468 -0.0107143205 -0.0541249 -0.07581481
0001c0 62 ef 1f be f5 bc a2 be b1 3d 53 3d 1f 6c 91 be
       -0.15618661 -0.31784788 0.051572505 -0.28402802
0001d0 a5 83 9b 3d 8e af 05 be a8 90 30 be fa 8e d2 be
       0.075934686 -0.1305525 -0.17242682 -0.41124707
0001e0 54 c8 0a be 81 f0 05 3c 1d 7d fe 3d 2a 85 14 bd
       -0.13552982 0.008175016 0.12426207 -0.036259808
0001f0 3c 88 19 bf 74 6c 88 3d 85 39 44 3d e8 ae 74 be
       -0.599735 0.06661311 0.047906417 -0.23894846
000200 91 77 9d 3e a5 35 0a 3e 24 b8 6a bd e3 ef e6 3d
       0.30755284 0.13497026 -0.057304516 0.112762235
000210 79 3c 16 3e 0b b3 b1 3d 23 6f a6 3e cd 74 00 3f
       0.14671506 0.08676728 0.32506666 0.50178224
000220 d9 13 de bd 53 be 5e 3e b4 1e 05 bc 12 da 40 3e
       -0.108436294 0.2175229 -0.008124996 0.18833187
000230 31 e1 1c 3f 00 69 06 3e 34 5c 29 be f3 fb 63 3e
       0.61281115 0.13125992 -0.16539079 0.2226408
000240 ef 3a 0a 3e 00 f0 69 be 52 35 6f be 79 4f 2c bc
       0.13499044 -0.22845459 -0.23360184 -0.010516995
000250 45 22 08 be d3 47 ea be a0 a5 7a be d9 f6 92 be
       -0.13294323 -0.45757923 -0.24477243 -0.28703955
000260 93 73 59 be 57 9c c8 bb e1 a1 52 3e 59 81 72 3d
       -0.21235494 -0.006122153 0.20569564 0.059205387
000270 02 d3 1f bf 48 bc 03 be 5b 5c f8 bd 26 f4 78 3c
       -0.6243135 -0.12864792 -0.121269904 0.015194928
000280 66 71 f6 bd 63 5f 08 3e 19 be 41 3e a4 b9 15 be
       -0.12033348 0.13317637 0.18920173 -0.14621598
000290 3a f7 8c bd f2 07 d4 3e 48 47 94 3e b3 9d a8 3e
       -0.06883092 0.41412312 0.28960633 0.32932815
0002a0 9c f3 03 3c bd 8d 7b 3e c0 79 c6 bd ce 93 8c 3e
       0.0080536865 0.24565788 -0.09691191 0.27456516
0002b0 fd d8 5d 3e 4b b2 2e 3e 92 b0 97 bc 13 e6 5b bd
       0.21664806 0.17060201 -0.018516812 -0.053686213
0002c0 d8 92 b6 bd 25 70 7a 3e 3a 6a 3a 3e 2e 84 d0 3d
       -0.08914727 0.24456842 0.18204585 0.10181461
0002d0 0a 30 4e 3e ca 81 b8 3e fd e9 4e 3e 06 6e d6 3d
       0.20135513 0.3603652 0.20206447 0.10470204
0002e0 49 e9 52 3e 6a 6a 4a 3d 31 e4 aa bd ad a5 9a 3d
       0.20596804 0.04941789 -0.08344305 0.075511314
0002f0 57 80 16 3f 6e e3 16 be b4 ee 22 3e 01 43 a7 3d
       0.5878958 -0.14735195 0.1591137 0.08167077
000300 ac 8b 12 bd b6 14 97 3e 4b 47 0c 3e 24 e9 3b be
       -0.035777733 0.2950799 0.13699071 -0.18350655
000310 cc c3 a7 3d 7d 55 9f 3e ef e7 a0 3e 13 6e b1 3e
       0.08191642 0.3111991 0.3142695 0.34654292
000320 53 8d 4e 3e 8c 3a 6c 3e e1 c5 ac bd ec 31 9d bd
       0.20171098 0.23069209 -0.0843618 -0.076755375
000330 c0 a3 0c 3f 95 ee ae 3e 6c 08 5f 3e bc 99 2f 3e
       0.5493736 0.341664 0.21780556 0.17148489
000340 7c 21 20 3e 60 79 be 3e 04 8a c2 3e 5a 4a 8b 3e
       0.15637773 0.37201977 0.37995923 0.27205163
000350 c9 95 95 bd 87 91 ee 3e 6e 98 a3 3e a5 eb 97 3d
       -0.0730396 0.46595404 0.31952232 0.074179925
000360 c6 9b 2e 3e ed 00 fd 3b 45 ed e1 bd 45 9b d2 3d
       0.1705161 0.0077210576 -0.11031584 0.102835216
000370 02 88 1b 3f 46 36 1e be 15 84 2c 3e 79 ab 58 3e
       0.60754406 -0.15450391 0.1684726 0.21159162
000380 b2 f9 a1 3e c6 1b 77 be 08 5b 9b 3e ca e1 35 3e
       0.31635815 -0.24131688 0.3034289 0.17761913
000390 c0 5c 1c 3e 3a d8 e3 3e 31 97 23 3e 3f f7 28 bd
       0.15269756 0.44500905 0.15975644 -0.041251417
0003a0 3a b7 88 bd 1f 0d a4 bd 66 1b d2 bc 2b f1 d2 3e
       -0.06675573 -0.08010315 -0.02564783 0.41199622
0003b0 47 fe b6 3e 97 f5 78 bd 4c 95 93 bd 1c 0d 9c be
       0.35740873 -0.060781088 -0.072062105 -0.30478752
0003c0 40 b9 18 3a 48 db d2 be c1 af 6e be ab 90 87 3d
       0.0005825944 -0.41182923 -0.23309232 0.0661939
0003d0 77 9b 6e be 10 21 4e be ce 6a 96 be db bf ce be
       -0.23301493 -0.201298 -0.2937836 -0.4038075
0003e0 a3 5d 21 be d4 98 06 be aa d9 a2 bc ac 4a 51 be
       -0.15758376 -0.13144237 -0.019879181 -0.20438641
0003f0 a3 85 eb be c1 89 6d be 78 2c 10 bb e4 43 a9 bd
       -0.46000394 -0.2319708 -0.0021999162 -0.08264902
