hyperparameter_tuning/ray_results/SUD_learning_rate_tuning/MyTrainableClass_548eb531_13_batch_size=16,name=SUD_v2,patience=1000,steps=200,steps_per_print=5,swa_step_start=2500,t_size=7,trai_2024-03-12_14-36-07/checkpoint_000000/checkpoint.pt (torch, 61346 bytes, 66 tensors)

_initial._model.0.weight f4 [16, 5]
0	0xbf545e56	-0.82956445
1	0xc006db3a	-2.1071305
2	0xbfb8e49c	-1.4444766
3	0xbf9146d2	-1.1349738
4	0xc031c688	-2.7777424
5	0xbfe06397	-1.7530392
6	0xc05b6b1e	-3.428413
7	0xc071fc3e	-3.7810206
8	0xc0511701	-3.267029
9	0x40212572	2.5179105
10	0x4039567f	2.8959043
11	0xc020e445	-2.5139325
12	0x40524329	3.2853491
13	0xc0632046	-3.5488448
14	0x3fff4f1f	1.9946021
15	0x3f81f9be	1.015434
16	0x404b431a	3.1759706
17	0xc0143585	-2.3157666
18	0x404b1ef4	3.1737642
19	0x3e6580c7	0.22412406
20	0x402f6b97	2.7409418
21	0xbf8b57e0	-1.0886192
22	0xbe5906a8	-0.21193945
23	0xc01c7ead	-2.4452317
24	0x3faf2f3e	1.3686292
25	0xc02d3d0d	-2.7068512
26	0xbf878084	-1.0586095
27	0xc03eaa88	-2.9791584
28	0xbfd387bd	-1.6525799
29	0x3df7a4a5	0.1209195
30	0xc04f0f31	-3.2353022
31	0x3f4700c8	0.7773557
32	0xc0275c02	-2.6149907
33	0xbdb6adc4	-0.08919862
34	0xbf654490	-0.89557743
35	0xbf5c6a2e	-0.8609952
36	0xbf517182	-0.81813824
37	0x3fcaa70f	1.5832232
38	0x3f1dcc5e	0.61639965
39	0x4002c58d	2.0433075
40	0xbf0b8867	-0.5450501
41	0xc0683be3	-3.6286552
42	0xc05c8129	-3.4453833
43	0x406cc843	3.699723
44	0xc05c0c85	-3.4382641
45	0x4026f87c	2.6089163
46	0x3f227583	0.6346056
47	0x3fcb6e00	1.5892944
48	0x3fdf63af	1.7452296
49	0xbefdfd30	-0.4960723
50	0x403b8fa8	2.930643
51	0x3dfa976b	0.12235912
52	0xbff14d07	-1.8851632
53	0xbf1f9781	-0.6234055
54	0xbfc04669	-1.5021487
55	0x3f871360	1.0552788
56	0xc02caad0	-2.6979256
57	0xc061e92e	-3.5298572
58	0x40641fbc	3.564437
59	0x3f43c992	0.76479447
60	0x3e86c7c5	0.26324287
61	0x3f9b7cc0	1.2147446
62	0x40122013	2.2832077
63	0xbe40d975	-0.18832953
64	0x40240a1c	2.563117
65	0xc07822c6	-3.8771224
66	0xbff493dc	-1.9107623
67	0xbf200c4c	-0.62518764
68	0x3fe6485a	1.799083
69	0xc0187de7	-2.3826845
70	0x403c8ac9	2.9459708
71	0x404fa494	3.24442
72	0x40425c7e	3.0368953
73	0xc0774db3	-3.8641174
74	0xc055b85a	-3.339377
75	0xbf83b373	-1.0289139
76	0x3ef19bf1	0.47189286
77	0x4049c3a4	3.152566
78	0x3f417536	0.75569475
79	0x405a2bad	3.4089158

_initial._model.0.bias f4 [16]
0	0x3ff69975	1.9265581
1	0xc05c86b5	-3.4457219
2	0xbfc48896	-1.5354183
3	0x3f480b0b	0.7814185
4	0x3ed3f463	0.4139739
5	0xc060d430	-3.512951
6	0xbfd0763f	-1.6286086
7	0x401e1727	2.470163
8	0x3fe843d7	1.8145703
9	0xbf47b9e1	-0.78018004
10	0xc0604429	-3.5041602
11	0x406421a1	3.5645525
12	0xc003d1ef	-2.0596883
13	0x3fa4fcb4	1.2889619
14	0xbf197185	-0.5993884
15	0x3e42a8e2	0.19009736

_initial._model.2.weight f4 [16, 16]
0	0xbe603b07	-0.21897517
1	0xbea03077	-0.31286976
2	0x3d3a0db9	0.045423243
3	0xbfc349f0	-1.5256939
4	0x3ffa7784	1.9567723
5	0xbfd26b31	-1.6438962
6	0x3f303298	0.688272
7	0x3e2e4cba	0.17021456
8	0xbf4df2dc	-0.804487
9	0x3fdf4513	1.7442955
10	0xbe9bba12	-0.30415398
11	0xbfbff265	-1.4995848
12	0x3f209b2a	0.6273676
13	0xbf2b8efc	-0.6701505
14	0x3fd20329	1.6407214
15	0xc004ca68	-2.074854
16	0x3f93b6c3	1.154015
17	0xbf04f120	-0.5193043
18	0xc019743e	-2.3977199
19	0x4006e4fe	2.1077266
20	0x3fbe80c2	1.4883044
21	0x3f1f5ba6	0.6224922
22	0x3f63c8bb	0.88978165
23	0xbfddd8e4	-1.7331815
24	0x4013f788	2.311983
25	0xb8f43548	-0.00011644751
26	0xbeefb8bf	-0.46820638
27	0xc0035d08	-2.0525532
28	0xbfb37c60	-1.4022331
29	0xbec9177f	-0.3927574
30	0xbf6a2a98	-0.9147124
31	0x3f95d9ec	1.170713
32	0xbd34c289	-0.044130836
33	0x3fd958e6	1.6980255
34	0x3f0d7c30	0.5526762
35	0xbf748cd4	-0.95527387
36	0x3f6a3b79	0.91497
37	0x40157c67	2.335718
38	0xbf39eec0	-0.7262993
39	0xbf5123ef	-0.81695455
40	0xbe697321	-0.22797824
41	0x3f495d6a	0.78658164
42	0xbfae610c	-1.3623366
43	0xbe54e1ee	-0.2078931
44	0xbfa69a5e	-1.3015859
45	0x3fc21eed	1.5165688
46	0xbf000870	-0.50012875
47	0x3fbead24	1.4896588
48	0xbec5434f	-0.38527915
49	0xbff8c5d4	-1.9435372
50	0x3f80656a	1.0030949
51	0xbf987493	-1.1910576
52	0xbff30763	-1.8986629
53	0x4013a6fb	2.3070667
54	0xbeeca4e0	-0.4621954
55	0x3e931fe3	0.28735265
56	0xbfc670e9	-1.5503207
57	0xc002accb	-2.0417964
58	0x3fb53130	1.4155636
59	0xbf435ae0	-0.7631054
60	0x3f5c515a	0.8606163
61	0x3f3ee18d	0.74562913
62	0x3f75ac10	0.9596567
63	0xc00f76f8	-2.2416363
64	0xbf20d592	-0.6282588
65	0x3f027c40	0.5097084
66	0xbfd5a232	-1.6690123
67	0x3ff77731	1.9333249
68	0x3fb2e6fb	1.397674
69	0xc00dcb6b	-2.2155406
70	0x3fe29db1	1.7704374
71	0x3f4b9e75	0.7953866
72	0x3fcee27a	1.6162865
73	0x3fbbcd5e	1.4672048
74	0x3f93ccb9	1.1546851
75	0x3f5f81f5	0.87307674
76	0x3fb2cc29	1.3968555
77	0xbf46cec5	-0.77659255
78	0x3fa572f1	1.2925702
79	0xbfe7becf	-1.8105105
80	0xbf2a33ca	-0.66485274
81	0x3f0cc0e3	0.5498182
82	0xc001e0e7	-2.029352
83	0x401bb94e	2.433185
84	0xbf8b3c48	-1.0877771
85	0xbfabc682	-1.3419955
86	0xbfd098c8	-1.6296625
87	0xbf09ae4f	-0.537816
88	0xbfb3720f	-1.4019183
89	0x400135d9	2.0189116
90	0x3edda1e4	0.43287575
91	0x3fe72956	1.805949
92	0x3ebf3afe	0.37349695
93	0xbfeefb87	-1.867051
94	0x3f4e7fff	0.80664057
95	0xbc5ab88e	-0.013349665
96	0xbdaa3e19	-0.083126254
97	0xbf04441a	-0.51666415
98	0x3e74b88f	0.23898529
99	0x3eec42bf	0.46144673
100	0x3f4e5fcf	0.8061494
101	0xbdbafb36	-0.09129946
102	0x3f845cf8	1.0340872
103	0x3f153596	0.5828489
104	0x3fd6e0db	1.678737
105	0xbd208e6c	-0.039198324
106	0xbf272296	-0.6528715
107	0xbf9ce816	-1.2258327
108	0x3ff502b2	1.9141448
109	0x3f8ad331	1.08457
110	0x3fd0811a	1.6289399
111	0x3f5b08f8	0.8556056
112	0xbd71f5c6	-0.05907228
113	0xc0115e2d	-2.271373
114	0xbfac61ad	-1.3467308
115	0xbeb5eb3a	-0.35531026
116	0x3f7fe651	0.9996081
117	0xc007d767	-2.122522
118	0xc014e0d6	-2.326223
119	0x3fd57e2e	1.6679132
120	0xbfacc584	-1.3497777
121	0x3eaf32a1	0.34218314
122	0x3f1ac3f9	0.6045528
123	0x3f91f739	1.1403571
124	0x3d1ef3c8	0.038806707
125	0xbf96e909	-1.1789867
126	0xbecb137c	-0.39663303
127	0xbf2a84d2	-0.6660892
128	0x3fb2538e	1.3931749
129	0x3f26f340	0.6521492
130	0x3e95ded4	0.29271567
131	0x3fbebdfd	1.490173
132	0xc015f43e	-2.3430324
133	0xbe20cc02	-0.15702823
134	0x3f20e7da	0.6285378
135	0x3eec929a	0.46205598
136	0xbfa34b01	-1.2757264
137	0xbfe96f25	-1.8237044
138	0xbee8cea5	-0.45470157
139	0xbe61aada	-0.22037831
140	0xbfd76420	-1.6827431
141	0x3e9aca0c	0.30232275
142	0x3f6ca8d9	0.9244514
143	0x3f135310	0.5754862
144	0x3f8b4e0a	1.0883191
145	0x3e103361	0.140821
146	0x4007b89e	2.1206431
147	0x3f918703	1.1369327
148	0xbf6bebed	-0.9215687
149	0xc00f869b	-2.2425907
150	0xbe4c0a03	-0.19925694
151	0x3f344026	0.7041038
152	0x3ffa2aa0	1.9544258
153	0xbf153a74	-0.5829232
154	0x3cf29905	0.029613981
155	0xbf568756	-0.83800256
156	0x3f3dfc9d	0.7421358
157	0x3e2f2ae4	0.17106205
158	0x3f094464	0.5361998
159	0xbfbc82c9	-1.4727412
160	0x3f92da8d	1.1472946
161	0xc010f447	-2.2649095
162	0x3f9a77b1	1.2067777
163	0xbec1b564	-0.37833703
164	0xbfadf342	-1.3589861
165	0x3f7c9402	0.9866334
166	0xbf9fecf7	-1.2494191
167	0x3ff82179	1.9385215
168	0x3ffaf9b8	1.9607458
169	0xbfefdbf9	-1.8739005
170	0xbfe28b96	-1.7698848
171	0x3f434875	0.76282436
172	0xbfc26658	-1.5187483
173	0xbfa6205f	-1.2978629
174	0x3f831ded	1.0243508
175	0x3ff167ce	1.8859804
176	0x3e15494b	0.1457874
177	0xbfbd9ed9	-1.4814101
178	0x3f722d78	0.9460063
179	0xbda3092f	-0.07960736
180	0xbfd01094	-1.6255059
181	0x401112d5	2.2667744
182	0xbfb1ad00	-1.388092
183	0xbf10d51f	-0.56575197
184	0x3f01bfba	0.50683177
185	0xbf844fcf	-1.0336856
186	0xbf21aca3	-0.6315405
187	0x3f59a3d3	0.850156
188	0xbed9386e	-0.42425865
189	0x3d65ff4d	0.056151677
190	0x3f96aef8	1.1772146
191	0x3f8de512	1.1085532
192	0xbf94459b	-1.1583742
193	0xbfe09ce4	-1.7547879
194	0x3feecc82	1.8656161
195	0x3d8cc9d0	0.0687443
196	0xbfbe9466	-1.4889038
197	0xbff8c9b9	-1.9436561
198	0xbfa7c7c6	-1.3107841
199	0xbe04abc1	-0.12956144
200	0xbebd1841	-0.36932567
201	0xbf4dcd6b	-0.8039157
202	0x40015144	2.020585
203	0x4012bb60	2.2926865
204	0x3fdae571	1.710127
205	0xbffa215f	-1.9541434
206	0xbfb07fdd	-1.3789021
207	0x3fc6dc54	1.5535989
208	0xbf512af4	-0.81706166
209	0xbdccacc3	-0.09993889
210	0xbf480ff5	-0.7814935
211	0x3ff6e736	1.928931
212	0x4010f1d6	2.2647605
213	0x3fb06eed	1.3783852
214	0x3fe7f8e6	1.8122833
215	0xbfcdd5e8	-1.6080904
216	0x3fefa3a8	1.8721819
217	0x3daa6946	0.083208606
218	0xc00863d4	-2.131093
219	0xbdd5d264	-0.104405195
220	0x3fcad607	1.5846566
221	0xbf3bc369	-0.7334505
222	0xbf054e93	-0.5207302
223	0xbf281d02	-0.6566926
224	0xbf856453	-1.0421242
225	0x3fbea0b6	1.4892795
226	0x3f98b5ec	1.1930518
227	0x3cb05207	0.021523489
228	0x3fdd0e9b	1.7270082
229	0x3f2badff	0.6706237
230	0xbf6ffc51	-0.9374438
231	0xbfd3c9e4	-1.6545987
232	0x3e8d993f	0.2765598
233	0xbf42c580	-0.7608261
234	0xbf201684	-0.62534356
235	0x3fa8b99b	1.3181642
236	0x3fb07de1	1.3788415
237	0xbee1825d	-0.44044772
238	0xbf231366	-0.63701475
239	0x3f465abd	0.77482206
240	0x3e8fd260	0.2809019
241	0x3f35baf1	0.70988375
242	0x3f637a90	0.8885889
243	0x3fb6456e	1.4239938
244	0xbfefbc1f	-1.8729285
245	0x3d9a05b1	0.07520617
246	0x3f1dd8c2	0.6165887
247	0x3ed35950	0.41279078
248	0xbf3eb8a8	-0.74500513
249	0xbfeba08f	-1.8408374
250	0x3ffbbc2d	1.9666802
251	0xbfd50628	-1.6642504
252	0x3fa0335f	1.2515677
253	0xc00ebc22	-2.2302327
254	0x3f01e263	0.50736064
255	0x3fe192a5	1.7622877

_initial._model.2.bias f4 [16]
0	0x3f06f79d	0.5272158
1	0xbea593e5	-0.32339397
2	0x401b4940	2.4263458
3	0xbf9c2169	-1.2197696
4	0xc019f3ac	-2.4054976
5	0x3e3372d0	0.17524266
6	0xbf928ded	-1.1449562
7	0xbf6788c3	-0.90443057
8	0x3fe42d18	1.7826262
9	0xbaf837d9	-0.0018937542
10	0xc00c1a12	-2.1890912
11	0xbf285dfc	-0.6576841
12	0xbfaf0dd9	-1.3676101
13	0xc0116c7b	-2.2722461
14	0x3f60aa20	0.8775959
15	0xc009b582	-2.1517034

_func._drift._model.0.weight f4 [16, 17]
0	0x3a34837b	0.0006886047
1	0xbbb3d059	-0.0054874835
2	0x3ba21c2f	0.0049472074
3	0xb9aa2c47	-0.00032457916
4	0x3aef1186	0.0018239475
5	0x3a9274e8	0.0011173757
6	0xbb383707	-0.002810897
7	0x39e1a50a	0.00043038308
8	0x3ae9c51c	0.0017835232
9	0xbbae8702	-0.005326153
10	0xbb9413c5	-0.0045189583
11	0xbb8ff487	-0.0043931636
12	0xb996c51f	-0.00028757096
13	0xbb3b227c	-0.002855449
14	0xbbb1ca0b	-0.0054256967
15	0x3bac65dd	0.0052611665
16	0x3b98533f	0.0046485956
17	0xbb05c6a9	-0.00204126
18	0xbb86976d	-0.004107407
19	0x3b3308b8	0.002731843
20	0xba817841	-0.0009877757
21	0xbb522695	-0.0032066454
22	0xbbad8b24	-0.005296128
23	0x384348ac	4.6559304e-05
24	0xbb4071ea	-0.0029364773
25	0x3ac53edb	0.001504864
26	0x3ac1a28a	0.0014773172
27	0xba362adb	-0.0006949135
28	0x3bbf7394	0.0058426354
29	0xba93d64f	-0.0011279079
30	0x3bba53bd	0.005686252
31	0x3ae2b9c0	0.001729779
32	0x3ae1f437	0.0017238919
33	0x3b9d4427	0.004799384
34	0xbaff0ce4	-0.0019458798
35	0x3bb2225b	0.0054362244
36	0x3b2a8bf4	0.002602336
37	0xbad7269f	-0.0016414708
38	0x3b3018ca	0.0026870244
39	0xbbb8d107	-0.0056401524
40	0x3a3f78bd	0.0007304063
41	0xbaa7c872	-0.0012800826
42	0xba9cbdb5	-0.0011958393
43	0xbb992df8	-0.0046746694
44	0x3b3f0017	0.002914434
45	0x3b060335	0.002044869
46	0xbb1fac3d	-0.0024364137
47	0x3b97371b	0.0046147234
48	0xba91d517	-0.0011126128
49	0xb913e8b9	-0.00014105708
50	0xbb66122a	-0.0035106041
51	0x3af3d39c	0.0018602493
52	0x3b0a9751	0.002114732
53	0x3a86ad32	0.0010275005
54	0x39c3748a	0.00037280127
55	0xbbbb006d	-0.005706838
56	0x3ba18bae	0.004929981
57	0xb97325b7	-0.00023188336
58	0x3b62d84c	0.0034613786
59	0x3b6b8b47	0.003594117
60	0xbba7203c	-0.005100278
61	0x3b7f24b7	0.0038931796
62	0xbb825b58	-0.003978174
63	0x3af27066	0.0018496632
64	0x3ba5c220	0.005058542
65	0x3ba529e7	0.0050403955
66	0x3aee7fe7	0.0018196077
67	0xbbaa93c9	-0.0052056056
68	0x3b4cba44	0.0031238953
69	0xbb67020f	-0.003524903
70	0x3b1a4aa9	0.0023543036
71	0xbbb40625	-0.0054938965
72	0xbb1f8729	-0.0024342036
73	0xbb9246be	-0.0044639995
74	0xba946716	-0.0011322226
75	0xbb031b02	-0.0020005112
76	0xbbb9c6cc	-0.0056694504
77	0xbbbbe668	-0.0057342537
78	0x3a4d99dc	0.0007843056
79	0x3a510798	0.0007973849
80	0xbb170e75	-0.0023049389
81	0xbb4b2cf9	-0.0031002148
82	0xbb92aed2	-0.0044764066
83	0xbb69ebb3	-0.0035693466
84	0xbb1369cf	-0.0022493487
85	0xbb1e61a0	-0.0024167076
86	0x3b730497	0.0037081593
87	0x3ac6c989	0.0015166263
88	0x3b9de3b5	0.0048184046
89	0xbb9ed2b1	-0.0048468937
90	0x3b07acfe	0.0020702477
91	0x3aaf9608	0.0013396153
92	0xbb9b2f18	-0.0047358386
93	0x3b4d34b9	0.0031311943
94	0xbb24b738	-0.002513362
95	0xbb183493	-0.0023224696
96	0x3b062c8f	0.0020473336
97	0x3ab32443	0.0013667423
98	0x39a591e3	0.00031579947
99	0x3bac224d	0.0052531124
100	0xbadb1949	-0.001671591
101	0xbb6aad50	-0.0035808869
102	0xbbbf8223	-0.005844371
103	0x3aa39774	0.001248105
104	0xbb94ad9c	-0.0045372974
105	0x3b9bd502	0.004755617
106	0x3ae33c26	0.0017336651
107	0xbab5a6d4	-0.0013858923
108	0x3b75438d	0.0037424297
109	0x3ba77f83	0.005111636
110	0x3b8ccdd8	0.0042969994
111	0xbb13b919	-0.0022540747
112	0x3a094523	0.00052364374
113	0xbb4bc962	-0.0031095375
114	0x3b6e8644	0.0036395947
115	0x3bb514d3	0.005526164
116	0xb9310d38	-0.0001688496
117	0x3b7d585b	0.00386574
118	0x3b0189d5	0.0019765992
119	0x3b3bf265	0.0028678414
120	0xbb8f0868	-0.004365016
121	0xbb846b40	-0.0040411055
122	0xbba3b4cc	-0.004995918
123	0x3bb7a909	0.0056048674
124	0x3b1cba28	0.0023914669
125	0x3b8d96b4	0.0043209437
126	0x3b846e20	0.0040414482
127	0x3b9ab1c8	0.0047209
128	0xbaba651b	-0.0014220806
129	0xbbbabcd9	-0.005698782
130	0x3a3a5d39	0.0007109228
131	0xbb1d8415	-0.0024035026
132	0x3b2132fc	0.002459704
133	0x3b24feee	0.0025176364
134	0x3a147f81	0.00056647515
135	0xbbb7f0df	-0.005613431
136	0x3acef085	0.0015788233
137	0xbb52ad79	-0.0032146855
138	0xbb308f06	-0.0026940717
139	0x3b9320cc	0.0044899937
140	0xbb45deda	-0.0030192644
141	0x3af390c2	0.001858257
142	0xbadc62dd	-0.0016814132
143	0x397792a6	0.00023610386
144	0xbb32d818	-0.0027289446
145	0xbb0ad5b5	-0.0021184508
146	0x3ba37513	0.0049883216
147	0x3b51ff21	0.0032042938
148	0xbba301df	-0.0049745883
149	0x3bab2505	0.005222919
150	0xbb66ae72	-0.0035199192
151	0xbb775809	-0.0037741682
152	0xbbaa626b	-0.0051997206
153	0xb9b03cac	-0.0003361454
154	0xbb2f609e	-0.002676047
155	0xbbbb4c58	-0.005715888
156	0x3b2351c9	0.0024920574
157	0xbabbd6d9	-0.0014330997
158	0x3b13bd2e	0.002254318
159	0xbb923f8a	-0.004463141
160	0xbb73ca0b	-0.0037199284
161	0xbb5c329b	-0.00335995
162	0xb9c91935	-0.00038356488
163	0xbba9043e	-0.0051579764
164	0x3a87fa26	0.0010374233
165	0xb84dfd41	-4.911167e-05
166	0x3b9c531b	0.004770649
167	0xb9afe059	-0.00033545753
168	0x3ba6501f	0.005075469
169	0x3b44463f	0.0029949096
170	0x36987bed	4.54438e-06
171	0xb97d9f0a	-0.00024187207
172	0x39e307f3	0.00043302737
173	0x3a03766b	0.0005014899
174	0xbabbb741	-0.0014321582
175	0xbb672942	-0.0035272394
176	0xba3a0499	-0.0007096022
177	0xbb4786e0	-0.0030445382
178	0xbab8366b	-0.0014054304
179	0xbb9bc1af	-0.0047533135
180	0x3b98c02b	0.00466158
181	0x3b333953	0.00273474
182	0xbadd00b4	-0.0016861171
183	0xbaff3ed9	-0.0019473686
184	0x3bb6e6cf	0.0055817137
185	0xbbb21a68	-0.005435277
186	0xbbb878e5	-0.005629646
187	0xba97e9d4	-0.0011590072
188	0x3aca2dd6	0.0015425037
189	0xbb9245e8	-0.0044639
190	0x3b70fa82	0.0036770408
191	0xbad43bb5	-0.001619211
192	0x3b9099a6	0.0044128476
193	0x3b7dd60a	0.0038732314
194	0xbb865200	-0.0040991306
195	0x3b52facd	0.0032192946
196	0x3b4099cf	0.0029388552
197	0xba6c9d88	-0.00090261595
198	0x3b8665b3	0.004101479
199	0xbb9ed67f	-0.0048473473
200	0x3aa97d10	0.0012930948
201	0xbab68ff1	-0.0013928396
202	0xb8b03c08	-8.403516e-05
203	0xbb117a24	-0.0022198046
204	0xbb2388d6	-0.0024953387
205	0x3b7f3c2d	0.003894578
206	0x3b5f4fc4	0.0034074644
207	0x3b872745	0.0041245543
208	0xbb9460e7	-0.004528153
209	0x3a3b5afe	0.0007147043
210	0x39c4f97f	0.00037569922
211	0xbb8a3a97	-0.0042184102
212	0x3b71b42d	0.0036881075
213	0xbaf36fad	-0.0018572711
214	0xbb4918fe	-0.0030685063
215	0xb98393d9	-0.00025096422
216	0x3b3283ee	0.002723928
217	0x3ae10763	0.0017168339
218	0x3b99853b	0.0046850718
219	0x3a0fe1b8	0.0005488652
220	0xbba0a53c	-0.00490251
221	0xbb0973d3	-0.0020973578
222	0xba5dccfd	-0.00084610266
223	0x3baaabd2	0.005208471
224	0x3b2b1d99	0.002611017
225	0x3ad1942f	0.0015989597
226	0xbb9c29e0	-0.004765734
227	0xbb2a74da	-0.002600959
228	0x3b19b9d1	0.0023456702
229	0xbb4f6fef	-0.003165241
230	0xbb08af1c	-0.0020856326
231	0x3bb6dc99	0.0055804965
232	0x3aa0146b	0.0012213116
233	0x3b249bee	0.0025117355
234	0x3b73d8ad	0.0037208006
235	0xbbb5d2a1	-0.0055487906
236	0x3ad67767	0.0016362489
237	0xbb8f0213	-0.004364261
238	0xbaec87a7	-0.0018045799
239	0x3b37da1f	0.0028053594
240	0xbbb73284	-0.0055907387
241	0x3b86d1f8	0.0041143857
242	0x3aebf9e4	0.001800355
243	0x3b65406f	0.0034981032
244	0x3b2db6d7	0.0026506686
245	0x3b227a50	0.0024792142
246	0xb91dc60a	-0.00015046462
247	0x3bb28ad2	0.0054486776
248	0xbb4d1fd5	-0.003129949
249	0xba26fa32	-0.00063696795
250	0xbaa2ae59	-0.0012411579
251	0x3ad163f8	0.0015975228
252	0x3b3ebb59	0.0029103367
253	0x3b6802ce	0.0035402062
254	0x3b34d1e6	0.002759093
255	0xbb828e9e	-0.0039842864

_func._drift._model.0.bias f4 [16]
0	0x3bb77fe7	0.005599964
1	0xb9c7501d	-0.00038015927
2	0x3b19ad7d	0.0023449354
3	0x3b0f54a7	0.0021870525
4	0xb7c99961	-2.403249e-05
5	0xbb1641d3	-0.0022927418
6	0x3b8211c9	0.0039694053
7	0xbbaea95d	-0.0053302483
8	0xbbacebf9	-0.0052771536
9	0xbba9b627	-0.005179185
10	0xbb0c15c1	-0.002137527
11	0x3aad2668	0.0013210298
12	0xb9ad8722	-0.00033097813
13	0x38fa431b	0.00011933428
14	0x3b990738	0.00467005
15	0xbb9a0977	-0.0047008353

_func._drift._model.2.weight f4 [16, 16]
0	0xbb24df0d	-0.0025157363
1	0x3b12d170	0.0022402667
2	0xbbb240d0	-0.005439855
3	0xbbc3efa2	-0.005979494
4	0xbb7a9f92	-0.0038242084
5	0xbbbbc5a6	-0.0057303486
6	0xbb074241	-0.0020638856
7	0xbbb41f65	-0.0054969066
8	0xba361228	-0.00069454545
9	0x3b50f256	0.0031882725
10	0xbba25631	-0.0049541225
11	0xbbbd2c36	-0.0057730926
12	0x3b63f3ce	0.003478277
13	0xbb016639	-0.0019744767
14	0x3b20ab65	0.0024516222
15	0x3b308d30	0.0026939623
16	0xbaab3275	-0.0013061302
17	0xb9d29320	-0.00040163938
18	0xb8a514e8	-7.871707e-05
19	0xbb9bdc7b	-0.004756508
20	0x3bb389db	0.00547908
21	0xb99cdc5d	-0.00029918822
22	0x3b0c1b3b	0.0021378535
23	0x3a7b5ca3	0.0009588694
24	0x3ba4500d	0.0050144256
25	0xbb9d75a3	-0.004805283
26	0xbb81cd08	-0.003961209
27	0xb915b427	-0.0001427686
28	0xbb1a7ba5	-0.0023572233
29	0x3b0738e7	0.0020633282
30	0x3bb0bc55	0.0053935447
31	0xb9ac6946	-0.0003288483
32	0xbba9f32b	-0.0051864586
33	0x3ba42b0c	0.0050100144
34	0xbac4be52	-0.0015010333
35	0x3afd96fb	0.0019347364
36	0xbb006e0b	-0.001959684
37	0x3bb04fe4	0.0053806175
38	0xbb619fb9	-0.0034427478
39	0x3a45e191	0.00075485656
40	0x3b31e385	0.002714367
41	0xbba281cb	-0.00495932
42	0x3ade4883	0.0016958866
43	0xbb645c00	-0.0034844875
44	0x3bae0310	0.0053104237
45	0x3ba0e009	0.0049095196
46	0x3af8c2d8	0.0018978966
47	0xbb4105e8	-0.0029452983
48	0x39660294	0.0002193547
49	0x3ba88856	0.0051432056
50	0x3b77a422	0.003778704
51	0xbb3a7371	-0.0028450156
52	0xbb55465d	-0.003254316
53	0xbac4f7ec	-0.00150275
54	0xbadf4005	-0.0017032629
55	0xbb3f5189	-0.0029192886
56	0xbbc156a6	-0.005900222
57	0x386470cb	5.4464483e-05
58	0x3aad1c28	0.0013207244
59	0xbb8bc1d6	-0.0042650504
60	0x3b4a2fb1	0.003085118
61	0xbb2bd9e3	-0.00262224
62	0x3b70ed7c	0.0036762645
63	0xbb2f967a	-0.0026792572
64	0x3bb3448e	0.005470819
65	0xbb645ab2	-0.0034844098
66	0x3aa6f4dd	0.001273777
67	0x3addcfe5	0.0016922919
68	0x3b909ab0	0.0044129714
69	0x3b42ccd5	0.002972414
70	0xbb9bee8f	-0.004758663
71	0xba873dd4	-0.0010318109
72	0xb99d51e8	-0.00030006398
73	0x3b537039	0.0032262935
74	0xbb5870db	-0.0033026251
75	0x3b4e60a0	0.0031490698
76	0xbb7db3a8	-0.003871182
77	0x3b1af135	0.0023642306
78	0xbb8c5f81	-0.004283846
79	0x3abb79da	0.0014303282
80	0xb7d25be9	-2.507675e-05
81	0x3b927592	0.004469582
82	0xbb366219	-0.0027829467
83	0x3acbbc5e	0.0015543809
84	0xbb8ac08b	-0.0042343787
85	0xbb3ae04f	-0.0028515046
86	0x3b5658b5	0.0032706682
87	0x3aace70e	0.0013191418
88	0x3b9ad7ad	0.0047254176
89	0x3b3117f2	0.002702233
90	0x3b723d2b	0.0036962728
91	0xbb46f359	-0.003035745
92	0x3a16d7a3	0.0005754178
93	0xbbb2a135	-0.0054513463
94	0x3ae6d3cf	0.0017610731
95	0xba8c9a12	-0.0010727069
96	0x3b107d3d	0.0022047304
97	0xbb07f445	-0.0020744961
98	0xbad8e2e5	-0.0016547112
99	0x3b6a05f6	0.003570912
100	0x3b66a35c	0.0035192585
101	0x3bacff22	0.0052794376
102	0xbbbb34ac	-0.005713066
103	0xbb08235d	-0.0020773031
104	0xbbaa064b	-0.0051887385
105	0x3a9b70a5	0.0011859132
106	0x3bab3d0b	0.0052257827
107	0xbaeac9fd	-0.001791298
108	0xba1edd9a	-0.0006060243
109	0xbae3433b	-0.0017338762
110	0xbb070093	-0.0020599707
111	0x3ad913c1	0.0016561673
112	0x3b845d9d	0.00403948
113	0xbb7fb9da	-0.0039020688
114	0x3b9e3dce	0.004829145
115	0x3b93cb84	0.004510345
116	0xb97a7db1	-0.00023888682
117	0xbb87e719	-0.004147422
118	0xbb99c713	-0.004692921
119	0xba883674	-0.0010392205
120	0xb98c44bd	-0.00026754095
121	0xbb97d5e9	-0.0046336544
122	0xbbb8c027	-0.0056381407
123	0x3af0d051	0.001837263
124	0x39fbb69d	0.00048010508
125	0x3b886269	0.004162122
126	0x3a97ec97	0.0011590895
127	0x3b17fe61	0.0023192393
128	0x3a266e78	0.00063488586
129	0x3b241755	0.002503832
130	0xbb30a8dc	-0.0026956117
131	0x37f6869c	2.9388168e-05
132	0x3b516c0a	0.0031955265
133	0x3b00c58d	0.0019649
134	0x3b382303	0.002809704
135	0xbbab31a2	-0.0052244226
136	0xb829d02c	-4.0486615e-05
137	0xbb4b58fa	-0.0031028376
138	0xbaba0ae1	-0.0014193916
139	0x3b305fd2	0.0026912582
140	0xba9e7454	-0.0012089112
141	0xbb3aaa0c	-0.0028482703
142	0xb905f434	-0.00012774841
143	0xbb76e7eb	-0.0037674855
144	0xbb246111	-0.002508227
145	0xbb30f9e0	-0.0027004406
146	0x3bb2d60b	0.005457645
147	0xbb347c79	-0.0027540012
148	0xbb56b4eb	-0.0032761644
149	0xbac99431	-0.0015379247
150	0x3b8d92f7	0.004320498
151	0x380642ac	3.2010183e-05
152	0xba692910	-0.00088943634
153	0x3b5b0d6f	0.0033424755
154	0x3b7c877b	0.00385329
155	0x3bb65dd7	0.005565386
156	0xbb863af0	-0.0040963814
157	0x3b4c4d23	0.0031173907
158	0xbb818611	-0.0039527495
159	0xbb3cc72d	-0.0028805241
160	0x3ba2c44e	0.004967249
161	0x3b0a10d9	0.002106717
162	0xbb330fd6	-0.0027322671
163	0xbac4fc71	-0.0015028847
164	0x3b6661ee	0.0035153585
165	0x3a8b2ec4	0.0010618796
166	0xbaa8bbef	-0.0012873391
167	0xbacb7f9e	-0.0015525704
168	0xbae5c1eb	-0.0017529106
169	0xba742b9c	-0.00093143596
170	0x3b96baa7	0.0045998874
171	0xbb8ac162	-0.004234479
172	0x3b7d2e70	0.0038632415
173	0x3a7c34f5	0.00096209283
174	0x3bc377c5	0.0059652054
175	0x3b0234e7	0.0019867958
176	0xbbc4f9e5	-0.006011235
177	0xbb0acde7	-0.0021179856
178	0xba84bb3a	-0.0010126599
179	0x3b098f2d	0.002098988
180	0xbbb579b8	-0.0055381916
181	0x3b072ba7	0.0020625384
182	0xbaa2fcde	-0.001243498
183	0xbb5e7366	-0.0033943295
184	0xbb8bdeed	-0.004268518
185	0xbb7308cd	-0.0037084103
186	0xbbaebb47	-0.005332384
187	0xb9e4d81a	-0.00043648557
188	0x3b1c313f	0.0023833064
189	0xbb5c771e	-0.0033640335
190	0xbb61cddc	-0.0034454977
191	0x396f64cb	0.00022830364
192	0xbba031d7	-0.004888754
193	0xbb8aa3da	-0.0042309584
194	0xbad1c0d8	-0.0016002906
195	0x3b829660	0.0039852113
196	0x3b4966e7	0.00307315
197	0x3a92d4e0	0.0011202358
198	0xbb026f9d	-0.0019902952
199	0xbba77ec4	-0.005111547
200	0x3b686574	0.0035460861
201	0x396771df	0.00022072297
202	0x3b274c46	0.002552764
203	0xb95b41ea	-0.00020910022
204	0x3b540b2b	0.003235529
205	0xb83b925c	-4.4720582e-05
206	0x3b4ac8dd	0.0030942478
207	0xba8063fb	-0.0009795422
208	0xbb010004	-0.0019683847
209	0x3a9b1e75	0.0011834638
210	0xbbc1ef39	-0.00591841
211	0xbb9419c8	-0.004519675
212	0x3a1d4d6d	0.0006000612
213	0x3bbc7794	0.0057515595
214	0xbad9e086	-0.0016622699
215	0xbaf8fa8c	-0.0018995567
216	0x3b660c39	0.00351025
217	0x3ba72535	0.005100871
218	0xbb6df504	-0.003630937
219	0x3bb071f8	0.00538468
220	0xbafed949	-0.0019443418
221	0x3b5562e3	0.0032560162
222	0x3ae8444e	0.0017720552
223	0x3a53f505	0.0008085522
224	0x3b9e7b86	0.0048365025
225	0xba939e0f	-0.0011262315
226	0xb9c4121b	-0.00037397523
227	0x3b774d49	0.0037735275
228	0xbb17fac3	-0.0023190237
229	0x3ac583c2	0.0015069174
230	0x3b666e42	0.0035160934
231	0x398f674a	0.00027352042
232	0x3bbd68be	0.0057803085
233	0x39ca89ef	0.0003863121
234	0x3b297194	0.0025855051
235	0x3b5e3052	0.0033903313
236	0x3ba30989	0.004975502
237	0xbb37c039	-0.0028038158
238	0xb91fba2f	-0.0001523278
239	0xbb1e1ebf	-0.0024127213
240	0xbb314e21	-0.0027054625
241	0xbb228452	-0.0024798107
242	0x3a467804	0.00075709843
243	0xbb893edb	-0.004188401
244	0xbb1e66c7	-0.0024170147
245	0x3b9bb2c3	0.0047515347
246	0x3b00a427	0.0019629092
247	0x3bc52976	0.0060169054
248	0xba6c1aa7	-0.0009006657
249	0xb96f9f1b	-0.00022852088
250	0xbb4a329d	-0.0030852922
251	0x3a70902d	0.00091767573
252	0x3abc7ce7	0.0014380486
253	0x3b92c5bc	0.004479138
254	0xbb948591	-0.004532524
255	0xbaf45282	-0.0018640312

_func._drift._model.2.bias f4 [16]
0	0x3ba7fd41	0.0051266258
1	0xbb833bfe	-0.0040049544
2	0x3b2629bd	0.0025354468
3	0xbb8f4c92	-0.0043731416
4	0xbb328931	-0.0027242417
5	0xbbba0c28	-0.0056777187
6	0xbb60e05c	-0.0034313416
7	0xbb3fbb00	-0.0029255748
8	0x3ba14800	0.004921913
9	0xbb7d29c2	-0.0038629626
10	0x3b890b43	0.0041822507
11	0x3a2ca436	0.00065857486
12	0x3b2ec306	0.0026666536
13	0x3b854328	0.0040668435
14	0x3b932fdd	0.0044917897
15	0xbb98b9ab	-0.004660805

_func._diffusion._model.0.weight f4 [16, 17]
0	0x3da35077	0.07974332
1	0xbd7acba9	-0.06122938
2	0xbd25ba53	-0.040460896
3	0x3d97ec42	0.074181095
4	0xbde5a7d4	-0.11213651
5	0xbd3a6126	-0.045502804
6	0x3d5c317d	0.053758133
7	0x3c76be56	0.015060028
8	0xbcac542d	-0.021036232
9	0x3daa3c92	0.08312334
10	0x3d8ab880	0.06773472
11	0x3d7be7e0	0.06150043
12	0x3cdca764	0.026935287
13	0x3cc93bb2	0.024564598
14	0xbcffba93	-0.031216895
15	0x3ce206d2	0.027591143
16	0xbd834e06	-0.06411366
17	0xbd4d9e12	-0.050199576
18	0x3c3a3555	0.011365254
19	0xbd6b0033	-0.057373237
20	0xbcaa9f65	-0.020827958
21	0xbc464300	-0.012100935
22	0x3d3008b2	0.042977042
23	0x3cb87193	0.022515094
24	0x3d41b7f4	0.047294572
25	0x3cf4324a	0.029809136
26	0xbc842d33	-0.016134834
27	0x3c62c620	0.013841182
28	0xba22bc45	-0.0006207864
29	0x3d35a045	0.044342298
30	0x3d280ada	0.041025974
31	0x3b6ad200	0.0035830736
32	0xbc8c8cd8	-0.017157003
33	0xbd9c5486	-0.07633309
34	0x3c5eb303	0.013592484
35	0x3d0e7a26	0.03478446
36	0x3d1fc909	0.03901008
37	0x3d572082	0.052521236
38	0xbd13388c	-0.0359426
39	0x3d5e9bd6	0.054347835
40	0xbd5ca32b	-0.053866547
41	0xbb0f33c0	-0.0021850914
42	0x3d0b4bfd	0.034008015
43	0x3d09055b	0.033452373
44	0x3d595225	0.053056855
45	0x3d848ee9	0.064725704
46	0xbd5627bd	-0.05228399
47	0xbb002597	-0.0019553655
48	0x3d2a2d28	0.04154697
49	0x3c958f9a	0.018256951
50	0x3bbef611	0.0058276732
51	0x3ce94ed1	0.028479965
52	0x3c5ab6a8	0.013349213
53	0xbc2898f7	-0.010290376
54	0xbcac56b0	-0.02103743
55	0xbdf401a3	-0.11914375
56	0x3cd00176	0.025391322
57	0xbc7f8341	-0.015595258
58	0x3cd8cde8	0.026465371
59	0xbda88547	-0.08228546
60	0x3d966c0c	0.07344827
61	0x3c9338cf	0.017971424
62	0x3d30059e	0.042974107
63	0x3d0f488d	0.0349813
64	0xbcf60c4f	-0.030035166
65	0xbd9f0711	-0.0776502
66	0xbd141cb3	-0.036160182
67	0xbd48a66e	-0.048986845
68	0xbdae0c11	-0.08498395
69	0x3c63e1f5	0.013908853
70	0x3cdbc67d	0.026828045
71	0xbd9293a0	-0.071570635
72	0x3d868420	0.065681696
73	0xbd8cc03c	-0.06872603
74	0x3b4c1bbe	0.0031144465
75	0xbdc96ba6	-0.098349854
76	0x3d003307	0.031298663
77	0xbde397c9	-0.11112935
78	0xbd3a11eb	-0.045427244
79	0xbcd4be97	-0.025969787
80	0xbdb15c37	-0.08660167
81	0xbd119045	-0.035537977
82	0x3bae03dc	0.0053105187
83	0xbd337b96	-0.043819033
84	0x3c41988c	0.011816155
85	0x3db173fb	0.086647
86	0xbda9ab55	-0.08284632
87	0x3cad10f8	0.021126255
88	0xbc9b40bb	-0.018951764
89	0xbdcef205	-0.10104755
90	0xbd5ed823	-0.054405343
91	0xbcf2a76b	-0.029620847
92	0x3b05613d	0.0020352148
93	0xbd9dc04a	-0.07702692
94	0x3d86af87	0.06576448
95	0xbcbc3508	-0.022974506
96	0x3d910cc5	0.07082514
97	0xbd479e51	-0.048734967
98	0xbd360d63	-0.04444636
99	0x3d07a3e4	0.033115283
100	0x3d451297	0.04811343
101	0x3b1367e9	0.0022492355
102	0xbdee33e0	-0.11630988
103	0xbc9793a6	-0.018503021
104	0xbcc56947	-0.024098052
105	0xbd55eb92	-0.05222661
106	0x3b183ee3	0.0023230843
107	0xbd8760c8	-0.066102564
108	0x3c0a619c	0.008446123
109	0xbc972392	-0.018449578
110	0x3d648c30	0.055797756
111	0xbda82eef	-0.08212077
112	0xbd6e65ce	-0.058202557
113	0xbd564f92	-0.052321978
114	0xbd7b01b2	-0.061280914
115	0xbd18e986	-0.03733208
116	0x3d315bbd	0.04330038
117	0xbdb89620	-0.09013009
118	0x3d2b0602	0.041753776
119	0xbd0ac4ee	-0.033879213
120	0xbb1a36e6	-0.0023531257
121	0xbc97fcb0	-0.018553108
122	0xbdabda80	-0.08391285
123	0xbbc67a57	-0.0060570645
124	0xbc92cf9c	-0.017921261
125	0xbd134aec	-0.035960123
126	0xbd837692	-0.064191
127	0x3b89fe70	0.0042112395
128	0xbd93b262	-0.07211758
129	0xbd559315	-0.05214222
130	0xbda33e35	-0.079708494
131	0xbcff41bc	-0.031159274
132	0x3bd29e8f	0.006427593
133	0xbcdba52c	-0.026812159
134	0xbd86666b	-0.065625034
135	0x3ced8b2d	0.028997028
136	0x3d16c19c	0.036805734
137	0xbd939ea1	-0.072079904
138	0xbbb522e8	-0.005527843
139	0x3d01d319	0.03169546
140	0xbdc31473	-0.09525385
141	0xbc731770	-0.014837131
142	0x3d1a67c3	0.03769661
143	0x3d725b0c	0.05916886
144	0xbad67ce8	-0.0016364129
145	0xbbd33318	-0.0064453
146	0x3bd178e2	0.006392584
147	0x3d4e796c	0.050408766
148	0xbd38248c	-0.04495673
149	0x3cfc1dfe	0.03077602
150	0xbd681247	-0.056658056
151	0x3ca3818c	0.019959234
152	0xbd4ffa3a	-0.050775744
153	0xbd148635	-0.036260802
154	0x3d3dfb4a	0.046382226
155	0x3ba2bf55	0.004966656
156	0xbde08ae5	-0.10963992
157	0x3bb41865	0.005496072
158	0xbd1119fd	-0.035425175
159	0xbd0887de	-0.033332698
160	0xbd824529	-0.063608475
161	0x3d2e8a0b	0.042612117
162	0xbd3db8e1	-0.046318892
163	0xbdb907d0	-0.09034693
164	0xbd26ce25	-0.04072394
165	0xbc41b045	-0.011821811
166	0xbb54563a	-0.0032400028
167	0xb9a4f5b9	-0.00031463595
168	0xbd9f4bd7	-0.07778137
169	0x3d3626b5	0.044470508
170	0xbdc92ac9	-0.09822614
171	0xbd36336d	-0.044482637
172	0xbd31ef06	-0.04344084
173	0xbcb84964	-0.022495933
174	0x3d42a267	0.04751816
175	0x3c9e277e	0.01930594
176	0xbd8fed44	-0.07027677
177	0xbd2f961c	-0.042867765
178	0x3d76e41f	0.060276147
179	0xbe010e24	-0.1260305
180	0xbd889c37	-0.066704206
181	0xbcedc74e	-0.0290257
182	0xbd3b9918	-0.0458003
183	0x3bfd8192	0.0077363933
184	0xbd0f414b	-0.034974378
185	0xbd3ffe27	-0.046873238
186	0x3cb7fff5	0.022460917
187	0x3bf6d8ca	0.0075331675
188	0x3cd17917	0.025570435
189	0xbb3dcff2	-0.0028963056
190	0x3d1338c6	0.035942815
191	0xbc08a71f	-0.008340626
192	0xbc5e1746	-0.0135553535
193	0xbba1c57e	-0.004936873
194	0x3d5cd327	0.053912308
195	0xbdaa5b74	-0.083182245
196	0x3c115ffc	0.008872982
197	0xbce62380	-0.0280931
198	0x3d7ba4d1	0.061436478
199	0x3d08a724	0.033362523
200	0xbdb0f605	-0.086406745
201	0xbc9ddbb5	-0.019269804
202	0x3d6fe7fc	0.058570847
203	0xbd7fe290	-0.062471926
204	0xbd81a3e8	-0.06330091
205	0x3b86f9e9	0.004119147
206	0x3be68e42	0.0070360014
207	0xbdba4328	-0.0909484
208	0x3d2608f5	0.040535886
209	0x3b3acbdf	0.0028502864
210	0xbd82bb3c	-0.063833684
211	0xbda5c7e2	-0.08094765
212	0x3c843366	0.01613779
213	0xbd3a7c67	-0.045528796
214	0xbda107e7	-0.078628354
215	0xbd616013	-0.055023264
216	0xbd282706	-0.04105284
217	0x3cdbe5bf	0.02684295
218	0xbc794fe1	-0.0152167985
219	0xbd3ab63f	-0.04558396
220	0x3d73433b	0.059390288
221	0x3d83659a	0.06415863
222	0x3c57d8d5	0.013174255
223	0xbb0edeba	-0.0021800236
224	0x3d85ad06	0.06527142
225	0xbd8b4147	-0.0679956
226	0xbd19ab54	-0.037516907
227	0xbc64adbf	-0.01395744
228	0x3d0402a1	0.03222907
229	0xbd60c312	-0.054873534
230	0x3d9f5b91	0.07781137
231	0x3d8962bc	0.06708285
232	0x3d5c7bb9	0.05382893
233	0x3cbdcf92	0.023170266
234	0x3c92114a	0.01783051
235	0xbc69f20b	-0.014278899
236	0xbc6d7c47	-0.014494962
237	0xbc42485a	-0.01185807
238	0x3c11a6ff	0.008889913
239	0x3b31253a	0.0027030245
240	0x3cd26c7d	0.025686497
241	0x3c1625e4	0.009164307
242	0xbc8fe5a5	-0.017565558
243	0x3c23ae91	0.00999035
244	0xbba0d51d	-0.0049082176
245	0x3d1418a9	0.03615633
246	0xbd9bbf50	-0.07604849
247	0x3c7dec7c	0.015498277
248	0x3ce14566	0.027498912
249	0x3d03fc07	0.032222774
250	0xbb853739	-0.004065421
251	0xbdb72562	-0.08942677
252	0xbcffa642	-0.031207208
253	0x3d23a4dc	0.039952144
254	0xbccded17	-0.025137467
255	0xbb6ba3d2	-0.0035955799

_func._diffusion._model.0.bias f4 [16]
0	0x3ddbf0ef	0.10739314
1	0x3c6bba30	0.014387652
2	0x3c73800e	0.014862074
3	0x3dc77f78	0.097411096
4	0xbc38b815	-0.011274357
5	0x3c6f9d1f	0.014624863
6	0xbd6dc810	-0.058052123
7	0xbdcca632	-0.09992637
8	0x3d6fd632	0.058553882
9	0xbcdfcce8	-0.027319387
10	0xbc9cae90	-0.019126207
11	0x3d4c9ec2	0.04995609
12	0xbda9be04	-0.08288196
13	0x3dbd5e23	0.09246471
14	0x3d9ea6d5	0.077466644
15	0x3c0ad14b	0.008472751

_func._diffusion._model.2.weight f4 [48, 16]
0	0x3d946678	0.07246107
1	0x3d578ad4	0.05262263
2	0xbc022fe1	-0.0079459855
3	0x3d3cb9da	0.04607568
4	0xbdc6f020	-0.09713769
5	0x3d25b3eb	0.040454786
6	0x3b90e9e9	0.0044224155
7	0xbbb87d4c	-0.005630171
8	0x3d18def6	0.037322007
9	0xbdaf7631	-0.08567465
10	0x3c33e679	0.010980242
11	0x3d7b332a	0.06132809
12	0xbd65d48d	-0.056110907
13	0xbccf57c6	-0.025310408
14	0xbc961756	-0.018321674
15	0x3d90e23d	0.070744015
16	0x3d1000cb	0.035157006
17	0xbd226d88	-0.03965524
18	0xbce30323	-0.027711457
19	0x3c27def3	0.010246026
20	0xbd92ca21	-0.07167459
21	0x3d4e08c7	0.05030134
22	0xbd0b4537	-0.034001555
23	0xbdb305a2	-0.08741309
24	0x3d9e1f24	0.07720783
25	0xbc113d8f	-0.008864774
26	0x3c138bbc	0.009005483
27	0x3d8924de	0.06696485
28	0xbc68e9e0	-0.014215916
29	0xbcd3bbee	-0.025846448
30	0xbcf31f92	-0.02967814
31	0xbc761821	-0.015020401
32	0x3c1f06fb	0.009706254
33	0xbcbe8d9e	-0.023260888
34	0xbd0b94dd	-0.034077514
35	0x3dc6b556	0.09702556
36	0xbdaeb1c1	-0.085299976
37	0x3d21fa06	0.03954508
38	0xbd37cfb6	-0.044875823
39	0x3ccd4235	0.025055984
40	0xbc5d938a	-0.013523946
41	0xbcf6ce3a	-0.030127633
42	0xbdb63b46	-0.08898024
43	0xbcb10d6c	-0.021612845
44	0xbcf13b14	-0.029447116
45	0x3a69d6f6	0.00089202763
46	0x3cb64f98	0.02225475
47	0xbca12edb	-0.019675663
48	0x3d95d56d	0.07316098
49	0x3d6dc5cf	0.058049973
50	0xbd546f97	-0.051864233
51	0x3c621160	0.013798088
52	0x3bb8e781	0.005642832
53	0xbc8cc16d	-0.017182076
54	0xbd3095e5	-0.0431117
55	0xbd0a135b	-0.033709865
56	0x3d634e2f	0.055494484
57	0xbd2c38cb	-0.04204635
58	0xbc951cbc	-0.018202178
59	0xbc49c60f	-0.012315287
60	0xbcbe33ac	-0.023217998
61	0xbbcf236f	-0.0063213627
62	0x3d7fb5e5	0.062429328
63	0x3d24d378	0.040240735
64	0x3d8980eb	0.06714042
65	0x3bf0843b	0.007339982
66	0xbc09eccd	-0.008418274
67	0x3dc2a08d	0.09503279
68	0xbd2ac4a1	-0.041691426
69	0x3d89e08c	0.06732282
70	0xbd8b782e	-0.06810032
71	0x3c19970a	0.009374389
72	0x3d40b871	0.047050897
73	0xbda856ff	-0.08219718
74	0xbd131790	-0.035911143
75	0xbd1c1c78	-0.038113087
76	0xbcdefa23	-0.027218884
77	0x3bb67e8d	0.0055692852
78	0x3b2305d3	0.0024875298
79	0x3c645ab4	0.013937641
80	0x3db9a8fd	0.09065435
81	0x3c8a48ca	0.016880412
82	0xbd4c1943	-0.04982878
83	0x3d88df5c	0.066832274
84	0xbce89185	-0.028389702
85	0x3d36db62	0.044642814
86	0xbcee1caf	-0.029066412
87	0xbc936229	-0.017991142
88	0x3d0d112d	0.03444021
89	0xbd2abacf	-0.04168206
90	0xbba158ae	-0.0049239015
91	0x3d74bc15	0.05974968
92	0xbdbd1c42	-0.092339054
93	0x3cc0e18e	0.023545053
94	0x3ca6da89	0.020367878
95	0x3d788cfd	0.060681332
96	0x3da197b0	0.0789026
97	0x3d1f6417	0.038913812
98	0xbd725526	-0.059163235
99	0x3cd3bfe6	0.02584834
100	0x3b92c0c6	0.004478547
101	0x3c00ae5f	0.007854073
102	0xbd34e2aa	-0.044161476
103	0xbd91445e	-0.07093118
104	0x3d52c918	0.05146131
105	0xbca9d464	-0.020731159
106	0xbd2662c0	-0.04062152
107	0x3d3aa3c5	0.04556634
108	0xbd37c587	-0.04486611
109	0xbb96b0fe	-0.004598736
110	0x3d9875d9	0.07444353
111	0x3d5146b2	0.05109281
112	0x3db06a95	0.08614079
113	0x3bc291d1	0.005937793
114	0xbd0c4c48	-0.034252435
115	0x3c81a4ac	0.015825592
116	0xbd806af5	-0.062704004
117	0x3a36a01d	0.0006966608
118	0xbc51d305	-0.012806659
119	0xbd7d0335	-0.061770637
120	0x3dbe546d	0.09293447
121	0xbdad4878	-0.08461088
122	0xbcc68f20	-0.02423817
123	0x3d6dc5bd	0.058049906
124	0xbdb4d7bb	-0.0883021
125	0x3d30adca	0.04313449
126	0x3da564b6	0.0807585
127	0x3d241481	0.040058617
128	0xbcdd5927	-0.02702005
129	0xbcbb8e01	-0.022894861
130	0x38c7d911	9.529491e-05
131	0x3d17325a	0.036913253
132	0xbd603189	-0.05473474
133	0x3d3c5f7a	0.04598949
134	0xbcbc099a	-0.022953797
135	0x3ca569d5	0.020192066
136	0x3d2907cf	0.041267212
137	0x3c06fdd2	0.008239226
138	0xbd36926a	-0.044573225
139	0x3cbe49bf	0.023228524
140	0x3bc2d2db	0.005945546
141	0x3ce3ed6a	0.027823169
142	0x3d89c5e6	0.06727199
143	0x3d6bf145	0.05760314
144	0xbab32a35	-0.0013669195
145	0xbc65f761	-0.0140360305
146	0xbc1af9d0	-0.009458974
147	0x3c967c2e	0.01836976
148	0xbcdf6e15	-0.02727417
149	0x3d3d4c1f	0.046215173
150	0x3c1aa96d	0.009439808
151	0xbd9f92e4	-0.07791689
152	0x3d41f651	0.047354046
153	0xbd190ef9	-0.037367795
154	0xbd7cc081	-0.061707024
155	0x3d85ce09	0.06533439
156	0xbdb811c3	-0.08987763
157	0x3b25326b	0.0025207053
158	0x3d74b90d	0.05974679
159	0xbcfcc761	-0.03085679
160	0x3a9ece2b	0.0012115886
161	0xbbf18874	-0.007371003
162	0x3d2a1295	0.041521627
163	0x3d2fe087	0.042938735
164	0xbdd36e89	-0.10323817
165	0x3b54ae84	0.0032452652
166	0xbd84438f	-0.06458198
167	0xbd917812	-0.0710298
168	0x3c6f93db	0.014622654
169	0xbd84549f	-0.06461453
170	0xbdce8cfa	-0.10085483
171	0x3d202f96	0.03910788
172	0xbd5831a2	-0.05278171
173	0x3d956a0c	0.072956175
174	0x3c9ef91f	0.0194059
175	0x3d83934d	0.0642458
176	0x3dafb213	0.08578887
177	0x3b370256	0.0027924976
178	0xbd1ea338	-0.038729876
179	0x3cf63120	0.030052722
180	0xbdb89210	-0.09012234
181	0x3cce44a1	0.02517921
182	0xbd85f0e0	-0.06540084
183	0xbd9f223e	-0.07770203
184	0xbcb9d85d	-0.022686178
185	0xbca464c9	-0.02006759
186	0x3c680eb5	0.014163663
187	0xbc48fe77	-0.0122677
188	0xbda883b9	-0.08228249
189	0x3c8cbe81	0.017180683
190	0x3d052ed7	0.032515373
191	0x3d931ec3	0.07183602
192	0xbd07a676	-0.033117734
193	0x3cb1d490	0.021707803
194	0x3c35b4a3	0.01109043
195	0xbd4c6b53	-0.04990704
196	0x3b098dc1	0.0020989033
197	0xbd4dc742	-0.050238855
198	0x3bfaa4c8	0.007649038
199	0xbce4076d	-0.027835572
200	0xbc89dc68	-0.01682873
201	0x3caec771	0.021335335
202	0x3d6cae73	0.057783555
203	0xbc92aa19	-0.017903375
204	0x3d77430f	0.060366686
205	0xbd48651e	-0.048924558
206	0xbdab3937	-0.08360522
207	0xbd94806b	-0.07251056
208	0x3c24ede5	0.010066484
209	0xbc0259c5	-0.007955973
210	0xbadcded8	-0.001685108
211	0xbdc8654a	-0.09784944
212	0x3c7e139a	0.015507603
213	0xbd802269	-0.06256563
214	0x3ba1427a	0.0049212547
215	0x3d04b32b	0.03239743
216	0xbd90cc20	-0.07070184
217	0x3c60f6d6	0.013730725
218	0x3d31db0d	0.043421794
219	0xbd2a54a3	-0.041584622
220	0x3d5c9eec	0.053862497
221	0x3cf133c2	0.029443625
222	0x3d1894c8	0.037251264
223	0x3ccaccd6	0.024755877
224	0xbd540f03	-0.05177213
225	0x3cc00287	0.023438705
226	0x3d14943a	0.036274172
227	0xbd503dde	-0.05084025
228	0x3d8f7137	0.07004016
229	0x3c261e52	0.010139065
230	0x3d03b48c	0.032154605
231	0x3dabb170	0.08383453
232	0xbce54e9d	-0.027991587
233	0x3d974a86	0.07387261
234	0x3bd4d150	0.0064946786
235	0xbcc1e1c5	-0.023667226
236	0x3da733de	0.0816419
237	0xbd55d47b	-0.05220459
238	0xbd1a434c	-0.037661836
239	0xbda00b31	-0.078146346
240	0xbbec70db	-0.007215602
241	0xbbcd276c	-0.006260803
242	0xbd2e2bcf	-0.042522248
243	0x3ceb04dc	0.02868884
244	0xbd254f13	-0.040358614
245	0xba89668e	-0.0010482834
246	0xbd8790d3	-0.0661942
247	0xbca144d1	-0.019686135
248	0x3b9f7423	0.0048661395
249	0xbdb580be	-0.08862446
250	0xbd81ef2e	-0.06344448
251	0x3d4c1838	0.049827784
252	0x3ad1332c	0.0015960685
253	0x3d88cafb	0.066793405
254	0xbb318acd	-0.0027090788
255	0x3cf72db9	0.03017317

_func._diffusion._model.2.bias f4 [48]
0	0x3d89b974	0.067248255
1	0x3db0468a	0.08607204
2	0x3dc9f2e5	0.098607816
3	0x3da0783d	0.07835434
4	0x3cf1d51d	0.029520566
5	0x3d5303bd	0.051517237
6	0x3d17f008	0.037094146
7	0x3d6d1981	0.05788565
8	0x3cb62275	0.022233227
9	0x3ce8365b	0.028346231
10	0x3de03ea7	0.1094945
11	0x3cda8b6c	0.02667781
12	0xbd2c9a78	-0.0421395
13	0xbc755748	-0.014974423
14	0xbd9f4b1c	-0.07777998
15	0x3aa04feb	0.0012230849
16	0x3bbd1e03	0.0057714
17	0x3d8c4f29	0.06851036
18	0xbd5f272b	-0.054480713
19	0xbdd6fda5	-0.104975976
20	0xbdbc38e5	-0.09190539
21	0xbc258143	-0.010101619
22	0xbd4d863b	-0.05017684
23	0xbdd1a54a	-0.102366045
24	0xbcc19280	-0.023629427
25	0xbcac88e8	-0.021061376
26	0x3d6e0227	0.05810752
27	0xbd9175af	-0.071025245
28	0xbcd56483	-0.026048904
29	0xbd30cdf4	-0.043165162
30	0xbc5e78d2	-0.0135786105
31	0xbd6933f9	-0.05693433
32	0xbddbd0cd	-0.10733185
33	0x3dc06f1a	0.09396191
34	0x3d924cde	0.071435675
35	0x3db16798	0.08662337
36	0x3d2f78bb	0.042839747
37	0x3c270d8c	0.010196101
38	0x3c956948	0.018238679
39	0x3b8dee4e	0.0043313866
40	0xbcd5238d	-0.026017928
41	0xbd918720	-0.07105851
42	0x3d3c411f	0.04596054
43	0x3d90b0cb	0.070649706
44	0x3dc44998	0.095843494
45	0xbd5e77d0	-0.05431348
46	0xbc9098f0	-0.017651051
47	0x3a9bdc07	0.0011891135

_readout.weight f4 [1, 16]
0	0xbdc40dc6	-0.095729396
1	0xbe459419	-0.19294776
2	0xbe75d5c9	-0.24007334
3	0xbe544a93	-0.20731573
4	0x3da27f2f	0.079344146
5	0xbdcb9ef4	-0.09942427
6	0x3c1a9770	0.00943552
7	0x3e041e4d	0.12902184
8	0xbcdf5888	-0.027263895
9	0x3d929747	0.0715776
10	0x3db4e612	0.08832945
11	0xbe8a2bef	-0.26986644
12	0xbe7221a5	-0.23645647
13	0xbb94b138	-0.0045377277
14	0xbd8be0f1	-0.068300135
15	0x3e1510bc	0.14557165

_initial._model.0.weight f4 [16, 2]
0	0xb626f147	-2.487637e-06
1	0xbeb1ef02	-0.3475266
2	0xb632c98a	-2.6641378e-06
3	0x3f99b44a	1.2008145
4	0x34c6ccb2	3.702931e-07
5	0xbf3738f2	-0.71571267
6	0x36bd049a	5.6331746e-06
7	0xbf11b9aa	-0.56923926
8	0xb68ce9cf	-4.199544e-06
9	0xbea14b9e	-0.31503004
10	0x36406ed6	2.8674744e-06
11	0xbf31d6ff	-0.69468683
12	0x3643d4ad	2.9181058e-06
13	0x3f62728f	0.8845605
14	0xb5e44349	-1.7006906e-06
15	0x3faa2331	1.329199
16	0x346345d8	2.1166431e-07
17	0xbf3da133	-0.74074095
18	0xb6596e05	-3.239956e-06
19	0x3f3a1ad7	0.72697204
20	0xb681d7b1	-3.8696094e-06
21	0x3df1ac36	0.11800425
22	0x36be37da	5.6689432e-06
23	0xbeaee710	-0.34160662
24	0xb6c47a93	-5.8555247e-06
25	0xbfb14bbd	-1.3851238
26	0x363b9d09	2.7956578e-06
27	0x3eb97875	0.36224714
28	0x35a13d6a	1.2013309e-06
29	0x3f1c3e09	0.6103216
30	0xb5de3d32	-1.6558099e-06
31	0x3f1cd93c	0.61268973

_initial._model.0.bias f4 [16]
0	0xbf010fe3	-0.50414866
1	0xbcf98cf7	-0.030462725
2	0x3d9c53a3	0.0763314
3	0x3f0bccc9	0.5460935
4	0xbe7cfcda	-0.2470583
5	0x3aedb4f6	0.0018135596
6	0xbea4f344	-0.32216847
7	0xbf04c955	-0.5186971
8	0x3f414209	0.75491387
9	0x3e148181	0.14502527
10	0xbd96552a	-0.073404625
11	0xbdfb043d	-0.12256668
12	0xbe5c8e9b	-0.21538775
13	0xbeb2127e	-0.34779733
14	0x3d857dc6	0.0651813
15	0x3ebd4d94	0.3697325

_initial._model.2.weight f4 [16, 16]
0	0xbd1cf26b	-0.038317125
1	0xbef7bf77	-0.48388264
2	0xbc9eff7f	-0.01940894
3	0xbd7c8100	-0.06164646
4	0xbe7c6187	-0.24646579
5	0xbe1d6d61	-0.15373756
6	0xbe1c20d9	-0.15246905
7	0xbe43ec63	-0.19133143
8	0xbd36728f	-0.044542845
9	0xbe5bb9cd	-0.21457596
10	0x3abf3ef6	0.0014590907
11	0xbe2c35ed	-0.16817446
12	0xbe3cf48b	-0.1845266
13	0xbdda69a9	-0.10664684
14	0x3dae9971	0.085253604
15	0xbe54162b	-0.20711581
16	0x3dd02d9f	0.101649515
17	0x3ebfd64e	0.3746819
18	0x3ed75559	0.42057303
19	0x3e8acac8	0.27107835
20	0x3e289715	0.16463883
21	0x3ec29065	0.3800079
22	0x3e6eb780	0.23312187
23	0x3e87c301	0.26515964
24	0x3e555593	0.20833425
25	0x3e612b7c	0.21989244
26	0xbb674008	-0.0035285968
27	0x3e0e4192	0.138922
28	0x3f01145f	0.5042171
29	0xbe36c6a1	-0.17849208
30	0x3d858104	0.065187484
31	0x3e9004a7	0.2812855
32	0xbe8ec8a9	-0.27887467
33	0x3ec1a216	0.37818974
34	0x3e059776	0.13046059
35	0x3e1f6597	0.15566097
36	0xbebe904e	-0.3721947
37	0x3e17de9b	0.14831011
38	0x3d8be8ed	0.068315364
39	0x3dfa54f1	0.122232325
40	0x3e804515	0.25052705
41	0x3ee2e779	0.44317225
42	0xbe8a3e35	-0.27000585
43	0xbe886138	-0.26636672
44	0x3e909e03	0.28245553
45	0xbcdf9b9d	-0.027295882
46	0x3d890501	0.066904075
47	0x3f07c6b2	0.5303756
48	0x3c7207a9	0.014772334
49	0x3f1a4642	0.60263455
50	0x3e304fe1	0.17217971
51	0x3dcdfb7d	0.10057733
52	0xbd93648b	-0.071969114
53	0x3db5d4a1	0.08878446
54	0x3ea61c59	0.32443503
55	0x3eda65b7	0.42655727
56	0x3e3872bc	0.18012518
57	0x3dea069f	0.11427044
58	0xbe450a12	-0.19242123
59	0x3e32d291	0.17463137
60	0x3e8cb81e	0.2748422
61	0xbd0e9026	-0.03480544
62	0x3ea399d7	0.31953308
63	0x3cae57dd	0.02128213
64	0xbdde350f	-0.10849964
65	0x3ee5da86	0.44893283
66	0x3e400908	0.18753445
67	0x3e204bd1	0.15653922
68	0xbd847a61	-0.064686544
69	0x3eab09ca	0.33405906
70	0x3dc1a2a5	0.0945485
71	0x3efc7970	0.493114
72	0xbe217f2b	-0.15771167
73	0x3e998d88	0.29990792
74	0xbe46a973	-0.19400577
75	0x3dede9d4	0.11616865
76	0x3f1b5d64	0.6068938
77	0x3d065fcf	0.032806214
78	0xbd9f461c	-0.07777044
79	0xbc7958fe	-0.015218971
80	0x3cc924ef	0.024553744
81	0x3f034803	0.51281756
82	0xbd7c33b9	-0.061572764
83	0x3dbf8c22	0.093529
84	0x3e7257db	0.23666327
85	0x3e5fedac	0.21868008
86	0x3e8e2edb	0.27770123
87	0x3eee4e0b	0.46543917
88	0x3da8fa40	0.082508564
89	0x3e99ef9c	0.3006562
90	0x3e04df03	0.12975697
91	0xbda18aca	-0.078878
92	0x3ea1984a	0.315615
93	0x3e276980	0.16348839
94	0x3ddeb168	0.10873681
95	0xbd8b4f6f	-0.0680226
96	0x3e5bdc97	0.21470867
97	0xbb46dfdb	-0.003034583
98	0x3bb25e54	0.0054433737
99	0xbdd58a39	-0.104267545
100	0x3e9fa0b0	0.31177282
101	0xbdb7b6fe	-0.0897045
102	0x3dc103e5	0.09424571
103	0xbc35a3e6	-0.01108644
104	0xbe28abbd	-0.16471763
105	0xbed51a21	-0.41621497
106	0x3dbc6fe1	0.09201027
107	0x3ecbb36a	0.3978532
108	0x3e157586	0.14595613
109	0xbc2e60af	-0.010643168
110	0xbd5d4582	-0.054021366
111	0xbd9b5b3f	-0.07585763
112	0xbe1fd429	-0.15608276
113	0xbea2aae5	-0.31771007
114	0x3d52d226	0.051469944
115	0xbe9179cd	-0.2841324
116	0x3d9bba13	0.0760385
117	0xbe05d09a	-0.13067856
118	0xbe30747c	-0.17231935
119	0xbed280d3	-0.4111391
120	0xbe0ae38e	-0.13563368
121	0x3c045359	0.008076512
122	0x3dfeb400	0.12436676
123	0xbd141854	-0.036156014
124	0xbf19814b	-0.5996291
125	0x3d88a35f	0.066717856
126	0x3d43d78e	0.04781299
127	0xbe74c9be	-0.23905084
128	0x3e9d68e2	0.30744082
129	0x3e0a0c26	0.13481197
130	0xbd6a43f6	-0.05719372
131	0x3de72aa1	0.11287428
132	0x3e161f26	0.1466032
133	0x3db1ff91	0.086913235
134	0x3ea65fc7	0.32494947
135	0x3f006d1a	0.50166476
136	0xbdddd921	-0.1083243
137	0x3e5ed99c	0.21762699
138	0xbc06fa1f	-0.008238344
139	0x3e40bcc8	0.18822014
140	0x3f1cd9a7	0.6126961
141	0x3e064b47	0.13114654
142	0xbe2942ec	-0.16529435
143	0x3e6418b4	0.22275048
144	0x3e0a55c0	0.13509274
145	0xbe69d06a	-0.2283341
146	0xbe6f4f9e	-0.23370215
147	0xbc2dfb6b	-0.010619025
148	0xbe08077a	-0.13284102
149	0xbeea5655	-0.4576899
150	0xbe7a8a68	-0.2446686
151	0xbe92e924	-0.28693497
152	0xbe598e4e	-0.21245691
153	0xbbcbe185	-0.0062219524
154	0x3e52bcc6	0.20579824
155	0x3d72ecd7	0.0593079
156	0xbf1fcc2d	-0.6242092
157	0xbe03a160	-0.12854528
158	0xbdf88f7a	-0.12136741
159	0x3c774a2d	0.0150933685
160	0xbdf6a8ca	-0.12043913
161	0x3e083960	0.13303137
162	0x3e41d979	0.18930615
163	0xbe159de7	-0.14611016
164	0xbd8d2e92	-0.06893648
165	0x3ed4196c	0.41425645
166	0x3e9438df	0.2894964
167	0x3ea88f31	0.32921746
168	0x3c05aec8	0.008159347
169	0x3e7ba7b4	0.24575692
170	0xbdc6b1b2	-0.097018614
171	0x3e8c85f4	0.27445948
172	0x3e5dbcaa	0.21654001
173	0x3e2e9650	0.17049527
174	0xbc96ed7f	-0.018423794
175	0xbd5b793a	-0.053582408
176	0xbdb6c777	-0.08924764
177	0x3e7a49e1	0.24442245
178	0x3e3a8478	0.18214595
179	0x3dd0b8f0	0.10191524
180	0x3e4e15c3	0.20125489
181	0x3eb89326	0.36049765
182	0x3e4ece55	0.20195897
183	0x3dd63669	0.10459597
184	0x3e5303b0	0.20606875
185	0x3d4acb6b	0.0495104
186	0xbdab1992	-0.083544865
187	0x3d9a714f	0.07541143
188	0x3f1679aa	0.58779395
189	0xbe16fe1a	-0.1474537
190	0x3e2304fe	0.15919873
191	0x3da77679	0.08176894
192	0xbd12ff34	-0.035887912
193	0x3e970297	0.29494163
194	0x3e0c6395	0.13709863
195	0xbe3bcc58	-0.1833967
196	0x3da78a0c	0.08180627
197	0x3e9f6654	0.31132758
198	0x3ea0d918	0.3141563
199	0x3eb15f2b	0.3464292
200	0x3e4eaa1a	0.20182076
201	0x3e6c5663	0.23079829
202	0xbdacffe7	-0.08447247
203	0xbd9d6bcc	-0.07686576
204	0x3f0c9c63	0.5492613
205	0x3eaee00d	0.34155312
206	0x3e5f2354	0.2179082
207	0x3e2fb657	0.17159401
208	0x3e2008a7	0.156283
209	0x3ebe6568	0.37186742
210	0x3ec29689	0.38005474
211	0x3e8b56d9	0.27214697
212	0xbd95c74a	-0.07313402
213	0x3eeea336	0.46608895
214	0x3ea38b33	0.31942138
215	0x3d97b63a	0.07407804
216	0x3e2eb4bd	0.17061134
217	0x3bffc37a	0.007805285
218	0xbde22006	-0.11041264
219	0x3dd26a18	0.10274142
220	0x3f1b81bd	0.6074484
221	0xbe1e4f99	-0.15460052
222	0x3e2c9797	0.16854702
223	0x3e58c389	0.2116834
224	0x3ea202bc	0.3164271
225	0xbe76def3	-0.24108486
226	0x3e9b4fc8	0.30334306
227	0x3e35ce75	0.17754538
228	0x3e1c6e1d	0.1527638
229	0x3ee3b827	0.44476435
230	0x3e23b228	0.1598593
231	0xbd28886d	-0.04114573
232	0xbd88dda4	-0.066828996
233	0xbda40b28	-0.080099404
234	0xbcd16fd4	-0.02556602
235	0x3ed2f92f	0.41205737
236	0x3eb70779	0.3574789
237	0xbd78a205	-0.06070139
238	0xbd935de4	-0.071956426
239	0xbe9c13a6	-0.3048374
240	0x3a34ef13	0.000690208
241	0xbed2c804	-0.41168225
242	0xbe6ecba1	-0.23319866
243	0x3d875842	0.06608631
244	0xbe6e7f3d	-0.23290725
245	0xbe4e4467	-0.20143281
246	0xbe965c20	-0.2936716
247	0xbeceb115	-0.40369478
248	0xbe2179dd	-0.15769143
249	0xbe06b35f	-0.13154362
250	0xbca1f5df	-0.01977056
251	0xbe512e75	-0.20427878
252	0xbeeb7732	-0.45989376
253	0xbe6d6d45	-0.23186214
254	0xbb16654b	-0.002294856
255	0xbda97b5c	-0.08275482

_initial._model.2.bias f4 [16]
0	0x3eac8a55	0.3369929
1	0x3ddcb74e	0.1077715
2	0x3ea1ea9e	0.3162431
3	0xbc9aec58	-0.018911526
4	0xbe5e1cdb	-0.21690695
5	0x3de86c9d	0.11348841
6	0xbeae36a7	-0.3402607
7	0x3ce5193d	0.027966136
8	0xbe7b46e7	-0.24538766
9	0xbe68e80b	-0.22744767
10	0x3dd496ae	0.10380302
11	0x3e44544f	0.19172786
12	0xbda30abd	-0.079610325
13	0x3d311e53	0.04324181
14	0xbe9558ee	-0.2916941
15	0x3e19a0a6	0.15002689
