hyperparameter_tuning/ray_results/SUD_learning_rate_tuning/MyTrainableClass_768791b7_10_batch_size=16,name=SUD_v2,patience=1000,steps=200,steps_per_print=5,swa_step_start=2500,t_size=7,trai_2024-03-11_19-05-59/checkpoint_000000/checkpoint.pt (torch, 61346 bytes, 66 tensors)

_initial._model.0.weight f4 [16, 5]
00000000: a351 54bf c8ce 06c0 97db b8bf 4a37 91bf
00000010: 70b6 31c0 415b e0bf fa5d 5bc0 dbf2 71c0
00000020: 640d 51c0 a61a 2140 0267 3940 96ef 20c0
00000030: 7e57 5240 5433 63c0 4e62 ff3f 88e7 813f
00000040: 822b 4b40 482c 14c0 7901 4b40 9278 653e
00000050: f857 2f40 f544 8bbf 76e9 58be cb6e 1cc0
00000060: 2f1a af3f 5745 2dc0 f58a 87bf 6eb2 3ec0
00000070: 7998 d3bf d2de f73d 4aff 4ec0 79ea 463f
00000080: 4751 27c0 5276 b6bd 3c2a 65bf ca5a 5cbf
00000090: a958 51bf 3d8a ca3f fab6 1d3f 90b6 0240
000000a0: 808d 0bbf b92f 68c0 267a 5cc0 20ba 6c40
000000b0: a801 5cc0 15e1 2640 7e57 223f 4125 cb3f
000000c0: a339 df3f 9dcd fdbe aa7e 3b40 8851 fa3d
000000d0: 7937 f1bf 8378 1fbf d32b c0bf 0421 873f
000000e0: 33b4 2cc0 f7f1 61c0 5032 6440 5dde 433f
000000f0: e2ad 863e 4554 9b3f 2d00 1240 afaf 40be
00000100: 83e7 2340 f332 78c0 cba9 f4bf af03 20bf
00000110: 0461 e63f 2b8c 18c0 337a 3c40 3c94 4f40
00000120: 4044 4240 0f3b 77c0 d8a6 55c0 e7c4 83bf
00000130: d8c9 f13e 88e1 4940 1d96 413f 5f46 5a40
-0.8293707 -2.106371 -1.4442014 -1.1344998 -2.77676 -1.7527848 -3.4276109 -3.7804477
-3.2664423 2.5172515 2.896912 -2.5146232 3.28659 -3.5500078 1.9951875 1.0148783
3.1745305 -2.3152027 3.171965 0.22409275 2.7397442 -1.0880419 -0.21182808 -2.4442623
1.3679866 -2.7073572 -1.0589281 -2.9796405 -1.6530906 0.121030465 -3.2343316 0.77701527
-2.6143358 -0.089092866 -0.8951757 -0.86076033 -0.8177591 1.5823437 0.61607325 2.0423927
-0.54512787 -3.6279128 -3.4449553 3.6988602 -3.437601 2.607488 0.6341475 1.5870744
1.7439464 -0.49570933 2.929606 0.12222582 -1.8845054 -0.6229326 -1.5013374 1.055695
-2.6984985 -3.5303934 3.5655708 0.76511174 0.26304537 1.2135092 2.2812607 -0.18817018
2.5610054 -3.8781097 -1.9114317 -0.6250562 1.7998357 -2.3835552 2.9449584 3.2434225
3.0354156 -3.8629797 -3.3383083 -1.0294465 0.47224307 3.1543903 0.7561968 3.410545

_initial._model.0.bias f4 [16]
00000000: 6362 f63f b099 5cc0 d153 c4bf b968 473f
00000010: 3819 d33e 60c6 60c0 b2a2 d0bf 1ff8 1d40
00000020: 4a0f e83f fa38 48bf 0e57 60c0 ee3c 6440
00000030: 33f8 03c0 5837 a53f bee9 19bf 182d 453e
1.9248775 -3.4468803 -1.5338079 0.7789417 0.41230178 -3.5121078 -1.6299651 2.468269
1.8129666 -0.7821194 -3.5053134 3.5662189 -2.0620239 1.2907515 -0.6012229 0.19255483

_initial._model.2.weight f4 [16, 16]
00000000: b9e0 5ebe 37db 9fbe 91d8 3f3d 2600 c3bf
00000010: c9a8 fa3f 6d61 d2bf 4f61 303f 4764 303e
00000020: 938d 4dbf bf78 df3f e442 9bbe 1dbe bfbf
00000030: a222 213f 8a38 2bbf dd4e d23f 24a3 04c0
00000040: 29e2 933f 62c6 04bf 105d 19c0 d109 0740
00000050: 26b2 be3f 1c6f 1f3f 8df7 633f b195 ddbf
00000060: d010 1440 bd2c c03a 3841 efbe f142 03c0
00000070: 5738 b3bf 5b6a c8be a992 69bf 0929 963f
00000080: 4955 2fbd 516e d93f 65d9 0d3f 16f9 73bf
00000090: 789e 6a3f 5281 1540 debf 39bf 489d 50bf
000000a0: 8ddc 67be 43c5 493f 0e43 aebf 363e 53be
000000b0: 3d56 a6bf 424a c23f 60e0 febe 77fc be3f
000000c0: e895 c4be 74b0 f8bf cd93 803f b12a 98bf
000000d0: 08d6 f2bf e4ab 1340 4d47 ecbe 1c2c 943e
000000e0: 383e c6bf eb92 02c0 e44e b53f 29f2 42bf
000000f0: f1d8 5c3f 1538 3f3f a143 763f a84f 0fc0
00000100: cb2b 21bf a851 023f 73d0 d5bf 0e2e f73f
00000110: eab5 b23f 4cd0 0dc0 4986 e23f 1a19 4b3f
00000120: 03b0 ce3f c699 bb3f d9ae 933f f319 5f3f
00000130: 8388 b23f d724 47bf 9327 a53f 570d e8bf
00000140: 1add 29bf 9aeb 0c3f b6c9 01c0 13de 1b40
00000150: ed0a 8bbf babc abbf 5581 d0bf 0d28 09bf
00000160: 4d3f b3bf bb4f 0140 8019 de3e b65d e73f
00000170: ab4a c03e 46d0 eebf cb17 4f3f 2c2c 33bc
00000180: b2d4 acbd 146d 04bf ed5a 733e 762c eb3e
00000190: 9002 4e3f 4d92 bbbd 1346 843f f2b7 143f
000001a0: beb0 d63f 88b3 26bd 4c59 27bf 7f19 9dbf
000001b0: 2fc1 f43f 98a9 8a3f 7a3a d03f 4277 5a3f
000001c0: 7e62 77bd eb68 11c0 5190 acbf 4712 b7be
000001d0: 5583 7f3f 52dc 07c0 98ec 14c0 d13a d53f
000001e0: 5af8 acbf ba62 ae3e b087 1a3f c2c2 913f
000001f0: ef6d 163d 5814 97bf 3f44 ccbe 9723 2bbf
00000200: 147f b23f 4b1e 273f 479b 963e d907 bf3f
00000210: 6edb 15c0 987d 20be eb16 213f 39a2 ed3e
00000220: cd17 a3bf 943a e9bf 1d54 e8be 1d05 60be
00000230: e51e d7bf d577 9b3e c342 6d3f 4cf4 133f
00000240: d122 8b3f 3089 0f3e 87a1 0740 8f3d 913f
00000250: 4a4e 6cbf 7c8b 0fc0 cac4 4cbe aeba 333f
00000260: 1ff8 f93f 7ea1 15bf df2d eb3c 90ef 56bf
00000270: 8575 3d3f f3d1 2d3e a5ad 083f 25d1 bcbf
00000280: 4faf 923f fcfe 10c0 6d49 9a3f badb c2be
00000290: 7824 aebf 8c80 7c3f 4a04 a0bf a5de f73f
000002a0: 29c7 fa3f 8f0f f0bf 28a9 e2bf 19e0 423f
000002b0: dda9 c2bf 894b a6bf 6cd2 823f 4819 f13f
000002c0: c5a4 163e 6489 bdbf b58a 723f be69 9ebd
000002d0: 13df cfbf bf17 1140 8d95 b1bf 664e 10bf
000002e0: 7525 023f d41b 84bf a970 21bf d30c 5a3f
000002f0: d627 d8be 316a 6b3d 1afb 963f 7034 8e3f
00000300: 381a 94bf 7887 e0bf 04fb ee3f ac66 913d
00000310: 0163 bebf f5bf f8bf 59b0 a7bf 6292 02be
00000320: 394d bcbe b865 4dbf 2f60 0140 75d5 1240
00000330: 6729 db3f 14f6 f9bf eb33 b0bf 6f2b c73f
00000340: ffcf 50bf 1754 cbbd 40b3 47bf 7d37 f73f
00000350: 1f0b 1140 f977 b03f 850f e83f 1290 cdbf
00000360: 31d8 ef3f 5eb1 ad3d 6955 08c0 3a62 d2bd
00000370: f817 cb3f 2469 3bbf 70b3 04bf 807e 27bf
00000380: c938 85bf 27b6 be3f b4e4 983f fada c23c
00000390: 3d40 dd3f 80c1 2b3f 53cd 6fbf 4086 d3bf
000003a0: 4565 8e3e 335d 42bf 42da 1fbf 48ee a83f
000003b0: 24c2 b03f add4 e0be 7a7a 22bf 1dfa 463f
000003c0: ac24 8f3e 1f90 353f 341d 633f 8ffb b53f
000003d0: 9eed efbf ba69 993d dba9 1d3f df4b d23e
000003e0: 591e 3fbf 88d4 ebbf 009e fb3f a73a d5bf
000003f0: 28ef 9f3f c2d1 0ec0 f649 013f 2043 e13f
-0.21765412 -0.31221935 0.046837393 -1.523442 1.9582759 -1.6435982 0.6889848 0.17225753
-0.8029415 1.7458724 -0.3032447 -1.4979893 0.6294347 -0.66883147 1.6430317 -2.0724573
1.1553394 -0.5186521 -2.396305 2.1099741 1.4898117 0.62278914 0.8904961 -1.7311307
2.3135262 0.001466177 -0.46729445 -2.0509608 -1.4001569 -0.39143643 -0.9123941 1.1731273
-0.042805944 1.6986791 0.5540984 -0.9530195 0.91648054 2.336018 -0.7255839 -0.8148999
-0.22642727 0.7881662 -1.3614213 -0.206292 -1.2995068 1.5178912 -0.4978056 1.4920796
-0.3839562 -1.9428849 1.0045105 -1.1888028 -1.8971567 2.3073664 -0.46148148 0.28939903
-1.5487738 -2.0402172 1.41647 -0.7615076 0.86268526 0.7469495 0.96196944 -2.2392368
-0.6295745 0.5090585 -1.6704239 1.931093 1.3961766 -2.2158384 1.769723 0.79335177
1.6147465 1.4656303 1.1537734 0.8714897 1.394791 -0.7779059 1.2902702 -1.8129071
-0.66353 0.55047 -2.0279365 2.4354293 -1.0862709 -1.341697 -1.6289469 -0.5357674
-1.4003693 2.0204914 0.4337883 1.8075473 0.37556967 -1.865731 0.8089568 -0.010935824
-0.08439006 -0.5172894 0.23765154 0.45932359 0.8047266 -0.09158764 1.0333885 0.5809318
1.6772687 -0.040698558 -0.6537063 -1.2273406 1.9121455 1.0833006 1.6267846 0.85338223
-0.060396664 -2.2720287 -1.3481542 -0.35756132 0.9980977 -2.1228223 -2.3269405 1.6658574
-1.3513291 0.34059697 0.6036329 1.138756 0.036725935 -1.1803083 -0.39895818 -0.6685118
1.3945031 0.652806 0.29415342 1.492427 -2.341518 -0.1567291 0.62925595 0.4641283
-1.2741638 -1.8221002 -0.45376673 -0.2187695 -1.6806303 0.30364862 0.92679995 0.5779464
1.087 0.14017177 2.1192338 1.1346911 -0.9230696 -2.2428885 -0.19996944 0.70206726
1.9528846 -0.5844954 0.028708396 -0.83959293 0.74007446 0.1697462 0.5338996 -1.4751326
1.145975 -2.265563 1.2053658 -0.38058263 -1.3604879 0.98633647 -1.2501309 1.9364821
1.9592029 -1.8754748 -1.7707872 0.76123196 -1.5208088 -1.2991802 1.0220466 1.883584
0.14711292 -1.4807553 0.947429 -0.077350125 -1.6239952 2.2670743 -1.3873764 -0.56369627
0.50838405 -1.0320992 -0.6306253 0.8517582 -0.42217892 0.05747432 1.179538 1.1109753
-1.1570501 -1.7541342 1.8670354 0.07099661 -1.4873964 -1.9433581 -1.3100692 -0.12751153
-0.36777666 -0.80233335 2.0214956 2.2942784 1.712201 -1.9528222 -1.3765844 1.556013
-0.81567377 -0.09928148 -0.7800789 1.9313809 2.2663038 1.3786613 1.8129736 -1.6059592
1.8737851 0.08481096 -2.130213 -0.102726415 1.586669 -0.73207307 -0.518363 -0.654274
-1.0407954 1.4899338 1.1944795 0.023786057 1.7285229 0.6709213 -0.93672675 -1.6525345
0.27811638 -0.7592346 -0.6244241 1.3197718 1.3809247 -0.4391226 -0.63468134 0.7772539
0.27957666 0.70923036 0.88716435 1.4217395 -1.874439 0.07490869 0.61587304 0.4107351
-0.7465568 -1.8424234 1.9657593 -1.6658524 1.249486 -2.2315526 0.5050348 1.759861

_initial._model.2.bias f4 [16]
00000000: fc76 073f 8494 a4be 1d69 1b40 ade1 9bbf
00000010: 3f13 1ac0 d370 353e c9c9 92bf 8308 68bf
00000020: 406d e43f 880a 7bbb c239 0cc0 0ede 27bf
00000030: 10ce aebf 834a 11c0 6f2a 613f 5bd5 09c0
0.5291593 -0.32144558 2.4282906 -1.2178246 -2.4074247 0.1771882 -1.146783 -0.9063799
1.784584 -0.0038305838 -2.1910253 -0.65573204 -1.3656635 -2.2701728 0.87955374 -2.1536472

_func._drift._model.0.weight f4 [16, 17]
00000000: e064 333a eeb2 b2bb 361b a13b 511e a9b9
00000010: 4496 ed3a 5b8c 913a 4513 37bb 613f e039
00000020: 6252 e83a 1072 adbb 9928 93bb 0010 8fbb
00000030: 67d6 95b9 07fa 39bb ddaf b0bb 5854 ab3b
00000040: 0662 973b 86f2 04bb eec1 85bb 7eec 313b
00000050: 12ab 80ba 0ed9 50bb c877 acbb 2113 4238
00000060: eb40 3fbb 2606 c43a 986f c03a a309 35ba
00000070: 3344 be3b 89eb 92ba 8c2c b93b 5c52 e13a
00000080: 0f8e e03a f94a 9c3b af78 fdba 9707 b13b
00000090: 6d7d 293b 18d1 d5ba 4901 2f3b 41ac b7bb
000000a0: 4f49 3e3a 52be a6ba 5fc5 9bba 613b 98bb
000000b0: 6ad1 3d3b aa2e 053b 2faf 1ebb a847 963b
000000c0: 84ed 90ba d5fd 12b9 62a5 64bb b050 f23a
000000d0: 67bb 093b 90d7 853a ab3e c239 34d8 b9bb
000000e0: 9b8b a03b e8a3 71b9 b870 613b b015 6a3b
000000f0: 3417 a6bb 6090 7d3b b28c 81bb b6ef f03a
00000100: 4fbb a43b 0724 a43b 8e05 ed3a 3785 a9bb
00000110: 7875 4b3b c693 65bb 4556 193b 53e8 b2bb
00000120: 558a 1ebb 755e 91bb 677b 93ba 244b 02bb
00000130: 7ba0 b8bb b8bc babb ad53 4c3a e4bb 4f3a
00000140: 451f 16bb b2ea 49bb e3c5 91bb ba78 68bb
00000150: b87f 12bb a866 1dbb fb82 713b 528e c53a
00000160: 87e9 9c3b 02d7 9dbb c5d5 063b 587f ae3a
00000170: 4439 9abb 28ef 4b3b 11b2 23bb 8b43 17bb
00000180: b957 053b e307 b23a 5a8b a439 2f11 ab3b
00000190: 2cbe d9ba 1f39 69bb a452 bebb 1894 a23a
000001a0: 77c1 93bb 23de 9a3b f1d3 e13a 6f86 b4ba
000001b0: 4fbe 733b df75 a63b 60ee 8b3b 7dce 12bb
000001c0: 616b 083a 1886 4abb e20b 6d3b 52f5 b33b
000001d0: 2cf4 2fb9 edc6 7b3b 84bc 003b a5c8 3a3b
000001e0: 6225 8ebb 4f99 83bb 44b1 a2bb 3386 b63b
000001f0: d8c1 1b3b 01b6 8c3b 299c 833b bebc 993b
00000200: d33d b9ba fe94 b9bb fc35 393a 838a 1cbb
00000210: 7a33 203b 4ff9 233b a993 133a 89cd b6bb
00000220: 35a8 cd3a 1e5f 51bb c576 2fbb 2737 923b
00000230: 19a5 44bb 460e f23a a905 dbba b609 7639
00000240: 38bc 31bb 6af9 09bb ec71 a23b dfb1 503b
00000250: 72ff a1bb 8115 aa3b b040 65bb 76cf 75bb
00000260: 2154 a9bb f824 afb9 524a 2ebb 9723 babb
00000270: e24e 223b 3dad baba 8bd2 123b 4d57 91bb
00000280: 2e47 72bb b5d5 5abb 4eda c7b9 2bf8 a7bb
00000290: 7122 873a 77b6 4cb8 715b 9b3b 40c9 aeb9
000002a0: 5d48 a53b 1b0f 433b 708a 9736 230d 7cb9
000002b0: 10a0 e139 02a6 023a d38d baba bbba 65bb
000002c0: f4dd 38ba 794a 46bb aa12 b7ba eeca 9abb
000002d0: 43ce 973b d51c 323b 87a2 dbba 5baa fdba
000002e0: 59c4 b53b afff b0bb b654 b7bb 43f9 96ba
000002f0: 2bed c83a a15d 91bb 2d7c 6f3b e1ea d2ba
00000300: 15b4 8f3b d243 7c3b 027d 85bb f7ab 513b
00000310: 8268 3f3b 3926 6bba 9090 853b cada 9dbb
00000320: 3970 a83a 116e b5ba 5524 afb8 2c93 10bb
00000330: 9085 22bb b3a7 7d3b dded 5d3b dd50 863b
00000340: 4475 93bb 2a32 3a3a 2ac1 c339 4b5f 89bb
00000350: b134 703b 64ed f1ba 18da 47bb 3ac3 82b9
00000360: 8768 313b b8a2 df3a 1492 983b 47fd 0e3a
00000370: 9ea6 9fbb bd99 08bb 816d 5cba 0f9d a93b
00000380: 240e 2a3b 9747 d03a 7832 9bbb 7566 29bb
00000390: 56c6 183b d126 4ebb 4ad6 07bb 33ba b53b
000003a0: b516 9f3a f096 233b b955 723b efb1 b4bb
000003b0: f122 d53a 171f 8ebb 7910 ebba e7b6 363b
000003c0: 6e10 b6bb 2bfc 853b 9a83 ea3a fad4 633b
000003d0: 2ea3 2c3b bc78 213b 0bcc 1cb9 626f b13b
000003e0: 6bda 4bbb 63f1 25ba 76ac a1ba b517 d03a
000003f0: 148d 3d3b e892 663b d4b2 333b a6bf 81bb
0.00068433397 -0.005453459 0.004916574 -0.0003225678 0.0018126448 0.0011104451 -0.002793507 0.0004277183
0.0017724747 -0.0052931383 -0.0044909236 -0.004365921 -0.00028579237 -0.0028377788 -0.0053920583 0.0052285604
0.0046198396 -0.0020286157 -0.004081956 0.0027149017 -0.0009816608 -0.0031867656 -0.0052633025 4.627102e-05
-0.0029182981 0.0014955446 0.0014681695 -0.0006906038 0.00580647 -0.0011209111 0.0056510624 0.0017190683
0.001713218 0.0047696796 -0.0019338335 0.005402516 0.0025862113 -0.0016312925 0.0026703647 -0.005605251
0.00072588486 -0.0012721515 -0.0011884383 -0.0046457504 0.0028963932 0.0020322003 -0.0024213304 0.004586179
-0.0011057113 -0.00014018205 -0.0034888615 0.0018487182 0.0021016242 0.0010211337 0.00037049255 -0.0056715254
0.004899455 -0.00023044611 0.003439946 0.0035718493 -0.005068684 0.003869079 -0.0039535398 0.0018381986
0.0050272117 0.0050091776 0.001808332 -0.005173351 0.0031045359 -0.0035030707 0.0023397368 -0.005459824
-0.002419134 -0.004436309 -0.0011251987 -0.0019881213 -0.005634365 -0.0056987666 0.0007794451 0.0007924421
-0.0022906822 -0.0030810055 -0.0044486388 -0.003547235 -0.0022353958 -0.0024017487 0.0036851752 0.0015072322
0.004788581 -0.0048168907 0.0020574194 0.0013313098 -0.0047065336 0.003111789 -0.0024977962 -0.002308103
0.0020346476 0.0013582673 0.00031384343 0.0052205543 -0.0016612462 -0.0035587025 -0.0058081914 0.0012403755
-0.004509147 0.004726188 0.0017229301 -0.0013772974 0.003719229 0.0050799693 0.00427036 -0.0022400909
0.0005203989 -0.003090268 0.0036170413 0.005491891 -0.00016780262 0.003841813 0.0019643614 0.002850094
-0.0043379525 -0.0040160785 -0.0049649794 0.005570197 0.0023766663 0.0042941575 0.0040164185 0.0046916893
-0.0014132805 -0.005663513 0.0007065234 -0.002388627 0.0024444745 0.0025020426 0.0005629608 -0.005578701
0.0015690388 -0.0031947563 -0.0026773673 0.004462141 -0.0030005632 0.0018467389 -0.0016710061 0.00023464006
-0.0027120244 -0.0021053203 0.004957428 0.00318443 -0.0049437815 0.0051905517 -0.0034981184 -0.003750769
-0.0051674997 -0.00033406145 -0.0026594591 -0.005680512 0.0024766256 -0.0014242303 0.0022403325 -0.004435456
-0.0036968696 -0.003339154 -0.00038118887 -0.0051260195 0.0010309947 -4.8807324e-05 0.0047411253 -0.0003333781
0.0050440268 0.0029763642 4.516267e-06 -0.00024037487 0.000430346 0.00049838435 -0.0014232941 -0.0035053927
-0.00070521166 -0.0030256792 -0.0013967354 -0.004723898 0.0046327426 0.002717783 -0.0016756811 -0.0019353138
0.005547088 -0.0054015736 -0.005594815 -0.0011518378 0.0015329471 -0.0044362103 0.003654252 -0.0016091728
0.004385481 0.0038492572 -0.00407374 0.0031993368 0.0029206579 -0.0008970234 0.004076071 -0.0048173415
0.0012850828 -0.0013842006 -8.351418e-05 -0.0022060378 -0.0024798848 0.0038704693 0.0033863701 0.004098995
-0.004500063 0.0007102812 0.00037337217 -0.004192268 0.00366525 -0.0018457589 -0.0030494984 -0.00024940987
0.002707036 0.0017062044 0.0046560857 0.00054546114 -0.0048721572 -0.0020843588 -0.00084086513 0.0051761935
0.002594837 0.0015890476 -0.004736241 -0.0025848423 0.0023311577 -0.0031456242 -0.0020727091 0.0055458783
0.0012137505 0.0024961792 0.0036977364 -0.0055143754 0.0016261024 -0.0043372023 -0.0017933986 0.0027880014
-0.005556158 0.0040888987 0.0017892004 0.0034764395 0.002634238 0.0024638614 -0.00014953331 0.005414889
-0.003110553 -0.000633022 -0.0012334723 0.0015876206 0.00289232 0.0035182778 0.0027419822 -0.003959614

_func._drift._model.0.bias f4 [16]
00000000: 495d b63b 0c14 c6b9 16ba 183b 1b71 0e3b
00000010: aa59 c8b7 ee53 15bb 9b43 813b 2d94 adbb
00000020: 9ed9 abbb eea8 a8bb 7737 0bbb a313 ac3a
00000030: cd73 acb9 9db6 f838 db14 983b 7b15 99bb
0.0055653197 -0.0003778044 0.0023304275 0.0021734897 -2.3883611e-05 -0.0022785622 0.003944827 -0.005297205
-0.005244448 -0.005147091 -0.0021242776 0.0013128411 -0.00032892675 0.00011859576 0.004641158 -0.00467175

_func._drift._model.2.weight f4 [16, 16]
00000000: 9dd9 23bb 47e8 113b e225 b1bb feb8 c2bb
00000010: 7c12 79bb 209c babb c06b 06bb 7101 b3bb
00000020: 11f1 34ba c8a6 4f3b de54 a1bb 6f00 bcbb
00000030: 6f8a 623b 2099 00bb bdac 1f3b f174 2f3b
00000040: d522 aaba ec44 d1b9 270f a4b8 90e5 9abb
00000050: d16c b23b d7e3 9bb9 ec3c 0b3b 64ce 793a
00000060: 8e4b a33b 277c 9cbb 3bff 80bb 5cc6 14b9
00000070: f286 19bb 6f62 063b d4a3 af3b bd57 abb9
00000080: 96e5 a8bb c526 a33b 6d86 c3ba 2005 fc3a
00000090: eb44 ffba 1538 af3b 193a 60bb cca7 443a
000000a0: 2ec9 303b 2c80 a1bb 41e8 dc3a faf1 62bb
000000b0: f7ee ac3b 0fe1 9f3b fc37 f73a f4d3 3fbb
000000c0: e595 6439 0a7d a73b 101b 763b 164c 39bb
000000d0: d9f3 53bb 9abf c3ba 36de ddba 5a22 3ebb
000000e0: 3e24 c0bb a306 6338 7709 ac3a 10e4 8abb
000000f0: 03ef 483b 3dc9 2abb 3a6f 6f3b c97f 2ebb
00000100: 0028 b23b aff0 62bb 16ec a53a 6470 dc3a
00000110: 1db5 8f3b 1398 413b 88f7 9abb 5767 86ba
00000120: a458 9cb9 a620 523b fe19 57bb 3819 4d3b
00000130: a321 7cbb c5fb 193b b980 8bbb dc50 ba3a
00000140: 170e d1b7 058d 913b 7740 35bb 2c79 ca3a
00000150: 66e4 89bb 41b8 39bb 7304 553b bbd4 ab3a
00000160: 66e2 993b d7fe 2f3b d3bc 703b d6b7 45bb
00000170: cde8 153a a585 b1bb d065 e53a f5ba 8bba
00000180: dd97 0f3b 9a1c 07bb 528b d7ba d292 683b
00000190: ad35 653b abec ab3b 130c babb 614b 07bb
000001a0: 9af8 a8bb 687a 9a3a 5d2d aa3b 9f55 e9ba
000001b0: dbe1 1dba fada e1ba 6f2a 06bb e8bb d73a
000001c0: c78b 833b 9624 7ebb 0e43 9d3b c9e0 923b
000001d0: d5f0 78b9 860f 87bb 83d3 98bb 675e 87ba
000001e0: 2366 8bb9 79e5 96bb 839b b7bb 3d52 ef3a
000001f0: c927 fa39 108a 873b 02fc 963a af0d 173b
00000200: 8866 253a 2b13 233b 7790 2fbb 5eff f437
00000210: b91f 503b cbf2 ff3a 69ff 363b 0422 aabb
00000220: cac2 28b8 6616 4abb 34e4 b8ba ed47 2f3b
00000230: 3f79 9dba 5782 39bb c51f 05b9 0e60 75bb
00000240: 6c5c 23bb f8e0 2fbb 32ba b13b e85d 33bb
00000250: 1a60 55bb 8554 c8ba 4cb2 8c3b c16d 0538
00000260: 51b7 67ba 66b2 593b 53f7 7a3b 3e3c b53b
00000270: 0c66 85bb 0409 4b3b c8b8 80bb 0c9c 3bbb
00000280: 49c2 a13b c135 093b 92f3 31bb 16c4 c3ba
00000290: a6f4 643b ef51 8a3a 48b0 a7ba db3c caba
000002a0: a455 e4ba 26a8 72ba fdcb 953b 3be5 89bb
000002b0: 409d 7b3b 56a5 7a3a e041 c23b 7566 013b
000002c0: 90c1 c3bb aaf1 09bb b9e8 83ba e5b4 083b
000002d0: 9059 b4bb 3b55 063b 78fa a1ba e412 5dbb
000002e0: f400 8bbb 2b87 71bb fda5 adbb 4c6d e3b9
000002f0: cb39 1b3b d119 5bbb f567 60bb 01e9 6d39
00000300: f333 9fbb e5c7 89bb ff73 d0ba 5ac7 813b
00000310: 7427 483b b1eb 913a e1a0 01bb 2075 a6bb
00000320: eff4 663b e202 6639 ee42 263b 88e6 59b9
00000330: 9aba 523b 3669 3ab8 3187 493b e930 7fba
00000340: 9633 00bb bb28 9a3a d3bb c0bb 922e 93bb
00000350: 3154 1c3a 004d bb3b 5a87 d8ba 5e6f f7ba
00000360: 7a9f 643b 271c a63b 8a7b 6cbb f359 af3b
00000370: 6b45 fdba 2e10 543b fed3 e63a 9ba4 523a
00000380: 6580 9d3b a1b3 92ba 3edb c2b9 c7c4 753b
00000390: 170a 17bb 904a c43a e700 653b 9e83 8e39
000003a0: a43c bc3b b848 c939 cf64 283b 38d0 5c3b
000003b0: 1007 a23b 349d 36bb 0bbd 1eb9 3024 1dbb
000003c0: ba34 30bb af82 21bb 483d 453a 2665 88bb
000003d0: c76b 1dbb 1abc 9a3b 6bb0 ff3a e2f0 c33b
000003e0: 29a4 6aba f622 6eb9 e9f1 48bb 8312 6f3a
000003f0: 4c52 bb3a a7dc 913b af99 93bb cace f2ba
-0.0025001534 0.0022263692 -0.0054061273 -0.005942463 -0.0038005402 -0.005694881 -0.0020511001 -0.0054628183
-0.0006902377 0.0031685103 -0.004923447 -0.0057373564 0.0034567376 -0.001962252 0.0024364435 0.0026772583
-0.0012980351 -0.00039914937 -7.822952e-05 -0.004727073 0.005445101 -0.00029733658 0.002124603 0.0009529351
0.004983372 -0.0047755423 -0.003936676 -0.00014188275 -0.002342638 0.0020505448 0.005360106 -0.00032681032
-0.005154322 0.004978987 -0.0014917381 0.0019227602 -0.0019475495 0.0053472617 -0.0034214316 0.00075018103
0.0026975381 -0.0049286094 0.0016853885 -0.0034629093 0.0052775103 0.004879124 0.0018861289 -0.002927062
0.00021799614 0.0051113414 0.0037552752 -0.002827411 -0.003234139 -0.0014934421 -0.0016927186 -0.0029012174
-0.0058636954 5.41272e-05 0.0013125379 -0.004238613 0.003066004 -0.0026059889 0.0036534802 -0.002662646
0.0054368973 -0.0034628322 0.001265886 0.0016818163 0.004385604 0.0029540106 -0.004729215 -0.0010254186
-0.0002982068 0.0032062917 -0.003282189 0.003129555 -0.0038472197 0.0023496014 -0.0042572883 0.0014214772
-2.4921303e-05 0.0044418597 -0.0027656832 0.0015447489 -0.0042081354 -0.0028338584 0.0032503873 0.0013109663
0.0046961783 0.0026854777 0.0036733642 -0.003016939 0.0005718589 -0.005417543 0.0017501656 -0.0010660576
0.0021910586 -0.0020616413 -0.0016444719 0.0035487902 0.003497462 0.005246719 -0.005677709 -0.0020644295
-0.0051565887 0.0011785747 0.005193396 -0.0017802006 -0.000602273 -0.0017231398 -0.002047207 0.0016459199
0.0040144655 -0.003877913 0.0047992533 0.004482363 -0.0002374084 -0.0041217236 -0.004663886 -0.0010327817
-0.00026588244 -0.004604992 -0.0056032552 0.0018258762 0.00047713358 0.0041363314 0.0011519196 0.0023048928
0.0006309529 0.0024883251 -0.0026788989 2.9205981e-05 0.003175719 0.0019527314 0.0027923232 -0.0051920433
-4.0235733e-05 -0.0030836104 -0.0014106096 0.0026745752 -0.0012014284 -0.0028306448 -0.00012695703 -0.0037441286
-0.0024926914 -0.0026836973 0.0054238075 -0.0027369205 -0.0032558502 -0.0015283978 0.0042937156 3.1811887e-05
-0.0008839267 0.0033217906 0.003829439 0.005530863 -0.004071003 0.0030980716 -0.0039282776 -0.0028626947
0.0049364907 0.002093658 -0.0027153236 -0.0014935757 0.003493586 0.0010552983 -0.0012793625 -0.0015429513
-0.0017420542 -0.00092566235 0.0045714364 -0.0042082346 0.003839329 0.000956138 0.005928263 0.0019744907
-0.005974002 -0.0021048584 -0.0010063864 0.0020859775 -0.0055038407 0.0020497579 -0.0012357971 -0.0033733184
-0.004242057 -0.0036854248 -0.0052993284 -0.00043378246 0.002368557 -0.0033432136 -0.003424165 0.00022688882
-0.0048584878 -0.0042047375 -0.001590371 0.003960532 0.0030541094 0.0011132864 -0.001977973 -0.0050798804
0.0035241207 0.00021935583 0.0025369483 -0.00020780612 0.003215468 -4.444384e-05 0.0030750746 -0.0009734766
-0.0019561998 0.0011761406 -0.0058817654 -0.0044916356 0.0005963473 0.005715966 -0.001651983 -0.0018877795
0.0034885095 0.005069274 -0.0036084377 0.005351299 -0.0019323056 0.0032358277 0.0017610786 0.00080353924
0.0048065656 -0.001119245 -0.00037165912 0.0037501322 -0.0023046785 0.0014975835 0.0034943165 0.00027182413
0.0057445336 0.00038391887 0.0025694852 0.0033693444 0.0049446896 -0.0027864696 -0.00015138478 -0.0023977868
-0.0026886896 -0.0024644544 0.0007524085 -0.0041624485 -0.002402054 0.0047221305 0.0019507533 0.005979643
-0.00089508534 -0.00022710473 -0.0030661768 0.0009119885 0.0014291494 0.0044513526 -0.0045044045 -0.0018524763

_func._drift._model.2.bias f4 [16]
00000000: d3f2 a63b e26b 82bb 4222 253b 1469 8ebb
00000010: c36d 31bb 79e5 b8bb f27b 5fbb 228b 3ebb
00000020: 5e48 a03b 9998 7bbb d131 883b 4392 2b3a
00000030: b0ad 2d3b d46f 843b 1f46 923b cec7 97bb
0.005094865 -0.003980146 0.0025197421 -0.0043460224 -0.002707348 -0.0056425896 -0.0034100977 -0.002907463
0.0048914393 -0.0038390516 0.004156329 0.0006544927 0.002650123 0.0040416513 0.0044639255 -0.004631973

_func._diffusion._model.0.weight f4 [16, 17]
00000000: 7177 a33d fbf4 7bbd 8e9a 27bd 0fc0 963d
00000010: 7745 e6bd 5129 3bbd 88bc 5a3d 8978 713c
00000020: e11f aebc 1527 a93d 1637 8a3d a89b 7a3d
00000030: dace d43c 7c04 c63c de9f 01bd c3ae de3c
00000040: eda6 83bd e5cb 4ebd 5733 383c 3b30 6bbd
00000050: d0f5 adbc 8334 46bc 3441 2f3d d3be b73c
00000060: 77c7 403d f098 f33c 4c7b 86bc dd48 5f3c
00000070: 0a23 4bba 4403 343d bb30 283d 1e44 623b
00000080: cf7a 8ebc c540 9cbd 4f04 693c e9fe 0d3d
00000090: 8545 203d 98de 573d 550f 14bd 0c00 603d
000000a0: a5fb 5cbd a5a9 ecba 6243 0a3d e6e5 0a3d
000000b0: 279d 5a3d 7120 853d 805b 54bd 9572 12bb
000000c0: c49f 2a3d 4d0f 963c 93f4 ba3b 08a2 ea3c
000000d0: 4dea 563c 41db 31bc 55c8 b0bc 68b1 f4bd
000000e0: 7193 cd3c 90ad 83bc f2e2 d63c 5ce3 a8bd
000000f0: 10de 943d e983 903c 09f4 2e3d 2a73 0a3d
00000100: 6fd4 f8bc 780f a0bd 8a98 15bd b59f 49bd
00000110: a7c4 acbd 9484 5d3c 2414 d83c 9ff4 92bd
00000120: d362 853d 7580 8cbd 9a47 3d3b 3a49 c8bd
00000130: a54d fc3c 43ef e3bd 6654 39bd eeb4 d2bc
00000140: 8e87 b2bd 8d36 13bd 2147 a53b 0543 34bd
00000150: 7a92 3b3c 61d4 b13d 2c16 aabd 4f5a a73c
00000160: 244e 9fbc 307f cfbd 3f1e 60bd c4ca f5bc
00000170: 8f04 fd3a e302 9ebd c948 853d c5b3 bebc
00000180: 2ea9 903d 0ab8 4bbd 40a9 37bd 3373 053d
00000190: 550e 433d 595b 103b d7ce eebd 0e3a 98bc
000001a0: ebc0 c7bc d8ac 57bd fbf9 123b a950 87bd
000001b0: c53c 043c 0bcc 98bc eca9 633d 208b a9bd
000001c0: 513f 6dbd d6ed 55bd b09e 7bbd 4935 19bd
000001d0: 0c4f 313d 54bd b8bd 1b41 293d f679 0cbd
000001e0: 40e6 23bb c406 98bc 66fd acbd 05e0 c5bb
000001f0: a840 92bc d192 13bd 2d89 83bd 932c 863b
00000200: a4a0 94bd 1a08 54bd 64c9 a2bd 8fd5 fdbc
00000210: f9b5 d43b 49bf d9bc 66a6 86bd 97d2 ec3c
00000220: 2c52 173d 9903 94bd d279 c2bb 5ea6 ff3c
00000230: 4794 c3bd 9ed7 74bc 3362 193d fab6 713d
00000240: 3a81 ebba 1ef5 e4bb e287 ca3b 406b 4d3d
00000250: 14ac 3bbd 6d4e f83c 8eb0 69bd 0fc9 9f3c
00000260: 9b54 50bd 7332 15bd f505 3c3d fb64 993b
00000270: 0d34 e1bd 9efb a53b 625c 11bd ebbc 09bd
00000280: f67c 82bd 89c1 2b3d d5f0 3fbd d709 b9bd
00000290: 6de3 26bd 0ffd 51bc 7440 4abb 53ef b3b9
000002a0: e24a 9fbd 956a 343d 0a1b cabd 45df 34bd
000002b0: 878d 30bd 9436 bcbc acfd 433d 6e12 9f3c
000002c0: 8765 8fbd 5cca 32bd d6ac 753d b7e5 00be
000002d0: b7b8 88bd 69a5 f1bc aeb7 3bbd 4e32 f33b
000002e0: c52f 0dbd 7408 41bd 57b5 b83c 9bfa fa3b
000002f0: d478 ce3c 3fbd 59bb 60f7 103d 3a68 0ebc
00000300: 0676 61bc 6456 acbb 52c4 5b3d b1a0 aabd
00000310: e1ee 083c d84b e8bc c9f4 7a3d 4191 053d
00000320: 7462 b1bd 9033 a1bc baa0 6e3d 3977 80bd
00000330: c4d6 80bd b40c 733b c88a d93b d1cf babd
00000340: cfe3 233d 7536 3f3b ec36 83bd 7c1e a5bd
00000350: fb4b 7f3c 31ca 3bbd d5af a0bd 13a7 60bd
00000360: 8025 2bbd ab58 d93c af75 7dbc 3f78 3bbd
00000370: c777 713d 44f4 833d 0c9e 523c 288b 31bb
00000380: c9a6 843d af1c 8cbd e694 1abd 9e54 6dbc
00000390: f6fe 033d a50c 62bd 1f6d 9d3d 220d 893d
000003a0: 4a39 5c3d 7ec7 b53c 9586 8e3c c91f 73bc
000003b0: be22 74bc a6e8 45bc ae51 143c 71e4 113b
000003c0: b498 cd3c a556 0c3c 819e 93bc cde6 1f3c
000003d0: d25a adbb 3053 133d 6223 9cbd be4d 733c
000003e0: e306 df3c a98d 033d 1507 9fbb e196 b7bd
000003f0: 7fa7 01bd 5932 223d 29b9 cfbc ab7e 5dbb
0.07981766 -0.06151293 -0.04091888 0.07360851 -0.11243718 -0.0456937 0.053402454 0.0147382105
-0.021255435 0.082594074 0.06748788 0.0611836 0.02597754 0.02417206 -0.0316466 0.027182942
-0.06428323 -0.050487418 0.011242709 -0.057419043 -0.021235377 -0.012097481 0.042786792 0.02242986
0.047065224 0.029736012 -0.016416214 0.013628212 -0.00077490567 0.043948427 0.041062098 0.0034525464
-0.017392544 -0.07629541 0.014222219 0.03466693 0.0391288 0.052702516 -0.036147434 0.054687545
-0.053950924 -0.0018055929 0.033755668 0.033910654 0.05337253 0.06500328 -0.051845074 -0.0022346128
0.04165627 0.018317843 0.005705425 0.028641716 0.013117385 -0.010855497 -0.0215799 -0.119479
0.02509472 -0.016073972 0.026231263 -0.0824649 0.072689176 0.017641025 0.0427132 0.033801235
-0.030374734 -0.078154504 -0.036522426 -0.049224574 -0.08435946 0.013520379 0.026376791 -0.07175564
0.0651299 -0.06860439 0.002888179 -0.09779592 0.030798743 -0.1112962 -0.045246504 -0.02572104
-0.08717261 -0.035940696 0.0050438796 -0.044009227 0.011448497 0.08683086 -0.0830501 0.020428805
-0.01944644 -0.10131681 -0.054716345 -0.030003913 0.0019303727 -0.07715394 0.06508023 -0.02327908
0.070635185 -0.04973606 -0.044839144 0.032580566 0.04762109 0.0022027104 -0.11660545 -0.01858237
-0.024383983 -0.05265507 0.0022426832 -0.066071816 0.008071129 -0.018651983 0.055581972 -0.08278489
-0.05792171 -0.05222877 -0.061430633 -0.037404332 0.043288276 -0.090204865 0.041321855 -0.034296
-0.0025009066 -0.018557914 -0.084467694 -0.006038668 -0.017853096 -0.036028687 -0.064226486 0.004094669
-0.07257202 -0.05176554 -0.079485685 -0.030985622 0.0064914194 -0.02658047 -0.06574707 0.02890901
0.0369436 -0.07227249 -0.0059349323 0.03120726 -0.09549766 -0.014943985 0.037447166 0.05901239
-0.001796759 -0.006987228 0.0061807493 0.05015111 -0.045818403 0.030310834 -0.05705314 0.019505052
-0.050861936 -0.036425065 0.04590412 0.0046812273 -0.10996256 0.0050653955 -0.035488494 -0.03362743
-0.06371491 0.041932616 -0.046860535 -0.0903508 -0.040744234 -0.0128166815 -0.003086117 -0.0003431985
-0.07777955 0.044046957 -0.098684385 -0.04415824 -0.04310372 -0.022975244 0.047849342 0.019417968
-0.07001787 -0.043650016 0.059979282 -0.1258763 -0.066758566 -0.029497819 -0.045829467 0.0074217683
-0.034469385 -0.047127202 0.022547407 0.007659269 0.0252041 -0.0033224372 0.035392165 -0.008691842
-0.013761049 -0.005259322 0.053654023 -0.08331431 0.008357734 -0.028356478 0.0612686 0.032609228
-0.086613566 -0.019677907 0.05825875 -0.0627274 -0.06290963 0.003708643 0.0066388585 -0.09121669
0.040012177 0.0029176746 -0.0640696 -0.08062455 0.01558208 -0.04584712 -0.07846037 -0.054846834
-0.04178381 0.026531538 -0.0154699525 -0.045768972 0.05895212 0.06443074 0.012855064 -0.0027091
0.06477124 -0.068414085 -0.037739657 -0.014485506 0.03222557 -0.05518784 0.07686829 0.06691958
0.053765573 0.022189852 0.017398158 -0.014839121 -0.014900861 -0.0120793935 0.009052677 0.0022261406
0.025097229 0.00856558 -0.018019916 0.009759617 -0.0052903676 0.035968006 -0.07623936 0.014850078
0.027224964 0.03211752 -0.004853139 -0.08964325 -0.031653877 0.039598797 -0.025356846 -0.0033797424

_func._diffusion._model.0.bias f4 [16]
00000000: 97d9 db3d 4c5a 683c c48b 7a3c 9e78 c73d
00000010: 5c2a 32bc 6a04 703c f1e9 6ebd c730 cdbd
00000020: 2bd6 6f3d ec8d e0bc 9f16 a0bc 85a0 4c3d
00000030: 7609 a9bd 7aa9 bd3d f7b5 9e3d acf0 0b3c
0.10734861 0.014181685 0.015292112 0.09739803 -0.010874357 0.01464949 -0.058328573 -0.10019069
0.058553856 -0.027411424 -0.019542037 0.04995777 -0.08253758 0.09260841 0.07749551 0.008541267

_func._diffusion._model.2.weight f4 [48, 16]
00000000: f97a 943d 0124 573d d239 06bc 79c6 3d3d
00000010: 9a49 c7bd 87ec 263d 8540 843b 881b c6bb
00000020: 48c8 193d adca afbd 3bb6 333c c8c7 7a3d
00000030: f4d9 66bd 2e58 d0bc 1a53 96bc ba4e 913d
00000040: 6d70 103d 90ab 21bd 2380 e4bc 9831 2c3c
00000050: ef99 93bd ddf2 4e3d 7fa5 0dbd 0b0e b4bd
00000060: 6bb8 9e3d a240 19bc 8735 123c b53b 893d
00000070: 24d1 70bc 5f94 d3bc 5fe0 f2bc ae73 70bc
00000080: ef5a 203c efc1 bdbc a9e7 0bbd da7e c73d
00000090: d06b afbd af11 233d e7f4 39bd 6105 c93c
000000a0: a2d4 5abc f4c8 fabc 306e b6bd 29b0 afbc
000000b0: 1fc2 f4bc 4917 7d3a 8217 b83c 1515 9fbc
000000c0: 60b6 953d 4b39 6d3d 6d9b 55bd 7311 643c
000000d0: e0fb b13b bc74 8bbc 90eb 31bd b6a0 0bbd
000000e0: 81dd 633d b6cc 2cbd a88c 94bc 7e19 4dbc
000000f0: c40e c0bc a7f1 d9bb 754b 7f3d 8c5d 253d
00000100: 3a5b 893d 7752 f33b 6649 0fbc 70dd c23d
00000110: 0e1f 2cbd ea0b 8a3d d85a 8cbd 1bf2 123c
00000120: 3c5e 413d ef06 a9bd 3fc8 12bd ec61 1cbd
00000130: cbe8 e1bc f4df b13b b264 1c3b 3713 683c
00000140: be8b b93d b090 8a3c e5de 4cbd c771 893d
00000150: c668 ebbc 3d96 373d 8492 f1bc 7fca 96bc
00000160: e44c 0d3d ef5b 2cbd f9ce a3bb b020 753d
00000170: 50ce bdbd 9459 c03c 51df a73c 6162 793d
00000180: 0755 a13d cc91 1e3d 9ff5 73bd bf02 d43c
00000190: 544d 8e3b 37c0 023c c1b3 35bd dbc2 91bd
000001a0: 960a 533d 9357 aabc d3ac 25bd de64 393d
000001b0: 5353 38bd e03e a6bb 260d 983d 8089 513d
000001c0: 0644 b03d 778c c43b f5e7 0dbd 9289 823c
000001d0: 0206 81bd 74e8 4b3a 2863 58bc ba6e 7ebd
000001e0: afa9 be3d 98e3 adbd de8c c5bc 0948 6d3d
000001f0: 9577 b5bd edce 2f3d e609 a53d ebf0 243d
00000200: f6c9 ddbc 8e60 bbbc de77 00b9 153b 183d
00000210: 8f97 61bd 3103 3d3d e799 bfbc 8ee0 a13c
00000220: 3a3b 293d 3f24 003c 15b9 36bd 17f9 be3c
00000230: 558f b63b 0e26 e33c 5701 8a3d 6db4 6c3d
00000240: 4bac a5ba 1e19 66bc 3270 1dbc 2d23 993c
00000250: abcc e1bc a1b3 3e3d a437 133c 0792 a0bd
00000260: 6300 433d 071d 1abd f7f2 7cbd abaf 853d
00000270: eeb7 b8bd 2ef3 203b 89ce 743d 38aa fabc
00000280: 62e5 af3a 5f76 eabb 482a 293d a442 313d
00000290: 7d48 d4bd 330d 653b 5e72 85bd 0286 92bd
000002a0: e2f6 743c 9653 85bd d48f cebd 015d 203d
000002b0: 0b2a 5abd 4882 953d 673d 9f3c cb49 843d
000002c0: 47f4 af3d 63a0 3e3b 33d6 1ebd 83f0 f93c
000002d0: 5e69 b9bd a0f1 d03c a11e 87bd ae39 a0bd
000002e0: 001f b8bc 5ad8 a8bc e559 653c b65f 45bc
000002f0: e279 a9bd 62da 8d3c 004c 063d a8b9 933d
00000300: 2f1b 07bd 9b64 b33c d308 3d3c c268 4cbd
00000310: da68 103b dc24 4ebd 6ec8 ff3b 9c32 e2bc
00000320: 9f22 8abc def7 ae3c 50a9 6b3d 6b9e 8fbc
00000330: 2b84 773d 9174 46bd c6b4 aabd d496 94bd
00000340: 81a9 283c 6bbd 01bc a2b5 a9ba e64e c8bd
00000350: 3a38 813c f915 80bd a80d ad3b faf2 053d
00000360: 00c8 90bd b362 653c 5e1a 313d a0be 29bd
00000370: 7ea6 5d3d f864 f33c 404c 193d 47d8 c93c
00000380: 77bd 53bd dfdd bf3c c077 153d ac39 51bd
00000390: eb05 903d 41f4 233c ec4c 053d b36f ac3d
000003a0: 4591 e5bc a9fa 973d a565 d63b af92 c2bc
000003b0: 82cb a73d c75c 55bd ec9c 1abd a76d a0bd
000003c0: 2253 efbb 9b92 d1bb ab66 2fbd 5563 eb3c
000003d0: 44ce 25bd f317 7fba ce04 88bd 33c5 a3bc
000003e0: 490a a23b bd8e b5bd a993 81bd abff 4a3d
000003f0: 76b0 ba3a 510a 883d 9d20 3cbb 8abe f73c
0.07250018 0.05252457 -0.008192496 0.046331856 -0.09730835 0.040752914 0.0040360116 -0.0060457624
0.03754452 -0.08583579 0.01096874 0.061225682 -0.0563602 -0.025432672 -0.018350173 0.07095094
0.035263468 -0.039470255 -0.027893132 0.010509871 -0.07207095 0.05052458 -0.034581657 -0.08791741
0.07750019 -0.009353789 0.008923895 0.06700841 -0.0146983005 -0.025827585 -0.029648004 -0.014676018
0.009787305 -0.023163764 -0.034156475 0.09740992 -0.085654855 0.039811786 -0.045399573 0.024538698
-0.01335636 -0.0306134 -0.08907735 -0.021446304 -0.02987772 0.0009654654 0.022472147 -0.019419232
0.07310176 0.057915967 -0.05215018 0.013920176 0.005431637 -0.017023437 -0.04343754 -0.034088813
0.055631164 -0.042187415 -0.018133476 -0.012518285 -0.02344454 -0.0066511217 0.06232782 0.040372416
0.06706853 0.007425602 -0.008745527 0.09514892 -0.042021804 0.06740554 -0.068532646 0.008968855
0.04720901 -0.082532756 -0.0358355 -0.038179323 -0.027576825 0.0054283086 0.002386373 0.014164737
0.09059857 0.016914696 -0.050017256 0.067111544 -0.028736483 0.044821013 -0.02948881 -0.018407105
0.034497157 -0.042079862 -0.0049990383 0.059845626 -0.092678666 0.023480214 0.020492228 0.060884837
0.07877546 0.03871326 -0.059560414 0.025880216 0.0043427143 0.007980398 -0.04436088 -0.07117244
0.051523767 -0.020793712 -0.04044802 0.04526221 -0.04500134 -0.0050734133 0.07424383 0.05115652
0.086067244 0.00599819 -0.03464504 0.01593474 -0.06299974 0.00077784737 -0.013207234 -0.062117316
0.09309708 -0.08490676 -0.024115022 0.057930026 -0.08860699 0.04292195 0.080585286 0.04026882
-0.027073842 -0.02287319 -0.00012251685 0.03716572 -0.05507618 0.04614562 -0.023388816 0.019760396
0.04131625 0.007821142 -0.0446101 0.023312135 0.0055712857 0.027728107 0.06738537 0.057789255
-0.0012639848 -0.014044074 -0.009609269 0.018693531 -0.027563414 0.046558026 0.008985434 -0.078403525
0.04760779 -0.03762534 -0.061755147 0.06527647 -0.09019457 0.002455901 0.05976728 -0.030598745
0.0013419802 -0.007155224 0.04130009 0.043276444 -0.103653885 0.0034950494 -0.065159544 -0.07154466
0.01495144 -0.065100834 -0.10086027 0.039151195 -0.05326275 0.0730024 0.019438459 0.064593874
0.08591514 0.0029087297 -0.038778495 0.030510193 -0.090533 0.02550584 -0.06597639 -0.078235015
-0.02247572 -0.020610977 0.013998483 -0.012046745 -0.082752004 0.017316047 0.032787323 0.072131455
-0.03298491 0.021898558 0.011537748 -0.049904592 0.0022035153 -0.05032812 0.0078058755 -0.027612023
-0.016862212 0.021358427 0.057534516 -0.017531594 0.06042878 -0.04845101 -0.08335261 -0.07255331
0.010294319 -0.007918696 -0.0012947808 -0.09780674 0.015773881 -0.06254191 0.005281169 0.032702424
-0.07069397 0.0140005825 0.043238036 -0.04144156 0.054113857 0.029711232 0.037426233 0.024639262
-0.05169436 0.023421226 0.036491156 -0.05108039 0.07032379 0.010006965 0.03254406 0.084197424
-0.028023371 0.074208565 0.0065428787 -0.023751585 0.08193113 -0.052090432 -0.03774731 -0.078334145
-0.0073036114 -0.0063956506 -0.04282252 0.028733889 -0.040479913 -0.0009731047 -0.066415414 -0.019991493
0.0049450737 -0.08865116 -0.06326992 0.04956023 0.0014243263 0.06642593 -0.0028705962 0.030242223

_func._diffusion._model.2.bias f4 [48]
00000000: e7b5 893d 4c91 b03d ab42 ca3d f32a a03d
00000010: 9766 f13c 2440 533d 41cb 163d d6b2 6c3d
00000020: 7764 b63c 0a01 e93c e990 e03d e644 dc3c
00000030: 381a 2bbd 8ef0 71bc f353 9fbd e487 793a
00000040: 66d9 b83b c578 8c3d c33e 62bd d1c9 d8bd
00000050: a3b8 bcbd fde1 1ebc 503b 4cbd 0172 d1bd
00000060: ff88 c8bc 0396 b2bc 1847 6b3d a7a0 91bd
00000070: c506 d6bc b2c1 31bd 51cd 60bc 15ea 69bd
00000080: af2a dcbd 8df5 bf3d 3a2a 923d a98f b13d
00000090: 1b0d 2f3d d2e5 263c c291 963c a3a4 be3b
000000a0: fa9c c8bc f9ad 8ebd efe3 3a3d 9a55 903d
000000b0: 6759 c43d e4b7 5cbd ba86 8ebc 6608 a23a
0.06724148 0.08621463 0.09875997 0.07820692 0.029467864 0.05157484 0.03681493 0.05778774
0.022264702 0.028442878 0.109651394 0.026888322 -0.04177305 -0.014766825 -0.07779684 0.00095188455
0.0056411503 0.068589725 -0.055235635 -0.105853684 -0.09214904 -0.0096974345 -0.049861252 -0.10226823
-0.024479387 -0.021800047 0.057440847 -0.0711072 -0.026126275 -0.043397613 -0.013720826 -0.057108004
-0.10750329 0.09373007 0.0713696 0.08669979 0.042737108 0.010186629 0.01838005 0.005817966
-0.024488915 -0.069667764 0.04562753 0.07047577 0.09587365 -0.05388631 -0.017398227 0.0012362122

_readout.weight f4 [1, 16]
00000000: 7eb7 c1bd de50 45be 0ad2 76be 1f87 52be
00000010: 54ce 9e3d cc1e cbbd 3c72 f63b 5ae2 043e
00000020: b7cc e6bc 9f04 8f3d 0f7b b13d 30ec 8abe
00000030: c7b8 71be 87da a0bb a734 8ebd 3e3b 163e
-0.094588265 -0.1926913 -0.24103561 -0.20559357 0.07754198 -0.099179834 0.007520942 0.12976971
-0.028173788 0.06983303 0.0866605 -0.27133322 -0.23605643 -0.004908863 -0.069436364 0.14671037

_initial._model.0.weight f4 [16, 2]
00000000: 3fd1 26b6 25d5 b1be 2aa7 32b6 b8bd 993f
00000010: 6aa6 c634 c33e 37bf aae0 bc36 e5b2 11bf
00000020: 77ce 8cb6 e648 a1be 5649 4036 5bdd 31bf
00000030: 65ae 4336 c885 623f 8917 e4b5 422d aa3f
00000040: 181a 6334 f59e 3dbf d543 59b6 b22d 3a3f
00000050: b1be 81b6 c323 f13d 2213 be36 f3e1 aebe
00000060: 4b54 c4b6 a74f b1bf 1979 3b36 5c9b b93e
00000070: 2a1e a135 8050 1c3f 3a12 deb5 3cec 1c3f
-2.4857725e-06 -0.3473293 -2.662137e-06 1.2011023 3.7001456e-07 -0.7158014 5.628991e-06 -0.56913596
-4.196361e-06 -0.3150093 2.8652917e-06 -0.69478387 2.9158775e-06 0.88485384 -1.6994173e-06 1.3295062
2.1150515e-07 -0.74070674 -3.2375003e-06 0.72725976 -3.866699e-06 0.11774399 5.6646686e-06 -0.3415676
-5.851068e-06 -1.3852433 2.793566e-06 0.36251342 1.2004214e-06 0.61060333 -1.6545594e-06 0.61297965

_initial._model.0.bias f4 [16]
00000000: 2811 01bf 5f56 fabc a921 9c3d bac6 0b3f
00000010: 6918 7dbe e808 e13a 0000 a5be a7cf 04bf
00000020: e63b 413f 6a68 143e d323 96bd 4a3a fbbd
00000030: 2fa8 5cbe 3420 b2be d54c 853d 5d41 bd3e
-0.50416803 -0.030558763 0.07623608 0.5460011 -0.24716343 0.0017168792 -0.32226562 -0.5187935
0.7548202 0.14492956 -0.07331052 -0.12266977 -0.21548532 -0.34790194 0.06508795 0.3696393

_initial._model.2.weight f4 [16, 16]
00000000: ab5a 1dbd 14d1 f7be bb28 9ebc fc17 7cbd
00000010: 827b 7cbe 5556 1dbe d13b 1cbe 6c07 44be
00000020: 9809 36bd 62a1 5bbe b606 b23a be4f 2cbe
00000030: 700e 3dbe 5d9e dabd 5ec7 ae3d 93fc 53be
00000040: 395d d03d efe7 bf3e 0b49 d73e c4be 8a3e
00000050: caae 283e d784 c23e 84d0 6e3e 92cf 873e
00000060: 8c3d 553e bc15 613e bc2d 61bb 1059 0e3e
00000070: 4e1a 013f 6cae 36be 8959 853d 03f9 8f3e
00000080: cbbe 8ebe ffba c13e 1a81 053e 1651 1f3e
00000090: 9686 bebe b3b4 173e 2619 8c3d cd85 fa3d
000000a0: d93a 803e 69e2 e23e 7c33 8abe dd57 88be
000000b0: e3a7 903e 2bf2 debc a707 893d 6cc2 073f
000000c0: c79f 733c 0f4f 1a3f 8c35 303e 18c8 cd3d
000000d0: ad31 93bd 5ea6 b53d a229 a63e 0773 da3e
000000e0: 1459 383e 0dd7 e93d 32f0 44be ceeb 323e
000000f0: ccc4 8c3e c828 0ebd c08e a33e c28f ad3c
00000100: 1302 debd 5eeb e53e d7ee 3f3e 2f32 203e
00000110: 9347 84bd e5fe aa3e 4bd7 c13d aa86 fc3e
00000120: cc98 21be 8081 993e af8f 46be 411c ee3d
00000130: ad63 1b3f d8c6 063d 7e73 9fbd dbe9 7abc
00000140: 70f6 c93c 1f51 033f d89f 7cbd 5e57 bf3d
00000150: f271 723e 86d5 5f3e 7c3c 8e3e ba5b ee3e
00000160: 82c5 a83d 6ae3 993e aaf9 043e 0257 a1bd
00000170: 52a5 a13e 1584 273e 0184 de3d c682 8bbd
00000180: b6cc 5b3e ef38 56bb 91ff b43b 5767 d5bd
00000190: 2c99 9f3e 3e3d b7bd 47d1 c03d bd43 37bc
000001a0: 759a 28be a21d d5be 4748 bc3d adac cb3e
000001b0: 4a65 153e 3093 2fbc b491 5dbd 7047 9bbd
000001c0: 65ed 1fbe 81bc a2be 7c3a 533d 056d 91be
000001d0: c387 9b3d 98b9 05be c88e 30be 018e d2be
000001e0: 18ca 0abe 9fcb 053c ae80 fe3d 357c 14bd
000001f0: 8a87 19bf 2e70 883d 092f 443d f9b0 74be
00000200: 9a76 9d3e 0b35 0a3e c1b5 6abd 45f3 e63d
00000210: 783a 163e 66c7 b13d 346e a63e 5974 003f
00000220: 7610 debd 9ec0 5e3e 2b3a 05bc d4d7 403e
00000230: 78e0 1c3f 3067 063e 9559 29be f7fd 633e
00000240: df3c 0a3e 48ef 69be 1936 6fbe 056b 2cbc
00000250: 4f20 08be a84c eabe eca3 7abe f5f5 92be
00000260: 5275 59be 10e8 c8bb a2a3 523e 1d8a 723d
00000270: 56d2 1fbf 77ba 03be dd61 f8bd 2ad3 783c
00000280: 5475 f6bd 735e 083e d2be 413e dfb7 15be
00000290: 55fb 8cbd 110d d43e 5f46 943e b79c a83e
000002a0: bd0f 043c f98f 7b3e 487d c6bd ad92 8c3e
000002b0: 40d6 5d3e 71b0 2e3e e99b 97bc dfdd 5bbd
000002c0: 8e96 b6bd cf6e 7a3e 096b 3a3e 8787 d03d
000002d0: 1e2e 4e3e d686 b83e 23e8 4e3e 2a6a d63d
000002e0: ffea 523e 9572 4a3d 9ae7 aabd 94a1 9a3d
000002f0: bb7f 163f 2fe5 16be 04f1 223e d746 a73d
00000300: a093 12bd 7514 973e e847 0c3e 6ce7 3bbe
00000310: a1bf a73d 845a 9f3e 0be7 a03e 246d b13e
00000320: 0a8f 4e3e 0f3d 6c3e 59c9 acbd 8736 9dbd
00000330: 0ea3 0c3f a5ed ae3e 610b 5f3e e09b 2f3e
00000340: d31f 203e 6478 be3e 618a c23e 1b4b 8b3e
00000350: 2b99 95bd 4396 ee3e 9a97 a33e 1ae8 973d
00000360: 4d9d 2e3e 7438 fd3b 69f0 e1bd a497 d23d
00000370: 7a87 1b3f ea37 1ebe 2686 2c3e 2cad 583e
00000380: 6ff9 a13e f31e 77be a55b 9b3e 90e2 353e
00000390: 505c 1c3e 7ad7 e33e 7d96 233e caf9 28bd
000003a0: b8b5 88bd ef18 a4bd a122 d2bc 19f1 d23e
000003b0: 0efe b63e f6f8 78bd a785 93bd 6c0d 9cbe
000003c0: 0dbb 1a3a e1da d2be 7cb0 6ebe 178d 873d
000003d0: 5999 6ebe 132b 4ebe dc69 96be e1be cebe
000003e0: 5f5f 21be 279b 06be 4bcb a2bc 5a48 51be
000003f0: 3984 ebbe d787 6dbe b2d6 10bb 1b48 a9bd
-0.038416546 -0.484017 -0.019306531 -0.06154631 -0.2465649 -0.15364964 -0.15257193 -0.19143456
-0.044442743 -0.21448281 0.0013582322 -0.16827294 -0.18462539 -0.10674737 0.0853412 -0.20701818
0.10174031 0.3748164 0.42047915 0.27098668 0.16472927 0.37991974 0.2332173 0.2652555
0.2082426 0.21980947 -0.0034359535 0.13901162 0.5043076 -0.17839974 0.06511218 0.28119668
-0.27879938 0.3783798 0.1303753 0.15558276 -0.37212056 0.14815025 0.06840734 0.12232552
0.25044897 0.44313362 -0.26992404 -0.26629534 0.28253087 -0.027215084 0.06690913 0.5303104
0.014869637 0.60276884 0.17207927 0.100479305 -0.07187209 0.08869623 0.32453638 0.42665884
0.1800273 0.11417971 -0.19232252 0.17472765 0.27493894 -0.03470686 0.31944847 0.021186713
-0.108402394 0.44906133 0.18743454 0.15644144 -0.06458964 0.33397594 0.09464892 0.4932149
-0.15780944 0.29981613 -0.19390748 0.11626483 0.6069897 0.032904476 -0.077857 -0.015314545
0.024653643 0.51295656 -0.061675876 0.09342836 0.23676279 0.21858796 0.2778052 0.46554357
0.082407966 0.30056316 0.12985864 -0.078779235 0.31571442 0.16358979 0.108650215 -0.068120524
0.2146481 -0.0032687744 0.00552363 -0.10420101 0.31171548 -0.08947228 0.094149165 -0.011185584
-0.1646517 -0.4162417 0.09193473 0.3978018 0.1458942 -0.010716245 -0.05409403 -0.07581985
-0.15617903 -0.31784442 0.051569447 -0.28403488 0.07594254 -0.1305908 -0.17241967 -0.41123965
-0.13553655 0.008166223 0.124268875 -0.036251266 -0.5997244 0.066620216 0.04789642 -0.23895635
0.30754548 0.13496797 -0.05730224 0.11276869 0.14670742 0.0868061 0.32505953 0.5017753
-0.108429834 0.21753165 -0.008131544 0.18832332 0.6128001 0.131253 -0.16538079 0.22264849
0.13499783 -0.22845185 -0.2336048 -0.010523562 -0.13293575 -0.4576161 -0.24476594 -0.28703275
-0.2123616 -0.0061311796 0.20570233 0.059213746 -0.6243032 -0.128641 -0.12128041 0.015187064
-0.12034097 0.1331728 0.18920448 -0.14620923 -0.06883875 0.4141622 0.2895994 0.32932064
0.008060393 0.2456664 -0.09691864 0.27455655 0.21663761 0.17059495 -0.018506961 -0.05367839
-0.08915435 0.24456333 0.18204893 0.101821 0.2013478 0.36040372 0.2020574 0.10469468
0.20597456 0.04942568 -0.08344956 0.0755035 0.5878865 -0.14735864 0.15912253 0.081678085
-0.035785317 0.29507795 0.13699305 -0.18349999 0.08190847 0.31123745 0.31426272 0.3465358
0.20171753 0.23070167 -0.084368415 -0.07676416 0.549363 0.34165683 0.21781684 0.17149305
0.1563714 0.37201226 0.379962 0.27205738 -0.07304605 0.46599016 0.319516 0.07417317
0.17052193 0.007727677 -0.11032183 0.102828294 0.60753596 -0.15451017 0.16848049 0.2115981
0.31635615 -0.241329 0.30343357 0.17762208 0.1526959 0.44500333 0.15975375 -0.041253842
-0.06675285 -0.08012568 -0.025651278 0.41199568 0.35740703 -0.060784303 -0.072032265 -0.3047899
0.00059025065 -0.41182616 -0.23309511 0.066187076 -0.23300685 -0.20133619 -0.2937764 -0.40380004
-0.15759037 -0.13145123 -0.019872328 -0.20437756 -0.45999315 -0.2319635 -0.0022100625 -0.08265706

_initial._model.2.bias f4 [16]
00000000: 6c97 ac3e a287 dc3d a4e0 a13e c5b8 9bbc
00000010: 5f36 5ebe 2438 e83d 862e aebe a7e3 e53c
00000020: 6062 7bbe 25cf 68be 1d63 d43d c03b 443e
00000030: 9940 a3bd 64c1 303d 7c4f 95be efba 193e
0.33709276 0.107680574 0.316167 -0.019009003 -0.21700428 0.11338833 -0.3401987 0.028062655
-0.24549246 -0.2273527 0.10370467 0.19163418 -0.079713054 0.04315318 -0.29162204 0.15012716
