hyperparameter_tuning/ray_results/SUD_learning_rate_tuning/MyTrainableClass_c6df0496_1_batch_size=16,name=SUD_v2,patience=1000,steps=200,steps_per_print=5,swa_step_start=2500,t_size=7,train_2024-03-12_14-10-24/checkpoint_000000/checkpoint.pt (torch, 61346 bytes, 66 tensors)

_initial._model.0.weight f4 [16, 5]
00000000: 1b59 54bf 14d2 06c0 b3dd b8bf f73d 91bf
00000010: e1b9 31c0 dc5e e0bf a861 5bc0 93f5 71c0
00000020: 4a0e 51c0 061c 2140 fa64 3940 8ef3 20c0
00000030: ef55 5240 ee31 63c0 ec68 ff3f deed 813f
00000040: f732 4b40 f52d 14c0 8c0c 4b40 b966 653e
00000050: 865a 2f40 5f48 8bbf 2808 59be 3370 1cc0
00000060: 191a af3f aa43 2dc0 b888 87bf 32b1 3ec0
00000070: ef93 d3bf 45de f73d 1f04 4fc0 cfeb 463f
00000080: 0754 27c0 f7d2 b6bd 3e32 65bf 5260 5cbf
00000090: 645f 51bf 5d93 ca3f bfb8 1d3f 3ab9 0240
000000a0: 218b 0bbf 0a32 68c0 de7a 5cc0 15bc 6c40
000000b0: a302 5cc0 45e2 2640 9656 223f 4e4b cb3f
000000c0: fd3c df3f 79cc fdbe 237f 3b40 2b6c fa3d
000000d0: 1436 f1bf be82 1fbf a42f c0bf 5e1c 873f
000000e0: 11b2 2cc0 b2ef 61c0 922b 6440 c0d6 433f
000000f0: 29a7 863e e05d 9b3f 2e08 1240 44ae 40be
00000100: c0ef 2340 a32d 78c0 a1a2 f4bf 5e09 20bf
00000110: bc5a e63f 8f87 18c0 297f 3c40 c295 4f40
00000120: e64e 4240 c93f 77c0 0aaa 55c0 f6c1 83bf
00000130: 8bbd f13e 10da 4940 5791 413f e343 5a40
-0.82948464 -2.1065722 -1.4442657 -1.1347035 -2.7769701 -1.7528949 -3.4278355 -3.7806137
-3.2664971 2.5173354 2.8967881 -2.5148654 3.286495 -3.5499225 1.9953895 1.0150716
3.1749856 -2.315305 3.1726408 0.22402467 2.7399 -1.0881461 -0.21194518 -2.444348
1.3679839 -2.707255 -1.0588598 -2.9795651 -1.6529521 0.121029414 -3.2346265 0.77703565
-2.6145036 -0.08926957 -0.8952979 -0.86084473 -0.8178618 1.5826222 0.61610025 2.0425553
-0.5450917 -3.6280541 -3.4449992 3.6989796 -3.437661 2.6075604 0.6341337 1.5882356
1.7440487 -0.49570063 2.9296348 0.12227663 -1.8844628 -0.6230887 -1.5014539 1.0555532
-2.6983683 -3.5302548 3.5651593 0.7649956 0.26299408 1.2138023 2.2817492 -0.18816477
2.5615082 -3.8777854 -1.911213 -0.62514293 1.799644 -2.3832738 2.9452612 3.2435155
3.0360656 -3.8632681 -3.3385034 -1.0293567 0.47214922 3.1539345 0.75612396 3.4103935

_initial._model.0.bias f4 [16]
00000000: 3869 f63f 4294 5cc0 4b45 c4bf a099 473f
00000010: 5218 d33e 46ca 60c0 8995 d0bf cef5 1d40
00000020: 0815 e83f d444 48bf f353 60c0 e43b 6440
00000030: 16f5 03c0 a02b a53f 6de5 19bf 266c 453e
1.925086 -3.446549 -1.5333647 0.7796879 0.41229492 -3.5123458 -1.6295635 2.4681277
1.8131418 -0.78230023 -3.5051239 3.5661554 -2.0618339 1.2903938 -0.601157 0.19279537

_initial._model.2.weight f4 [16, 16]
00000000: 562d 5fbe 9de3 9fbe 436a 403d e710 c3bf
00000010: faa4 fa3f 3664 d2bf 7751 303f ffed 303e
00000020: 01a7 4dbf df79 df3f 8254 9bbe f1c4 bfbf
00000030: 96f7 203f b14b 2bbf 7b3d d23f d5a6 04c0
00000040: 5ed8 933f b8ca 04bf ef5a 19c0 5d01 0740
00000050: 44ae be3f 9869 1f3f 9ee7 633f aa84 ddbf
00000060: 3f0a 1440 2033 c43a 1c53 efbe 7746 03c0
00000070: 284e b3bf be90 c8be dfb5 69bf 3821 963f
00000080: 6e8b 30bd 066c d93f 11e2 0d3f bf1a 74bf
00000090: 6b96 6a3f 8d7f 1540 d2cf 39bf 637b 50bf
000000a0: dd43 68be 1ec7 493f a347 aebf b475 53be
000000b0: 296c a6bf 9240 c23f 5927 ffbe 77f4 be3f
000000c0: 70bc c4be abb2 f8bf 3598 803f 883b 98bf
000000d0: e5d9 f2bf 1faa 1340 c566 ecbe a570 943e
000000e0: 0d4b c6bf 4892 02c0 854a b53f f8ff 42bf
000000f0: ccad 5c3f d524 3f3f b820 763f 6b53 0fc0
00000100: e018 21bf e255 023f fcd4 d5bf 2c3e f73f
00000110: 77b9 b23f 8dce 0dc0 4c8e e23f 2ff6 4a3f
00000120: abbc ce3f 7698 bb3f 4db3 933f fe26 5f3f
00000130: ec9d b23f 0212 47bf a738 a53f fd05 e8bf
00000140: 74f0 29bf 40e7 0c3f 94c7 01c0 aed5 1b40
00000150: c50e 8bbf 89bf abbf 6589 d0bf d005 09bf
00000160: 3f4c b3bf 4e50 0140 6e07 de3e ca56 e73f
00000170: d1f3 bf3e dfd9 eebf aaf4 4e3f ca13 37bc
00000180: af55 acbd 1b6a 04bf 7025 733e 7261 eb3e
00000190: 7d05 4e3f 456b bbbd 774d 843f 1e90 143f
000001a0: 05bb d63f b019 27bd 3254 27bf 2815 9dbf
000001b0: d5d3 f43f adb1 8a3f 1f47 d03f fd7b 5a3f
000001c0: 1e2d 76bd 8167 11c0 8c94 acbf 4ecf b6be
000001d0: 4f8b 7f3f 8eda 07c0 68e8 14c0 d329 d53f
000001e0: 56eb acbf 175f ae3e 1191 1a3f c5c9 913f
000001f0: 422c 193d a80a 97bf 0efd cbbe 6113 2bbf
00000200: 2b75 b23f 8219 273f edaa 963e 03f7 be3f
00000210: 95dd 15c0 1d94 20be c506 213f 59e4 ed3e
00000220: 2025 a3bf 1a3a e9bf 8068 e8be 673e 60be
00000230: a635 d7bf e150 9b3e 941d 6d3f ace1 133f
00000240: 6c2c 8b3f c999 0f3e 519f 0740 054e 913f
00000250: b646 6cbf ba89 0fc0 4386 4cbe f797 333f
00000260: cb04 fa3f 11a4 15bf 633f ec3c 31e2 56bf
00000270: 11a0 3d3f 9a1d 2e3e c9cf 083f fac9 bcbf
00000280: f6b8 923f 96fd 10c0 e744 9a3f f898 c2be
00000290: b120 aebf f685 7c3f 50fc 9fbf 5dcd f73f
000002a0: dbd3 fa3f c010 f0bf dea4 e2bf 94ed 423f
000002b0: 6c94 c2bf f941 a6bf 96e3 823f 8a20 f13f
000002c0: 1e57 163e b18b bdbf 5a93 723f e078 9fbd
000002d0: 15e3 cfbf fb15 1140 9e9d b1bf 8a2c 10bf
000002e0: 8b0b 023f e61a 84bf ca79 21bf d7fe 593f
000002f0: 877f d8be 9135 6a3d 51e9 963f 6b2c 8e3f
00000300: fc23 94bf b889 e0bf 50ff ee3f da59 903d
00000310: e266 bebf c2c2 f8bf 69b8 a7bf f309 02be
00000320: 9780 bcbe b563 4dbf 0d5e 0140 f1d1 1240
00000330: 9513 db3f baff f9bf 8545 b0bf 9f23 c73f
00000340: 72e7 50bf c679 cbbd a9ab 47bf ca1e f73f
00000350: e407 1140 5575 b03f b507 e83f e481 cdbf
00000360: 61c9 ef3f eba6 ad3d 5556 08c0 93fa d2bd
00000370: 9d01 cb3f 0280 3bbf 69db 04bf 0590 27bf
00000380: b142 85bf d2b3 be3f c7e8 983f 2c96 be3c
00000390: 1b3c dd3f ebbb 2b3f 57dd 6fbf 7675 d3bf
000003a0: e330 8e3e b05b 42bf 95e3 1fbf 12e7 a83f
000003b0: f5ab b03f 93fb e0be 9e9e 22bf 62e9 463f
000003c0: 734b 8f3e 9794 353f a214 633f 5c0c b63f
000003d0: a2e9 efbf 8d95 993d cab9 1d3f 1d08 d23e
000003e0: 8104 3fbf 66d5 ebbf c4a2 fb3f 9b33 d5bf
000003f0: 2805 a03f afcc 0ec0 a46d 013f 3f4b e13f
-0.21794638 -0.31228343 0.04697634 -1.5239533 1.9581597 -1.6436832 0.68874305 0.17278288
-0.8033295 1.7459067 -0.30337912 -1.4981977 0.62877786 -0.6691237 1.6425012 -2.0726826
1.1550405 -0.51871824 -2.3961751 2.1094582 1.4896932 0.622705 0.89025295 -1.7306111
2.3131254 0.001496885 -0.46743095 -2.0511758 -1.4008226 -0.3917293 -0.9129314 1.1728888
-0.04310172 1.6986091 0.55423075 -0.9535331 0.9163577 2.33591 -0.72582734 -0.81438273
-0.22682138 0.78819454 -1.3615612 -0.20650369 -1.3001758 1.5175955 -0.49834707 1.4918355
-0.38425016 -1.9429525 1.004645 -1.1893167 -1.8972746 2.3072584 -0.46172157 0.2899219
-1.5491654 -2.0401783 1.4163367 -0.7617183 0.86202693 0.74665576 0.96143675 -2.2394664
-0.6292858 0.50912297 -1.6705623 1.9315848 1.3962849 -2.2157319 1.7699676 0.79281896
1.6151327 1.4655902 1.1539093 0.8716887 1.3954444 -0.7776185 1.2907914 -1.8126827
-0.6638253 0.5504036 -2.0278063 2.434917 -1.0863882 -1.3417827 -1.629193 -0.53524494
-1.4007643 2.0205264 0.43365043 1.8073361 0.37490705 -1.8660239 0.8084208 -0.011174152
-0.0841478 -0.51724404 0.2374475 0.45972782 0.80477124 -0.091513194 1.033614 0.58032405
1.6775824 -0.040795982 -0.65362847 -1.2272081 1.9127146 1.0835472 1.6271704 0.8534544
-0.06010162 -2.2719424 -1.3482833 -0.35705036 0.99821943 -2.1227145 -2.326685 1.6653389
-1.3509319 0.34056923 0.60377604 1.13897 0.037395723 -1.1800127 -0.39841503 -0.66826445
1.3942007 0.65273297 0.2942728 1.4919132 -2.3416493 -0.156815 0.62900954 0.46463278
-1.2745705 -1.8220856 -0.45392227 -0.21898805 -1.6813247 0.30335143 0.9262326 0.5776622
1.0872931 0.14023508 2.119099 1.1351935 -0.92295396 -2.2427812 -0.19973092 0.70153755
1.9532713 -0.5845347 0.028838819 -0.8393889 0.74072367 0.1700348 0.53442055 -1.4749138
1.1462696 -2.2654777 1.2052277 -0.3800733 -1.3603727 0.9864191 -1.2498875 1.9359547
1.9595903 -1.8755112 -1.7706563 0.76143765 -1.5201545 -1.2988883 1.0225704 1.8838055
0.1468167 -1.4808255 0.9475609 -0.07786727 -1.6241175 2.2669666 -1.3876226 -0.5631796
0.50798863 -1.0320709 -0.6307646 0.8515448 -0.42284796 0.05717999 1.1789953 1.1107305
-1.1573482 -1.7542028 1.8671665 0.07048388 -1.4875147 -1.9434435 -1.3103153 -0.12699108
-0.36816856 -0.80230266 2.0213654 2.2940638 1.7115351 -1.9531167 -1.3771216 1.5557746
-0.8160316 -0.09935336 -0.7799631 1.9306271 2.2661066 1.3785807 1.8127352 -1.6055264
1.8733331 0.08479103 -2.1302693 -0.103016995 1.5859867 -0.732422 -0.51897293 -0.6545413
-1.0410978 1.4898627 1.1946038 0.023264967 1.7283968 0.67083615 -0.9369711 -1.6520221
0.27771673 -0.75921154 -0.6245664 1.3195517 1.3802477 -0.43941936 -0.6352328 0.77699864
0.2798725 0.70929855 0.8870336 1.4222522 -1.8743174 0.07499228 0.61611617 0.41021815
-0.7461625 -1.8424499 1.9659047 -1.6656374 1.2501574 -2.231243 0.50557923 1.7601088

_initial._model.2.bias f4 [16]
00000000: 1c74 073f 4e9a a4be 2e68 1b40 1fe3 9bbf
00000010: 8612 1ac0 9e65 353e 13cb 92bf 6f05 68bf
00000020: 626b e43f d4a4 78bb ed38 0cc0 56e1 27bf
00000030: 7ccf aebf 084d 11c0 d826 613f 6fd4 09c0
0.52911544 -0.32148975 2.4282336 -1.2178687 -2.4073806 0.17714545 -1.1468223 -0.9063329
1.7845271 -0.0037940042 -2.1909745 -0.6557821 -1.3657069 -2.2703266 0.87949896 -2.153591

_func._drift._model.0.weight f4 [16, 17]
00000000: e380 333a f2d2 b2bb 673a a13b 8f3f a9b9
00000010: eec3 ed3a 38a8 913a 3735 37bb 3568 e039
00000020: 6979 e83a 5a8f adbb 1547 93bb d727 8fbb
00000030: 47ee 95b9 491e 3abb 63d2 b0bb c670 ab3b
00000040: 677c 973b f40b 05bb add5 85bb 1011 323b
00000050: 71c1 80ba a800 51bb 7c93 acbb 8234 4238
00000060: 2a65 3fbb 2b27 c43a ca95 c03a 4328 35ba
00000070: d466 be3b 9f09 93ba ed51 b93b 1877 e13a
00000080: bfb4 e03a 9862 9c3b 34aa fdba b32a b13b
00000090: 3c9f 293b 0ff9 d5ba 2221 2f3b 37cf b7bb
000000a0: fd6b 3e3a badb a6ba 8de2 9bba 2057 98bb
000000b0: 57f3 3d3b 2245 053b 75ca 1ebb 4360 963b
000000c0: 6708 91ba 091c 13b9 82cf 64bb 147b f23a
000000d0: 91d5 093b 72eb 853a b15e c239 97fd b9bb
000000e0: e6a9 a03b 2fcd 71b9 a495 613b af3d 6a3b
000000f0: 8433 a6bb 07c2 7d3b 88a4 81bb de17 f13a
00000100: 68d5 a43b 2f3d a43b 4f32 ed3a 11a7 a9bb
00000110: a497 4b3b 67bf 65bb d173 193b 8106 b3bb
00000120: 61a5 1ebb 0e7a 91bb 669a 93ba 3264 02bb
00000130: fcc4 b8bb 5fda babb 3c77 4c3a f8e4 4f3a
00000140: 9d37 16bb a90b 4abb 22e2 91bb c19e 68bb
00000150: 1f9d 12bb d87f 1dbb 0fac 713b d9b1 c53a
00000160: ed01 9d3b e9f0 9dbb 3eeb 063b 609e ae3a
00000170: 4058 9abb 1912 4c3b 4dcd 23bb bb5d 17bb
00000180: 306c 053b 9b2c b23a 2ba5 a439 2630 ab3b
00000190: 91e1 d9ba b85f 69bb 6375 bebb acb5 a23a
000001a0: ece0 93bb 2afe 9a3b 7ef9 e13a 3ca4 b4ba
000001b0: 05eb 733b cb92 a63b 180c 8c3b 69ec 12bb
000001c0: 6383 083a c2a6 4abb ac38 6d3b 3b12 b43b
000001d0: 9015 30b9 abf5 7b3b 05d3 003b e1e5 3a3b
000001e0: b83b 8ebb 70b4 83bb 04d3 a2bb 39a7 b63b
000001f0: 2bdf 1b3b cbce 8c3b 50b7 833b f0da 993b
00000200: 4b63 b9ba 09bb b9bb 695b 393a 4da2 1cbb
00000210: 3451 203b 3612 243b d1b2 133a 0fef b6bb
00000220: e5cd cd3a bb82 51bb 5e97 2fbb 1c54 923b
00000230: 2ac7 44bb 3a38 f23a 252b dbba 1e3a 7639
00000240: 70e0 31bb f513 0abb 4b93 a23b 9dda 503b
00000250: 1720 a2bb 4d38 aa3b ca6b 65bb 81ff 75bb
00000260: b375 a9bb 0445 afb9 f668 2ebb 7846 babb
00000270: 0170 223b 6fcb baba 7ef0 123b da72 91bb
00000280: 8371 72bb e3fa 5abb 8501 c8b9 8617 a8bb
00000290: 6638 873a a1da 4cb8 437c 9b3b b1e8 aeb9
000002a0: 6763 a53b 8f2e 433b 15a5 9736 5a3c 7cb9
000002b0: 4bc5 e139 9bbf 023a 1bad baba 9ae6 65bb
000002c0: c902 39ba 306f 46bb 9b34 b7ba d7ea 9abb
000002d0: 53e9 973b ab41 323b fcc8 dbba 29dc fdba
000002e0: 37e4 b53b c022 b1bb 1577 b7bb fc12 97ba
000002f0: f915 c93a 3879 91bb 85a7 6f3b 250e d3ba
00000300: f6cc 8f3b 5a73 7c3b 4090 85bb 4ccd 513b
00000310: 0f8d 3f3b f04f 6bba f3a3 853b b7f4 9dbb
00000320: 5890 a83a 598d b5ba 6044 afb8 74ad 10bb
00000330: 0ea7 22bb 7dd9 7d3b 0c18 5e3b 8565 863b
00000340: 3794 93bb 8854 3a3a cfe1 c339 d778 89bb
00000350: a55b 703b 2517 f2ba 4e01 48bb 09dd 82b9
00000360: 468c 313b abcf df3a 63ae 983b 0815 0f3a
00000370: 74c3 9fbb 13b2 08bb 4595 5cba 1abf a93b
00000380: e130 2a3b 8f71 d03a 0853 9bbb 2288 29bb
00000390: f9e2 183b 4f4d 4ebb 5ced 07bb 01da b53b
000003a0: a332 9f3a 41b3 233b 2580 723b 09d0 b4bb
000003b0: d749 d53a 6335 8ebb 0f3a ebba 4fd8 363b
000003c0: b430 b6bb 3810 863b 4cac ea3a c7fd 633b
000003d0: 2fbf 2c3b 8898 213b 42e4 1cb9 2a93 b13b
000003e0: 35fd 4bbb 7a0d 26ba 91cc a1ba 5841 d03a
000003f0: 99ae 3d3b 26c0 663b 4ecf 333b ced7 81bb
0.0006847514 -0.0054572755 0.004920292 -0.00032281547 0.0018140057 0.0011112755 -0.0027955303 0.0004280225
0.0017736378 -0.00529663 -0.0044945576 -0.004368763 -0.00028597025 -0.00283994 -0.005396174 0.0052319495
0.004622984 -0.0020301314 -0.00408431 0.0027170815 -0.0009823275 -0.003189126 -0.005266605 4.6302106e-05
-0.0029204586 0.0014965286 0.0014693078 -0.00069106015 0.005810598 -0.0011218077 0.0056555183 0.001720163
0.001714371 0.0047724955 -0.0019353093 0.0054067015 0.0025882265 -0.0016324836 0.002672263 -0.0056094187
0.00072640163 -0.0012730279 -0.0011893079 -0.004649058 0.0028984153 0.0020335396 -0.002422956 0.004589112
-0.0011065126 -0.00014029456 -0.0034913723 0.0018499815 0.0021031837 0.0010217263 0.00037073114 -0.005675982
0.004903066 -0.00023059988 0.0034421468 0.0035742333 -0.005072059 0.0038720386 -0.003956381 0.0018393954
0.005030323 0.0050121765 0.0018096658 -0.0051773866 0.0031065727 -0.0035056712 0.002341498 -0.005463422
-0.002420746 -0.004439599 -0.0011261224 -0.0019896147 -0.0056387167 -0.0057023014 0.000779975 0.00079305423
-0.0022921332 -0.0030829704 -0.004452006 -0.0035495015 -0.0022371484 -0.00240325 0.0036876237 0.001508291
0.0047914893 -0.0048199785 0.0020586993 0.0013322346 -0.0047102273 0.0031138717 -0.0024994195 -0.002309664
0.0020358674 0.0013593616 0.00031403577 0.0052242456 -0.001662301 -0.0035610031 -0.0058123334 0.0012413762
-0.0045128968 0.0047300057 0.0017240492 -0.0013781856 0.003721894 0.005083417 0.0042739026 -0.0022418743
0.00052075664 -0.003092215 0.003619711 0.0054953373 -0.000167927 0.003844599 0.0019657027 0.0028518366
-0.004340615 -0.0040193126 -0.0049690027 0.0055741337 0.0023784142 0.0042971126 0.0040196553 0.004695289
-0.0014143971 -0.0056680483 0.0007070811 -0.002390045 0.0024462463 0.0025035269 0.00056342507 -0.005582697
0.001570162 -0.003196879 -0.0026793103 0.004465593 -0.0030025938 0.0018479892 -0.0016721232 0.00023482039
-0.0027141832 -0.0021069024 0.0049614063 0.0031868585 -0.004947673 0.0051947 -0.0035006874 -0.0037536325
-0.0051715015 -0.00033430022 -0.0026612855 -0.00568467 0.0024785998 -0.0014251302 0.0022421177 -0.00443874
-0.0036993928 -0.00334137 -0.00038148105 -0.0051297573 0.0010316491 -4.8841004e-05 0.0047450378 -0.00033361235
0.00504725 0.002978239 4.5193688e-06 -0.00024055075 0.0004306234 0.0004987658 -0.0014242263 -0.0035080076
-0.0007057605 -0.0030278675 -0.001397747 -0.004727702 0.0046359687 0.0027199786 -0.0016768272 -0.0019367981
0.005550887 -0.005405754 -0.0055989125 -0.0011526044 0.0015341631 -0.004439499 0.0036568355 -0.0016102238
0.004388447 0.0038520903 -0.004076034 0.0032013236 0.0029228365 -0.000897645 0.004078382 -0.004820432
0.0012860401 -0.0013851329 -8.357386e-05 -0.0022076042 -0.002481881 0.003873437 0.0033888845 0.0041014575
-0.0045037526 0.0007107933 0.0003736154 -0.0041953134 0.0036675718 -0.0018470032 -0.0030518356 -0.00024960216
0.0027091666 0.001707544 0.0046594604 0.0005458151 -0.0048755948 -0.0020858094 -0.0008414577 0.005180252
0.0025969076 0.0015902984 -0.0047401227 -0.0025868495 0.0023328646 -0.0031479185 -0.0020740842 0.0055496697
0.0012145828 0.002497867 0.003700265 -0.005517964 0.0016272616 -0.0043398603 -0.001794638 0.0027899926
-0.005560005 0.004091289 0.0017904132 0.0034788714 0.0026359071 0.0024657566 -0.00014962352 0.0054191547
-0.0031126265 -0.00063344056 -0.0012344291 0.0015888615 0.002894318 0.0035209744 0.0027436796 -0.0039624935

_func._drift._model.0.bias f4 [16]
00000000: 177e b63b 6d38 c6b9 a5d6 183b f787 0e3b
00000010: b181 c8b7 fb6a 15bb f95a 813b b5b1 adbb
00000020: 51f4 abbb 6fc9 a8bb 0154 0bbb c02e ac3a
00000030: 7a8f acb9 6be0 f838 6030 983b 9f32 99bb
0.0055692303 -0.00037807543 0.0023321297 0.0021748522 -2.390225e-05 -0.002279936 0.0039476124 -0.0053007253
-0.0052476306 -0.005150966 -0.0021259787 0.0013136491 -0.00032913295 0.000118673626 0.0046444386 -0.004675224

_func._drift._model.2.weight f4 [16, 16]
00000000: 53f3 23bb c004 123b 2849 b1bb f2d7 c2bb
00000010: e23c 79bb ecba babb 8180 06bb b31e b3bb
00000020: 900f 35ba b6cf 4f3b 6974 a1bb 761f bcbb
00000030: 26b1 623b 69af 00bb 9dc9 1f3b 8895 2f3b
00000040: bd45 aaba 5369 d1b9 3028 a4b8 a305 9bbb
00000050: 648f b23b bfff 9bb9 7b59 0b3b f3f9 793a
00000060: d36a a33b db93 9cbb 3816 81bb 87dc 14b9
00000070: cda4 19bb 2777 063b adc4 af3b 0974 abb9
00000080: 7306 a9bb 8047 a33b a2a6 c3ba 4b34 fc3a
00000090: 9d6f ffba 3c58 af3b 1263 60bb e1c9 443a
000000a0: ddeb 303b 03a0 a1bb cb10 dd3a 5819 63bb
000000b0: 680b ad3b 41fe 9f3b e563 f73a 28f9 3fbb
000000c0: ecbf 6439 9e9b a73b 9a4b 763b a171 39bb
000000d0: cd18 54bb 3ce0 c3ba 4d08 deba c944 3ebb
000000e0: e649 c0bb 232e 6338 8024 ac3a 1600 8bbb
000000f0: c217 493b e2ea 2abb e79a 6f3b d29e 2ebb
00000100: e64c b23b 0a18 63bb 2508 a63a 2d98 dc3a
00000110: 00ce 8f3b 6fbd 413b b717 9bbb 147c 86ba
00000120: 2070 9cb9 a942 523b 1344 57bb 003e 4d3b
00000130: f850 7cbb 5d1a 1a3b c19d 8bbb 2872 ba3a
00000140: 1534 d1b7 e2a8 913b 815f 35bb be99 ca3a
00000150: cbfe 89bb 7fde 39bb 252b 553b 66ef ab3a
00000160: d500 9a3b 4a20 303b a3e4 703b a9db 45bb
00000170: cb00 163a 8da9 b1bb 2791 e53a 52d8 8bba
00000180: 8db0 0f3b 8532 07bb 1db6 d7ba 5eb8 683b
00000190: b460 653b 7a07 ac3b bf2f babb 9d61 07bb
000001a0: 9319 a9bb cd99 9a3a 5350 aa3b 657c e9ba
000001b0: d2fb 1dba 9300 e2ba d33e 06bb f9e6 d73a
000001c0: cda6 833b ea55 7ebb 065c 9d3b d4fe 923b
000001d0: 011b 79b9 5925 87bb 3bf0 98bb b474 87ba
000001e0: fd82 8bb9 11ff 96bb 57be b7bb a67e ef3a
000001f0: ed53 fa39 a9a0 873b bf15 973a 8927 173b
00000200: c081 253a af34 233b 34b1 2fbb 142e f537
00000210: 6a49 503b bd0e 003b 3321 373b ea44 aabb
00000220: 74e3 28b8 5a36 4abb 1109 b9ba 2a68 2f3b
00000230: 8c92 9dba 3ca8 39bb f736 05b9 638f 75bb
00000240: 117b 23bb 3802 30bb 63de b13b e179 33bb
00000250: 5b87 55bb 817c c8ba 40cb 8c3b 1381 0538
00000260: 66e2 67ba b7d5 593b cb24 7b3b 3f5b b53b
00000270: c579 85bb 832a 4b3b 41cf 80bb 6dba 3bbb
00000280: 86e2 a13b 194f 093b 2e18 32bb c1e4 c3ba
00000290: 461f 653b 046d 8a3a 37cf a7ba fe5c caba
000002a0: 437f e4ba 14d3 72ba cfe3 953b a2ff 89bb
000002b0: c0cb 7b3b 45d2 7a3a cc61 c23b 177e 013b
000002c0: 35e2 c3bb 270c 0abb 6a04 84ba 6dcd 083b
000002d0: 2077 b4bb e769 063b 161b a2ba ae3b 5dbb
000002e0: 2d1d 8bbb 45b0 71bb 9fc3 adbb 7295 e3b9
000002f0: 675a 1b3b 663f 5bbb ab8f 60bb 3317 6e39
00000300: 0f50 9fbb 1ae2 89bb 389e d0ba 90df 813b
00000310: 374f 483b 3008 923a cdb8 01bb 0c92 a6bb
00000320: cc22 673b 372f 6639 8e5f 263b 320a 5ab9
00000330: 9bdd 523b b089 3ab8 42ab 493b 145c 7fba
00000340: 3449 00bb 9d47 9a3a 79e2 c0bb 184d 93bb
00000350: a56b 1c3a d46a bb3b adaf d8ba e999 f7ba
00000360: 91c9 643b 7d38 a63b 6ca7 6cbb 507a af3b
00000370: 9976 fdba 5335 543b a601 e73a 75c7 523a
00000380: be99 9d3b 5fd1 92ba 6bfa c2b9 c1f4 753b
00000390: eb23 17bb 126c c43a 9a2b 653b 9a9a 8e39
000003a0: fe5b bc3b a96e c939 dc84 283b 9af8 5c3b
000003b0: c127 a23b 69be 36bb 67d8 1eb9 f73c 1dbb
000003c0: 7956 30bb 8aa2 21bb 5460 453a 1b7d 88bb
000003d0: ff84 1dbb ebdb 9a3b aeda ff3a c611 c43b
000003e0: 0fcd 6aba 8351 6eb9 931a 49bb 8340 6f3a
000003f0: 2770 bb3a 0cf9 913b e1b8 93bb faf9 f2ba
-0.0025016859 0.0022280663 -0.005410332 -0.005946153 -0.0038030674 -0.0056985524 -0.0020523372 -0.005466306
-0.0006906921 0.0031709499 -0.0049272073 -0.005741055 0.0034590452 -0.0019635803 0.0024381645 0.0026792008
-0.0012990754 -0.0003994206 -7.827615e-05 -0.0047308966 0.0054492224 -0.0002975445 0.0021263051 0.00095358415
0.0049870997 -0.004778368 -0.0039394163 -0.00014196533 -0.0023444176 0.0020517798 0.0053640218 -0.00032702115
-0.0051582395 0.0049828887 -0.001492698 0.0019241659 -0.0019488219 0.0053510945 -0.0034238738 0.0007506889
0.0026996054 -0.004932405 0.0016865967 -0.0034652557 0.0052809007 0.0048826043 0.0018874375 -0.0029292796
0.00021815271 0.0051149866 0.0037581683 -0.0028296488 -0.0032363415 -0.0014944146 -0.001693973 -0.0029032698
-0.0058681844 5.4163986e-05 0.0013133436 -0.0042419536 0.0030684327 -0.0026079942 0.0036560835 -0.0026644957
0.005441296 -0.003465178 0.0012667222 0.001683002 0.004388571 0.0029562374 -0.0047330516 -0.0010260367
-0.00029838178 0.003208319 -0.0032846972 0.0031317472 -0.003850041 0.002351425 -0.004260749 0.0014224695
-2.4938994e-05 0.004445181 -0.0027675333 0.0015457196 -0.004211282 -0.0028361378 0.0032526937 0.0013117611
0.004699806 0.0026874715 0.0036757372 -0.0030190742 0.0005722164 -0.0054218234 0.0017514572 -0.0010669327
0.00219253 -0.0020629477 -0.0016457472 0.0035510282 0.0035000267 0.0052499147 -0.0056819613 -0.0020657547
-0.0051605194 0.0011795104 0.0051975637 -0.0017813562 -0.0006026599 -0.0017242603 -0.0020484223 0.0016472033
0.004017687 -0.0038808533 0.00480223 0.0044859443 -0.0002375655 -0.0041243252 -0.0046673096 -0.0010334463
-0.0002660974 -0.004608043 -0.005607407 0.0018271997 0.00047746245 0.004139025 0.0011526867 0.0023064336
0.0006313585 0.0024903228 -0.0026808502 2.9227733e-05 0.003178204 0.0019540035 0.0027943372 -0.0051962035
-4.0266154e-05 -0.003085515 -0.0014117082 0.0026764967 -0.0012021824 -0.0028329035 -0.00012704344 -0.0037469498
-0.002494518 -0.0026856791 0.005428122 -0.0027385878 -0.00325819 -0.0015295894 0.00429669 3.182988e-05
-0.00088456867 0.0033238956 0.003832149 0.005534559 -0.004073354 0.003100068 -0.0039309566 -0.0028645054
0.004940334 0.0020951687 -0.0027175057 -0.0014945493 0.0034961267 0.0010561054 -0.0012802844 -0.0015439091
-0.0017432946 -0.00092630205 0.004574276 -0.004211382 0.0038421005 0.0009568076 0.0059320685 0.0019758993
-0.0059778937 -0.0021064372 -0.0010072116 0.0020874396 -0.005507365 0.00205099 -0.0012367691 -0.0033757496
-0.0042454214 -0.0036878746 -0.005302861 -0.0004340816 0.0023705007 -0.0033454536 -0.003426532 0.00022706091
-0.0048618386 -0.0042078616 -0.0015916293 0.0039634183 0.0030564794 0.0011141356 -0.0019793988 -0.005083328
0.0035268543 0.00021952098 0.0025386545 -0.00020793898 0.0032175544 -4.4474087e-05 0.0030772244 -0.0009741199
-0.0019574882 0.001177061 -0.0058863726 -0.0044952743 0.0005966968 0.005719522 -0.0016531848 -0.0018890473
0.0034910182 0.005072652 -0.0036110533 0.005355157 -0.0019337713 0.0032380417 0.0017624393 0.00080405857
0.0048095873 -0.0011201313 -0.0003718914 0.0037529918 -0.002306218 0.0014985821 0.0034968616 0.00027199538
0.005748271 0.00038420156 0.0025713956 0.0033717514 0.0049485867 -0.002788449 -0.0001514867 -0.0023992637
-0.002690701 -0.0024663531 0.00075293076 -0.0041653044 -0.002403557 0.0047259233 0.0019520128 0.005983564
-0.0008956948 -0.00022727814 -0.0030686005 0.00091267395 0.0014300392 0.0044547375 -0.0045081233 -0.0018537634

_func._drift._model.2.bias f4 [16]
00000000: 8910 a73b 2e85 82bb 053d 253b e27f 8ebb
00000010: 8991 31bb 580a b9bb a4a8 5fbb 40ae 3ebb
00000020: 3866 a03b 12c7 7bbb 8349 883b 8eac 2b3a
00000030: 5ecb 2d3b 588c 843b 2d63 923b d3e2 97bb
0.0050984067 -0.0039831614 0.0025213372 -0.004348741 -0.0027094802 -0.005646985 -0.0034127617 -0.002909556
0.004894998 -0.0038418216 0.004159154 0.0006548845 0.0026518921 0.0040450506 0.004467389 -0.004635194

_func._diffusion._model.0.weight f4 [16, 17]
00000000: ad2b a33d 03fb 7bbd a580 27bd 36b1 963d
00000010: ce31 e6bd 6e42 3bbd 3427 5b3d a267 733c
00000020: be46 adbc 4e2e a93d 6e0a 8a3d 7ee3 7a3d
00000030: 21ee d53c 4e07 c73c 2b77 01bd 04b1 dd3c
00000040: 7394 83bd 1610 4ebd 73af 393c 0f7e 6bbd
00000050: 45de adbc ea5c 46bc 109d 2f3d 2ba4 b73c
00000060: ab5d 413d 5331 f33c dd54 86bc a225 603c
00000070: c17c 50ba b1f2 333d a115 273d 856b 5e3b
00000080: 7019 8ebc cb6c 9cbd 4a11 633c c831 0e3d
00000090: d0c1 1f3d e3e6 573d 76e4 13bd ed58 5f3d
000000a0: ce89 5cbd 15c4 02bb 9914 0b3d 39bd 093d
000000b0: 8d10 5a3d 95f5 843d 77f8 54bd b37b fbba
000000c0: 1970 2a3d fc52 963c becd bd3b 0fce e83c
000000d0: dd5e 563c 340a 30bc e537 b1bc a48d f4bd
000000e0: 7c3f ce3c a7c5 81bc b1d7 d63c 95a9 a8bd
000000f0: cd52 953d 7767 903c acf8 2e3d 9bdf 0b3d
00000100: 20c7 f7bc 24bc 9fbd 3e1d 16bd 5916 49bd
00000110: 6e4f adbd c008 5d3c 69f6 d73c 1d35 93bd
00000120: 8075 853d 7064 8cbd 5b4d 423b e6c1 c8bd
00000130: 0fc7 fd3c 72fb e3bd fd6d 39bd 4f0c d3bc
00000140: 6200 b2bd a655 12bd c0c3 a53b dd54 34bd
00000150: 8f32 3d3c 329a b13d 88f4 a9bd 7e06 a93c
00000160: ec89 9fbc 6f6b cfbd b45e 5fbd ae53 f4bc
00000170: 397d 003b 3ce8 9dbd 69c8 853d 15da bdbc
00000180: 0bc7 903d 6ca6 4abd 8224 37bd d328 063d
00000190: f446 433d 1e96 0e3b 7be6 eebd 0971 97bc
000001a0: 7221 c7bc 9591 57bd ae6f 203b 3397 87bd
000001b0: c2f4 043c 8884 98bc 11c2 633d 8f46 a9bd
000001c0: 8419 6dbd 4c34 56bd 4c13 7bbd fc31 19bd
000001d0: c556 313d cbc6 b8bd bfdb 293d 649e 0cbd
000001e0: a598 19bb 8047 97bc 00b9 acbd 40e0 c0bb
000001f0: dea3 92bc 54a1 13bd 9a72 83bd 5f44 843b
00000200: 1d6d 94bd 510f 54bd 090f a3bd 55aa fdbc
00000210: f3cf d23b ed56 dabc faa4 86bd c982 ed3c
00000220: 9fc0 163d cff8 93bd 260b c2bb 3728 ff3c
00000230: b770 c3bd 80d5 75bc 1d69 193d 91e9 713d
00000240: f609 ecba bd0a e2bb 2eab c93b 4697 4d3d
00000250: a259 3bbd c031 f93c 7f86 69bd 66a8 9f3c
00000260: 9d65 50bd d662 15bd 028a 3c3d a2c6 9a3b
00000270: a557 e1bd aeee a93b 932e 11bd 3b6a 09bd
00000280: b974 82bd 8715 2d3d e8d1 3fbd fffd b8bd
00000290: 4759 27bd 417a 48bc 5628 55bb e86d 88b9
000002a0: b853 9fbd 8ff3 343d be7c cabd 30c3 34bd
000002b0: 4eed 2fbd ebd0 bdbc 1fbc 443d fb45 a03c
000002c0: 0625 8fbd 125b 31bd faac 753d f7fb 00be
000002d0: 19a5 88bd 73f5 f1bc e0d7 3bbd 6abe f03b
000002e0: 3431 0dbd d46a 41bd 785e b83c c05f f73b
000002f0: 4b1c cf3c 0e63 57bb 1ad0 103d da7f 0ebc
00000300: adae 60bc e3f1 aabb 0971 5c3d 02c0 aabd
00000310: 7b89 0a3c ad00 e8bc b802 7b3d 4ad1 053d
00000320: 2d8e b1bd fbe2 a0bc 6e1d 6e3d c74b 80bd
00000330: 7853 81bd 5f32 7b3b bf85 d83b b925 bbbd
00000340: e729 243d 7cda 443b 2610 83bd 3577 a5bd
00000350: f961 813c 4af4 3bbd 33b4 a0bd 4e3f 61bd
00000360: b6e1 29bd 6cd4 d93c 0f42 7cbc ff73 3bbd
00000370: 07da 713d 3d8b 833d 5801 523c 1814 2fbb
00000380: 447f 843d 1c0c 8cbd 355a 1abd fd2e 6abc
00000390: c5bb 033d 22ad 61bd d571 9e3d 99f5 883d
000003a0: 7b2c 5c3d 0593 b73c dfaa 8f3c 0379 70bc
000003b0: 1947 75bc 274f 45bc 78e9 123c fe31 203b
000003c0: f4f3 ce3c 767d 0d3c 4cdc 92bc 88f8 213c
000003d0: ceec a7bb eed6 133d 9308 9cbd 4e53 773c
000003e0: 2898 df3c 467a 033d ac8d 9bbb d6ab b7bd
000003f0: ba4a 01bd a3d3 213d cb20 cfbc 2d77 66bb
0.07967315 -0.06151868 -0.04089417 0.07358019 -0.11239968 -0.04571765 0.053504184 0.014856251
-0.021151897 0.08260785 0.067402706 0.06125211 0.026114525 0.024295475 -0.031607788 0.027061947
-0.06424799 -0.05030831 0.011333334 -0.057493266 -0.02122415 -0.012107113 0.042874396 0.022417149
0.04720847 0.029686606 -0.016397888 0.013680847 -0.000795316 0.04393262 0.04079211 0.0033938598
-0.017346114 -0.07637938 0.0138591025 0.034715444 0.039003193 0.052710425 -0.03610655 0.054528166
-0.05384236 -0.00199533 0.03395519 0.033627722 0.05323844 0.064921536 -0.051994767 -0.0019186646
0.04161081 0.018350117 0.0057923486 0.028418569 0.013084141 -0.01074462 -0.021633098 -0.11941078
0.025176756 -0.015841318 0.026225897 -0.0823547 0.072911836 0.01762746 0.04271762 0.034148794
-0.030246317 -0.07799557 -0.03664898 -0.049093578 -0.08462416 0.013490856 0.026362615 -0.07187865
0.06516552 -0.068550944 0.0029648158 -0.09802608 0.030978708 -0.11131944 -0.04527091 -0.025762705
-0.08691479 -0.035726212 0.0050587356 -0.044026244 0.011547699 0.086719885 -0.08298594 0.020632979
-0.019474946 -0.10127913 -0.054533675 -0.029825058 0.0019605889 -0.07710311 0.06532366 -0.023175279
0.070692144 -0.04947512 -0.04471255 0.032753777 0.047675088 0.0021756957 -0.116650544 -0.018486517
-0.02430794 -0.052629072 0.0024480629 -0.06620636 0.008114995 -0.018617883 0.055604998 -0.08265411
-0.05788566 -0.052295968 -0.0612977 -0.037401184 0.04329564 -0.09022292 0.04146933 -0.03433074
-0.002343693 -0.018466711 -0.084337234 -0.0058861077 -0.017900404 -0.036042526 -0.06418343 0.004036471
-0.07247374 -0.05177242 -0.07961852 -0.03096501 0.006433481 -0.026652778 -0.065744355 0.028993027
0.03680479 -0.07225191 -0.005921739 0.031147106 -0.09542983 -0.015004516 0.03745376 0.059060637
-0.001800834 -0.0068982528 0.0061544394 0.050193094 -0.045739777 0.03041923 -0.05701303 0.019489478
-0.050878156 -0.03647121 0.046030052 0.004723386 -0.11003045 0.0051859235 -0.035444807 -0.033548575
-0.06369919 0.04225686 -0.04683104 -0.09032821 -0.040856626 -0.012236179 -0.0032525263 -0.00026021828
-0.0777964 0.044177588 -0.09887074 -0.044131458 -0.04295092 -0.023170909 0.04803097 0.01956462
-0.069894835 -0.043299742 0.059979416 -0.12596117 -0.06672115 -0.029535985 -0.04586017 0.007346918
-0.034470752 -0.04722102 0.022505984 0.007549256 0.025282046 -0.0032865438 0.03535471 -0.008697474
-0.013713521 -0.0052168234 0.053818736 -0.08337404 0.008455629 -0.028320635 0.06128189 0.032670297
-0.08669696 -0.019639483 0.058133535 -0.062644534 -0.063147485 0.0038329584 0.0066077407 -0.091380544
0.040079024 0.0030037453 -0.063995644 -0.080793776 0.015793787 -0.04588727 -0.0784687 -0.054992013
-0.04147502 0.026590548 -0.015396609 -0.04576492 0.059045818 0.06423042 0.012817703 -0.0026714858
0.064695865 -0.06838247 -0.037683684 -0.014293429 0.032161493 -0.055096753 0.077365555 0.06687469
0.053753357 0.022408972 0.017537532 -0.014677289 -0.014970564 -0.012042797 0.008966796 0.002444386
0.02526281 0.008635869 -0.017927311 0.009885915 -0.005124665 0.036093645 -0.07618823 0.015095545
0.027294233 0.03209903 -0.004747113 -0.08968322 -0.031565405 0.039508473 -0.025284192 -0.003516625

_func._diffusion._model.0.bias f4 [16]
00000000: 7fb8 db3d f9f0 693c 5ad2 773c 7242 c73d
00000010: 7a4a 34bc defb 6f3c 2f5b 6fbd c774 cdbd
00000020: 20a8 6f3d 136a e1bc 7128 a2bc 8b9e 4c3d
00000030: 675e a9bd bd7d bd3d 4cc2 9e3d 329e 0a3c
0.10728549 0.014278644 0.015125835 0.0972947 -0.011004085 0.014647452 -0.05843657 -0.10032039
0.058509946 -0.0275164 -0.019794675 0.049955886 -0.08269959 0.09252498 0.07751903 0.008460568

_func._diffusion._model.2.weight f4 [48, 16]
00000000: 716b 943d 6096 573d 22fe 05bc becb 3d3d
00000010: c69e c7bd 2588 263d dce0 823b 99e8 c7bb
00000020: 7d9d 193d 4a23 b0bd a74f 323c 8875 7b3d
00000030: c867 67bd f0b7 cfbc 7922 95bc b378 913d
00000040: 4a3b 103d a424 22bd b129 e4bc 985d 2b3c
00000050: 2a89 93bd 15d9 4e3d 02ff 0cbd 04e9 b3bd
00000060: 7387 9e3d 7b85 17bc 463c 113c 7d32 893d
00000070: a7a1 6fbc 1ef1 d3bc 4a92 f2bc c146 72bc
00000080: 2c0b 1f3c e181 bebc 9480 0cbd 4100 c73d
00000090: 775a afbd 0276 223d d477 39bd f051 c93c
000000a0: d195 5bbc 839e f9bc 2840 b6bd e789 b1bc
000000b0: 5d7c f4bc 0863 543a d426 b63c c1cc 9fbc
000000c0: 47b6 953d 38a1 6d3d 8076 55bd 3fd2 643c
000000d0: 377a ac3b 37d2 8bbc 0710 32bd 7cc3 0bbd
000000e0: d0bc 633d 1188 2dbd f656 95bc 5aab 49bc
000000f0: 2834 c1bc 4f8c d2bb bdea 7f3d 9a9b 253d
00000100: df40 893d ebbb ee3b 42d9 0ebc e1c9 c23d
00000110: fcfc 2bbd c60e 8a3d ab06 8cbd aa53 143c
00000120: 62e9 403d 36d3 a8bd d9f3 12bd 376c 1cbd
00000130: 7144 e1bc dd9b b03b b288 203b 8a82 663c
00000140: 3070 b93d 5195 893c ffae 4dbd ad0d 893d
00000150: f0f9 eabc 843f 373d fd7f f0bc 3505 96bc
00000160: 2a47 0d3d aab3 2bbd a74e 9fbb c630 743d
00000170: 03ac bdbd 584d bf3c bf29 a63c c333 793d
00000180: 2245 a13d 8def 1e3d 6ace 73bd 8fa9 d43c
00000190: d028 883b ad15 023c 430d 36bd 22ed 91bd
000001a0: 96e0 523d 40ea abbc ed16 26bd a269 3a3d
000001b0: d1f9 38bd cd7c 9dbb a976 983d 68e6 513d
000001c0: 4c1a b03d 6c99 bf3b 7dc0 0dbd e130 823c
000001d0: 21f2 80bd b688 513a 53b9 55bc c507 7ebd
000001e0: 8b63 be3d fcac adbd 50e2 c5bc 6c58 6d3d
000001f0: cb4b b5bd 1fbb 2f3d 7247 a53d 27a3 243d
00000200: 7442 debc 4649 bcbc 0746 95b9 f571 173d
00000210: 6861 61bd 9fa3 3c3d fd85 bebc b38b a23c
00000220: 5e21 293d 21c0 023c 3c37 36bd 340c bd3c
00000230: 286d b83b c950 e23c ae8e 893d 2e63 6c3d
00000240: e8dc a9ba 4bc5 64bc 26d5 1dbc ad01 993c
00000250: 7917 e3bc db4b 3e3d 75c1 123c c3a1 a0bd
00000260: 74d6 423d 97c8 1abd 8f31 7dbd 7801 863d
00000270: eef8 b8bd f9e7 243b 1c5a 753d c45e fabc
00000280: 7540 a83a e903 efbb 8d5c 293d 43f1 303d
00000290: 8937 d4bd 48d8 643b 9620 85bd 8c65 92bd
000002a0: 581c 733c 3b1a 85bd 6ab2 cebd 2658 203d
000002b0: afdc 59bd 4e5c 953d bfaf 9f3c 2f1b 843d
000002c0: 3dcd af3d a08a 393b eb7c 1fbd e4ea f73c
000002d0: a55c b9bd 89b1 cf3c b7db 86bd 0c1e a0bd
000002e0: 8a54 b8bc 06a2 a7bc 958e 663c ef3f 49bc
000002f0: 0663 a9bd 9379 8c3c d448 053d 939a 933d
00000300: 16ea 06bd 0aba b23c 9583 3c3c f7d3 4cbd
00000310: 4b46 1d3b c31a 4ebd 0ca6 013c 1450 e1bc
00000320: 68d0 89bc 0498 b03c 2d17 6c3d 2004 92bc
00000330: ea32 783d a057 47bd 3432 abbd 36c9 94bd
00000340: 8969 283c 8227 00bc 2061 adba 6b56 c8bd
00000350: dde6 803c 7a23 80bd 1f95 a73b 2a85 053d
00000360: d9aa 90bd 6597 633c 333a 313d 79bb 29bd
00000370: 9d3b 5d3d 535b f33c cc03 193d 9987 ca3c
00000380: 1488 53bd 78ca c03c b81e 163d 8378 50bd
00000390: fcdf 8f3d 6320 253c 74c2 043d 7834 ac3d
000003a0: 7274 e5bc f9a4 973d 60e1 d13b 41b6 c0bc
000003b0: 1fa4 a73d 85f9 54bd 64de 19bd f647 a0bd
000003c0: 2dcb efbb a648 cfbb d25a 2fbd 98f2 eb3c
000003d0: 4989 26bd 3e03 7dba 4524 88bd ed2f a4bc
000003e0: 8e0d a13b d7f4 b5bd f5ca 81bd a0ee 4b3d
000003f0: 0f89 a73a 6273 883d cebc 30bb a64f f83c
0.07247055 0.052633643 -0.008178266 0.04633688 -0.097470805 0.04065718 0.0039940905 -0.006100726
0.03750371 -0.08600481 0.010883248 0.061391383 -0.056495458 -0.025356263 -0.018204914 0.071031
0.035212792 -0.039585724 -0.027851911 0.010459326 -0.07203896 0.050499994 -0.034422882 -0.087846786
0.07740679 -0.009248133 0.008864468 0.06699083 -0.014625943 -0.02587181 -0.029610772 -0.014787377
0.009707253 -0.02325529 -0.03430231 0.09716845 -0.08562177 0.039663322 -0.045280293 0.024575204
-0.013402418 -0.030471092 -0.088989556 -0.021672202 -0.029844457 0.0008101915 0.022235312 -0.019506814
0.07310157 0.05801508 -0.052114964 0.013966142 0.0052635926 -0.017068012 -0.043472316 -0.034121975
0.055599988 -0.04236609 -0.018229943 -0.01230892 -0.02358444 -0.0064254175 0.062479723 0.040431596
0.06701826 0.007285585 -0.0087187905 0.095111616 -0.04198931 0.06741099 -0.06837209 0.00905315
0.04709757 -0.0824341 -0.035877082 -0.03818914 -0.027498456 0.005389674 0.002449554 0.014069209
0.09054601 0.016794832 -0.050215717 0.066920616 -0.028683633 0.044738308 -0.029357905 -0.01831303
0.034491695 -0.041919388 -0.004861671 0.059616826 -0.09261324 0.02335231 0.020283578 0.06084038
0.07874514 0.038802672 -0.059523024 0.025959758 0.004155256 0.007939738 -0.04444624 -0.071253076
0.051483713 -0.020985723 -0.040549207 0.045510896 -0.04516012 -0.004806137 0.07444508 0.051245123
0.08598766 0.0058471467 -0.0346074 0.015892448 -0.062961824 0.0007993089 -0.013044673 -0.06201913
0.0929633 -0.0848026 -0.024155766 0.057945654 -0.08852347 0.042903062 0.08070268 0.040194657
-0.027131297 -0.022984158 -0.0002847167 0.036973912 -0.055024534 0.04605448 -0.02325725 0.019842004
0.041291587 0.007980377 -0.04448627 0.023077108 0.005628247 0.027626412 0.06716667 0.057711773
-0.0012959512 -0.013963054 -0.009633338 0.018677557 -0.027721154 0.04645906 0.008957257 -0.078433536
0.0475678 -0.037788954 -0.06181484 0.06543249 -0.090318546 0.002516268 0.059900388 -0.030562766
0.0012836593 -0.0072941673 0.04134803 0.043198835 -0.10362155 0.0034918953 -0.06500356 -0.07148275
0.014838301 -0.06499144 -0.100926235 0.039146565 -0.053188976 0.07292996 0.019492982 0.06450497
0.08584068 0.0028311387 -0.03893749 0.030263372 -0.09050874 0.02535321 -0.06584876 -0.07818231
-0.022501249 -0.020463001 0.01407208 -0.012283309 -0.0827084 0.017147815 0.032540157 0.07207217
-0.032938085 0.021817226 0.011505981 -0.050006833 0.0023998197 -0.05031849 0.007913124 -0.027504005
-0.016823009 0.021556862 0.05763929 -0.017824233 0.06059543 -0.04866755 -0.08359185 -0.072649404
0.010279068 -0.007821919 -0.0013227798 -0.09782108 0.015735084 -0.062567666 0.005114212 0.0325977
-0.070638366 0.013891076 0.043268394 -0.041438553 0.05401193 0.029706633 0.037357137 0.024722861
-0.051643446 0.023534045 0.03665039 -0.05089618 0.070251435 0.010078522 0.032412007 0.08408445
-0.028009627 0.07404513 0.0064050406 -0.023524405 0.081856005 -0.051995773 -0.037565604 -0.078262255
-0.0073179216 -0.006325799 -0.042811222 0.028802201 -0.04065827 -0.0009651667 -0.06647543 -0.020042384
0.004914946 -0.0888459 -0.06337539 0.049788117 0.0012781936 0.066626325 -0.0026968005 0.030311417

_func._diffusion._model.2.bias f4 [48]
00000000: cbe3 893d c974 b03d 05f9 c93d 8274 a03d
00000010: a71a f13c fa98 523d 847a 173d 688e 6c3d
00000020: 0b25 b53c 8e61 e93c 0576 e03d a739 db3c
00000030: d606 2cbd 9dd0 71bc 5202 9fbd 8805 953a
00000040: fd6f b83b 9e27 8c3d c66c 62bd ddba d8bd
00000050: d38b bcbd 7a03 23bc 1f50 4cbd 6d10 d1bd
00000060: 6cdd c5bc c047 b1bc 7041 6b3d 80c5 91bd
00000070: 52a6 d5bc f83e 31bd b4ae 61bc 29b2 69bd
00000080: 6bfb dbbd 374c c03d 3918 923d f43c b13d
00000090: a99c 2f3d 6f45 263c a94f 953c 4ac0 bc3b
000000a0: 8e53 c9bc c8e0 8ebd ceb2 3b3d eb58 903d
000000b0: 5c06 c43d 15a5 5dbd f7bb 8ebc 72f7 ba3a
0.06732901 0.08616025 0.0986195 0.07834722 0.029431654 0.05141542 0.036982074 0.057752997
0.02211239 0.0284889 0.109600104 0.02676089 -0.041998707 -0.01475921 -0.077641144 0.0011369446
0.0056285844 0.06843494 -0.055279516 -0.10582516 -0.09206357 -0.009949559 -0.049881097 -0.10208211
-0.024153434 -0.021640658 0.057435453 -0.07117748 -0.026080284 -0.043272942 -0.013774563 -0.057054672
-0.107413135 0.09389537 0.07133526 0.08654204 0.042874012 0.01014839 0.018226461 0.0057602273
-0.024575975 -0.06976467 0.04582482 0.0704821 0.095715255 -0.054112513 -0.017423613 0.0014264418

_readout.weight f4 [1, 16]
00000000: cc5d c2bd 9256 45be e69b 76be 96af 52be
00000010: d580 9f3d 9062 cbbd 963b ff3b 2cbb 043e
00000020: ffbf e5bc 997d 8f3d e293 b13d 9ad0 8abe
00000030: 17de 71be bfa0 9dbb f1a9 8dbd 6800 163e
-0.094905466 -0.19271305 -0.24082908 -0.20574793 0.07788245 -0.09930909 0.0077890856 0.12962025
-0.028045652 0.07006378 0.086707845 -0.27112275 -0.23619877 -0.004810422 -0.069171794 0.14648592

_initial._model.0.weight f4 [16, 2]
00000000: e45f 22b6 f4a5 aebe 3ce5 2db6 be35 9c3f
00000010: 6a5c c134 883b 38bf 4ed8 b736 adeb 10bf
00000020: 1a0f 89b6 2514 a1be 9f2a 3b36 01e9 32bf
00000030: c078 3e36 61d3 673f 1004 deb5 1101 ad3f
00000040: c30d 5d34 7e67 3dbf d87a 53b6 d354 3f3f
00000050: 4e94 7cb6 7b29 d13d 7c03 b936 c961 aebe
00000060: e219 bfb6 95d2 b1bf c37a 3636 123c c23e
00000070: a3d3 9c35 9a6e 213f ee27 d8b5 9935 223f
-2.4195697e-06 -0.34110987 -2.591244e-06 1.2203901 3.6016291e-07 -0.7196584 5.479006e-06 -0.5660961
-4.084676e-06 -0.31460682 2.788998e-06 -0.69886786 2.8382492e-06 0.90556914 -1.6541471e-06 1.351595
2.0587235e-07 -0.7398604 -3.1512955e-06 0.74738806 -3.763725e-06 0.1021299 5.5138353e-06 -0.3405898
-5.6952567e-06 -1.389239 2.719157e-06 0.37936455 1.16845e-06 0.6305939 -1.6104875e-06 0.63363034

_initial._model.0.bias f4 [16]
00000000: afcb 01bf 2b15 1abd 8e10 893d 7e82 093f
00000010: 331d 83be 3c37 fcbb 1958 a8be 8c21 06bf
00000020: 0ce4 3e3f 040c 0d3e f405 86bd 65c4 06be
00000030: 6fbb 66be d819 b6be d13a 6d3d 9497 b93e
-0.5070142 -0.037617844 0.06692611 0.5371474 -0.25608215 -0.007697014 -0.32879713 -0.5239494
0.7456672 0.13774115 -0.06544104 -0.13160856 -0.22532438 -0.35566592 0.05791742 0.36248457

_initial._model.2.weight f4 [16, 16]
00000000: ec2b 3fbd dad6 ffbe c675 2cbc d452 53bd
00000010: 9218 82be c0ae 17be ab22 2cbe 27be 54be
00000020: 3cd5 0dbd 6cc5 62be f2d8 28bc 1e6e 32be
00000030: 7178 44be cfb0 f1bd fb6b 9a3d 76bf 52be
00000040: f978 df3d c62e c93e b26b d23e f2c9 853e
00000050: b124 2f3e e4f4 be3e 7f7f 7f3e c68a 903e
00000060: 7c85 4b3e 7641 6b3e 3026 0a3c d0ea 113e
00000070: 01ce 023f 1f0e 2bbe abbc 9f3d eff4 903e
00000080: 8635 8dbe a473 cd3e 38ac f03d a006 153e
00000090: 5a52 bfbe 441d 093e a694 b23d e4f6 103e
000000a0: 70bb 763e bf0d ee3e dd86 82be 75c6 8bbe
000000b0: d9b4 923e 0ff5 54bc 70a2 b53d a03d 0b3f
000000c0: 6492 ba3c 7181 1e3f ec0d 273e 13bc b93d
000000d0: dbb8 84bd 148a a93d a944 ae3e b0f6 e23e
000000e0: b07b 2e3e 2f00 fa3d 19fa 38be aa49 383e
000000f0: 045a 903e 5144 c0bc 3e16 a93e cba2 ac3c
00000100: 7345 cdbd 85a5 ed3e 112a 373e db34 163e
00000110: 09db 69bd 8a4d a83e 0396 e03d ae4d 023f
00000120: 5a74 2bbe 7ac5 9c3e 61ec 3abe b08a fa3d
00000130: 3c39 1d3f 19be 333d fb4a 8cbd 6d9c 8bbc
00000140: 05ee 053d 7492 073f a1ba 90bd 7903 ab3d
00000150: 9ed1 793e 4bbc 593e e86b 963e abf5 f63e
00000160: d0c3 943d 3a00 9e3e fc16 113e 1658 96bd
00000170: 074b a53e 6e36 333e 84f6 f43d 15ba 8bbd
00000180: a7f0 5c3e f990 dabc cc89 9f3c 854f c2bd
00000190: 69d2 a23e 0e14 94bd f00f 993d ad22 ffbc
000001a0: f8de 1fbe 9394 e0be 816f 9d3d a5e2 d13e
000001b0: 705d 133e ce44 ccbc 7894 9cbd 11ef c2bd
000001c0: 885a 28be 4831 abbe cb8e 783d eb40 8cbe
000001d0: c261 8c3d 7d32 ffbd 23e5 40be 2721 dbbe
000001e0: e499 00be bccb 7a39 9f12 e63d 1d3c 2bbd
000001f0: bb62 1bbf c3c6 613d e18f 173d 3270 74be
00000200: 928c a13e 5633 1d3e 6cde 88bd 31e9 d13d
00000210: ca4b 1d3e 75de a33d b41f af3e 6902 053f
00000220: 30b5 f2bd 5c3b 693e 38d5 8e3b 2424 453e
00000230: e8b1 1e3f 9cca 123e 5807 1cbe 3a1f 663e
00000240: ccdb 013e 28b0 77be a3f8 66be 613f 89ba
00000250: 3cf7 0fbe 880b e8be b26d 84be 7764 9abe
00000260: 2ddb 4fbe 1fc3 25bc 669a 473e 2084 573d
00000270: eaa5 21bf 7567 0ebe 5579 03be febf 993c
00000280: 4623 e6bd 854f 1a3e d732 383e 0007 20be
00000290: 7551 7dbd d9c0 d03e c4b8 9c3e e776 b13e
000002a0: 903f f0ba 1870 823e dc9f adbd 07fb 8e3e
000002b0: bb15 653e 8aa7 3a3e 72ee d5bb dbc6 57bd
000002c0: e506 a7bd 4dcb 863e 3a66 303e 49fd bb3d
000002d0: eec1 543e 4ad4 b43e 812b 603e 066f fa3d
000002e0: 66d9 483e 89d9 753d 64a1 91bd 0c80 a13d
000002f0: 5640 183f d7ca 0abe 3ed2 303e 5b1a ac3d
00000300: 5c0d e0bc caf9 9e3e 865b 033e 6632 46be
00000310: 61a2 b73d b0a0 9c3e dcc3 a83e d5af b93e
00000320: f865 443e 5cde 723e 7dde 94bd ce34 90bd
00000330: 6987 0e3f 88ba b43e 23c8 683e 16a9 2d3e
00000340: 0d90 273e 7ccf c83e b71e bd3e 7a15 863e
00000350: 44d8 89bd 673d ea3e 7b87 ac3e 48fb bc3d
00000360: 796e 243e 223e a73c a967 c7bd 1ceb d53d
00000370: f439 1d3f f794 11be 3023 3d3e 5a48 5d3e
00000380: 2556 a23e 68aa 87be a40c a33e 1871 403e
00000390: 174d 223e 6102 ed3e 8da4 0f3e 77fb 7abd
000003a0: 0eb2 6abd f3b8 d2bd 2a5f 27bd 74bd d83e
000003b0: 40cc b53e fbdf 99bd a40a c2bd b0d7 a5be
000003c0: f78a febb 85cd dbbe 1c0d 65be 30d5 9c3d
000003d0: 5b37 76be 3ca6 47be 10e8 9ebe 38a6 d7be
000003e0: 98e6 16be 14b1 0fbe 4707 04bd c4bd 56be
000003f0: 3049 efbe 3cc3 79be f3b1 65bc 9482 aabd
-0.046672747 -0.49968606 -0.010526126 -0.051592663 -0.2540937 -0.14812756 -0.168101 -0.20775662
-0.034627184 -0.22145623 -0.01030563 -0.17424819 -0.1918657 -0.11801302 0.07540127 -0.20580849
0.109117456 0.39293498 0.4109779 0.26130635 0.1710384 0.37296212 0.2495098 0.28230876
0.19875139 0.2297419 0.008431956 0.1424973 0.51095587 -0.16704606 0.077996574 0.2831187
-0.27579898 0.4012729 0.11751598 0.14553308 -0.37367517 0.1339007 0.08719759 0.14156681
0.24094939 0.46494862 -0.25493518 -0.27299848 0.286536 -0.01299788 0.08868873 0.5439091
0.022774883 0.6191626 0.16313905 0.090690754 -0.06480571 0.082782894 0.3403676 0.44328833
0.1703937 0.12207066 -0.18064155 0.1799685 0.28193676 -0.023470076 0.33024782 0.02107372
-0.10023012 0.46415344 0.17887141 0.146686 -0.057093654 0.32871658 0.109661125 0.5089978
-0.16743603 0.30619413 -0.18254234 0.12233484 0.6141546 0.043882463 -0.06850239 -0.017042363
0.032697696 0.52957845 -0.07066847 0.08350272 0.24396369 0.21263234 0.293792 0.48234305
0.07263911 0.30859548 0.14168924 -0.0734102 0.32283804 0.17501232 0.119610816 -0.06822602
0.21576177 -0.026680456 0.019474886 -0.094878234 0.31801155 -0.07230388 0.07473743 -0.031144464
-0.156124 -0.43863353 0.07687283 0.4099323 0.14391112 -0.024935152 -0.07645506 -0.095182545
-0.16440785 -0.33436036 0.060683053 -0.27393278 0.06854583 -0.12460802 -0.18837409 -0.4279873
-0.12558705 0.00023917755 0.112340204 -0.041805375 -0.60697526 0.055121195 0.037002448 -0.23870924
0.3155256 0.15351614 -0.066830486 0.10249556 0.15360942 0.08001415 0.34203875 0.519568
-0.11850965 0.2277655 0.0043589137 0.19252068 0.61990213 0.14335102 -0.15237176 0.2247285
0.12681502 -0.24188292 -0.22555785 -0.0010471159 -0.14059156 -0.45321298 -0.2586494 -0.30154774
-0.20298453 -0.010117321 0.19492492 0.05261624 -0.6314379 -0.13906653 -0.12839253 0.018768307
-0.112371966 0.15069397 0.17988144 -0.1562767 -0.06184526 0.4077213 0.30609715 0.34661028
-0.001832949 0.25476146 -0.084777564 0.27925894 0.22371571 0.18227974 -0.006528669 -0.052679878
-0.08155612 0.2632698 0.17226496 0.0917917 0.20777103 0.35318214 0.21891595 0.12228207
0.19614181 0.06002191 -0.07110861 0.07885751 0.5947317 -0.1355394 0.17267701 0.084034644
-0.02735012 0.3104995 0.12827882 -0.19355163 0.08966518 0.30591345 0.3296193 0.36266962
0.19179523 0.23717636 -0.07268999 -0.07041322 0.5567537 0.35298562 0.22732596 0.16959032
0.16363545 0.39220798 0.36937496 0.2618826 -0.067307025 0.4574997 0.33697113 0.092276156
0.16057767 0.02041537 -0.097365685 0.10445234 0.61416554 -0.14216982 0.18470454 0.21609631
0.31706348 -0.26497197 0.31845582 0.18793142 0.1584972 0.46290877 0.14027615 -0.06127497
-0.057298712 -0.102891825 -0.04086224 0.4233204 0.35507393 -0.07513424 -0.09474686 -0.3239112
-0.0077680307 -0.42930236 -0.22368282 0.0765785 -0.24044554 -0.19497007 -0.31036425 -0.42119002
-0.14736402 -0.14032394 -0.032233503 -0.20970827 -0.46735525 -0.24390882 -0.014019477 -0.08325687

_initial._model.2.bias f4 [16]
00000000: 83fc b03e c380 cc3d 9d55 9f3e bb7f dfbc
00000010: 2ee5 66be 1fff d63d cd4d adbe 7e29 163d
00000020: f901 82be 7e2b 60be ea38 c33d 3af4 3b3e
00000030: 572a b5bd f09d 103d 0517 94be b0b2 223e
0.3456765 0.09985497 0.31120005 -0.027282586 -0.22548363 0.10497879 -0.3384842 0.036660664
-0.2539213 -0.21891591 0.0953234 0.18354884 -0.08845966 0.03530687 -0.28923813 0.15888476
