hyperparameter_tuning/ray_results/SUD_learning_rate_tuning/MyTrainableClass_d0af2d77_2_batch_size=16,name=SUD_v2,patience=1000,steps=200,steps_per_print=5,swa_step_start=2500,t_size=7,train_2024-03-12_13-59-13/checkpoint_000000/checkpoint.pt (torch, 61346 bytes, 66 tensors)

_initial._model.0.weight f4 [16, 5]
000000 bd 1d 54 bf ec 9b 06 c0 ea b1 b8 bf 4e ec 90 bf
       -0.82857877 -2.1032667 -1.4429295 -1.1322114
000010 b0 6f 31 c0 d8 29 e0 bf a9 21 5b c0 0d bd 71 c0
       -2.7724419 -1.751277 -3.4239295 -3.7771637
000020 15 cd 50 c0 1a e0 20 40 b4 a6 39 40 b9 29 21 c0
       -3.2625172 2.513678 2.9007998 -2.5181715
000030 b7 a0 52 40 1a 7d 63 c0 fa cb ff 3f d4 99 81 3f
       3.2910593 -3.5545106 1.9984124 1.012507
000040 cd d2 4a 40 f1 ff 13 c0 98 bf 4a 40 36 65 64 3e
       3.1691163 -2.3124964 3.167944 0.22304234
000050 d8 f0 2e 40 bd 01 8b bf 8f e4 58 be f2 23 1c c0
       2.73345 -1.0859905 -0.21180938 -2.439694
000060 08 b1 ae 3f 0d 81 2d c0 ae c0 87 bf 6a ec 3e c0
       1.3647776 -2.7110016 -1.0605676 -2.9831796
000070 03 f6 d3 bf 6b e1 f9 3d ef a0 4e c0 27 3c 46 3f
       -1.6559452 0.12201198 -3.2285726 0.77435535
000080 c4 14 27 c0 aa 43 b6 bd 26 c2 64 bf a1 0a 5c bf
       -2.6106424 -0.08899625 -0.89358747 -0.8595372
000090 f7 1c 51 bf e8 25 ca 3f 69 78 1d 3f f5 73 02 40
       -0.8168482 1.5792818 0.61511856 2.0383275
0000a0 d6 93 0b bf 34 f8 67 c0 96 53 5c c0 52 80 6c 40
       -0.54522455 -3.624524 -3.4426017 3.695332
0000b0 3b cd 5b c0 e9 71 26 40 f4 c5 21 3f 30 c4 ca 3f
       -3.4344013 2.6007025 0.6319268 1.5841122
0000c0 2a ba de 3f 73 19 fd be 92 28 3b 40 95 1f f9 3d
       1.7400563 -0.4943348 2.9243512 0.12164227
0000d0 28 ca f0 bf e7 13 1f bf 99 c8 bf bf b6 5e 87 3f
       -1.8811693 -0.62139744 -1.4983093 1.0575778
0000e0 40 da 2c c0 d6 1b 62 c0 9a 64 64 40 df 45 44 3f
       -2.700821 -3.532949 3.5686402 0.76669115
0000f0 34 53 86 3e 0f f2 9a 3f 7b b7 11 40 cc 69 40 be
       0.26235354 1.210512 2.2768238 -0.18790358
000100 6a 86 23 40 a5 8c 78 c0 4c f4 f4 bf f4 df 1f bf
       2.555079 -3.8835843 -1.9137053 -0.624511
000110 bb a8 e6 3f a4 ba 18 c0 c1 45 3c 40 4b 56 4f 40
       1.8020242 -2.3863916 2.9417574 3.239642
000120 62 0d 42 40 51 f6 76 c0 23 67 55 c0 1d 07 84 bf
       3.0320668 -3.858784 -3.33442 -1.0314671
000130 4c 57 f2 3e c9 3a 4a 40 c0 fe 41 3f 47 ba 5a 40
       0.47332227 3.159838 0.7577934 3.4176195

_initial._model.0.bias f4 [16]
000000 f3 c5 f3 3f 4f 0c 5d c0 44 57 c0 bf bd 52 43 3f
       1.9044784 -3.4538763 -1.5026631 0.76298124
000010 8d a2 c4 3e fa 77 60 c0 d7 a3 d1 bf 50 64 19 40
       0.38405266 -3.5073228 -1.6378125 2.3967476
000020 98 6f e6 3f 10 c4 4d bf 5b b1 60 c0 d3 ee 65 40
       1.8002806 -0.8037729 -3.510825 3.5927017
000030 de b3 04 c0 c3 76 a7 3f b5 d1 1f bf ef e3 87 3e
       -2.0734782 1.3083118 -0.6242936 0.26541087

_initial._model.2.weight f4 [16, 16]
000000 77 12 54 be 92 a3 9d be dd 5f 60 3d 01 c5 c1 bf
       -0.20710169 -0.30788857 0.054778922 -1.5138246
000010 72 01 fc 3f 62 08 d2 bf d6 9a 31 3f dd 1b 6a 3e
       1.9687941 -1.6408808 0.69376886 0.22862191
000020 94 6c 4b bf 57 54 e0 3f 37 d7 99 be df 40 be bf
       -0.7946255 1.7525738 -0.30047008 -1.4863547
000030 69 29 22 3f b3 f2 28 bf 33 81 d3 3f 64 bf 03 c0
       0.63344437 -0.6599533 1.6523803 -2.0585566
000040 42 3e 95 3f 22 aa 03 bf 7a da 18 c0 55 a8 07 40
       1.1659625 -0.5143148 -2.3883348 2.1196492
000050 0f 0d c0 3f 38 21 20 3f 7c 31 65 3f bc 2d d6 bf
       1.5003985 0.6255069 0.8952863 -1.6732707
000060 ba 99 14 40 e9 3e 06 3c 5e d5 ed be f3 82 02 c0
       2.3218827 0.00819371 -0.4645185 -2.0392425
000070 d0 b4 b2 bf a7 d8 c3 be fa 29 67 bf 8a f5 97 3f
       -1.396143 -0.3825123 -0.90298426 1.1871808
000080 f9 8b 03 bd 95 fc d9 3f 3a e5 0f 3f ba 7b 71 bf
       -0.03211591 1.7030207 0.56209147 -0.94329417
000090 a6 57 6d 3f d4 ad 15 40 5c 85 38 bf 79 84 41 bf
       0.92711866 2.3387346 -0.7207849 -0.7559276
0000a0 d7 44 5f be 63 7f 4b 3f 2e e8 ad bf 6e 2b 47 be
       -0.21803604 0.7949125 -1.3586481 -0.19450161
0000b0 89 d2 a5 bf f8 6f c3 3f 18 09 fa be df cc c0 3f
       -1.2954875 1.5268545 -0.48835063 1.5062522
0000c0 f3 32 bf be ab 22 f8 bf be 97 81 3f 5a f0 96 bf
       -0.3734356 -1.938558 1.0124433 -1.17921
0000d0 f1 7d f1 bf 63 d8 13 40 f8 d4 e9 be 03 df b0 3e
       -1.8866559 2.3100822 -0.45670295 0.34545144
0000e0 3b 2e c5 bf 15 25 02 c0 b9 a9 b5 3f d4 f9 3f bf
       -1.5404733 -2.0335133 1.419242 -0.7499058
0000f0 5a df 5d 3f b2 7c 41 3f 53 a7 78 3f 91 6c 0e c0
       0.8666893 0.75580895 0.97130316 -2.2253764
000100 9c d7 23 bf a7 36 01 3f a5 d2 d6 bf ea f5 f5 3f
       -0.6400087 0.5047402 -1.6783034 1.9215672
000110 94 60 b1 3f bb fc 0d c0 17 ea e1 3f 74 42 3d 3f
       1.3857598 -2.2185504 1.7649564 0.73929524
000120 6d a1 cd 3f 65 bf ba 3f 32 54 93 3f 4f 28 5c 3f
       1.6064888 1.4589659 1.1510069 0.85999006
000130 83 05 b2 3f d3 65 49 bf 50 f8 a3 3f 79 cc e9 bf
       1.3907932 -0.78670996 1.2810154 -1.8265525
000140 a7 24 27 bf d2 07 0e 3f 21 47 01 c0 9d 7c 1c 40
       -0.652903 0.5548068 -2.0199664 2.4451058
000150 03 b0 89 bf a9 63 ab bf 51 e4 cf bf 3b b5 f4 be
       -1.075684 -1.3389789 -1.6241552 -0.47794518
000160 6a 2d b2 bf 16 be 01 40 1f 85 df 3e c5 dd e8 3f
       -1.3920109 2.027227 0.4365625 1.8192679
000170 09 59 c2 3e dd ab ed bf 7c 80 51 3f a0 10 4c 3b
       0.37958553 -1.8568074 0.81836677 0.003113784
000180 f9 f8 81 bc c4 83 03 bf 68 a9 7e 3e 3b a5 ff 3e
       -0.01586579 -0.51372933 0.24869311 0.49930748
000190 4e 0e 54 3f 58 9c b8 bd 83 da 84 3f eb 12 3b 3f
       0.8283433 -0.09014195 1.0379184 0.7307574
0001a0 78 20 db 3f e9 2c fa bc 65 ec 26 bf a0 71 94 bf
       1.7119284 -0.030538993 -0.6520446 -1.1597176
0001b0 6b 4b f5 3f c2 55 8f 3f af 41 d2 3f ba e0 64 3f
       1.9163641 1.1198046 1.6426295 0.89405406
0001c0 a6 a4 91 bd 2d b0 11 c0 73 96 ad bf f1 0f bc be
       -0.07111482 -2.276378 -1.3561538 -0.36730912
0001d0 bd c8 7c 3f ce 08 08 c0 1a 3b 15 c0 75 9f cd 3f
       0.987438 -2.1255374 -2.3317323 1.6064287
0001e0 e0 0b ae bf a9 ed aa 3e 04 d2 19 3f 62 3f 90 3f
       -1.3597374 0.33384445 0.60086083 1.1269343
0001f0 be f4 05 3d 8d 3a 98 bf 19 1e d1 be 66 c7 2e bf
       0.032704107 -1.1892868 -0.40843275 -0.6827301
000200 99 e6 b3 3f 58 3c 28 3f e8 c1 9a 3e 65 4e c0 3f
       1.4054748 0.6571708 0.30226064 1.5023924
000210 bc 28 15 c0 e6 b2 1d be 34 53 22 3f c4 71 07 3f
       -2.3306112 -0.15400276 0.6340821 0.5290797
000220 ab ff a1 bf 70 5a e8 bf 8f e8 e6 be 77 9b 53 be
       -1.2656149 -1.8152599 -0.45099303 -0.20664774
000230 79 9a d6 bf c8 25 a0 3e 45 be 6f 3f ff bc 17 3f
       -1.6765891 0.31278825 0.93649703 0.5927276
000240 f4 d0 89 3f 2e 20 0b 3e 27 21 07 40 93 08 90 3f
       1.0766892 0.13586494 2.1113985 1.1252617
000250 68 f2 6e bf d4 b7 0f c0 df a1 51 be e4 5f 26 3f
       -0.9333863 -2.245595 -0.20471905 0.6499007
000260 da eb f8 3f f2 53 17 bf 29 84 d4 3c 50 d8 59 bf
       1.9446976 -0.59112465 0.025941925 -0.8509569
000270 88 70 3c 3f 0f e2 24 3e 49 55 06 3f 5c 89 be bf
       0.7360921 0.1610186 0.52473885 -1.4885669
000280 12 5e 91 3f 82 45 11 c0 f4 48 99 3f ac ad c7 be
       1.1356833 -2.2698674 1.1975389 -0.3899969
000290 12 76 af bf 0f cf 7b 3f eb 9f a0 bf f5 3e f1 3f
       -1.3707907 0.9836282 -1.2548803 1.8847338
0002a0 49 bb f9 3f 80 e8 f0 bf b7 03 e3 bf c7 f8 3f 3f
       1.951028 -1.8820953 -1.7735509 0.7498898
0002b0 1d 2c c3 bf 12 69 a7 bf d8 a6 81 3f ea 62 ef 3f
       -1.5247837 -1.307894 1.0129042 1.8702061
0002c0 00 98 21 3e 1f fb bc bf e7 96 74 3f 93 7b 8a bd
       0.1578064 -1.4764136 0.9554276 -0.06761851
0002d0 37 82 ce bf 42 44 11 40 37 f8 b0 bf a1 24 01 bf
       -1.6133488 2.2697911 -1.3825749 -0.50446516
0002e0 71 4b 04 3f c5 3e 83 bf bd ba 20 bf e7 11 5d 3f
       0.51677614 -1.0253531 -0.6278494 0.8635544
0002f0 01 19 d6 be ea 12 88 3d 47 31 98 3f c6 05 90 3f
       -0.4181595 0.066442326 1.1890038 1.1251762
000300 1f be 92 bf 61 f9 df bf 36 00 f0 3f 67 37 a5 3d
       -1.146427 -1.7497979 1.8750064 0.08067208
000310 2a 08 bd bf e3 66 f8 bf 52 13 a7 bf f9 c8 8e bd
       -1.4768116 -1.9406399 -1.3052771 -0.06971926
000320 17 06 b8 be cc ac 4b bf ba 8d 01 40 65 95 13 40
       -0.35942146 -0.7956054 2.0242753 2.3059933
000330 ed ac db 3f c7 d1 f8 bf aa ff ae bf b3 f7 c8 3f
       1.7162148 -1.9439019 -1.3671772 1.5700592
000340 62 fb 4d bf 0a 61 c2 bd f5 96 45 bf 76 7c f8 3f
       -0.80461705 -0.09491165 -0.7718347 1.9412982
000350 4a bf 11 40 06 d2 b0 3f 22 af e8 3f 92 bb c4 bf
       2.2773004 1.3814094 1.8178446 -1.5369742
000360 c8 f0 f0 3f 4f b5 bb 3d 3c 26 08 c0 b4 59 b9 bd
       1.8823481 0.09165441 -2.1273336 -0.09050313
000370 25 9d cb 3f dd 0d 39 bf 95 33 02 bf d5 98 23 bf
       1.5907332 -0.7228678 -0.5085996 -0.6390508
000380 26 d8 83 bf 9e 44 bf 3f a4 eb 99 3f 95 7f 09 3d
       -1.0300338 1.4942815 1.2025037 0.033568937
000390 ff 9e de 3f d4 73 2c 3f 4f 92 6e bf 57 c5 cb bf
       1.7392272 0.6736424 -0.93192 -1.5919598
0003a0 15 b6 92 3e 9e a1 40 bf 61 24 1f bf 64 73 aa 3f
       0.28654543 -0.7524661 -0.62164885 1.3316464
0003b0 ff 45 b1 3f d2 37 dc be d9 0a 20 bf 90 a5 4a 3f
       1.3849486 -0.43011338 -0.6251655 0.7915888
0003c0 e4 a9 89 3e 87 73 34 3f df 10 61 3f 45 bc b4 3f
       0.2688743 0.7048878 0.8791637 1.4119955
0003d0 b2 4a f1 bf 4b d7 93 3d 46 6f 1c 3f dd e2 b3 3e
       -1.885092 0.07218798 0.6110729 0.3513402
0003e0 cc 44 41 bf a4 b1 ec bf 3b 43 fb 3f 83 bd d6 bf
       -0.754956 -1.8491712 1.9629892 -1.6776584
0003f0 65 6b 9f 3f cf 64 0f c0 26 ba fd 3e 60 71 df 3f
       1.2454649 -2.2405279 0.49556082 1.7456474

_initial._model.2.bias f4 [16]
000000 ba 45 18 3f 65 06 82 be f8 d2 1f 40 b0 8b 93 bf
       0.59481394 -0.25395504 2.4972515 -1.1527004
000010 38 16 1e c0 fe 8c 7a 3e 78 bd 2d bf 73 d7 79 bf
       -2.4701061 0.24467847 -0.6786723 -0.97594374
000020 87 3a ee 3f eb 04 83 bd 65 0b 10 c0 09 24 16 bf
       1.8611611 -0.063974224 -2.2506955 -0.58648735
000030 1a 2d a6 bf 88 0d 0c c0 b8 52 73 3f be 46 0e c0
       -1.2982514 -2.188326 0.95048094 -2.2230678

_func._drift._model.0.weight f4 [16, 17]
000000 5e b9 30 3a 80 0a b0 bb 14 b6 9e 3b 60 99 a6 b9
       0.0006741489 -0.0053723454 0.0048434827 -0.0003177626
000010 53 0d ea 3a a6 61 8f 3a 1a 5a 34 bb 05 e9 dc 39
       0.0017856754 0.0010939136 -0.0027519525 0.00042135283
000020 ec dc e4 3a a5 dc aa bb 46 f7 90 bb 42 ee 8c bb
       0.0017460859 -0.005214291 -0.0044240085 -0.0043008635
000030 4b 9b 93 b9 6a 35 37 bb 0a 0f ae bb 0f c7 a8 3b
       -0.00028153727 -0.0027955421 -0.0053118514 0.0051506828
000040 d9 20 95 3b 52 f8 02 bb a5 c4 83 bb 5b 46 2f 3b
       0.004551035 -0.0019984436 -0.0040212446 0.0026744816
000050 80 80 7d ba 6c bd 4d bb ff e6 a9 bb db 2f 3f 38
       -0.0009670332 -0.0031393422 -0.0051850076 4.5582517e-05
000060 9f 68 3c bb 7b 1b c1 3a 79 92 bd 3a 2a 58 32 ba
       -0.0028748882 0.0014732921 0.0014463208 -0.00068032986
000070 47 6f bb 3b 98 bb 90 ba 6c 6b b6 3b 76 f8 dd 3a
       0.0057200524 -0.0011042235 0.005567005 0.0016935009
000080 b0 36 dd 3a 36 f7 99 3b 4e b3 f9 ba 39 65 ae 3b
       0.001687726 0.0046986593 -0.0019050629 0.0053221253
000090 d7 f7 26 3b 9c a2 d2 ba 87 66 2c 3b 86 f0 b4 bb
       0.0025477314 -0.001607019 0.0026306228 -0.0055218367
0000a0 52 74 3b 3a 8c 42 a4 ba 6d 73 99 ba 8e f7 95 bb
       0.0007150817 -0.001253204 -0.0011707373 -0.00457663
0000b0 62 fe 3a 3b e4 33 03 3b c2 52 1c bb a6 0b 94 3b
       0.0028532972 0.0020019943 -0.0023853038 0.00451799
0000c0 d1 c4 8e ba 79 cd 10 b9 4b 3e 61 bb 1c b6 ee 3a
       -0.0010892396 -0.00013809455 -0.0034369405 0.0018212232
0000d0 ae af 07 3b b8 d9 83 3a c1 5a bf 39 23 14 b7 bb
       0.0020704078 0.0010059392 0.00036497976 -0.0055871173
0000e0 80 27 9e 3b 4b 0b 6e b9 2a 16 5e 3b 2b 9a 66 3b
       0.004826486 -0.00022701656 0.0033887723 0.0035187106
0000f0 a6 9e a3 bb 86 ca 79 3b 87 3d 7f bb 8b 59 ed 3a
       -0.0049932776 0.0038115098 -0.0038946585 0.0018108351
000100 ec 46 a2 3b a6 b2 a1 3b 54 7e e9 3a 93 ff a6 bb
       0.004952302 0.0049346266 0.0017814138 -0.005096385
000110 75 6e 48 3b b4 29 62 bb 09 0e 17 3b 04 3f b0 bb
       0.0030583416 -0.003450972 0.0023049137 -0.005378606
000120 2e 2e 1c bb 2a 34 8f bb f1 48 91 ba 77 5a 00 bb
       -0.0023831236 -0.004370232 -0.001108436 -0.0019585171
000130 5c e1 b5 bb 66 f5 b7 bb 4b 49 49 3a a2 a4 4c 3a
       -0.0055505466 -0.0056139706 0.0007678463 0.00078065146
000140 95 e3 13 bb 87 e9 46 bb b6 9a 8f bb b3 02 65 bb
       -0.002256607 -0.0030351595 -0.0043824567 -0.0034944236
000150 3d 52 10 bb 57 0f 1b bb c1 ea 6d 3b dc 9d c2 3a
       -0.0022021674 -0.0023660266 0.0036303254 0.0014848071
000160 94 94 9a 3b 5a 7d 9b bb 0e d4 04 3b f7 e6 ab 3a
       0.004717419 -0.0047451677 0.0020267996 0.0013115098
000170 90 ed 97 bb 56 e6 48 3b f2 42 21 bb 0a 03 15 bb
       -0.004636474 0.003065487 -0.0024606553 -0.0022737407
000180 93 5c 03 3b 91 61 af 3a ef 17 a2 39 04 85 a8 3b
       0.0020044192 0.0013380517 0.0003091688 0.00514281
000190 9b 80 d6 ba c3 c0 65 bb 82 7d bb bb f8 27 a0 3a
       -0.0016365232 -0.0035057522 -0.005721749 0.0012218943
0001a0 71 8e 91 bb 1e 91 98 3b 36 77 de 3a 3f d7 b1 ba
       -0.004442029 0.004655971 0.0016972783 -0.0013568177
0001b0 a8 1d 70 3b 7c fb a3 3b 3e da 89 3b 3a 9f 10 bb
       0.003663877 0.0050043445 0.0042069247 -0.0022067563
0001c0 c9 62 06 3a a5 82 47 bb 94 84 69 3b 40 47 b1 3b
       0.00051264145 -0.003044286 0.0035632001 0.005410105
0001d0 fd 55 2d b9 75 07 78 3b 12 a3 fd 3a 3f 01 38 3b
       -0.00016530599 0.0037846242 0.0019350967 0.0028076915
0001e0 9c 08 8c bb 32 a4 81 bb ed 44 a0 bb 26 cf b3 3b
       -0.0042734873 -0.003956341 -0.004891029 0.0054873405
0001f0 f9 6f 19 3b 03 9d 8a 3b fb a6 81 3b 4a 72 97 3b
       0.0023412688 0.004230143 0.003956673 0.0046217786
000200 63 7c b6 ba 1d d2 b6 bb b1 74 36 3a 44 36 1a bb
       -0.0013922568 -0.0055792467 0.00069601374 -0.002353088
000210 8f d0 1d 3b cb 88 21 3b 01 61 11 3a 94 15 b4 bb
       0.002408061 0.0024648185 0.0005545766 -0.0054957364
000220 d0 98 ca 3a 8f 41 4e bb e1 d9 2c bb 03 0b 90 3b
       0.0015456919 -0.0031472181 -0.0026374983 0.004395844
000230 fe b7 41 bb 72 74 ee 3a 7b c3 d7 ba 6c 60 72 39
       -0.002955913 0.0018192662 -0.0016461456 0.00023114838
000240 95 16 2f bb 44 ec 07 bb 65 06 a0 3b c7 96 4d 3b
       -0.002671634 -0.002074019 0.004883575 0.0031370388
000250 39 96 9f bb 10 8e a7 3b a7 d7 61 bb d3 26 72 bb
       -0.004870203 0.0051133707 -0.0034460814 -0.003694941
000260 d5 ce a6 bb 89 89 ac b9 d9 b2 2b bb 50 5e b7 bb
       -0.0050905743 -0.00032908868 -0.002619913 -0.0055959597
000270 09 e4 1f 3b 04 e6 b7 ba 31 a3 10 3b 11 2d 8f bb
       0.0024397394 -0.0014030342 0.0022069926 -0.004369386
000280 b7 ac 6e bb 69 94 57 bb 05 e1 c4 b9 c1 78 a5 bb
       -0.0036418864 -0.0032894856 -0.00037551686 -0.0050497954
000290 fc 1f 85 3a 9d aa 49 b8 bf 0b 99 3b 78 2f ac b9
       0.0010156627 -4.808103e-05 0.0046705897 -0.00032841763
0002a0 13 d3 a2 3b da 27 40 3b 61 48 95 36 74 4c 78 b9
       0.0049690097 0.0029320628 4.448972e-06 -0.00023679604
0002b0 78 44 de 39 61 b4 00 3a c9 c6 b7 ba e0 4f 62 bb
       0.00042394153 0.0004909691 -0.0014021035 -0.0034532472
0002c0 19 1e 36 ba 27 57 43 bb 82 59 b4 ba 1d 7e 98 bb
       -0.0006947234 -0.0029806586 -0.0013759586 -0.0046537057
0002d0 4d 8b 95 3b 61 76 2f 3b 9f 5d d8 ba 00 e4 f9 ba
       0.004563725 0.002677344 -0.0016507393 -0.0019065142
0002e0 b2 0f b3 3b 77 5d ae bb 70 9a b4 bb 66 ba 94 ba
       0.0054645175 -0.0053212005 -0.0055115744 -0.0011347055
0002f0 c3 ef c5 3a 57 33 8f bb cb eb 6b 3b 44 c7 cf ba
       0.0015101362 -0.004370134 0.0035998698 -0.0015852232
000300 ea 90 8d 3b 84 82 78 3b 6a 81 83 bb 4f 8d 4e 3b
       0.0043202536 0.003791959 -0.00401323 0.0031517332
000310 a0 8f 3c 3b 5a a6 67 ba 7f 94 83 3b 0d 81 9b bb
       0.002877213 -0.0008836739 0.004015505 -0.0047456087
000320 84 ee a5 3a e0 ba b2 ba e9 88 ac b8 8a 6c 0e bb
       0.0012659584 -0.0013636015 -8.2271006e-05 -0.0021732175
000330 a2 19 20 bb 66 e1 79 3b 45 a0 5a 3b 74 50 84 3b
       -0.002442934 0.0038128733 0.0033359688 0.004037911
000340 d9 42 91 bb a0 6c 37 3a a1 d7 c0 39 67 54 87 bb
       -0.0044330177 0.00069970824 0.0003678175 -0.0041299346
000350 26 a2 6c 3b f3 53 ee ba cf e0 44 bb 53 d1 80 b9
       0.003610739 -0.0018182978 -0.0030041223 -0.0002457002
000360 72 c4 2e 3b 60 4e dc 3a 97 4d 96 3b bb db 0c 3a
       0.0026667383 0.0016808026 0.004586886 0.00053733186
000370 97 46 9d bb be 90 06 bb f2 25 59 ba 4e 17 a7 3b
       -0.0047996747 -0.002053305 -0.00082835474 0.0050992137
000380 d4 86 27 3b 3c 2e cd 3a a5 e3 98 bb 08 e1 26 bb
       0.0025562542 0.0015654038 -0.004665809 -0.002546372
000390 37 81 16 3b 76 15 4b bb 3c d1 05 bb ba 05 b3 3b
       0.0022965202 -0.0030988134 -0.0020418903 0.005463329
0003a0 87 b9 9c 3a 5d 28 21 3b 17 bb 6e 3b 04 02 b2 bb
       0.0011957147 0.0024590709 0.0036427432 -0.005432369
0003b0 e6 f6 d1 3a 77 02 8c bb df 90 e7 ba 5c ff 33 3b
       0.0016019016 -0.004272755 -0.0017667076 0.0027465438
0003c0 63 5a b3 bb 54 fd 83 3b c4 05 e7 3a e4 70 60 3b
       -0.0054734214 0.004028002 0.001762562 0.0034246976
0003d0 9e 11 2a 3b 3b 12 1f 3b 51 77 1a b9 2c cb ae 3b
       0.0025950442 0.002427234 -0.00014731033 0.0053342786
0003e0 e3 d1 48 bb 96 79 23 ba e5 44 9f ba 1b ff cc 3a
       -0.003064268 -0.0006236074 -0.001215127 0.0015639992
0003f0 30 bb 3a 3b 4f 24 63 3b eb 05 31 3b 8c a1 7f bb
       0.002849292 0.0034659093 0.0027011584 -0.0039006202

_func._drift._model.0.bias f4 [16]
000000 80 a6 b3 3b 92 21 c3 b9 3c 75 16 3b 94 52 0c 3b
       0.005482495 -0.0003721831 0.002295806 0.0021411525
000010 77 5e c5 b7 5a 1a 13 bb 10 ae 7e 3b 8a fe aa bb
       -2.3528219e-05 -0.0022446127 0.0038861074 -0.0052183317
000020 7e 4b a9 bb 29 26 a6 bb 1d 25 09 bb c0 84 a9 3a
       -0.00516647 -0.005070467 -0.0020926662 0.0012933239
000030 17 e3 a9 b9 a4 03 f5 38 5a d1 95 3b a7 ce 96 bb
       -0.00032403387 0.000116831885 0.004572076 -0.0046022716

_func._drift._model.2.weight f4 [16, 16]
000000 be 69 21 bb d2 bc 0f 3b f2 82 ae bb 25 d3 bf bb
       -0.0024629678 0.0021932614 -0.0053256685 -0.005854028
000010 fa 5d 75 bb 04 d5 b7 bb 02 6b 04 bb aa 57 b0 bb
       -0.0037440048 -0.0056101102 -0.0020205383 -0.005381544
000020 0c 40 32 ba d0 8f 4c 3b 0f ef 9e bb 3a 34 b9 bb
       -0.0006799705 0.0031213649 -0.0048502753 -0.005651978
000030 67 2b 5f 3b 0a 5d fd ba 96 4c 1d 3b 17 d8 2c 3b
       0.003405297 -0.0019330096 0.0024001948 0.0026373917
000040 2a 9b a7 ba c0 27 ce b9 33 9e a1 b8 5f 98 98 bb
       -0.0012787331 -0.00039320998 -7.706545e-05 -0.004656836
000050 b0 c5 af 3b 3e 91 99 b9 81 2a 09 3b 33 16 76 3a
       0.0053641424 -0.00029290648 0.0020929875 0.0009387463
000060 23 de a0 3b 04 28 9a bb 3a 27 7e bb f8 8f 12 b9
       0.0049092933 -0.0047044773 -0.0038780705 -0.00013977278
000070 a9 3d 17 bb ce 61 04 3b 17 06 ad 3b 6d ca a8 b9
       -0.0023077524 0.0020199898 0.005280267 -0.00032194276
000080 a1 61 a6 bb 9f b9 a0 3b bc 9d c0 ba 87 44 f8 3a
       -0.0050775562 0.0049049403 -0.0014695446 0.0018941321
000090 52 77 fb ba 49 9c ac 3b ce e3 5c bb a7 ba 41 3a
       -0.001918534 0.005267654 -0.0033705118 0.0007390179
0000a0 e7 27 2e 3b 83 19 9f bb 12 9f d9 3a a2 91 5f bb
       0.0026574077 -0.004855336 0.0016603193 -0.0034113904
0000b0 f5 5b aa 3b d2 7f 9d 3b 2b 8a f3 3a 53 f9 3c bb
       0.0051989504 0.004806497 0.0018580606 -0.0028835132
0000c0 ff 2e 61 39 6c ff a4 3b 9a 71 72 3b 65 8a 36 bb
       0.0002147518 0.0050353315 0.0036993981 -0.0027853486
0000d0 88 cc 50 bb 16 d6 c0 ba d3 90 da ba 00 4e 3b bb
       -0.0031860191 -0.001471224 -0.0016675241 -0.0028580427
0000e0 45 48 bd bb 08 a6 5f 38 c1 7a a9 3a 7c d2 88 bb
       -0.0057764375 5.332197e-05 0.001293026 -0.0041754823
0000f0 94 f1 45 3b 68 3e 28 bb 01 df 6b 3b 65 e7 2b bb
       0.0030203806 -0.0025671963 0.0035991075 -0.0026230451
000100 79 81 af 3b 5a 90 5f bb 64 74 a3 3a ca 28 d9 3a
       0.0053560105 -0.003411314 0.00124706 0.0016567942
000110 f0 91 8d 3b bc b6 3e 3b f4 a9 98 bb a7 66 84 ba
       0.0043203756 0.0029100617 -0.004658932 -0.0010101394
000120 c7 04 9a b9 56 00 4f 3b 5f e6 53 bb ea 0b 4a 3b
       -0.00029376728 0.0031585894 -0.0032333357 0.0030829855
000130 b8 60 78 bb 89 b0 17 3b ba 6d 89 bb c6 8a b7 3a
       -0.0037899446 0.0023145995 -0.0041939886 0.001400315
000140 a9 f1 cd b7 4e 62 8f 3b 1c 8e 32 bb e7 75 c7 3a
       -2.4550436e-05 0.0043757325 -0.0027245348 0.0015217633
000150 c1 d7 87 bb c3 f4 36 bb d0 d8 51 3b a3 46 a9 3a
       -0.004145593 -0.0027916885 0.00320201 0.0012914728
000160 5b 97 97 3b 96 60 2d 3b ac 27 6d 3b cc c6 42 bb
       0.0046261973 0.0026455275 0.0036186976 -0.0029720543
000170 8b ad 13 3a 05 e1 ae bb 52 fc e1 3a 65 a7 89 ba
       0.0005633465 -0.005336883 0.0017241335 -0.0010502158
000180 ed 74 0d 3b 33 1a 05 bb 27 56 d4 ba 7b 1c 65 3b
       0.0021584586 -0.0020309805 -0.0016199992 0.0034959603
000190 c7 cc 61 3b 6a 5e a9 3b 30 47 b7 bb 8c 48 05 bb
       0.0034454332 0.0051687257 -0.005593203 -0.002033743
0001a0 45 74 a6 bb 34 2e 98 3a 7c a5 a7 3b e9 dc e5 ba
       -0.0050797784 0.0011610449 0.005116163 -0.001753715
0001b0 f7 87 1b ba 29 7e de ba 73 2a 04 bb 0b 86 d4 3a
       -0.0005933041 -0.0016974855 -0.0020166903 0.0016214264
0001c0 00 97 81 3b e7 5b 7a bb 7d ec 9a 3b 1d b1 90 3b
       0.003954768 -0.003820175 0.0047278986 0.004415645
0001d0 f8 3c 75 b9 3d 0d 85 bb 1b 8e 96 bb 55 5b 85 ba
       -0.00023387733 -0.004060416 -0.004594577 -0.0010174314
0001e0 60 53 89 b9 0b a7 94 bb 0a e0 b4 bb 5c c2 eb 3a
       -0.00026192795 -0.0045365146 -0.0055198716 0.0017987001
0001f0 9b 6e f6 39 98 86 85 3b 15 bd 94 3a 5f ce 14 3b
       0.00047003184 0.0040748827 0.0011347855 0.0022706015
000200 07 f1 22 3a 2a a6 20 3b 17 f3 2c bb 12 5a f1 37
       0.00062157254 0.0024513104 -0.002639001 2.8771381e-05
000210 02 07 4d 3b f6 21 fc 3a 8e 46 34 3b 5d 9a a7 bb
       0.0031284695 0.0019236195 0.0027507874 -0.005114837
000220 86 3f 26 b8 9b 14 47 bb 3d 24 b6 ba d5 ab 2c 3b
       -3.9636645e-05 -0.0030377272 -0.0013896298 0.0026347537
000230 8a 21 9b ba bf bf 36 bb 21 25 03 b9 d8 b8 71 bb
       -0.0011835557 -0.0027885286 -0.00012506965 -0.0036883857
000240 ee ee 20 bb e2 42 2d bb 95 14 af 3b 88 b2 30 bb
       -0.0024556476 -0.002643757 0.0053430297 -0.0026961882
000250 2e 33 52 bb 64 59 c5 ba 64 99 8a 3b 55 72 03 38
       -0.0032073963 -0.0015056548 0.0042297114 3.1339314e-05
000260 1e 45 64 ba fc 74 56 3b e7 3b 77 3b f3 89 b2 3b
       -0.0008707809 0.0032723537 0.0037724914 0.0054485737
000270 b9 6a 83 bb a0 03 48 3b aa 9b 7d bb 7c d1 38 bb
       -0.004010525 0.0030519739 -0.003869752 -0.0028201034
000280 46 5a 9f 3b 50 2b 07 3b 63 4d 2f bb 81 da c0 ba
       0.0048630564 0.0020625181 -0.0026749007 -0.0014713557
000290 91 8c 61 3b 95 42 88 3a 47 32 a5 ba 6f 3a c7 ba
       0.003441606 0.001039582 -0.0012603485 -0.001519991
0002a0 8c ef e0 ba 06 0c 6f ba f9 90 93 3b 91 d8 87 bb
       -0.0017161234 -0.0009118918 0.004503366 -0.00414569
0002b0 9b de 77 3b ca ea 76 3a ea 5d bf 3b 88 f2 fe 3a
       0.0037821892 0.00094191416 0.005840053 0.0019450942
0002c0 04 d8 c0 bb b4 e4 07 bb 97 f1 81 ba ab ab 06 3b
       -0.005885126 -0.0020735683 -0.0009913918 0.00205491
0002d0 d0 aa b1 bb c4 54 04 3b 5a 91 9f ba 1c c9 59 bb
       -0.0054219738 0.0020192126 -0.0012174055 -0.0033231443
0002e0 21 ef 88 bb e5 ee 6d bb 3c 10 ab bb 64 0b e0 b9
       -0.004178897 -0.0036305722 -0.005220441 -0.00042733096
0002f0 d1 ea 18 3b 24 d7 57 bb 10 11 5d bb 18 5f 6a 39
       0.002333332 -0.003293463 -0.0033732094 0.00022351404
000300 45 d6 9c bb f4 bb 87 bb c2 59 cd ba af b0 7f 3b
       -0.004786285 -0.004142279 -0.0015667009 0.0039015224
000310 10 2d 45 3b 35 c0 8f 3a 12 65 ff ba c2 fa a3 bb
       0.0030086674 0.0010967316 -0.0019485077 -0.005004258
000320 22 85 63 3b 78 96 62 39 8f c9 23 3b 70 a8 56 b9
       0.0034716805 0.00021609094 0.0024991964 -0.00020471378
000330 b4 97 4f 3b b8 a2 37 b8 7e 87 46 3b b3 63 7b ba
       0.0031676115 -4.3782144e-05 0.0030293162 -0.00095897465
000340 08 94 fc ba 28 dd 97 3a 74 dd bd bb 1c fd 90 bb
       -0.0019270191 0.0011586295 -0.0057942215 -0.0044247042
000350 5b 00 1a 3a b3 83 b8 3b c2 4e d5 ba 6f c0 f3 ba
       0.0005874687 0.005630934 -0.0016274082 -0.0018596778
000360 76 38 61 3b 7e a3 a3 3b 84 f6 68 bb 89 bd ac 3b
       0.0034365929 0.004993855 -0.0035547325 0.005271618
000370 00 81 f9 ba 7b e8 50 3b 99 64 e3 3a 01 82 4f 3a
       -0.0019035637 0.003187685 0.0017348706 0.00079157954
000380 8a 28 9b 3b f9 84 90 ba dc f4 bf b9 43 1c 72 3b
       0.0047350572 -0.0011025957 -0.00036612793 0.0036943115
000390 db ca 14 bb e2 5e c1 3a ab 98 61 3b a8 64 8c 39
       -0.002270392 0.0014753009 0.0034423273 0.00026777876
0003a0 61 6f b9 3b e7 49 c6 39 52 e3 25 3b 59 87 59 3b
       0.0056590294 0.00037820564 0.0025312495 0.0033192246
0003b0 af 9d 9f 3b 10 e6 33 bb 83 60 1c b9 45 ce 1a bb
       0.0048710923 -0.002745036 -0.00014913273 -0.0023621481
0003c0 1c 96 2d bb fa 1b 1f bb d4 4d 42 3a 9a 5c 86 bb
       -0.0026487177 -0.002427815 0.000741211 -0.0041003944
0003d0 5b 14 1b bb 66 6f 98 3b d5 e0 fb 3a 8c 06 c1 3b
       -0.0023663256 0.0046519516 0.0019216785 0.005890673
0003e0 db 25 67 ba 5b 98 6a b9 70 f4 45 bb 5c 83 6b 3a
       -0.00088175916 -0.00022372736 -0.003020551 0.00089841126
0003f0 e7 88 b8 3a 4a b1 8f 3b fb 66 91 bb e6 31 ef ba
       0.0014078886 0.004385148 -0.004437325 -0.0018249124

_func._drift._model.2.bias f4 [16]
000000 1f 76 a4 3b e9 7a 80 bb 31 ad 22 3b bd 4a 8c bb
       0.005018964 -0.003920902 0.0024822468 -0.0042813704
000010 95 c9 2e bb 7c 25 b6 bb 76 28 5c bb 18 b5 3b bb
       -0.0026670445 -0.0055586677 -0.0033593453 -0.0028641876
000020 03 e5 9d 3b 0b da 77 bb 83 2a 86 3b a1 04 29 3a
       0.00481856 -0.0037819173 0.0040944233 0.0006447528
000030 e2 17 2b 3b f0 76 82 3b dc 19 90 3b e5 84 95 bb
       0.0026106765 0.0039814636 0.004397614 -0.0045629614

_func._diffusion._model.0.weight f4 [16, 17]
000000 f3 19 a2 3d ec c5 79 bd 08 04 2a bd 4b f6 93 3d
       0.07915106 -0.06097977 -0.04150775 0.07224711
000010 ba 48 e4 bd f5 d5 3f bd 94 17 5c 3d 9a 4d 5e 3c
       -0.11146684 -0.046834905 0.053733423 0.013568306
000020 5c 07 a7 bc 91 52 a7 3d 08 7d 87 3d 27 1e 76 3d
       -0.020389251 0.08170045 0.06615645 0.06008735
000030 dd 8f c9 3c 64 c4 c8 3c af c5 04 bd 51 fd d4 3c
       0.024604732 0.024507709 -0.03241509 0.025999697
000040 91 cc 81 bd af 09 4f bd 00 a9 38 3c d5 6f 6b bd
       -0.06337846 -0.050546344 0.0112707615 -0.0574797
000050 bb 92 b2 bc 72 84 43 bc 4b 83 2e 3d 27 a3 b7 3c
       -0.021798482 -0.011933433 0.04260568 0.022416664
000060 40 a1 3f 3d 4c 30 f4 3c a0 c1 88 bc 7d 27 5a 3c
       0.04678464 0.029808186 -0.01669389 0.013315079
000070 b3 c7 9d ba fd dc 31 3d b4 e1 26 3d 18 24 56 3b
       -0.0012037664 0.04342364 0.04074259 0.0032675322
000080 11 d3 8f bc 1b 27 9c bd 7b 9c 69 3c d0 b9 0e 3d
       -0.017556699 -0.07624646 0.014258499 0.034845173
000090 ca 0d 1f 3d 20 2d 59 3d 4b 49 14 bd 12 f2 5f 3d
       0.03883151 0.05302155 -0.03620271 0.054674216
0000a0 b0 77 5c bd e3 03 d5 ba 8e e2 0a 3d b9 e1 0a 3d
       -0.05382508 -0.0016251769 0.033907466 0.033906672
0000b0 39 09 5b 3d aa 76 85 3d c2 a0 53 bd 95 37 f6 ba
       0.053475592 0.06516774 -0.051666982 -0.0018784875
0000c0 a3 53 2a 3d 62 6b 98 3c d5 cb be 3b 0c 68 e5 3c
       0.04158367 0.018605892 0.0058226385 0.028003715
0000d0 bf 36 5e 3c 8c 19 39 bc 5c 9e bb bc b4 b2 f2 bd
       0.013562857 -0.011297595 -0.02290266 -0.11850491
0000e0 50 99 c5 3c 81 35 80 bc b5 4c cc 3c b1 37 a7 bd
       0.024120957 -0.015650513 0.02493892 -0.08164919
0000f0 06 54 93 3d ff a1 86 3c d0 41 2a 3d be 0c 06 3d
       0.071937606 0.016434668 0.04156667 0.032726996
000100 49 b0 f6 bc cf 26 a1 bd ef c9 1a bd cf 19 46 bd
       -0.030113356 -0.0786873 -0.037790235 -0.048364457
000110 81 2a ac bd 77 aa 57 3c 69 8c d3 3c 66 48 94 bd
       -0.084065445 0.013163201 0.025823789 -0.072403714
000120 46 c3 84 3d e7 e8 8c bd 09 27 40 3b a2 6a c9 bd
       0.06482558 -0.0688036 0.0029320142 -0.09834792
000130 b2 52 fe 3c 06 cf e4 bd 1d e0 3a bd 42 d5 d3 bc
       0.031045292 -0.11172299 -0.045623887 -0.025858525
000140 6c a2 b3 bd 88 4d 12 bd e8 d6 96 3b 81 75 35 bd
       -0.08771214 -0.03571847 0.0046032555 -0.044301514
000150 b8 0b 3d 3c 84 25 b1 3d c9 28 a8 bd c3 6f a3 3c
       0.0115384385 0.08649734 -0.08210904 0.019950753
000160 95 5e a9 bc f2 a3 cd bd b8 c6 62 bd 70 87 f2 bc
       -0.020674983 -0.10041036 -0.055365294 -0.029605597
000170 8f d5 6b 3a e7 92 9c bd 69 00 84 3d 9e ea c5 bc
       0.0008996361 -0.07645207 0.06445391 -0.024159726
000180 fd a4 8e 3d e2 10 50 bd f8 d1 36 bd d0 3e 03 3d
       0.06965063 -0.05079735 -0.044633836 0.032042325
000190 4b 13 3f 3d b4 35 3f 3b d9 4e ef bd e3 f8 96 bc
       0.04664926 0.0029176297 -0.11684961 -0.018429225
0001a0 16 07 ca bc ff c7 5a bd 9f 98 44 3b 26 ec 88 bd
       -0.024661582 -0.053413387 0.0029998196 -0.06685667
0001b0 ef 3e 00 3c b8 52 a0 bc b9 5b 64 3d 02 e6 aa bd
       0.007827505 -0.019570693 0.055751536 -0.08344652
0001c0 c3 de 6e bd fd 0b 58 bd b7 33 7e bd cb d8 18 bd
       -0.05831791 -0.052745808 -0.062061038 -0.037316125
0001d0 2a 5d 30 3d b4 b6 b9 bd da 40 29 3d 78 03 0e bd
       0.0430576 -0.09068051 0.041321613 -0.034671277
0001e0 d2 f9 17 bb f8 cd 97 bc d9 89 ae bd 37 bc b1 bb
       -0.0023189676 -0.01853083 -0.08522386 -0.0054240483
0001f0 25 a4 96 bc ae c9 13 bd 3b e6 84 bd 26 4b 89 3b
       -0.018388817 -0.03608101 -0.064892255 0.0041898666
000200 84 e5 95 bd ec 42 55 bd a3 b1 a3 bd b9 64 00 bd
       -0.07319167 -0.052065775 -0.07992866 -0.031346057
000210 05 ff d7 3b 53 31 da bc 60 b1 87 bd 2c 3d ef 3c
       0.00659168 -0.026634848 -0.066256285 0.029203974
000220 75 53 15 3d ca 9d 92 bd ea 1e d0 bb 17 c6 f4 3c
       0.036456544 -0.07159002 -0.0063513415 0.029879613
000230 93 97 c1 bd b8 1f 82 bc f0 f9 19 3d d9 7b 6d 3d
       -0.094527386 -0.015884265 0.037591875 0.05797944
000240 ed 12 a2 ba 7a 07 f9 bb ba 58 a9 3b c6 2e 49 3d
       -0.001236526 -0.007599768 0.0051680477 0.049116872
000250 0d e7 40 bd 95 e9 f7 3c 85 42 6c bd d4 ce 96 3c
       -0.047095347 0.030262748 -0.057680625 0.01840917
000260 92 7c 4d bd 13 8a 16 bd b9 2f 3a 3d c8 c3 92 3b
       -0.050167628 -0.03675277 0.045455668 0.0044789053
000270 ee ee e2 bd 99 fe a7 3b bc 8f 13 bd 1e 79 0a bd
       -0.110807285 0.005126786 -0.036025748 -0.033806913
000280 89 3d 84 bd f7 e8 2c 3d 12 81 43 bd 45 5e ba bd
       -0.064570494 0.04221436 -0.047730513 -0.09100012
000290 0e 1b 2a bd 74 b1 5b bc df f8 4b bb 84 3b 71 b9
       -0.041529708 -0.013409007 -0.003112368 -0.00023005722
0002a0 25 bb 9f bd 27 82 33 3d cb 9c cc bd 8b 29 32 bd
       -0.07799367 0.043825295 -0.099908434 -0.04349665
0002b0 47 f8 2d bd b5 96 c5 bc 90 68 47 3d 83 7b 9f 3c
       -0.042473104 -0.024119714 0.048683703 0.019468075
0002c0 37 0a 8e bd 22 a6 35 bd 61 60 76 3d 66 22 01 be
       -0.06935542 -0.04434789 0.060150508 -0.12610778
0002d0 46 8b 89 bd 78 01 fa bc 34 fe 3d bd 8c aa e6 3b
       -0.067160174 -0.030518278 -0.046385005 0.0070393737
0002e0 43 da 09 bd 62 f9 42 bd bd bc ba 3c 64 89 e8 3b
       -0.033655416 -0.04760111 0.022795076 0.0070964564
0002f0 e6 50 d0 3c ff 25 6f bb 90 f1 0a 3d 5d ed 03 bc
       0.0254292 -0.0036491153 0.03392178 -0.008052197
000300 9e 65 70 bc e7 90 a3 bb 6c ac 57 3d 80 52 a9 bd
       -0.014672665 -0.004991639 0.05265467 -0.08267689
000310 da 07 fc 3b 33 38 f1 bc 3d c8 76 3d 12 1c 00 3d
       0.0076913657 -0.029445743 0.060249556 0.03127677
000320 cb 29 b1 bd 2a 06 a6 bc dc 72 6a 3d e7 05 7e bd
       -0.086505495 -0.020266611 0.057238445 -0.062017348
000330 87 a2 80 bd 94 52 70 3b 74 32 cc 3b c9 b6 bc bd
       -0.06281 0.0036670314 0.0062316004 -0.09214551
000340 85 8b 23 3d 67 30 31 3b ab 1c 83 bd 84 c4 a6 bd
       0.039927978 0.0027036907 -0.06401952 -0.08142951
000350 14 67 81 3c bc af 3e bd 1f ad a1 bd 64 21 63 bd
       0.015796222 -0.046554312 -0.07894348 -0.055451766
000360 2c a6 2e bd cc cd d8 3c f5 19 80 bc 48 22 3d bd
       -0.042638943 0.02646532 -0.015637377 -0.04617527
000370 01 7b 70 3d 37 ec 82 3d bc a4 57 3c 58 f7 53 bb
       0.058711056 0.06392711 0.013161834 -0.0032343473
000380 9e a1 81 3d c8 8e 8a bd 77 95 1e bd 6e 94 69 bc
       0.06329654 -0.067655146 -0.03871676 -0.01425658
000390 fb a1 fd 3c cc f6 5e bd 47 ae 9c 3d d4 89 86 3d
       0.030961027 -0.054434583 0.07650428 0.065692574
0003a0 98 8b 57 3d 73 14 ab 3c 0d 50 8f 3c 21 64 7d bc
       0.05262336 0.020883774 0.017494226 -0.015465767
0003b0 c8 08 84 bc 5a dc 39 bc 09 0d 0d 3c ce 11 3d 3b
       -0.016117468 -0.01134404 0.008609065 0.0028849724
0003c0 b9 41 c9 3c 1f 96 f3 3b 01 cd 8c bc c4 7a 11 3c
       0.024567472 0.0074336673 -0.017187597 0.008879367
0003d0 29 d5 9c bb 29 23 0f 3d 3e 55 9a bd f4 2e 69 3c
       -0.004786153 0.03494564 -0.0753579 0.014232386
0003e0 17 3e d6 3c ea 25 ff 3c 51 38 c6 bb 50 ba b6 bd
       0.026152654 0.031146009 -0.006049194 -0.08922255
0003f0 e7 69 04 bd b7 50 1e 3d 29 0f c8 bc 14 b7 72 bb
       -0.03232756 0.038651194 -0.024421291 -0.0037035393

_func._diffusion._model.0.bias f4 [16]
000000 22 a5 d8 3d 4a b5 62 3c 88 54 7f 3c ed 37 c4 3d
       0.105783716 0.013837168 0.015584119 0.095809795
000010 36 41 39 bc e6 6f 5b 3c ef 06 74 bd ce 7a cf bd
       -0.011307051 0.013393378 -0.059576925 -0.10130845
000020 f5 5c 6a 3d ba 44 e9 bc c4 11 aa bc 26 5a 47 3d
       0.057217557 -0.028475154 -0.020760424 0.048669957
000030 f5 28 aa bd f5 c1 ba 3d 15 23 9c 3d 89 6b ec 3b
       -0.08308593 0.091190256 0.07623879 0.0072149676

_func._diffusion._model.2.weight f4 [48, 16]
000000 95 eb 92 3d 9d 42 55 3d 3f 00 15 bc 02 0c 3b 3d
       0.0717384 0.05206548 -0.009094297 0.04566575
000010 a2 4b c7 bd b9 11 24 3d 06 45 82 3b ca a6 cb bb
       -0.09731223 0.040055964 0.0039755134 -0.006214951
000020 19 81 17 3d 7b bd af bd 57 3c 36 3c 3f 85 78 3d
       0.03698835 -0.085810624 0.011122785 0.06067395
000030 ee 19 67 bd b3 4d d6 bc 75 c0 9a bc c4 51 90 3d
       -0.056421213 -0.026160097 -0.018890599 0.070468456
000040 f3 5f 0d 3d fa 62 24 bd 92 f6 e9 bc 1b 3e 23 3c
       0.034515332 -0.040133454 -0.028559957 0.009963538
000050 50 83 93 bd 44 29 4d 3d 91 35 0d bd 58 01 b4 bd
       -0.0720278 0.050088182 -0.034474913 -0.08789319
000060 e8 61 9d 3d f0 57 18 bc 0e c2 14 3c d9 1e 88 3d
       0.0768469 -0.00929831 0.009079469 0.06646509
000070 8b 93 70 bc 26 86 d9 bc fb 38 f6 bc 3d 70 79 bc
       -0.0146836145 -0.026553225 -0.030056467 -0.015224514
000080 43 f5 13 3c dd f8 c2 bc b5 6e 0f bd 0d e7 c5 3d
       0.009030643 -0.023800308 -0.035017688 0.0966321
000090 5e 49 af bd ca 7f 20 3d a9 91 39 bd 40 cc c7 3c
       -0.085589156 0.03918437 -0.045304928 0.024389386
0000a0 72 59 65 bc 2c ca f9 bc e6 a5 b5 bd 30 c2 b5 bc
       -0.013998376 -0.03049191 -0.08869533 -0.022187322
0000b0 39 cb f4 bc 6f a0 20 39 aa 32 b2 3c dc cf a3 bc
       -0.02988206 0.00015318555 0.021752674 -0.019996576
0000c0 99 11 94 3d eb f2 6a 3d 3b 1c 59 bd 21 60 58 3c
       0.07229919 0.05736057 -0.05300544 0.013206513
0000d0 87 d1 aa 3b d5 4a 91 bc f2 66 31 bd a6 99 0b bd
       0.005212966 -0.017735878 -0.043311067 -0.034082077
0000e0 4a 11 61 3d 73 f3 2c bd ca 22 92 bc 70 c7 55 bc
       0.05494813 -0.04222436 -0.017838854 -0.013048038
0000f0 f4 8d c0 bc 60 2b ee bb e7 fb 7c 3d 1c db 22 3d
       -0.023505189 -0.0072683543 0.06176367 0.03975974
000100 e0 64 87 3d 44 d9 d8 3b d3 ea 1d bc df 86 c1 3d
       0.06611037 0.006617697 -0.009638506 0.09449553
000110 ea da 2b bd 9b 1b 89 3d d0 b4 8b bd f6 4b 14 3c
       -0.04195682 0.066947185 -0.068215966 0.009051314
000120 22 eb 3d 3d 4b 53 a8 bd 9e 32 11 bd 22 de 1e bd
       0.04636682 -0.08219012 -0.035448663 -0.03878606
000130 16 1a e0 bc 14 d1 94 3b 92 fa fd 3a 2f bb 5d 3c
       -0.027356189 0.0045415256 0.0019377044 0.013533398
000140 f5 a9 b7 3d 88 9b 84 3c ec ce 51 bd 4c dd 87 3d
       0.089679636 0.016187444 -0.051222727 0.06634006
000150 19 6c eb bc ba 24 35 3d 86 1b f0 bc 67 12 96 bc
       -0.028738068 0.04422448 -0.02931 -0.018319322
000160 37 75 0a 3d 2b 57 2b bd 5b 05 97 bb 3b d9 71 3d
       0.03380319 -0.041831177 -0.0046087927 0.059045058
000170 cf 68 bd bd ab c0 b8 3c f1 d8 a1 3c 89 ef 76 3d
       -0.09248506 0.022552809 0.019756766 0.060287032
000180 4a 7d 9f 3d 67 28 1c 3d df fb 77 bd 4a 1a ce 3c
       0.07787569 0.03812447 -0.060542937 0.02515902
000190 91 d6 88 3b 39 b9 ed 3b 69 1b 35 bd 3a a7 91 bd
       0.004175969 0.0072547463 -0.044215593 -0.07111974
0001a0 34 25 50 3d 5b 2c aa bc 38 26 24 bd 39 24 37 3d
       0.05081673 -0.020773103 -0.04007551 0.04471228
0001b0 05 3e 38 bd 56 ca bb bb a7 e6 96 3d 0c 2f 4f 3d
       -0.04498102 -0.0057309074 0.07368212 0.050581977
0001c0 7f 25 ae 3d 6f ac a9 3b 85 eb 11 bd e1 18 79 3c
       0.085032456 0.0051780264 -0.035625 0.0152036855
0001d0 b1 bf 80 bd 5f 55 af 39 84 48 53 bc 08 96 7d bd
       -0.06286562 0.00033442207 -0.012895707 -0.06191066
0001e0 34 ec bc 3d de 15 ad bd 69 40 c2 bc b1 90 6a 3d
       0.0922474 -0.084514365 -0.023712354 0.057266895
0001f0 9f ca b4 bd 87 b8 2b 3d e6 17 a4 3d 2a 72 22 3d
       -0.088277094 0.041924026 0.08012371 0.039659657
000200 a5 16 e5 bc 17 64 c1 bc 8a 4c 9c ba ae c8 14 3d
       -0.0279649 -0.023607297 -0.0011924666 0.036324196
000210 b8 73 61 bd 6c 47 3a 3d 55 0d be bc df 69 a2 3c
       -0.055042 0.04547827 -0.023199717 0.019825874
000220 c4 47 26 3d 87 a0 03 3c 44 e8 34 bd 32 c1 b7 3c
       0.040595785 0.008033878 -0.04416682 0.02243099
000230 6f 83 b9 3b 4c 7e db 3c 08 59 88 3d c6 04 6a 3d
       0.00566142 0.026793621 0.06657606 0.05713346
000240 61 b7 02 bb 68 cc 6d bc 85 90 2c bc c6 4e 93 3c
       -0.0019945728 -0.014514066 -0.010532503 0.017981898
000250 ec a1 e4 bc ff ac 3b 3d be 33 11 3c 2b e9 a0 bd
       -0.027909242 0.04581928 0.008862434 -0.07856973
000260 6f b8 40 3d 38 05 1b bd 5a 0a 7c bd 8a 64 84 3d
       0.04705089 -0.037846774 -0.06153331 0.06464489
000270 0c 10 b9 bd 19 14 db 3a bc 43 72 3d 46 f5 fe bc
       -0.09036264 0.0016714364 0.059146628 -0.031122815
000280 14 65 0d 3a fe 78 00 bc ec ec 25 3d b8 b4 2e 3d
       0.0005393785 -0.007841347 0.04050915 0.042652816
000290 41 59 d4 bd 2b a5 48 3b 43 47 85 bd 14 ba 92 bd
       -0.10368586 0.0030616026 -0.06507733 -0.07164398
0002a0 e9 10 6a 3c 58 1d 85 bd 2e 10 ce bd dd e3 1d 3d
       0.014286258 -0.064997375 -0.1006168 0.038547385
0002b0 3f 05 5a bd 8b ba 93 3d 44 99 9b 3c 0c 3d 83 3d
       -0.05322766 0.072133146 0.018993981 0.06408128
0002c0 68 57 ae 3d bb d9 16 3b ee a8 22 bd 6d d4 f3 3c
       0.08512765 0.002301796 -0.039711885 0.029764378
0002d0 c3 a0 b9 bd 93 f0 cb 3c a2 16 87 bd d1 69 a0 bd
       -0.09063866 0.024894988 -0.06596114 -0.07832683
0002e0 ae 47 bd bc e8 ca a8 bc e9 3d 68 3c 58 70 51 bc
       -0.023105469 -0.020604566 0.014174917 -0.0127831325
0002f0 07 8e a9 bd 8a 27 87 3c 18 63 03 3d 77 9b 92 3d
       -0.08279043 0.016498346 0.032076925 0.07158559
000300 d9 56 03 bd 6c 15 b8 3c bb 20 4e 3c 69 6c 49 bd
       -0.032065246 0.022471152 0.012581046 -0.049175654
000310 ea a4 19 3b 11 45 4b bd 29 33 fb 3b 73 a3 e1 bc
       0.0023444244 -0.049626414 0.007666011 -0.027543759
000320 3c 70 84 bc f9 33 ae 3c 30 b8 69 3d dd 09 8b bc
       -0.016166799 0.021265017 0.05706042 -0.016972477
000330 00 ba 76 3d 97 46 43 bd d6 85 a9 bd 57 81 93 bd
       0.060235977 -0.04767474 -0.0827748 -0.07202404
000340 5e b9 37 3c cf f7 e8 bb e6 75 cd b9 cf e9 c6 bd
       0.011213629 -0.007109619 -0.00039188488 -0.09712564
000350 0e 4c 7f 3c f0 0e 7e bd f6 17 9f 3b 7b 8c 04 3d
       0.015582098 -0.062025964 0.0048551513 0.032360535
000360 44 0a 8f bd f5 08 5e 3c aa ac 2e 3d e4 02 27 bd
       -0.0698438 0.01355194 0.042645134 -0.04077424
000370 5f 86 5b 3d 90 d5 fa 3c d7 5b 1b 3d b6 78 cf 3c
       0.053594943 0.030619413 0.037929382 0.025326114
000380 a6 fe 4f bd 70 06 c6 3c f1 dd 19 3d f9 db 4d bd
       -0.05077996 0.024172992 0.037565175 -0.05025861
000390 61 7c 8f 3d 92 31 2e 3c 85 1e 04 3d 49 c7 ab 3d
       0.07006145 0.010631936 0.03225567 0.0838762
0003a0 f2 67 df bc 88 07 97 3d c7 7b c7 3b 1f d1 bb bc
       -0.027271245 0.07374483 0.0060877535 -0.022926865
0003b0 ae 06 a7 3d e1 a7 51 bd 53 9c 17 bd 59 10 9f bd
       0.08155571 -0.051185492 -0.037014317 -0.0776679
0003c0 df 4e 05 bc 47 6d e5 bb c1 24 33 bd 36 3d e5 3c
       -0.00813648 -0.0070015523 -0.043736223 0.02798329
0003d0 e8 f0 25 bd 37 f1 dc ba ea 7d 87 bd 7e 23 a3 bc
       -0.04051295 -0.0016856556 -0.06615813 -0.019914385
0003e0 c0 f0 8a 3b 2f 2e b5 bd e1 aa 80 bd a5 9a 48 3d
       0.0042401254 -0.088466994 -0.062825926 0.048975606
0003f0 17 c9 b9 3a 67 94 86 3d d6 05 64 bb f7 96 f2 3c
       0.0014174309 0.06571274 -0.0034793518 0.029613001

_func._diffusion._model.2.bias f4 [48]
000000 35 4e 88 3d 03 dd ae 3d 9d 62 c8 3d b9 a5 9e 3d
       0.06655542 0.085382484 0.09784434 0.07746453
000010 5b 2f e9 3c 6d 37 4f 3d 9e a1 13 3d 4a 7f 68 3d
       0.028464964 0.050589968 0.036042802 0.056762017
000020 04 cb ad 3c 86 07 e3 3c 64 d8 de 3d 63 8b d5 3c
       0.02121497 0.027713548 0.10881117 0.026067441
000030 c9 fd 27 bd 4d 90 5f bc 6d 26 9d bd e3 e2 2e 39
       -0.041013513 -0.013645244 -0.07673345 0.00016678455
000040 37 a7 96 3b 32 77 8a 3d 5d 17 69 bd 76 32 dc bd
       0.0045975703 0.06761016 -0.056907047 -0.10751812
000050 41 09 bd bd 16 ed 12 bc 59 75 47 bd bb 0b cf bd
       -0.09230281 -0.0089676585 -0.048695896 -0.10109659
000060 c1 20 cf bc 74 79 bb bc 56 1b 66 3d 71 28 90 bd
       -0.025284173 -0.022885062 0.056178413 -0.070389636
000070 82 8c ce bc 71 b6 2e bd 1e a9 56 bc 28 f1 66 bd
       -0.025213484 -0.04265446 -0.013101844 -0.05638233
000080 c9 9b da bd 84 70 be 3d 87 1a 90 3d 73 82 af 3d
       -0.10674245 0.092988044 0.0703631 0.08569803
000090 d3 14 2c 3d b9 33 17 3c 86 00 8f 3c 09 25 e5 3b
       0.042012047 0.00922864 0.017456304 0.0069929403
0000a0 29 87 bd bc 4f 6e 8c bd 01 aa 37 3d 6f 58 8e 3d
       -0.023135738 -0.06856977 0.044839863 0.06950461
0000b0 8f 36 c2 3d 8f 62 59 bd 93 e7 85 bc bb 49 1a 3b
       0.094830625 -0.05307251 -0.016345775 0.0023542482

_readout.weight f4 [1, 16]
000000 33 ba b7 bd b9 ad 43 be 46 8f 7e be c1 a4 42 be
       -0.089710616 -0.19109239 -0.24859342 -0.19008161
000010 a8 6f 8a 3d 4e 35 ca bd 5e 82 b1 bc cf 72 0b 3e
       0.06759578 -0.09873448 -0.02166861 0.13618015
000020 f8 db 0f bd d3 be 63 3d 94 c3 8a 3d 97 29 90 be
       -0.035121888 0.055601906 0.06775585 -0.2815673
000030 88 35 6f be ac e0 d4 bb 7a 37 99 bd eb 48 1c 3e
       -0.23360264 -0.0064965095 -0.074812844 0.15262191

_initial._model.0.weight f4 [16, 2]
000000 2a c2 7e b4 9e 8e 9d bf c0 6a 88 b4 53 77 7d 40
       -2.372623e-07 -1.2309148 -2.5409645e-07 3.960408
000010 01 b0 17 33 4e b7 a7 bf 3c 39 10 35 5b 49 98 bf
       3.5317502e-08 -1.3102815 5.372747e-07 -1.1897386
000020 d6 09 d7 b4 59 3b 91 bf 10 d4 92 34 3b f3 5c bf
       -4.0054027e-07 -1.1346236 2.7348915e-07 -0.8630864
000030 99 6b 95 34 ca be 89 40 c8 2a 2e b4 27 0c 87 40
       2.78317e-07 4.3045397 -1.6220577e-07 4.2202334
000040 76 69 ad 32 e8 75 93 bf c3 e6 a5 b4 f2 f4 89 40
       2.0187809e-08 -1.1520357 -3.0901546e-07 4.3111506
000050 cc 24 c6 b4 fd 68 d1 bf ac 23 11 35 45 78 85 bf
       -3.6907147e-07 -1.6360165 5.406862e-07 -1.0427328
000060 36 ea 15 b5 e8 01 f5 bf ef 26 8f 34 15 3f 68 41
       -5.584765e-07 -1.9141207 2.6664154e-07 14.515401
000070 e3 0d f6 33 1f ea 02 41 cf 91 29 b4 c4 cd 94 40
       1.1457794e-07 8.182158 -1.5792396e-07 4.650118

_initial._model.0.bias f4 [16]
000000 fc 63 38 40 61 4b 08 3f 47 1e 36 40 30 c7 0a 40
       2.8811026 0.5324002 2.845598 2.1684074
000010 ce 0a 20 40 e2 e7 fc 3f 2e 5b ee 3e 82 84 cd 3e
       2.5006595 1.9758265 0.4655394 0.40140158
000020 27 a4 04 40 8f 12 1b 3f 13 2f 4a 40 b6 2c 03 40
       2.072519 0.60575193 3.1591232 2.049604
000030 2a ac 40 bf 36 37 f2 3e 73 75 0d 3f d3 1d 2e 3f
       -0.752627 0.47307748 0.5525734 0.6801426

_initial._model.2.weight f4 [16, 16]
000000 a6 28 74 3f 46 a9 19 c0 1e ab 78 3f 4b d2 4d 3f
       0.95374525 -2.4009566 0.97136104 0.80399007
000010 9f 20 87 3f 46 1f 2d 3f 6a 09 0f c0 fb 3f 04 c0
       1.055683 0.67625844 -2.2349496 -2.066405
000020 4b 3a 48 3f 7e 8b 1b c0 69 2e 0d 40 41 85 61 3f
       0.7821395 -2.430389 2.2059577 0.88093954
000030 95 56 13 bf c1 5e a4 c0 88 4b 46 c0 3d 07 1a c0
       -0.5755399 -5.1365666 -3.09836 -2.4066918
000040 04 ec 87 bf 6f 76 16 40 81 a5 87 bf 0f 12 51 bf
       -1.0618901 2.3509786 -1.0597383 -0.8166818
000050 51 d1 cf bf ac 08 08 bf 98 66 17 40 f3 a0 0a 40
       -1.6235753 -0.5313823 2.3656368 2.1660736
000060 b9 d1 4d bf 10 d9 24 40 bf 95 0f c1 b6 b8 d2 bf
       -0.80398136 2.5757484 -8.974059 -1.6462619
000070 3b a3 65 3f a5 41 a8 40 55 24 5b 40 ff d8 31 40
       0.89702195 5.2580132 3.4240925 2.7788694
000080 e3 0b fc bf 7c 1f 1a 40 70 3b da bf d7 06 a6 bf
       -1.9691128 2.4081717 -1.7049389 -1.2970837
000090 70 f4 33 c0 4c 5e 85 bf ff 81 11 40 d9 d4 04 40
       -2.8117943 -1.0419402 2.2735593 2.0754912
0000a0 0c 26 87 bf 11 41 35 40 c2 3a 79 c1 73 27 1f c0
       -1.0558486 2.8320963 -15.576845 -2.4867828
0000b0 98 b9 2c 3f a0 57 c3 40 7a f6 63 40 08 5a 45 40
       0.67470694 6.1044464 3.5619187 3.08362
0000c0 76 8f 87 bf 7e 0c 23 40 fd a0 8b bf b8 c0 54 bf
       -1.0590656 2.5476375 -1.0908505 -0.83106565
0000d0 0b 87 d2 bf 94 03 4a bf 31 59 1b 40 4f c6 13 40
       -1.6447462 -0.7891171 2.4273188 2.3089788
0000e0 5f c5 35 bf ac 8d 19 40 35 5d 5c c0 06 50 93 bf
       -0.7100429 2.399272 -3.443189 -1.1508796
0000f0 35 03 2b 3f bb 5c a5 40 7f 0a 66 40 07 13 16 40
       0.6680177 5.1675696 3.5943906 2.3449113
000100 f1 3b 7c bf 4b 0b 14 40 ce dd 38 bf 7f dc 21 bf
       -0.98528963 2.3131893 -0.7221345 -0.63227075
000110 f2 e0 9a bf 9c 8b d6 be f2 e2 07 40 9a 39 15 40
       -1.2099898 -0.41903389 2.1232266 2.3316407
000120 73 43 6a bf 5b 9f 1a 40 93 d6 ee bf 97 0f 50 bf
       -0.9150917 2.4159763 -1.8659233 -0.8127379
000130 a6 2f 7c 3f 7f 06 99 40 8b 94 3b 40 cf 1b 02 40
       0.98510206 4.782043 2.9309413 2.0329473
000140 ec 71 6e bf 29 6b 20 40 fa ff b0 bf 74 68 4b bf
       -0.9314258 2.5065405 -1.3828118 -0.7945626
000150 5a 18 98 bf 42 b9 27 bf 12 a7 1b 40 e2 b5 18 40
       -1.1882432 -0.65517056 2.4320722 2.3861012
000160 61 4f 44 bf 1e 46 2b 40 78 c3 4e c0 be 56 b7 bf
       -0.7668362 2.6761546 -3.2306805 -1.4323347
000170 48 81 2f 3f 33 3c b3 40 2d 9b 62 40 c0 6e 18 40
       0.6855664 5.6010985 3.5407212 2.3817596
000180 74 a7 fe 3f ca 2a 0b c0 ea 7a 0c 40 a3 58 ae 3f
       1.9894853 -2.1744866 2.195002 1.36208
000190 d1 39 32 40 9b 92 99 3f 64 59 13 c0 92 25 07 c0
       2.7847788 1.1997865 -2.302331 -2.111668
0001a0 e1 11 95 3f dd 2b 44 c0 14 41 40 41 fc 71 2b 40
       1.1646081 -3.0651772 12.015888 2.678832
0001b0 3a 06 6f be 8c 4a e5 c0 d5 84 84 c0 74 6d 34 c0
       -0.23342219 -7.16535 -4.141215 -2.8191805
0001c0 35 d0 4c 3f b4 6b 10 c0 a6 7d 85 3f 1f b6 15 3f
       0.800052 -2.2565737 1.042897 0.5848102
0001d0 d3 79 ac 3f 68 f8 2c 3f f2 73 11 c0 88 e6 12 c0
       1.3474678 0.6756654 -2.2727017 -2.2953205
0001e0 28 8b 30 3f 3f 3c 10 c0 c0 1e 3b 40 81 27 87 3f
       0.68962336 -2.2536771 2.9237518 1.0558931
0001f0 6c 24 7c bf 96 6f a2 c0 f4 3a 4c c0 37 ad 21 c0
       -0.98493075 -5.0761213 -3.1910982 -2.5261972
000200 f0 fe 28 bf d0 02 04 40 fd 3f 89 bf 8c bf 40 bf
       -0.66014004 2.0626717 -1.0722653 -0.7529228
000210 d4 09 98 bf c5 70 3e bf 10 a1 1a 40 42 42 18 40
       -1.1877999 -0.7439082 2.4160805 2.379044
000220 7f a8 6e bf c7 4a 1c 40 65 ab 29 c0 c8 36 7e bf
       -0.93225855 2.442064 -2.651086 -0.9930234
000230 09 a9 7a 3f 8d 5a a9 40 38 24 41 40 14 d4 1e 40
       0.9791418 5.2923036 3.0178356 2.4816942
000240 ba 9f 69 3f 63 f3 06 c0 80 c3 0e 3f 03 32 2d 3f
       0.9125935 -2.1086051 0.5576706 0.67654437
000250 95 b3 57 3f a0 1d 6c 3e 6e fe 13 c0 c9 cd 0a c0
       0.84258395 0.23058176 -2.3124042 -2.1688101
000260 05 68 e8 3e e0 d9 07 c0 9d f6 b4 3f 89 5c 53 3f
       0.4539186 -2.122673 1.413776 0.8256307
000270 b8 ed 7d bf 4a bd 9d c0 83 98 49 c0 11 b0 fb bf
       -0.99190855 -4.9293566 -3.1499336 -1.9663106
000280 57 4f a5 bf 7a 39 08 40 f4 20 a2 bf 40 aa 90 bf
       -1.2914838 2.128508 -1.2666306 -1.1301956
000290 1f 0a e1 bf 76 a7 0a bf 8e b7 1c 40 9d 30 10 40
       -1.7581214 -0.54161775 2.4487033 2.2529671
0002a0 b9 84 6d bf 2e 81 27 40 59 c1 88 c0 3a 51 9c bf
       -0.92780644 2.6172595 -4.273602 -1.2212288
0002b0 c7 fc 1c 3f e2 73 b5 40 4e b3 59 40 07 7c 1a 40
       0.6132321 5.670396 3.401569 2.41382
0002c0 ec 2c ae bf 7b a8 10 40 0e 33 ce bf 16 35 92 bf
       -1.3607459 2.2602832 -1.6109331 -1.142245
0002d0 6a f6 e7 bf f0 bc 21 bf bf 4e 18 40 49 80 02 40
       -1.8122075 -0.6317892 2.3798063 2.03908
0002e0 e4 59 71 bf 13 30 1e 40 f7 6a 36 c1 32 68 06 c0
       -0.9427779 2.4716842 -11.401114 -2.1001096
0002f0 64 6b 80 3f ce 37 b0 40 7e 78 68 40 0b e1 2b 40
       1.0032773 5.506812 3.6323543 2.6856105
000300 90 07 4c bf 0b 7a 0d 40 10 48 38 bf 71 bc 71 bf
       -0.7969904 2.210574 -0.7198496 -0.94428164
000310 f6 89 7d bf 7a e2 d0 be 64 18 19 40 b1 03 0e 40
       -0.99038637 -0.40797788 2.3921137 2.2189753
000320 e6 ac 06 bf 3c 89 1c 40 91 96 ec bf 19 a4 7c bf
       -0.5260757 2.4458761 -1.8483449 -0.98687893
000330 ba a9 61 3f bf b0 a9 40 bb b5 59 40 ea 3c 16 40
       0.8814961 5.3028255 3.401717 2.347468
000340 50 1b 5e bf 79 20 17 40 72 26 4f bf 7d 65 42 bf
       -0.86760426 2.361357 -0.8091804 -0.7593611
000350 a8 14 c9 bf 73 82 d1 be 3e e7 1d 40 ed 12 fe 3f
       -1.5709429 -0.40919837 2.467239 1.9849526
000360 ec 86 49 bf 97 b5 17 40 43 d8 d8 c0 98 7d ba bf
       -0.787215 2.3704584 -6.776399 -1.4569578
000370 5a 3f 76 3f a2 08 ad 40 28 a7 62 40 65 20 30 40
       0.96190417 5.407304 3.5414524 2.7519772
000380 ec 57 0d 40 10 00 19 c0 15 d9 16 40 71 29 d8 3f
       2.2084913 -2.3906288 2.3569996 1.6887647
000390 b8 7a 31 40 3f 3c dd 3f 0e 3f 0d c0 16 ae 07 c0
       2.7731152 1.7284011 -2.2069736 -2.1200004
0003a0 12 14 a5 3f 10 e1 2b c0 bd ab 77 41 08 34 30 40
       1.289675 -2.6856117 15.479428 2.7531757
0003b0 3e c9 ea bc ca 27 e2 c0 e5 2e 83 c0 cf 19 41 c0
       -0.028660413 -7.067357 -4.0994744 -3.0172002
0003c0 04 28 88 3f 3c bf 17 c0 30 1d 4b 3f 62 90 7b 3f
       1.0637212 -2.371047 0.7934141 0.98267186
0003d0 5c e4 90 3f 07 ca 28 3f 2e 41 1b c0 0e 2f 14 c0
       1.131969 0.6593327 -2.4258533 -2.315372
0003e0 42 d4 35 3f 35 df 19 c0 bd 71 2c 40 e2 e7 6c 3f
       0.71027005 -2.4042485 2.694442 0.92541325
0003f0 5d 5f 5c bf 3e 3b b0 c0 4f c3 51 c0 6c d3 18 c0
       -0.8608301 -5.5072317 -3.2775457 -2.3879042
