train/checkpoints/2024-01-19_09-52-04/generator.pt (torch, 13339 bytes, 13 tensors)

_initial._model.0.weight f4 [16, 5]
0	0xbe90166b	-0.28142104
1	0xbf144f16	-0.57933176
2	0xbf428c83	-0.75995654
3	0xbed329e4	-0.41242898
4	0xbf87fec4	-1.0624623
5	0xbf741b88	-0.9535451
6	0xbf3455b1	-0.70443255
7	0xbe9dcb26	-0.30819052
8	0x3d40c96d	0.047067095
9	0x3e8123f2	0.25222737
10	0x3f071aca	0.5277525
11	0xbf6d6cd7	-0.927442
12	0xbf882ec9	-1.0639278
13	0xbf7172b3	-0.9431564
14	0x3f802b1e	1.0013158
15	0x3f13c91e	0.57728755
16	0xbe010230	-0.1259849
17	0xbccdc0e8	-0.025116399
18	0xbf843ccc	-1.0331054
19	0x3f1eb245	0.6199077
20	0xbf9d1409	-1.2271739
21	0x3ee7b5cd	0.4525589
22	0x3fa1f3db	1.2652544
23	0x3d8ac442	0.067757145
24	0xbe21c4f2	-0.15797785
25	0x3e9cf6a8	0.30656934
26	0xbf66f79d	-0.9022158
27	0x3f319a8f	0.6937646
28	0xbf641493	-0.89093894
29	0x3e9c8966	0.30573577
30	0x3ea43742	0.32073408
31	0x3f377981	0.71669775
32	0x3ede213b	0.43384728
33	0xbdd0f040	-0.10202074
34	0x3f1bebfc	0.6090696
35	0x3e2c2fa4	0.16815048
36	0xbed3c343	-0.4135991
37	0x3f18ecfb	0.59736603
38	0x3f76ff6b	0.96483487
39	0xbec63be7	-0.38717577
40	0xbf1480a3	-0.58008784
41	0x3e2644f0	0.16237235
42	0x3f81af2b	1.0131582
43	0xbea517f5	-0.3224484
44	0x3f9043fa	1.1270745
45	0xbf9cfa36	-1.2263858
46	0x3e9e6a7c	0.30940616
47	0x3f66d348	0.9016614
48	0x3f2a960f	0.6663522
49	0x3f829fcd	1.0205017
50	0x3f0fb782	0.56139386
51	0xbf9768aa	-1.1828816
52	0x3ea4cc41	0.32187083
53	0xbfa47435	-1.2847964
54	0xbeef49a8	-0.46735883
55	0x3e18f18f	0.14935897
56	0x3f022460	0.50836754
57	0xbf91f87a	-1.1403954
58	0xbecf2a48	-0.40461946
59	0xbee0a0ac	-0.43872583
60	0x3e94979c	0.2902192
61	0x3e9ca15e	0.30591863
62	0xbf8f0a5e	-1.1175039
63	0x3e3f3025	0.1867071
64	0x3e8b82dc	0.27248275
65	0x3dea3901	0.11436654
66	0xbf86ac97	-1.052142
67	0xbf88e8ea	-1.069608
68	0xbf730e28	-0.94943476
69	0x3f155a1e	0.5834063
70	0x3efe74e7	0.49698564
71	0x3f0d5130	0.5520201
72	0x3d9dfe54	0.07714525
73	0xbdff89e7	-0.12477475
74	0x3d99dc3d	0.0751271
75	0xbd5a1323	-0.053240906
76	0xbf6fdeb8	-0.93699217
77	0x3f8e1b93	1.1102165
78	0x3f58564a	0.84506667
79	0xbdf109cb	-0.11769446

_initial._model.0.bias f4 [16]
0	0x3efc65aa	0.49296314
1	0xbf19f84d	-0.601445
2	0xbe1da2bf	-0.15394114
3	0xbf634b46	-0.88786733
4	0x3f72cf01	0.9484711
5	0x3e9065b1	0.28202584
6	0xbf89444c	-1.0723968
7	0xbe51ee45	-0.20501049
8	0x3f99bc38	1.2010565
9	0x3f103ede	0.5634593
10	0xbe8555ea	-0.2604211
11	0xbe5ba8ce	-0.21451113
12	0xbe16b186	-0.14716157
13	0x3f42e648	0.7613263
14	0x3dc57cd0	0.09642947
15	0x3f90a40a	1.1300061

_initial._model.2.weight f4 [16, 16]
0	0x3ed46c2d	0.41488782
1	0x3e23a266	0.15979919
2	0xbd3244c3	-0.043522608
3	0x3e9cd0a4	0.3062793
4	0x3f0467a7	0.5172066
5	0xbd400966	-0.046883963
6	0xbca685e6	-0.02032752
7	0xbe4c9a7e	-0.19980809
8	0xbe04a78d	-0.1295454
9	0xbf15037d	-0.5820845
10	0xbe04d93e	-0.12973496
11	0x3e62803b	0.22119229
12	0xbe6cb591	-0.23116137
13	0x3ec35c61	0.38156417
14	0x3e1ce324	0.15321022
15	0xbeefd600	-0.46842957
16	0x3f02f660	0.5115719
17	0x3f1e968a	0.61948454
18	0x3d884014	0.06652847
19	0xbf0d1b8b	-0.5512015
20	0xbf0b4d37	-0.54414696
21	0x3f11369e	0.56723964
22	0x3e799d34	0.24376374
23	0xbef7cb71	-0.483974
24	0xbf0186b5	-0.5059617
25	0xbe98f65a	-0.2987545
26	0x3f2c7dbe	0.6737937
27	0xbe78cb81	-0.2429638
28	0xbef7e30e	-0.48415416
29	0x3ddb44b5	0.10706464
30	0xbcc78d18	-0.02435927
31	0x3ee59da5	0.44846836
32	0x3e632541	0.2218218
33	0xbedbd3b4	-0.42934954
34	0x3edbfb13	0.42964992
35	0xbedb4338	-0.4282472
36	0x3e2368f0	0.15957999
37	0x3edc43b6	0.4302041
38	0x3c0895b3	0.008336472
39	0x3f2f92ae	0.6858319
40	0xbe838f63	-0.25695333
41	0xbef54960	-0.47907543
42	0x3ebe3f24	0.37157547
43	0xbebd53e0	-0.36978054
44	0xbe2ac670	-0.1667726
45	0x3e2e1996	0.17001948
46	0x3eb52798	0.3538177
47	0x3f43b6b2	0.76450646
48	0x3e3f38e0	0.1867404
49	0xbe2b1f84	-0.16711241
50	0xbe05a9dd	-0.13053079
51	0xbe5a1368	-0.21296465
52	0x3eea52f3	0.4576641
53	0x3ee1957b	0.44059357
54	0xbf1f651a	-0.62263644
55	0x3eb6ddbd	0.35716048
56	0x3efc92bc	0.493307
57	0xbde43dfa	-0.111446336
58	0x3ed796e6	0.42107314
59	0xbf0906e3	-0.53526133
60	0xbb28d606	-0.0025762334
61	0x3f0d918b	0.55300206
62	0xbe7afa66	-0.24509582
63	0xbecb39ec	-0.39692628
64	0xbf243902	-0.64149487
65	0xbe05e3fa	-0.13075247
66	0x3ea5db72	0.32393986
67	0xbe68013c	-0.22656721
68	0x3ded22cc	0.115789026
69	0xbf084bfc	-0.5324094
70	0xbeb4ba97	-0.35298607
71	0x3eb1fb87	0.34762213
72	0xbef29f4a	-0.47387153
73	0x3f25fe75	0.64841396
74	0x3f1fc49c	0.6240938
75	0x3e34816d	0.17627497
76	0x3f0f50d1	0.5598269
77	0xbea86de5	-0.32896343
78	0x3de3acc1	0.111169346
79	0xbeb7fe22	-0.35936075
80	0xbf08f536	-0.5349916
81	0xbef9cb7a	-0.48788053
82	0x3f1d0fe2	0.6135236
83	0xbde2d82f	-0.1107639
84	0xbf121d35	-0.57075816
85	0x3ecfd9c4	0.4059583
86	0x3e9a0f67	0.30089876
87	0x3f118d72	0.56856453
88	0x3f23f0e4	0.64039445
89	0xbf2caa30	-0.67447186
90	0xbd72f9f1	-0.059320394
91	0xbe72d914	-0.23715621
92	0xbf145a93	-0.57950705
93	0x3e958886	0.29205722
94	0x3e761d8d	0.2403471
95	0x3f12f9a3	0.57412165
96	0x3f11ee35	0.570041
97	0x3eb8df05	0.3610765
98	0xbdceebe9	-0.1010359
99	0x3e272e1f	0.16326188
100	0x3f258bb4	0.64666295
101	0x3e1e19ba	0.15439501
102	0x3d127508	0.03575614
103	0x3e2c99b4	0.16855508
104	0xbcbcb7b0	-0.023036808
105	0x3eedd6b9	0.46452883
106	0xbef8a93a	-0.4856661
107	0xbbbbcab2	-0.0057309503
108	0xbdfbd7a2	-0.12296988
109	0x3e3c5877	0.18393122
110	0x3f1288c9	0.5723997
111	0xbef37494	-0.4754988
112	0x3e519f2f	0.2047088
113	0x3eb7177d	0.35760108
114	0x3eb3096b	0.34968123
115	0xbf15188e	-0.5824059
116	0xbedd74e4	-0.43253243
117	0x3e141dea	0.14464536
118	0xbcab140e	-0.020883586
119	0xbe020a55	-0.12699254
120	0xbdfcaf62	-0.12338139
121	0x3e0e5be1	0.13902237
122	0xbd079d25	-0.03310885
123	0x3dca42bf	0.09876012
124	0xbe745665	-0.23861082
125	0xbf3deef7	-0.74192756
126	0x3ea31859	0.31854513
127	0xbdb5782d	-0.08860812
128	0x3f032b22	0.5123769
129	0xbef9af77	-0.48766682
130	0x3e74f717	0.23922382
131	0x3edc1762	0.4298659
132	0xbeb39e43	-0.35081682
133	0x3e57d130	0.21075892
134	0xbec52e70	-0.38511992
135	0xbf059140	-0.5217476
136	0xbeff7e58	-0.4990108
137	0x3ec043ca	0.3755172
138	0xbf039f5a	-0.51415026
139	0x3eef8813	0.46783504
140	0x3ec8ecdb	0.39243206
141	0x3ea5dc69	0.32394722
142	0x3f272cbe	0.65302646
143	0xbf0f1f0f	-0.55906767
144	0x3e92ffae	0.28710693
145	0xbe93d7d2	-0.28875595
146	0xbe9a1182	-0.30091482
147	0xbc098dcd	-0.008395624
148	0x3f3a72d8	0.7283149
149	0x3f02a513	0.51033133
150	0xbf0f1a5b	-0.5589959
151	0x3eaf925e	0.34291357
152	0x3ebbe2cf	0.3669648
153	0xbeac20c2	-0.33618742
154	0xbeb0d72b	-0.3453916
155	0xbee974d2	-0.4559694
156	0x3a770b9a	0.0009424031
157	0xbe5fe996	-0.2186645
158	0x3e0a1e25	0.13488062
159	0x3eed8caf	0.46396396
160	0xbcd41f2a	-0.025893766
161	0x3ea9ca47	0.33162138
162	0x3d681ce1	0.056668166
163	0x3eda4efe	0.4263839
164	0x3d5b9e8b	0.053617995
165	0xbe1672c9	-0.14692225
166	0xbdd2935b	-0.10282012
167	0x3e4d47e1	0.20046951
168	0x3e16b32c	0.14716786
169	0xbf16d2da	-0.58915484
170	0xbecc989e	-0.39960188
171	0x3e7a08ca	0.24417415
172	0xbf1a9b4e	-0.60393226
173	0x3ec912b9	0.39272097
174	0x3d2dce12	0.042432852
175	0x3e83f934	0.25776064
176	0xbe7eaf51	-0.24871565
177	0x3f07b79f	0.5301456
178	0xbd9b2512	-0.0757543
179	0x3efada41	0.4899464
180	0xbeae4eb7	-0.3404443
181	0xbee9afbe	-0.45641893
182	0xbf0dadf8	-0.5534358
183	0x3edcbb89	0.43111828
184	0xbe62309b	-0.22088854
185	0xbf26ea2f	-0.65201086
186	0x3e8d0133	0.27539977
187	0xbf2dbaeb	-0.6786334
188	0x3e2306a6	0.15920505
189	0xbf0f5796	-0.5599302
190	0x3eda6b97	0.4266021
191	0x3e6de4e0	0.2323184
192	0xbed223f0	-0.41043043
193	0x3f1571ef	0.58376974
194	0x3e1c1757	0.15243278
195	0xbee35c0b	-0.4440616
196	0xbf30b2c8	-0.690228
197	0x3f183e30	0.5946989
198	0x3ee77db3	0.45213088
199	0x3e95e5f5	0.29277006
200	0x3e8ff809	0.28118923
201	0xbf22084d	-0.63293916
202	0x3db60b6c	0.08888897
203	0xbf2967c2	-0.66173947
204	0x3eb955f4	0.3619839
205	0xbf0c0758	-0.54698706
206	0x3f25aa91	0.6471339
207	0xbedf5fc1	-0.43627742
208	0xbd1d35ce	-0.03838139
209	0xbe216e7d	-0.15764804
210	0x3ea0e8ea	0.314277
211	0xbf22bddd	-0.6357096
212	0x3e103676	0.14083275
213	0x3eed9b70	0.46407652
214	0x3e09fd61	0.13475563
215	0x3dc9d2aa	0.09854634
216	0x3ebd47ac	0.36968744
217	0xbf07e21e	-0.530794
218	0x3ee23792	0.44183022
219	0x3ea9aac3	0.33138093
220	0xbf033627	-0.51254505
221	0xbf064104	-0.52442956
222	0xbd2f7496	-0.042835794
223	0xbd250cff	-0.040295597
224	0x3e360ae9	0.177776
225	0xbd6c6a2f	-0.057718452
226	0x3d947b9b	0.07250138
227	0x3de74824	0.112930566
228	0x3d5b3f9b	0.053527456
229	0xbe4f660f	-0.20253776
230	0xbe68feb4	-0.22753412
231	0xbcac3b35	-0.021024326
232	0xbe8e1f70	-0.2775836
233	0xbf1355e9	-0.57552963
234	0x3f220858	0.6329398
235	0xbf2a1e0c	-0.664521
236	0x3f0a4403	0.5401003
237	0x3ee564ce	0.4480347
238	0x3f04ed58	0.5192466
239	0x3ef863f0	0.48513746
240	0x3f160844	0.5860636
241	0x3e916a8d	0.28401604
242	0x3e9b749e	0.3036241
243	0x3f17812b	0.5918147
244	0x3edccafd	0.43123618
245	0x3dffd7c1	0.12492324
246	0xbdea9c14	-0.11455551
247	0xbf17168d	-0.59018785
248	0x3f04e996	0.51918924
249	0xbeb995b0	-0.36247015
250	0x3f136de1	0.57589537
251	0x3d8348b6	0.06410353
252	0xbe8b6d61	-0.27231887
253	0x3f2a927d	0.66629773
254	0xbe95b1c2	-0.2923718
255	0x3e2d3711	0.16915537

_initial._model.2.bias f4 [16]
0	0xbf00daba	-0.5033375
1	0xbf0fb5a6	-0.5613655
2	0xbe7159f8	-0.23569477
3	0x3b2e10cb	0.0026560302
4	0x3f168fd8	0.5881324
5	0xbe8872a3	-0.2664996
6	0xbf097695	-0.53696567
7	0x3ea782e2	0.32717043
8	0xbe50920d	-0.20368214
9	0xbf219fb2	-0.631343
10	0xbb030c7b	-0.0019996453
11	0xbf304e25	-0.6886924
12	0x3f1d1be2	0.6137067
13	0x3ec7385e	0.38910192
14	0xbd727873	-0.0591969
15	0x3e9b1ebf	0.30296895

_func._drift._model.0.weight f4 [16, 17]
0	0x3ad08b32	0.0015910624
1	0x38a6cad3	7.953276e-05
2	0x3ad2ce23	0.0016083162
3	0xba3b754e	-0.00071509636
4	0xb905621b	-0.00012720416
5	0x3a5f5825	0.00085199095
6	0x3a51bd0e	0.00080008886
7	0xbaf5d8a3	-0.0018756579
8	0x3b2ee766	0.0026688217
9	0x3a038d94	0.000501835
10	0x3b3195bc	0.0027097305
11	0xbb35e298	-0.0027753469
12	0xbb801dea	-0.003909816
13	0xb98c16ef	-0.00026719968
14	0x3b27923a	0.0025569336
15	0x39fc28cc	0.00048095582
16	0xbb677d64	-0.0035322541
17	0xbb5535c3	-0.0032533265
18	0x3b91fe2b	0.004455348
19	0xbb4d14d6	-0.0031292937
20	0xbb0babfb	-0.0021312225
21	0xb9b2b67e	-0.00034086773
22	0x3b5eb4c1	0.003398225
23	0xbb8caa71	-0.004292779
24	0xbb1052e9	-0.0022022075
25	0x383cc1f2	4.500332e-05
26	0x3aae37ec	0.0013291813
27	0xbb82340d	-0.00397349
28	0xbb89ba0b	-0.0042030863
29	0x3b881b61	0.0041536544
30	0x3b5de52f	0.0033858528
31	0x3b424c4e	0.0029647532
32	0x3ade8e03	0.0016979579
33	0xba0cd957	-0.00053729623
34	0x3b637b5d	0.0034710981
35	0x381f956f	3.8047725e-05
36	0x3b094c5c	0.0020950055
37	0x3aa45e90	0.0012540389
38	0x3b4507bb	0.0030064422
39	0x3919ac0b	0.00014655308
40	0xbb093309	-0.002093496
41	0x3abc5ead	0.0014371477
42	0x3b91b03d	0.004446058
43	0x398c9a51	0.00026817856
44	0xbb8ee051	-0.0043602367
45	0xbb822e01	-0.0039727692
46	0xba814d79	-0.0009865008
47	0xbae92413	-0.001778724
48	0x3b6adb6e	0.0035836357
49	0x3b45abf7	0.0030162313
50	0xbb6d11f2	-0.0036174026
51	0xbb4fba9e	-0.0031696926
52	0xbb4eb7aa	-0.0031542578
53	0x3a8016bc	0.00097724
54	0xbb861f7a	-0.004093108
55	0xba4b5c3e	-0.00077575806
56	0x3b3af2e4	0.0028526122
57	0x3b878e6f	0.0041368525
58	0x3b785a61	0.0037895667
59	0xbb0ce7f7	-0.0021500567
60	0xbb3b3d57	-0.0028570497
61	0x3b7238f4	0.0036960216
62	0xba906c16	-0.001101854
63	0xbb8c3f89	-0.004280035
64	0xb96d6887	-0.00022641021
65	0xbb59156b	-0.0033124338
66	0xbb39ef21	-0.0028371292
67	0x3b7ea1fa	0.003885387
68	0x3b1fd937	0.0024390945
69	0x3ad00806	0.0015871532
70	0xbb82c339	-0.0039905575
71	0xbb690adf	-0.0035559458
72	0xbb63d0a9	-0.0034761822
73	0x3b851eed	0.0040625245
74	0xbac4e68c	-0.0015022322
75	0x39e3752c	0.00043384114
76	0xba767c3a	-0.00094026665
77	0xba5be174	-0.0008387782
78	0x3b83d2c2	0.004022927
79	0x3a0deb39	0.0005413774
80	0xb92d857f	-0.00016548297
81	0xbb615581	-0.003438324
82	0x3b5e281c	0.0033898419
83	0xba22ac00	-0.00062054396
84	0x3ac16b73	0.0014756754
85	0xbb9245ca	-0.004463886
86	0x3b5403dd	0.0032350936
87	0xbb5b0223	-0.0033418022
88	0xb9cf0979	-0.00039489174
89	0xbb1bbe24	-0.0023764456
90	0x3ab14d90	0.0013527144
91	0xba922501	-0.0011149944
92	0x3b064d2b	0.0020492773
93	0x3b66d4c4	0.0035222033
94	0x39490995	0.00019172423
95	0x39e8c500	0.00044397265
96	0xbaf382c9	-0.0018578406
97	0xbb2a9a4d	-0.0026031912
98	0xbb263dea	-0.0025366494
99	0x3b03c7da	0.0020108134
100	0x3a5448c9	0.0008098004
101	0x3adde23d	0.0016928386
102	0x3b76acad	0.0037639544
103	0x36f7c7e5	7.3844444e-06
104	0x3a6c25da	0.0009008326
105	0x3ad6ff6f	0.001640303
106	0x3b3cc3ac	0.0028803153
107	0x35e14a38	1.6785407e-06
108	0x3b47caf9	0.0030485971
109	0xbacd1cd2	-0.0015648848
110	0x3a71bccf	0.0009221555
111	0x3b89802c	0.0041961875
112	0x3b5e1680	0.0033887923
113	0xbb85639a	-0.0040707113
114	0x3b85d3ad	0.0040840716
115	0xbb4a07fc	-0.0030827513
116	0xbaa5ba2e	-0.0012643987
117	0x3afd00ed	0.0019302644
118	0x3abd83c3	0.0014458824
119	0xbb552ff7	-0.003252981
120	0xbb76a2cd	-0.0037633658
121	0xbb8b4471	-0.004250102
122	0x3b56c50d	0.003277126
123	0x3b36ba98	0.0027882215
124	0xbae7eb0e	-0.0017693953
125	0xbb8f1ba7	-0.00436731
126	0x3b8408f3	0.004029387
127	0x3b7b5a2f	0.0038353314
128	0x3b16dbd4	0.0023019211
129	0xbb6fb737	-0.003657771
130	0xbb893dd7	-0.00418828
131	0xba8768a9	-0.0010330874
132	0xb922b654	-0.00015517446
133	0xb9b41281	-0.00034346062
134	0xbacc96b2	-0.0015608876
135	0xbb8503f6	-0.00405931
136	0x39e7e6a4	0.00044231594
137	0x3a432c0c	0.0007445223
138	0xb950d129	-0.00019914344
139	0xbb919276	-0.0044425083
140	0xbb155ebf	-0.0022792069
141	0x3a443b97	0.0007485686
142	0xbb914c9d	-0.004434182
143	0xbb32072e	-0.0027164924
144	0xbaa17813	-0.001231911
145	0x3a57bc19	0.0008229628
146	0x3b55c8df	0.003262095
147	0x3b494b76	0.0030715144
148	0xbb389558	-0.0028165188
149	0xba80e86c	-0.0009834892
150	0x3b566207	0.0032712237
151	0x3b6944de	0.0035594027
152	0xba6c2985	-0.00090088724
153	0xba956111	-0.0011396726
154	0x3ac802cc	0.0015259623
155	0xbb18e6bf	-0.0023330895
156	0xbb696909	-0.0035615584
157	0x3ab84529	0.0014058697
158	0xbb0e3744	-0.0021700421
159	0x39ee3055	0.00045430908
160	0x3b834717	0.0040062773
161	0x399e155f	0.0003015203
162	0xba248964	-0.00062765763
163	0xba290e2a	-0.0006448949
164	0xbb81ec45	-0.003964933
165	0xb906b8b7	-0.00012848047
166	0x3b349d18	0.0027559455
167	0xb9c9f88f	-0.00038522898
168	0x3b6f596e	0.003652181
169	0xbb835d01	-0.0040088897
170	0xbb8e6a2d	-0.0043461532
171	0xba656528	-0.000875073
172	0xbb402e5e	-0.0029324512
173	0xbb47b691	-0.0030473808
174	0xbb6e61ac	-0.0036374135
175	0x3b0717a2	0.0020613451
176	0xba5d808e	-0.0008449637
177	0xba9130a8	-0.0011077123
178	0xbb7b67df	-0.0038361473
179	0x3b4f9172	0.0031672386
180	0x3b2230f9	0.0024748428
181	0xbb6256fb	-0.0034536708
182	0x3b81a394	0.0039562676
183	0x3b2d19df	0.0026413125
184	0x38e8484b	0.00011076088
185	0xbb4f2d65	-0.003161275
186	0xb958f4e3	-0.00020690593
187	0x3b8b3561	0.0042483066
188	0x3710e201	8.6356895e-06
189	0xbb8dd29f	-0.0043280865
190	0x3b8bad27	0.0042625847
191	0xbb8fb9d6	-0.004386167
192	0xba34cfec	-0.0006897438
193	0xbb913886	-0.004431787
194	0xbb8ce53d	-0.0042997883
195	0xba63b7b3	-0.0008686736
196	0xbb8fc626	-0.004387635
197	0xbb8f2f3a	-0.0043696435
198	0xbaab1665	-0.0013052939
199	0xbae0eebf	-0.0017160996
200	0x3a7b720e	0.00095918856
201	0xbb843e56	-0.0040357513
202	0x3b6b7f97	0.0035934204
203	0xbb8cb1a7	-0.0042936387
204	0x3b450baf	0.0030066778
205	0xbb6d60e4	-0.0036221081
206	0xbb17f335	-0.0023185734
207	0x3a0a57a5	0.0005277342
208	0x3b5c6e1c	0.0033634966
209	0xbb7da211	-0.0038701335
210	0xbb1ee857	-0.0024247372
211	0x3b1b4b95	0.0023696173
212	0x3b58161f	0.003297217
213	0x3b75cda5	0.0037506607
214	0x3b5be75e	0.0033554654
215	0xb927654a	-0.00015964094
216	0xbb01ebac	-0.001982431
217	0xbb2c42bd	-0.0026284896
218	0xb98397a3	-0.00025099245
219	0x3b293bf6	0.0025823093
220	0x3b07051b	0.0020602408
221	0xb9110fcc	-0.00013834162
222	0x3acf74cc	0.0015827655
223	0xbabe6b2c	-0.0014527789
224	0x39efe528	0.00045756367
225	0xbb061c7a	-0.002046375
226	0x3b00ef71	0.0019673968
227	0xbb65c796	-0.003506159
228	0x3b4ea733	0.0031532764
229	0xb88273e5	-6.22047e-05
230	0xbb8227fe	-0.0039720526
231	0xba95664d	-0.0011398286
232	0x3b65b74a	0.0035051876
233	0x3b74c80d	0.0037350685
234	0xb6a79b7b	-4.995088e-06
235	0xbb1fcc4f	-0.0024383252
236	0x3b86cb63	0.004113601
237	0x3b874e8d	0.004129237
238	0xbb800e60	-0.0039079636
239	0xbb641a88	-0.0034805853
240	0x3a897767	0.0010487855
241	0x39075feb	0.00012910335
242	0x3b1733b9	0.00230716
243	0x3aa2a097	0.0012407479
244	0xbb0cd665	-0.0021490094
245	0x3b237307	0.0024940388
246	0xba8eae32	-0.0010885654
247	0x3ae19a87	0.001721219
248	0xbb28bdf3	-0.0025747984
249	0x3a4f5fe0	0.000791071
250	0xbb3e8d92	-0.0029076082
251	0x3b219f3c	0.0024661561
252	0xb9f1e885	-0.00046140343
253	0x3a4288e2	0.000742091
254	0x38ef2164	0.000114026276
255	0xbb0ad058	-0.0021181311

_func._drift._model.0.bias f4 [16]
0	0xbb83afb3	-0.0040187477
1	0xbb507578	-0.0031808298
2	0xbb8bb0d9	-0.0042630252
3	0x3b77ec5e	0.0037830095
4	0xbb2db02c	-0.0026502712
5	0x3aaf4046	0.0013370595
6	0xbb364467	-0.0027811767
7	0x3ac17597	0.0014759776
8	0xbb868047	-0.0041046473
9	0x39461add	0.00018892759
10	0xbb8ff288	-0.0043929256
11	0x3a2eccee	0.000666811
12	0xbb7276c5	-0.0036997062
13	0x3a081d53	0.0005192358
14	0xbaf2cd09	-0.001852424
15	0x3ae5ab54	0.0017522373

_func._drift._model.2.weight f4 [16, 16]
0	0x3a9dac40	0.0012029484
1	0xbb01f00e	-0.0019826922
2	0x39ea57cd	0.00044697375
3	0xbad1449f	-0.0015965885
4	0x3b8af421	0.004240528
5	0xbb5f0e2c	-0.0034035547
6	0xbb1135d3	-0.0022157326
7	0x3b6e5811	0.003636841
8	0xbab5c7c8	-0.0013868744
9	0xbb3046a5	-0.0026897576
10	0x3aa87278	0.0012851497
11	0x3b853d1b	0.004066122
12	0xba7fc75a	-0.0009757184
13	0x3b6f98bf	0.003655955
14	0x38f3c89a	0.00011624508
15	0x3b94337e	0.00452274
16	0x3b4c05d9	0.0031131415
17	0xbb82efb7	-0.0039958614
18	0xbb578693	-0.003288661
19	0xbb867e53	-0.0041044145
20	0x3ac1288a	0.0014736813
21	0xba3e8e4c	-0.00072691287
22	0xbb9199ba	-0.0044433745
23	0xbb8e0b79	-0.0043348637
24	0xba72299a	-0.00092377665
25	0xb9a7b1ff	-0.0003198534
26	0xb9c8bd60	-0.00038288068
27	0xbad8ba43	-0.0016535003
28	0x39402af1	0.00018326544
29	0x3b65e4c6	0.0035078987
30	0xbb32c0a5	-0.002727547
31	0xb98253fa	-0.000248581
32	0x3b53bbd3	0.0032307997
33	0x3aee8ba3	0.0018199574
34	0x391e9921	0.00015125099
35	0x3b5f51c3	0.0034075833
36	0xbaac9085	-0.0013165629
37	0xba9594e1	-0.0011412167
38	0x3b8e3d7f	0.004340827
39	0x3b3789a1	0.0028005617
40	0x39970e67	0.00028811695
41	0xbaac0b31	-0.0013125894
42	0xbb96df95	-0.00460429
43	0x3a2037e1	0.0006111842
44	0xbb272903	-0.0025506623
45	0xbb405d96	-0.0029352657
46	0xb89c8846	-7.4640426e-05
47	0xbab2b74d	-0.001363495
48	0x3b92a834	0.004475618
49	0xbb2a5b7b	-0.0025994468
50	0xbb882673	-0.004154974
51	0x3ade5dde	0.001696523
52	0xb94b6138	-0.00019395805
53	0xba9882cf	-0.0011635664
54	0x3b8be613	0.0042693703
55	0xbb4832aa	-0.0030547776
56	0x3aa5fb75	0.0012663441
57	0x3b0ccba1	0.0021483677
58	0xbb1e535f	-0.002415858
59	0xbb29ca0e	-0.0025907787
60	0x3998d345	0.00029149107
61	0x3b87be09	0.004142527
62	0xbb90420b	-0.004402404
63	0x3b526cb5	0.0032108251
64	0xbb7eee58	-0.0038899388
65	0x3b62c028	0.0034599397
66	0xbb8351cb	-0.004007553
67	0x3b263258	0.0025359597
68	0x3b3d945f	0.0028927547
69	0xb8dd0fe0	-0.00010541058
70	0xbb83287d	-0.0040026293
71	0xba7f86fc	-0.0009747592
72	0x3b8458c4	0.004038902
73	0x39c78453	0.00038054827
74	0xba904bab	-0.0011008879
75	0x3b426b7d	0.0029666119
76	0xbb84dde9	-0.004054774
77	0xbb6e9ab5	-0.003640813
78	0xbb6a4d39	-0.0035751595
79	0x392cfd52	0.00016497567
80	0xbb604acb	-0.0034224268
81	0x3ace58e0	0.001574304
82	0x39ded095	0.00042498545
83	0x3b6cf9d7	0.0036159658
84	0x3b4b28dd	0.0030999698
85	0x3b0da91a	0.0021615685
86	0xbb3c637b	-0.0028745818
87	0x3b0f6ebe	0.0021886076
88	0xbb8d258c	-0.0043074545
89	0x3b00d88d	0.0019660324
90	0xb907358b	-0.0001289455
91	0xbb89e57f	-0.0042082663
92	0x3b4fe074	0.0031719478
93	0xbb096786	-0.0020966246
94	0xb988553d	-0.0002600345
95	0x3b2f2ed8	0.0026730802
96	0x3b209e95	0.0024508585
97	0xba6017b4	-0.0008548454
98	0x3b0ccd47	0.002148466
99	0x3a25b75e	0.00063215743
100	0x3b08c4eb	0.0020869325
101	0xbb6cbef5	-0.0036124561
102	0x3b534ce3	0.0032241873
103	0xbb2273b0	-0.0024788193
104	0x39f7162f	0.0004712804
105	0x3aeba8ed	0.0017979421
106	0x3a43709a	0.00074554386
107	0xbb068fbf	-0.0020532457
108	0x3b27a07e	0.0025577839
109	0x3b85a619	0.0040786383
110	0x3a83e23c	0.001006193
111	0x3afc0f5d	0.0019230653
112	0xbb8e02af	-0.004333816
113	0xbb374f43	-0.0027970828
114	0x3b068aea	0.0020529577
115	0x3b0326f8	0.002001224
116	0x3b806760	0.0039185733
117	0xbaeedef7	-0.0018224408
118	0xbaae2139	-0.0013285048
119	0xbb82d603	-0.0039927973
120	0x395c622e	0.0002101741
121	0x3b60d5ab	0.0034307044
122	0xbb42e270	-0.0029737018
123	0xba776bef	-0.00094383856
124	0x3adc41e5	0.0016804306
125	0x3ac88feb	0.001530168
126	0x3a37ac18	0.000700654
127	0xbb208c6c	-0.002449776
128	0x3b4305d5	0.0029758115
129	0x3aca3374	0.0015426711
130	0x3b90b7b2	0.0044164294
131	0x3af6c9af	0.0018828417
132	0xba12e2ee	-0.0005603273
133	0xbb769fad	-0.0037631795
134	0xbb578c7b	-0.003289013
135	0xbb861559	-0.0040919003
136	0xba0f50e8	-0.0005467073
137	0x3b7f0bf0	0.0038917027
138	0xb9bdc697	-0.0003619685
139	0xbb77ac8d	-0.0037792057
140	0xbb3433d9	-0.0027496724
141	0xbb7804cd	-0.0037844658
142	0xbaa4c0ab	-0.0012569627
143	0x3a0bfdf7	0.0005340273
144	0xbb1e0b78	-0.0024115723
145	0xba0c6565	-0.0005355685
146	0x3a13a96c	0.0005632851
147	0xbb57699f	-0.0032869352
148	0x3b887909	0.004164819
149	0xbb562a23	-0.0032678924
150	0xbb84df5b	-0.0040549464
151	0xbb503cd5	-0.003177454
152	0xbb74a605	-0.00373304
153	0x3b30609c	0.0026913052
154	0x3b8730a7	0.004125673
155	0x3b4dfbd0	0.003143061
156	0xb7381770	-1.0972712e-05
157	0x3b925f1e	0.0044669053
158	0xbb95c29a	-0.0045703175
159	0x3aca3b08	0.001542897
160	0xbaf00b62	-0.0018313939
161	0x3ad7f18b	0.0016475184
162	0x3b350a98	0.0027624723
163	0xbb10ccd4	-0.0022094743
164	0x3b9179f6	0.0044395877
165	0xbb96f412	-0.004606732
166	0x3b819ed7	0.0039557028
167	0x3aaf3dab	0.0013369819
168	0xbb0c3a8c	-0.0021397201
169	0x3b848e35	0.0040452727
170	0x3b104918	0.0022016224
171	0xbb9621ea	-0.0045816796
172	0x3a7de27e	0.0009684934
173	0x3ad01d3b	0.0015877852
174	0x3b7e3c03	0.0038793094
175	0x3b6f7316	0.0036537102
176	0xbb4f723d	-0.0031653785
177	0x3b835030	0.004007362
178	0xbab4c490	-0.001379149
179	0xbb057ae0	-0.0020367429
180	0x3b967a19	0.004592192
181	0x3a6dc777	0.0009070555
182	0xbacff176	-0.0015864808
183	0x38ba1611	8.873281e-05
184	0xbb86438b	-0.004097407
185	0xbb7b42ca	-0.003833937
186	0xbb60c675	-0.0034297977
187	0xbb003113	-0.00195605
188	0xba0a5e77	-0.00052783586
189	0xbb625e8a	-0.0034541213
190	0x3b8c69bd	0.004285066
191	0x3b771a65	0.0037704941
192	0x3a443ef1	0.00074861856
193	0x3b5d6680	0.0033783019
194	0x3a86cf61	0.0010285192
195	0x3a92c9fe	0.0011199114
196	0x3841fd02	4.6250418e-05
197	0xbb2adf3f	-0.0026073006
198	0x3b318717	0.0027088576
199	0xbb08c70c	-0.0020870594
200	0x3b706bed	0.0036685423
201	0x3b1f1b13	0.0024277612
202	0xbb5892c3	-0.0033046461
203	0x3b006c33	0.0019595742
204	0x3a59b66a	0.0008305075
205	0x3a1e8181	0.0006046519
206	0xb9bcc55d	-0.000360052
207	0x3ac4ca27	0.0015013859
208	0x3a00151e	0.0004885959
209	0xbb9328f5	-0.0044909664
210	0x3b434132	0.0029793498
211	0xbb5d40c5	-0.003376053
212	0xbb1e5102	-0.002415717
213	0xb9c20e21	-0.0003701309
214	0x3b6a3aac	0.0035740538
215	0x3b287a6e	0.002570774
216	0xbb63a93c	-0.0034738323
217	0x3b1c8d00	0.0023887753
218	0xbb0874b3	-0.0020821511
219	0xbaa615f1	-0.0012671334
220	0x3818bc1f	3.6414825e-05
221	0xba87f543	-0.0010372776
222	0x3b86d181	0.0041143303
223	0x3b15b5cb	0.0022843953
224	0xbaf82a56	-0.0018933516
225	0x3b7c235e	0.003847323
226	0x3b820360	0.0039676875
227	0xbb7a3996	-0.0038181297
228	0x3b91ea38	0.00445297
229	0x39a41efe	0.0003130361
230	0x3b85a7d1	0.004078843
231	0xbb161907	-0.00229031
232	0x3b1df549	0.00241025
233	0x3b3446bb	0.002750798
234	0x3b731a3e	0.00370945
235	0x3a04e6f2	0.0005069814
236	0x3a15122d	0.00056866073
237	0x3b8222eb	0.0039714477
238	0xbb004342	-0.0019571339
239	0x3b6d9f9e	0.003625847
240	0x3ae7c3b2	0.0017682223
241	0x3b12c902	0.0022397642
242	0xbb598dae	-0.003319602
243	0xbad7b911	-0.0016458352
244	0xba9e288b	-0.0012066526
245	0x398b9d5b	0.00026629385
246	0xbb816aa4	-0.00394948
247	0x3b8823c7	0.0041546556
248	0x3b8b1c79	0.0042453376
249	0xbb78b94f	-0.003795225
250	0xb9e65eb3	-0.00043939575
251	0x3b5ed19a	0.0033999444
252	0xbaeeafad	-0.0018210314
253	0x3b32067d	0.0027164512
254	0xbb5e117d	-0.0033884936
255	0xbb38ae1e	-0.0028179954

_func._drift._model.2.bias f4 [16]
0	0xbb1a5431	-0.0023548717
1	0x3b8a0a05	0.00421262
2	0x3b86b933	0.004111433
3	0x39d64ae1	0.0004087305
4	0xba6db8bb	-0.00090683595
5	0x3a344858	0.0006877235
6	0xb98d534c	-0.00026955677
7	0xbb22704d	-0.0024786175
8	0xbb36cd37	-0.0027893314
9	0x3b545e5d	0.0032404878
10	0x3b3cfe73	0.0028838187
11	0x3ab111d8	0.0013509346
12	0x3b1f765a	0.0024332018
13	0x3a2879f9	0.0006426867
14	0x3b916ef0	0.0044382736
15	0xbb90fe80	-0.00442487

_func._diffusion._model.0.weight f4 [16, 17]
0	0xbe576d7c	-0.21037859
1	0x3dcc0f3e	0.09963845
2	0x3de9b987	0.1141234
3	0xbda66939	-0.081255384
4	0x3db1fe96	0.086911365
5	0x3d095bed	0.033534933
6	0x3c80a544	0.015703805
7	0x3ca80daf	0.020514337
8	0x3dd3baa2	0.10338332
9	0x3dc3205f	0.09527659
10	0x3e193150	0.14960217
11	0xbd45af29	-0.04826275
12	0x3e3a0261	0.1816497
13	0x3ceead89	0.029135482
14	0x3dcdb7e6	0.100448415
15	0x3d1ffd02	0.039059646
16	0x3d8d2d5b	0.068934165
17	0x3e32df91	0.17468096
18	0x3dda8b47	0.10671096
19	0x3ceae78e	0.028674867
20	0x3c288c4a	0.010287354
21	0x3cc19b57	0.023633642
22	0x3d02bc5b	0.03191791
23	0x3d0cd811	0.034385744
24	0xbdb0a028	-0.086242974
25	0x3d4907a8	0.049079567
26	0xbcdf2c64	-0.027242847
27	0x3d8637a8	0.06553584
28	0xbd5a902c	-0.05336015
29	0x3d830724	0.06397846
30	0xbc5e0a53	-0.013552266
31	0x3da1763a	0.07883878
32	0xbc692701	-0.014230491
33	0x3dc2d458	0.095131576
34	0xbdbb23eb	-0.0913771
35	0x3e2b5721	0.16732456
36	0x3d777979	0.06041858
37	0xbc7ac058	-0.015304647
38	0x3e056f39	0.1303071
39	0xbd0a4004	-0.033752456
40	0x3c7c6136	0.015404036
41	0x3e0e13bc	0.13874716
42	0x3e454403	0.19264226
43	0x3c108817	0.008821509
44	0x3d535f79	0.05160472
45	0x3e126deb	0.14299743
46	0x3e10a598	0.14125669
47	0x3e1098f6	0.1412085
48	0x3c951551	0.018198641
49	0xbb80279f	-0.003910973
50	0xbda4cf46	-0.08047347
51	0xbdf2773e	-0.1183915
52	0x3e089f7c	0.13342088
53	0x3dcf9a88	0.10136896
54	0xbd5219ea	-0.051294245
55	0x3d92ca6b	0.071675144
56	0x3d5abc03	0.05340196
57	0x3d013868	0.031547934
58	0x3d9d3707	0.07676511
59	0x3e019f3c	0.126584
60	0x3e02b2da	0.12763539
61	0x3dfe7eba	0.12426515
62	0x3e11b942	0.14230826
63	0x3e534c36	0.20634541
64	0x3db5199d	0.08842776
65	0x3de59381	0.11209775
66	0x3da73be3	0.08165719
67	0xbbe22395	-0.0069012144
68	0x3ec2931a	0.38002855
69	0xbd43f593	-0.04784162
70	0xbe22981b	-0.15878336
71	0x3c50db57	0.012747607
72	0x3d7be3a9	0.06149641
73	0x3d3632a4	0.04448189
74	0x3e136f23	0.14397864
75	0x3d8910bc	0.06692645
76	0xbdd94be0	-0.10610175
77	0xbcc68a9f	-0.024236022
78	0x3d3a30d6	0.04545673
79	0xbd236a38	-0.03989622
80	0xbe573851	-0.21017577
81	0xbdef200a	-0.11676033
82	0x3ded898c	0.115985006
83	0x3d535d40	0.051602602
84	0x3e50ea6c	0.20401925
85	0x3e8c0ffe	0.2735595
86	0xbd0d1897	-0.03444728
87	0x3d3a16d7	0.045431938
88	0x3dea2c6d	0.11434255
89	0x3c9c78a8	0.019100502
90	0x3e2914b9	0.16511811
91	0xbd62bb96	-0.055354677
92	0x3e37aeba	0.17937747
93	0xbdd074d0	-0.1017853
94	0xbde3c5b7	-0.111216955
95	0x3dd24d6a	0.10268672
96	0x3cb73bad	0.022367323
97	0xbe2c33ff	-0.1681671
98	0xbd4d37cc	-0.05010204
99	0xbba43902	-0.0050116787
100	0x3c573713	0.013135689
101	0x3e56d041	0.2097788
102	0xbd94d92d	-0.072679855
103	0x3dc97d2d	0.098383285
104	0x3dda5d3b	0.106623136
105	0x3dc0b2a8	0.09409076
106	0xbd5893bc	-0.052875265
107	0x3dfdc3ff	0.12390899
108	0x3dcf610e	0.101259336
109	0xbc08e6d4	-0.008355815
110	0x3e2cd632	0.16878584
111	0x3d036664	0.03208007
112	0x3de6c2c8	0.1126762
113	0xbbbf9524	-0.0058466364
114	0x3e1cb353	0.15302782
115	0x3cc0589d	0.023479754
116	0x3e08b57f	0.13350485
117	0xbd95e00f	-0.073181264
118	0x3dcbada9	0.099452324
119	0xbe3abc36	-0.1823586
120	0x3dd9a18a	0.10626514
121	0x3dc3e04d	0.09564266
122	0x3dcf965c	0.10136101
123	0x3d63fd2a	0.055661358
124	0x3de173e3	0.11008432
125	0x3db5783a	0.08860822
126	0x3d40ab30	0.047038257
127	0x3e6a8544	0.229024
128	0x3de42594	0.1113998
129	0x3d8f8bb2	0.07009067
130	0xbc9115cb	-0.017710587
131	0x3d9b2c4a	0.07576807
132	0x3d801b13	0.06255164
133	0xbd777bd4	-0.060420826
134	0xbc8c9c8c	-0.017164491
135	0xbbad0078	-0.005279597
136	0xbd9b3a53	-0.07579484
137	0x3c33ae56	0.010966858
138	0xbc36f323	-0.011166367
139	0xbe26b5cb	-0.16280286
140	0xbcfec7ea	-0.031101186
141	0xbe4ae08a	-0.19812217
142	0xbd29704d	-0.041366864
143	0xbe303842	-0.1720896
144	0xbde6011e	-0.11230682
145	0xbd1e9562	-0.03871668
146	0xbd40cb73	-0.047069024
147	0xbd2854eb	-0.04109661
148	0x3c9f57f2	0.019451115
149	0x3c8f0635	0.017459014
150	0xbabe51a2	-0.0014520178
151	0x3ca6d030	0.020362943
152	0xbe2e8316	-0.17042193
153	0x3ecf837a	0.40529996
154	0xbdd72eab	-0.10506948
155	0xbd68cfed	-0.05683892
156	0x3adad97a	0.0016696893
157	0x3e032b34	0.1280945
158	0x3d5f6966	0.054543875
159	0xbd66dd45	-0.056363363
160	0x3dc12289	0.09430415
161	0x3c0e7c9c	0.008696701
162	0xbcc6f57c	-0.024286978
163	0xbbe239ee	-0.0069038784
164	0x3cd34dae	0.025793876
165	0xbdf052fb	-0.11734577
166	0xbd3bfa4a	-0.04589299
167	0x3e189609	0.14900984
168	0xbd8498ce	-0.06474458
169	0x3dff024e	0.124516115
170	0x3e47943a	0.19490138
171	0xbe29dee6	-0.16588935
172	0x3d7dc67c	0.061956868
173	0x3e2312d9	0.15925159
174	0x3e566326	0.2093626
175	0xbd0987f4	-0.03357692
176	0xbc160acb	-0.009157847
177	0x3d9bf055	0.07614199
178	0xbdaaf3cc	-0.08347282
179	0x3d8dea5d	0.06929467
180	0xbbd304c1	-0.0064397757
181	0x3df2edb4	0.118617445
182	0xbe1bf94a	-0.15231815
183	0xbe324a6a	-0.17411199
184	0x3adaa72e	0.0016681904
185	0x3d76b305	0.06022932
186	0x3e00d605	0.12581642
187	0xbd8197e3	-0.06327798
188	0xbda27b29	-0.07933647
189	0x3d38e062	0.045135863
190	0xbe0d9fab	-0.1383044
191	0xbe581721	-0.21102573
192	0xbdb511e4	-0.08841303
193	0x3d126753	0.03574307
194	0xbe07f498	-0.13276899
195	0xbd90e9f3	-0.07075872
196	0xbd77447c	-0.060368046
197	0xbe0779c6	-0.13230047
198	0xbde450cf	-0.111482255
199	0x3d728b29	0.059214745
200	0xbcb6940e	-0.022287395
201	0xbccab353	-0.024743712
202	0xbdd51371	-0.10404099
203	0xbdf27466	-0.118386075
204	0xbe71ecbf	-0.23625468
205	0x3d2463eb	0.04013435
206	0x3d536985	0.051614303
207	0xbd7280d5	-0.059204895
208	0x3d3af54f	0.0456441
209	0x3d9fafff	0.077972405
210	0x3dcd2721	0.10017229
211	0x3e303e77	0.17211328
212	0x3e5d9ef4	0.21642667
213	0xbbeec2d3	-0.0072864085
214	0x3d85a5b5	0.06525747
215	0x3d79ab2c	0.060954258
216	0x3e100792	0.14065388
217	0x3e3a731a	0.1820797
218	0xbcc87681	-0.02447057
219	0x3dbad172	0.0912198
220	0x3dd36bc3	0.10323288
221	0x3e894aa3	0.26814756
222	0xbcaaf681	-0.020869495
223	0xbe264f50	-0.16241193
224	0x3d32db0d	0.043665934
225	0x3dd843b0	0.10559785
226	0x3d7ab6a1	0.061209325
227	0xbddb1815	-0.10697953
228	0xbd2c3a4a	-0.042047776
229	0xbd0ac546	-0.03387954
230	0xbddb2d70	-0.10702026
231	0x3e3b87ff	0.18313597
232	0x3ded4935	0.11586229
233	0xbcb09610	-0.02155593
234	0xbdcdeba7	-0.10054713
235	0x3e12c519	0.14333
236	0x3d590f64	0.052993193
237	0x3c45a7fd	0.012063977
238	0x3e3158f4	0.17319089
239	0xbe2438b0	-0.1603725
240	0xbd5feba6	-0.05466809
241	0x3df47321	0.119360216
242	0x3b2049da	0.0024458081
243	0x3de16fd6	0.11007659
244	0xbd960d6b	-0.07326778
245	0x3d07c8ef	0.03315061
246	0xbdbc6088	-0.091980994
247	0xbd90b917	-0.07066553
248	0x3d489810	0.048973143
249	0xbd809685	-0.06278709
250	0x3c898632	0.016787622
251	0xbe10ac3c	-0.14128202
252	0xbc3a2ed6	-0.011363706
253	0x3deb848f	0.11499893
254	0x3e5b05ce	0.21388933
255	0x3e6e990f	0.23300575

_func._diffusion._model.0.bias f4 [16]
0	0xbde1fbf3	-0.110343836
1	0x3cd2d7d6	0.025737684
2	0xbe0d9309	-0.1382562
3	0xbdb8afce	-0.09017907
4	0x3e8d01da	0.27540475
5	0x3e3f253b	0.18666546
6	0xbd212c47	-0.039348867
7	0xbe15ce20	-0.14629412
8	0xbdf070d4	-0.1174027
9	0x3dd7a47d	0.105294205
10	0x3e5efcf4	0.21776181
11	0xbd4187fc	-0.047248825
12	0xbd98e7dd	-0.074660994
13	0x3e375794	0.17904502
14	0x3e6ebf94	0.23315269
15	0x3df28b88	0.1184302

_func._diffusion._model.2.weight f4 [48, 16]
0	0x3e50fca0	0.20408869
1	0xbda4b576	-0.080424234
2	0x3e04a738	0.12954414
3	0x3d86f442	0.06589557
4	0xbd819e41	-0.06329013
5	0xbd5f6abf	-0.05454516
6	0xbc64a31b	-0.013954903
7	0x3e2f160f	0.17098258
8	0x3dde541b	0.108558856
9	0xbe035985	-0.12827118
10	0xbd43561b	-0.04768954
11	0x3e0b2a17	0.13590275
12	0x3d44d581	0.048055176
13	0x3d17e9bf	0.037088152
14	0xbe2000b0	-0.15625262
15	0xbd6b6c50	-0.05747634
16	0x3d967184	0.0734587
17	0xbcf8c005	-0.030365
18	0x3d94faf8	0.07274431
19	0x3e4fb3b0	0.20283389
20	0xbe068a7c	-0.13138765
21	0xbdf8eb30	-0.121542335
22	0x3e0b8a07	0.13626872
23	0x3dfd6e08	0.123745024
24	0x3d8bc028	0.0682376
25	0xbdb0afc5	-0.086272754
26	0xbb6eae3f	-0.0036419777
27	0x3e39e423	0.18153434
28	0x3d01d9c2	0.03170181
29	0xbe2198cb	-0.15780942
30	0xbe1a938e	-0.1509535
31	0x3d29e233	0.041475486
32	0x3e5c2bca	0.21501079
33	0xbd8a4f01	-0.0675335
34	0x3e4184e6	0.18898353
35	0x3e25f7e3	0.16207843
36	0xbe540f11	-0.20708872
37	0xbc6f7129	-0.014614382
38	0x3ddc0a54	0.107441574
39	0x3d951f46	0.072813556
40	0x3d66989e	0.05629789
41	0xbcf78a9f	-0.030217467
42	0x3ceffe89	0.029296177
43	0x3d9a2cdc	0.075280875
44	0x3e139359	0.14411677
45	0xbe0e5cfc	-0.13902658
46	0xbdfdad4e	-0.12386571
47	0x3ce1e938	0.027577028
48	0xbdfe176e	-0.124068126
49	0xbd27afca	-0.04093913
50	0xbd1c1237	-0.03810331
51	0xbdfe209d	-0.12408564
52	0xbcaf30c5	-0.02138556
53	0x3e2e143f	0.16999911
54	0x3ccae5ae	0.024767723
55	0xbdfb1e20	-0.12261605
56	0xbd442fef	-0.047897276
57	0xbbe45922	-0.0069686333
58	0x3cb29bf5	0.021802882
59	0xbe4cc756	-0.19997916
60	0xbde6e0b2	-0.11273326
61	0x3d5acdb0	0.053418815
62	0xbd49ff19	-0.049315546
63	0x3e0132be	0.12617013
64	0xbd608339	-0.054812644
65	0xbd0f9bc6	-0.035060667
66	0xbd343b25	-0.044001717
67	0xbe229a59	-0.15879191
68	0x3cd50911	0.0260053
69	0x3e1ef539	0.15523233
70	0xbbaa9518	-0.0052057616
71	0xbcd54c9e	-0.02603751
72	0xbcf8dabc	-0.030377738
73	0x3d70cc50	0.058788598
74	0x3e2208e4	0.15823704
75	0xbda6bb20	-0.0814116
76	0xbdd3ad46	-0.10335784
77	0xbc17e8cc	-0.009271812
78	0x3de3abdb	0.11116763
79	0x3d09576a	0.03353063
80	0xbdb02ab4	-0.08601895
81	0x3dea39e9	0.11436827
82	0xbe25f988	-0.1620847
83	0xbd9e56a8	-0.07731372
84	0x3d949321	0.07254625
85	0x3d80d73e	0.06291054
86	0xbb8c84d9	-0.0042882976
87	0xbdea69ad	-0.11445937
88	0xbdb73311	-0.08945287
89	0x3def642c	0.11689028
90	0x3dd7507c	0.10513398
91	0xbe0ed26f	-0.13947462
92	0xbe240679	-0.16018094
93	0xbd6933fa	-0.056934334
94	0x3d4e7048	0.05040005
95	0x3df5049f	0.11963772
96	0xbcafd30e	-0.021462943
97	0x3b9dc4f9	0.0048147407
98	0xbd6109da	-0.054941036
99	0xbdf5cc9a	-0.12001915
100	0xb9f7fcfe	-0.00047300005
101	0x3d9cdb7f	0.07659053
102	0xbd8383e1	-0.06421638
103	0xbe081ab7	-0.13291441
104	0xbe03be3c	-0.12865537
105	0x3e0a2849	0.1349193
106	0xbc2d2873	-0.010568726
107	0xbe04ee88	-0.12981617
108	0xbe28d655	-0.16488011
109	0x3d7178e1	0.05895317
110	0x3da5944b	0.08084925
111	0x3d221bed	0.039577413
112	0xbe4c2712	-0.19936779
113	0x3daa807a	0.08325286
114	0xbd31a2db	-0.0433682
115	0xbe549b0f	-0.20762275
116	0x3de264ac	0.11054358
117	0xbc492a62	-0.012278171
118	0xbdd0af7f	-0.10189723
119	0xbde81862	-0.11332776
120	0xbe2c3024	-0.16815239
121	0x3dc93733	0.098249815
122	0x3e07e2af	0.13270067
123	0xbdab7693	-0.083722256
124	0xbe19d973	-0.15024357
125	0xbce88e19	-0.02838807
126	0x3b239532	0.0024960754
127	0x3d87403f	0.06604051
128	0xbe10a08d	-0.14123745
129	0x3d8e957f	0.06962108
130	0xbe219f5f	-0.15783451
131	0xbc3b7413	-0.0114412485
132	0x3dbc60af	0.091981284
133	0x3ddf1055	0.10891787
134	0xbc4ce145	-0.01250488
135	0xbc659a28	-0.0140138045
136	0xbe168636	-0.14699635
137	0x3c3be8cc	0.011469077
138	0x3e076359	0.13221492
139	0xbc1193c0	-0.008885324
140	0xbdf1b080	-0.11801243
141	0x3d032ce7	0.032025244
142	0x3dcd4c62	0.100243345
143	0x3df1c606	0.11805348
144	0xbe635852	-0.2220166
145	0xbc758216	-0.014984628
146	0xbdda1f1d	-0.10650466
147	0xbe23d2e3	-0.15998416
148	0x3d96a29d	0.07355235
149	0x3d99c1c9	0.07507665
150	0x3ca70aa7	0.020390822
151	0xbe08bb35	-0.13352664
152	0xbdf24298	-0.11829108
153	0x3e04e9b7	0.1297978
154	0xbcdb1394	-0.026742734
155	0xbd9d0477	-0.07666867
156	0xbe0487f4	-0.12942487
157	0x3c3e19e7	0.011602855
158	0x3e400703	0.18752675
159	0x3de37a9b	0.111073695
160	0xbd717a81	-0.05895472
161	0x3d87a0b3	0.06622448
162	0xbe283fca	-0.16430584
163	0xbe1986db	-0.1499285
164	0x3e66eb67	0.22550736
165	0x3e617f06	0.22021112
166	0x3d024f2a	0.031813778
167	0xbd5858db	-0.052819114
168	0xbd3caa87	-0.046061065
169	0x3e45498a	0.19266334
170	0x3da90050	0.08252013
171	0xbd9eb47d	-0.07749269
172	0xbe52b0e6	-0.20575294
173	0x3e2f6d2d	0.17131491
174	0xbd376963	-0.04477824
175	0x3e2a527e	0.16633031
176	0xbe5c5454	-0.21516544
177	0x3d75406d	0.059875894
178	0xbd46e533	-0.048558425
179	0xbe342569	-0.17592396
180	0x3e07d702	0.13265613
181	0x3e15f6f8	0.14644992
182	0xbdaf3c7c	-0.08556458
183	0xbe0fe3ca	-0.14051738
184	0xbd16540c	-0.036701247
185	0x3d1221e7	0.035676863
186	0x3daa0842	0.08302356
187	0xbdde61a1	-0.10858465
188	0xbc3c9d20	-0.011512071
189	0x3e25af87	0.1618024
190	0x3d23d5b7	0.039998736
191	0x3e132587	0.14369784
192	0xbcdca189	-0.026932495
193	0xbd9917cf	-0.07475244
194	0xbd810972	-0.0630063
195	0xbd7a3cf2	-0.06109328
196	0xbd0d90d0	-0.034561932
197	0x3d785788	0.06063035
198	0xbe00dfd7	-0.12585388
199	0x3c94b299	0.018151568
200	0xbd0655fa	-0.032796837
201	0x3c1f0c92	0.009707587
202	0x3c47c611	0.012193219
203	0xbccb978c	-0.024852537
204	0xbc9d5868	-0.019207194
205	0x3bb350c3	0.005472274
206	0xbcc59d6c	-0.024122916
207	0xbc5ed6d6	-0.013601026
208	0xbdd19ca5	-0.10234956
209	0xbc895016	-0.01676182
210	0xbd8a0273	-0.067387484
211	0xba1fbe67	-0.0006093741
212	0x3ba62890	0.0050707534
213	0x3b5e89d8	0.0033956673
214	0xbe0c7626	-0.13716945
215	0xbc60625c	-0.013695326
216	0x3b8710bc	0.004121868
217	0x3dae0cd5	0.08498541
218	0xbc5acb9c	-0.013354208
219	0xbc6cf9d3	-0.01446386
220	0x3c01be0f	0.007918849
221	0xbc5cce78	-0.01347696
222	0xbdcd3a7d	-0.100209214
223	0xbdd4fcd9	-0.10399789
224	0x3ccec7fc	0.025241844
225	0x3d2ca36f	0.04214805
226	0xbd835c12	-0.064140454
227	0xbdfedf99	-0.124449916
228	0x3ca81279	0.020516621
229	0x3d7c8f52	0.06166012
230	0x3c88ae35	0.01668463
231	0xbcf0d2e4	-0.029397435
232	0x3d8bc0ab	0.06823858
233	0x3c59ef3b	0.013301666
234	0xbdd24001	-0.10266114
235	0x3df4d7c2	0.11955215
236	0xbdb9ffad	-0.090819694
237	0x3d809ca3	0.06279876
238	0x3c3b567f	0.0114341965
239	0xbd6b7b0b	-0.05749039
240	0x3e10f4f9	0.1415595
241	0x3d959ada	0.07304926
242	0x3daccfab	0.08438047
243	0x3e15e611	0.14638545
244	0xbcab3e7f	-0.020903824
245	0xbd0ace4a	-0.03388814
246	0x3bbca217	0.0057566273
247	0x3e1019fc	0.14072412
248	0x3d906754	0.07050958
249	0xbe03198c	-0.12802714
250	0xbc9662a6	-0.018357586
251	0x3d496305	0.049166698
252	0x3df8e9bd	0.12153957
253	0xbc9b73e3	-0.018976158
254	0xbe001887	-0.12509356
255	0xbd5886e5	-0.05286302

_func._diffusion._model.2.bias f4 [48]
0	0xbdb124d6	-0.08649604
1	0xbc6605c8	-0.014039464
2	0xbc457aa4	-0.012053166
3	0x3d5b0b07	0.053477313
4	0x3d625aae	0.05526226
5	0x3d856c25	0.065147676
6	0x3db20c82	0.08693792
7	0x3df34101	0.11877633
8	0x3d636ac7	0.055521753
9	0x3e6da37b	0.23206894
10	0x3e3937e2	0.18087724
11	0x3c254097	0.0100862
12	0x3c42dc75	0.011893381
13	0xbdcb82ba	-0.099370435
14	0xbd516108	-0.051117927
15	0xbd299adb	-0.041407447
16	0xbd82637a	-0.0636663
17	0xbdc435dc	-0.09580585
18	0x3dc73a72	0.097279444
19	0x3dd89939	0.105761
20	0x3e6af39e	0.22944495
21	0x3d918a9e	0.07106517
22	0x3dd3b6f1	0.10337628
23	0x3db56887	0.08857828
24	0x3cb97d04	0.02264262
25	0x3db37261	0.087620504
26	0x3d90c52d	0.07068858
27	0x3e5f5d6c	0.21812981
28	0x3dcdb2b2	0.10043849
29	0x3b060994	0.0020452486
30	0x3d95823f	0.07300233
31	0x3e01c253	0.12671785
32	0x3c5e05f2	0.013551222
33	0xbc231b4d	-0.0099552395
34	0xbde87df0	-0.11352146
35	0xbdd9f6f6	-0.10642807
36	0x3e26b6a3	0.16280608
37	0x3d86cc28	0.065819085
38	0x3e051a9a	0.12998429
39	0xbc747669	-0.014920809
40	0x3c3153cb	0.0108232
41	0xbd917222	-0.07101847
42	0xbdb66f61	-0.089079626
43	0xbe53b697	-0.20675121
44	0xbdcd449b	-0.10022851
45	0xbcba3433	-0.022729969
46	0xbe5a02c5	-0.21290119
47	0xbe249817	-0.16073643

_readout.weight f4 [1, 16]
0	0xbdd7dd6d	-0.105402805
1	0x3d5395de	0.051656596
2	0x3e163803	0.14669804
3	0x3e6a99aa	0.2291018
4	0x3d1dd6b1	0.038534824
5	0xbcf85531	-0.03031406
6	0x3d6af493	0.05736215
7	0x3e2edcef	0.17076467
8	0x3e81497c	0.25251377
9	0x3e555fd4	0.20837337
10	0x3de31bce	0.11089288
11	0xbd4e60ef	-0.05038541
12	0x3ddb79d0	0.10716593
13	0xbe044210	-0.12915826
14	0xbdfd5fe1	-0.12371803
15	0xbdcbeda5	-0.099574365
