train/checkpoints/2024-01-18_19-02-51/discriminator.pt (torch, 8527 bytes, 9 tensors)

_initial._model.0.weight f4 [16, 2]
00000000: 9816 ccbe a3c5 4f3f cab1 a13e 2332 823c
00000010: 38ce 1e3e 2edb d9be db9b 1abe da9f 10be
00000020: 37b3 9f3e da64 143e 8c58 be3d 7cf1 41bf
00000030: cf98 84be c01d 9fbd 8347 a5bd 57b8 603e
00000040: fadd 2bbe e67d e5be 55c5 cfbe ebad 863e
00000050: 41cb bb3e c142 be3e 22e2 a8be 07d5 153c
00000060: 73cb 843e 4c3b 45bd 591d 53be 3747 a33d
00000070: 9afa 63bd 581b 223f 10c5 6c3e 728c acbe
-0.39860988 0.81160945 0.31580955 0.015893048 0.15508354 -0.42550033 -0.15098517 -0.14123479
0.31191418 0.14491597 0.09294233 -0.757591 -0.25897834 -0.07769346 -0.080702804 0.2194532
-0.16783896 -0.44822615 -0.4058024 0.26304564 0.36678508 0.37160304 -0.32985026 0.009145028
0.2593647 -0.048152253 -0.20616664 0.079725675 -0.055658914 0.63322973 0.23122048 -0.337009

_initial._model.0.bias f4 [16]
00000000: 2e25 ed3c b77f 89be aca3 12bc d69d 17bf
00000010: 65c1 b8be 3c44 d5be 067e efbd dfdc 123f
00000020: b586 8ebe 7b90 d83d 37dd 4bbd 4716 92be
00000030: bd66 173f b23b 0ebf 51f8 a8be f442 e33d
0.028948393 -0.2685525 -0.008950155 -0.59225214 -0.36085048 -0.4165362 -0.11693959 0.5736827
-0.27837148 0.105744325 -0.049771514 -0.2853262 0.5914114 -0.5555984 -0.3300195 0.11096755

_initial._model.2.weight f4 [16, 16]
00000000: 3afb c63d 4eea adbc 38f7 433e d31b 26bb
00000010: c742 14be 5d24 2b3e e58f ee3d d154 833c
00000020: b69e 313e e14b 2dbe 755b e83d e2bd 493e
00000030: 03cd 2c3c 7969 103e ac16 373d 052e 3abe
00000040: ead1 d53d 8086 63bd 7f37 fe3d 1638 123e
00000050: 876b cebd eccc 9d3e 3c43 983d ebf4 d0bd
00000060: 1fb5 1ebd 641f d23d 7884 433e 88d8 243e
00000070: 6772 63be 9fcb e03d 6412 f63d 6db0 323e
00000080: 6cce 2e3e 1fde ef3d 16ec 2d3b 46d5 d8bd
00000090: 4731 8ebd 5a0f dcbd 3134 863d 67eb 97bd
000000a0: f02c 2d3e 723f 0bbe ddc5 0d3e cd93 4b3e
000000b0: c8c5 0ebe 27b1 91bd fda3 c8bd ab38 bc3d
000000c0: 68d2 82be acc1 5b3e 10e9 873d 8932 643e
000000d0: 56f5 423e 1eb6 473e 2256 0d3e b29c 16be
000000e0: d100 81bd fe50 67bd 5582 00bd 167b 87bd
000000f0: 3e17 603c 1762 713e 17bf e9bd 0660 61bd
00000100: dfe9 783e a443 02be f689 d33a 5408 14be
00000110: 5599 853d 514a 1a3e dd39 0bbe f2ee 003d
00000120: 6cdc 643e d765 e03d 6929 6c3e 2ab3 dd3d
00000130: 7f5e 65be a739 6a3e cc1b 853d 008b 2a3e
00000140: 3629 aa3d b836 ce3d 0744 6a3d a36a 83bc
00000150: 34e2 0f3e 0b13 9e3d 20e0 3cb8 ddde 32be
00000160: f72b 7e3d 7e26 a7bd 7253 78be b957 e33c
00000170: d89d 093e 98f2 a9bd 8b68 84be 23c6 fcbd
00000180: 92dc 4b3e 53b9 473e 7d8b 02bd 17ff ce3c
00000190: 98ae 173e 521c 653e 426f 70bc 4042 1d3e
000001a0: 2603 9a3d 9f7f cf3d f3c3 2d3e 4534 8dbd
000001b0: 3906 73be 6f22 4abd b7c0 30bd faba 503d
000001c0: 1d73 84be 8d88 c7bc f46b 47be b6e4 6abd
000001d0: 177d 4f3e 3bbf 55be 0d94 6cbc f6ff 0abe
000001e0: 113c 54be e17f d53d 419b 09be 5bb1 173e
000001f0: f462 e9bb a297 7b3d e503 d93d 0224 e53d
00000200: a68d 91be 6aca 7bbd 7068 74bc 7747 60bd
00000210: 7376 ecbd da87 303e f303 fdbd 926e f8bd
00000220: 5afb eebd ba5a 593c ace2 03bd 036a f5bd
00000230: cab4 00be 1015 06be 32e5 0ebe eb39 cfbd
00000240: debc 8abe f6fd 90bd b285 dcbd 89ad 0dbe
00000250: f23b 46be 9ec3 c43d 55d2 e23d 5cb0 f13d
00000260: 5e0c e53d 4fd9 5ebe 3e14 da3d 904c 97bd
00000270: d6f5 edbd de2d b23c 4a9b 37bd 8462 083b
00000280: 29e6 e1bd d306 433e dce4 33be ef95 803e
00000290: db97 153e 4679 4cbe 0609 acbc 194a 1ebe
000002a0: bc15 27bc e116 cc3d eff0 f0bc 6d36 853c
000002b0: 6e15 5ebe f88e 833e b952 3d3c c55a 15be
000002c0: 5935 3abd a996 343e cd0d 863b 2276 ae3d
000002d0: 372f 7e3e 9709 553e bb44 69bb a109 2abd
000002e0: 2cc3 763e 908f aa3d f3f4 01bc 2f44 8abd
000002f0: 5e64 4abd 101f 393e 9b06 1a3d b3e1 403e
00000300: 4755 e53d 2058 adbd acc5 4d3e 163b 533e
00000310: be31 013e 80db 9d3e 36dc 0a3e ec59 4dbd
00000320: 24ba b13d 45ca 1abe 76c2 cabd 91bd 91bd
00000330: 8ed2 eebd 2bb5 773e 8eef 123e 6aeb 8bbd
00000340: c2c1 b73c eb6c 20bc 0c05 d2bd bddf 9c3c
00000350: ca0c 863e f2b4 4f3e 087a 103e 1cde cd3c
00000360: 75a2 5a3b 33a6 283e 1c93 7e3d 3691 f2bd
00000370: 2b83 63be 2887 f83d de76 2d3e 1448 8dbd
00000380: ed14 413d a747 5fbd a466 5d3c c26f 3d3e
00000390: ac48 3a3c aec6 06b8 3c99 a5bd 6cb4 f2bd
000003a0: 47c3 193d e12d b5bd c12a 913e f6fd 463e
000003b0: b8df 3abc 0865 b7bd a369 b23e b32a db3d
000003c0: 464a 03be 14e1 90bb ad52 c3bd 9aa6 b8bd
000003d0: 5647 07be 8bda 64be b43f 4f3d 4194 083d
000003e0: caef b53d 4867 a83d b3d3 213d b7f0 17bd
000003f0: 0e67 093e 9946 223d 51a6 c9bc 5217 1dbd
0.097158864 -0.02122989 0.19137275 -0.0025346174 -0.14478599 0.1671309 0.116485395 0.016031655
0.173457 -0.16923477 0.11345569 0.19701341 0.0105469255 0.14102735 0.044699356 -0.18181618
0.104404286 -0.05554819 0.12412929 0.14279208 -0.10079103 0.30820405 0.07434699 -0.102029644
-0.03874695 0.102598935 0.19093502 0.16098225 -0.2221161 0.10976338 0.120152265 0.17450114
0.17070931 0.11712288 0.0026538423 -0.10587554 -0.06942993 -0.107451156 0.065529235 -0.07417946
0.16911674 -0.13598421 0.1384501 0.198806 -0.13942635 -0.07113867 -0.09796903 0.09190496
-0.25551152 0.21460599 0.0663625 0.22284903 0.190389 0.19503066 0.13802388 -0.14708212
-0.06298984 -0.056473725 -0.031374294 -0.06615274 0.013677416 0.23572575 -0.114134006 -0.055023216
0.24307965 -0.12721115 0.0016139138 -0.14456302 0.065233864 0.15067412 -0.13596292 0.031477876
0.2234971 0.109569244 0.23062672 0.108251885 -0.22399329 0.22873555 0.064994425 0.16654587
0.083086416 0.100690305 0.057193782 -0.01604206 0.14051133 0.07718476 -4.5031426e-05 -0.17467828
0.062053647 -0.08161639 -0.24250582 0.02775179 0.13439119 -0.08298224 -0.2586101 -0.12342479
0.1990836 0.1950429 -0.031871308 0.02526812 0.14812696 0.22374085 -0.014674963 0.15357304
0.07520132 0.10131764 0.1696928 -0.06894735 -0.23732843 -0.049349245 -0.043152537 0.050959565
-0.25869074 -0.024357105 -0.19474775 -0.057347022 0.20262562 -0.2087373 -0.014439595 -0.13574204
-0.20726039 0.104247816 -0.13438131 0.1481375 -0.007122392 0.061423905 0.10596446 0.111885086
-0.28428382 -0.061472334 -0.014917478 -0.054755654 -0.1154603 0.17239323 -0.12354269 -0.121304646
-0.11669035 0.01326626 -0.032198593 -0.11983111 -0.12568966 -0.13093972 -0.13954619 -0.10118469
-0.2709722 -0.07079689 -0.10767688 -0.1383573 -0.19358805 0.096076235 0.11075274 0.11801216
0.111839995 -0.21762584 0.10648392 -0.0738765 -0.11619155 0.021750387 -0.04482583 0.0020810673
-0.11030228 0.19045572 -0.17567772 0.2511439 0.1460871 -0.19968137 -0.021000396 -0.15457954
-0.010198053 0.09965301 -0.029411761 0.016261304 -0.21687862 0.25695014 0.011555367 -0.14585407
-0.045461033 0.17635597 0.0040910007 0.08518626 0.24822699 0.2080444 -0.0035593945 -0.04151309
0.2409789 0.083281636 -0.007931936 -0.06751286 -0.049412124 0.18078256 0.037603956 0.18836097
0.11197906 -0.08464074 0.20094937 0.20628008 0.12616631 0.30831528 0.13560566 -0.050134584
0.08678082 -0.15116222 -0.09900372 -0.07116235 -0.11661254 0.24190204 0.14349195 -0.06832011
0.022431258 -0.009791593 -0.10254869 0.019149655 0.26181632 0.20283869 0.14109051 0.025130324
0.0033360992 0.1646965 0.062152013 -0.11844103 -0.22218005 0.12135154 0.16939875 -0.068985134
0.047139097 -0.054511692 0.013513241 0.18499663 0.011369865 -3.2133124e-05 -0.08085868 -0.11850819
0.037539747 -0.08846641 0.2835293 0.19432816 -0.011405878 -0.08954817 0.3484622 0.107015036
-0.12821302 -0.0044213627 -0.095372535 -0.09016152 -0.13210806 -0.22348993 0.05059786 0.03334451
0.08883627 0.08222824 0.039508533 -0.037094798 0.13418218 0.03961811 -0.024615439 -0.038352318

_initial._model.2.bias f4 [16]
00000000: a76e 62be 019d 2fbe 7c6a 1dbd f312 c53d
00000010: 0aed 0dbe 2786 85bd 268e c2bd 7771 2b3c
00000020: b956 67bd ec25 58bd ef0d a7be c9a5 6ebe
00000030: d100 4ebe 4f18 44bd c9a9 013e d440 9d3d
-0.22112523 -0.17149736 -0.03843163 0.09622755 -0.13859954 -0.06519728 -0.09499769 0.010464064
-0.05647919 -0.05277054 -0.32627818 -0.2330543 -0.20117499 -0.047874745 0.12662424 0.076783806

_func._module._model.0.weight f4 [16, 17]
00000000: 39b1 01bd 9bea 7c3c afc5 833e 6cfc 9ebd
00000010: 931f 06be 0f94 923e 0305 63be 113a f23d
00000020: aa89 44be 805b 303e 2e5e 9c3d b3bc c9bd
00000030: 117e fcbc 244e febd 1d55 a83d 23b9 b83b
00000040: 35e3 c63d c514 8cbe 2774 d13d 36b9 0e3e
00000050: 6810 713e bbfb df3d e632 95bd 9e25 803e
00000060: e03a 5d3e 621e 623e 71ff 9cbc 4fb1 b1bd
00000070: f895 853e fc57 7f3d 78d6 8fbd 1fd5 a4bd
00000080: 29ea a9bd 9cf9 cd3d 330f dc3c d748 8fbd
00000090: 6264 133e 6307 8a3d 74f3 03be e300 513e
000000a0: 915a c43c 04e7 3f3d 499c 59be ffb6 cbbd
000000b0: 2b15 c0bc 137f febc b746 cc3d 1367 78bd
000000c0: 553d 2a3e 5895 4bbd 8062 043e 0dd3 f53d
000000d0: e9c0 0bbe 14fd a1be 5333 44be e52e 12be
000000e0: e110 a5be b1bf 6bbe e042 41be c39d ebbd
000000f0: c951 253d 2f7e 48be 88ca 7dbe c2ec 82be
00000100: b96e cf3c 17eb 42bd 3f85 3cbe 9f24 e4bd
00000110: c7c1 a83d 6c3b a43c a9b1 12be 2bcc c13d
00000120: 3bc7 233e 4892 373d a69e 163e cde4 9abd
00000130: 3118 553d c04e 373e 50e0 9fbd 4783 8a3e
00000140: c8a6 303d 9734 70be 36aa 4bbe fb74 d93d
00000150: c83c 523e 4ffa 2bbe 1491 f33d 7e3a 04be
00000160: a1d5 283d 67c9 5f3e 41ba 2f3e 5895 06be
00000170: 295c 693e 5b8a 2cbd 6ace 8b3e 2f59 9a3e
00000180: 9781 e5bb 2e96 503e f514 99bd b614 703e
00000190: b068 37be 7ee1 333e b07c a33e a27d 55be
000001a0: fd2b 04be 5167 edbb 92cd cb3d b722 59be
000001b0: f8af 913c 8821 4bbe a198 b6bd 5594 a4bd
000001c0: e112 e73d ee34 a63d f80d 49be 18ac 89be
000001d0: 275c 41be c6e8 99be 9e1c 07be 6715 d8bc
000001e0: 92e8 383e 41b8 a33e c657 333e 6745 3f3d
000001f0: fd7f 3ebc 65b3 a9bd 7c12 21bc 7548 83bd
00000200: 3d9e e4bc 352b 463e 6cd4 e93d f110 e8bd
00000210: 6e90 a13e ec6a f53d e5be 44be 0c95 8f3d
00000220: 3529 8e3e 5b1a 333d 6079 9bbe 76be 71bc
00000230: badb 23be 007e f83b c8a9 ec3d 70a8 42be
00000240: 371e 54be 80e6 66bd 2957 44bd 035a 23be
00000250: f814 81bc 9869 a1be 0fe3 98be 81fd c4be
00000260: f2d1 eb3d 356a e43d f13b 7abe 9708 febd
00000270: 9bca 2dbe 1866 a9be b82e b3bd 242f a03d
00000280: 36b0 bcbd 7aed c63d a4eb 89bd f22a cf3c
00000290: edbb adbe 41b0 20be 3511 84be 270a 98bd
000002a0: 83a2 92be f3ad 83be a933 733e 8f9e a3bd
000002b0: 7b0b de3d 222f 78be 3aca 4fbe 7471 8dbe
000002c0: 4f25 0fbe 3e4a 983d 9704 4e3d d98d 7fbd
000002d0: daf9 1f3e 21c3 7abe b991 9bbe b676 9dbd
000002e0: e084 7cbe ea5e cdbe 1740 423d fef4 033d
000002f0: 0062 20be 8582 3dbd f2cc 1abe a25f 5fbe
00000300: 05b4 6abe cb9b 8e3c e6c9 3dbe 6621 b8bc
00000310: 53ac 34bd 8b94 ab3c cc03 6abe a0bf b8bc
00000320: e490 bfbd b284 abbd c6dd 7fbe 6641 1b3e
00000330: 9808 5ebe 661a 913e 9f12 6e3e c07d 443e
00000340: bbdf e03c c297 3b3e 32ec 533e b2ec cbbd
00000350: 93f0 e9bc 5a79 943e ae3a ddbc c5a9 e73d
00000360: f545 afbd cfb7 6d3e 9f81 7d3e a1b8 533e
00000370: d8ae 12be dd6f 12bd 21d1 91bd 46d5 26bd
00000380: cb03 e9bd 95f0 323d ca89 a4bd f72e 1d3e
00000390: c96f 313e 56c7 68be 5fdb 0bbe a263 913d
000003a0: 5667 883d fd1b debd 6f2b 3d3e e8a8 843c
000003b0: bc12 4a3e 0237 a0bd 7eb4 a93e 2752 aa3d
000003c0: 7b3f 15be b4ef 993d 2118 7dbe 1561 c93c
000003d0: 4ce1 6abe 0dbf 2b3e c745 55be f251 3f3e
000003e0: 16a0 8c3d 5cbd 87be fbde e8bd 14a3 763e
000003f0: 34bc 4c3e 21f7 d23d 3860 e33d 4843 773e
-0.031663153 0.015436794 0.25736758 -0.077629894 -0.13097982 0.28628585 -0.2216988 0.118274815
-0.1919314 0.17222404 0.07635151 -0.09850445 -0.030821832 -0.12417248 0.08219359 0.0056373044
0.09711305 -0.27359596 0.102272324 0.1393784 0.23541415 0.10936686 -0.07285099 0.250287
0.2160449 0.22081903 -0.019164773 -0.08676397 0.2609098 0.062339768 -0.070233285 -0.08048462
-0.08296616 0.10057375 0.026862716 -0.06996315 0.14393762 0.0673969 -0.12885839 0.20410495
0.023968967 0.046851173 -0.21251024 -0.09947013 -0.023447594 -0.031066453 0.09974425 -0.060645174
0.16624959 -0.049702972 0.129282 0.12003145 -0.13647808 -0.31638396 -0.19160204 -0.14275701
-0.3223944 -0.23022343 -0.18873167 -0.115047 0.0403612 -0.19579385 -0.24784291 -0.25571257
0.025321351 -0.04758748 -0.18410204 -0.111397974 0.08240085 0.020047866 -0.14325584 0.0946277
0.15993969 0.04481724 0.14708957 -0.075631715 0.052025024 0.17901134 -0.07806456 0.27053282
0.043127805 -0.23457561 -0.19889149 0.106180154 0.20530999 -0.16794704 0.11892906 -0.12912938
0.041219357 0.21854173 0.17160894 -0.13142908 0.22789063 -0.042124134 0.2730592 0.30146167
-0.0070039737 0.20369789 -0.074747 0.234454 -0.17911029 0.17566487 0.31931067 -0.20848706
-0.12907405 -0.0072449823 0.09951319 -0.21204649 0.017784104 -0.1983701 -0.089158304 -0.080361046
0.11282898 0.08115564 -0.19634235 -0.2688911 -0.1888281 -0.30060405 -0.1319451 -0.026377393
0.18057469 0.31976512 0.17513952 0.046697047 -0.0116271945 -0.0828617 -0.009831067 -0.064103045
-0.027907485 0.1935242 0.114174694 -0.11331356 0.31555504 0.11983284 -0.19213445 0.0701085
0.27765813 0.043726306 -0.3036604 -0.014754882 -0.16001788 0.0075833797 0.11555821 -0.19009566
-0.20714651 -0.056372166 -0.047934685 -0.15952305 -0.015757069 -0.31525874 -0.29860732 -0.38474658
0.11514653 0.1115307 -0.24436928 -0.12403982 -0.16971819 -0.33085704 -0.08749145 0.07821491
-0.09213297 0.09713264 -0.06734398 0.025289033 -0.33932438 -0.15692236 -0.25794378 -0.074238114
-0.28639612 -0.2571865 0.23750176 -0.07989227 0.108420335 -0.2423673 -0.20291987 -0.2762562
-0.13979076 0.074360356 0.050297346 -0.062391136 0.15622655 -0.24488498 -0.30384615 -0.07688658
-0.24660063 -0.40111476 0.047424402 0.032216065 -0.15662384 -0.04626705 -0.15117243 -0.21813825
-0.22920235 0.017408272 -0.1853405 -0.022476863 -0.044109654 0.020944854 -0.22853011 -0.022552311
-0.093538076 -0.08374919 -0.24986944 0.15161666 -0.21682966 0.28340453 0.23249291 0.19188595
0.027450433 0.1831961 0.2069557 -0.099572554 -0.028557098 0.28998834 -0.02700552 0.11311678
-0.08558265 0.23214649 0.24756478 0.20675899 -0.1432451 -0.035751212 -0.07119966 -0.040730737
-0.113776766 0.04368647 -0.08034094 0.15349947 0.17327799 -0.2273229 -0.13657902 0.070990816
0.06660335 -0.10845182 0.184736 0.016193822 0.19733709 -0.07822992 0.33145517 0.083164506
-0.14574997 0.07516423 -0.24716236 0.024582425 -0.22937506 0.16772099 -0.20827399 0.18683603
0.068664715 -0.26511657 -0.11370655 0.24085647 0.19993669 0.10301042 0.11102337 0.2414676

_func._module._model.0.bias f4 [16]
00000000: 6e14 adbd bc68 4abd 4570 de3d 3968 693e
00000010: 9fce 363e d82f 9d3c f169 153e 71a7 523e
00000020: ab57 b7bc a722 8f3e 8a56 573d d940 59bd
00000030: 6934 4dbe 8442 2a3b 72b0 6f3e 646f ca3d
-0.08451162 -0.04941629 0.108612575 0.22793664 0.17852257 0.019187853 0.14591195 0.20571686
-0.02238067 0.27956125 0.052572764 -0.05304036 -0.20039524 0.0025979588 0.23407152 0.09884527

_func._module._model.2.weight f4 [32, 16]
00000000: 7113 78be 9404 a73e 0b1e 00be fe11 8f3e
00000010: df9f 853e 756a 4e3b fa06 c33c 32ae 50be
00000020: 1b32 9d3e d889 a53e 00aa b43e 9426 b33e
00000030: 0fc6 cdbd 0ca2 953d 719f 9dbd 877c 313e
00000040: 396c a6be a824 31be 1de7 45be 3955 a6bd
00000050: f1f6 743e 086f 76bc b1e7 833e ee6d 53bd
00000060: 6789 693d adbd 9b3c 8435 783e 2f7f 283e
00000070: 87d9 a9bd 603e 79bd 802d 273d 1923 173e
00000080: 024d 433e c57d 503e 4d26 453d 08f8 cdbd
00000090: 73cd 753d 2849 ef3d 97ff e3bd 1599 973e
000000a0: b76f a0be eeed 7dbe 5827 afbe 6508 34be
000000b0: 5c3d 9b3e 8e57 97bd e85f 9dbd 03b3 ba3e
000000c0: 2a19 403d 290d 473d 9101 303c c7c0 5c3d
000000d0: 4b81 3dbe 1968 6e3e 5152 e73d 529d 8c3e
000000e0: ada1 5a3e 8879 21bc 9ccc 5c3e 2998 f03d
000000f0: 4187 9c3e 948d a3bd abe2 2c3e 54de a93d
00000100: 06ac 493e 17b5 b4bd faa3 1e3d d451 a9be
00000110: 0172 5abe d8f2 de3d 993e ee3c a3ad 113d
00000120: 26a4 193c cf4c 99be 3785 73be a3e7 8a3d
00000130: 7b78 6fbe 6587 07bd b757 b23c e953 793d
00000140: 2b3a 62bd 68ac 883e f798 38bd 0be3 5d3c
00000150: 6feb 42be cc8f bb3d d685 e1bc 747c b53d
00000160: 6101 dbbd 11c9 91bd 9a57 26be caa8 283e
00000170: a268 9a3e ba6c 1d3c c356 c13d 0d54 883e
00000180: 61a4 3abe 55ff 833e b469 4cbe 2681 293e
00000190: 9c18 013e 2e80 613c ae4b b03e 1e47 0d3e
000001a0: e02e 933e 4660 cb3e a711 803e 2f79 213d
000001b0: b196 3bbd 59a1 b3bd caf7 c4be 2993 90bd
000001c0: 8bb9 a0bd 1785 223e 51a6 01be 5495 05bd
000001d0: 82d3 913e dc18 283d 8699 8fbd 93a3 89be
000001e0: 1e1e bd3d c281 093e 3b8a df3d f00d 4ebe
000001f0: faad 733c 9ec9 cc3d a9c4 01be 8408 9cbc
00000200: 5c26 923e 3c0f 80bc dd90 8a3e eb86 8dbe
00000210: 2147 75be e9f3 65bd 0232 54be 56fc b33d
00000220: 4c7c bbbe e099 65be f7b1 85bd 92c5 8e3c
00000230: 05f9 90be 3d3a 403e b81e 8e3d f314 7d3e
00000240: 842a 143e edd9 86bd 6b63 2f3e e78f 68bd
00000250: 88f0 98bc 11ce 533e 8765 f43d 0c6f cf3d
00000260: ebf0 e23d 143c 073e eb75 28bd 8cc2 f0bd
00000270: 2c65 3c3e 7319 353e 309d 403e aaab 983d
00000280: 5300 07bc bb0b 863e 7bb2 c0bd fa71 b93e
00000290: 64ab 613e 1ddf f6bc 3869 c53e ff15 1cbd
000002a0: 6794 123e 8525 3f3e 149f 123e c789 c33e
000002b0: b456 223e f32d 37bd 0a3d 70be 95a2 233d
000002c0: cd13 06bd 543f 243e 91af b33d 551e 123e
000002d0: c12c b73d 3743 edbd af46 e3bd ec9c 76be
000002e0: 8f66 2f3d 2885 383e 5b3e 893e ff15 b3bd
000002f0: 9db6 0b3d 7460 aabd 25fe dcbd 891c 16be
00000300: 8195 143e d52a 85be c8fa 9d3c f847 67be
00000310: 35be e8bd 0415 8cbd 4b5c b2be c50f fd3c
00000320: 0956 72be 2da6 46bd 872b a2be 7ad4 6fbe
00000330: b4e6 f5bd ec4b a63d 03ea cf3e b3df adbd
00000340: f4e5 9d3d af6c 8c3d b21a 06bd b119 c03c
00000350: 4c66 2ebc cd2b e7bd f8a6 8fbd 6f0d 3c3e
00000360: 457a 71be 1087 56bc d4ec 083e 8e89 873d
00000370: 8bd9 7c3b c368 19be 9ceb 10be ee2a 143e
00000380: 3839 8bbd 8bd9 163e 2a10 87be 139a 1b3e
00000390: 164f 7fbd 9047 523e 2446 a13e 4b28 e43d
000003a0: cdc5 b83e a826 aa3e 66a4 4b3e 0c95 973e
000003b0: 567c 343d f0df bbbd 1490 48bd 0ed5 19be
000003c0: e5d1 b7bd 2c5a 823c ba77 01be b437 dc3b
000003d0: 63ee 2cbd 739f 23be 9aa3 973e 49c9 43be
000003e0: ae87 bdbd eed1 b63c 946c f83d 0933 563e
000003f0: 5091 85be c390 03bd c5e8 9d3d 0a95 4b3e
-0.24226166 0.3262068 -0.1251146 0.27943414 0.26098534 0.0031496559 0.023807038 -0.2037895
0.3070229 0.3233173 0.3528595 0.3499037 -0.10047542 0.073062986 -0.07696427 0.1733266
-0.32504442 -0.1729914 -0.19326444 -0.08121724 0.23922326 -0.01504112 0.25762704 -0.05161851
0.057015803 0.019011343 0.24239165 0.16454767 -0.08293443 -0.0608505 0.040814877 0.14759482
0.19072345 0.20360477 0.04813223 -0.10057074 0.060010385 0.11683875 -0.11132734 0.2960898
-0.31335232 -0.24797794 -0.34209704 -0.17581327 0.3032025 -0.073897466 -0.07684308 0.364647
0.046899 0.048596535 0.010742561 0.053894784 -0.18506353 0.23281898 0.112949975 0.27463776
0.21350737 -0.009855635 0.21562427 0.11747772 0.3057194 -0.07985988 0.16883342 0.08294359
0.19694528 -0.08823603 0.0387306 -0.33070242 -0.21332552 0.108861625 0.029082583 0.035565984
0.009377515 -0.29941413 -0.23781286 0.067824624 -0.23385803 -0.033088107 0.021770341 0.06087104
-0.055231255 0.26694036 -0.045067754 0.013542901 -0.19035123 0.091582865 -0.027529638 0.08861628
-0.106936224 -0.071184285 -0.16244355 0.16470638 0.30157954 0.009608442 0.094403766 0.26626626
-0.18226768 0.2578074 -0.19962198 0.16553172 0.12607044 0.013763471 0.3443274 0.1379666
0.287467 0.39721888 0.25013468 0.03942221 -0.045798007 -0.08771009 -0.38470298 -0.070593186
-0.078478895 0.15871082 -0.12661101 -0.032613114 0.2848168 0.041039333 -0.07011704 -0.2688261
0.0923426 0.13428405 0.10915037 -0.20122504 0.014873022 0.09999393 -0.12672676 -0.01904703
0.2854489 -0.015632264 0.27063647 -0.27641997 -0.23952915 -0.056140814 -0.20722201 0.08788364
-0.36618268 -0.2242198 -0.06528085 0.017428193 -0.28314987 0.18772216 0.06939453 0.24715023
0.14469343 -0.06584535 0.17127769 -0.05677786 -0.018669382 0.20684077 0.11933427 0.101286024
0.11081108 0.13206512 -0.04112808 -0.11755857 0.18397969 0.1768549 0.18809962 0.07454617
-0.008239823 0.26180825 -0.094090424 0.3621977 0.22038037 -0.030135686 0.38556838 -0.038106915
0.14314424 0.18666656 0.14318496 0.38191053 0.15853387 -0.044721555 -0.23460785 0.039949972
-0.032733727 0.16039783 0.08773721 0.14269383 0.08944083 -0.11585086 -0.11097466 -0.24083298
0.042822417 0.18019545 0.26805386 -0.0874443 0.0341097 -0.08319178 -0.10790662 -0.14659323
0.14510156 -0.2600924 0.01928462 -0.22586048 -0.11364404 -0.06839946 -0.3483604 0.030891309
-0.23665632 -0.04849832 -0.31673834 -0.23420897 -0.12006894 0.0811995 0.40608224 -0.08489933
0.07709876 0.06856667 -0.032740302 0.02344975 -0.010644507 -0.11287651 -0.07014269 0.183645
-0.23581798 -0.013093725 0.13371593 0.06618033 0.0038581814 -0.1498137 -0.14152378 0.14469501
-0.06798023 0.14731424 -0.2637952 0.15195493 -0.06233128 0.20535111 0.31498826 0.11140498
0.3608841 0.33232617 0.19886932 0.296059 0.04406389 -0.09173572 -0.04896553 -0.1502268
-0.08975581 0.015912138 -0.12643328 0.0067205075 -0.04221953 -0.15978794 0.29617006 -0.19119753
-0.092543945 0.0223169 0.12130085 0.20917906 -0.26087427 -0.032120477 0.07710413 0.19881073

_func._module._model.2.bias f4 [32]
00000000: 51e1 e1bd 8ba5 65bc 8eb9 bf3d 40e4 5a3e
00000010: 6d8c a0bd 8835 47bd 3939 97be f26a 013e
00000020: e52c 223e a9e5 603e ef8c 98be e389 503e
00000030: d331 4f3e a280 14be abc3 29be cf2a 603b
00000040: 6dfa 23be 3564 fdbd 7953 9ebd 4c24 0bbe
00000050: 72d6 31be e076 d2bd f3e7 86be 41fa 8abc
00000060: 6d0e d33c fbef 07be 5e11 c73d 9fa1 943d
00000070: 2ecf 96be d829 8b3d 8595 6dbc c964 143e
-0.11029304 -0.014016519 0.093615636 0.21376133 -0.07839284 -0.048635036 -0.29535845 0.12638453
0.15837438 0.21962608 -0.29795024 0.203651 0.2023385 -0.14502195 -0.16578548 0.0034205203
-0.16013499 -0.123726286 -0.07730765 -0.13588065 -0.1736696 -0.1027658 -0.26348838 -0.016965033
0.025763715 -0.13275139 0.097201094 0.07257389 -0.2945494 0.067950904 -0.01450098 0.14491571

_readout.weight f4 [1, 16]
00000000: d38a 7c3e f9ee 61be ff58 83be 48e5 863e
00000010: e1a1 a3be f047 243e efe2 a2be 9620 7a3e
00000020: ead8 8e3e 8382 973e 4059 a33e 2d4b 95be
00000030: 7cbc c5bd b07f 9abd baed 1cbe 74b8 9c3e
0.24662332 -0.22063817 -0.25653836 0.26346803 -0.3195944 0.16043067 -0.31813762 0.24426493
0.27899867 0.2959176 0.3190403 -0.29158917 -0.09655091 -0.07543886 -0.1532506 0.30609477
