hyperparameter_tuning/ray_results/SUD_learning_rate_tuning/MyTrainableClass_76b911ff_19_batch_size=16,name=SUD_v2,patience=1000,steps=200,steps_per_print=5,swa_step_start=2500,t_size=7,trai_2024-03-12_14-36-47/checkpoint_000000/checkpoint.pt (torch, 61346 bytes, 66 tensors)

_initial._model.0.weight f4 [16, 5]
000000 39 56 54 bf 10 c8 06 c0 b1 d7 b8 bf 80 33 91 bf
       -0.82944065 -2.1059608 -1.4440824 -1.1343842
000010 1f a6 31 c0 bf 5b e0 bf 65 58 5b c0 d9 ed 71 c0
       -2.7757642 -1.7527999 -3.4272702 -3.780142
000020 81 05 51 c0 56 12 21 40 e5 76 39 40 6e 00 21 c0
       -3.265961 2.5167441 2.8978817 -2.5156512
000030 ca 5d 52 40 57 43 63 c0 c9 89 ff 3f c9 d2 81 3f
       3.2869744 -3.550985 1.9963924 1.0142452
000040 55 19 4b 40 5a 22 14 c0 69 f8 4a 40 c2 41 65 3e
       3.1734211 -2.3145967 3.1714118 0.22388366
000050 16 52 2f 40 1d 38 8b bf 88 bd 58 be 14 69 1c c0
       2.7393851 -1.08765 -0.2116605 -2.4439135
000060 eb 06 af 3f 3a 47 2d c0 87 8d 87 bf a4 b8 3e c0
       1.3673986 -2.7074723 -1.0590066 -2.9800196
000070 13 9e d3 bf 8c d8 f7 3d b2 fe 4e c0 18 dd 46 3f
       -1.6532615 0.1210185 -3.2342954 0.7768111
000080 80 4d 27 c0 be 5d b6 bd 7d 12 65 bf 6a 50 5c bf
       -2.6141052 -0.08904599 -0.89481336 -0.860602
000090 d4 45 51 bf 17 87 ca 3f 74 ad 1d 3f b2 a6 02 40
       -0.81747174 1.5822476 0.61592793 2.0414243
0000a0 b5 8c 0b bf 63 29 68 c0 d5 75 5c c0 c3 b7 6c 40
       -0.54511577 -3.627526 -3.444692 3.698716
0000b0 99 f5 5b c0 8b c3 26 40 c6 3c 22 3f 14 19 cb 3f
       -3.436865 2.605685 0.6337398 1.5867028
0000c0 2c 02 df 3f d5 69 fd be 3a 5f 3b 40 1a 75 fa 3d
       1.7422538 -0.49494806 2.9276872 0.122293666
0000d0 22 26 f1 bf 2c 75 1f bf eb 0b c0 bf ce 27 87 3f
       -1.8839762 -0.62288165 -1.5003637 1.0559022
0000e0 66 bb 2c c0 eb f4 61 c0 7c 36 64 40 38 e3 43 3f
       -2.698938 -3.5305736 3.5658255 0.76518583
0000f0 1d a4 86 3e 9e 2e 9b 3f 9e f4 11 40 81 a9 40 be
       0.26297083 1.2123601 2.2805552 -0.1881466
000100 20 d5 23 40 9c 33 78 c0 a9 a9 f4 bf 76 0d 20 bf
       2.559883 -3.87815 -1.9114276 -0.6252054
000110 0d 5f e6 3f d8 95 18 c0 dd 72 3c 40 e2 82 4f 40
       1.7997757 -2.3841457 2.9445107 3.2423635
000120 15 45 42 40 d9 2a 77 c0 75 92 55 c0 36 df 83 bf
       3.0354664 -3.8619902 -3.337064 -1.0302494
000130 49 f7 f1 3e 9b f3 49 40 10 d3 41 3f c1 5f 5a 40
       0.47258976 3.1554935 0.7571268 3.4120944

_initial._model.0.bias f4 [16]
000000 f1 57 f6 3f b3 9c 5c c0 41 0b c4 bf 4b 09 47 3f
       1.9245588 -3.4470642 -1.5315934 0.77748555
000010 67 d9 d2 3e af c4 60 c0 f2 a0 d0 bf 2f f0 1d 40
       0.4118149 -3.5120046 -1.6299117 2.4677846
000020 bf 04 e8 3f c2 d5 48 bf e9 69 60 c0 9f 44 64 40
       1.8126448 -0.7845117 -3.5064642 3.5666883
000030 68 11 04 c0 53 3d a5 3f 7a 6f 1a bf 10 6a 47 3e
       -2.0635624 1.290934 -0.6032635 0.19474053

_initial._model.2.weight f4 [16, 16]
000000 34 cc 5e be 6a a2 9f be e2 8e 47 3d 32 c8 c2 bf
       -0.21757585 -0.311786 0.048720248 -1.5217345
000010 56 bf fa 3f e6 5b d2 bf 37 63 30 3f a9 fb 31 3e
       1.9589641 -1.6434295 0.6890139 0.17381157
000020 ee 7e 4d bf ed ae df 3f d0 f1 9a be 8d a8 bf bf
       -0.80271804 1.7475258 -0.30262613 -1.4973313
000030 b2 3f 21 3f 05 31 2b bf 8e 82 d2 3f fc 8b 04 c0
       0.62987816 -0.6687167 1.6446092 -2.071044
000040 bf e4 93 3f fb a9 04 bf 26 3e 19 c0 16 26 07 40
       1.1554183 -0.5182187 -2.3944182 2.1116996
000050 c3 c8 be 3f 2d 7a 1f 3f 6c f9 63 3f bc 62 dd bf
       1.4905018 0.622958 0.8905246 -1.7295756
000060 83 14 14 40 c4 34 4d 3b ec ef ee be 26 38 03 c0
       2.313752 0.0031311968 -0.4666742 -2.050302
000070 cc 29 b3 bf 3e 5b c8 be 7c 2a 69 bf 50 57 96 3f
       -1.399713 -0.39132112 -0.9108045 1.1745396
000080 32 02 2f bd 81 7c d9 3f f8 54 0e 3f 9d 87 73 bf
       -0.042726703 1.699112 0.555984 -0.95128804
000090 b4 cb 6a 3f 19 84 15 40 fc bd 39 bf 73 37 50 bf
       0.91717076 2.3361876 -0.7255552 -0.8133461
0000a0 92 a1 67 be b4 32 4a 3f b9 2e ae bf 1d 91 52 be
       -0.22620228 0.78983617 -1.3608009 -0.20563169
0000b0 c8 47 a6 bf 0e 4e c2 3f 9e 0f fe be b3 2a bf 3f
       -1.2990656 1.518007 -0.4962129 1.4934906
0000c0 c2 8b c4 be 40 a2 f8 bf 84 d1 80 3f be f2 97 bf
       -0.38387877 -1.9424515 1.0063939 -1.1870954
0000d0 7b bf f2 bf a7 ae 13 40 7f 43 ec be e2 f7 94 3e
       -1.8964685 2.307535 -0.46145245 0.2909537
0000e0 ea 36 c6 bf c7 77 02 c0 33 63 b5 3f 2e c7 42 bf
       -1.5485508 -2.0385606 1.4170898 -0.76085174
0000f0 1d f6 5c 3f 8d 3f 3f 3f 45 ab 76 3f 7d 38 0f c0
       0.8631304 0.74706346 0.96355087 -2.2378228
000100 08 31 21 bf 7c 35 02 3f 30 0d d6 bf 31 f6 f6 3f
       -0.6296544 0.5086286 -1.6722775 1.9293882
000110 75 9f b2 3f 10 d3 0d c0 5e 85 e2 3f d6 b4 4a 3f
       1.3954912 -2.2160072 1.769695 0.79182184
000120 9e a8 ce 3f c6 63 bb 3f 9e 9a 93 3f e9 ee 5e 3f
       1.6145208 1.4639823 1.153156 0.870833
000130 41 7a b2 3f 72 2c 47 bf 36 f4 a4 3f b6 3a e8 bf
       1.3943559 -0.77802193 1.2887027 -1.8142917
000140 d8 d7 29 bf ef 07 0d 3f cf aa 01 c0 69 fa 1b 40
       -0.66344976 0.5509023 -2.0260503 2.4371588
000150 49 f4 8a bf 2e b7 ab bf 62 80 d0 bf 4e c2 08 bf
       -1.08558 -1.3415277 -1.6289179 -0.53421485
000160 e3 37 b3 bf 05 6b 01 40 98 6a de 3e 61 73 e7 3f
       -1.400143 2.022157 0.434407 1.8082086
000170 7d 84 c0 3e 72 cc ee bf 17 80 4f 3f 2d 18 1c bc
       0.3760108 -1.8656142 0.81054825 -0.009527248
000180 31 00 ad bd aa 88 04 bf 1e 8f 71 3e 1d 66 ea 3e
       -0.08447302 -0.5177103 0.23589751 0.4578103
000190 83 d6 4d 3f c8 e7 bb bd 1c 45 84 3f f9 57 14 3f
       0.80405444 -0.09175068 1.033359 0.57946736
0001a0 5d a9 d6 3f a3 d5 2c bd 6e 80 27 bf 3a 2e 9d bf
       1.6770436 -0.042195927 -0.65430343 -1.2279732
0001b0 64 b2 f4 3f eb a5 8a 3f 15 0b d0 3f 55 20 5a 3f
       1.911694 1.0831884 1.6253382 0.85205585
0001c0 4e b6 77 bd fb 6f 11 c0 00 ce ac bf 7e f6 b7 be
       -0.060476594 -2.2724597 -1.3500366 -0.35930246
0001d0 06 56 7f 3f 15 df 07 c0 13 ed 14 c0 f1 07 d5 3f
       0.99740636 -2.1229908 -2.3269699 1.6643049
0001e0 c5 ff ac bf 0a 87 ad 3e 43 5f 1a 3f 12 ad 91 3f
       -1.3515555 0.3389209 0.6030161 1.1380942
0001f0 01 a3 14 3d 2b 18 97 bf 5c 15 cd be e2 7f 2b bf
       0.036288265 -1.180425 -0.40055358 -0.6699201
000200 d1 81 b2 3f 6f 3a 27 3f 8b 93 97 3e f3 42 bf 3f
       1.3945867 0.6532354 0.29604754 1.4942306
000210 f7 cf 15 c0 01 51 20 be bd 18 21 3f af 6e ee 3e
       -2.3408182 -0.156559 0.6292837 0.4656882
000220 2a 10 a3 bf 2a 02 e9 bf 5d 03 e8 be 0a 55 5f be
       -1.2739308 -1.8203785 -0.45315066 -0.21809784
000230 a4 10 d7 bf 32 88 9b 3e a1 ad 6d 3f a3 50 14 3f
       -1.6801953 0.30377346 0.9284306 0.5793554
000240 63 20 8b 3f 58 18 0f 3e 25 83 07 40 96 06 91 3f
       1.0869259 0.1397413 2.1173794 1.1330135
000250 b7 7a 6c bf 34 8e 0f c0 0a cc 4c be 9a 56 33 3f
       -0.9237475 -2.2430544 -0.1999971 0.7005402
000260 f3 f0 f9 3f 66 0c 16 bf cb 24 e6 3c 13 1a 57 bf
       1.9526657 -0.5861267 0.028093716 -0.8402416
000270 00 59 3d 3f 0f b5 2d 3e d8 47 08 3f 78 fe bc bf
       0.7396393 0.169636 0.53234625 -1.4765158
000280 c5 ac 92 3f 04 06 11 c0 17 0c 9a 3f 7a b9 c3 be
       1.1458975 -2.2659922 1.203494 -0.38227445
000290 df 3a ae bf 7d 75 7c 3f 3d 05 a0 bf 00 ac f7 3f
       -1.3611716 0.9861677 -1.2501599 1.9349365
0002a0 f0 bf fa 3f 53 45 f0 bf 47 bd e2 bf 4a b5 42 3f
       1.9589825 -1.8771156 -1.7714013 0.76057875
0002b0 52 b8 c2 bf 33 4f a6 bf 0b 9f 82 3f 5f eb f0 3f
       -1.52125 -1.299292 1.0204786 1.882183
0002c0 7b b9 16 3e 37 7b bd bf 91 06 73 3f 2d dd 9a bd
       0.14719193 -1.4803227 0.94931895 -0.07561717
0002d0 72 c8 cf bf 87 1a 11 40 9c 94 b1 bf 47 e8 0f bf
       -1.6233046 2.267244 -1.3873477 -0.562138
0002e0 2b 34 02 3f 05 e5 83 bf 0f 48 21 bf 18 38 5a 3f
       0.5086085 -1.0304266 -0.6300058 0.8524184
0002f0 d1 ed d7 be 00 e4 6b 3d 62 2f 97 3f d1 62 8e 3f
       -0.42173627 0.057590485 1.1811335 1.1123906
000300 a0 17 94 bf 50 79 e0 bf c3 38 ef 3f 31 ee 94 3d
       -1.156971 -1.7537022 1.8689197 0.07271994
000310 61 4c be bf 6b ba f8 bf 65 af a7 bf f8 fa 00 be
       -1.4867059 -1.943189 -1.3100401 -0.12595737
000320 dc 2f bc be 9a f8 4c bf 50 6a 01 40 3f e0 12 40
       -0.36755264 -0.80066836 2.0221138 2.294937
000330 df 37 db 3f 4b f2 f9 bf d8 ff af bf b7 59 c7 3f
       1.7126426 -1.9527067 -1.3749952 1.5574254
000340 b1 cd 50 bf b0 5f ca bd d9 2a 47 bf 9a 6a f7 3f
       -0.8156386 -0.09881532 -0.77799755 1.9329407
000350 33 16 11 40 7c 7d b0 3f 04 11 e8 3f 86 56 cd bf
       2.26698 1.3788295 1.8130193 -1.604203
000360 88 dd ef 3f a5 ee b0 3d f3 48 08 c0 51 1c d1 bd
       1.8739481 0.08639268 -2.1294525 -0.10210479
000370 cc 29 cb 3f 2e 64 3b bf 15 49 04 bf bf 14 27 bf
       1.587213 -0.7319974 -0.51674014 -0.6526603
000380 33 36 85 bf 62 c4 be 3f b0 22 99 3f e9 26 d1 3c
       -1.0407165 1.4903681 1.1963711 0.02553125
000390 d3 56 dd 3f 94 cc 2b 3f 76 cb 6f bf 23 53 d3 bf
       1.7292122 0.67109036 -0.9366983 -1.6509746
0003a0 c2 82 8e 3e 1e ef 41 bf 94 b1 1f bf f6 03 a9 3f
       0.27834135 -0.7575549 -0.6238034 1.3204334
0003b0 8a d0 b0 3f 5d c5 e0 be 68 11 22 bf dc 56 47 3f
       1.3813641 -0.43900576 -0.6330781 0.7786691
0003c0 36 1a 8f 3e cb 73 35 3f 9e a1 62 3f 7b c2 b5 3f
       0.27949685 0.7087981 0.8852786 1.4199976
0003d0 3b 04 f0 bf 08 11 99 3d f7 a7 1d 3f 36 80 d1 3e
       -1.8751291 0.074739516 0.6158442 0.4091813
0003e0 3a 2d 3f bf 69 0b ec bf b0 89 fb 3f 55 50 d5 bf
       -0.74678385 -1.8440982 1.9651394 -1.666514
0003f0 bc e0 9f 3f b5 d3 0e c0 49 e1 00 3f e9 14 e1 3f
       1.2490458 -2.2316716 0.5034376 1.7584506

_initial._model.2.bias f4 [16]
000000 90 96 07 3f 08 55 a4 be 08 71 1b 40 e6 d1 9b bf
       0.52964115 -0.32096124 2.4287739 -1.2173431
000010 25 1b 1a c0 61 f0 35 3e 27 d9 92 bf 6c 28 68 bf
       -2.4079068 0.17767479 -1.147252 -0.9068668
000020 71 7d e4 3f f3 0b 8d bb 9e 41 0c c0 49 be 27 bf
       1.7850782 -0.004304403 -2.191505 -0.6552473
000030 34 be ae bf 90 43 11 c0 29 4a 61 3f 58 dd 09 c0
       -1.3651795 -2.2697487 0.88003784 -2.1541348

_func._drift._model.0.weight f4 [16, 17]
000000 4a 81 32 3a 2f d0 b1 bb d2 4e a0 3b c5 47 a8 b9
       0.00068094267 -0.0054264287 0.0048922086 -0.0003209693
000010 d8 68 ec 3a af d3 90 3a 03 2b 36 bb e2 22 df 39
       0.0018036617 0.0011049415 -0.0027796633 0.00042559864
000020 a4 2b e7 3a 01 96 ac bb e7 6d 92 bb 7d 5a 8e bb
       0.0017636907 -0.0052669053 -0.004468668 -0.004344283
000030 4c 18 95 b9 14 0e 39 bb ad cf af bb fb 7a aa 3b
       -0.00028437597 -0.002823715 -0.005365333 0.0052026487
000040 f4 a1 96 3b d6 49 04 bb 43 18 85 bb ca 0a 31 3b
       0.004596943 -0.0020185611 -0.00406173 0.0027014487
000050 cb 07 80 ba 21 d0 4f bb f7 9c ab bb e1 1c 41 38
       -0.0009767947 -0.0031709748 -0.0052372175 4.604168e-05
000060 44 4e 3e bb 6d 0d c3 3a 7b 7b bf 3a eb 23 34 ba
       -0.002903835 0.001488132 0.0014608944 -0.0006871807
000070 c7 52 bd 3b 23 31 92 ba a8 41 b8 3b 80 34 e0 3a
       0.00577769 -0.001115356 0.005623061 0.001710549
000080 2b 71 df 3a ae 84 9b 3b 20 37 fc ba 01 27 b0 3b
       0.0017047276 0.0047460413 -0.0019242503 0.0053757434
000090 61 a6 28 3b cf c1 d4 ba 4a 23 2e 3b 47 c3 b6 bb
       0.0025733935 -0.0016232076 0.0026571327 -0.005577478
0000a0 e1 57 3d 3a ce ea a5 ba bd ff 9a ba 38 7a 97 bb
       0.0007222873 -0.0012658478 -0.0011825484 -0.004622724
0000b0 97 e0 3c 3b af 85 04 3b dd e5 1d bb 01 89 95 3b
       0.002882039 0.0020221283 -0.0024093308 0.0045634513
0000c0 aa 35 90 ba 58 43 12 b9 4d 83 63 bb 47 1d f1 3a
       -0.0011002321 -0.00013948733 -0.0034715713 0.0018395566
0000d0 ac 0c 09 3b ce 2d 85 3a 41 48 c1 39 68 ec b8 bb
       0.0020912094 0.0010160746 0.00036865662 -0.005643416
0000e0 f1 bf 9f 3b 54 71 70 b9 b2 52 60 3b b6 ec 68 3b
       0.004875176 -0.00022930402 0.0034228978 0.0035541481
0000f0 78 44 a5 bb ad 4e 7c 3b 57 e8 80 bb 0c be ef 3a
       -0.0050435625 0.0038499043 -0.003933947 0.0018290891
000100 49 ea a3 3b c5 53 a3 3b da d8 eb 3a 1f ae a8 bb
       0.005002294 0.0049843513 0.0017993704 -0.00514771
000110 5f 73 4a 3b 86 70 64 bb ba 93 18 3b 5d 05 b2 bb
       0.003089152 -0.0034857108 0.0023281411 -0.0054327683
000120 36 c1 1d bb 0b a6 90 bb 4a c0 92 ba dc a5 01 bb
       -0.0024071462 -0.004414325 -0.0011196223 -0.0019782698
000130 48 b6 b7 bb cc cf b9 bb 76 50 4b 3a 59 b4 4e 3a
       -0.0056064464 -0.0056705233 0.0007755825 0.000788515
000140 d1 60 15 bb 89 ea 48 bb f5 0c 91 bb ca 51 67 bb
       -0.0022793303 -0.0030657372 -0.0044265934 -0.0035296553
000150 d8 c5 11 bb f3 9e 1c bb 94 50 70 3b b2 93 c4 3a
       -0.0022243168 -0.0023898452 0.0036669122 0.001499763
000160 75 22 9c 3b c3 0e 9d bb b6 2a 06 3b fc a1 ad 3a
       0.00476485 -0.0047930195 0.0020472235 0.0013247128
000170 9c 75 99 bb 73 ec 4a 3b 63 e2 22 bb a3 83 16 bb
       -0.0046832096 0.0030963689 -0.0024854175 -0.0022966645
000180 99 ae 04 3b 04 26 b1 3a 98 ba a3 39 2c 38 aa 3b
       0.002024567 0.0013515358 0.00031228806 0.0051946845
000190 ec a9 d8 ba 3c 11 68 bb 2f 61 bd bb d6 c5 a1 3a
       -0.0016530133 -0.0035410663 -0.0057794075 0.0012342285
0001a0 05 06 93 bb a9 19 9a 3b 71 b5 e0 3a 60 a1 b3 ba
       -0.0044868016 0.004702766 0.0017143918 -0.001370471
0001b0 18 89 72 3b b1 a2 a5 3b d9 3c 8b 3b 3e 14 12 bb
       0.0037007984 0.0050547947 0.004249197 -0.0022289897
0001c0 46 be 07 3a 2c 85 49 bb 26 df 6b 3b 01 11 b3 3b
       0.0005178194 -0.0030749543 0.003599116 0.0054646735
0001d0 f9 14 2f b9 7a 87 7a 3b 2e 19 00 3b a7 db 39 3b
       -0.00016697113 0.0038227723 0.0019546258 0.0028359683
0001e0 03 71 8d bb 52 f2 82 bb dc e2 a1 bb 9d 9e b5 3b
       -0.0043164506 -0.003996172 -0.004940374 0.00554259
0001f0 3a fc 1a 3b 75 03 8c 3b 2b f5 82 3b b6 f9 98 3b
       0.0023648874 0.004272873 0.0039965115 0.0046684397
000200 d3 52 b8 ba 96 a9 b8 bb 09 4b 38 3a e4 c3 1b bb
       -0.001406277 -0.0056354506 0.0007030224 -0.0023767883
000210 3f 68 1f 3b 4a 29 23 3b 6c d8 12 3a a5 e5 b5 bb
       0.002432361 0.0024896436 0.00056017074 -0.0055510574
000220 4a a3 cc 3a 7d 55 50 bb 32 98 2e bb a9 7d 91 3b
       0.0015612629 -0.0031789236 -0.0026641008 0.0044400287
000230 a1 ab 43 bb 2d db f0 3a ce ef d9 ba 8f d1 74 39
       -0.0029856937 0.0018375866 -0.0016627253 0.0002334772
000240 b4 da 30 bb 5e 4a 09 bb d8 a3 a1 3b 1e a9 4f 3b
       -0.0026985826 -0.0020948867 0.004932862 0.0031686495
000250 ed 31 a1 bb bb 3d a9 3b d7 1d 64 bb 9b 97 74 bb
       -0.0049192817 0.0051648295 -0.0034807825 -0.003732181
000260 50 7d a8 bb c3 46 ae b9 2d 6d 2d bb 77 37 b9 bb
       -0.0051418915 -0.00033240588 -0.002646278 -0.005652364
000270 f3 80 21 3b 6a c0 b9 ba 48 18 12 3b ee 9e 90 bb
       0.002464351 -0.0014171724 0.0022292305 -0.004413477
000280 d2 13 71 bb 15 c0 59 bb b5 dc c6 b9 0f 23 a7 bb
       -0.0036785495 -0.0033226062 -0.00037929942 -0.005100615
000290 03 77 86 3a b9 b2 4b b8 5d 96 9a 3b 78 eb ad b9
       0.0010258857 -4.856542e-05 0.0047176317 -0.0003317257
0002a0 b2 76 a4 3b 9c 17 42 3b 32 ca 96 36 5e cd 7a b9
       0.0050190324 0.0029616123 4.493887e-06 -0.00023918363
0002b0 d0 81 e0 39 3d 00 02 3a 30 a1 b9 ba 45 97 64 bb
       0.00042821327 0.0004959142 -0.0014162418 -0.0034880203
0002c0 62 f3 37 ba e7 4e 45 bb 68 2a b6 ba 90 06 9a bb
       -0.0007017163 -0.0030106844 -0.0013898136 -0.0047004893
0002d0 ac 0d 97 3b d5 3a 31 3b e1 8b da ba 81 68 fc ba
       0.004609784 0.0027043123 -0.0016673767 -0.0019257219
0002e0 c8 dd b4 3b 23 1f b0 bb 24 6c b6 bb bb 39 96 ba
       0.0055196024 -0.0053748055 -0.0055670906 -0.0011461297
0002f0 3e ee c7 3a 3a a5 90 bb 57 4c 6e 3b 44 df d1 ba
       0.0015253497 -0.004414228 0.003636142 -0.0016011973
000300 c3 fd 8e 3b c3 03 7b 3b 9e d3 84 bb f8 a1 50 3b
       0.004363747 0.0038301803 -0.004053547 0.0031834822
000310 b8 75 3e 3b e4 fb 69 ba 1d e7 84 3b 86 12 9d bb
       0.0029061865 -0.0008925779 0.004055871 -0.004793468
000320 86 9a a7 3a e4 87 b4 ba 22 46 ae b8 bc db 0f bb
       0.001278714 -0.0013773409 -8.31003e-05 -0.002195104
000330 60 b7 21 bb e0 65 7c 3b 4f d4 5c 3b 7f a6 85 3b
       -0.002467595 0.003851287 0.0033695882 0.004078686
000340 2c ba 92 bb f2 45 39 3a d7 c8 c2 39 ff b0 88 bb
       -0.00447776 0.00070676126 0.000371522 -0.00417149
000350 ef 03 6f 3b 76 ba f0 ba 80 dc 46 bb 54 1d 82 b9
       0.003647085 -0.0018366117 -0.003034383 -0.00024817383
000360 80 87 30 3b 01 87 de 3a 84 d0 97 3b e6 47 0e 3a
       0.0026936233 0.001697749 0.0046330113 0.0005427584
000370 16 dc 9e bb 73 ec 07 bb df 55 5b ba e4 c5 a8 3b
       -0.0048480136 -0.00207403 -0.0008366983 0.0051505435
000380 64 36 29 3b 5b 3f cf 3a 92 6d 9a bb 88 8f 28 bb
       0.0025819773 0.0015811728 -0.004712769 -0.0025720317
000390 80 04 18 3b 44 21 4d bb ef 29 07 bb b2 d3 b4 3b
       0.0023196042 -0.0031300345 -0.002062436 0.0055184
0003a0 e3 4c 9e 3a 63 c7 22 3b 49 22 71 3b b4 cc b3 bb
       0.0012077357 0.0024838082 0.0036794117 -0.005487049
0003b0 8c 14 d4 3a c1 6a 8d bb 43 e6 e9 ba 21 cf 35 3b
       0.001618044 -0.0043157046 -0.0017845113 0.0027741867
0003c0 69 29 b5 bb 22 52 85 3b 17 5a e9 3a eb b3 62 3b
       -0.005528618 0.004068629 0.0017803338 0.0034592103
0003d0 2c c8 2b 3b e2 ab 20 3b 1c 05 1c b9 51 8e b0 3b
       0.002621184 0.0024516513 -0.00014879223 0.005388059
0003e0 cc d7 4a bb dc 1e 25 ba 56 df a0 ba b2 0f cf 3a
       -0.003095138 -0.0006298849 -0.001227359 0.0015797524
0003f0 9f 9c 3c 3b 61 6e 65 3b d4 ce 32 3b 09 1b 81 bb
       0.0028779877 0.0035008418 0.0027283924 -0.0039399904

_func._drift._model.0.bias f4 [16]
000000 ec 75 b5 3b c2 18 c5 b9 51 f8 17 3b 6b bc 0d 3b
       0.005537739 -0.00037593214 0.002318878 0.0021627198
000010 72 5b c7 b7 7a 96 14 bb 9e 9f 80 3b fb b7 ac bb
       -2.3765231e-05 -0.0022672699 0.003925278 -0.0052709556
000020 96 ff aa bb f9 d2 a7 bb d6 86 0a bb 59 39 ab 3a
       -0.0052184565 -0.0051215854 -0.0021137497 0.0013063356
000030 01 99 ab b9 14 7b f7 38 ed 53 97 3b 43 53 98 bb
       -0.00032729658 0.00011800803 0.004618159 -0.0046485974

_func._drift._model.2.weight f4 [16, 16]
000000 c2 09 23 bb 31 2f 11 3b 23 45 b0 bb f8 c1 c1 bb
       -0.0024877642 0.0022153372 -0.0053793355 -0.0059130155
000010 81 d6 77 bb 6b af b9 bb 2e c1 05 bb 59 1e b2 bb
       -0.0037817063 -0.0056666634 -0.0020409334 -0.0054357466
000020 83 0b 34 ba 54 9f 4e 3b 2f 88 a0 bb f6 11 bb bb
       -0.00068681705 0.0031528072 -0.004899047 -0.005708928
000030 08 6b 61 3b ea eb ff ba 2b e2 1e 3b 61 96 2e 3b
       0.003439607 -0.0019525264 0.0024243693 0.0026639926
000040 04 4b a9 ba 72 3b d0 b9 04 3f a3 b8 0b 21 9a bb
       -0.0012916033 -0.00039717142 -7.784183e-05 -0.004703646
000050 79 8a b1 3b 14 1e 9b b9 3f 8c 0a 3b 75 91 78 3a
       0.0054181186 -0.00029586314 0.0021140722 0.0009482124
000060 5d 7c a2 3b 9f b5 9b bb a2 5b 80 bb 9e 09 14 b9
       0.004958673 -0.0047518755 -0.0039171735 -0.00014117963
000070 2b c4 18 bb f2 b7 05 3b fe c4 ae 3b 57 7e aa b9
       -0.0023310285 0.002040383 0.005333542 -0.00032519057
000080 4e 0f a8 bb c9 57 a2 3b 55 8e c2 ba 67 c5 fa 3a
       -0.0051287776 0.0049543125 -0.0014843444 0.0019132317
000090 26 01 fe ba c7 59 ae 3b a4 1d 5f bb 50 ae 43 3a
       -0.0019379004 0.005320761 -0.0034044767 0.0007464634
0000a0 df e8 2f 3b 49 b3 a0 bb 01 d0 db 3a 0f d2 61 bb
       0.0026841683 -0.004904185 0.0016770364 -0.003445748
0000b0 8b 13 ac 3b 39 16 9f 3b 59 fe f5 3a 9b e0 3e bb
       0.005251353 0.004854944 0.0018767818 -0.0029125575
0000c0 e8 73 63 39 8c a8 a6 3b da e2 74 3b 00 61 38 bb
       0.00021691585 0.0050860103 0.003736666 -0.0028133988
0000d0 f1 e6 52 bb 48 c7 c2 ba bb c4 dc ba 1f 31 3d bb
       -0.003218111 -0.0014860416 -0.0016843298 -0.002886839
0000e0 72 30 bf bb 9b e6 61 38 38 2f ab 3a d7 33 8a bb
       -0.0058346326 5.385895e-05 0.0013060337 -0.0042176056
0000f0 15 f0 47 3b 91 f0 29 bb 79 3f 6e 3b 6e a2 2d bb
       0.003050809 -0.0025930742 0.003635375 -0.002649452
000100 f4 45 b1 3b c7 d0 61 bb 95 19 a5 3a bf 58 db 3a
       0.0054099504 -0.0034456716 0.0012596125 0.0016734822
000110 ca fe 8e 3b 6d a2 40 3b ea 32 9a bb ce bc 85 ba
       0.0043638693 0.0029393688 -0.0047057765 -0.0010203363
000120 49 92 9b b9 10 16 51 3b 20 09 56 bb 01 15 4c 3b
       -0.00029672895 0.003190402 -0.0032659248 0.003114045
000130 c3 e1 7a bb 6c 38 19 3b c3 cf 8a bb 78 64 b9 3a
       -0.0038281537 0.0023379577 -0.004236193 0.0014144322
000140 d6 04 d0 b7 59 d4 90 3b 8d 5a 34 bb 52 78 c9 3a
       -2.4797784e-05 0.004419845 -0.0027519793 0.0015370941
000150 73 35 89 bb a5 cc 38 bb 35 f6 53 3b b7 fa aa 3a
       -0.00418728 -0.002819815 0.0032342796 0.001304469
000160 29 1f 99 3b 95 1f 2f 3b 67 8b 6f 3b 07 bd 44 bb
       0.004672904 0.0026721705 0.0036551596 -0.0030019896
000170 9d 2a 15 3a 6b a4 b0 bb c9 42 e4 3a a9 09 8b ba
       0.0005690249 -0.005390694 0.0017414923 -0.0010607737
000180 ac e1 0e 3b 31 71 06 bb df 79 d6 ba c6 6b 67 3b
       0.0021801991 -0.0020514245 -0.0016363225 0.003531204
000190 dc 12 64 3b 87 12 ab 3b 14 20 b9 bb c2 9f 06 bb
       0.003480128 0.0052207145 -0.005649576 -0.0020542
0001a0 37 22 a8 bb 6c b6 99 3a 7b 55 a9 3b 99 2d e8 ba
       -0.005131032 0.001172734 0.005167661 -0.0017713784
0001b0 8b 19 1d ba 70 bc e0 ba 3c 80 05 bb 30 aa d6 3a
       -0.0005992881 -0.0017146003 -0.0020370623 0.0016377624
0001c0 d2 e4 82 3b 26 e2 7c bb 8f 7b 9c 3b 77 26 92 3b
       0.0039945627 -0.0038586943 0.0047754715 0.004460152
0001d0 04 b5 77 b9 28 64 86 bb 9f 11 98 bb a0 b2 86 ba
       -0.00023623189 -0.004101295 -0.0046407725 -0.0010276623
0001e0 46 b5 8a b9 07 26 96 bb 9a b2 b6 bb a3 22 ee 3a
       -0.0002645647 -0.00458217 -0.00557549 0.0018168282
0001f0 69 ea f8 39 1b de 86 3b 76 3c 96 3a 0e 4e 16 3b
       0.00047476895 0.0041158325 0.001146211 0.0022934708
000200 b2 94 24 3a 47 44 22 3b be b1 2e bb 87 c8 f3 37
       0.0006278261 0.0024759935 -0.0026656236 2.9061235e-05
000210 ad 17 4f 3b 30 ae fe 3a 34 17 36 3b 34 4a a9 bb
       0.0031599805 0.0019430574 0.0027784826 -0.0051663164
000220 b3 ec 27 b8 0a 16 49 bb 9c f9 b7 ba 87 69 2e 3b
       -4.0036346e-05 -0.0030683302 -0.0014036181 0.0026613192
000230 77 b1 9c ba ff 96 38 bb dc 76 04 b9 c0 28 74 bb
       -0.0011954744 -0.0028166173 -0.0001263278 -0.0037255734
000240 2e 8d 22 bb d5 01 2f bb b1 d8 b0 3b 5f 7a 32 bb
       -0.0024803388 -0.0026703973 0.0053969254 -0.0027233583
000250 61 51 54 bb 54 56 c7 ba c3 ff 8b 3b 72 c4 04 38
       -0.0032397138 -0.0015208223 0.0042724325 3.1654206e-05
000260 58 91 66 ba 35 9e 58 3b f0 b8 79 3b 58 56 b4 3b
       -0.00087954616 0.0033053283 0.0038104616 0.005503457
000270 cf bc 84 bb 76 07 4a 3b 77 15 80 bb 0e ae 3a bb
       -0.004050828 0.00308272 -0.003908809 -0.0028485092
000280 0d f5 a0 3b b4 87 08 3b d5 11 31 bb c1 cb c2 ba
       0.004912025 0.0020832838 -0.0027018685 -0.0014861749
000290 2d d2 63 3b 6b a2 89 3a 8f db a6 ba 3f 3c c9 ba
       0.0034762726 0.0010500675 -0.0012730228 -0.0015353038
0002a0 f4 33 e3 ba 4b 74 71 ba f0 0d 95 3b 49 36 89 bb
       -0.0017334209 -0.00092107494 0.0045487806 -0.0041873795
0002b0 08 5e 7a 3b 59 67 79 3a 73 4b c1 3b 51 c2 00 3b
       0.003820302 0.0009513996 0.005898887 0.0019647072
0002c0 3f c9 c2 bb a7 42 09 bb 68 41 83 ba 7a 07 08 3b
       -0.0059444006 -0.002094427 -0.0010013999 0.002075641
0002d0 ca 74 b3 bb d6 aa 05 3b fa 2c a1 ba 68 fa 5b bb
       -0.005476569 0.0020396016 -0.0012296729 -0.0033566002
0002e0 9e 50 8a bb bf 54 70 bb b4 c9 ac bb c7 4c e2 b9
       -0.004221036 -0.0036671606 -0.0052730683 -0.00043163283
0002f0 db 74 1a 3b d6 03 5a bb 40 4b 5f bb 2d bb 6c 39
       0.0023568186 -0.0033266447 -0.0034071952 0.00022576442
000300 fa 69 9e bb 0f 19 89 bb 82 6b cf ba b7 22 81 3b
       -0.0048344107 -0.0041838954 -0.0015824887 0.003940906
000310 8f 29 47 3b 97 32 91 3a 5d fc 00 bb f3 a1 a5 bb
       0.003038976 0.0011077699 -0.001968167 -0.0050547062
000320 ef cf 65 3b 0f df 64 39 05 70 25 3b 16 d2 58 b9
       0.0035066565 0.0002182687 0.002524377 -0.00020677628
000330 46 af 51 3b b1 7c 39 b8 8a 87 48 3b 3f ed 7d ba
       0.003199534 -4.4223565e-05 0.0030598366 -0.00096865365
000340 d0 21 ff ba 27 65 99 3a 4d c7 bf bb da 73 92 bb
       -0.0019465033 0.0011703119 -0.005852616 -0.004469377
000350 da 8d 1b 3a 56 5f ba 3b a9 74 d7 ba 6c 35 f6 ba
       0.00059339183 0.0056876345 -0.0016437966 -0.0018784232
000360 70 7d 63 3b 64 49 a5 3b 87 4f 6b bb 75 7b ae 3b
       0.0034712218 0.0050441492 -0.0035905556 0.005324776
000370 1c 04 fc ba 22 03 53 3b 23 af e5 3a 60 99 51 3a
       -0.0019227299 0.0032197912 0.0017523508 0.0007995572
000380 96 b8 9c 3b 84 f9 91 ba 0e e4 c1 b9 fb 8c 74 3b
       0.0047827465 -0.0011136984 -0.00036981743 0.0037315476
000390 7c 4a 16 bb 8e 51 c3 3a 5d de 63 3b d7 ce 8d 39
       -0.002293258 0.0014901625 0.003476999 0.00027047723
0003a0 d0 4d bb 3b 53 49 c8 39 2a 8f 27 3b 15 b8 5b 3b
       0.005716063 0.00038201603 0.002556751 0.003352647
0003b0 82 39 a1 3b 86 b5 35 bb a5 f3 1d b9 d4 5c 1c bb
       0.0049201855 -0.0027726605 -0.00015063451 -0.002385904
0003c0 27 55 2f bb ca b5 20 bb 15 43 44 3a 11 b8 87 bb
       -0.0026753636 -0.0024522417 0.00074868026 -0.0041418155
0003d0 0d a4 1c bb ce f7 99 3b 24 6c fe 3a 48 f8 c2 3b
       -0.0023901493 0.00469873 0.001941089 0.0059500076
0003e0 7a 7a 69 ba d6 f4 6c b9 f9 f2 47 bb 36 e3 6d 3a
       -0.0008906495 -0.00022597922 -0.0030509813 0.00090746896
0003f0 9b 64 ba 3a 9d 23 91 3b 6d de 92 bb c1 9a f1 ba
       0.0014220657 0.0044292943 -0.0044820816 -0.0018432961

_func._drift._model.2.bias f4 [16]
000000 07 1f a6 3b 73 c6 81 bb bf 50 24 3b 6b b4 8d bb
       0.0050696167 -0.0039604246 0.0025072542 -0.004324486
000010 b3 8c 30 bb dc fa b7 bb 66 60 5e bb 66 99 3d bb
       -0.0026939332 -0.0056146216 -0.003393197 -0.0028930544
000020 04 7d 9f 3b 69 59 7a bb 0f 85 87 3b 9e b8 2a 3a
       0.004867198 -0.0038200265 0.004135735 0.00065124955
000030 59 d1 2c 3b d0 c7 83 3b 8d 8c 91 3b 3e 07 97 bb
       0.0026369898 0.0040216222 0.004441804 -0.0046090176

_func._diffusion._model.0.weight f4 [16, 17]
000000 d8 dd a2 3d 3b e2 7d bd c6 47 29 bd 05 be 95 3d
       0.079524696 -0.06198333 -0.041328214 0.07311634
000010 2d a4 e6 bd 4a cb 3b bd 50 89 59 3d 69 13 72 3c
       -0.11261783 -0.04584817 0.053109467 0.014775136
000020 2e 3c b0 bc da e9 a7 3d 29 ad 89 3d 2b 3d 7a 3d
       -0.02151307 0.081989005 0.06722481 0.06109349
000030 a5 a9 ce 3c 97 80 c4 3c 79 45 02 bd b2 a9 d7 3c
       0.025227377 0.023987098 -0.031804536 0.026326034
000040 6a 0f 84 bd 4a 92 4d bd 4a 11 3b 3c f9 16 6d bd
       -0.064482525 -0.05018834 0.011417696 -0.057883237
000050 59 76 ae bc 30 33 4a bc 45 95 2f 3d ed 02 b6 3c
       -0.021296667 -0.012341306 0.042866964 0.022218192
000060 93 23 42 3d 34 95 f0 3c 52 50 89 bc 7b 60 62 3c
       0.047397207 0.02936802 -0.016761933 0.013816948
000070 d1 5b 1f ba ec 90 32 3d 0b fb 26 3d 1b a1 4e 3b
       -0.00060790504 0.04359524 0.040766757 0.0031529132
000080 75 84 8d bc 43 8a 9c bd 2b bf 68 3c 68 be 0d 3d
       -0.017275074 -0.07643559 0.014205734 0.034605414
000090 b5 8c 20 3d 31 02 59 3d 9e 83 14 bd c1 ef 5f 3d
       0.03919669 0.052980606 -0.036258332 0.054672007
0000a0 cb b8 5b bd ab b1 0d bb 95 c6 0b 3d 81 35 0a 3d
       -0.05364303 -0.002162079 0.03412493 0.03374243
0000b0 91 fd 59 3d bd 0a 85 3d 83 bf 54 bd cf c5 f7 ba
       0.053220335 0.06496189 -0.051940452 -0.0018903556
0000c0 c3 e8 2a 3d e4 20 98 3c 1f ec bb 3b 0a 26 e7 3c
       0.041725885 0.018570371 0.005734935 0.02821638
0000d0 cf eb 4e 3c 53 df 3b bc cd a0 b5 bc 96 c5 f4 bd
       0.012629463 -0.011466819 -0.022171402 -0.11951749
0000e0 64 66 cc 3c d2 c3 84 bc 53 fb d3 3c b6 3d a9 bd
       0.024951167 -0.016206656 0.025876677 -0.082637236
0000f0 b2 f0 93 3d 71 1a 8d 3c c7 f8 2d 3d 7a 49 08 3d
       0.07223643 0.017224522 0.04247358 0.033273198
000100 fb f6 f9 bc 8e 2c a0 bd dd 72 17 bd e1 32 4a bd
       -0.030513277 -0.07820998 -0.036974777 -0.04936493
000110 b7 f5 ab bd c0 04 58 3c 22 04 d3 3c 23 d6 93 bd
       -0.08396476 0.013184726 0.025758807 -0.07218578
000120 2d d4 84 3d b7 f9 8b bd 4a 23 35 3b 0d 90 c8 bd
       0.06485782 -0.06834739 0.0027639442 -0.097931005
000130 3d 7b fb 3c 5e 81 e4 bd 3c 8b 39 bd a0 fe d2 bc
       0.030698413 -0.11157487 -0.0452988 -0.02575618
000140 fa 62 b3 bd 34 e8 13 bd f8 f9 9a 3b c1 14 35 bd
       -0.08759113 -0.036110118 0.0047295056 -0.044209246
000150 ac 15 34 3c 28 94 b1 3d 51 b4 aa bd ac 9d a3 3c
       0.010991495 0.08670837 -0.08335174 0.019972645
000160 95 32 a4 bc 14 d9 cf bd f7 ca 5f bd bc a7 f7 bc
       -0.02004365 -0.10148826 -0.05463692 -0.03023135
000170 b4 63 fe 3a 6e c0 9e bd 11 96 84 3d ad 94 be bc
       0.0019408376 -0.07751547 0.064739354 -0.023264254
000180 89 b6 90 3d 0d cc 4e bd eb 38 39 bd e5 f7 04 3d
       0.07066066 -0.050487567 -0.045220297 0.032462973
000190 9e bf 40 3d 99 25 f5 3a 67 66 ef bd 47 e0 97 bc
       0.04705774 0.0018703222 -0.116894536 -0.018539561
0001a0 ac 46 ca bc 9c 5e 59 bd 1f a1 26 3b 67 fc 87 bd
       -0.024691902 -0.053068742 0.0025425625 -0.06639939
0001b0 00 98 fc 3b 48 c5 9a bc 87 bd 62 3d dc 85 aa bd
       0.0077085495 -0.0188929 0.05535653 -0.08326313
0001c0 83 ff 6b bd be 43 56 bd 3b 9f 7c bd 2a 36 1a bd
       -0.05761672 -0.052310698 -0.06167529 -0.03764931
0001d0 cb 44 31 3d de 03 b9 bd 92 29 28 3d 3c 50 0e bd
       0.043278497 -0.09033941 0.04105527 -0.034744486
0001e0 81 4e 21 bb ff 7a 95 bc d9 0a ae bd 2a 9f bc bb
       -0.0024613442 -0.018247126 -0.08498163 -0.0057562785
0001f0 44 e3 92 bc 66 7d 14 bd fa ce 83 bd 91 5b 7a 3b
       -0.017930634 -0.0362524 -0.06435962 0.003820155
000200 ba 12 95 bd 0b 7b 52 bd 70 2c a3 bd c1 9c fd bc
       -0.072789624 -0.051386874 -0.0796746 -0.030958535
000210 59 bf cc 3b de 2a d8 bc 94 1a 87 bd 30 0a ed 3c
       0.0062483964 -0.026387628 -0.06596866 0.028935522
000220 4f 85 16 3d 89 b4 94 bd de 0a d2 bb 7a 59 fb 3c
       0.036748227 -0.07260997 -0.006409987 0.030682314
000230 39 cb c3 bd 6c 49 77 bc da ab 17 3d 5a 4b 72 3d
       -0.09560246 -0.015093189 0.037029125 0.059153892
000240 32 87 0c bb 06 9f f7 bb 7b 7c c9 3b 47 7e 4d 3d
       -0.0021442887 -0.007556799 0.0061488724 0.050169256
000250 c2 53 40 bd 72 eb f5 3c b0 87 6a bd c2 6b 9c 3c
       -0.046954878 0.030019496 -0.057258308 0.019094352
000260 6f b2 51 bd e7 3c 16 bd d9 9a 3b 3d e6 88 80 3b
       -0.05119556 -0.036679175 0.04580197 0.0039225696
000270 6e 00 e2 bd ff 83 a3 3b 5a 95 11 bd b2 ca 0a bd
       -0.11035238 0.0049901004 -0.035542823 -0.03388471
000280 ff e7 82 bd dc f1 2b 3d 7b 60 41 bd 0c ea b8 bd
       -0.06391906 0.041978702 -0.04721115 -0.09029016
000290 36 c1 27 bd 98 4e 4e bc 2c 4c 5f bb b9 47 de b9
       -0.040955745 -0.01259198 -0.0034072502 -0.00042396577
0002a0 a6 76 9f bd 77 db 33 3d c6 28 cc bd 2d 06 33 bd
       -0.07786302 0.04391047 -0.099687144 -0.04370706
0002b0 cf 9a 2c bd 4e df c6 bc b9 67 48 3d f1 55 a0 3c
       -0.042139824 -0.024276402 0.048927043 0.01957223
0002c0 be d0 8e bd 0c e7 32 bd a8 8c 73 3d ec aa 00 be
       -0.06973408 -0.043677375 0.059460312 -0.12565202
0002d0 3b fd 87 bd 8e f3 f7 bc 86 2e 3b bd b7 10 d8 3b
       -0.06640097 -0.030267503 -0.045698665 0.0065937894
0002e0 70 0c 0b bd 87 3f 44 bd 2a df b9 3c 58 f9 f6 3b
       -0.03394741 -0.047912147 0.02268942 0.0075370483
0002f0 7c 39 c7 3c 16 22 79 bb d9 3f 0e 3d 19 69 12 bc
       0.024319403 -0.0038014702 0.03472886 -0.00893619
000300 0b 91 60 bc 44 1f b5 bb 53 c0 5c 3d b8 bc ab bd
       -0.013706456 -0.005527409 0.053894352 -0.083856046
000310 e5 b9 04 3c b2 7f e8 bc b0 08 7b 3d 5a f0 01 3d
       0.008100961 -0.028381202 0.061287582 0.031723358
000320 4a 0a b2 bd 8d 1b a3 bc 34 ad 6c 3d 38 f0 80 bd
       -0.08693369 -0.019910598 0.057782367 -0.06295818
000330 cb b5 80 bd 0a f5 68 3b 50 1a bf 3b 90 d5 bb bd
       -0.06284674 0.0035546445 0.005831994 -0.09171593
000340 68 28 23 3d 10 72 4a 3b 28 79 83 bd 60 a6 a5 bd
       0.039833456 0.003089074 -0.06419593 -0.08088374
000350 91 2f 7e 3c d2 d6 3d bd 40 7b a0 bd 63 90 61 bd
       0.01551427 -0.046347447 -0.07836008 -0.05506934
000360 a3 f4 2b bd 6c 1d d6 3c 5d 83 80 bc 89 1c 3c bd
       -0.04198135 0.026137076 -0.015687639 -0.04592565
000370 5a a7 6f 3d 09 90 83 3d 2c 51 4a 3c c6 3f 5d bb
       0.05850921 0.06423957 0.012348454 -0.0033759936
000380 8a 65 83 3d 95 e0 8c bd ca 11 1b bd 17 86 71 bc
       0.064158514 -0.06878773 -0.03785876 -0.014741442
000390 d3 8d 03 3d bf 9c 63 bd ce 66 9d 3d 20 ac 88 3d
       0.032117676 -0.055569407 0.07685624 0.06673455
0003a0 aa 46 5c 3d 8a 69 b0 3c 41 80 8a 3c 38 34 76 bc
       0.053778328 0.0215347 0.01690686 -0.015027098
0003b0 93 8b 7f bc c3 82 4b bc ec de 16 3c 65 b9 04 3b
       -0.015597242 -0.012421313 0.009208422 0.0020252105
0003c0 65 40 cc 3c 60 b4 07 3c 37 d5 95 bc 3c 98 22 3c
       0.02493305 0.008282751 -0.018290145 0.009923991
0003d0 32 d2 b0 bb 5d 14 14 3d 39 9b 9c bd a3 50 71 3c
       -0.005396151 0.036152232 -0.07646794 0.014728698
0003e0 75 cb df 3c 94 a3 03 3d cb ca b3 bb 50 dd b7 bd
       0.027318696 0.032138422 -0.0054868213 -0.08977759
0003f0 c2 df 01 bd e9 81 20 3d a4 69 d1 bc 61 ca 60 bb
       -0.031707533 0.039186392 -0.025563069 -0.0034300315

_func._diffusion._model.0.bias f4 [16]
000000 93 3c db 3d fb 00 6c 3c 8e 68 7b 3c db 58 c6 3d
       0.10704913 0.014404531 0.015344752 0.096849166
000010 49 37 30 bc 98 93 6d 3c a9 fe 70 bd 5a 75 ce bd
       -0.0107553685 0.014500521 -0.058836613 -0.10080977
000020 00 25 6f 3d c9 12 e3 bc 6c 0a a9 bc 0e 83 4c 3d
       0.058384895 -0.027718918 -0.020634852 0.04992967
000030 29 2b a9 bd bf 22 bd 3d 4d bc 9e 3d 62 03 06 3c
       -0.08260185 0.09235143 0.07750759 0.008179517

_func._diffusion._model.2.weight f4 [48, 16]
000000 80 93 94 3d 83 53 58 3d f2 49 07 bc 3f c4 3e 3d
       0.07254696 0.052814018 -0.008257376 0.046573874
000010 93 52 c8 bd ae f6 26 3d dd 85 6d 3b e5 55 d8 bb
       -0.09781375 0.040762596 0.0036243119 -0.0066020363
000020 8e 8f 1a 3d 39 e5 b0 bd 59 a1 33 3c 37 b6 7b 3d
       0.03773456 -0.08637471 0.010963761 0.06145307
000030 2f d2 68 bd b1 76 cf bc 76 69 94 bc 38 09 92 3d
       -0.05684107 -0.025325151 -0.018116694 0.071306646
000040 8e 71 11 3d b9 14 21 bd d8 db e3 bc a2 da 34 3c
       0.035508685 -0.039326403 -0.02781479 0.011038454
000050 a7 63 94 bd b0 d5 50 3d 12 02 0f bd 9a 7f b5 bd
       -0.0724557 0.05098504 -0.034914084 -0.08862229
000060 f8 50 9f 3d ad 91 1e bc 1b 8c 0e 3c bf 10 8a 3d
       0.077791154 -0.0096782865 0.008700396 0.06741475
000070 14 0b 79 bc ca 16 d1 bc 8d e0 ee bc 53 05 69 bc
       -0.015200395 -0.025523562 -0.029159809 -0.014222461
000080 a1 22 1e 3c 07 4f bf bc e6 8f 0d bd 7d 41 c7 3d
       0.009651811 -0.023353113 -0.03456106 0.09729288
000090 3d d5 af bd 31 3b 23 3d d5 21 3b bd a7 d9 c4 3c
       -0.08585594 0.03985137 -0.04568656 0.024029566
0000a0 30 1a 5b bc 94 c7 fb bc 27 e7 b5 bd 87 c5 b1 bc
       -0.013372943 -0.030734815 -0.088819794 -0.021700634
0000b0 25 7a f7 bc d4 f5 05 3a 2b 93 b6 3c fb 1b 9e bc
       -0.03020961 0.00051101786 0.022286972 -0.019300452
0000c0 fb 9b 95 3d 03 2f 6e 3d c1 d3 55 bd 8d 36 67 3c
       0.073051415 0.058150303 -0.052203897 0.014112127
0000d0 ce 31 9f 3b 04 52 8b bc db 29 33 bd cb 8d 0d bd
       0.004858232 -0.017006882 -0.04374109 -0.034559052
0000e0 6f 3e 64 3d af fb 2e bd e5 ef 93 bc 33 5c 49 bc
       0.055723604 -0.042720493 -0.018058727 -0.012290048
0000f0 a3 d0 c3 bc 4e 12 d3 bb bd 12 80 3d 76 6e 26 3d
       -0.023903197 -0.006441391 0.06253574 0.040632688
000100 e4 42 89 3d 61 85 f0 3b 31 1e 13 bc 2d b5 c3 3d
       0.067022115 0.0073401188 -0.008979366 0.09556041
000110 cd 32 2d bd 23 bb 8a 3d 2e 86 8c bd 29 da 0c 3c
       -0.042284776 0.06773975 -0.0686153 0.008596935
000120 ed 81 41 3d cf 30 a9 bd 44 95 12 bd dd 41 1b bd
       0.047243048 -0.082612626 -0.035786882 -0.03790461
000130 13 c0 e3 bc 93 28 b5 3b 43 fe 35 3b 35 be 6c 3c
       -0.027801549 0.0055285185 0.002776996 0.014449646
000140 2e d2 b8 3d b6 58 87 3c 3e 7a 4f bd 5e a3 88 3d
       0.090244636 0.016521793 -0.05065369 0.06671785
000150 e8 6b ec bc f7 3f 37 3d c8 2a f2 bc 5c 35 98 bc
       -0.028860047 0.044738736 -0.029561415 -0.018580131
000160 52 6d 0c 3d 06 2a 2c bd 2f 66 96 bb 0d f2 72 3d
       0.034283943 -0.042032264 -0.004589818 0.05931287
000170 d2 0b be bd 4e 61 ba 3c 86 fd a4 3c d1 1f 79 3d
       -0.09279598 0.022751477 0.02014042 0.060821358
000180 1e d6 a0 3d 33 12 1f 3d 51 09 75 bd cb a1 d5 3c
       0.078533396 0.038835716 -0.059823338 0.026078125
000190 b9 d1 79 3b de 54 02 3c d2 c5 36 bd 58 96 92 bd
       0.003811939 0.007954804 -0.04462225 -0.07157582
0001a0 8c e4 52 3d 47 47 ae bc 02 e6 24 bd d8 3f 3a 3d
       0.05148749 -0.021274222 -0.040258415 0.045471042
0001b0 05 f5 39 bd c3 c4 a1 bb a5 82 98 3d b6 98 52 3d
       -0.045399684 -0.004936786 0.074467935 0.051415168
0001c0 6f e1 af 3d fa 98 bd 3b e8 67 0f bd 4a 85 85 3c
       0.0858792 0.0057860585 -0.035011202 0.016298909
0001d0 be 55 81 bd 35 ac 90 3a fe e6 57 bc a4 ee 7e bd
       -0.06315182 0.001103765 -0.013177631 -0.062239304
0001e0 39 80 be 3d dd d2 ad bd bc ae c3 bc d7 5e 6e 3d
       0.093018 -0.084874846 -0.02388703 0.058195915
0001f0 de 96 b5 bd ed e7 2f 3d bd e0 a5 3d 31 08 26 3d
       -0.08866666 0.04294579 0.08099506 0.040535156
000200 28 49 e0 bc 47 03 be bc b4 e2 33 ba f7 b7 16 3d
       -0.027378634 -0.023194922 -0.00068620895 0.036796536
000210 bf 22 62 bd 58 bc 3c 3d cc 51 c0 bc 77 fb 9f 3c
       -0.055208918 0.046078056 -0.023476504 0.019529087
000220 70 86 28 3d 26 a3 00 3c 9b cd 34 bd 7c b5 ba 3c
       0.041143835 0.007851398 -0.044141393 0.022791617
000230 88 fe b0 3b 5e 36 de 3c 3f 4f 89 3d 11 7c 6c 3d
       0.0054014362 0.027125534 0.06704568 0.057735506
000240 51 eb a0 ba 41 32 61 bc 62 d7 1e bc 10 4b 9b 3c
       -0.0012277161 -0.013744892 -0.009694906 0.018956691
000250 9b 81 e7 bc 39 cd 3e 3d fb 25 0b 3c 90 e9 a1 bd
       -0.028260043 0.046582434 0.008492942 -0.07905877
000260 56 e2 43 3d 2b db 1c bd d5 df 7c bd 6c 2d 86 3d
       0.047823273 -0.038294952 -0.0617369 0.06551632
000270 35 f0 b9 bd dd 02 28 3b 6d c8 75 3d 57 0a f8 bc
       -0.09079019 0.0025636472 0.060005594 -0.030278368
000280 77 83 c6 3a d1 18 e7 bb 58 10 29 3d cb 63 33 3d
       0.0015145381 -0.007052519 0.041275352 0.043796342
000290 bb 15 d5 bd 05 18 82 3b 27 fc 85 bd ce c0 93 bd
       -0.104045354 0.0039701485 -0.06542235 -0.07214509
0002a0 ab 66 78 3c 93 ed 85 bd 72 b5 ce bd 26 2e 22 3d
       0.015161197 -0.06539454 -0.10093202 0.03959479
0002b0 cf 0f 5c bd c4 02 96 3d f3 9e a3 3c a0 42 85 3d
       -0.053726014 0.07324746 0.019973254 0.06506848
0002c0 7c a7 af 3d db f2 30 3b 08 96 20 bd 47 cd f8 3c
       0.08576867 0.0027000222 -0.03920558 0.030371321
0002d0 32 01 ba bd 95 e1 d0 3c e6 cc 87 bd 63 3b a1 bd
       -0.09082259 0.02549819 -0.06630878 -0.07872655
0002e0 cb 34 b8 bc 9f 68 aa bc 45 ac 67 3c 5f 04 4a bc
       -0.022486111 -0.02080184 0.014140193 -0.012330144
0002f0 56 2f aa bd 32 94 89 3c 68 68 05 3d ac 14 94 3d
       -0.0830981 0.016794298 0.032570273 0.07230505
000300 f2 d9 05 bd 85 ab b2 3c e9 c4 45 3c a2 41 4d bd
       -0.032678552 0.021810303 0.012070873 -0.05011142
000310 1c a7 30 3b 26 f2 4d bd 71 dd 03 3c 5e cd de bc
       0.0026955074 -0.05027976 0.008048401 -0.027197536
000320 27 7d 89 bc b8 86 b2 3c c7 77 6a 3d 90 1d 91 bc
       -0.01678331 0.021792755 0.057243135 -0.017714292
000330 61 cd 78 3d 58 3b 46 bd f8 28 ab bd bf 1c 95 bd
       0.06074274 -0.04839644 -0.083574235 -0.072808735
000340 fa 9d 28 3c 64 51 00 bc 9d 26 8d ba 0a 17 c9 bd
       0.010291571 -0.007831905 -0.0010768954 -0.098188475
000350 10 46 82 3c f9 cc 80 bd 78 6d ab 3b aa 62 06 3d
       0.015902549 -0.062890954 0.0052315556 0.032808937
000360 5f ed 90 bd cf ae 64 3c 0e 4f 30 3d 72 ab 2a bd
       -0.07076525 0.013957693 0.043044142 -0.04166741
000370 aa 8a 5d 3d cf d5 f2 3c 7d ed 17 3d 5e a5 c7 3c
       0.05408732 0.029642968 0.03709172 0.024370845
000380 12 58 52 bd 14 cf c2 3c eb ae 17 3d a6 a8 4f bd
       -0.05135352 0.023780383 0.03703205 -0.050697945
000390 6e 0e 90 3d bd 44 25 3c d5 46 05 3d 58 85 ac 3d
       0.07034002 0.010087189 0.032538254 0.08423871
0003a0 dc e8 e3 bc fa aa 97 3d 1a 5b c6 3b 3d df be bc
       -0.027820997 0.07405658 0.0060533406 -0.023299808
0003b0 9e d0 a7 3d fa 93 52 bd 5d 6f 19 bd d4 3f a0 bd
       0.081940874 -0.051410653 -0.03745972 -0.07824674
0003c0 5a f4 f4 bb 15 36 cd bb 4e 28 30 bd d7 df ec 3c
       -0.007475418 -0.0062625506 -0.043007188 0.028915329
0003d0 eb cb 27 bd ad b7 76 ba db 79 88 bd e8 36 a7 bc
       -0.040965956 -0.0009411525 -0.06663867 -0.020411924
0003e0 3a e4 a1 3b 2a 70 b6 bd 30 33 81 bd 8b df 4b 3d
       0.004940537 -0.08908112 -0.06308591 0.049773734
0003f0 68 35 86 3a 8d 44 88 3d a5 8d 2e bb 14 86 f9 3c
       0.0010239305 0.066537 -0.002663472 0.030459441

_func._diffusion._model.2.bias f4 [48]
000000 1f 15 8a 3d 61 27 b1 3d 4c 9d c9 3d 46 6b a0 3d
       0.0674231 0.08650089 0.09844455 0.07832961
000010 80 e1 f0 3c bf 26 51 3d df eb 16 3d ba 70 6b 3d
       0.029404402 0.05106234 0.036846038 0.05748055
000020 f5 37 b2 3c 77 a3 ea 3c 05 19 e1 3d 92 09 da 3c
       0.021755198 0.0286424 0.109911 0.026615892
000030 3f 48 2b bd fb 6c 6e bc c3 36 9e bd c1 cb 85 3a
       -0.041816946 -0.01455235 -0.07725289 0.0010207818
000040 b9 43 b8 3b ac 86 8b 3d 21 7e 67 bd 31 dd da bd
       0.0056233075 0.06812796 -0.05651677 -0.1068672
000050 94 ae bc bd 9f 44 20 bc 76 5d 4a bd 75 0d d0 bd
       -0.09212986 -0.009781986 -0.049405538 -0.10158817
000060 79 62 ca bc 51 86 b7 bc f4 4c 68 3d 5a 13 92 bd
       -0.024705159 -0.022402914 0.056714013 -0.07132597
000070 da 53 d7 bc 8d b4 30 bd 3b f3 65 bc 05 9f 6a bd
       -0.0262851 -0.043140937 -0.014035041 -0.05728056
000080 97 b4 db bd 3a 2c c0 3d 1a f0 91 3d 6f 9f b0 3d
       -0.10727804 0.093834355 0.07125874 0.086241595
000090 2b b2 2f 3d f5 d2 28 3c a4 70 93 3c 27 c5 ed 3b
       0.042894524 0.010304202 0.017998047 0.0072561684
0000a0 33 fa be bc 44 1f 8b bd d9 10 3b 3d 26 5e 90 3d
       -0.023312664 -0.06793073 0.045670364 0.070492074
0000b0 56 45 c3 3d 99 b5 5c bd c3 5b 8d bc 0b c1 fb 3a
       0.09534709 -0.053884123 -0.01725567 0.0019207312

_readout.weight f4 [1, 16]
000000 25 03 c1 bd cb 5f 45 be 5a 06 77 be 07 00 52 be
       -0.09424428 -0.19274823 -0.24123517 -0.20507823
000010 2d 42 9c 3d b1 2e cb bd 2f c2 e2 3b 96 04 05 3e
       0.076298095 -0.09921015 0.006920121 0.1299003
000020 6a 38 ea bc 7f 9c 8b 3d fb ff ae 3d 25 74 8b be
       -0.028591353 0.06816959 0.08544918 -0.2723705
000030 de a3 71 be 2d 80 a9 bb 53 e5 8e bd a1 a7 16 3e
       -0.23597667 -0.0051727504 -0.06977334 0.14712383

_initial._model.0.weight f4 [16, 2]
000000 9a f6 21 b6 b5 db ae be 66 74 2d b6 71 1b 9b 3f
       -2.413441e-06 -0.34151998 -2.5846762e-06 1.211775
000010 fd de c0 34 e4 00 38 bf 75 61 b7 36 77 f1 10 bf
       3.5925032e-07 -0.7187636 5.4651705e-06 -0.56618446
000020 ff b5 88 b6 ee d8 a0 be 63 b1 3a 36 eb aa 32 bf
       -4.074303e-06 -0.31415504 2.7819412e-06 -0.6979205
000030 11 fd 3d 36 8b 63 65 3f 42 74 dd b5 96 ab ab 3f
       2.8310499e-06 0.89605016 -1.6499619e-06 1.3411739
000040 6f 7e 5c 34 dc 4e 3d bf a4 f1 52 b6 2c fc 3c 3f
       2.0535093e-07 -0.73948455 -3.1433092e-06 0.73822284
000050 b5 f0 7b b6 f8 c5 dd 3d 76 8b b8 36 4c 18 ae be
       -3.7542025e-06 0.10828775 5.4998627e-06 -0.34002912
000060 fb 9d be b6 7a c7 b1 bf b5 04 36 36 89 a2 be 3e
       -5.6808326e-06 -1.3889 2.7122853e-06 0.3723338
000070 dc 6d 9c 35 7b 22 1f 3f d0 9b d7 b5 e5 c6 1f 3f
       1.1654879e-06 0.6216199 -1.6064096e-06 0.62412864

_initial._model.0.bias f4 [16]
000000 36 58 01 bf 17 2e 0c bd 46 db 93 3d fe c8 0a 3f
       -0.50525224 -0.034223642 0.072195575 0.5421294
000010 f9 bf 80 be 44 98 1c bb 1b da a6 be c8 a6 05 bf
       -0.25146464 -0.0023894468 -0.32588276 -0.52207613
000020 d4 38 40 3f 44 a0 10 3e fa 6c 8e bd d8 fb 01 be
       0.7508671 0.14123636 -0.069543794 -0.12693727
000030 d8 f9 60 be 1b 36 b4 be 1f 98 7b 3d 8a 69 bb 3e
       -0.21970308 -0.3519753 0.06142437 0.36603957

_initial._model.2.weight f4 [16, 16]
000000 ae b0 2d bd a9 d0 fb be 61 03 6c bc 7b 80 6a bd
       -0.042404823 -0.49182633 -0.0144051025 -0.057251435
000010 80 34 80 be d9 45 19 be 0e 9a 21 be b1 72 49 be
       -0.25040054 -0.14968051 -0.15781423 -0.19672658
000020 f1 85 24 bd 8f e7 5d be 52 8f 50 bb 24 d6 2f be
       -0.0401668 -0.21670364 -0.0031823707 -0.17171532
000030 da d0 40 be a7 d8 e3 bd 77 f1 a5 3d 12 4b 51 be
       -0.1882967 -0.111253075 0.081026964 -0.20438793
000040 e3 b6 d7 3d d7 5b c4 3e 6d e1 d4 3e f3 b4 88 3e
       0.1053293 0.38351318 0.41578236 0.26700553
000050 c1 21 2c 3e 69 1e c0 3e b4 14 74 3e aa 7a 8a 3e
       0.16809751 0.375232 0.23836023 0.2704671
000060 bd 30 51 3e 7c 99 64 3e bc 1c 66 3a 32 3b 11 3e
       0.20428748 0.22324175 0.00087780855 0.14182737
000070 83 f4 01 3f 97 4f 32 be 47 3b 8f 3d 10 31 8f 3e
       0.5076372 -0.17413174 0.06993728 0.2796712
000080 67 90 8d be fe 85 c7 3e 1b 46 00 3e 36 8c 1b 3e
       -0.27649233 0.38969415 0.12526743 0.15190205
000090 0a d9 bd be 22 dd 0d 3e 9a 8f 98 3d b7 a4 03 3e
       -0.3707965 0.13853887 0.07449265 0.12855802
0000a0 8e c7 7c 3e a2 72 e6 3e be dd 87 be 2c bd 88 be
       0.24685499 0.45009333 -0.26536363 -0.26706827
0000b0 67 dd 91 3e 5c 96 ba bc 40 01 a3 3d b0 92 08 3f
       0.2848923 -0.022776775 0.07959223 0.5334883
0000c0 95 47 99 3c 57 5f 1c 3f 71 49 2b 3e 2f 3f c5 3d
       0.01871089 0.6108298 0.16727234 0.09631192
0000d0 80 ac 8b bd b6 16 ad 3d ac d0 a8 3e 75 21 dd 3e
       -0.06820011 0.084515974 0.32971704 0.43189588
0000e0 04 1a 34 3e 76 7e ef 3d 5a 64 40 be 64 3b 36 3e
       0.17588049 0.116940424 -0.18788281 0.17796093
0000f0 bb 95 8e 3e b3 44 f8 bc 45 db a5 3e f6 e1 9a 3c
       0.2784861 -0.030306196 0.32393852 0.018906575
000100 13 f8 d5 bd fd d4 e9 3e c7 07 3b 3e f8 e1 1b 3e
       -0.10447707 0.4567031 0.18264686 0.15222919
000110 f3 0f 79 bd 91 14 a9 3e ef 4a cc 3d bd 29 ff 3e
       -0.060806226 0.33023503 0.0997523 0.4983653
000120 67 e4 25 be 92 4d 9a 3e d9 03 42 be 99 1d f5 3d
       -0.1620041 0.30137306 -0.1894678 0.11968536
000130 a2 50 1c 3f 38 d4 18 3d 14 42 97 bd 3f bb 93 bc
       0.61060536 0.037311763 -0.0738565 -0.018033622
000140 44 22 ea 3c 5e 62 05 3f a0 58 88 bd af 9f b6 3d
       0.028580792 0.5210322 -0.06657529 0.08917176
000150 2f 4b 76 3e 70 7a 5b 3e 25 f1 90 3e ba 17 f1 3e
       0.24052118 0.21433425 0.2830898 0.47088414
000160 f8 18 a0 3d 00 6b 9b 3e 8f 9d 09 3e 66 8a 9a bd
       0.078172624 0.30355072 0.1343901 -0.07545929
000170 4d 81 a3 3e e7 1d 2c 3e a1 fc e7 3d 2c 40 90 bd
       0.31934586 0.16808282 0.11327482 -0.0704349
000180 23 d7 5a 3e 16 a1 7a bc 60 a5 34 3c 22 34 ce bd
       0.2137113 -0.015297195 0.011025757 -0.10068537
000190 6e f1 9f 3e 4b 5c 9f bd 6c 7e b2 3d f2 ae 96 bc
       0.31238884 -0.07781275 0.08715519 -0.018393967
0001a0 b6 29 25 be de d4 da be 3a 4f b2 3d 64 fd cc 3e
       -0.16129193 -0.4274053 0.087065175 0.40037072
0001b0 e5 d9 13 3e 36 51 7c bc 9c 94 89 bd 18 ab a4 bd
       0.14438589 -0.015400222 -0.06717798 -0.08040446
0001c0 78 f4 23 be b6 e7 a6 be ea 44 67 3d ec 3e 8f be
       -0.16011226 -0.32598656 0.056462206 -0.27977693
0001d0 85 d1 93 3d 6b 64 01 be 2d f5 35 be 91 48 d5 be
       0.07217697 -0.12635963 -0.17769308 -0.41656926
0001e0 65 73 06 be 3b 14 af 3b 12 3a f5 3d 70 1f 22 bd
       -0.13129957 0.005342988 0.11973967 -0.039580762
0001f0 07 76 1a bf 0b 7a 7e 3d 9b 84 31 3d f5 43 72 be
       -0.60336345 0.062128108 0.043339353 -0.23658736
000200 63 88 9f 3e 2e 13 13 3e 3e 01 80 bd c3 d0 dd 3d
       0.31158742 0.14362785 -0.06250237 0.10830834
000210 71 24 1a 3e 3b be a7 3d 57 57 a9 3e 32 ed 01 3f
       0.15052964 0.081905805 0.33074448 0.50752556
000220 56 24 e7 bd 06 4c 63 3e e8 a3 59 bb b8 23 44 3e
       -0.112862274 0.2219697 -0.0033209268 0.1915425
000230 8e d5 1d 3f 10 47 0b 3e 81 d9 23 be cd 77 62 3e
       0.61653984 0.13601327 -0.1600094 0.22116013
000240 59 47 06 3e bd 18 71 be 43 83 6a be 83 78 d2 bb
       0.13113154 -0.23544593 -0.22901635 -0.0064230575
000250 bb f8 0b be 5f bb e8 be 56 91 7f be 3a 71 95 be
       -0.13669102 -0.45455453 -0.24957785 -0.29187948
000260 be 45 55 be 20 6d c1 bb 5e 44 4e 3e bf 4b 64 3d
       -0.20827386 -0.0059029013 0.20143268 0.0557363
000270 4e bb 20 bf a2 13 08 be 67 c7 fd bd c8 51 95 3c
       -0.62785804 -0.1328874 -0.123915486 0.018227473
000280 67 7f ee bd 6f fb 10 3e 16 ae 3c 3e 77 12 1a be
       -0.11645394 0.14158414 0.18425784 -0.15046106
000290 9e 6b 85 bd b1 b8 d1 3e a2 06 97 3e 38 65 ab 3e
       -0.06514667 0.4096122 0.29497248 0.3347566
0002a0 6a 2b 7b 3b 13 3b 7f 3e 0b 25 bd bd d3 32 8e 3e
       0.0038325437 0.24924879 -0.09235581 0.2777315
0002b0 a5 84 61 3e f2 50 33 3e 8e a3 5e bc 5f d2 63 bd
       0.22023256 0.17511347 -0.013588799 -0.055620547
0002c0 69 02 af bd 62 bf 81 3e b2 73 35 3e 8f 1e c8 3d
       -0.085453816 0.25341326 0.17719916 0.097714536
0002d0 3b bb 51 3e 80 04 b6 3e 37 5d 54 3e 58 7a e1 3d
       0.20481579 0.35550308 0.20738684 0.11009663
0002e0 bc bd 4e 3e ee 4c 5a 3d e9 c5 a1 bd be 7e a0 3d
       0.20189565 0.053296022 -0.078990765 0.07836674
0002f0 48 61 17 3f 12 61 12 be 67 35 28 3e cb 82 a4 3d
       0.59132814 -0.14294842 0.16426621 0.08032759
000300 6d a4 01 bd eb f9 9a 3e f5 26 07 3e c0 71 40 be
       -0.03165095 0.30268797 0.13198455 -0.18793392
000310 00 ed af 3d 47 5f 9d 3e 99 a2 a3 3e 73 2e b4 3e
       0.08590126 0.30736753 0.3195999 0.35191688
000320 55 09 4a 3e 0e 3e 6e 3e 8d 3c a3 bd 7b c4 95 bd
       0.19730122 0.2326586 -0.079705335 -0.07312866
000330 4d 9c 0d 3f 82 4c b1 3e 64 6c 63 3e e6 a2 2c 3e
       0.5531662 0.34628683 0.22209316 0.16859016
000340 bb ba 23 3e 7b 50 c3 3e 43 0c c0 3e 97 3b 89 3e
       0.15989201 0.3814734 0.37509355 0.26803276
000350 fc 03 8f bd c7 c6 eb 3e 26 5f a6 3e fe 32 a3 3d
       -0.06983182 0.46050093 0.32494467 0.0796871
000360 38 87 2a 3e a1 c4 44 3c 7f d2 d8 bd 6f 97 d7 3d
       0.16653144 0.012009771 -0.10587024 0.105269305
000370 23 5f 1c 3f 2f b8 19 be 05 5c 32 3e e7 46 58 3e
       0.6108267 -0.15011667 0.17417915 0.21120797
000380 fc 60 a1 3e ec b2 81 be 9b 23 9e 3e 91 8c 39 3e
       0.31519306 -0.2533182 0.3088654 0.18120028
000390 c0 e1 1c 3e 6b d9 e9 3e 83 9f 1c 3e d8 a6 45 bd
       0.15320492 0.4567369 0.15295224 -0.048254818
0003a0 f6 a9 81 bd e2 7c bb bd 2a 9b f9 bc 41 33 d4 3e
       -0.063312456 -0.09154679 -0.030469496 0.41445354
0003b0 e0 22 b6 3e 91 02 86 bd f5 0b b2 bd 36 55 9e be
       0.35573483 -0.06543458 -0.08693687 -0.30924386
0003c0 ca 23 62 bb 3d 28 d7 be a1 7c 69 be 16 90 90 3d
       -0.0034506195 -0.42022887 -0.22801448 0.07058732
0003d0 a6 8b 72 be 8d 7f 49 be 2a 3b 99 be 15 98 d1 be
       -0.23686084 -0.19677563 -0.2992795 -0.40936342
0003e0 1b e4 1c be 7f 58 0a be 71 50 c9 bc 75 b8 54 be
       -0.1532139 -0.13510321 -0.02457449 -0.2077349
0003f0 3b 6e ed be a9 4d 72 be 6c 35 eb bb b3 e5 a4 bd
       -0.46373162 -0.23662437 -0.0071779992 -0.08051624
