hyperparameter_tuning/ray_results/SUD_learning_rate_tuning/MyTrainableClass_a99c8523_16_batch_size=16,name=SUD_v2,patience=1000,steps=200,steps_per_print=5,swa_step_start=2500,t_size=7,trai_2024-03-12_14-36-28/checkpoint_000000/checkpoint.pt (torch, 61346 bytes, 66 tensors)

_initial._model.0.weight f4 [16, 5]
0	0xbf545cf3	-0.8295433
1	0xc006d9d7	-2.107046
2	0xbfb8e33d	-1.4444348
3	0xbf91458d	-1.134935
4	0xc031c4fc	-2.777648
5	0xbfe0628d	-1.7530075
6	0xc05b69a0	-3.4283218
7	0xc071faed	-3.7809403
8	0xc05115a6	-3.2669463
9	0x40212443	2.5178382
10	0x4039587d	2.896026
11	0xc020e619	-2.514044
12	0x405245ae	3.285503
13	0xc0632315	-3.5490162
14	0x3fff5277	1.9947041
15	0x3f81f7aa	1.0153706
16	0x404b40b8	3.175825
17	0xc014340e	-2.3156772
18	0x404b1c84	3.1736155
19	0x3e657d20	0.22411013
20	0x402f68cb	2.740771
21	0xbf8b554d	-1.0885407
22	0xbe590422	-0.21192983
23	0xc01c7c03	-2.445069
24	0x3faf2be3	1.3685268
25	0xc02d3e21	-2.706917
26	0xbf8781f4	-1.0586534
27	0xc03eabd8	-2.9792385
28	0xbfd3897c	-1.6526332
29	0x3df7a851	0.12092651
30	0xc04f0da7	-3.2352083
31	0x3f46fe24	0.7773154
32	0xc0275a94	-2.6149035
33	0xbdb6b1a0	-0.08920598
34	0xbf6541e0	-0.8955364
35	0xbf5c675c	-0.86095214
36	0xbf516e48	-0.818089
37	0x3fcaa3f3	1.5831283
38	0x3f1dc980	0.6163559
39	0x4002c3db	2.043204
40	0xbf0b880a	-0.54504454
41	0xc0683a82	-3.628571
42	0xc05c7fec	-3.4453077
43	0x406cc6b1	3.6996272
44	0xc05c0b49	-3.4381888
45	0x4026f528	2.6087132
46	0x3f227178	0.6345439
47	0x3fcb697f	1.589157
48	0x3fdf5eca	1.7450802
49	0xbefdf70c	-0.49602544
50	0x403b8d23	2.9304893
51	0x3dfa91bd	0.122348286
52	0xbff14935	-1.8850466
53	0xbf1f9498	-0.6233611
54	0xbfc04331	-1.5020505
55	0x3f871456	1.0553081
56	0xc02cabff	-2.6979978
57	0xc061ea7b	-3.5299366
58	0x40642168	3.564539
59	0x3f43cb30	0.76481915
60	0x3e86c3c4	0.26321232
61	0x3f9b7962	1.2146418
62	0x40121d53	2.2830398
63	0xbe40d47a	-0.18831053
64	0x40240722	2.5629354
65	0xc0782446	-3.877214
66	0xbff4961f	-1.9108313
67	0xbf200c96	-0.62519205
68	0x3fe64b00	1.7991638
69	0xc0187f07	-2.3827531
70	0x403c892d	2.9458725
71	0x404fa28c	3.244296
72	0x40425a88	3.0367756
73	0xc0774b6d	-3.8639786
74	0xc055b655	-3.3392537
75	0xbf83b5d2	-1.0289862
76	0x3ef1a020	0.47192478
77	0x4049c6c4	3.1527567
78	0x3f4179ca	0.7557646
79	0x405a2ecd	3.4091065

_initial._model.0.bias f4 [16]
0	0x3ff69129	1.9263049
1	0xc05c8948	-3.445879
2	0xbfc47e3a	-1.5351021
3	0x3f47fa30	0.7811613
4	0x3ed3c2f3	0.41359672
5	0xc060d292	-3.5128522
6	0xbfd07b64	-1.6287656
7	0x401e10f0	2.4697838
8	0x3fe83c77	1.8143452
9	0xbf47ce74	-0.780494
10	0xc060471d	-3.5043404
11	0x406425ed	3.5648148
12	0xc003d5ea	-2.0599313
13	0x3fa50423	1.2891887
14	0xbf198792	-0.5997249
15	0x3e430e38	0.19048393

_initial._model.2.weight f4 [16, 16]
0	0xbe6014c2	-0.21882918
1	0xbea021c4	-0.3127576
2	0x3d3aee47	0.045637395
3	0xbfc34246	-1.52546
4	0x3ffa803d	1.9570385
5	0xbfd269c1	-1.6438524
6	0x3f30380e	0.6883553
7	0x3e2ea822	0.17056325
8	0xbf4de930	-0.8043394
9	0x3fdf4b8e	1.7444932
10	0xbe9babc1	-0.30404475
11	0xbfbfeadf	-1.4993552
12	0x3f20a4cb	0.62751454
13	0xbf2b86a5	-0.67002326
14	0x3fd20bd8	1.6409864
15	0xc004c630	-2.0745964
16	0x3f93bb8d	1.1541611
17	0xbf04e9d3	-0.5191929
18	0xc01970cc	-2.3975096
19	0x4006e8b4	2.107953
20	0x3fbe897a	1.4885705
21	0x3f1f5eb9	0.6225391
22	0x3f63ce33	0.8898651
23	0xbfddcd69	-1.7328311
24	0x4013f9da	2.3121247
25	0x38abcb40	8.191774e-05
26	0xbeefaa6b	-0.46809706
27	0xc003596f	-2.0523336
28	0xbfb37781	-1.4020845
29	0xbec906ad	-0.39262906
30	0xbf6a1923	-0.91444606
31	0x3f95e29a	1.1709778
32	0xbd342976	-0.043984853
33	0x3fd95c8c	1.6981368
34	0x3f0d8a46	0.55289114
35	0xbf747db9	-0.9550434
36	0x3f6a4ce6	0.9152359
37	0x40157d07	2.335756
38	0xbf39e946	-0.7262157
39	0xbf510cfb	-0.8166043
40	0xbe694c66	-0.2278305
41	0x3f496a72	0.7867805
42	0xbfae5d5b	-1.362224
43	0xbe54a5d0	-0.20766377
44	0xbfa69580	-1.3014374
45	0x3fc22313	1.5166954
46	0xbeffedfe	-0.4998626
47	0x3fbeb5d3	1.4899238
48	0xbec53039	-0.38513353
49	0xbff8c229	-1.9434253
50	0x3f806c6a	1.0033085
51	0xbf986ce9	-1.1908237
52	0xbff2fea9	-1.8983966
53	0x4013a79c	2.307105
54	0xbeec99e1	-0.4621115
55	0x3e934d91	0.28770116
56	0xbfc66c0c	-1.5501723
57	0xc002a98e	-2.0415988
58	0x3fb534de	1.4156759
59	0xbf434be8	-0.762877
60	0x3f5c5af8	0.8607631
61	0x3f3ee9e5	0.74575645
62	0x3f75bd89	0.9599233
63	0xc00f72c4	-2.2413797
64	0xbf20df20	-0.6284046
65	0x3f0274f2	0.50959694
66	0xbfd5a92b	-1.6692251
67	0x3ff76f8c	1.9330916
68	0x3fb2de45	1.3974081
69	0xc00dcc0b	-2.2155788
70	0x3fe29b00	1.7703552
71	0x3f4b878a	0.7950369
72	0x3fcedd9d	1.6161381
73	0x3fbbc6e0	1.4670067
74	0x3f93c905	1.1545721
75	0x3f5f72fd	0.87284833
76	0x3fb2c749	1.3967067
77	0xbf46d71d	-0.77671987
78	0x3fa56a40	1.292305
79	0xbfe7c77c	-1.8107753
80	0xbf2a2a3c	-0.66470695
81	0x3f0cc82f	0.54992956
82	0xc001dd75	-2.0291417
83	0x401bbd06	2.433412
84	0xbf8b3390	-1.0875111
85	0xbfabc512	-1.3419516
86	0xbfd09615	-1.6295801
87	0xbf09975d	-0.5374659
88	0xbfb36d32	-1.4017699
89	0x40013913	2.0191085
90	0x3eddb036	0.432985
91	0x3fe730dc	1.8061786
92	0x3ebf4e5d	0.37364474
93	0xbfeef761	-1.8669244
94	0x3f4e9172	0.8069068
95	0xbc566c66	-0.013087368
96	0xbdaa8a92	-0.083272114
97	0xbf044b5b	-0.51677483
98	0x3e748076	0.23877129
99	0x3eec2494	0.46121657
100	0x3f4e4e60	0.8058834
101	0xbdbb1398	-0.091345966
102	0x3f845a4c	1.0340056
103	0x3f151ecc	0.5825012
104	0x3fd6dc03	1.6785892
105	0xbd215d1c	-0.039395437
106	0xbf2729ad	-0.6529797
107	0xbf9cef8a	-1.2260602
108	0x3ff4fdcb	1.9139951
109	0x3f8acf07	1.084443
110	0x3fd07856	1.6286724
111	0x3f5af7e0	0.8553448
112	0xbd728ed1	-0.05921823
113	0xc0115ffb	-2.2714832
114	0xbfac68a9	-1.346944
115	0xbeb60994	-0.35554183
116	0x3f7fd4e5	0.99934226
117	0xc007d808	-2.1225605
118	0xc014e227	-2.3263032
119	0x3fd572b5	1.6675631
120	0xbfacca60	-1.349926
121	0x3eaf18ac	0.3419851
122	0x3f1abccc	0.6044433
123	0x3f91efaf	1.1401271
124	0x3d1e58f9	0.03865907
125	0xbf96ed30	-1.1791134
126	0xbecb3662	-0.39689928
127	0xbf2a9600	-0.6663513
128	0x3fb25859	1.3933212
129	0x3f26fa8a	0.6522604
130	0x3e95fada	0.29292947
131	0x3fbec59b	1.4904054
132	0xc015f002	-2.342774
133	0xbe20bfea	-0.1569821
134	0x3f20ed59	0.62862164
135	0x3eecc048	0.4624045
136	0xbfa34623	-1.2755779
137	0xbfe9689f	-1.8235053
138	0xbee8c03a	-0.45459157
139	0xbe616e91	-0.22014834
140	0xbfd75f3d	-1.682594
141	0x3e9adae1	0.30245116
142	0x3f6cba49	0.9247175
143	0x3f136443	0.5757486
144	0x3f8b4943	1.0881733
145	0x3e101640	0.14070988
146	0x4007b52e	2.1204333
147	0x3f917f5b	1.1366991
148	0xbf6bfd5b	-0.92183465
149	0xc00f873b	-2.2426288
150	0xbe4c2002	-0.19934085
151	0x3f342932	0.7037536
152	0x3ffa25c4	1.9542775
153	0xbf15477a	-0.5831219
154	0x3cf1b2fd	0.029504294
155	0xbf56964d	-0.8382309
156	0x3f3df2fb	0.74198884
157	0x3e2f0952	0.17093399
158	0x3f0932ef	0.53593343
159	0xbfbc8b76	-1.473006
160	0x3f92d5c8	1.1471491
161	0xc010f619	-2.2650206
162	0x3f9a70b2	1.2065642
163	0xbec1d3b7	-0.37856838
164	0xbfadfbfc	-1.3592525
165	0x3f7c90eb	0.9865863
166	0xbf9fefa7	-1.2495011
167	0x3ff81603	1.9381717
168	0x3ffaf4dc	1.9605975
169	0xbfefe275	-1.8740984
170	0xbfe28f41	-1.7699968
171	0x3f43397e	0.762596
172	0xbfc26b35	-1.5188967
173	0xbfa62485	-1.2979895
174	0x3f83153b	1.0240854
175	0x3ff15f1c	1.885715
176	0x3e156f98	0.14593351
177	0xbfbd9b32	-1.4812987
178	0x3f723b8e	0.94622123
179	0xbda28fb4	-0.079375654
180	0xbfd007dc	-1.6252398
181	0x40111375	2.2668126
182	0xbfb1aa4e	-1.3880098
183	0xbf10be2b	-0.56540173
184	0x3f01c965	0.5069793
185	0xbf844952	-1.0334876
186	0xbf21a572	-0.63143075
187	0x3f59b2cc	0.8503845
188	0xbed9250c	-0.42411077
189	0x3d66858b	0.0562797
190	0x3f96b7aa	1.17748
191	0x3f8dedc1	1.1088182
192	0xbf9440d1	-1.158228
193	0xbfe0993d	-1.7546765
194	0x3feed37f	1.8658293
195	0x3d8d4349	0.06897599
196	0xbfbe8bac	-1.4886374
197	0xbff8c84a	-1.9436123
198	0xbfa7c513	-1.3107017
199	0xbe04505a	-0.12921277
200	0xbebd04e5	-0.36917797
201	0xbf4dc064	-0.8037169
202	0x40015313	2.0206954
203	0x4012bef9	2.292906
204	0x3fdaea4e	1.7102754
205	0xbffa1d39	-1.9540168
206	0xbfb0772a	-1.3786366
207	0x3fc6e501	1.5538636
208	0xbf512149	-0.81691414
209	0xbdcc71f2	-0.09982671
210	0xbf4801d9	-0.7812782
211	0x3ff6eec6	1.9291618
212	0x4010f606	2.265016
213	0x3fb07053	1.3784279
214	0x3fe7fb86	1.8123634
215	0xbfcdca67	-1.6077393
216	0x3fefa87f	1.8723296
217	0x3daacfde	0.08340429
218	0xc00861ec	-2.1309767
219	0xbdd55b7c	-0.1041784
220	0x3fcadaa9	1.584798
221	0xbf3bbb12	-0.7333232
222	0xbf053cf8	-0.52046156
223	0xbf280c11	-0.6564341
224	0xbf855f86	-1.0419776
225	0x3fbea45c	1.4893909
226	0x3f98bce8	1.193265
227	0x3cb23820	0.021755278
228	0x3fdd174e	1.7272737
229	0x3f2bb10f	0.67067045
230	0xbf6ff6d7	-0.9373602
231	0xbfd3be68	-1.6542482
232	0x3e8dac9d	0.27670756
233	0xbf42b877	-0.7606272
234	0xbf200f54	-0.6252339
235	0x3fa8c125	1.3183943
236	0x3fb082be	1.3789899
237	0xbee17188	-0.4403193
238	0xbf2301ee	-0.6367482
239	0x3f466bea	0.77508414
240	0x3e8fbf4b	0.28075632
241	0x3f35b3a5	0.7097724
242	0x3f636c7c	0.8883741
243	0x3fb63dc7	1.4237603
244	0xbfefc4d1	-1.8731939
245	0x3d99ed50	0.07515967
246	0x3f1dd34a	0.61650527
247	0x3ed32ba1	0.41244224
248	0xbf3ec252	-0.7451526
249	0xbfeba709	-1.841035
250	0x3ffbb87b	1.9665674
251	0xbfd50daf	-1.6644801
252	0x3fa02e81	1.2514192
253	0xc00ebe27	-2.230356
254	0x3f01d0ee	0.50709426
255	0x3fe189f7	1.7620229

_initial._model.2.bias f4 [16]
0	0x3f070cc3	0.5275385
1	0xbea5695d	-0.32306948
2	0x401b4e8c	2.4266691
3	0xbf9c16dd	-1.2194477
4	0xc019f8f6	-2.4058204
5	0x3e33c7cb	0.17556684
6	0xbf929869	-1.1452762
7	0xbf679de6	-0.9047531
8	0x3fe437a6	1.7829483
9	0xbb1156b3	-0.002217692
10	0xc00c1f59	-2.1894133
11	0xbf2848d4	-0.65736127
12	0xbfaf034b	-1.367288
13	0xc0116730	-2.271923
14	0x3f60bf48	0.8779187
15	0xc009bacf	-2.152027

_func._drift._model.0.weight f4 [16, 17]
0	0x3a346823	0.00068819727
1	0xbbb3b501	-0.005484224
2	0x3ba203f7	0.0049443203
3	0xb9aa140f	-0.00032439872
4	0x3aeeee5e	0.0018228998
5	0x3a925f08	0.0011167238
6	0xbb381c77	-0.0028093138
7	0x39e18502	0.00043014443
8	0x3ae9a1f4	0.0017824755
9	0xbbae6eca	-0.0053232657
10	0xbb93fde5	-0.0045163506
11	0xbb8fdea7	-0.004390556
12	0xb996b007	-0.0002874138
13	0xbb3b07ec	-0.0028538657
14	0xbbb1aeb3	-0.005422437
15	0x3bac4da5	0.0052582794
16	0x3b983e27	0.004646081
17	0xbb05b3e9	-0.0020401424
18	0xbb8684ad	-0.0041051717
19	0x3b32ed60	0.002730213
20	0xba816581	-0.000987217
21	0xbb5208e5	-0.0032048759
22	0xbbad72ec	-0.005293241
23	0x38432afc	4.6531655e-05
24	0xbb40575a	-0.002934894
25	0x3ac5212b	0.0015039792
26	0x3ac187fa	0.0014765256
27	0xba360f83	-0.00069450604
28	0x3bbf5904	0.005839469
29	0xba93c06f	-0.001127256
30	0x3bba392d	0.0056830854
31	0x3ae299b8	0.0017288243
32	0x3ae1d42f	0.0017229373
33	0x3b9d2bef	0.004796497
34	0xbafee764	-0.0019447622
35	0x3bb20703	0.005432965
36	0x3b2a73bc	0.0026008924
37	0xbad705cf	-0.0016404929
38	0x3b2ffd72	0.0026853946
39	0xbbb8b677	-0.005636986
40	0x3a3f5e2d	0.0007300105
41	0xbaa7b03a	-0.0012793608
42	0xba9ca89d	-0.0011952106
43	0xbb9918e0	-0.004672155
44	0x3b3ee587	0.0029128508
45	0x3b05f075	0.0020437513
46	0xbb1f9405	-0.00243497
47	0x3b972203	0.004612209
48	0xba91bf37	-0.0011119609
49	0xb913d2d9	-0.0001409756
50	0xbb65f222	-0.003508695
51	0x3af3b074	0.0018592016
52	0x3b0a8171	0.0021134282
53	0x3a869a72	0.0010269417
54	0x39c356da	0.00037258008
55	0xbbbae5dd	-0.0057036714
56	0x3ba17376	0.004927094
57	0xb973028f	-0.00023175239
58	0x3b62b844	0.0034594694
59	0x3b6b681f	0.0035920215
60	0xbba70804	-0.005097391
61	0x3b7eff37	0.0038909444
62	0xbb824898	-0.003975939
63	0x3af24d3e	0.0018486155
64	0x3ba5a9e8	0.005055655
65	0x3ba511af	0.0050375084
66	0x3aee5cbf	0.00181856
67	0xbbaa7b91	-0.0052027185
68	0x3b4c9c94	0.0031221258
69	0xbb66dee7	-0.0035228075
70	0x3b1a3591	0.0023530463
71	0xbbb3eacd	-0.005490637
72	0xbb1f6ef1	-0.00243276
73	0xbb9230de	-0.004461392
74	0xba945136	-0.0011315707
75	0xbb030842	-0.0019993936
76	0xbbb9ac3c	-0.005666284
77	0xbbbbcbd8	-0.005731087
78	0x3a4d7c2c	0.00078386324
79	0x3a50e9e8	0.0007969425
80	0xbb16f95d	-0.0023036816
81	0xbb4b0f49	-0.0030984452
82	0xbb9298f2	-0.004473799
83	0xbb69c88b	-0.0035672511
84	0xbb1353ef	-0.0022480448
85	0xbb1e4968	-0.002415264
86	0x3b72e16f	0.0037060638
87	0x3ac6abd9	0.0015157416
88	0x3b9dcb7d	0.0048155175
89	0xbb9eba79	-0.0048440066
90	0x3b079a3e	0.00206913
91	0x3aaf7ab0	0.0013388004
92	0xbb9b1a00	-0.004733324
93	0x3b4d1709	0.0031294248
94	0xbb249f00	-0.0025119185
95	0xbb181f7b	-0.0023212123
96	0x3b0619cf	0.002046216
97	0x3ab308eb	0.0013659274
98	0x39a579ab	0.00031561902
99	0x3bac0a15	0.0052502253
100	0xbadaf941	-0.0016706364
101	0xbb6a8a28	-0.0035787914
102	0xbbbf6793	-0.0058412044
103	0x3aa37f3c	0.0012473832
104	0xbb9497bc	-0.0045346897
105	0x3b9bbfea	0.0047531025
106	0x3ae31c1e	0.0017327105
107	0xbab58b7c	-0.0013850774
108	0x3b752065	0.0037403342
109	0x3ba7674b	0.005108749
110	0x3b8cb7f8	0.0042943917
111	0xbb13a339	-0.0022527708
112	0x3a093263	0.00052336435
113	0xbb4babb2	-0.003107768
114	0x3b6e631c	0.0036374992
115	0x3bb4f97b	0.0055229045
116	0xb930f1e0	-0.00016874773
117	0x3b7d32db	0.0038635049
118	0x3b017715	0.0019754816
119	0x3b3bd7d5	0.0028662581
120	0xbb8ef288	-0.004362408
121	0xbb845880	-0.0040388703
122	0xbba39c94	-0.004993031
123	0x3bb78e79	0.005601701
124	0x3b1ca510	0.0023902096
125	0x3b8d80d4	0.004318336
126	0x3b845b60	0.004039213
127	0x3b9a9cb0	0.0047183856
128	0xbaba4a8b	-0.0014212889
129	0xbbbaa249	-0.0056956154
130	0x3a3a42a9	0.000710527
131	0xbb1d6bdd	-0.002402059
132	0x3b211ac4	0.0024582604
133	0x3b24e6b6	0.0025161928
134	0x3a1469a1	0.0005661492
135	0xbbb7d64f	-0.0056102644
136	0x3aced2d5	0.0015779386
137	0xbb528fc9	-0.003212916
138	0xbb3073ae	-0.002692442
139	0x3b930aec	0.004487386
140	0xbb45c12a	-0.003017495
141	0x3af36d9a	0.0018572093
142	0xbadc42d5	-0.0016804585
143	0x39776f7e	0.0002359729
144	0xbb32bcc0	-0.0027273148
145	0xbb0abfd5	-0.002117147
146	0x3ba35cdb	0.0049854345
147	0x3b51e171	0.0032025243
148	0xbba2e9a7	-0.004971701
149	0x3bab0ccd	0.005220032
150	0xbb668d9f	-0.0035179628
151	0xbb7734e1	-0.0037720727
152	0xbbaa4a33	-0.0051968335
153	0xb9b02154	-0.00033594167
154	0xbb2f461e	-0.0026744674
155	0xbbbb31c8	-0.0057127215
156	0x3b233991	0.0024906138
157	0xbabbbc49	-0.0014323081
158	0x3b13a74e	0.0022530141
159	0xbb9229aa	-0.004460533
160	0xbb73a6e3	-0.003717833
161	0xbb5c1293	-0.0033580407
162	0xb9c8fb85	-0.0003833437
163	0xbba8ec06	-0.0051550893
164	0x3a87e766	0.0010368645
165	0xb84ddf91	-4.908402e-05
166	0x3b9c3e03	0.0047681346
167	0xb9afc501	-0.0003352538
168	0x3ba637e7	0.005072582
169	0x3b44288f	0.0029931401
170	0x369866d5	4.541924e-06
171	0xb97d798a	-0.00024173237
172	0x39e2e7eb	0.0004327887
173	0x3a0363ab	0.0005012105
174	0xbabb9cb1	-0.0014313665
175	0xbb67061a	-0.003525144
176	0xba39ea09	-0.0007092064
177	0xbb476930	-0.0030427687
178	0xbab81bdb	-0.0014046388
179	0xbb9bac97	-0.004750799
180	0x3b98ab13	0.0046590655
181	0x3b331dfb	0.0027331102
182	0xbadce0ac	-0.0016851625
183	0xbaff1959	-0.001946251
184	0x3bb6cb77	0.005578454
185	0xbbb1ff10	-0.005432017
186	0xbbb85e55	-0.0056264796
187	0xba97d4bc	-0.0011583786
188	0x3aca1026	0.001541619
189	0xbb923008	-0.004461292
190	0x3b70d75a	0.0036749453
191	0xbad41d20	-0.0016182996
192	0x3b9083c6	0.00441024
193	0x3b7db08a	0.0038709962
194	0xbb863f40	-0.0040968955
195	0x3b52dd1d	0.003217525
196	0x3b407f3f	0.002937272
197	0xba6c7a60	-0.0009020921
198	0x3b8652f3	0.004099244
199	0xbb9ebe47	-0.00484446
200	0x3aa964d8	0.001292373
201	0xbab67499	-0.0013920247
202	0xb8b020b0	-8.3984225e-05
203	0xbb116444	-0.0022185007
204	0xbb23709e	-0.0024938951
205	0x3b7f16ad	0.0038923428
206	0x3b5f2fbc	0.0034055552
207	0x3b871485	0.004122319
208	0xbb944b07	-0.0045255455
209	0x3a3b406e	0.00071430847
210	0x39c4dbcf	0.00037547803
211	0xbb8a27d7	-0.004216175
212	0x3b719105	0.003686012
213	0xbaf34c85	-0.0018562233
214	0xbb48fb4e	-0.0030667367
215	0xb9838119	-0.00025082452
216	0x3b326896	0.0027222983
217	0x3ae0e75b	0.0017158793
218	0x3b997023	0.004682557
219	0x3a0fcbd8	0.0005485392
220	0xbba08d04	-0.004899623
221	0xbb096113	-0.0020962402
222	0xba5dacf5	-0.00084562536
223	0x3baa939a	0.0052055838
224	0x3b2b0561	0.0026095735
225	0x3ad1767f	0.0015980749
226	0xbb9c14c8	-0.0047632195
227	0xbb2a5ca2	-0.0025995155
228	0x3b19a4b9	0.002344413
229	0xbb4f523f	-0.0031634716
230	0xbb089c5c	-0.002084515
231	0x3bb6c141	0.005577237
232	0x3a9ffc33	0.0012205899
233	0x3b2483b6	0.002510292
234	0x3b73b585	0.0037187051
235	0xbbb5b749	-0.005545531
236	0x3ad65697	0.001635271
237	0xbb8eec33	-0.0043616532
238	0xbaec647f	-0.0018035321
239	0x3b37bf8f	0.0028037762
240	0xbbb717f4	-0.005587572
241	0x3b86bf38	0.0041121505
242	0x3aebd6bc	0.0017993073
243	0x3b652067	0.003496194
244	0x3b2d9e9f	0.002649225
245	0x3b226218	0.0024777707
246	0xb91dadd2	-0.0001503744
247	0x3bb26f7a	0.005445418
248	0xbb4d0225	-0.0031281796
249	0xba26e1fa	-0.00063660706
250	0xbaa29621	-0.0012404361
251	0x3ad14648	0.001596638
252	0x3b3ea0c9	0.0029087535
253	0x3b67dfa6	0.0035381108
254	0x3b34b68e	0.0027574631
255	0xbb827bde	-0.0039820513

_func._drift._model.0.bias f4 [16]
0	0x3bb76557	0.0055967974
1	0xb9c7326d	-0.00037993808
2	0x3b199865	0.0023436781
3	0x3b0f3ec7	0.0021857487
4	0xb7c97bb1	-2.4018665e-05
5	0xbb162cbb	-0.0022914845
6	0x3b81ff09	0.00396717
7	0xbbae9125	-0.005327361
8	0xbbacd3c1	-0.0052742665
9	0xbba99def	-0.005176298
10	0xbb0bffe1	-0.0021362233
11	0x3aad0e30	0.0013203081
12	0xb9ad6eea	-0.0003307977
13	0x38fa1d9b	0.000119264434
14	0x3b98f220	0.0046675354
15	0xbb99f45f	-0.0046983208

_func._drift._model.2.weight f4 [16, 16]
0	0xbb24c6d5	-0.0025142927
1	0x3b12bb90	0.0022389628
2	0xbbb22578	-0.0054365955
3	0xbbc3d1f2	-0.005975955
4	0xbb7a7a12	-0.0038219732
5	0xbbbbab16	-0.005727182
6	0xbb072f81	-0.002062768
7	0xbbb4040d	-0.005493647
8	0xba35f6d0	-0.000694138
9	0x3b50d4a6	0.003186503
10	0xbba23df9	-0.0049512354
11	0xbbbd11a6	-0.005769926
12	0x3b63d3c6	0.0034763678
13	0xbb015379	-0.0019733591
14	0x3b20932d	0.0024501786
15	0x3b3071d8	0.0026923325
16	0xbaab1a3d	-0.0013054084
17	0xb9d27570	-0.0004014182
18	0xb8a4fcb0	-7.867196e-05
19	0xbb9bc763	-0.0047539934
20	0x3bb36e83	0.0054758205
21	0xb99cc68b	-0.00029902565
22	0x3b0c055b	0.0021365497
23	0x3a7b3723	0.0009583106
24	0x3ba437d5	0.0050115385
25	0xbb9d5d6b	-0.004802396
26	0xbb81ba48	-0.003958974
27	0xb9159e47	-0.0001426871
28	0xbb1a668d	-0.002355966
29	0x3b072627	0.0020622106
30	0x3bb0a0fd	0.005390285
31	0xb9ac510e	-0.00032866787
32	0xbba9daf3	-0.0051835715
33	0x3ba412d4	0.0050071273
34	0xbac4a0a2	-0.0015001486
35	0x3afd717b	0.0019336188
36	0xbb005b4b	-0.0019585665
37	0x3bb0348c	0.005377358
38	0xbb617fb1	-0.0034408385
39	0x3a45c3e1	0.0007544142
40	0x3b31c82d	0.002712737
41	0xbba26993	-0.004956433
42	0x3ade287b	0.001694932
43	0xbb643bf8	-0.0034825783
44	0x3badead8	0.0053075366
45	0x3ba0c7d1	0.0049066325
46	0x3af89fb0	0.0018968489
47	0xbb40eb58	-0.002943715
48	0x3965e28c	0.00021923537
49	0x3ba8701e	0.0051403185
50	0x3b7780fa	0.0037766085
51	0xbb3a58e1	-0.0028434324
52	0xbb55258d	-0.0032523603
53	0xbac4da3c	-0.0015018652
54	0xbadf1ffd	-0.0017023083
55	0xbb3f36f9	-0.0029177053
56	0xbbc13c16	-0.0058970554
57	0x386450c3	5.443465e-05
58	0x3aad03f0	0.0013200026
59	0xbb8babf6	-0.0042624427
60	0x3b4a1201	0.0030833485
61	0xbb2bc1ab	-0.0026207964
62	0x3b70ca54	0.003674169
63	0xbb2f7b22	-0.0026776274
64	0x3bb32936	0.005467559
65	0xbb643aaa	-0.0034825006
66	0x3aa6dca5	0.0012730552
67	0x3addafdd	0.0016913373
68	0x3b9084d0	0.0044103637
69	0x3b42af25	0.0029706445
70	0xbb9bd977	-0.0047561484
71	0xba872b14	-0.0010312521
72	0xb99d39b0	-0.00029988354
73	0x3b535289	0.003224524
74	0xbb5850d3	-0.003300716
75	0x3b4e42f0	0.0031473003
76	0xbb7d8e28	-0.0038689468
77	0x3b1adc1d	0.0023629733
78	0xbb8c49a1	-0.004281238
79	0x3abb5f4a	0.0014295366
80	0xb7d23e39	-2.5062925e-05
81	0x3b925fb2	0.004466974
82	0xbb3646c1	-0.0027813169
83	0x3acb9eae	0.0015534961
84	0xbb8aaaab	-0.004231771
85	0xbb3ac5bf	-0.0028499214
86	0x3b5637e5	0.0032687124
87	0x3aacced6	0.00131842
88	0x3b9ac295	0.004722903
89	0x3b30fc9a	0.002700603
90	0x3b721a03	0.0036941774
91	0xbb46d5a9	-0.0030339754
92	0x3a16c28b	0.0005751035
93	0xbbb285dd	-0.0054480867
94	0x3ae6b0a7	0.0017600254
95	0xba8c8432	-0.001072055
96	0x3b10675d	0.0022034266
97	0xbb07e185	-0.0020733785
98	0xbad8c2dd	-0.0016537566
99	0x3b69e2ce	0.0035688165
100	0x3b668354	0.0035173493
101	0x3bace6ea	0.0052765505
102	0xbbbb1a1c	-0.0057098996
103	0xbb08109d	-0.0020761855
104	0xbba9ee13	-0.0051858514
105	0x3a9b5b8d	0.0011852846
106	0x3bab24d3	0.0052228956
107	0xbaeaa6d5	-0.0017902503
108	0xba1ec562	-0.0006056634
109	0xbae32333	-0.0017329216
110	0xbb06edd3	-0.0020588532
111	0x3ad8f3b9	0.0016552127
112	0x3b844add	0.0040372447
113	0xbb7f945a	-0.0038998337
114	0x3b9e2596	0.004826258
115	0x3b93b5a4	0.0045077372
116	0xb97a5831	-0.00023874712
117	0xbb87d459	-0.004145187
118	0xbb99b1fb	-0.0046904064
119	0xba8823b4	-0.0010386617
120	0xb98c2edd	-0.00026737797
121	0xbb97c0d1	-0.00463114
122	0xbbb8a597	-0.005634974
123	0x3af0ad29	0.0018362153
124	0x39fb911d	0.00047982569
125	0x3b884fa9	0.004159887
126	0x3a97d77f	0.0011584609
127	0x3b17e949	0.002317982
128	0x3a265640	0.000634525
129	0x3b23ff1d	0.0025023886
130	0xbb308d84	-0.0026939819
131	0x37f66374	2.9371797e-05
132	0x3b514e5a	0.003193757
133	0x3b00b2cd	0.0019637824
134	0x3b380873	0.0028081208
135	0xbbab196a	-0.0052215355
136	0xb829b7f4	-4.046406e-05
137	0xbb4b3b4a	-0.003101068
138	0xbab9f051	-0.0014186
139	0x3b30447a	0.0026896284
140	0xba9e5c1c	-0.0012081894
141	0xbb3a8f7c	-0.002846687
142	0xb905e174	-0.00012767856
143	0xbb76c4c3	-0.00376539
144	0xbb2448d9	-0.0025067835
145	0xbb30de88	-0.0026988108
146	0x3bb2bab3	0.005454385
147	0xbb346121	-0.0027523714
148	0xbb56941b	-0.0032742086
149	0xbac97681	-0.00153704
150	0x3b8d7d17	0.0043178904
151	0x38062fec	3.199272e-05
152	0xba6905e8	-0.0008889125
153	0x3b5aed67	0.0033405663
154	0x3b7c61fb	0.003851055
155	0x3bb6427f	0.005562126
156	0xbb862830	-0.004094146
157	0x3b4c2f73	0.0031156212
158	0xbb817351	-0.0039505144
159	0xbb3cac9d	-0.002878941
160	0x3ba2ac16	0.004964362
161	0x3b09fe19	0.0021055995
162	0xbb32f47e	-0.0027306373
163	0xbac4dec1	-0.0015019999
164	0x3b6641e6	0.0035134493
165	0x3a8b18e4	0.0010612276
166	0xbaa8a3b7	-0.0012866174
167	0xbacb61ee	-0.0015516856
168	0xbae5a1e3	-0.001751956
169	0xba740874	-0.0009309121
170	0x3b96a58f	0.004597373
171	0xbb8aab82	-0.004231871
172	0x3b7d08f0	0.0038610063
173	0x3a7c0f75	0.00096153404
174	0x3bc35a15	0.0059616663
175	0x3b022227	0.0019856782
176	0xbbc4dc35	-0.006007696
177	0xbb0ab807	-0.0021166818
178	0xba84a87a	-0.0010121011
179	0x3b097c6d	0.0020978705
180	0xbbb55e60	-0.005534932
181	0x3b0718e7	0.0020614208
182	0xbaa2e4a6	-0.0012427762
183	0xbb5e535e	-0.0033924202
184	0xbb8bc90d	-0.0042659105
185	0xbb72e5a5	-0.0037063148
186	0xbbaea30f	-0.0053294967
187	0xb9e4b812	-0.00043624692
188	0x3b1c1c27	0.002382049
189	0xbb5c5716	-0.0033621243
190	0xbb61add4	-0.0034435885
191	0x396f41a3	0.00022817268
192	0xbba0199f	-0.004885867
193	0xbb8a8dfa	-0.0042283507
194	0xbad1a328	-0.0015994059
195	0x3b8283a0	0.003982976
196	0x3b494937	0.0030713805
197	0x3a92bf00	0.0011195838
198	0xbb025cdd	-0.0019891777
199	0xbba7668c	-0.00510866
200	0x3b68424c	0.0035439907
201	0x39674eb7	0.000220592
202	0x3b27340e	0.0025513205
203	0xb95b21e2	-0.0002089809
204	0x3b53ed7b	0.0032337594
205	0xb83b77cc	-4.4695844e-05
206	0x3b4aab2d	0.0030924783
207	0xba80513b	-0.0009789834
208	0xbb00ed44	-0.0019672671
209	0x3a9b095d	0.0011828352
210	0xbbc1d189	-0.005914871
211	0xbb9403e8	-0.004517067
212	0x3a1d3535	0.0005997003
213	0x3bbc5d04	0.005748393
214	0xbad9c07e	-0.0016613153
215	0xbaf8d764	-0.001898509
216	0x3b65ec31	0.0035083408
217	0x3ba70cfd	0.005097984
218	0xbb6dd1dc	-0.0036288416
219	0x3bb056a0	0.0053814203
220	0xbafeb3c9	-0.0019432242
221	0x3b554213	0.0032540604
222	0x3ae82126	0.0017710074
223	0x3a53d755	0.0008081098
224	0x3b9e634e	0.0048336154
225	0xba93882f	-0.0011255796
226	0xb9c3f46b	-0.00037375404
227	0x3b772a21	0.003771432
228	0xbb17e5ab	-0.0023177664
229	0x3ac56612	0.0015060327
230	0x3b664e3a	0.0035141842
231	0x398f516a	0.00027335744
232	0x3bbd4e2e	0.005777142
233	0x39ca6c3f	0.00038609092
234	0x3b29595c	0.0025840616
235	0x3b5e104a	0.003388422
236	0x3ba2f151	0.004972615
237	0xbb37a5a9	-0.0028022325
238	0xb91fa1f7	-0.00015223758
239	0xbb1e0687	-0.0024112777
240	0xbb3132c9	-0.0027038327
241	0xbb226c1a	-0.0024783672
242	0x3a465a54	0.00075665605
243	0xbb892c1b	-0.004186166
244	0xbb1e4e8f	-0.0024155711
245	0x3b9b9dab	0.00474902
246	0x3b009167	0.0019617917
247	0x3bc50bc6	0.0060133664
248	0xba6bf77f	-0.00090014184
249	0xb96f7bf3	-0.00022838991
250	0xbb4a14ed	-0.0030835227
251	0x3a706d05	0.00091715186
252	0x3abc6257	0.0014372569
253	0x3b92afdc	0.0044765305
254	0xbb946fb1	-0.004529916
255	0xbaf42f5a	-0.0018629835

_func._drift._model.2.bias f4 [16]
0	0x3ba7e509	0.0051237387
1	0xbb83293e	-0.004002719
2	0x3b261185	0.0025340032
3	0xbb8f36b2	-0.004370534
4	0xbb326dd9	-0.002722612
5	0xbbb9f198	-0.005674552
6	0xbb60c054	-0.0034294324
7	0xbb3fa070	-0.0029239915
8	0x3ba12fc8	0.004919026
9	0xbb7d0442	-0.0038607274
10	0x3b88f883	0.0041800155
11	0x3a2c8bfe	0.000658214
12	0x3b2eaace	0.00266521
13	0x3b853068	0.0040646084
14	0x3b9319fd	0.004489182
15	0xbb98a493	-0.0046582907

_func._diffusion._model.0.weight f4 [16, 17]
0	0x3da34d73	0.07973757
1	0xbd7aea1b	-0.061258417
2	0xbd25ef2b	-0.04051129
3	0x3d97c9e3	0.07411554
4	0xbde5b689	-0.112164564
5	0xbd3a8456	-0.04553636
6	0x3d5c1192	0.053727694
7	0x3c765a11	0.015036122
8	0xbcac5bf0	-0.021039933
9	0x3daa1d99	0.083064266
10	0x3d8aa56b	0.06769832
11	0x3d7bd5ec	0.06148331
12	0x3cdbf30b	0.02684929
13	0x3cc91d19	0.024550008
14	0xbd000c32	-0.03126163
15	0x3ce19386	0.027536165
16	0xbd83535a	-0.064123824
17	0xbd4da100	-0.05020237
18	0x3c39fe3f	0.011352121
19	0xbd6b1222	-0.05739034
20	0xbcaadec5	-0.020858178
21	0xbc466239	-0.012108379
22	0x3d2ffeae	0.04296749
23	0x3cb85c2c	0.022504888
24	0x3d41b207	0.04728892
25	0x3cf41258	0.029793903
26	0xbc845910	-0.01615575
27	0x3c6288ac	0.01382653
28	0xba24927c	-0.00062779314
29	0x3d3579c6	0.044305585
30	0x3d27f7df	0.041007873
31	0x3b69361e	0.0035585235
32	0xbc8ca8ad	-0.017170275
33	0xbd9c5858	-0.07634038
34	0x3c5f0dd7	0.0136141395
35	0x3d0e7a78	0.034784764
36	0x3d1fd3c7	0.039020326
37	0x3d5729f6	0.05253025
38	0xbd133f1f	-0.03594887
39	0x3d5eac7d	0.054363716
40	0xbd5ca518	-0.053868383
41	0xbb0e91a9	-0.00217543
42	0x3d0b49d5	0.03400596
43	0x3d090d05	0.033459682
44	0x3d59633d	0.053073157
45	0x3d8495d3	0.06473889
46	0xbd560964	-0.05225505
47	0xbb002560	-0.0019553527
48	0x3d2a38ca	0.041558065
49	0x3c958a3f	0.018254397
50	0x3bbec386	0.005821648
51	0x3ce93f56	0.028472584
52	0x3c5a4c61	0.013323874
53	0xbc2974de	-0.010342805
54	0xbcace2c0	-0.021104217
55	0xbdf41005	-0.11917118
56	0x3ccfb400	0.025354385
57	0xbc80062f	-0.015627949
58	0x3cd88f8e	0.02643564
59	0xbda8857d	-0.08228586
60	0x3d964bbd	0.07338665
61	0x3c92e9b4	0.017933704
62	0x3d2ff161	0.042954806
63	0x3d0eeba5	0.034892697
64	0xbcf62511	-0.030046972
65	0xbd9f1fe7	-0.07769757
66	0xbd145d88	-0.03622201
67	0xbd48ab3a	-0.04899142
68	0xbdadffb1	-0.08496035
69	0x3c630e35	0.013858368
70	0x3cdb501a	0.026771594
71	0xbd929fbd	-0.07159374
72	0x3d86631f	0.065618746
73	0xbd8cbb8d	-0.0687171
74	0x3b4ada62	0.003095292
75	0xbdc95a65	-0.098316945
76	0x3d001b99	0.03127632
77	0xbde3a508	-0.111154616
78	0xbd3a08fd	-0.04541873
79	0xbcd482f0	-0.025941342
80	0xbdb16c8d	-0.086632825
81	0xbd11951c	-0.035542592
82	0x3bad08c0	0.005280584
83	0xbd3389fe	-0.04383277
84	0x3c414b18	0.011797689
85	0x3db17a8d	0.08665953
86	0xbda9b227	-0.08285933
87	0x3cac91b8	0.021065578
88	0xbc9bc0c8	-0.019012824
89	0xbdcf0295	-0.10107914
90	0xbd5eeaf0	-0.054423273
91	0xbcf2d948	-0.029644623
92	0x3b0535f4	0.0020326348
93	0xbd9dc171	-0.07702912
94	0x3d869543	0.06571438
95	0xbcbc57ed	-0.022991145
96	0x3d910b76	0.07082264
97	0xbd47ef81	-0.048812393
98	0xbd3621d2	-0.044465847
99	0x3d0771b6	0.033067428
100	0x3d44e290	0.04806763
101	0x3b134a8c	0.0022474853
102	0xbdee42e2	-0.11633851
103	0xbc97a519	-0.018511342
104	0xbcc5abe3	-0.024129814
105	0xbd56152b	-0.05226628
106	0x3b18efa4	0.0023336196
107	0xbd876a85	-0.06612114
108	0x3c09c7a0	0.008409411
109	0xbc974c2c	-0.018468939
110	0x3d647c8b	0.055782836
111	0xbda84d84	-0.0821791
112	0xbd6e442e	-0.05817049
113	0xbd5645bc	-0.052312598
114	0xbd7b0896	-0.061287485
115	0xbd18e657	-0.037329044
116	0x3d315a15	0.0432988
117	0xbdb898de	-0.09013532
118	0x3d2ae3dc	0.04172121
119	0xbd0aeefc	-0.03391932
120	0xbb1af3cb	-0.0023643847
121	0xbc97f1af	-0.01854786
122	0xbdabf2ba	-0.08395906
123	0xbbc5ee94	-0.0060404036
124	0xbc92de3a	-0.017928232
125	0xbd135d29	-0.035977516
126	0xbd83771e	-0.06419204
127	0x3b8978f6	0.004195328
128	0xbd93c5ff	-0.07215499
129	0xbd556efb	-0.052107792
130	0xbda336f5	-0.079694666
131	0xbcff2192	-0.031143937
132	0x3bd2dee8	0.006435264
133	0xbcdb89f0	-0.026799172
134	0xbd866bd2	-0.06563534
135	0x3ced8b88	0.028997198
136	0x3d16c74f	0.03681117
137	0xbd93a97b	-0.0721006
138	0xbbb6c62f	-0.0055778245
139	0x3d0192a0	0.031633973
140	0xbdc3205f	-0.09527659
141	0xbc73827d	-0.014862654
142	0x3d1a4792	0.03766591
143	0x3d725132	0.059159465
144	0xbad7b3a1	-0.0016456732
145	0xbbd4dc4e	-0.006495989
146	0x3bd0996e	0.0063659465
147	0x3d4e6ec4	0.050398603
148	0xbd387d85	-0.04504158
149	0x3cfbe8f8	0.030750737
150	0xbd6843d8	-0.056705326
151	0x3ca3194c	0.019909523
152	0xbd5001fa	-0.050783135
153	0xbd14990f	-0.03627878
154	0x3d3dd063	0.04634131
155	0x3ba1ab6f	0.0049337666
156	0xbde0989a	-0.109666064
157	0x3bb307a2	0.0054635564
158	0xbd112865	-0.035438914
159	0xbd08a81b	-0.033363443
160	0xbd824c56	-0.06362216
161	0x3d2e701f	0.042587396
162	0xbd3df820	-0.04637921
163	0xbdb90a74	-0.09035197
164	0xbd26d26b	-0.040728014
165	0xbc426227	-0.011864222
166	0xbb53ac97	-0.0032298916
167	0xb9a4a9b0	-0.00031406945
168	0xbd9f462f	-0.07777058
169	0x3d36060f	0.04443937
170	0xbdc94f4b	-0.09829577
171	0xbd360562	-0.044438727
172	0xbd31b272	-0.04338307
173	0xbcb8ebc7	-0.022573365
174	0x3d42e016	0.047576986
175	0x3c9e4f97	0.01932506
176	0xbd8fd75b	-0.07023498
177	0xbd2fcb38	-0.042918414
178	0x3d76c2b9	0.060244296
179	0xbe010963	-0.12601237
180	0xbd88a143	-0.06671383
181	0xbcee41ce	-0.029084112
182	0xbd3b9a29	-0.045801315
183	0x3bfbfb0b	0.0076898388
184	0xbd0f08d8	-0.034920543
185	0xbd402cba	-0.046917655
186	0x3cb80e4f	0.02246776
187	0x3bf712f3	0.0075401007
188	0x3cd125c1	0.025530698
189	0xbb413a17	-0.0029484087
190	0x3d12f602	0.035879143
191	0xbc095e45	-0.008384292
192	0xbc5e8960	-0.013582557
193	0xbba2cc27	-0.0049681845
194	0x3d5cc669	0.053900156
195	0xbdaa60ca	-0.08319242
196	0x3c10a3c3	0.008828106
197	0xbce65f3f	-0.028121589
198	0x3d7ba0b1	0.061432544
199	0x3d0853cd	0.033283044
200	0xbdb0fc61	-0.086418875
201	0xbc9e411f	-0.019318162
202	0x3d6fbc00	0.0585289
203	0xbd7fedda	-0.062482692
204	0xbd819cde	-0.06328748
205	0x3b85fcb9	0.004088965
206	0x3be4b51c	0.0069795977
207	0xbdba5419	-0.090980716
208	0x3d25d0cd	0.04048233
209	0x3b3b2001	0.0028553011
210	0xbd82cac4	-0.06386331
211	0xbda5c05f	-0.080933325
212	0x3c83f958	0.016110107
213	0xbd3aadd8	-0.045575947
214	0xbda0ffdb	-0.078613006
215	0xbd615275	-0.055010278
216	0xbd285585	-0.041097183
217	0x3cdbc58a	0.026827592
218	0xbc79b42e	-0.015240712
219	0xbd3abd03	-0.045590412
220	0x3d731c40	0.059353113
221	0x3d836b53	0.06416955
222	0x3c573f67	0.013137675
223	0xbb12a8ec	-0.0022378517
224	0x3d8589ff	0.06520461
225	0xbd8b5884	-0.068039924
226	0xbd19c806	-0.037544273
227	0xbc655b10	-0.013998762
228	0x3d03f942	0.032220133
229	0xbd60d45d	-0.054890025
230	0x3d9f4043	0.07775929
231	0x3d895604	0.06705859
232	0x3d5c7b86	0.05382874
233	0x3cbd1ab5	0.023084024
234	0x3c91e278	0.017808184
235	0xbc6ad75c	-0.014333572
236	0xbc6e5664	-0.014546964
237	0xbc42820d	-0.011871827
238	0x3c11c9cc	0.00889821
239	0x3b2ecde8	0.0026673023
240	0x3cd214d0	0.02564469
241	0x3c15390f	0.009107842
242	0xbc90344d	-0.017603064
243	0x3c23549c	0.009968903
244	0xbba18929	-0.004929681
245	0x3d140873	0.03614087
246	0xbd9bc1a2	-0.07605292
247	0x3c7d38d0	0.01545544
248	0x3ce10b16	0.027471106
249	0x3d03f811	0.032218996
250	0xbb87a7db	-0.004139883
251	0xbdb72b35	-0.08943788
252	0xbcffffa7	-0.031249834
253	0x3d2370e2	0.039902575
254	0xbcce04d0	-0.02514878
255	0xbb6b1c72	-0.003587511

_func._diffusion._model.0.bias f4 [16]
0	0x3ddbe975	0.10737888
1	0x3c6babea	0.014384249
2	0x3c73c035	0.014877369
3	0x3dc77698	0.09739417
4	0xbc3851eb	-0.0112499995
5	0x3c6fc54a	0.01463444
6	0xbd6df38a	-0.058093585
7	0xbdccbb76	-0.09996693
8	0x3d6fd61e	0.058553807
9	0xbcdffdaa	-0.027342636
10	0xbc9d4346	-0.019197118
11	0x3d4ca147	0.049958494
12	0xbda9b4a8	-0.082864106
13	0x3dbd6285	0.09247307
14	0x3d9ea66f	0.077465884
15	0x3c0ab1fe	0.008465288

_func._diffusion._model.2.weight f4 [48, 16]
0	0x3d946722	0.072462335
1	0x3d5785db	0.05261789
2	0xbc02a12b	-0.007972996
3	0x3d3ccefd	0.046095837
4	0xbdc70211	-0.09717191
5	0x3d25c62a	0.040472187
6	0x3b8f9941	0.004382283
7	0xbbb9eb38	-0.005673792
8	0x3d18f2ed	0.037341047
9	0xbdaf85c2	-0.08570434
10	0x3c33e067	0.010978795
11	0x3d7b31e2	0.06132687
12	0xbd65fda6	-0.0561501
13	0xbccf66ce	-0.025317576
14	0xbc960d6b	-0.018316945
15	0x3d90f014	0.07077041
16	0x3d101009	0.035171542
17	0xbd2260c1	-0.039643053
18	0xbce31fea	-0.027725179
19	0x3c2845e5	0.01027057
20	0xbd92e004	-0.07171634
21	0x3d4e1f6d	0.05032294
22	0xbd0b7860	-0.034050345
23	0xbdb32160	-0.087466
24	0x3d9e2e85	0.07723717
25	0xbc11efac	-0.00890724
26	0x3c13348d	0.008984697
27	0x3d8925ef	0.066966884
28	0xbc69b2c3	-0.0142638115
29	0xbcd3b38c	-0.02584245
30	0xbcf31480	-0.029672861
31	0xbc75ae35	-0.0149951475
32	0x3c1edeca	0.009696672
33	0xbcbe913c	-0.023262613
34	0xbd0bb0cf	-0.034104165
35	0x3dc6b79b	0.09702989
36	0xbdaec4f0	-0.085336566
37	0x3d21fda4	0.03954853
38	0xbd37fc50	-0.04491836
39	0x3ccccf48	0.025001183
40	0xbc5d7f66	-0.013519144
41	0xbcf7236b	-0.030168256
42	0xbdb63a5e	-0.088978514
43	0xbcb122fe	-0.02162313
44	0xbcf19915	-0.02949194
45	0x3a668398	0.00087934127
46	0x3cb63fc9	0.022247212
47	0xbca11fa0	-0.0196684
48	0x3d95d263	0.07315519
49	0x3d6dbd81	0.058042053
50	0xbd548c73	-0.051891755
51	0x3c623b68	0.013808109
52	0x3bb79e01	0.0056035523
53	0xbc8caf56	-0.01717345
54	0xbd30b7f6	-0.04314419
55	0xbd0a3a85	-0.033747215
56	0x3d63595f	0.055505153
57	0xbd2c56f0	-0.042075098
58	0xbc9512e0	-0.018197477
59	0xbc49dc15	-0.012320538
60	0xbcbe80cd	-0.023254776
61	0xbbcf8b09	-0.006333713
62	0x3d7fb511	0.062428538
63	0x3d24e338	0.040255755
64	0x3d897f52	0.067137375
65	0x3bf07f66	0.007339406
66	0xbc0a7ad1	-0.008452133
67	0x3dc2a6c3	0.095044635
68	0xbd2ae789	-0.041724715
69	0x3d89e699	0.06733436
70	0xbd8b8abf	-0.06813573
71	0x3c18eae2	0.009333344
72	0x3d40c92f	0.047066864
73	0xbda86563	-0.08222463
74	0xbd131c31	-0.035915557
75	0xbd1c254b	-0.038121503
76	0xbcdf400f	-0.027252225
77	0x3bb61c35	0.0055575618
78	0x3b22aae9	0.0024821109
79	0x3c649881	0.013952375
80	0x3db99dd9	0.0906331
81	0x3c8a2da6	0.01686747
82	0xbd4c4b38	-0.04987642
83	0x3d88de8b	0.06683072
84	0xbce8d82a	-0.028423388
85	0x3d36dd1f	0.04464447
86	0xbcee61dd	-0.0290994
87	0xbc93ba38	-0.018033132
88	0x3d0d0f4c	0.034438416
89	0xbd2ad905	-0.041710872
90	0xbba11ff2	-0.0049171383
91	0x3d74a87c	0.05973099
92	0xbdbd2df9	-0.09237284
93	0x3cc0a8e5	0.023518035
94	0x3ca6baf7	0.020352824
95	0x3d78927f	0.060686585
96	0x3da18f66	0.07888679
97	0x3d1f53d1	0.038898293
98	0xbd727fba	-0.05920384
99	0x3cd3ce04	0.025855072
100	0x3b91ab0f	0.0044454406
101	0x3c00d03e	0.007862149
102	0xbd34fcfb	-0.044186573
103	0xbd91533f	-0.07095956
104	0x3d52cd3e	0.051465265
105	0xbcaa0277	-0.020753128
106	0xbd265332	-0.040606685
107	0x3d3a97dc	0.04555498
108	0xbd37e43b	-0.044895392
109	0xbb9765f6	-0.004620309
110	0x3d9872e5	0.074437894
111	0x3d51544b	0.05110578
112	0x3db068b4	0.086137205
113	0x3bc26f6e	0.0059336936
114	0xbd0c7514	-0.034291342
115	0x3c81c0b6	0.015838962
116	0xbd807934	-0.06273118
117	0x3a3ad2db	0.0007126757
118	0xbc52564e	-0.012837959
119	0xbd7d2604	-0.061803833
120	0x3dbe5cf9	0.09295077
121	0xbdad53db	-0.0846326
122	0xbcc68eb5	-0.02423797
123	0x3d6dba97	0.058039274
124	0xbdb4e58a	-0.088328436
125	0x3d309ea9	0.04312006
126	0x3da5611e	0.08075164
127	0x3d242697	0.040075865
128	0xbcdd8811	-0.02704242
129	0xbcbba73e	-0.022906896
130	0x38445711	4.681113e-05
131	0x3d172d2e	0.03690832
132	0xbd60543f	-0.054767843
133	0x3d3c5d3b	0.04598735
134	0xbcbc4bf2	-0.022985432
135	0x3ca51249	0.02015032
136	0x3d290238	0.04126188
137	0x3c067b68	0.008208133
138	0xbd368629	-0.04456154
139	0x3cbe1cfb	0.023207178
140	0x3bc19f36	0.005908872
141	0x3ce3b290	0.027795106
142	0x3d89bca1	0.06725431
143	0x3d6bf09e	0.057602517
144	0xbab1fa37	-0.0013578598
145	0xbc65e724	-0.014032159
146	0xbc1b47fd	-0.009477613
147	0x3c96b2dc	0.018395834
148	0xbcdfd3a6	-0.027322602
149	0x3d3d64fc	0.046238884
150	0x3c19e740	0.009393513
151	0xbd9facad	-0.07796607
152	0x3d420e8a	0.047377147
153	0xbd1938cf	-0.037407693
154	0xbd7cc300	-0.061709404
155	0x3d85cf43	0.06533673
156	0xbdb82998	-0.089923084
157	0x3b250154	0.0025177794
158	0x3d74c2be	0.059756033
159	0xbcfc8857	-0.03082673
160	0x3aa14bb0	0.0012305882
161	0xbbf11806	-0.0073576
162	0x3d2a0089	0.041504417
163	0x3d30026f	0.04297107
164	0xbdd38586	-0.10328202
165	0x3b56a39c	0.0032751327
166	0xbd845e59	-0.06463308
167	0xbd91946b	-0.071083866
168	0x3c701f85	0.014655952
169	0xbd846b22	-0.064657465
170	0xbdce948d	-0.100869276
171	0x3d2033cd	0.0391119
172	0xbd5862f3	-0.05282874
173	0x3d956dbe	0.07296322
174	0x3c9f07f7	0.019412978
175	0x3d83a332	0.064276114
176	0x3dafaf7f	0.08578395
177	0x3b371df8	0.0027941447
178	0xbd1ebd9e	-0.03875505
179	0x3cf64760	0.030063331
180	0xbdb8a8f6	-0.09016602
181	0x3cce567e	0.025187727
182	0xbd860a44	-0.06544927
183	0xbd9f40d6	-0.07776038
184	0xbcb9c05c	-0.022674732
185	0xbca4c9d0	-0.020115763
186	0x3c67ee14	0.014155883
187	0xbc4917fe	-0.012273787
188	0xbda89d67	-0.08233147
189	0x3c8caca1	0.01717216
190	0x3d052b81	0.03251219
191	0x3d932620	0.07185006
192	0xbd07959a	-0.033101656
193	0x3cb1f305	0.021722326
194	0x3c366ff2	0.011135088
195	0xbd4c727b	-0.049913865
196	0x3b0b9838	0.0021300446
197	0xbd4dd034	-0.050247386
198	0x3bfb681d	0.0076723234
199	0xbce3c8e2	-0.02780575
200	0xbc89dff4	-0.016830422
201	0x3caeeeb6	0.02135406
202	0x3d6c9796	0.05776175
203	0xbc928c9f	-0.017889319
204	0x3d775af8	0.06038949
205	0xbd4849d0	-0.048898518
206	0xbdab3540	-0.08359766
207	0xbd94875e	-0.07252382
208	0x3c2521a2	0.0100788195
209	0xbc0239aa	-0.0079483185
210	0xbad7c6f3	-0.001646249
211	0xbdc865bc	-0.09785029
212	0x3c7e815c	0.015533771
213	0xbd802395	-0.06256787
214	0x3ba22d93	0.0049492805
215	0x3d04d11c	0.032425985
216	0xbd90ce77	-0.0707063
217	0x3c614dad	0.0137514295
218	0x3d31d559	0.043416355
219	0xbd2a447a	-0.04156921
220	0x3d5cb5a0	0.05388415
221	0x3cf15ed7	0.029464168
222	0x3d18a1b3	0.037263583
223	0x3ccac31f	0.024751244
224	0xbd53f55a	-0.051747657
225	0x3cc01e75	0.023452023
226	0x3d14c491	0.036320273
227	0xbd5038ef	-0.050835546
228	0x3d8f7e75	0.07006542
229	0x3c262691	0.010141031
230	0x3d03d11a	0.032181837
231	0x3dabc1b8	0.08386558
232	0xbce540db	-0.027985027
233	0x3d975514	0.07389274
234	0x3bd4771c	0.0064839255
235	0xbcc1bad2	-0.023648653
236	0x3da741a8	0.0816682
237	0xbd55b6f3	-0.052176427
238	0xbd1a3371	-0.037646715
239	0xbda00b5f	-0.07814669
240	0xbbecbb18	-0.0072244518
241	0xbbcd7582	-0.0062701115
242	0xbd2e4bce	-0.04255276
243	0x3ceb1258	0.02869527
244	0xbd256e9d	-0.040388692
245	0xba887ee7	-0.0010413796
246	0xbd879d71	-0.066218264
247	0xbca18772	-0.019717906
248	0x3b9fa7bb	0.00487229
249	0xbdb58a2d	-0.088642456
250	0xbd81e7af	-0.06343018
251	0x3d4c0ec9	0.049818788
252	0x3acd163f	0.0015646889
253	0x3d88c1a7	0.06677561
254	0xbb31c784	-0.0027126977
255	0x3cf748f4	0.030186154

_func._diffusion._model.2.bias f4 [48]
0	0x3d89bbda	0.06725283
1	0x3db04f6e	0.086089
2	0x3dc9ef47	0.09860092
3	0x3da075ed	0.078349926
4	0x3cf1d055	0.029518286
5	0x3d52f30f	0.05150133
6	0x3d17e184	0.037080303
7	0x3d6d13b9	0.057880137
8	0x3cb5f651	0.02221218
9	0x3ce84f62	0.028358165
10	0x3de049c8	0.10951573
11	0x3cda8f62	0.026679698
12	0xbd2c898e	-0.04212337
13	0xbc751394	-0.014958281
14	0xbd9f3fc0	-0.07775831
15	0x3a9eca9d	0.0012114827
16	0x3bbcdd92	0.005763718
17	0x3d8c469d	0.06849406
18	0xbd5f7a60	-0.054560065
19	0xbdd73066	-0.10507278
20	0xbdbc406a	-0.091919735
21	0xbc25368f	-0.010083809
22	0xbd4d6c3e	-0.050152056
23	0xbdd19239	-0.10232968
24	0xbcc206a4	-0.023684807
25	0xbcad0ba3	-0.021123713
26	0x3d6dafca	0.058028974
27	0xbd917bde	-0.07103704
28	0xbcd57e0c	-0.02606108
29	0xbd30d298	-0.043169588
30	0xbc5ec0b4	-0.013595749
31	0xbd694c5e	-0.056957595
32	0xbddbd26e	-0.10733496
33	0x3dc06a34	0.09395257
34	0x3d924aff	0.071432106
35	0x3db15ea7	0.086606316
36	0x3d2f78b8	0.042839736
37	0x3c2716a4	0.010198269
38	0x3c95557c	0.018229239
39	0x3b929395	0.0044731596
40	0xbcd3d94c	-0.025860451
41	0xbd913869	-0.070908375
42	0x3d3c3019	0.045944307
43	0x3d90aab9	0.07063813
44	0x3dc43dce	0.09582101
45	0xbd5e607b	-0.05429123
46	0xbc9072b5	-0.017632822
47	0x3a9ffce6	0.0012206107

_readout.weight f4 [1, 16]
0	0xbdc3c901	-0.09559823
1	0xbe458dd8	-0.1929239
2	0xbe75f51b	-0.24019282
3	0xbe540866	-0.20706329
4	0x3da20965	0.07911948
5	0xbdcb91ee	-0.09939943
6	0x3c176c0f	0.009242072
7	0x3e043871	0.12912156
8	0xbce07f20	-0.027404368
9	0x3d9230c7	0.0713821
10	0x3db470fb	0.08810612
11	0xbe8a4102	-0.27002722
12	0xbe721429	-0.23640503
13	0xbb969cdd	-0.0045963363
14	0xbd8c3552	-0.068461075
15	0x3e15312a	0.14569536

_initial._model.0.weight f4 [16, 2]
0	0xb5fe84e3	-1.896315e-06
1	0xbe97d652	-0.296557
2	0xb6084a15	-2.03087e-06
3	0x3fb21d4c	1.3915191
4	0x34978ba7	2.8227552e-07
5	0xbf452f5d	-0.77025396
6	0x369016b0	4.2941756e-06
7	0xbf073350	-0.5281267
8	0xb656d655	-3.2013243e-06
9	0xbea0de0d	-0.3141941
10	0x3612b0f1	2.1858689e-06
11	0xbf411688	-0.75425005
12	0x361547d9	2.224455e-06
13	0x3f8b0745	1.0861593
14	0xb5ae010f	-1.2964318e-06
15	0x3fc32110	1.5244465
16	0x342d3fec	1.6135135e-07
17	0xbf3cffa8	-0.738276
18	0xb625bef9	-2.4698077e-06
19	0x3f6e95b8	0.931972
20	0xb645f551	-2.949808e-06
21	0x3ae494e2	0.001743939
22	0x369100d9	4.3214354e-06
23	0xbeafbb7d	-0.3432273
24	0xb695c646	-4.463628e-06
25	0xbfb7d410	-1.4361591
26	0x360f04a5	2.1311364e-06
27	0x3f23e2ee	0.6401814
28	0x3575d2f4	9.157659e-07
29	0x3f61f2fc	0.8826139
30	0xb5a96939	-1.2622105e-06
31	0x3f51977b	0.81871766

_initial._model.0.bias f4 [16]
0	0xbf05ac4d	-0.52216035
1	0x392d80f8	0.0001654661
2	0x3c597897	0.01327338
3	0x3f002c08	0.50067186
4	0xbe928635	-0.28618017
5	0xbd8874be	-0.06662892
6	0xbe852363	-0.2600356
7	0xbee45e09	-0.44602993
8	0x3f30f3d1	0.69122034
9	0x3e2c9b01	0.16856004
10	0xbd28b73c	-0.04119037
11	0xbe178dd7	-0.14800201
12	0xbe93718a	-0.2879756
13	0xbe9ad6b7	-0.3024194
14	0x3dcaf93b	0.09910818
15	0x3ec3ec00	0.3826599

_initial._model.2.weight f4 [16, 16]
0	0xbd9218cb	-0.07133635
1	0xbf1ff37a	-0.6248089
2	0x3d4dec52	0.0502742
3	0x3c855e15	0.016280213
4	0xbe771a57	-0.24131142
5	0xbdb34b91	-0.087546475
6	0xbe8dbb98	-0.27682185
7	0xbea13204	-0.3148347
8	0x3cf916b5	0.030406335
9	0xbeb20fdf	-0.34777734
10	0xbd83cffb	-0.064361535
11	0xbdeaeb94	-0.11470714
12	0xbe6165e7	-0.22011529
13	0xbe61ebc1	-0.22062589
14	0xbd711b2a	-0.058863796
15	0xbea0bf98	-0.31396174
16	0x3ddbb6d6	0.107282326
17	0x3f05d0b3	0.52271575
18	0x3eac7496	0.33682698
19	0x3e4067b0	0.18789554
20	0x3debf7b2	0.115218535
21	0x3e94c888	0.29059243
22	0x3eb8a13d	0.36060515
23	0x3ec878dc	0.39154708
24	0x3e034cba	0.12822238
25	0x3eb73009	0.35778835
26	0x3d7c98e3	0.06166924
27	0x3d72e8c6	0.05930402
28	0x3f08af17	0.53392166
29	0xbd68f1e4	-0.05687131
30	0x3e5d41ab	0.21607082
31	0x3ecb016f	0.3964953
32	0xbeadd282	-0.33949667
33	0x3f0c0985	0.54702026
34	0x3ca4cff4	0.020118691
35	0x3d53eba6	0.051738404
36	0xbeed6bcb	-0.46371302
37	0x3c6bbcb5	0.014388253
38	0x3e54f773	0.2079752
39	0x3e856396	0.2605254
40	0x3e19d5ed	0.15023012
41	0x3f1a6084	0.6030352
42	0xbe4b930a	-0.1988031
43	0xbebf859c	-0.37406623
44	0x3e9ad7c6	0.30242747
45	0x3de63823	0.11241176
46	0x3e78736e	0.24262783
47	0x3f2b4434	0.66900945
48	0x3d26f093	0.040756773
49	0x3f3eefa3	0.74584407
50	0x3dc79ea5	0.09747056
51	0x3caa3ae6	0.020780038
52	0xbdba5d4e	-0.09099828
53	0x3c7fc84d	0.01561172
54	0x3ee6493b	0.44977745
55	0x3f0d0b67	0.55095524
56	0x3dd3a65a	0.103344634
57	0x3e7eeea9	0.24895729
58	0xbe01bedf	-0.12670468
59	0x3de79137	0.113069944
60	0x3e9e0957	0.308665
61	0x3da6f916	0.08152978
62	0x3eee6a63	0.46565542
63	0x3e070c84	0.13188368
64	0xbd9d489b	-0.07679864
65	0x3f165351	0.5872088
66	0x3df98f73	0.12185564
67	0x3da7b03c	0.08187911
68	0xbd8ab966	-0.06773643
69	0x3e8b20da	0.271735
70	0x3e5e7650	0.2172482
71	0x3f1d718a	0.6150137
72	0xbe6accb0	-0.22929645
73	0x3edbc205	0.42921463
74	0xbe051fd6	-0.13000426
75	0x3d8a8045	0.06762747
76	0x3f23f215	0.6404126
77	0x3e1330bc	0.1437406
78	0x3d7bb04b	0.061447423
79	0x3db11755	0.08647028
80	0x3d59884f	0.05310851
81	0x3f284750	0.65733814
82	0xbe0c9b13	-0.13731031
83	0x3c53e4fb	0.012933011
84	0x3e639f01	0.22228624
85	0x3e14bcb4	0.1452511
86	0x3eceba67	0.4037659
87	0x3f172fe4	0.5905745
88	0x3ba175e9	0.004927386
89	0x3ee05d9d	0.4382142
90	0x3e4925e0	0.19643354
91	0xbe0e1d7c	-0.13878435
92	0x3eb3b367	0.3509781
93	0x3e8fee51	0.28111508
94	0x3e844a65	0.2583801
95	0x3d3949d1	0.045236412
96	0x3e929a24	0.28633225
97	0xbe3ab60a	-0.18233505
98	0x3dfcd055	0.12344424
99	0x3bb2a423	0.0054516955
100	0x3ed4df5e	0.41576666
101	0x3d74c376	0.05975672
102	0xbd57da5d	-0.05269848
103	0xbe2083d6	-0.15675291
104	0xbd6eee13	-0.058332514
105	0xbf17c84d	-0.5929001
106	0x3c9cfc42	0.019163255
107	0x3f051dff	0.51998895
108	0x3e071b83	0.13194089
109	0xbe20f722	-0.15719274
110	0xbe877fb9	-0.26464632
111	0xbe64ce6d	-0.2234437
112	0xbe3caead	-0.18426009
113	0xbeec154f	-0.46110007
114	0x3e002540	0.1251421
115	0xbe514b11	-0.20438792
116	0x3dbff9bb	0.09373804
117	0xbd6d9c4a	-0.058010377
118	0xbe987de1	-0.29783538
119	0xbf0924bf	-0.53571695
120	0xbd719b44	-0.058985963
121	0xbe02256b	-0.12709586
122	0x3d6df4f2	0.058094926
123	0x3cd59c14	0.0260754
124	0xbf227718	-0.6346297
125	0xbd4cb505	-0.04997732
126	0xbdcab6a3	-0.098981164
127	0xbeb3e637	-0.35136577
128	0x3eaa83eb	0.3330377
129	0x3e91d6ac	0.28484094
130	0xbe0d5dc7	-0.13805304
131	0x3ce356dd	0.02775138
132	0x3df8eeac	0.12154898
133	0x3bed3368	0.007238794
134	0x3ee8f809	0.45501736
135	0x3f2173ef	0.63067526
136	0xbe428548	-0.18996155
137	0x3ebb6d83	0.36606988
138	0x3d7cdd55	0.061734516
139	0x3deeb5b9	0.116557546
140	0x3f260003	0.6484377
141	0x3e83083f	0.2559223
142	0xbb8602f5	-0.004089708
143	0x3eb53ac5	0.353964
144	0x3dd04b6e	0.10170637
145	0xbeb7d2be	-0.3590297
146	0xbe33624c	-0.17517966
147	0x3d6eff6d	0.05834906
148	0xbe0e45c0	-0.13893795
149	0xbecee6dd	-0.4041051
150	0xbeb9c9ed	-0.3628687
151	0xbecf1ddd	-0.4045247
152	0xbe15ced7	-0.14629684
153	0xbdffeace	-0.12495957
154	0x3e14dedd	0.1453814
155	0x3dc6dc0d	0.0970994
156	0xbf280b3b	-0.65642136
157	0xbe6d9600	-0.23201752
158	0xbe807bf5	-0.25094572
159	0xbd96b73c	-0.07359168
160	0xbdc61580	-0.096720695
161	0x3e8f42b7	0.27980587
162	0x3de119f7	0.109912805
163	0xbe6a4701	-0.22878648
164	0xbdc5b34d	-0.096533395
165	0x3eab99a1	0.33515647
166	0x3ed58fc2	0.4171124
167	0x3ee96055	0.45581308
168	0xbd924936	-0.0714287
169	0x3ec53338	0.3851564
170	0xbcf222e8	-0.02955766
171	0x3e51a70e	0.20473883
172	0x3e8099d3	0.2511736
173	0x3e95127c	0.29115665
174	0x3e09af94	0.13445884
175	0x3d833161	0.06405903
176	0xbda1a5ce	-0.07892953
177	0x3ec9cd73	0.39414558
178	0x3dc2d420	0.09513116
179	0x3c8476db	0.016169956
180	0x3e1afa90	0.15134645
181	0x3e899707	0.26873037
182	0x3ea95ac7	0.3307707
183	0x3e6dddee	0.2322919
184	0x3dfc5a16	0.1232187
185	0x3e433751	0.1906407
186	0xbc8297d0	-0.01594153
187	0xbbd129ba	-0.006383148
188	0x3f1edb54	0.6205342
189	0xbcc042d7	-0.023469372
190	0x3ea12be2	0.31478792
191	0x3e4e32e5	0.20136602
192	0x3a7daa9b	0.0009676606
193	0x3edf03f1	0.43557695
194	0x3d8e54c3	0.06949761
195	0xbe851dba	-0.25999242
196	0x3db16c5f	0.08663248
197	0x3e7e8098	0.24853742
198	0x3ee0459f	0.43803117
199	0x3ef06879	0.46954706
200	0x3e034a4e	0.12821314
201	0x3ebc110b	0.36731753
202	0xbc93f1d2	-0.018059645
203	0xbdfbf8d2	-0.12303318
204	0x3f16138f	0.58623594
205	0x3ee8f20c	0.45497167
206	0x3ebaf0b9	0.36511782
207	0x3e8cf46d	0.27530232
208	0x3e1ccf05	0.15313347
209	0x3f068001	0.5253907
210	0x3e92defa	0.28685743
211	0x3e3ba241	0.18323614
212	0xbe0a9c24	-0.13536125
213	0x3eb97fa3	0.36230192
214	0x3ee69e0a	0.4504245
215	0x3e50c2b7	0.20386778
216	0x3dad6b71	0.084677584
217	0x3e1aee12	0.15129879
218	0xbd2ba358	-0.041903824
219	0x3c36ed25	0.011164938
220	0x3f23686d	0.63831216
221	0xbcd82f49	-0.026389735
222	0x3ea846ff	0.32866666
223	0x3eabdd0c	0.33567083
224	0x3ec5aa25	0.38606372
225	0xbed6b2f3	-0.41933402
226	0x3ed7b5e1	0.4213095
227	0x3e937993	0.2880369
228	0x3e825102	0.2545243
229	0x3f189667	0.59604496
230	0x3c6145ad	0.013749522
231	0xbe3e75be	-0.18599603
232	0x3d28410e	0.041077666
233	0xbe82166e	-0.25407737
234	0xbdca46ef	-0.09876811
235	0x3f08057c	0.5313337
236	0x3eae5ba5	0.34054294
237	0xbe52a995	-0.20572503
238	0xbe8d2a09	-0.27571133
239	0xbee7107b	-0.4512976
240	0xbcfdb0aa	-0.030968029
241	0xbf0eed5c	-0.5583093
242	0xbe1fb853	-0.15597658
243	0x3e18bc3c	0.14915556
244	0xbe5c77f5	-0.21530135
245	0xbe00d07f	-0.12579535
246	0xbed7be79	-0.42137507
247	0xbf07c9a7	-0.5304207
248	0xbd9f19ef	-0.07768618
249	0xbe8b57a5	-0.27215305
250	0xbdb55836	-0.088547155
251	0xbe0df47f	-0.13862799
252	0xbefe9caf	-0.49728915
253	0xbeb47b8b	-0.35250506
254	0xbe2049bc	-0.15653127
255	0xbe4fcb3d	-0.20292373

_initial._model.2.bias f4 [16]
0	0x3ec44235	0.38331762
1	0x3d977e66	0.073971555
2	0x3ea51c01	0.32247928
3	0xbd78f114	-0.060776785
4	0xbe856760	-0.2605543
5	0x3d8ebca2	0.069695726
6	0xbebb0d00	-0.36533356
7	0x3d94941f	0.07254814
8	0xbe946467	-0.2898285
9	0xbe3d45a5	-0.18483599
10	0x3d7c3d7a	0.061582066
11	0x3e1d1791	0.15341021
12	0xbe02dacd	-0.12778778
13	0x3c0eb2a1	0.008709581
14	0xbe9d6d84	-0.30747616
15	0x3e4b8535	0.19875033
