hyperparameter_tuning/ray_results/SUD_learning_rate_tuning/MyTrainableClass_3b9d3228_22_batch_size=16,name=SUD_v2,patience=1000,steps=200,steps_per_print=5,swa_step_start=2500,t_size=7,trai_2024-03-12_14-37-20/checkpoint_000000/checkpoint.pt (torch, 61346 bytes, 66 tensors)

_initial._model.0.weight f4 [16, 5]
-0.8295054 -2.1068585 -1.4443567 -1.1348612 -2.7774153 -1.7529573 -3.4281657 -3.7808065
-3.2667954 2.5176268 2.8962195 -2.5142553 3.2857559 -3.549269 1.9948616 1.0153049
3.1756208 -2.3155591 3.173353 0.22407545 2.7404633 -1.0884149 -0.21191584 -2.4448273
1.3683496 -2.7070322 -1.058725 -2.979374 -1.652751 0.12094618 -3.2350142 0.77723294
-2.614754 -0.0891997 -0.895454 -0.8609024 -0.8180065 1.5829793 0.6162957 2.0429647
-0.54505527 -3.6283605 -3.4451916 3.6994064 -3.437999 2.6083932 0.6344517 1.5888976
1.7448173 -0.4959354 2.930236 0.12234167 -1.8848563 -0.62325996 -1.501834 1.055383
-2.6981604 -3.5300543 3.5647688 0.7648832 0.26317635 1.2144388 2.282738 -0.18825802
2.5625763 -3.8774061 -1.9109876 -0.6251914 1.7992973 -2.3829408 2.9457211 3.244088
3.0365553 -3.8637831 -3.339075 -1.0291016 0.47198206 3.1530654 0.75583035 3.4094996
00000000: 775a 54bf c5d6 06c0 aee0 b8bf 2243 91bf
00000010: 2cc1 31c0 e860 e0bf 1167 5bc0 bcf8 71c0
00000020: 2d13 51c0 cc20 2140 a95b 3940 8fe9 20c0
00000030: d349 5240 3927 63c0 a057 ff3f 83f5 813f
00000040: 5f3d 4b40 1f32 14c0 3718 4b40 0974 653e
00000050: c063 2f40 2e51 8bbf 7700 59be 0d78 1cc0
00000060: 1426 af3f 0440 2dc0 4d84 87bf 10ae 3ec0
00000070: 588d d3bf a1b2 f73d 790a 4fc0 bdf8 463f
00000080: 2158 27c0 55ae b6bd 793c 65bf 1a64 5cbf
00000090: e068 51bf 119f ca3f 8ec5 1d3f efbf 0240
000000a0: be88 0bbf 0f37 68c0 057e 5cc0 13c3 6c40
000000b0: 2d08 5cc0 eaef 2640 6d6b 223f ff60 cb3f
000000c0: 2c56 df3f 3feb fdbe fd88 3b40 458e fa3d
000000d0: f942 f1bf f78d 1fbf 193c c0bf ca16 873f
000000e0: a9ae 2cc0 69ec 61c0 2c25 6440 63cf 433f
000000f0: 0dbf 863e bb72 9b3f 6118 1240 b6c6 40be
00000100: 4001 2440 6c27 78c0 3e9b f4bf 8b0c 20bf
00000110: 604f e63f 1a82 18c0 b286 3c40 239f 4f40
00000120: ec56 4240 3948 77c0 68b3 55c0 9ab9 83bf
00000130: a2a7 f13e d3cb 4940 197e 413f 3e35 5a40

_initial._model.0.bias f4 [16]
1.9256917 -3.4461343 -1.5345565 0.78057575 0.41298136 -3.5126617 -1.6290767 2.469002
1.8137408 -0.78108543 -3.5045984 3.5655687 -2.0604055 1.2897552 -0.600159 0.19114906
00000000: 117d f63f 778d 5cc0 596c c4bf d0d3 473f
00000010: 4b72 d33e 73cf 60c0 9685 d0bf 2104 1e40
00000020: a928 e83f 37f5 47bf 574b 60c0 4732 6440
00000030: afdd 03c0 b316 a53f 05a4 19bf 94bc 433e

_initial._model.2.weight f4 [16, 16]
-0.21845405 -0.31254494 0.046027526 -1.5250511 1.9574037 -1.6437697 0.68847495 0.17131414
-0.8039184 1.7448841 -0.30387184 -1.4988556 0.62777925 -0.66970116 1.6413044 -2.0740743
1.1545377 -0.518979 -2.39712 2.1083624 1.4889375 0.62261647 0.88998467 -1.7320797
2.3125496 0.00047312453 -0.46792385 -2.051831 -1.4018211 -0.39230818 -0.914129 1.1715018
-0.043607697 1.6983526 0.5532817 -0.9546321 0.9156056 2.3358412 -0.7260963 -0.8158527
-0.22740866 0.78717184 -1.362053 -0.20715985 -1.3011737 1.5170194 -0.4995447 1.4904486
-0.38475817 -1.9432107 1.003699 -1.190415 -1.8980311 2.3071885 -0.4619926 0.28845245
-1.5497521 -2.0412064 1.4158465 -0.7623771 0.86102813 0.74607843 0.96023923 -2.2408578
-0.6287813 0.50938326 -1.6696163 1.9326825 1.3970402 -2.2156634 1.7702347 0.7942877
1.6157173 1.466615 1.1544015 0.8723456 1.3964428 -0.77704173 1.2919867 -1.8112988
-0.6643294 0.5501435 -2.0287516 2.4338205 -1.0871426 -1.3418691 -1.6294594 -0.5367148
-1.4013485 2.019501 0.433158 1.8066828 0.3739092 -1.8666003 0.8072238 -0.012562588
-0.083634965 -0.5169837 0.23839115 0.46081445 0.8055357 -0.0914233 1.0338839 0.581778
1.6781788 -0.03977861 -0.6531475 -1.2265378 1.9137322 1.0841248 1.628365 0.85483515
-0.05959611 -2.2717042 -1.3473368 -0.35595173 0.9989714 -2.122645 -2.3264246 1.6668096
-1.3503482 0.3415931 0.6042704 1.1396207 0.038393587 -1.1794369 -0.39721763 -0.66687673
1.3937013 0.6524768 0.29332328 1.490817 -2.3423927 -0.15690438 0.6287399 0.46316454
-1.2751529 -1.8231128 -0.45441768 -0.21963428 -1.682327 0.30277258 0.9250375 0.57627547
1.0877976 0.14049675 2.1200452 1.1362915 -0.9222008 -2.2427125 -0.19945961 0.7030066
1.9538573 -0.5835118 0.02933206 -0.8387303 0.7417235 0.17061289 0.5356176 -1.4735285
1.1467739 -2.2652388 1.2061739 -0.37897688 -1.3596164 0.98650867 -1.2496223 1.937423
1.9601779 -1.8744882 -1.7701671 0.7620975 -1.5191587 -1.2983122 1.0237685 1.8851923
0.14631034 -1.4810829 0.94661176 -0.07896588 -1.6248719 2.2668974 -1.3878893 -0.5646499
0.5074015 -1.0330956 -0.6312584 0.8508875 -0.42384598 0.056601465 1.1777986 1.1093426
-1.1578513 -1.7544609 1.8662208 0.06938546 -1.4882705 -1.9435298 -1.3105808 -0.12846012
-0.36875635 -0.80332565 2.0208678 2.2934082 1.710538 -1.9536929 -1.3783185 1.5543876
-0.8165684 -0.09962299 -0.7808981 1.9295592 2.2653458 1.3785075 1.8124819 -1.6070039
1.8727273 0.08378537 -2.1307945 -0.1037203 1.5850472 -0.73301303 -0.5201603 -0.6559219
-1.0415999 1.4896064 1.193658 0.022165472 1.7276431 0.67074805 -0.9372406 -1.653494
0.27713028 -0.760235 -0.6250609 1.318901 1.3792529 -0.4399982 -0.6364307 0.77561
0.28037825 0.70955783 0.887983 1.4233505 -1.8735638 0.075081766 0.61638576 0.411687
-0.7455755 -1.8414272 1.9663965 -1.6649867 1.251155 -2.2306798 0.5067764 1.7614975
00000000: 6bb2 5fbe e405 a0be 5c87 3c3d e034 c3bf
00000010: 348c fa3f 0c67 d2bf e53f 303f f96c 2f3e
00000020: 99cd 4dbf 5d58 df3f 1795 9bbe 80da bfbf
00000030: 24b6 203f 8971 2bbf 4316 d23f a2bd 04c0
00000040: e4c7 933f cfdb 04bf 6a6a 19c0 69ef 0640
00000050: 8195 be3f cb63 1f3f 09d6 633f cab4 ddbf
00000060: d000 1440 b30d f839 b793 efbe 3351 03c0
00000070: e06e b3bf 9edc c8be 5c04 6abf c5f3 953f
00000080: fc9d 32bd 9e63 d93f dfa3 0d3f c562 74bf
00000090: 2165 6a3f 6c7e 1540 72e1 39bf b9db 50bf
000000a0: d1dd 68be 1884 493f c157 aebf b621 54be
000000b0: dc8c a6bf b12d c23f 53c4 ffbe 05c7 be3f
000000c0: 06ff c4be 21bb f8bf 3579 803f 855f 98bf
000000d0: aff2 f2bf faa8 1340 4b8a ecbe 0ab0 933e
000000e0: 475e c6bf 20a3 02c0 753a b53f 252b 43bf
000000f0: 576c 5c3f fffe 3e3f 3dd2 753f 376a 0fc0
00000100: d0f7 20bf f166 023f fdb5 d5bf 2462 f73f
00000110: 37d2 b23f 6ecd 0dc0 0d97 e23f 7056 4b3f
00000120: d3cf ce3f 0aba bb3f 6ec3 933f 0b52 5f3f
00000130: a3be b23f 35ec 46bf d25f a53f a4d8 e7bf
00000140: 7e11 2abf 34d6 0c3f 11d7 01c0 b7c3 1b40
00000150: 7d27 8bbf 5ec2 abbf 2092 d0bf 2466 09bf
00000160: 635f b3bf 813f 0140 e3c6 dd3e 6241 e73f
00000170: 0771 bf3e c2ec eebf 38a6 4e3f 50d3 4dbc
00000180: cf48 abbd 0b59 04bf cf1c 743e dfef eb3e
00000190: 9637 4e3f 243c bbbd 4f56 843f 67ef 143f
000001a0: 90ce d63f e5ee 22bd ad34 27bf 31ff 9cbf
000001b0: 2df5 f43f 9ac4 8a3f 446e d03f 7ad6 5a3f
000001c0: 0d1b 74bd 9a63 11c0 8875 acbf 4e3f b6be
000001d0: 97bc 7f3f 6ad9 07c0 24e4 14c0 045a d53f
000001e0: 36d8 acbf 4ae5 ae3e 77b1 1a3f 17df 913f
000001f0: 9842 1d3d caf7 96bf 1c60 cbbe 6fb8 2abf
00000200: ce64 b23f b808 273f 782e 963e 17d3 be3f
00000210: c3e9 15c0 8bab 20be 19f5 203f e723 ed3e
00000220: 3638 a3bf c35b e9bf 6fa9 e8be cfe7 60be
00000230: 7e56 d7bf 0205 9b3e 42cf 6c3f ca86 133f
00000240: f43c 8b3f 61de 0f3e d2ae 0740 0072 913f
00000250: 5a15 6cbf 9a88 0fc0 243f 4cbe 3ef8 333f
00000260: ff17 fa3f 0861 15bf ca49 f03c 07b7 56bf
00000270: 97e1 3d3f 25b5 2e3e 3c1e 093f 959c bcbf
00000280: 7dc9 923f acf9 10c0 e863 9a3f 4209 c2be
00000290: e907 aebf d58b 7c3f a0f3 9fbf 7afd f73f
000002a0: 1ce7 fa3f 3bef efbf d694 e2bf d218 433f
000002b0: cb73 c2bf 182f a6bf d90a 833f fb4d f13f
000002c0: 61d2 153e 2094 bdbf 2655 723f ddb8 a1bd
000002d0: cdfb cfbf d914 1140 5ba6 b1bf e58c 10bf
000002e0: 11e5 013f 7a3c 84bf 279a 21bf c3d3 593f
000002f0: 5702 d9be f0d6 673d 1bc2 963f f0fe 8d3f
00000300: 7934 94bf 2d92 e0bf 53e0 ee3f f719 8e3d
00000310: a67f bebf 96c5 f8bf 1dc1 a7bf 0d8b 03be
00000320: a2cd bcbe c0a6 4dbf e655 0140 33c7 1240
00000330: e9f2 da3f 9c12 fabf be6c b0bf 2cf6 c63f
00000340: a00a 51bf 2307 ccbd f0e8 47bf ccfb f63f
00000350: 6dfb 1040 ef72 b03f 68ff e73f 4eb2 cdbf
00000360: 87b5 ef3f aa97 ab3d f05e 08c0 4f6b d4bd
00000370: d4e2 ca3f bea6 3bbf 3a29 05bf 7fea 27bf
00000380: 2553 85bf 6cab be3f c9c9 983f 5d94 b53c
00000390: 6923 dd3f 25b6 2b3f 00ef 6fbf b1a5 d3bf
000003a0: 05e4 8d3e c39e 42bf fe03 20bf bfd1 a83f
000003b0: 5c8b b03f 7247 e1be 1fed 22bf 618e 463f
000003c0: bd8d 8f3e 95a5 353f db52 633f 5930 b63f
000003d0: f0d0 efbf 78c4 993d 75cb 1d3f a3c8 d23e
000003e0: 09de 3ebf e3b3 ebbf e1b2 fb3f 491e d5bf
000003f0: d925 a03f 75c3 0ec0 19bc 013f c078 e13f

_initial._model.2.bias f4 [16]
0.5284038 -0.3222016 2.4275336 -1.2185845 -2.4066808 0.17643458 -1.1461002 -0.9056241
1.7838247 -0.003079572 -2.1902733 -0.6564919 -1.366422 -2.271112 0.8787906 -2.152894
00000000: 7945 073f 9cf7 a4be b65c 1b40 94fa 9bbf
00000010: 0f07 1ac0 44ab 343e 69b3 92bf fbd6 67bf
00000020: 5e54 e43f a5d2 49bb 702d 0cc0 da0f 28bf
00000030: ebe6 aebf e659 11c0 6cf8 603f 04c9 09c0

_func._drift._model.0.weight f4 [16, 17]
0.0006874988 -0.005478636 0.004939105 -0.00032404947 0.0018210371 0.0011155736 -0.0028063336 0.00042967877
0.0017806129 -0.0053176777 -0.0045115077 -0.0043860856 -0.00028711112 -0.0028508855 -0.005416849 0.0052526915
0.004641238 -0.0020379073 -0.0041007013 0.0027274191 -0.0009861925 -0.003201523 -0.005287653 4.648509e-05
-0.0029317276 0.001502396 0.0014749423 -0.00069379265 0.005833136 -0.0011260452 0.005677125 0.0017269617
0.0017210747 0.004791654 -0.0019427133 0.005427377 0.0025980985 -0.0016388166 0.0026826006 -0.0056310254
0.0007292189 -0.001278057 -0.0011939068 -0.004667312 0.0029096843 0.0020415161 -0.0024325487 0.004607366
-0.0011108433 -0.00014082425 -0.0035049696 0.0018572458 0.0021113793 0.0010258241 0.00037220755 -0.005697711
0.0049218787 -0.00023150792 0.0034557441 0.0035882962 -0.0050921757 0.0038868466 -0.003971841 0.0018466597
0.0050504394 0.005032293 0.0018166973 -0.0051971306 0.003118773 -0.0035192685 0.0023504386 -0.005485049
-0.0024303386 -0.0044569215 -0.00113036 -0.0019973447 -0.0056603234 -0.0057251267 0.00078302505 0.0007961043
-0.0023012601 -0.0030952787 -0.004468956 -0.0035635259 -0.0022456234 -0.0024128426 0.0037021523 0.0015141583
0.0048106746 -0.0048391637 0.002066895 0.0013374034 -0.0047281086 0.003126072 -0.0025093108 -0.0023187909
0.0020439809 0.0013645304 0.00031529306 0.0052446374 -0.0016688668 -0.003575066 -0.0058348714 0.0012460793
-0.004529847 0.004747887 0.0017308479 -0.0013836804 0.0037364226 0.0051035336 0.0042899214 -0.0022503494
0.00052280555 -0.0031044423 0.003633774 0.0055173165 -0.00016857311 0.0038595933 0.0019734327 0.002863278
-0.0043579377 -0.0040344 -0.0049878154 0.0055957404 0.0023876019 0.0043138657 0.0040347427 0.00471317
-0.0014197988 -0.005689655 0.00070978195 -0.0023996376 0.0024556527 0.0025135851 0.0005655438 -0.005604304
0.0015762622 -0.0032095362 -0.002689648 0.004482543 -0.0030143284 0.0018552535 -0.001678689 0.00023571678
-0.0027245209 -0.002115098 0.004980219 0.0031991715 -0.004966486 0.005214444 -0.0035142847 -0.003767975
-0.0051912456 -0.00033559243 -0.0026716231 -0.005706761 0.0024880061 -0.001430818 0.0022505927 -0.004456063
-0.0037139214 -0.0033545017 -0.00038294788 -0.0051495014 0.0010357469 -4.9031634e-05 0.004762919 -0.00033490456
0.0050673666 0.00299016 4.537195e-06 -0.00024148366 0.00043232305 0.0005006983 -0.0014298764 -0.003521605
-0.00070846133 -0.0030396022 -0.0014031486 -0.0047455835 0.0046542226 0.0027303162 -0.001683393 -0.0019442021
0.0055724937 -0.005426429 -0.005620519 -0.0011571678 0.0015400357 -0.004456822 0.0036710338 -0.0016165568
0.0044057695 0.0038669256 -0.004092425 0.0032139916 0.0029341055 -0.00090116076 0.0040947734 -0.0048396173
0.0012909761 -0.0013905346 -8.389691e-05 -0.0022162655 -0.0024912874 0.003888245 0.0034020161 0.004117849
-0.0045207026 0.0007135634 0.00037508222 -0.0042117047 0.0036821004 -0.0018542676 -0.0030635702 -0.0002505684
0.0027195043 0.0017140796 0.0046776924 0.0005479804 -0.00489478 -0.002094005 -0.0008447406 0.005199996
0.0026067796 0.0015963985 -0.004758004 -0.0025967215 0.0023418379 -0.0031601188 -0.0020822799 0.0055712764
0.0012193791 0.0025076843 0.0037147936 -0.005539943 0.0016335946 -0.004357183 -0.0018016695 0.002800796
-0.005581612 0.00410768 0.0017974447 0.0034924687 0.002646431 0.002475163 -0.00015022306 0.00543983
-0.0031248268 -0.00063595513 -0.0012391323 0.0015949616 0.002905587 0.0035345717 0.0027546692 -0.0039779535
00000000: 4339 343a 2186 b3bb 37d8 a13b 2fe5 a9b9
00000010: deaf ee3a 7038 923a 77ea 37bb 8246 e139
00000020: 7463 e93a ea3f aebb 45d5 93bb 27b9 8fbb
00000030: 6787 96b9 ecd5 3abb d37f b1bb c51e ac3b
00000040: 8715 983b 698e 05bb 2d5f 86bb 80be 323b
00000050: 2143 81ba a5d0 51bb 0c44 adbb fcf8 4238
00000060: 3a22 40bb 0bec c43a da52 c13a a3df 35ba
00000070: e423 bf3b cf97 93ba 2d07 ba3b 385b e23a
00000080: af95 e13a 4f03 9d3b a4a2 feba 23d8 b13b
00000090: dc44 2a3b 8fcd d6ba 92ce 2f3b 7784 b8bb
000000a0: 0d29 3f3a 7a84 a7ba dd7c 9cba 40f0 98bb
000000b0: 67b0 3e3b f5ca 053b 656b 1fbb 63f9 963b
000000c0: b799 91ba 39aa 13b9 a2b3 65bb d46e f33a
000000d0: 115f 0a3b f274 863a da24 c339 ddb3 babb
000000e0: b647 a13b efc0 72b9 c479 623b 9f29 6b3b
000000f0: 44dc a6bb 77ba 7e3b 3826 82bb 9e0b f23a
00000100: 287e a53b efe5 a43b 3f1e ee3a b14c aabb
00000110: 5464 4c3b 87a3 66bb d109 1a3b edbb b3bb
00000120: 5146 1fbb 5e0b 92bb 9628 94ba e2e5 02bb
00000130: 3c7a b9bb d899 bbbb ec43 4d3a a8b1 503a
00000140: bdd0 16bb 29da 4abb 5270 92bb 0b8a 69bb
00000150: 4f2b 13bb c820 1ebb cf9f 723b b976 c63a
00000160: dda2 9d3b d991 9ebb be74 073b d04b af3a
00000170: 40ee 9abb c9de 4c3b 4073 24bb dbf6 17bb
00000180: 4ff4 053b 0bda b23a eb4d a539 35db ab3b
00000190: e1bd daba a84b 6abb 7332 bfbb 7c53 a33a
000001a0: 1c6f 94bb 2a94 9b3b 9edd e23a 9c5c b5ba
000001b0: c5de 743b 8b3b a73b 7892 8c3b 997a 13bb
000001c0: e30c 093a e673 4bbb 9c24 6e3b 9bca b43b
000001d0: 00c3 30b9 3bf1 7c3b b554 013b d5a5 3b3b
000001e0: 08cd 8ebb 0033 84bb d470 a3bb 795c b73b
000001f0: 5079 1c3b 545b 8d3b e035 843b f070 9a3b
00000200: 8b18 baba 4970 babb a910 3a3a 3d43 1dbb
00000210: 04ef 203b f6ba 243b 0141 143a 4fa4 b7bb
00000220: 959a ce3a 1557 52bb ce44 30bb 4ce2 923b
00000230: 0a8c 45bb fa2b f33a 7507 dcba be2a 7739
00000240: e08d 32bb 759d 0abb 1b31 a33b 31a9 513b
00000250: e7bd a2bb eddd aa3b ea4f 66bb 21f0 76bb
00000260: 531b aabb 74f2 afb9 6616 2fbb c8ff babb
00000270: d10d 233b 498a bbba ae7e 133b 2a04 92bb
00000280: 4365 73bb 33d7 5bbb 65c6 c8b9 26bd a8bb
00000290: e6c1 873a 51a7 4db8 4312 9c3b 2196 afb9
000002a0: 270c a63b 8ff6 433b 353e 9836 c736 7db9
000002b0: 6ba9 e239 4b41 033a b16a bbba baca 66bb
000002c0: 09b8 39ba 1034 47bb dbe9 b7ba d780 9bbb
000002d0: 7382 983b 1bef 323b 4ca5 dcba 99d4 feba
000002e0: 7799 b63b 30d0 b1bb 552c b8bb 1cac 97ba
000002f0: 06db c93a 880a 92bb ba95 703b a5e2 d3ba
00000300: 465e 903b 3f6c 7d3b c019 86bb d5a1 523b
00000310: 1f4a 403b e03b 6cba 732d 863b a795 9ebb
00000320: f835 a93a 9942 b6ba d0f1 afb8 c43e 11bb
00000330: de44 23bb edd1 7e3b 5cf4 5e3b 05ef 863b
00000340: 6722 94bb 6e0e 3b3a afa6 c439 5702 8abb
00000350: 654f 713b e50a f3ba 2ec6 48bb b95e 83b9
00000360: b639 323b f8aa e03a 5447 993b 58a6 0f3a
00000370: 6464 a0bb 933b 09bb 9571 5dba ba64 aa3b
00000380: 81d6 2a3b 3f3e d13a 08e9 9bbb c22d 2abb
00000390: 8579 193b ff19 4fbb dc76 08bb 418f b63b
000003a0: 93d3 9f3a f657 243b e573 733b 6988 b5bb
000003b0: 571e d63a b3c6 8ebb ff25 ecba 8f8d 373b
000003c0: f4e5 b6bb b899 863b 3c98 eb3a e7e1 643b
000003d0: bf6f 2d3b 5836 223b 3285 1db9 9a40 b23b
000003e0: e5c9 4cbb 3ab6 26ba 616a a2ba 080e d13a
000003f0: a96b 3e3b 46a4 673b ae87 343b 7e59 82bb

_func._drift._model.0.bias f4 [16]
0.005590837 -0.00037954227 0.0023411363 0.0021835135 -2.3993927e-05 -0.002289063 0.0039630723 -0.0053217732
-0.0052686785 -0.00517071 -0.002133988 0.0013189111 -0.00033044844 0.0001191422 0.0046626925 -0.0046931054
00000000: 5733 b73b 4dfd c6b9 c06d 193b 4719 0f3b
00000010: 9146 c9b7 1b04 16bb a9dc 813b 4562 aebb
00000020: e1a4 acbb 0f6f a9bb 61da 0bbb 50df ac3a
00000030: 0a40 adb9 fbdb f938 80c9 983b 9fc8 99bb

_func._drift._model.2.weight f4 [16, 16]
-0.002511685 0.0022365414 -0.0054310076 -0.0059699947 -0.0038180617 -0.0057212217 -0.0020605328 -0.005488059
-0.0006934388 0.0031831502 -0.00494602 -0.0057639657 0.0034726425 -0.0019713102 0.0024477406 0.0026895385
-0.0013040114 -0.0004009991 -7.859047e-05 -0.004748778 0.0054702326 -0.0002987051 0.0021343145 0.0009573327
0.005006323 -0.004797553 -0.003954876 -0.00014253576 -0.0023533583 0.0020599754 0.005384697 -0.00032831862
-0.0051779835 0.005001912 -0.0014985653 0.0019316358 -0.0019565176 0.00537177 -0.0034371132 0.00075362256
0.002709943 -0.0049512177 0.0016931625 -0.003478853 0.0053019486 0.0049014837 0.0018948 -0.0029405486
0.00021900254 0.0051347306 0.0037725107 -0.0028404521 -0.0032490075 -0.001500282 -0.0017005388 -0.0029145388
-0.0058907224 5.4376444e-05 0.0013186056 -0.0042579724 0.003080182 -0.0026180025 0.0036702575 -0.0026748334
0.0054619713 -0.0034787753 0.0012717514 0.0016895678 0.0044058934 0.0029676643 -0.004750933 -0.0010301345
-0.00029958086 0.003220985 -0.0032973632 0.0031439476 -0.0038649333 0.0023603656 -0.004276768 0.0014280465
-2.5036732e-05 0.0044623693 -0.0027783366 0.0015518466 -0.004227673 -0.0028469411 0.0032653597 0.0013170231
0.0047176876 0.0026978091 0.0036902658 -0.0030308089 0.00057449815 -0.0054424987 0.0017582559 -0.0010709374
0.0022011914 -0.0020711434 -0.0016520802 0.0035650912 0.003513624 0.0052709626 -0.005703939 -0.0020739504
-0.0051802634 0.0011839807 0.0052173077 -0.0017883877 -0.00060505804 -0.0017310589 -0.002056618 0.0016535363
0.0040327744 -0.0038957358 0.004821415 0.0045028944 -0.00023850265 -0.0041407165 -0.004685191 -0.0010375441
-0.00026709857 -0.004626297 -0.0056290138 0.0018342595 0.00047933674 0.0041554165 0.0011572501 0.0023155606
0.00063387305 0.0024997809 -0.002691188 2.934055e-05 0.0031904043 0.0019617334 0.0028051406 -0.0052159475
-4.0420404e-05 -0.0030979016 -0.0014171099 0.0026868344 -0.0012069787 -0.0028437069 -0.00012753886 -0.0037612922
-0.0025041758 -0.0026960168 0.0054487973 -0.0027495774 -0.0032708559 -0.0015354567 0.00431342 3.1957796e-05
-0.00088798115 0.0033370273 0.0038471434 0.0055561853 -0.004089676 0.0031122684 -0.0039464165 -0.0028759607
0.0049591465 0.0021033643 -0.0027278434 -0.0015004167 0.003509724 0.0010602032 -0.0012852204 -0.0015500986
-0.0017500933 -0.0009299342 0.00459253 -0.0042277733 0.0038570948 0.00096055615 0.005955706 0.0019836293
-0.006001363 -0.0021146329 -0.0010109835 0.0020956353 -0.005529344 0.0020591856 -0.0012414723 -0.0033888812
-0.00426144 -0.0037024033 -0.0053239088 -0.00043578126 0.0023794414 -0.0033585853 -0.0034398632 0.00022793395
-0.004881024 -0.004224253 -0.0015977295 0.0039788783 0.003068214 0.0011183731 -0.0019871288 -0.0051034447
0.0035402882 0.00022037081 0.0025487128 -0.00020875971 0.0032302204 -4.4649278e-05 0.0030893118 -0.0009779589
-0.0019652182 0.0011815313 -0.0059089107 -0.0045122243 0.00059909496 0.0057424325 -0.0016596107 -0.0018964601
0.0035046155 0.0050927685 -0.0036251163 0.0053758323 -0.0019411753 0.0032507076 0.0017691861 0.00080722506
0.0048287725 -0.0011243689 -0.0003733815 0.0037673342 -0.002315345 0.0015044494 0.0035104589 0.00027307804
0.0057709487 0.0003856951 0.0025812676 0.003384883 0.0049673994 -0.0027992523 -0.00015208624 -0.0024088563
-0.0027010387 -0.0024757595 0.0007558644 -0.0041816956 -0.0024131497 0.0047438047 0.0019597427 0.0060070334
-0.0008992105 -0.00022814544 -0.0030803562 0.000916174 0.0014357668 0.0044716876 -0.0045250733 -0.0018610277
00000000: 159b 24bb f092 123b 98f6 b1bb f29f c3bb
00000010: 7238 7abb 1679 bbbb 010a 07bb 2dd5 b3bb
00000020: e4c7 35ba 669c 503b 3912 a2bb a6df bcbb
00000030: 4695 633b 1931 01bb 466a 203b f842 303b
00000040: 5deb aaba 303d d2b9 f0d0 a4b8 a39b 9bbb
00000050: a33f b33b 859b 9cb9 dbdf 0b3b 83f5 7a3a
00000060: 150c a43b cb34 9dbb e897 81bb a775 15b9
00000070: cd3a 1abb a700 073b 1d72 b03b 2e22 acb9
00000080: 13ac a9bb 14e7 a33b 826b c4ba f12e fd3a
00000090: eb38 00bb ac05 b03b 3141 61bb c18e 453a
000000a0: 4d99 313b d33d a2bb 1bed dd3a 78fd 63bb
000000b0: f8bb ad3b a09c a03b f05a f83a 38b6 40bb
000000c0: 0ca4 6539 3e41 a83b 3a3c 773b e126 3abb
000000d0: 4ded 54bb 1ca5 c4ba 9de4 deba d901 3fbb
000000e0: f606 c1bb 4312 6438 10d5 ac3a 7686 8bbb
000000f0: e1dc 493b cb92 2bbb b488 703b 424c 2fbb
00000100: 56fa b23b 2afc 63bb e5b0 a63a 7d74 dd3a
00000110: 505f 903b 257d 423b b7ad 9bbb 9405 87ba
00000120: 1011 9db9 2917 533b 9318 58bb b00a 4e3b
00000130: d24a 7dbb 5db0 1a3b 2124 8cbb 4a2d bb3a
00000140: f905 d2b7 1139 923b c114 36bb 5567 cb3a
00000150: 4b88 8abb bf93 3abb a5ff 553b f69f ac3a
00000160: d596 9a3b bacd 303b 63d8 713b 89a0 46bb
00000170: eb99 163a fd56 b2bb 4775 e63a b25e 8cba
00000180: dd41 103b 05bc 07bb 9d8a d8ba 4ea4 693b
00000190: d444 663b 0ab8 ac3b 1ce8 babb 1deb 07bb
000001a0: 33bf a9bb cd2f 9b3a f3f5 aa3b 5568 eaba
000001b0: c29c 1eba b3e4 e2ba 53c8 06bb 79bb d83a
000001c0: 5d25 843b 9a4f 7fbb f6fc 9d3b 048d 933b
000001d0: 9116 7ab9 d9ae 87bb 3b86 99bb 34fe 87ba
000001e0: 5d09 8cb9 3198 97bb 9773 b8bb 896b f03a
000001f0: 7d4f fb39 292a 883b dfae 973a a9c0 173b
00000200: 802a 263a 5dd3 233b a45e 30bb 5a20 f637
00000210: 1a16 513b 6d90 003b 73d6 373b 8aea aabb
00000220: 1489 29b8 2a06 4bbb 51be b9ba 9a15 303b
00000230: 7c33 9eba 7c5d 3abb f4bb 05b9 0380 76bb
00000240: 191d 24bb a8af 30bb d38b b23b 4132 34bb
00000250: db5b 56bb 6141 c9ba 9757 8d3b 6c0a 0638
00000260: 68c7 68ba 07b2 5a3b 5b20 7c3b a910 b63b
00000270: b002 86bb 33f7 4b3b f150 81bb 9d7a 3cbb
00000280: 5680 a23b 99d8 093b 9ec5 32bb a1a9 c4ba
00000290: 6603 663b 84f6 8a3a d774 a8ba ae2c cbba
000002a0: 6363 e5ba d4c6 73ba ef7c 963b 2289 8abb
000002b0: 50c7 7c3b d5cd 7b3a 1528 c33b c7ff 013b
000002c0: 15a7 c4bb a795 0abb fa82 84ba ed56 093b
000002d0: 802f b5bb 67f3 063b e6b8 a2ba fe17 5ebb
000002e0: 8da3 8bbb 05a4 72bb 2f74 aebb 9279 e4b9
000002f0: 67f0 1b3b b61b 5cbb 546f 61bb 8e01 6f39
00000300: fff0 9fbb 9a6b 8abb e86a d1ba 4061 823b
00000310: 1714 493b 6096 923a 7d3a 02bb cc3a a7bb
00000320: 2e04 683b 5713 6739 4e08 273b 82e6 5ab9
00000330: 1bb2 533b cc45 3bb8 0d76 4a3b db2e 80ba
00000340: e4ca 00bb 9ddd 9a3a 899f c1bb 48db 93bb
00000350: 950c 1d3a 042b bc3b 4b87 d9ba a492 f8ba
00000360: b1ad 653b 3de1 a63b 5c93 6dbb c027 b03b
00000370: 096f feba d309 553b 09e4 e73a f59b 533a
00000380: ae3a 9e3b 8f5f 93ba 6bc2 c3b9 61e5 763b
00000390: 0bbd 17bb f230 c53a ba0f 663b ea2b 8f39
000003a0: 3a1a bd3b 1f37 ca39 7c2a 293b ead4 5d3b
000003b0: 91c5 a23b a973 37bb 5779 1fb9 e7dd 1dbb
000003c0: e903 31bb 5a40 22bb 3425 463a 9b06 89bb
000003d0: ef25 1ebb eb71 9b3b 076f 003b a6d6 c43b
000003e0: ffb8 6bba 533a 6fb9 cddf 49bb 652b 703a
000003f0: 5730 bc3a 3c87 923b 1147 94bb baed f3ba

_func._drift._model.2.bias f4 [16]
0.0051182634 -0.0039986214 0.0025313955 -0.0043660635 -0.002719818 -0.0056685917 -0.0034258934 -0.002920825
0.0049138106 -0.0038568159 0.004175545 0.0006575155 0.002662416 0.004060138 0.004484339 -0.004653448
00000000: 1bb7 a73b de06 83bb c5e5 253b 3211 8fbb
00000010: f93e 32bb 98bf b9bb f484 60bb 506b 3fbb
00000020: 0804 a13b a2c2 7cbb 03d3 883b 1e5d 2c3a
00000030: ee7b 2e3b e80a 853b 5df1 923b f37b 98bb

_func._diffusion._model.0.weight f4 [16, 17]
0.07970241 -0.061288852 -0.040580533 0.07402082 -0.112171575 -0.045580912 0.053706177 0.014966186
-0.021050382 0.08296864 0.06761094 0.061394483 0.026665663 0.024502458 -0.031331737 0.027440682
-0.064133644 -0.050228756 0.0113358805 -0.057402752 -0.020930044 -0.012109746 0.042939913 0.022478705
0.047277607 0.029774513 -0.016224 0.013782163 -0.0006554364 0.044230577 0.040986374 0.0035361638
-0.017210985 -0.07634365 0.013674866 0.034776557 0.03900999 0.052584503 -0.03599012 0.05440619
-0.053852364 -0.002143929 0.033992086 0.033506725 0.053105988 0.064763896 -0.052213613 -0.001967445
0.04157114 0.01829472 0.0058053713 0.028442206 0.013305235 -0.010428982 -0.021181067 -0.11918057
0.025320657 -0.015641822 0.02638435 -0.082295425 0.07331179 0.01784688 0.042865634 0.03473639
-0.030090692 -0.077762865 -0.036298573 -0.04900587 -0.08491437 0.013779366 0.026710238 -0.071650155
0.065546125 -0.06869628 0.0030744886 -0.09828 0.031227287 -0.111182146 -0.04540412 -0.025917571
-0.08670755 -0.035581693 0.0052342857 -0.043878004 0.011748744 0.08664226 -0.08286201 0.020995064
-0.019088458 -0.10107481 -0.054466963 -0.029664107 0.0019807804 -0.07703458 0.065643795 -0.023096073
0.07075239 -0.049011223 -0.04450271 0.03300234 0.04798799 0.0022432946 -0.11641528 -0.018502327
-0.024161903 -0.05232219 0.0023757622 -0.06614592 0.00836535 -0.018497724 0.055748485 -0.08225619
-0.058121942 -0.052316424 -0.061294474 -0.03734659 0.04329493 -0.090168685 0.041670278 -0.03400952
-0.002356667 -0.01853416 -0.08402663 -0.0059980964 -0.017930375 -0.035986677 -0.06420457 0.004164363
-0.07221136 -0.05203606 -0.0796816 -0.031096403 0.0064276806 -0.026776098 -0.06567996 0.028993845
0.03678715 -0.07210587 -0.0056297453 0.031542834 -0.095266916 -0.014901787 0.037639275 0.059117448
-0.0016626231 -0.0065717245 0.00629442 0.05032219 -0.04520724 0.030684175 -0.056758128 0.019813122
-0.05077966 -0.036325224 0.046265 0.0048964564 -0.10971804 0.0054124543 -0.035452656 -0.03340089
-0.06364309 0.042528763 -0.04644947 -0.09036359 -0.040769722 -0.01196448 -0.003225646 -0.00031057704
-0.07777979 0.04438488 -0.09842244 -0.044367477 -0.043289274 -0.022698231 0.04767108 0.019388782
-0.07015492 -0.043013975 0.06020001 -0.1260147 -0.06671078 -0.029200997 -0.04582133 0.007610228
-0.03480948 -0.04697117 0.022456039 0.0075171283 0.025495844 -0.0030063312 0.03579307 -0.008415862
-0.013618029 -0.0049955924 0.053867415 -0.0832037 0.008745853 -0.02820133 0.06137007 0.033125877
-0.086474136 -0.019376693 0.058444194 -0.06250656 -0.0632736 0.0040188422 0.006924351 -0.09104749
0.04041343 0.0028763413 -0.06388386 -0.08091792 0.016046593 -0.045620233 -0.07860553 -0.055023123
-0.04120902 0.026768206 -0.015270161 -0.04564389 0.059292763 0.06415326 0.013101553 -0.0023189608
0.06512699 -0.068073235 -0.037582368 -0.014034043 0.032190498 -0.054912575 0.07769056 0.06700276
0.053772442 0.02293677 0.017761208 -0.014402737 -0.014630744 -0.011897305 0.008899324 0.002637748
0.025573926 0.009027465 -0.01764592 0.009944028 -0.00494288 0.036115482 -0.07605404 0.015368918
0.027395096 0.032168884 -0.004287724 -0.08946896 -0.03131386 0.039829645 -0.025158824 -0.0035888846
00000000: 043b a33d 050a 7bbd c637 26bd 3a98 973d
00000010: 36ba e5bd 0db3 3abd 02fb 5b3d bc34 753c
00000020: da71 acbc 76eb a93d 9b77 8a3d c878 7b3d
00000030: f371 da3c 61b9 c83c b555 00bd 48cb e03c
00000040: 8058 83bd abbc 4dbd 21ba 393c 261f 6bbd
00000050: 7c75 abbc f567 46bc c3e1 2f3d 4325 b83c
00000060: 2aa6 413d aee9 f33c 32e8 84bc 95ce 613c
00000070: 98d1 2bba 1f2b 353d 54e1 273d fcbe 673b
00000080: 0dfe 8cbc 0f5a 9cbd 8c0c 603c dd71 0e3d
00000090: f0c8 1f3d d962 573d 606a 13bd 06d9 5e3d
000000a0: 4c94 5cbd 2981 0cbb 493b 0b3d 593e 093d
000000b0: aa85 593d efa2 843d f1dd 55bd 40f0 00bb
000000c0: 8046 2a3d cfde 953c fc3a be3b a1ff e83c
000000d0: 33fe 593c 52de 2abc eb83 adbc f114 f4bd
000000e0: 446d cf3c 4723 80bc fe23 d83c 818a a8bd
000000f0: 7e24 963d 9f33 923c e093 2f3d bf47 0e3d
00000100: c180 f6bc 2342 9fbd d0ad 14bd 61ba 48bd
00000110: 96e7 adbd dac2 613c 6ecf da3c 51bd 92bd
00000120: 0c3d 863d a3b0 8cbd 5c7d 493b 0647 c9bd
00000130: 5ed0 ff3c 77b3 e3bd acf9 39bd 1651 d4bc
00000140: ba93 b1bd 1cbe 11bd 5f84 ab3b 6cb9 33bd
00000150: ce7d 403c 7f71 b13d 8fb3 a9bd d7fd ab3c
00000160: 665f 9cbc 4f00 cfbd c018 5fbd 2402 f3bc
00000170: fbcf 013b 4ec4 9dbd 4170 863d fa33 bdbc
00000180: a1e6 903d febf 48bd 7948 36bd 762d 073d
00000190: 0e8f 443d 3d04 133b 226b eebd 3192 97bc
000001a0: 2fef c5bc cb4f 56bd adb2 1b3b 8377 87bd
000001b0: d20e 093c 8a88 97bc 8658 643d ef75 a8bd
000001c0: 4611 6ebd bf49 56bd ea0f 7bbd bdf8 18bd
000001d0: 0656 313d 5caa b8bd 74ae 2a3d 914d 0bbd
000001e0: 5072 1abb f3d4 97bc 2716 acbd ae8b c4bb
000001f0: b9e2 92bc c466 13bd b07d 83bd 3575 883b
00000200: 8de3 93bd c323 55bd 1b30 a3bd e2bd febc
00000210: 4b9f d23b 8c59 dbbc 3783 86bd 8084 ed3c
00000220: 1fae 163d 3eac 93bd ba79 b8bb 0f33 013d
00000230: 4d1b c3bd a026 74bc a42b 1a3d 2325 723d
00000240: 60ec d9ba 9f57 d7bb 6c41 ce3b a41e 4e3d
00000250: 3a2b 39bd 615d fb3c 367b 68bd 214f a23c
00000260: 55fe 4fbd c2c9 14bd 5e80 3d3d 7472 a03b
00000270: dab3 e0bd f55a b13b ce36 11bd 5fcf 08bd
00000280: 4f57 82bd a432 2e3d cd41 3ebd 8c10 b9bd
00000290: 27fe 26bd ab06 44bc 5c65 53bb f2d4 a2b9
000002a0: 034b 9fbd eccc 353d b491 c9bd acba 35bd
000002b0: 1850 31bd a4f1 b9bc c042 433d 39d5 9e3c
000002c0: 62ad 8fbd 6c2f 30bd 4994 763d ff09 01be
000002d0: a99f 88bd ee36 efbc 26af 3bbd 385f f93b
000002e0: 6394 0ebd d764 40bd baf5 b73c 3e52 f63b
000002f0: a9dc d03c de05 45bb c19b 123d afe2 09bc
00000300: 271e 5fbc 11b2 a3bb 14a4 5c3d b466 aabd
00000310: c44a 0f3c 7a06 e7bc 2f5f 7b3d 00af 073d
00000320: 5a19 b1bd dfbb 9ebc 2e63 6f3d 7003 80bd
00000330: 9795 81bd 7eb0 833b abe5 e23b 1b77 babd
00000340: 8e88 253d 0081 3c3b 8bd5 82bd 4bb8 a5bd
00000350: 2574 833c 48dc 3abd f0fb a0bd ed5f 61bd
00000360: caca 28bd ff48 db3c b32f 7abc 16f5 3abd
00000370: f8dc 723d c962 833d e5a7 563c b5f9 17bb
00000380: 4d61 853d fb69 8bbd f8ef 19bd 0bef 65bc
00000390: 2fda 033d 02ec 60bd 3a1c 9f3d be38 893d
000003a0: 7e40 5c3d e5e5 bb3c f47f 913c 75f9 6bbc
000003b0: cab5 6fbc eaec 42bc 78ce 113c 11de 2c3b
000003c0: 6980 d13c efe7 133c 2d8e 90bc 47ec 223c
000003d0: e2f7 a1bb d4ed 133d 38c2 9bbd eacd 7b3c
000003e0: ae6b e03c 85c3 033d 0980 8cbb 813b b7bd
000003f0: f642 00bd 6924 233d e119 cebc 7e33 6bbb

_func._diffusion._model.0.bias f4 [16]
0.10732888 0.01435375 0.01494591 0.09735433 -0.011222995 0.014592037 -0.058173634 -0.10005443
0.058512002 -0.027383987 -0.019326678 0.049920145 -0.08284578 0.092447534 0.07744994 0.0084449295
00000000: 3ecf db3d fe2b 6b3c b1df 743c b561 c73d
00000010: a7e0 37bc 7013 6f3c 7a47 6ebd 56e9 ccbd
00000020: 48aa 6f3d 6254 e0bc fb52 9ebc 1179 4c3d
00000030: 0cab a9bd 2255 bd3d 139e 9e3d 9a5c 0a3c

_func._diffusion._model.2.weight f4 [48, 16]
0.072434366 0.05260988 -0.008035086 0.046112757 -0.09724457 0.04048095 0.0042902627 -0.0057687825
0.037351485 -0.08577835 0.010959447 0.06131109 -0.05622561 -0.025357759 -0.018323744 0.07079105
0.035148796 -0.039646897 -0.02777329 0.010287283 -0.07177977 0.050343502 -0.034125324 -0.087530755
0.077246904 -0.008967486 0.008992373 0.066957675 -0.014330354 -0.025871918 -0.029673493 -0.014970497
0.009686152 -0.023275468 -0.03415267 0.0970505 -0.085371725 0.039563913 -0.04496566 0.024939535
-0.013516879 -0.030204652 -0.08897984 -0.021626804 -0.029535294 0.0008552537 0.022247218 -0.019630626
0.07311425 0.058023307 -0.051956616 0.013806039 0.005521422 -0.017182179 -0.043223362 -0.03383089
0.055499192 -0.04214821 -0.018199516 -0.012347558 -0.02332744 -0.0063839974 0.062408403 0.040256556
0.06708676 0.007311484 -0.008527087 0.0950383 -0.04177224 0.06732914 -0.06817601 0.009289268
0.047046125 -0.08224939 -0.035869803 -0.038147405 -0.02728926 0.0055080107 0.002466556 0.013951036
0.090596505 0.016847571 -0.04994987 0.066838324 -0.028452782 0.04464876 -0.02912559 -0.018062446
0.03442541 -0.04173171 -0.0049032113 0.059711255 -0.09239522 0.02347624 0.020338703 0.060722664
0.078833744 0.038866814 -0.059281707 0.025848076 0.00437377 0.007851826 -0.044252634 -0.07102667
0.051446144 -0.020813625 -0.040587783 0.04552133 -0.04495526 -0.00468399 0.07441448 0.051103313
0.08608406 0.0059005157 -0.03437254 0.01583103 -0.062771216 0.00070628314 -0.012872111 -0.06183248
0.09292723 -0.08464741 -0.024182538 0.058010735 -0.08835391 0.04306523 0.08073451 0.040073678
-0.027074605 -0.022934735 -2.3601466e-05 0.03691097 -0.05479662 0.045989577 -0.023015546 0.020113219
0.041246504 0.008185554 -0.044545952 0.023188047 0.0058793384 0.027752431 0.0672391 0.05762955
-0.0013785363 -0.014036361 -0.009531 0.018417435 -0.027414016 0.04625116 0.0092932675 -0.07806665
0.047389526 -0.037498746 -0.061727665 0.065325044 -0.09000818 0.0024841877 0.0597525 -0.030807141
0.0012102581 -0.007363765 0.04144331 0.04299057 -0.10335392 0.003299054 -0.064707145 -0.071152866
0.0146669205 -0.06471509 -0.100844786 0.03910084 -0.052898392 0.07293558 0.019412704 0.06429768
0.08577831 0.0027898548 -0.03880287 0.0300954 -0.09021059 0.025206769 -0.06550138 -0.077818
-0.02266543 -0.020159032 0.014142622 -0.012272641 -0.082378075 0.01715455 0.03251722 0.071899086
-0.033044033 0.021756887 0.011218485 -0.049907465 0.0021959452 -0.05023737 0.0077338237 -0.027738364
-0.016805055 0.021406785 0.057730906 -0.01785473 0.06043506 -0.04882806 -0.083575845 -0.0725217
0.010142828 -0.007902522 -0.0015619291 -0.097824775 0.015563468 -0.06254451 0.0049685873 0.032442506
-0.070668094 0.013760684 0.043351665 -0.041528344 0.053892087 0.029526314 0.037290826 0.024771182
-0.05171226 0.02347912 0.03639193 -0.05083802 0.07008223 0.010139928 0.03220474 0.08388749
-0.02796764 0.07390415 0.0064667473 -0.023631936 0.08168186 -0.05213456 -0.037632193 -0.07817394
-0.007273562 -0.0063007637 -0.0426201 0.028684637 -0.040455412 -0.0010550283 -0.06628167 -0.019788817
0.0048530013 -0.08869518 -0.06341138 0.049785174 0.0015021196 0.06671715 -0.002738406 0.030177526
00000000: 7858 943d 757d 573d 98a5 03bc bbe0 3c3d
00000010: 2928 c7bd 5acf 253d 5595 8c3b 0e08 bdbb
00000020: dffd 183d 8fac afbd 418f 333c 5621 7b3d
00000030: d34c 66bd 13bb cfbc ad1b 96bc e6fa 903d
00000040: 2ff8 0f3d c964 22bd d084 e3bc fe8b 283c
00000050: 4601 93bd fd34 4e3d ffc6 0bbd 5343 b3bd
00000060: a033 9e3d 5dec 12bc bf54 133c 1b21 893d
00000070: dcc9 6abc 58f1 d3bc d315 f3bc d146 75bc
00000080: abb2 1e3c 32ac bebc ace3 0bbd 6ac2 c63d
00000090: 5fd7 aebd c50d 223d e92d 38bd ff4d cc3c
000000a0: e675 5dbc bf6f f7bc 103b b6bd b22a b1bc
000000b0: 00f4 f1bc 1b33 603a cc3f b63c 68d0 a0bc
000000c0: edbc 953d d9a9 6d3d 76d0 54bd b932 623c
000000d0: 0bed b43b a4c1 8cbc fb0a 31bd 4292 0abd
000000e0: 1f53 633d 9aa3 2cbd 2717 95bc 694d 4abc
000000f0: 3019 bfbc da30 d1bb f49f 7f3d 0fe4 243d
00000100: c964 893d 2c95 ef3b 32b5 0bbc 71a3 c23d
00000110: 5e19 2bbd dce3 893d dd9f 8bbd 0432 183c
00000120: 70b3 403d 5e72 a8bd 37ec 12bd 7440 1cbd
00000130: ba8d dfbc 8b7c b43b f1a5 213b e392 643c
00000140: a98a b93d eb03 8a3c 3c98 4cbd 88e2 883d
00000150: cf15 e9bc 9ee1 363d ca98 eebc b2f7 93bc
00000160: a901 0d3d dfee 2abd 1eab a0bb ca93 743d
00000170: b539 bdbd 3e51 c03c 5a9d a63c 54b8 783d
00000180: 9673 a13d cf32 1f3d 60d1 72bd 58bf d33c
00000190: d851 8f3b f2a4 003c 4042 35bd 6e76 91bd
000001a0: 31b9 523d 5681 aabc 603f 26bd 9374 3a3d
000001b0: 0223 38bd 287c 99bb 9e66 983d b551 513d
000001c0: d74c b03d 1d59 c13b 38ca 0cbd 14b0 813c
000001d0: 328e 80bd dc25 393a 8ce5 52bc 0e44 7dbd
000001e0: a250 be3d 9f5b adbd 751a c6bc aa9c 6d3d
000001f0: e5f2 b4bd 2b65 303d 2358 a53d 4c24 243d
00000200: 90cb ddbc a0e1 bbbc c3fb c5b7 f52f 173d
00000210: 6c72 60bd 915f 3c3d 198b bcbc 7ac4 a43c
00000220: 18f2 283d b41c 063c d175 36bd dcf4 bd3c
00000230: 77a7 c03b 1159 e33c a7b4 893d f70c 6c3d
00000240: 01b0 b4ba c4f8 65bc e927 1cbc 29e0 963c
00000250: 5c93 e0bc db71 3d3d ca42 183c 68e1 9fbd
00000260: 851b 423d 4998 19bd 26d6 7cbd 23c9 853d
00000270: 3556 b8bd c1cd 223b 0abf 743d 425f fcbc
00000280: 86a1 9e3a bd4b f1bb 76c0 293d e116 303d
00000290: 38ab d3bd f134 583b 2e85 84bd 98b8 91bd
000002a0: 864d 703c 5889 84bd b687 cebd 3428 203d
000002b0: fcab 58bd 405f 953d 6407 9f3c 81ae 833d
000002c0: 8aac af3d ffd5 363b c2ef 1ebd a18a f63c
000002d0: 54c0 b8bd 6d7e ce3c 9625 86bd 0b5f 9fbd
000002e0: daac b9bc 8e24 a5bc 75b6 673c 3013 49bc
000002f0: d6b5 a8bd b387 8c3c c730 053d d43f 933d
00000300: 2e59 07bd 803b b23c bdcd 373c c56b 4cbd
00000310: d9e9 0f3b b3c5 4dbd 046c fd3b 913b e3bc
00000320: c1aa 89bc 485d af3c 3e77 6c3d 1544 92bc
00000330: c18a 773d efff 47bd d029 abbd 4286 94bd
00000340: 1b2e 263c 9479 01bc a5b9 ccba 5b58 c8bd
00000350: ebfd 7e3c 5617 80bd 88cf a23b 6fe2 043d
00000360: 6fba 90bd 7e74 613c 8491 313d a019 2abd
00000370: f3bd 5c3d 2be1 f13c 44be 183d efec ca3c
00000380: 3cd0 53bd 4957 c03c b40f 153d 873b 50bd
00000390: 4687 8f3d f121 263c 1ee9 033d 34cd ab3d
000003a0: 641c e5bc 0f5b 973d 02e7 d33b c397 c1bc
000003b0: d248 a73d 0c8b 55bd 3724 1abd a919 a0bd
000003c0: 0f57 eebb a376 cebb 6a92 2ebd 0bfc ea3c
000003d0: 93b4 25bd e048 8aba afbe 87bd 281c a2bc
000003e0: ed05 9f3b d2a5 b5bd d3dd 81bd 8aeb 4b3d
000003f0: c5e2 c43a 00a3 883d d476 33bb dc36 f73c

_func._diffusion._model.2.bias f4 [48]
0.06724818 0.0860718 0.09859012 0.07832638 0.029474316 0.051473804 0.037043903 0.057829358
0.022179823 0.028359704 0.109499596 0.026678873 -0.04208175 -0.014896098 -0.07772524 0.0011739244
0.0057098265 0.06847285 -0.054714933 -0.10522709 -0.091936484 -0.010034644 -0.050081417 -0.102279946
-0.023788314 -0.021222495 0.05793142 -0.07103726 -0.026033623 -0.04317598 -0.013610245 -0.056946505
-0.10733521 0.09392311 0.07138718 0.086582534 0.04282328 0.010158526 0.018215377 0.0047475374
-0.025580062 -0.07065381 0.04589764 0.07058185 0.09579158 -0.05423812 -0.01757051 0.0012651641
00000000: 6ab9 893d 6946 b03d 9ee9 c93d 9569 a03d
00000010: 1f74 f13c 32d6 523d 59bb 173d 7ade 6c3d
00000020: 76b2 b53c 9c52 e83c 5341 e03d a78d da3c
00000030: ea5d 2cbd c30e 74bc 692e 9fbd 5ede 993a
00000040: 7f19 bb3b 7e3b 8c3d c41c 60bd 4d81 d7bd
00000050: 3249 bcbd 5968 24bc 2c22 4dbd 2678 d1bd
00000060: b6df c2bc ccda adbc 7f49 6d3d fc7b 91bd
00000070: 7744 d5bc 4cd9 30bd 81fd 5ebc bd40 69bd
00000080: 90d2 dbbd c25a c03d 7133 923d 2f52 b13d
00000090: 7767 2f3d f26f 263c 6a38 953c 3b91 9b3b
000000a0: 478d d1bc f2b2 90bd 2aff 3b3d 388d 903d
000000b0: 602e c43d ca28 5ebd 08f0 8fbc ddd3 a53a

_readout.weight f4 [1, 16]
-0.09532246 -0.1928709 -0.24047478 -0.20642187 0.07865838 -0.09934554 0.008666116 0.12928839
-0.027587695 0.07079732 0.087490536 -0.2704229 -0.23631802 -0.004665888 -0.06871167 0.14604987
00000000: 6c38 c3bd f37f 45be 053f 76be 4160 53be
00000010: a517 a13d ad75 cbbd 53fc 0d3c 2d64 043e
00000020: 97ff e1bc 2ffe 903d 3d2e b33d df74 8abe
00000030: 5afd 71be 4ee4 98bb b4b8 8cbd 198e 153e

_initial._model.0.weight f4 [16, 2]
-1.923362e-06 -0.3028516 -2.0598302e-06 1.386907 2.8630114e-07 -0.774696 4.355422e-06 -0.5286192
-3.2469748e-06 -0.31119564 2.2170432e-06 -0.7583453 2.2561778e-06 1.0768985 -1.314921e-06 1.5152439
1.6365254e-07 -0.73462105 -2.50503e-06 0.9294308 -2.991875e-06 0.0072571593 4.3830655e-06 -0.34521234
-4.5272886e-06 -1.4381076 2.1615335e-06 0.6255728 9.288216e-07 0.8801505 -1.2802114e-06 0.8207898
00000000: 1c13 01b6 5d0f 9bbe 9d3b 0ab6 2b86 b13f
00000010: eeb4 9934 7a52 46bf ca24 9236 9753 07bf
00000020: 9ae6 59b6 0955 9fbe 83c8 1436 eb22 42bf
00000030: d768 1736 cfd7 893f 577c b0b5 83f3 c13f
00000040: 78b8 2f34 2010 3cbf 161c 28b6 2def 6d3f
00000050: 05c8 48b6 77cd ed3b 3f12 9336 acbf b0be
00000060: 1de9 97b6 e913 b8bf dd0e 1136 8a25 203f
00000070: 2254 7935 8b51 613f bbd3 abb5 481f 523f

_initial._model.0.bias f4 [16]
-0.5296676 -0.014990037 0.0124079455 0.4959278 -0.28566808 -0.06598379 -0.27990866 -0.43924713
0.6870176 0.15829664 -0.039287917 -0.1396236 -0.28939188 -0.32450998 0.0828759 0.37544116
00000000: 4c98 07bf c698 75bc b24a 4b3c 40ea fd3e
00000010: 1643 92be 8222 87bd 3050 8fbe 00e5 e0be
00000020: 63e0 2f3f 8418 223e 5eec 20bd 7df9 0ebe
00000030: 2c2b 94be 2c26 a6be d7ba a93d d339 c03e

_initial._model.2.weight f4 [16, 16]
-0.07287711 -0.6246777 0.050500844 0.014330125 -0.2451568 -0.08256921 -0.270597 -0.30921912
0.028771458 -0.3742959 -0.06434919 -0.12499134 -0.21994755 -0.21672016 -0.075487815 -0.35539374
0.11012159 0.51947206 0.33435073 0.18449959 0.1319162 0.28340358 0.35584295 0.38728032
0.12500553 0.37906957 0.06509894 0.043155298 0.53530157 -0.059897106 0.2276556 0.4483169
-0.31900018 0.5371496 0.039160762 0.0711628 -0.47701165 0.034755312 0.20489584 0.25786224
0.17030638 0.6032521 -0.19581763 -0.4174507 0.30614397 0.111250505 0.24070144 0.6915235
0.04317537 0.74467736 0.08950313 0.01651245 -0.08180132 0.0037587404 0.4444603 0.5460167
0.098612264 0.27374512 -0.124357454 0.11077596 0.31072453 0.080047816 0.48082364 0.17560028
-0.075075895 0.58865935 0.12157228 0.08292897 -0.06476042 0.26823652 0.21147157 0.6098613
-0.22832197 0.4599213 -0.12947945 0.078421526 0.6403914 0.14118323 0.08299733 0.12878715
0.054644056 0.65530425 -0.14581987 0.010044744 0.22927058 0.13173483 0.39813307 0.58529484
0.0015352139 0.46020466 0.19796127 -0.1375026 0.35293776 0.27861568 0.27019873 0.08612242
0.2720658 -0.17092934 0.11003533 -0.00846588 0.4256646 0.036955018 -0.05493288 -0.15935422
-0.07527671 -0.6543472 0.011001783 0.5450521 0.12768531 -0.16147552 -0.25552678 -0.24355868
-0.18651128 -0.45991474 0.12544534 -0.2059117 0.08439373 -0.052178003 -0.29194537 -0.53039473
-0.06024187 -0.15194932 0.05754151 0.02679422 -0.6344982 -0.045975734 -0.113766335 -0.3945187
0.33309627 0.27943105 -0.13468255 0.034983337 0.13004754 -0.00043226505 0.44767165 0.62401754
-0.18342595 0.37499705 0.05950717 0.10745421 0.6477743 0.24716754 -0.0046536867 0.3860302
0.099255435 -0.3650106 -0.1736343 0.060070295 -0.1397743 -0.4037955 -0.3580536 -0.40019444
-0.14476585 -0.16529918 0.14317757 0.07996843 -0.6570497 -0.2328976 -0.2825416 -0.105266936
-0.09472767 0.27675208 0.1029153 -0.23139511 -0.08435062 0.32099664 0.4113365 0.45044363
-0.07458722 0.40462244 -0.028011035 0.19607578 0.2527723 0.2877011 0.1431208 0.10770079
-0.07621754 0.38978976 0.09006318 0.013020966 0.16834703 0.25654885 0.3255184 0.2274847
0.11956727 0.20819245 -0.013694993 -0.027301203 0.62187916 -0.027464429 0.3214107 0.2494863
-0.00085756753 0.43432978 0.073760025 -0.25233853 0.087908015 0.24697912 0.4296893 0.46255594
0.13522622 0.39005083 -0.021954201 -0.108119726 0.5846575 0.4445635 0.37738264 0.31358862
0.15853634 0.51980406 0.2831102 0.17964387 -0.12534904 0.35328183 0.44551322 0.19943215
0.08053848 0.16602442 -0.039207485 -0.03051627 0.6405512 -0.031189062 0.33126104 0.38200757
0.37113482 -0.40654206 0.39817667 0.26340166 0.2603377 0.56106377 0.014504742 -0.18546058
0.014324445 -0.27100754 -0.10273256 0.5585405 0.3376557 -0.20873284 -0.31671503 -0.4668152
-0.032127243 -0.5550889 -0.15813123 0.14416958 -0.22395508 -0.119656034 -0.4146192 -0.52434534
-0.08211975 -0.2905762 -0.087277494 -0.13586889 -0.4966886 -0.34547243 -0.16353065 -0.24289729
00000000: 9840 95bd e1ea 1fbf f9d9 4e3d e7c8 6a3c
00000010: 620a 7bbe 0c1a a9bd b18b 8abe f851 9ebe
00000020: 1fb2 eb3c b6a3 bfbe 82c9 83bd 76fb ffbd
00000030: ee39 61be e4eb 5dbe 5b99 9abd 2bf6 b5be
00000040: 6e87 e13d 1ffc 043f 0530 ab3e 76ed 3c3e
00000050: 0a15 073e 461a 913e 0c31 b63e 9b49 c63e
00000060: 7301 003e 6815 c23e 9852 853d 9cc3 303d
00000070: 8609 093f ab56 75bd 8d1e 693e cb89 e53e
00000080: fe53 a3be a382 093f 0967 203d cdbd 913d
00000090: df3a f4be 965b 0e3d 37d0 513e 8506 843e
000000a0: cc64 2e3e bb6e 1a3f 6b84 48be 19bc d5be
000000b0: e7be 9c3e 4ed7 e33d 707a 763e af07 313f
000000c0: a8d8 303d 2da3 3e3f 6b4d b73d 1e45 873c
000000d0: 7387 a7bd 3355 763b 4d90 e33e c0c7 0b3f
000000e0: 3af5 c93d 5228 8c3e 1faf febd 82de e23d
000000f0: 4917 9f3e 1cf0 a33d 842e f63e 8fd0 333e
00000100: 64c1 99bd 61b2 163f e3fa f83d aad6 a93d
00000110: 1ca1 84bd 4c56 893e 018c 583e df1f 1c3f
00000120: 3ccd 69be ce7a eb3e 4396 04be 779b a03d
00000130: b1f0 233f 5692 103e 81fa a93d c7e0 033e
00000140: 72d2 5f3d 05c2 273f ce51 15be b692 243c
00000150: e8c5 6a3e 7fe5 063e 19d8 cb3e e2d5 153f
00000160: 3b39 c93a f29f eb3e 5cb6 4a3e 7bcd 0cbe
00000170: 42b4 b43e b7a6 8e3e 7d57 8a3e f460 b03d
00000180: 354c 8b3e 1a08 2fbe 345a e13d 79b4 0abc
00000190: b6f0 d93e 255e 173d 4d01 61bd c12d 23be
000001a0: ad2a 9abd 4c83 27bf d340 343c 8988 0b3f
000001b0: f0bf 023e d759 25be 68d4 82be 7267 79be
000001c0: d0fc 3ebe f279 ebbe be74 003e 84da 52be
000001d0: 9fd6 ac3d 9ab8 55bd dd79 95be f3c7 07bf
000001e0: 2ec0 76bd 9a98 1bbe a5b0 6b3d 8d7f db3c
000001f0: 796e 22bf 0d51 3cbd 53fe e8bd 5bfe c9be
00000200: 988b aa3e 9611 8f3e 39ea 09be b04a 0f3d
00000210: 2f2b 053e a2a1 e2b9 3835 e53e 9dbf 1f3f
00000220: 03d4 3bbe 9dff bf3e cabd 733d f410 dc3d
00000230: 89d4 253f 7d19 7d3e f47d 98bb c0a5 c53e
00000240: 6f46 cb3d abe2 babe 31cd 31be 450c 763d
00000250: fe20 0fbe 49be cebe cd52 b7be 49e6 ccbe
00000260: 803d 14be 3044 29be 249d 123e 7dc6 a33d
00000270: 6934 28bf b57c 6ebe 4ba9 90be 3196 d7bd
00000280: 9500 c2bd 73b2 8d3e 42c5 d23d d7f2 6cbe
00000290: 05c0 acbd ac59 a43e b39a d23e 8ca0 e63e
000002a0: 2fc1 98bd ac2a cf3e 6677 e5bc 17c8 483e
000002b0: 5f6b 813e 8f4d 933e 428e 123e 3b92 dc3d
000002c0: f117 9cbd 8692 c73e 0b73 b83d e455 553c
000002d0: 2a63 2c3e 5f5a 833e 59aa a63e c0f1 683e
000002e0: afdf f43d 6730 553e f760 60bc c6a6 dfbc
000002f0: 7933 1f3f 15fd e0bc f18f a43e 5679 7f3e
00000300: 62ce 60ba 7960 de3e 7f0f 973d 8432 81be
00000310: 1e09 b43d 18e8 7c3e 3c00 dc3e 22d4 ec3e
00000320: be78 0a3e beb4 c73e 4cd9 b3bc e06d ddbd
00000330: 1dac 153f d49d e33e 4c38 c13e b08e a03e
00000340: 5a57 223e e111 053f d2f3 903e 90f4 373e
00000350: 805b 00be 5be1 b43e 4f1a e43e f137 4c3e
00000360: 5cf1 a43d 4e02 2a3e 0798 20bd 42fd f9bc
00000370: 2afb 233f 3480 ffbc 0c9b a93e 7f96 c33e
00000380: 6205 be3e 4826 d0be d0dd cb3e 95dc 863e
00000390: fc4a 853e e0a1 0f3f 4ca5 6d3c 61e9 3dbe
000003a0: 14b1 6a3c 80c1 8abe 7365 d2bd 83fc 0e3f
000003b0: 35e1 ac3e 10be 55be 7928 a2be 6702 efbe
000003c0: db97 03bd 4e1a 0ebf 27ed 21be 31a1 133e
000003d0: 7b54 65be 390e f5bd f848 d4be 7f3b 06bf
000003e0: 662e a8bd 67c6 94be 8bbe b2bd 3721 0bbe
000003f0: f84d febe c3e1 b0be 9474 27be 11ba 78be

_initial._model.2.bias f4 [16]
0.38189492 0.07269441 0.317308 -0.06235211 -0.25985366 0.06927199 -0.3584301 0.07150246
-0.28689322 -0.18416242 0.06061324 0.15234837 -0.122907884 0.006985288 -0.303571 0.1957583
00000000: bb87 c33e cfe0 943d 3276 a23e ed64 7fbd
00000010: 8a0b 85be 79de 8d3d 2684 b7be e26f 923d
00000020: abe3 92be 1395 3cbe 9745 783d 3601 1c3e
00000030: 21b7 fbbd d8e4 e43b a86d 9bbe dd74 483e
