hyperparameter_tuning/ray_results/SUD_learning_rate_tuning/MyTrainableClass_831ecad8_12_batch_size=16,name=SUD_v2,patience=1000,steps=200,steps_per_print=5,swa_step_start=2500,t_size=7,trai_2024-03-12_14-36-00/checkpoint_000000/checkpoint.pt (torch, 61346 bytes, 66 tensors)

_initial._model.0.weight f4 [16, 5]
0	0xbf545e36	-0.82956254
1	0xc006daeb	-2.1071117
2	0xbfb8e47d	-1.4444729
3	0xbf9146d2	-1.1349738
4	0xc031c625	-2.7777188
5	0xbfe0634f	-1.7530307
6	0xc05b6ae3	-3.4283988
7	0xc071fc1e	-3.781013
8	0xc05116e3	-3.267022
9	0x402124fd	2.5178826
10	0x403956a3	2.895913
11	0xc020e4a7	-2.5139558
12	0x4052438b	3.2853725
13	0xc0632095	-3.5488636
14	0x3fff4fbe	1.994621
15	0x3f81f983	1.015427
16	0x404b4299	3.1759398
17	0xc0143551	-2.3157542
18	0x404b1e90	3.1737404
19	0x3e657ea0	0.22411585
20	0x402f6b57	2.7409265
21	0xbf8b578e	-1.0886095
22	0xbe590716	-0.2119411
23	0xc01c7e76	-2.4452186
24	0x3faf2e7d	1.3686062
25	0xc02d3d64	-2.706872
26	0xbf8780b5	-1.0586153
27	0xc03eaaad	-2.9791672
28	0xbfd387bf	-1.6525801
29	0x3df7a6cf	0.12092363
30	0xc04f0eb6	-3.235273
31	0x3f47002e	0.7773465
32	0xc0275be2	-2.614983
33	0xbdb6af44	-0.08920148
34	0xbf654441	-0.8955727
35	0xbf5c69a7	-0.8609871
36	0xbf5170a6	-0.8181251
37	0x3fcaa61d	1.5831944
38	0x3f1dcbe7	0.61639255
39	0x4002c51a	2.0432801
40	0xbf0b87ef	-0.54504293
41	0xc0683bb2	-3.6286435
42	0xc05c8102	-3.445374
43	0x406cc80e	3.6997104
44	0xc05c0c52	-3.438252
45	0x4026f812	2.608891
46	0x3f2274c3	0.63459414
47	0x3fcb6d0b	1.5892652
48	0x3fdf62c7	1.745202
49	0xbefdfc30	-0.49606466
50	0x403b8f4e	2.9306216
51	0x3dfa9580	0.12235546
52	0xbff14cb2	-1.885153
53	0xbf1f979b	-0.62340707
54	0xbfc045b2	-1.5021269
55	0x3f87135e	1.0552785
56	0xc02caafc	-2.697936
57	0xc061e953	-3.529866
58	0x40641ff1	3.5644495
59	0x3f43ca5c	0.7648065
60	0x3e86c6ed	0.26323643
61	0x3f9b7c35	1.214728
62	0x40121f8c	2.2831755
63	0xbe40da54	-0.18833286
64	0x402409a2	2.563088
65	0xc0782354	-3.8771563
66	0xbff49457	-1.910777
67	0xbf200c69	-0.62518936
68	0x3fe648af	1.7990931
69	0xc0187e2e	-2.3827014
70	0x403c8ab6	2.9459662
71	0x404fa424	3.2443933
72	0x40425c27	3.0368745
73	0xc0774d75	-3.8641026
74	0xc055b802	-3.339356
75	0xbf83b3f9	-1.0289298
76	0x3ef19c56	0.47189587
77	0x4049c43f	3.152603
78	0x3f41762f	0.7557096
79	0x405a2c31	3.4089472

_initial._model.0.bias f4 [16]
0	0x3ff69808	1.9265146
1	0xc05c8726	-3.4457488
2	0xbfc4871b	-1.5353731
3	0x3f4808bc	0.7813833
4	0x3ed3eeb8	0.41393065
5	0xc060d3e4	-3.5129328
6	0xbfd07722	-1.6286356
7	0x401e166b	2.4701183
8	0x3fe842a0	1.8145332
9	0xbf47bc17	-0.7802138
10	0xc060446e	-3.5041766
11	0x40642245	3.5645916
12	0xc003d2a0	-2.0597305
13	0x3fa4fe28	1.2890062
14	0xbf197412	-0.59942734
15	0x3e42b6ac	0.19014996

_initial._model.2.weight f4 [16, 16]
0	0xbe60357e	-0.21895406
1	0xbea02f25	-0.31285968
2	0x3d3a263b	0.045446616
3	0xbfc348dc	-1.525661
4	0x3ffa7821	1.956791
5	0xbfd26b10	-1.6438923
6	0x3f30334b	0.68828267
7	0x3e2e5a46	0.17026624
8	0xbf4df194	-0.80446744
9	0x3fdf45ee	1.7443216
10	0xbe9bb8b9	-0.3041437
11	0xbfbff18b	-1.4995588
12	0x3f209cff	0.6273956
13	0xbf2b8cc8	-0.6701169
14	0x3fd20424	1.6407514
15	0xc004c9bc	-2.074813
16	0x3f93b76d	1.1540352
17	0xbf04f074	-0.519294
18	0xc01973e8	-2.3976994
19	0x4006e56c	2.1077528
20	0x3fbe8160	1.4883232
21	0x3f1f5be4	0.6224959
22	0x3f63c96e	0.8897923
23	0xbfddd72d	-1.7331291
24	0x4013f7be	2.311996
25	0xb8bf15eb	-9.111672e-05
26	0xbeefb765	-0.46819606
27	0xc0035cc7	-2.0525377
28	0xbfb37b74	-1.402205
29	0xbec91324	-0.39272416
30	0xbf6a28a4	-0.9146826
31	0x3f95db77	1.17076
32	0xbd34ac6a	-0.04410974
33	0x3fd95940	1.6980362
34	0x3f0d7db3	0.55269927
35	0xbf748ad5	-0.9552434
36	0x3f6a3cc4	0.9149897
37	0x40157c6c	2.335719
38	0xbf39ee0a	-0.72628844
39	0xbf51208c	-0.8169029
40	0xbe696e29	-0.22795929
41	0x3f495f0f	0.7866067
42	0xbfae60af	-1.3623255
43	0xbe54db92	-0.20786884
44	0xbfa69973	-1.3015579
45	0x3fc22007	1.5166024
46	0xbf00067b	-0.5000989
47	0x3fbeaeb0	1.489706
48	0xbec54094	-0.38525832
49	0xbff8c57a	-1.9435265
50	0x3f80662e	1.0031183
51	0xbf987380	-1.1910248
52	0xbff306c7	-1.8986443
53	0x4013a700	2.3070679
54	0xbeeca36c	-0.4621843
55	0x3e9326a6	0.28740424
56	0xbfc67045	-1.5503012
57	0xc002ac60	-2.041771
58	0x3fb5318a	1.4155743
59	0xbf43594b	-0.76308125
60	0x3f5c532f	0.8606443
61	0x3f3ee3c2	0.7456628
62	0x3f75ae02	0.9596864
63	0xc00f764e	-2.2415957
64	0xbf20d6f7	-0.6282801
65	0x3f027b95	0.5096982
66	0xbfd5a2f1	-1.6690351
67	0x3ff7761c	1.9332919
68	0x3fb2e65d	1.3976551
69	0xc00dcb70	-2.2155418
70	0x3fe29d56	1.7704265
71	0x3f4b9b14	0.79533505
72	0x3fcee1d5	1.6162668
73	0x3fbbcc82	1.4671786
74	0x3f93cc5c	1.154674
75	0x3f5f8063	0.8730528
76	0x3fb2cb3d	1.3968273
77	0xbf46d0f8	-0.7766261
78	0x3fa571f8	1.2925406
79	0xbfe7c059	-1.8105575
80	0xbf2a3265	-0.66483146
81	0x3f0cc18d	0.54982835
82	0xc001e091	-2.0293314
83	0x401bb9bc	2.4332113
84	0xbf8b3ba9	-1.0877582
85	0xbfabc662	-1.3419917
86	0xbfd0986c	-1.6296515
87	0xbf09aaed	-0.5377644
88	0xbfb3716a	-1.4018986
89	0x40013644	2.018937
90	0x3edda33f	0.4328861
91	0x3fe72a32	1.8059752
92	0x3ebf3eae	0.37352508
93	0xbfeefa6c	-1.8670173
94	0x3f4e81f5	0.8066705
95	0xbc59f991	-0.01330413
96	0xbdaa4931	-0.083147414
97	0xbf0444c0	-0.51667404
98	0x3e74b270	0.23896194
99	0x3eec3eb6	0.46141595
100	0x3f4e5e84	0.8061297
101	0xbdbafcfc	-0.09130284
102	0x3f845ca0	1.0340767
103	0x3f15322a	0.5827967
104	0x3fd6e038	1.6787176
105	0xbd20a7ed	-0.039222647
106	0xbf272333	-0.65288085
107	0xbf9ce8ea	-1.225858
108	0x3ff501c5	1.9141165
109	0x3f8ad217	1.0845364
110	0x3fd08028	1.628911
111	0x3f5b0603	0.8555605
112	0xbd720be2	-0.059093364
113	0xc0115e60	-2.2713852
114	0xbfac626b	-1.3467535
115	0xbeb5ef4d	-0.35534135
116	0x3f7fe504	0.99958825
117	0xc007d76c	-2.1225233
118	0xc014e10c	-2.3262358
119	0x3fd57c78	1.667861
120	0xbfacc629	-1.3497974
121	0x3eaf2f3d	0.34215727
122	0x3f1ac352	0.60454285
123	0x3f91f65e	1.140331
124	0x3d1ed64b	0.038778584
125	0xbf96ea24	-1.1790204
126	0xbecb177e	-0.3966636
127	0xbf2a87c4	-0.6661341
128	0x3fb2543a	1.3931954
129	0x3f26f3e9	0.6521593
130	0x3e95e1f4	0.2927395
131	0x3fbebf13	1.4902061
132	0xc015f3ff	-2.3430173
133	0xbe20cb29	-0.157025
134	0x3f20e888	0.62854815
135	0x3eec9946	0.46210688
136	0xbfa34a5d	-1.2757069
137	0xbfe96e43	-1.8236774
138	0xbee8cd44	-0.45469105
139	0xbe61a477	-0.22035395
140	0xbfd76333	-1.6827148
141	0x3e9ace63	0.30235586
142	0x3f6caad7	0.9244818
143	0x3f1355f8	0.5755305
144	0x3f8b4d61	1.0882989
145	0x3e1030c4	0.14081103
146	0x4007b848	2.1206226
147	0x3f9185f0	1.1369
148	0xbf6bed38	-0.9215884
149	0xc00f86a0	-2.2425919
150	0xbe4c0ceb	-0.19926803
151	0x3f343cc3	0.70405215
152	0x3ffa29fc	1.9544063
153	0xbf153c16	-0.5829481
154	0x3cf28392	0.029603753
155	0xbf5688eb	-0.8380267
156	0x3f3dfac8	0.74210787
157	0x3e2f2222	0.17102864
158	0x3f094270	0.53617
159	0xbfbc8452	-1.4727881
160	0x3f92d9e5	1.1472746
161	0xc010f47b	-2.264922
162	0x3f9a76ee	1.2067544
163	0xbec1b971	-0.37836793
164	0xbfadf3df	-1.3590049
165	0x3f7c93c5	0.9866298
166	0xbf9fed54	-1.2494302
167	0x3ff81fbf	1.9384688
168	0x3ffaf914	1.9607263
169	0xbfefdcd3	-1.8739265
170	0xbfe28bf0	-1.7698956
171	0x3f4346e0	0.7628002
172	0xbfc26746	-1.5187767
173	0xbfa62179	-1.2978965
174	0x3f831cf2	1.0243208
175	0x3ff16643	1.8859333
176	0x3e154ed5	0.14580853
177	0xbfbd9e7f	-1.4813994
178	0x3f722efb	0.94602937
179	0xbda2f8da	-0.07957621
180	0xbfd00ff6	-1.6254871
181	0x401112da	2.2667756
182	0xbfb1aca4	-1.3880811
183	0xbf10d1bc	-0.5657003
184	0x3f01c101	0.50685126
185	0xbf844ef4	-1.0336595
186	0xbf21abfa	-0.6315304
187	0x3f59a567	0.8501801
188	0xbed934bf	-0.42423055
189	0x3d662252	0.056185074
190	0x3f96aff3	1.1772445
191	0x3f8de69e	1.1086004
192	0xbf9444f1	-1.1583539
193	0xbfe09c8a	-1.7547772
194	0x3feecd43	1.8656391
195	0x3d8cda23	0.06877544
196	0xbfbe93c8	-1.4888849
197	0xbff8c998	-1.9436522
198	0xbfa7c76a	-1.3107731
199	0xbe049e3f	-0.12950991
200	0xbebd15bf	-0.36930653
201	0xbf4dcbc7	-0.80389065
202	0x4001516e	2.020595
203	0x4012bba1	2.292702
204	0x3fdae65c	1.710155
205	0xbffa2044	-1.9541097
206	0xbfb07ee2	-1.3788722
207	0x3fc6dddf	1.553646
208	0xbf512984	-0.8170397
209	0xbdcca759	-0.099928565
210	0xbf480e5d	-0.78146917
211	0x3ff6e830	1.9289608
212	0x4010f218	2.2647762
213	0x3fb06f10	1.3783894
214	0x3fe7f942	1.8122942
215	0xbfcdd419	-1.6080352
216	0x3fefa44a	1.8722012
217	0x3daa749e	0.08323024
218	0xc00863ad	-2.1310837
219	0xbdd5c5a9	-0.10438091
220	0x3fcad6df	1.5846823
221	0xbf3bc123	-0.7334158
222	0xbf054ca7	-0.5207009
223	0xbf2819f1	-0.65664583
224	0xbf8563a8	-1.0421038
225	0x3fbea10f	1.4892901
226	0x3f98b6ac	1.1930747
227	0x3cb09360	0.021554649
228	0x3fdd0f39	1.727027
229	0x3f2bae3b	0.6706273
230	0xbf6ffb9b	-0.93743294
231	0xbfd3c82d	-1.6545464
232	0x3e8d9bc1	0.27657893
233	0xbf42c3d9	-0.7608009
234	0xbf2015db	-0.6253335
235	0x3fa8ba76	1.3181903
236	0x3fb07ecd	1.3788697
237	0xbee17e03	-0.44041452
238	0xbf23116f	-0.63698477
239	0x3f465db0	0.77486706
240	0x3e8fcfa5	0.28088108
241	0x3f35ba45	0.7098735
242	0x3f63790d	0.88856584
243	0x3fb64459	1.4239608
244	0xbfefbcbe	-1.8729475
245	0x3d9a03ed	0.0752028
246	0x3f1dd80d	0.6165779
247	0x3ed35296	0.41273946
248	0xbf3eb9f0	-0.7450247
249	0xbfeba16b	-1.8408636
250	0x3ffbbbd1	1.9666692
251	0xbfd50703	-1.6642765
252	0x3fa03273	1.2515396
253	0xc00ebcad	-2.2302659
254	0x3f01e06c	0.50733066
255	0x3fe1911a	1.7622406

_initial._model.2.bias f4 [16]
0	0x3f06fabc	0.5272634
1	0xbea58d98	-0.3233459
2	0x401b49ee	2.4263873
3	0xbf9c1ff4	-1.2197251
4	0xc019f45a	-2.405539
5	0x3e337f54	0.1752904
6	0xbf928f61	-1.1450006
7	0xbf678be2	-0.9044782
8	0x3fe42e8c	1.7826705
9	0xbafe7c48	-0.0019415701
10	0xc00c1ac1	-2.189133
11	0xbf285adf	-0.6576366
12	0xbfaf0c63	-1.3675655
13	0xc0116bc9	-2.2722037
14	0x3f60ad3d	0.8776434
15	0xc009b630	-2.1517448

_func._drift._model.0.weight f4 [16, 17]
0	0x3a347e03	0.0006885232
1	0xbbb3cae1	-0.0054868315
2	0x3ba2177f	0.0049466486
3	0xb9aa2797	-0.00032454423
4	0x3aef0a7e	0.001823738
5	0x3a927038	0.001117236
6	0xbb383257	-0.0028106177
7	0x39e19eca	0.0004303365
8	0x3ae9be14	0.0017833137
9	0xbbae818a	-0.005325501
10	0xbb940f15	-0.0045183995
11	0xbb8fefd7	-0.004392605
12	0xb996c137	-0.00028754186
13	0xbb3b1d04	-0.002855123
14	0xbbb1c493	-0.005425045
15	0x3bac6065	0.0052605146
16	0x3b984f57	0.00464813
17	0xbb05c2c1	-0.0020410272
18	0xbb869385	-0.004106941
19	0x3b330340	0.002731517
20	0xba817459	-0.0009876593
21	0xbb522055	-0.0032062728
22	0xbbad85ac	-0.005295476
23	0x38434334	4.655421e-05
24	0xbb406c72	-0.0029361513
25	0x3ac53963	0.001504701
26	0x3ac19d12	0.0014771542
27	0xba362563	-0.000694832
28	0x3bbf6e1c	0.0058419835
29	0xba93d19f	-0.0011277682
30	0x3bba4e45	0.0056856
31	0x3ae2b380	0.0017295927
32	0x3ae1edf7	0.0017237057
33	0x3b9d3f77	0.0047988254
34	0xbaff05dc	-0.0019456702
35	0x3bb21ce3	0.0054355725
36	0x3b2a867c	0.00260201
37	0xbad71f97	-0.0016412613
38	0x3b301352	0.0026866985
39	0xbbb8cc57	-0.0056395936
40	0x3a3f7345	0.0007303248
41	0xbaa7c3c2	-0.0012799429
42	0xba9cb905	-0.0011956996
43	0xbb992a10	-0.0046742037
44	0x3b3efa9f	0.002914108
45	0x3b05ff4d	0.002044636
46	0xbb1fa78d	-0.0024361343
47	0x3b973333	0.0046142577
48	0xba91d067	-0.0011124731
49	0xb913e409	-0.00014103962
50	0xbb660b22	-0.003510185
51	0x3af3cc94	0.0018600398
52	0x3b0a9369	0.0021144992
53	0x3a86a94a	0.0010273841
54	0x39c36f12	0.00037276052
55	0xbbbafaf5	-0.005706186
56	0x3ba186fe	0.0049294224
57	0xb9731eaf	-0.00023185716
58	0x3b62d20c	0.003461006
59	0x3b6b843f	0.003593698
60	0xbba71b8c	-0.0050997194
61	0x3b7f1daf	0.0038927605
62	0xbb825770	-0.0039777085
63	0x3af2695e	0.0018494537
64	0x3ba5bd70	0.005057983
65	0x3ba52537	0.0050398367
66	0x3aee78df	0.0018193981
67	0xbbaa8e51	-0.0052049537
68	0x3b4cb404	0.0031235227
69	0xbb66fb07	-0.0035244839
70	0x3b1a46c1	0.0023540708
71	0xbbb400ad	-0.0054932446
72	0xbb1f8279	-0.0024339242
73	0xbb92420e	-0.0044634407
74	0xba946266	-0.0011320829
75	0xbb03171a	-0.0020002783
76	0xbbb9c154	-0.0056687985
77	0xbbbbe0f0	-0.0057336017
78	0x3a4d939c	0.0007842125
79	0x3a510158	0.00079729175
80	0xbb170a8d	-0.002304706
81	0xbb4b26b9	-0.0030998422
82	0xbb92aa22	-0.004475848
83	0xbb69e4ab	-0.0035689275
84	0xbb13651f	-0.0022490693
85	0xbb1e5cf0	-0.0024164282
86	0x3b72fd8f	0.0037077402
87	0x3ac6c411	0.0015164634
88	0x3b9ddf05	0.0048178458
89	0xbb9ece01	-0.004846335
90	0x3b07a916	0.0020700148
91	0x3aaf9090	0.0013394523
92	0xbb9b2b30	-0.004735373
93	0x3b4d2e79	0.0031308217
94	0xbb24b288	-0.0025130827
95	0xbb1830ab	-0.0023222368
96	0x3b0628a7	0.0020471008
97	0x3ab31ecb	0.0013665793
98	0x39a58d33	0.00031576454
99	0x3bac1cd5	0.0052524605
100	0xbadb1309	-0.0016714047
101	0xbb6aa648	-0.0035804678
102	0xbbbf7cab	-0.005843719
103	0x3aa392c4	0.0012479653
104	0xbb94a8ec	-0.0045367386
105	0x3b9bd052	0.0047550583
106	0x3ae335e6	0.0017334789
107	0xbab5a15c	-0.0013857293
108	0x3b753bbd	0.003741964
109	0x3ba77ad3	0.0051110773
110	0x3b8cc9f0	0.0042965338
111	0xbb13b469	-0.0022537953
112	0x3a09413b	0.00052358554
113	0xbb4bc322	-0.003109165
114	0x3b6e7f3c	0.0036391756
115	0x3bb50f5b	0.005525512
116	0xb93107c0	-0.00016882923
117	0x3b7d5153	0.003865321
118	0x3b0185ed	0.0019763664
119	0x3b3beced	0.0028675154
120	0xbb8f03b8	-0.004364457
121	0xbb846758	-0.00404064
122	0xbba3b01c	-0.004995359
123	0x3bb7a459	0.0056043086
124	0x3b1cb578	0.0023911875
125	0x3b8d9204	0.004320385
126	0x3b846a38	0.0040409826
127	0x3b9aade0	0.0047204345
128	0xbaba5fa3	-0.0014219176
129	0xbbbab761	-0.00569813
130	0x3a3a57c1	0.0007108413
131	0xbb1d7f65	-0.0024032232
132	0x3b212e4c	0.0024594245
133	0x3b24fa3e	0.002517357
134	0x3a147ad1	0.0005664053
135	0xbbb7ec2f	-0.005612872
136	0x3aceea45	0.001578637
137	0xbb52a739	-0.003214313
138	0xbb30898e	-0.0026937458
139	0x3b931c1c	0.004489435
140	0xbb45d962	-0.0030189385
141	0x3af389ba	0.0018580474
142	0xbadc5c9d	-0.0016812269
143	0x39778ad6	0.00023607476
144	0xbb32d2a0	-0.0027286187
145	0xbb0ad1cd	-0.002118218
146	0x3ba37063	0.004987763
147	0x3b51f8e1	0.0032039213
148	0xbba2fd2f	-0.0049740295
149	0x3bab1f8d	0.005222267
150	0xbb66a76a	-0.0035195001
151	0xbb775039	-0.0037737025
152	0xbbaa5dbb	-0.005199162
153	0xb9b03734	-0.00033610465
154	0xbb2f5b26	-0.002675721
155	0xbbbb46e0	-0.005715236
156	0x3b234d19	0.002491778
157	0xbabbd161	-0.0014329368
158	0x3b13b87e	0.0022540386
159	0xbb923ada	-0.004462582
160	0xbb73c303	-0.0037195093
161	0xbb5c2c5b	-0.0033595774
162	0xb9c912f5	-0.00038351832
163	0xbba8ff8e	-0.0051574176
164	0x3a87f63e	0.0010373069
165	0xb84df701	-4.910585e-05
166	0x3b9c4e6b	0.0047700903
167	0xb9afdae1	-0.0003354168
168	0x3ba64b6f	0.0050749104
169	0x3b4440c7	0.0029945837
170	0x36987805	4.543925e-06
171	0xb97d9802	-0.00024184588
172	0x39e301b3	0.0004329808
173	0x3a037283	0.0005014317
174	0xbabbb1c9	-0.0014319952
175	0xbb67223a	-0.0035268203
176	0xba39ff21	-0.0007095207
177	0xbb478168	-0.0030442122
178	0xbab831bb	-0.0014052907
179	0xbb9bbcff	-0.0047527547
180	0x3b98bc43	0.0046611144
181	0x3b3333db	0.002734414
182	0xbadcfa74	-0.0016859309
183	0xbaff37d1	-0.0019471591
184	0x3bb6e157	0.005581062
185	0xbbb214f0	-0.005434625
186	0xbbb87435	-0.0056290873
187	0xba97e5ec	-0.0011588908
188	0x3aca2796	0.0015423174
189	0xbb924138	-0.004463341
190	0x3b70f37a	0.0036766217
191	0xbad43575	-0.0016190248
192	0x3b9094f6	0.004412289
193	0x3b7dcf02	0.0038728123
194	0xbb864e18	-0.004098665
195	0x3b52f48d	0.003218922
196	0x3b409457	0.0029385292
197	0xba6c9680	-0.0009025112
198	0x3b8661cb	0.0041010133
199	0xbb9ed1cf	-0.0048467885
200	0x3aa97860	0.0012929551
201	0xbab68a79	-0.0013926766
202	0xb8b03690	-8.402497e-05
203	0xbb117574	-0.0022195252
204	0xbb238426	-0.0024950593
205	0x3b7f3525	0.0038941589
206	0x3b5f4984	0.0034070918
207	0x3b87235d	0.0041240887
208	0xbb945c37	-0.0045275944
209	0x3a3b5586	0.0007146228
210	0x39c4f407	0.00037565848
211	0xbb8a36af	-0.0042179446
212	0x3b71ad25	0.0036876884
213	0xbaf368a5	-0.0018570615
214	0xbb4912be	-0.0030681337
215	0xb9838ff1	-0.00025093512
216	0x3b327e76	0.002723602
217	0x3ae10123	0.0017166476
218	0x3b998153	0.004684606
219	0x3a0fdd08	0.00054879533
220	0xbba0a08c	-0.004901951
221	0xbb096feb	-0.002097125
222	0xba5dc6bd	-0.0008460095
223	0x3baaa65a	0.005207819
224	0x3b2b1821	0.0026106911
225	0x3ad18def	0.0015987734
226	0xbb9c2530	-0.0047651753
227	0xbb2a702a	-0.0026006796
228	0x3b19b5e9	0.0023454374
229	0xbb4f69af	-0.0031648686
230	0xbb08ab34	-0.0020853998
231	0x3bb6d721	0.0055798446
232	0x3aa00fbb	0.0012211719
233	0x3b24973e	0.0025114561
234	0x3b73d1a5	0.0037203815
235	0xbbb5cd29	-0.0055481386
236	0x3ad67127	0.0016360626
237	0xbb8efd63	-0.004363702
238	0xbaec809f	-0.0018043703
239	0x3b37d56f	0.00280508
240	0xbbb72dd4	-0.00559018
241	0x3b86ce10	0.00411392
242	0x3aebf2dc	0.0018001455
243	0x3b653a2f	0.0034977307
244	0x3b2db15f	0.0026503426
245	0x3b2275a0	0.0024789348
246	0xb91dc15a	-0.00015044716
247	0x3bb2855a	0.0054480257
248	0xbb4d1995	-0.0031295766
249	0xba26f582	-0.0006368981
250	0xbaa2a9a9	-0.0012410182
251	0x3ad15db8	0.0015973365
252	0x3b3eb5e1	0.0029100107
253	0x3b67fbc6	0.0035397871
254	0x3b34cc6e	0.002758767
255	0xbb828ab6	-0.003983821

_func._drift._model.0.bias f4 [16]
0	0x3bb77b37	0.005599405
1	0xb9c74aa5	-0.00038011852
2	0x3b19a995	0.0023447026
3	0x3b0f4ff7	0.002186773
4	0xb7c99321	-2.402958e-05
5	0xbb163deb	-0.002292509
6	0x3b820de1	0.0039689397
7	0xbbaea3e5	-0.0053295963
8	0xbbace681	-0.0052765016
9	0xbba9b177	-0.005178626
10	0xbb0c11d9	-0.0021372943
11	0x3aad20f0	0.0013208669
12	0xb9ad81aa	-0.0003309374
13	0x38fa3c13	0.00011932119
14	0x3b990350	0.0046695843
15	0xbb9a058f	-0.0047003697

_func._drift._model.2.weight f4 [16, 16]
0	0xbb24da5d	-0.0025154569
1	0x3b12ccc0	0.0022399873
2	0xbbb23b58	-0.005439203
3	0xbbc3ea2a	-0.0059788423
4	0xbb7a988a	-0.0038237893
5	0xbbbbc02e	-0.0057296967
6	0xbb073e59	-0.0020636527
7	0xbbb419ed	-0.0054962547
8	0xba360cb0	-0.00069446396
9	0x3b50ec16	0.0031879
10	0xbba25181	-0.0049535637
11	0xbbbd26be	-0.0057724407
12	0x3b63ed8e	0.0034779045
13	0xbb016251	-0.001974244
14	0x3b20a6b5	0.0024513428
15	0x3b3087b8	0.0026936363
16	0xbaab2cfd	-0.0013059672
17	0xb9d28ce0	-0.0004015928
18	0xb8a51038	-7.870834e-05
19	0xbb9bd7cb	-0.004755949
20	0x3bb38463	0.005478428
21	0xb99cd7ad	-0.0002991533
22	0x3b0c1753	0.0021376207
23	0x3a7b559b	0.00095876463
24	0x3ba44b5d	0.005013867
25	0xbb9d70f3	-0.0048047244
26	0xbb81c920	-0.0039607435
27	0xb915af77	-0.00014275113
28	0xbb1a77bd	-0.0023569905
29	0x3b0734ff	0.0020630953
30	0x3bb0b6dd	0.0053928928
31	0xb9ac63ce	-0.00032880757
32	0xbba9ee7b	-0.0051859
33	0x3ba4265c	0.0050094556
34	0xbac4b8da	-0.0015008703
35	0x3afd8ff3	0.0019345268
36	0xbb006a23	-0.0019594512
37	0x3bb04a6c	0.0053799655
38	0xbb619979	-0.0034423752
39	0x3a45dc19	0.0007547751
40	0x3b31de0d	0.002714041
41	0xbba27d1b	-0.0049587614
42	0x3ade4243	0.0016957003
43	0xbb6455c0	-0.003484115
44	0x3badfd98	0.0053097717
45	0x3ba0db59	0.004908961
46	0x3af8bb08	0.0018976638
47	0xbb410070	-0.0029449724
48	0x3965fb8c	0.0002193285
49	0x3ba883a6	0.005142647
50	0x3b779c52	0.0037782383
51	0xbb3a6df9	-0.0028446896
52	0xbb55401d	-0.0032539435
53	0xbac4f274	-0.001502587
54	0xbadf39c5	-0.0017030766
55	0xbb3f4c11	-0.0029189626
56	0xbbc1512e	-0.00589957
57	0x38646a8b	5.4458662e-05
58	0x3aad16b0	0.0013205614
59	0xbb8bbdee	-0.0042645847
60	0x3b4a2971	0.0030847455
61	0xbb2bd46b	-0.002621914
62	0x3b70e674	0.0036758455
63	0xbb2f9102	-0.0026789312
64	0x3bb33f16	0.005470167
65	0xbb645472	-0.0034840372
66	0x3aa6f02d	0.0012736373
67	0x3addc9a5	0.0016921057
68	0x3b909600	0.0044124126
69	0x3b42c75d	0.002972088
70	0xbb9be9df	-0.004758104
71	0xba8739ec	-0.0010316945
72	0xb99d4d38	-0.00030002906
73	0x3b5369f9	0.003225921
74	0xbb586a9b	-0.0033022526
75	0x3b4e5a60	0.0031486973
76	0xbb7daca0	-0.003870763
77	0x3b1aed4d	0.0023639977
78	0xbb8c5b99	-0.00428338
79	0x3abb7462	0.0014301653
80	0xb7d255a9	-2.507384e-05
81	0x3b9270e2	0.004469023
82	0xbb365ca1	-0.0027826207
83	0x3acbb61e	0.0015541946
84	0xbb8abca3	-0.004233913
85	0xbb3adad7	-0.0028511786
86	0x3b565275	0.0032702957
87	0x3aace196	0.0013189788
88	0x3b9ad3c5	0.004724952
89	0x3b31127a	0.002701907
90	0x3b723623	0.0036958538
91	0xbb46ede1	-0.003035419
92	0x3a16d3bb	0.0005753596
93	0xbbb29bbd	-0.0054506944
94	0x3ae6ccc7	0.0017608636
95	0xba8c962a	-0.0010725905
96	0x3b10788d	0.002204451
97	0xbb07f05d	-0.0020742633
98	0xbad8dca5	-0.0016545249
99	0x3b69feee	0.0035704928
100	0x3b669c54	0.0035188394
101	0x3bacf9aa	0.0052787857
102	0xbbbb2f34	-0.005712414
103	0xbb081f75	-0.0020770703
104	0xbbaa019b	-0.0051881797
105	0x3a9b6cbd	0.0011857968
106	0x3bab3793	0.005225131
107	0xbaeac2f5	-0.0017910885
108	0xba1ed8ea	-0.00060595444
109	0xbae33cfb	-0.0017336899
110	0xbb06fcab	-0.002059738
111	0x3ad90d81	0.0016559811
112	0x3b8459b5	0.004039014
113	0xbb7fb2d2	-0.0039016497
114	0x3b9e391e	0.0048285862
115	0x3b93c6d4	0.004509786
116	0xb97a76a9	-0.00023886062
117	0xbb87e331	-0.0041469564
118	0xbb99c32b	-0.0046924553
119	0xba88328c	-0.0010391041
120	0xb98c40d5	-0.00026751184
121	0xbb97d201	-0.0046331887
122	0xbbb8bb77	-0.005637582
123	0x3af0c949	0.0018370535
124	0x39fbaf95	0.0004800527
125	0x3b885e81	0.0041616564
126	0x3a97e8af	0.0011589731
127	0x3b17fa79	0.0023190065
128	0x3a2669c8	0.000634816
129	0x3b2412a5	0.0025035527
130	0xbb30a364	-0.0026952857
131	0x37f67ecc	2.938453e-05
132	0x3b5165ca	0.003195154
133	0x3b00c1a5	0.001964667
134	0x3b381e53	0.0028094247
135	0xbbab2c2a	-0.0052237706
136	0xb829cb7c	-4.048225e-05
137	0xbb4b52ba	-0.003102465
138	0xbaba0569	-0.0014192286
139	0x3b305a5a	0.0026909322
140	0xba9e6fa4	-0.0012087715
141	0xbb3aa494	-0.0028479444
142	0xb905f04c	-0.00012773386
143	0xbb76e01b	-0.0037670198
144	0xbb245c61	-0.0025079476
145	0xbb30f468	-0.0027001146
146	0x3bb2d093	0.005456993
147	0xbb347701	-0.0027536752
148	0xbb56aeab	-0.0032757919
149	0xbac98df1	-0.0015377385
150	0x3b8d8e47	0.0043199393
151	0x38063ec4	3.2006545e-05
152	0xba692208	-0.00088933157
153	0x3b5b072f	0.003342103
154	0x3b7c8073	0.003852871
155	0x3bb6585f	0.005564734
156	0xbb863708	-0.0040959157
157	0x3b4c46e3	0.0031170181
158	0xbb818229	-0.003952284
159	0xbb3cc1b5	-0.0028801982
160	0x3ba2bf9e	0.00496669
161	0x3b0a0cf1	0.0021064843
162	0xbb330a5e	-0.0027319412
163	0xbac4f6f9	-0.0015027217
164	0x3b665ae6	0.0035149395
165	0x3a8b2adc	0.0010617631
166	0xbaa8b73f	-0.0012871994
167	0xbacb795e	-0.0015523841
168	0xbae5bbab	-0.0017527243
169	0xba742494	-0.0009313312
170	0x3b96b6bf	0.0045994218
171	0xbb8abd7a	-0.004234013
172	0x3b7d2768	0.0038628224
173	0x3a7c2ded	0.00096198806
174	0x3bc3724d	0.0059645534
175	0x3b0230ff	0.001986563
176	0xbbc4f46d	-0.006010583
177	0xbb0ac9ff	-0.0021177528
178	0xba84b752	-0.0010125434
179	0x3b098b45	0.0020987552
180	0xbbb57440	-0.0055375397
181	0x3b0727bf	0.0020623056
182	0xbaa2f82e	-0.0012433582
183	0xbb5e6d26	-0.003393957
184	0xbb8bdb05	-0.0042680525
185	0xbb7301c5	-0.0037079912
186	0xbbaeb5cf	-0.005331732
187	0xb9e4d1da	-0.000436439
188	0x3b1c2c8f	0.002383027
189	0xbb5c70de	-0.003363661
190	0xbb61c79c	-0.0034451252
191	0x396f5dc3	0.00022827745
192	0xbba02d27	-0.004888195
193	0xbb8a9ff2	-0.0042304927
194	0xbad1ba98	-0.0016001044
195	0x3b829278	0.0039847456
196	0x3b4960a7	0.0030727775
197	0x3a92d030	0.0011200961
198	0xbb026bb5	-0.0019900624
199	0xbba77a14	-0.0051109884
200	0x3b685e6c	0.003545667
201	0x39676ad7	0.00022069678
202	0x3b274796	0.0025524846
203	0xb95b3baa	-0.00020907694
204	0x3b5404eb	0.0032351564
205	0xb83b8ce4	-4.471549e-05
206	0x3b4ac29d	0.0030938752
207	0xba806013	-0.0009794257
208	0xbb00fc1c	-0.001968152
209	0x3a9b1a8d	0.0011833474
210	0xbbc1e9c1	-0.005917758
211	0xbb941518	-0.004519116
212	0x3a1d48bd	0.00059999136
213	0x3bbc721c	0.0057509076
214	0xbad9da46	-0.0016620837
215	0xbaf8f2bc	-0.0018993239
216	0x3b660531	0.003509831
217	0x3ba72085	0.005100312
218	0xbb6dedfc	-0.003630518
219	0x3bb06c80	0.005384028
220	0xbafed241	-0.0019441323
221	0x3b555ca3	0.0032556436
222	0x3ae83d46	0.0017718456
223	0x3a53eec5	0.00080845907
224	0x3b9e76d6	0.0048359437
225	0xba93995f	-0.0011260918
226	0xb9c40ca3	-0.00037393448
227	0x3b774579	0.0037730618
228	0xbb17f6db	-0.0023187909
229	0x3ac57e4a	0.0015067544
230	0x3b66673a	0.0035156743
231	0x398f629a	0.0002734855
232	0x3bbd6346	0.0057796566
233	0x39ca83af	0.00038626554
234	0x3b296ce4	0.0025852257
235	0x3b5e2a12	0.0033899588
236	0x3ba304d9	0.004974943
237	0xbb37bb89	-0.0028035364
238	0xb91fb57f	-0.00015231034
239	0xbb1e1a0f	-0.002412442
240	0xbb3148a9	-0.0027051365
241	0xbb227fa2	-0.0024795313
242	0x3a46728c	0.00075701694
243	0xbb893af3	-0.0041879355
244	0xbb1e6217	-0.0024167353
245	0x3b9bae1f	0.0047509815
246	0x3b00a03f	0.0019626764
247	0x3bc523fe	0.0060162535
248	0xba6c139f	-0.00090056093
249	0xb96f9813	-0.00022849468
250	0xbb4a2c5d	-0.0030849196
251	0x3a708925	0.00091757096
252	0x3abc776f	0.0014378856
253	0x3b92c10c	0.0044785794
254	0xbb9480e1	-0.004531965
255	0xbaf44b7a	-0.0018638216

_func._drift._model.2.bias f4 [16]
0	0x3ba7f891	0.005126067
1	0xbb833816	-0.0040044887
2	0x3b26250d	0.0025351674
3	0xbb8f47e2	-0.004372583
4	0xbb3283b9	-0.0027239157
5	0xbbba06b0	-0.0056770667
6	0xbb60da1c	-0.003430969
7	0xbb3fb588	-0.0029252488
8	0x3ba14350	0.0049213544
9	0xbb7d22ba	-0.0038625435
10	0x3b89075b	0.004181785
11	0x3a2c9ebe	0.0006584934
12	0x3b2ebd8e	0.0026663276
13	0x3b853f40	0.004066378
14	0x3b932b2d	0.004491231
15	0xbb98b5c3	-0.0046603396

_func._diffusion._model.0.weight f4 [16, 17]
0	0x3da34e1b	0.07973882
1	0xbd7ad4a1	-0.061237935
2	0xbd25c690	-0.040472567
3	0x3d97d898	0.07414359
4	0xbde5a971	-0.11213959
5	0xbd3a64c9	-0.045506272
6	0x3d5c2edf	0.053755637
7	0x3c769662	0.0150505025
8	0xbcac5ca1	-0.021040263
9	0x3daa36a1	0.08311201
10	0x3d8ab2b7	0.067723684
11	0x3d7be202	0.061494835
12	0x3cdc8a42	0.026921395
13	0x3cc92954	0.02455584
14	0xbcffd659	-0.031230139
15	0x3ce1d614	0.0275679
16	0xbd834ed3	-0.06411519
17	0xbd4da3a4	-0.050204888
18	0x3c3a1960	0.011358589
19	0xbd6b05d0	-0.05737859
20	0xbcaab042	-0.020836
21	0xbc464ce4	-0.012103293
22	0x3d30025f	0.04297101
23	0x3cb869fb	0.022511473
24	0x3d41b5c0	0.04729247
25	0x3cf42949	0.029804843
26	0xbc842a7a	-0.016133536
27	0x3c62aabc	0.013834652
28	0xba22d847	-0.00062120374
29	0x3d3598ab	0.04433505
30	0x3d280982	0.041024692
31	0x3b6a44b3	0.0035746514
32	0xbc8c9d0d	-0.017164731
33	0xbd9c5452	-0.0763327
34	0x3c5ed431	0.013600395
35	0x3d0e7c39	0.034786437
36	0x3d1fcd83	0.03901435
37	0x3d5726c2	0.052527197
38	0xbd133e7e	-0.03594827
39	0x3d5ea5ae	0.054357223
40	0xbd5c9d62	-0.05386103
41	0xbb0f24df	-0.0021842045
42	0x3d0b4d2b	0.03400914
43	0x3d090674	0.03345342
44	0x3d595896	0.053062998
45	0x3d8490be	0.0647292
46	0xbd561d58	-0.052274078
47	0xbb002644	-0.0019554058
48	0x3d2a32c9	0.04155234
49	0x3c9597d0	0.018260866
50	0x3bbedff9	0.0058250395
51	0x3ce94378	0.028474554
52	0x3c5a9968	0.013342239
53	0xbc28b05a	-0.010295952
54	0xbcac92d2	-0.021066103
55	0xbdf402f6	-0.11914627
56	0x3ccff756	0.025386494
57	0xbc7f8531	-0.01559572
58	0x3cd8b75a	0.026454616
59	0xbda884b9	-0.0822844
60	0x3d96653e	0.07343529
61	0x3c931bcf	0.017957596
62	0x3d2ffee6	0.0429677
63	0x3d0f3c1b	0.03496943
64	0xbcf618c0	-0.030041099
65	0xbd9f0aae	-0.07765709
66	0xbd143062	-0.036178954
67	0xbd48a9c8	-0.04899004
68	0xbdae0a15	-0.08498017
69	0x3c63bc1d	0.01389983
70	0x3cdbb188	0.026818052
71	0xbd9298a5	-0.07158021
72	0x3d86818b	0.06567677
73	0xbd8cc006	-0.06872563
74	0x3b4bf356	0.0031120381
75	0xbdc9686e	-0.098343715
76	0x3d0028cb	0.031288903
77	0xbde39700	-0.11112785
78	0xbd3a147f	-0.045429703
79	0xbcd4aeec	-0.025962315
80	0xbdb15e6d	-0.086605884
81	0xbd119864	-0.03554572
82	0x3bada161	0.005298779
83	0xbd33871f	-0.043830033
84	0x3c419bd9	0.011816942
85	0x3db1710b	0.08664139
86	0xbda9ad8f	-0.08285057
87	0x3cacf5e5	0.021113345
88	0xbc9b6f79	-0.018974053
89	0xbdcef450	-0.10105193
90	0xbd5edc22	-0.054409154
91	0xbcf2b005	-0.029624948
92	0x3b051daf	0.0020311882
93	0xbd9dc0f2	-0.07702817
94	0x3d86a844	0.06575063
95	0xbcbc4134	-0.02298031
96	0x3d910b56	0.0708224
97	0xbd47ae8d	-0.04875045
98	0xbd361197	-0.04445037
99	0x3d079564	0.033101454
100	0x3d45005a	0.04809604
101	0x3b136002	0.0022487645
102	0xbdee37ae	-0.11631714
103	0xbc9799dc	-0.018505983
104	0xbcc57517	-0.024103684
105	0xbd55fce7	-0.05224314
106	0x3b1885cd	0.002327311
107	0xbd876566	-0.06611137
108	0x3c0a362d	0.008435768
109	0xbc972dab	-0.018454393
110	0x3d648156	0.055787407
111	0xbda8348b	-0.08213147
112	0xbd6e60f9	-0.05819795
113	0xbd564d89	-0.052320037
114	0xbd7b0039	-0.06127951
115	0xbd18f0d4	-0.037339047
116	0x3d3158c6	0.04329755
117	0xbdb89b26	-0.09013967
118	0x3d2b02f1	0.041750852
119	0xbd0accd8	-0.03388676
120	0xbb1a6973	-0.0023561388
121	0xbc97fa5c	-0.018551998
122	0xbdabe1ff	-0.08392715
123	0xbbc675d3	-0.006056526
124	0xbc92d519	-0.017923879
125	0xbd1350b8	-0.03596565
126	0xbd837603	-0.06418993
127	0x3b89b57a	0.004202542
128	0xbd93b597	-0.0721237
129	0xbd558d57	-0.052136745
130	0xbda33cab	-0.07970556
131	0xbcff349b	-0.031153014
132	0x3bd2a050	0.006427802
133	0xbcdba359	-0.026811289
134	0xbd866989	-0.06563098
135	0x3ced8dca	0.028998274
136	0x3d16bbe5	0.036800284
137	0xbd93a2c7	-0.07208782
138	0xbbb57459	-0.0055375514
139	0x3d01b9d8	0.031671375
140	0xbdc315d6	-0.09525649
141	0xbc73267d	-0.014840719
142	0x3d1a63a1	0.03769267
143	0x3d7255d6	0.05916389
144	0xbad6bd5e	-0.001638334
145	0xbbd391cb	-0.006456589
146	0x3bd12ad5	0.00638328
147	0x3d4e752a	0.050404705
148	0xbd3834ee	-0.044972353
149	0x3cfc14e1	0.030771675
150	0xbd682635	-0.056677062
151	0x3ca35b24	0.01994092
152	0xbd4ffa19	-0.05077562
153	0xbd148b68	-0.03626576
154	0x3d3dec88	0.046368152
155	0x3ba28776	0.004959996
156	0xbde09213	-0.109653614
157	0x3bb3f0b7	0.005491342
158	0xbd11252b	-0.035435837
159	0xbd0890e4	-0.033341303
160	0xbd8247d7	-0.063613586
161	0x3d2e7cb6	0.042599402
162	0xbd3dbed7	-0.046324577
163	0xbdb90c6a	-0.09035571
164	0xbd26cb9d	-0.040721525
165	0xbc41d286	-0.011829978
166	0xbb543636	-0.0032380945
167	0xb9a6b9ab	-0.0003180032
168	0xbd9f4ed4	-0.07778707
169	0x3d3626a2	0.044470437
170	0xbdc938b9	-0.09825272
171	0xbd361f2c	-0.04446332
172	0xbd31e37f	-0.043429848
173	0xbcb8628c	-0.022507928
174	0x3d42b008	0.047531158
175	0x3c9e37da	0.019313741
176	0xbd8fea30	-0.070270896
177	0xbd2fa3d8	-0.042880863
178	0x3d76dd4f	0.06026965
179	0xbe010e8d	-0.12603207
180	0xbd889e37	-0.06670802
181	0xbcedea73	-0.029042458
182	0xbd3ba2e1	-0.04580963
183	0x3bfd229e	0.007725074
184	0xbd0f2de8	-0.03495589
185	0xbd4003dd	-0.046878684
186	0x3cb7fb10	0.022458583
187	0x3bf6d6c5	0.0075329267
188	0x3cd15ce3	0.025556987
189	0xbb3e0d56	-0.0028999648
190	0x3d1320c5	0.035919923
191	0xbc08bf7a	-0.008346433
192	0xbc5e3433	-0.01356225
193	0xbba1d4b6	-0.004938687
194	0x3d5ccd84	0.053906932
195	0xbdaa5eef	-0.083188884
196	0x3c1150cd	0.008869362
197	0xbce63b2c	-0.028104387
198	0x3d7ba363	0.061435115
199	0x3d089a65	0.033350367
200	0xbdb0faf6	-0.08641617
201	0xbc9deb90	-0.019277364
202	0x3d6fd109	0.05854896
203	0xbd7fe235	-0.062471587
204	0xbd81a24f	-0.06329786
205	0x3b869ef2	0.004108303
206	0x3be649c0	0.0070278347
207	0xbdba4b44	-0.09096387
208	0x3d2601ee	0.040529184
209	0x3b3aad60	0.0028484687
210	0xbd82bd32	-0.063837424
211	0xbda5c514	-0.0809423
212	0x3c841722	0.016124312
213	0xbd3a80c6	-0.045532964
214	0xbda108c1	-0.07862998
215	0xbd6159df	-0.05501735
216	0xbd282e0b	-0.041059535
217	0x3cdbd431	0.02683458
218	0xbc7975d6	-0.015225848
219	0xbd3ac2e2	-0.04559601
220	0x3d734166	0.05938854
221	0x3d836476	0.06415646
222	0x3c57b466	0.013165569
223	0xbb0f5559	-0.002187094
224	0x3d859fa3	0.06524589
225	0xbd8b44f0	-0.06800258
226	0xbd19b50e	-0.037526183
227	0xbc64be44	-0.0139613785
228	0x3d03fbdd	0.032222617
229	0xbd60c8aa	-0.05487887
230	0x3d9f5664	0.077801496
231	0x3d895e15	0.06707398
232	0x3d5c795b	0.05382667
233	0x3cbdb5e1	0.023158016
234	0x3c91fb89	0.017820137
235	0xbc6a2bce	-0.01429267
236	0xbc6df80c	-0.014524471
237	0xbc4254be	-0.011861024
238	0x3c11ad13	0.008891362
239	0x3b306e6d	0.0026921288
240	0x3cd26b98	0.02568607
241	0x3c15b097	0.009136341
242	0xbc8ff1ab	-0.017571291
243	0x3c23a0d4	0.009987075
244	0xbba0d32d	-0.0049079866
245	0x3d1410ab	0.03614871
246	0xbd9bc18e	-0.07605277
247	0x3c7dd995	0.01549377
248	0x3ce132e0	0.02749008
249	0x3d03f9de	0.032220714
250	0xbb859e81	-0.004077733
251	0xbdb72c1a	-0.089439586
252	0xbcffb7fc	-0.03121566
253	0x3d239366	0.039935492
254	0xbccdefe4	-0.025138803
255	0xbb6baba8	-0.003596047

_func._diffusion._model.0.bias f4 [16]
0	0x3ddbed78	0.10738653
1	0x3c6bba7e	0.014387725
2	0x3c7399ef	0.014868244
3	0x3dc77b13	0.097402714
4	0xbc38af15	-0.011272212
5	0x3c6f9160	0.014622062
6	0xbd6dd249	-0.05806187
7	0xbdcca9b3	-0.09993305
8	0x3d6fd113	0.058548998
9	0xbcdfd688	-0.027323976
10	0xbc9ccad4	-0.019139685
11	0x3d4c9bea	0.04995338
12	0xbda9bcce	-0.08287965
13	0x3dbd5cbc	0.09246203
14	0x3d9ea609	0.077465124
15	0x3c0ab8e4	0.008466933

_func._diffusion._model.2.weight f4 [48, 16]
0	0x3d9467b5	0.07246343
1	0x3d5787aa	0.052619614
2	0xbc024f27	-0.007953442
3	0x3d3cc304	0.04608442
4	0xbdc6f4b7	-0.097146444
5	0x3d25bced	0.040463377
6	0x3b9067bf	0.0044068987
7	0xbbb91eaa	-0.0056494074
8	0x3d18e41c	0.037326917
9	0xbdaf7ab2	-0.08568324
10	0x3c33d74e	0.010976626
11	0x3d7b3629	0.061330948
12	0xbd65e3f0	-0.05612558
13	0xbccf5623	-0.025309628
14	0xbc960be1	-0.018316211
15	0x3d90e517	0.070749454
16	0x3d1002a1	0.035158757
17	0xbd226dc3	-0.03965546
18	0xbce3115d	-0.02771824
19	0x3c27f14a	0.010250399
20	0xbd92cc11	-0.07167829
21	0x3d4e0cb8	0.0503051
22	0xbd0b4df2	-0.03400988
23	0xbdb30a5a	-0.08742209
24	0x3d9e2336	0.0772156
25	0xbc115e22	-0.008872541
26	0x3c137283	0.00899947
27	0x3d8924c5	0.06696466
28	0xbc6906da	-0.014222825
29	0xbcd3bcef	-0.025846926
30	0xbcf31e39	-0.029677497
31	0xbc75ffb3	-0.015014577
32	0x3c1ef12b	0.009701054
33	0xbcbe8f63	-0.023261731
34	0xbd0b9ea0	-0.034086823
35	0x3dc6b488	0.09702402
36	0xbdaeb1f0	-0.08530033
37	0x3d21f757	0.039542522
38	0xbd37cd29	-0.04487339
39	0x3ccd406d	0.025055135
40	0xbc5d9bcc	-0.013525914
41	0xbcf6cd2c	-0.03012713
42	0xbdb638ec	-0.08897576
43	0xbcb11be0	-0.021619737
44	0xbcf1375c	-0.029445343
45	0x3a67240f	0.0008817324
46	0x3cb64684	0.022250421
47	0xbca12275	-0.01966975
48	0x3d95d682	0.07316305
49	0x3d6dc1e7	0.058046248
50	0xbd547656	-0.051870666
51	0x3c622ae0	0.0138041675
52	0x3bb88f26	0.005632299
53	0xbc8cb3d0	-0.017175585
54	0xbd30a480	-0.04312563
55	0xbd0a27b1	-0.03372926
56	0x3d6351e2	0.05549801
57	0xbd2c41f3	-0.04205508
58	0xbc95230c	-0.018205188
59	0xbc49c0eb	-0.012314062
60	0xbcbe52f4	-0.023232915
61	0xbbcf2861	-0.006321952
62	0x3d7fb96a	0.062432684
63	0x3d24d670	0.040243566
64	0x3d897dbd	0.06713436
65	0x3bf06f32	0.0073374743
66	0xbc0a24ca	-0.008431623
67	0x3dc2a1ba	0.09503503
68	0xbd2ac6a0	-0.04169333
69	0x3d89e177	0.06732457
70	0xbd8b7b26	-0.06810598
71	0x3c197994	0.009367365
72	0x3d40bb0a	0.047053374
73	0xbda8590e	-0.08220111
74	0xbd1318e8	-0.035912424
75	0xbd1c1f7a	-0.038115956
76	0xbcdf0477	-0.027223809
77	0x3bb653f6	0.005564208
78	0x3b22dd5a	0.0024851174
79	0x3c646d90	0.013942137
80	0x3db9a3d9	0.090644546
81	0x3c8a4093	0.016876495
82	0xbd4c27db	-0.049842697
83	0x3d88dcb4	0.06682721
84	0xbce89227	-0.028390003
85	0x3d36d457	0.044636097
86	0xbcee143f	-0.029062388
87	0xbc935e15	-0.017989198
88	0x3d0d0a7a	0.03443382
89	0xbd2ab959	-0.041680668
90	0xbba12d14	-0.004918704
91	0x3d74b1da	0.059739925
92	0xbdbd1a84	-0.09233573
93	0x3cc0c463	0.023531144
94	0x3ca6c971	0.020359727
95	0x3d788ec4	0.060683027
96	0x3da196bc	0.078900784
97	0x3d1f5e23	0.038908135
98	0xbd7261ef	-0.059175428
99	0x3cd3cc3f	0.025854228
100	0x3b926b89	0.0044683856
101	0x3c00cf47	0.007861919
102	0xbd34f1d7	-0.04417595
103	0xbd914cd1	-0.0709473
104	0x3d52cb9b	0.051463705
105	0xbca9e453	-0.020738756
106	0xbd266434	-0.040622905
107	0x3d3aa2d7	0.045565452
108	0xbd37d2be	-0.044878714
109	0xbb96d06a	-0.0046024816
110	0x3d98775f	0.07444643
111	0x3d514a81	0.051096443
112	0x3db0673c	0.086134404
113	0x3bc2788a	0.0059347795
114	0xbd0c59e4	-0.034265414
115	0x3c81a7ff	0.015827177
116	0xbd806b1d	-0.0627043
117	0x3a373a0c	0.00069895457
118	0xbc51e73e	-0.01281148
119	0xbd7d0914	-0.061776236
120	0x3dbe5534	0.09293595
121	0xbdad4a4a	-0.08461435
122	0xbcc68e5a	-0.0242378
123	0x3d6dc107	0.058045413
124	0xbdb4d9c1	-0.08830596
125	0x3d30a72e	0.043128185
126	0x3da56298	0.08075446
127	0x3d2417d3	0.040061783
128	0xbcdd6cd0	-0.027029425
129	0xbcbb9568	-0.02289839
130	0x38a90c92	8.0608894e-05
131	0x3d172c1b	0.036907297
132	0xbd60311a	-0.054734327
133	0x3d3c58d0	0.045983136
134	0xbcbc008d	-0.022949481
135	0x3ca56d82	0.020193819
136	0x3d2901b6	0.041261397
137	0x3c0705f8	0.008241169
138	0xbd368b68	-0.044566542
139	0x3cbe33ef	0.023218123
140	0x3bc2ebed	0.0059485347
141	0x3ce3d192	0.027809892
142	0x3d89c148	0.067263186
143	0x3d6bf39b	0.057605367
144	0xbab2a641	-0.001362987
145	0xbc65fc87	-0.014037258
146	0xbc1b0ce9	-0.009463527
147	0x3c968bcc	0.018377207
148	0xbcdf85f7	-0.02728556
149	0x3d3d5405	0.046222705
150	0x3c1a50d6	0.009418687
151	0xbd9f9d92	-0.07793726
152	0x3d41fc23	0.047359597
153	0xbd191bc9	-0.037380014
154	0xbd7cc44c	-0.06171064
155	0x3d85cf50	0.06533682
156	0xbdb81a10	-0.08989346
157	0x3b254f01	0.0025224092
158	0x3d74bdf2	0.05975146
159	0xbcfcbfc4	-0.03085316
160	0x3a9f0aa3	0.0012133907
161	0xbbf18aaa	-0.0073712664
162	0x3d2a090d	0.041512538
163	0x3d2fe77b	0.042945366
164	0xbdd370af	-0.10324227
165	0x3b550eea	0.003251011
166	0xbd844865	-0.06459121
167	0xbd917d12	-0.071039334
168	0x3c6fb5cd	0.014630747
169	0xbd84586e	-0.06462179
170	0xbdce8f8d	-0.10085974
171	0x3d202fcd	0.039108086
172	0xbd58397e	-0.052789204
173	0x3d95699d	0.07295535
174	0x3c9efacb	0.019406697
175	0x3d83963a	0.06425138
176	0x3dafaee9	0.08578283
177	0x3b36fbe0	0.0027921125
178	0xbd1ead91	-0.038739745
179	0x3cf62efc	0.0300517
180	0xbdb892d0	-0.09012377
181	0x3cce3eba	0.025176395
182	0xbd85f072	-0.06540002
183	0xbd9f2303	-0.0777035
184	0xbcb9dd13	-0.022688424
185	0xbca46788	-0.020068899
186	0x3c6819de	0.0141663235
187	0xbc491a79	-0.012274378
188	0xbda88363	-0.08228185
189	0x3c8ca934	0.017170526
190	0x3d052a86	0.032511257
191	0x3d932233	0.07184257
192	0xbd07a449	-0.03311566
193	0x3cb1de21	0.021712365
194	0x3c35f1bb	0.011104996
195	0xbd4c7146	-0.049912713
196	0x3b0a0e52	0.0021065664
197	0xbd4dcf1c	-0.050246343
198	0x3bfb049c	0.0076604616
199	0xbce3e925	-0.027821133
200	0xbc89e071	-0.016830655
201	0x3caed46f	0.02134153
202	0x3d6cae71	0.057783548
203	0xbc92a544	-0.01790107
204	0x3d774ca5	0.06037583
205	0xbd485fb2	-0.048919387
206	0xbdab3a57	-0.08360737
207	0xbd948235	-0.072513975
208	0x3c251dd8	0.010077916
209	0xbc0245a7	-0.007951177
210	0xbada5f42	-0.0016660469
211	0xbdc86420	-0.09784722
212	0x3c7e15b3	0.015508103
213	0xbd802199	-0.06256408
214	0x3ba16303	0.004925133
215	0x3d04b7f7	0.032402005
216	0xbd90cb17	-0.07069986
217	0x3c6104a1	0.013734014
218	0x3d31d914	0.043419912
219	0xbd2a4fbb	-0.041579943
220	0x3d5ca1ed	0.053865362
221	0x3cf14575	0.029452065
222	0x3d1898cf	0.037255105
223	0x3ccaccae	0.024755802
224	0xbd5404a4	-0.05176224
225	0x3cc00a38	0.023442373
226	0x3d14a442	0.03628946
227	0xbd5037a2	-0.050834306
228	0x3d8f7065	0.070038594
229	0x3c263a44	0.010145728
230	0x3d03af57	0.03214964
231	0x3dabaf56	0.08383052
232	0xbce54143	-0.02798522
233	0x3d9748fd	0.07386968
234	0x3bd49c42	0.006488354
235	0xbcc1cd28	-0.023657396
236	0x3da7315e	0.08163713
237	0xbd55c585	-0.052190322
238	0xbd1a3a82	-0.037653454
239	0xbda00c25	-0.078148164
240	0xbbec6707	-0.0072144303
241	0xbbcd45f5	-0.006264443
242	0xbd2e3361	-0.042529467
243	0x3ceb0e00	0.0286932
244	0xbd2557c0	-0.040366888
245	0xba88b070	-0.0010428559
246	0xbd8796e5	-0.06620578
247	0xbca169ec	-0.019703828
248	0x3b9f8cac	0.0048690643
249	0xbdb5841e	-0.0886309
250	0xbd81f013	-0.06344619
251	0x3d4c1884	0.049828067
252	0x3acf73e8	0.001582739
253	0x3d88c9bd	0.066791035
254	0xbb3169b9	-0.0027071072
255	0x3cf73404	0.03017617

_func._diffusion._model.2.bias f4 [48]
0	0x3d89bc07	0.067253165
1	0x3db0471e	0.086073145
2	0x3dc9ef39	0.09860081
3	0x3da0796f	0.078356616
4	0x3cf1c9c2	0.029515151
5	0x3d52f944	0.05150725
6	0x3d17eed4	0.037093
7	0x3d6d12fb	0.05787943
8	0x3cb60c3d	0.022222633
9	0x3ce841fc	0.028351776
10	0x3de03f27	0.10949545
11	0x3cda7ded	0.026671374
12	0xbd2c980e	-0.0421372
13	0xbc752fb8	-0.01496499
14	0xbd9f45e0	-0.077769995
15	0x3aa04aca	0.001222932
16	0x3bbcdb3f	0.005763441
17	0x3d8c4a28	0.06850082
18	0xbd5f39a9	-0.05449835
19	0xbdd708dc	-0.10499737
20	0xbdbc364f	-0.09190046
21	0xbc2579af	-0.010099812
22	0xbd4d7b68	-0.050166517
23	0xbdd19ea7	-0.10235339
24	0xbcc1abe1	-0.023641529
25	0xbcacb0f4	-0.021080472
26	0x3d6df2a9	0.058092747
27	0xbd917888	-0.07103068
28	0xbcd5618d	-0.026047492
29	0xbd30c7dc	-0.04315935
30	0xbc5e9608	-0.013585575
31	0xbd69354b	-0.05693559
32	0xbddbcd22	-0.10732485
33	0x3dc06f67	0.09396248
34	0x3d9249e1	0.071429975
35	0x3db162a0	0.08661389
36	0x3d2f7c55	0.04284318
37	0x3c26faf9	0.0101916725
38	0x3c95580f	0.018230466
39	0x3b8ebbce	0.004355884
40	0xbcd4d511	-0.025980504
41	0xbd917c56	-0.07103793
42	0x3d3c3fa8	0.045959145
43	0x3d90abfa	0.07064052
44	0x3dc4442f	0.095833175
45	0xbd5e734b	-0.05430917
46	0xbc9083b1	-0.01764092
47	0x3a9d7d61	0.0012015515

_readout.weight f4 [1, 16]
0	0xbdc403e5	-0.09571055
1	0xbe459343	-0.19294457
2	0xbe75dab5	-0.24009211
3	0xbe544313	-0.20728712
4	0x3da2727b	0.07931992
5	0xbdcb9e85	-0.099423446
6	0x3c19f3c2	0.009396495
7	0x3e042196	0.12903437
8	0xbcdf9e2a	-0.027297098
9	0x3d92845a	0.0715415
10	0x3db4d3a3	0.08829429
11	0xbe8a2f48	-0.26989198
12	0xbe722052	-0.23645142
13	0xbb94cea4	-0.004541235
14	0xbd8be717	-0.06831186
15	0x3e151589	0.14558996

_initial._model.0.weight f4 [16, 2]
0	0xb626ebcf	-2.4873186e-06
1	0xbeb1e8a3	-0.347478
2	0xb632c412	-2.6638195e-06
3	0x3f99b612	1.2008688
4	0x34c6c672	3.7024762e-07
5	0xbf373939	-0.7157169
6	0x36bcfe5a	5.632447e-06
7	0xbf11b9e8	-0.56924295
8	0xb68ce51f	-4.1989983e-06
9	0xbea14c17	-0.31503364
10	0x36406896	2.8671107e-06
11	0xbf31d758	-0.69469213
12	0x3643cdff	2.917717e-06
13	0x3f627604	0.8846133
14	0xb5e43b79	-1.7004633e-06
15	0x3faa24fe	1.3292539
16	0x34633ed0	2.1163873e-07
17	0xbf3da1ce	-0.7407502
18	0xb65966fd	-3.2395467e-06
19	0x3f3a1e52	0.72702515
20	0xb681d3c9	-3.8691546e-06
21	0x3df191d9	0.11795396
22	0x36be319a	5.6682156e-06
23	0xbeaee811	-0.34161428
24	0xb6c4738b	-5.854706e-06
25	0xbfb14bc9	-1.3851253
26	0x363b9791	2.7953395e-06
27	0x3eb97f16	0.3622977
28	0x35a137f2	1.2011717e-06
29	0x3f1c417c	0.6103742
30	0xb5de3562	-1.6555825e-06
31	0x3f1cdcb4	0.61274266

_initial._model.0.bias f4 [16]
0	0xbf010feb	-0.50414914
1	0xbcf9a856	-0.030475777
2	0x3d9c4cd9	0.07631845
3	0x3f0bcbf4	0.5460808
4	0xbe7d0084	-0.24707228
5	0x3aebfe47	0.0018004858
6	0xbea4f507	-0.3221819
7	0xbf04ca2e	-0.51871
8	0x3f414133	0.7549011
9	0x3e147e19	0.14501227
10	0xbd964e6f	-0.07339179
11	0xbdfb0b71	-0.12258042
12	0xbe5c920f	-0.21540092
13	0xbeb2145b	-0.34781155
14	0x3d857724	0.06516865
15	0x3ebd4be5	0.36971965

_initial._model.2.weight f4 [16, 16]
0	0xbd1d0077	-0.03833052
1	0xbef7c1e8	-0.48390126
2	0xbc9ee328	-0.019395426
3	0xbd7c72e5	-0.06163301
4	0xbe7c6513	-0.24647932
5	0xbe1d68d8	-0.15372026
6	0xbe1c246a	-0.15248266
7	0xbe43eff6	-0.19134507
8	0xbd366478	-0.04452941
9	0xbe5bb67e	-0.21456334
10	0x3abd7960	0.0014455728
11	0xbe2c3971	-0.16818787
12	0xbe3cf81e	-0.18454024
13	0xbdda70b8	-0.10666031
14	0x3dae9fd8	0.085265815
15	0xbe5412b3	-0.20710258
16	0x3dd03437	0.10166209
17	0x3ebfd8d4	0.37470114
18	0x3ed753b7	0.42056057
19	0x3e8ac926	0.2710659
20	0x3e289a5c	0.16465133
21	0x3ec28e0b	0.37998995
22	0x3e6ebaf3	0.23313503
23	0x3e87c4ba	0.26517278
24	0x3e555243	0.20832162
25	0x3e612862	0.21988061
26	0xbb666a68	-0.0035158638
27	0x3e0e44d8	0.1389345
28	0x3f011536	0.5042299
29	0xbe36c34b	-0.17847936
30	0x3d857b36	0.06517641
31	0x3e900306	0.28127307
32	0xbe8ec6dd	-0.27886096
33	0x3ec1a6ec	0.37822664
34	0x3e059384	0.13044554
35	0x3e1f61dc	0.15564674
36	0xbebe8e89	-0.3721812
37	0x3e17d5d8	0.14827669
38	0x3d8bf196	0.06833188
39	0x3dfa5db9	0.122249074
40	0x3e804334	0.25051272
41	0x3ee2e62e	0.44316238
42	0xbe8a3c49	-0.2699912
43	0xbe885f73	-0.26635322
44	0x3e909fd9	0.28246954
45	0xbcdf7cb9	-0.027281152
46	0x3d890203	0.06689837
47	0x3f07c5e6	0.53036344
48	0x3c723ed3	0.014785486
49	0x3f1a4780	0.6026535
50	0x3e304c63	0.17216639
51	0x3dcdf49c	0.10056421
52	0xbd935da3	-0.07195594
53	0x3db5cb72	0.08876695
54	0x3ea61e26	0.32444876
55	0x3eda6786	0.42657107
56	0x3e386f41	0.1801119
57	0x3dea0010	0.11425793
58	0xbe45069a	-0.192408
59	0x3e32d602	0.1746445
60	0x3e8cb9e2	0.27485567
61	0xbd0e822b	-0.034792107
62	0x3ea39846	0.31952113
63	0x3cae3ca3	0.021269148
64	0xbdde2e22	-0.10848643
65	0x3ee5dcd6	0.44895047
66	0x3e400591	0.18752123
67	0x3e204851	0.15652587
68	0xbd84737c	-0.064673394
69	0x3eab07a5	0.3340427
70	0x3dc1a9bd	0.09456203
71	0x3efc7b44	0.49312794
72	0xbe2182a7	-0.15772496
73	0x3e998be5	0.29989544
74	0xbe46a5f9	-0.19399251
75	0x3dedf0b1	0.11618174
76	0x3f1b5e3c	0.60690665
77	0x3d066dc2	0.032819517
78	0xbd9f4c7d	-0.07778261
79	0xbc798f85	-0.015231972
80	0x3cc9412b	0.024567207
81	0x3f034949	0.512837
82	0xbd7c4202	-0.061586387
83	0x3dbf8516	0.09351556
84	0x3e725b64	0.23667675
85	0x3e5fe8e9	0.21866192
86	0x3e8e30b3	0.2777153
87	0x3eee4fe4	0.46545327
88	0x3da8f334	0.08249512
89	0x3e99edf4	0.30064356
90	0x3e04e29c	0.1297707
91	0xbda183c3	-0.0788646
92	0x3ea19a18	0.31562877
93	0x3e276d19	0.16350211
94	0x3ddeab14	0.10872474
95	0xbd8b565f	-0.06803583
96	0x3e5bda6e	0.21470043
97	0xbb4a3e09	-0.003085973
98	0x3bb2c083	0.005455078
99	0xbdd58559	-0.10425825
100	0x3e9f9fb5	0.31176534
101	0xbdb79fb4	-0.08966008
102	0x3dc0fb20	0.09422898
103	0xbc35ecea	-0.011103848
104	0xbe28a951	-0.16470839
105	0xbed519fa	-0.4162138
106	0x3dbc6a03	0.09199908
107	0x3ecbb281	0.39784625
108	0x3e15734c	0.14594764
109	0xbc2e8db2	-0.0106539
110	0xbd5d4cee	-0.054028444
111	0xbd9b579b	-0.07585069
112	0xbe1fd794	-0.1560958
113	0xbea2ad57	-0.31772873
114	0x3d52dff7	0.05148312
115	0xbe91780c	-0.284119
116	0x3d9bb341	0.07602549
117	0xbe05cc0c	-0.13066119
118	0xbe307809	-0.1723329
119	0xbed28296	-0.41115254
120	0xbe0ae01e	-0.13562056
121	0x3c048748	0.008088894
122	0x3dfead17	0.12435358
123	0xbd1425f5	-0.03616901
124	0xbf198224	-0.59964204
125	0x3d889c75	0.06670467
126	0x3d43e3f0	0.0478248
127	0xbe74c65b	-0.23903792
128	0x3e9d6aba	0.30745488
129	0x3e0a11e6	0.1348339
130	0xbd6a52cc	-0.057207868
131	0x3de72343	0.112860225
132	0x3e1622c6	0.14661703
133	0x3db1f4b4	0.086892515
134	0x3ea661b3	0.32496414
135	0x3f006e10	0.5016794
136	0xbddde080	-0.108338356
137	0x3e5ed631	0.21761395
138	0xbc06be90	-0.008224145
139	0x3e40c062	0.18823388
140	0x3f1cda95	0.6127103
141	0x3e064efb	0.13116066
142	0xbe294622	-0.1653066
143	0x3e64151c	0.22273678
144	0x3e0a525c	0.1350798
145	0xbe69d4a9	-0.2283503
146	0xbe6f4c36	-0.23368916
147	0xbc2dc52c	-0.0106060915
148	0xbe080add	-0.13285394
149	0xbeea5467	-0.4576752
150	0xbe7a8dd2	-0.24468163
151	0xbe92eae7	-0.2869484
152	0xbe598ae9	-0.21244396
153	0xbbcb7863	-0.0062094196
154	0x3e52b952	0.20578507
155	0x3d72df4c	0.059294984
156	0xbf1fcd07	-0.6242222
157	0xbe03a4d4	-0.12855846
158	0xbdf88914	-0.121355206
159	0x3c777fdc	0.015106168
160	0xbdf6a1d7	-0.12042587
161	0x3e083e9b	0.13305132
162	0x3e41d5f6	0.18929276
163	0xbe15a167	-0.14612351
164	0xbd8d27a2	-0.06892325
165	0x3ed416f8	0.41423774
166	0x3e943abd	0.28951064
167	0x3ea8910d	0.32923165
168	0x3c0576f2	0.008146035
169	0x3e7ba470	0.24574447
170	0xbdc6aaa6	-0.09700517
171	0x3e8c87bb	0.27447304
172	0x3e5dc02a	0.21655336
173	0x3e2e99db	0.17050879
174	0xbc970643	-0.018435603
175	0xbd5b86e2	-0.05359543
176	0xbdb6c0ce	-0.08923493
177	0x3e7a4f20	0.24444246
178	0x3e3a8114	0.18213302
179	0x3dd0b240	0.101902485
180	0x3e4e191d	0.20126767
181	0x3eb890a8	0.36047864
182	0x3e4ed1d5	0.20197232
183	0x3dd63d6c	0.10460934
184	0x3e530047	0.20605575
185	0x3d4abeea	0.049498476
186	0xbdab12c7	-0.08353191
187	0x3d9a77f6	0.07542412
188	0x3f167a7f	0.58780664
189	0xbe16fab1	-0.14744069
190	0x3e230214	0.15918761
191	0x3da76fe4	0.08175638
192	0xbd12f0cc	-0.035874173
193	0x3e970513	0.2949606
194	0x3e0c5ff3	0.13708477
195	0xbe3bcff5	-0.18341048
196	0x3da7913b	0.081819974
197	0x3e9f6404	0.31130993
198	0x3ea0daf8	0.3141706
199	0x3eb1610d	0.34644356
200	0x3e4ea67e	0.20180699
201	0x3e6c52f0	0.23078513
202	0xbdacf89e	-0.084458575
203	0xbd9d649b	-0.076852046
204	0x3f0c9d41	0.5492745
205	0x3eaee1ee	0.34156746
206	0x3e5f1ffe	0.21789548
207	0x3e2fb2c6	0.1715804
208	0x3e200be8	0.15629542
209	0x3ebe6832	0.3718887
210	0x3ec294e4	0.3800422
211	0x3e8b553d	0.2721347
212	0xbd95c0cb	-0.07312163
213	0x3eeea090	0.46606874
214	0x3ea38cef	0.3194346
215	0x3d97bd26	0.07409124
216	0x3e2eb16f	0.17059873
217	0x3bff64dd	0.0077940063
218	0xbde21962	-0.11039998
219	0x3dd2708c	0.10275373
220	0x3f1b8289	0.60746056
221	0xbe1e4c4b	-0.15458791
222	0x3e2c94ea	0.16853681
223	0x3e58c062	0.21167138
224	0x3ea200fd	0.3164138
225	0xbe76ec80	-0.24113655
226	0x3e9b51e1	0.30335906
227	0x3e35d236	0.1775597
228	0x3e1c6abd	0.15275092
229	0x3ee3be39	0.44481066
230	0x3e23accc	0.15983886
231	0xbd289e84	-0.041166797
232	0xbd88d648	-0.06681496
233	0xbda40a2d	-0.080097534
234	0xbcd1912e	-0.025581922
235	0x3ed2f796	0.41204518
236	0x3eb705a8	0.35746503
237	0xbd78b248	-0.060716897
238	0xbd936033	-0.07196083
239	0xbe9c1253	-0.3048273
240	0x3a3168bb	0.000676762
241	0xbed2caa9	-0.41170242
242	0xbe6ec807	-0.23318492
243	0x3d875f5a	0.06609984
244	0xbe6e82c4	-0.2329207
245	0xbe4e3f68	-0.20141375
246	0xbe965dff	-0.29368588
247	0xbeceb2f5	-0.40370908
248	0xbe21764c	-0.15767783
249	0xbe06b006	-0.13153085
250	0xbca2126b	-0.019784173
251	0xbe5131fe	-0.20429227
252	0xbeeb78ff	-0.4599075
253	0xbe6d70d7	-0.23187576
254	0xbb159cbe	-0.0022829021
255	0xbda97471	-0.082741626

_initial._model.2.bias f4 [16]
0	0x3eac8c25	0.33700672
1	0x3ddcb0c0	0.107759
2	0x3ea1e8cb	0.3162292
3	0xbc9b07e9	-0.01892467
4	0xbe5e2054	-0.2169202
5	0x3de86590	0.113474965
6	0xbeae358f	-0.34025237
7	0x3ce534a3	0.0279792
8	0xbe7b4a89	-0.24540152
9	0xbe68e4a7	-0.22743474
10	0x3dd48fb8	0.10378975
11	0x3e4450f2	0.19171503
12	0xbda311ea	-0.07962401
13	0x3d311151	0.043229405
14	0xbe955723	-0.29168043
15	0x3e19a434	0.15004045
