hyperparameter_tuning/ray_results/SUD_learning_rate_tuning/MyTrainableClass_248477a1_5_batch_size=16,name=SUD_v2,patience=1000,steps=200,steps_per_print=5,swa_step_start=2500,t_size=7,train_2024-03-12_14-35-21/checkpoint_000000/checkpoint.pt (torch, 61346 bytes, 66 tensors)

_initial._model.0.weight f4 [16, 5]
000000 60 5e 54 bf 16 db 06 c0 7e e4 b8 bf b0 46 91 bf
       -0.82956505 -2.107122 -1.444473 -1.1349697
000010 57 c6 31 c0 83 63 e0 bf 0e 6b 5b c0 16 fc 71 c0
       -2.7777307 -1.7530369 -3.428409 -3.781011
000020 eb 16 51 c0 68 25 21 40 5e 56 39 40 40 e4 20 c0
       -3.2670238 2.517908 2.8958964 -2.5139313
000030 46 43 52 40 66 20 63 c0 34 4f ff 3f a3 f9 81 3f
       3.285356 -3.5488524 1.9946046 1.0154308
000040 21 43 4b 40 73 35 14 c0 de 1e 4b 40 47 80 65 3e
       3.1759722 -2.3157623 3.173759 0.22412215
000050 89 6b 2f 40 be 57 8b bf 4e 06 59 be 8a 7e 1c c0
       2.7409384 -1.0886152 -0.21193811 -2.4452233
000060 43 2f af 3f 2e 3d 2d c0 a1 80 87 bf 9f aa 3e c0
       1.3686298 -2.706859 -1.058613 -2.979164
000070 dc 87 d3 bf 35 a3 f7 3d 14 0f 4f c0 e2 00 47 3f
       -1.6525836 0.12091676 -3.2352953 0.7773572
000080 d3 5b 27 c0 20 ad b6 bd 7d 44 65 bf 09 6a 5c bf
       -2.6149795 -0.0891974 -0.8955763 -0.86099297
000090 5f 71 51 bf bf a6 ca 3f 42 cc 1d 3f 65 c5 02 40
       -0.81813616 1.5832137 0.616398 2.043298
0000a0 32 88 0b bf d5 3b 68 c0 0a 81 5c c0 34 c8 6c 40
       -0.5450469 -3.6286519 -3.445376 3.6997194
0000b0 6b 0c 5c c0 76 f8 26 40 83 75 22 3f f3 6d cb 3f
       -3.438258 2.6089149 0.6346056 1.5892929
0000c0 90 63 df 3f 18 fd fd be a9 8f 3b 40 8c 98 fa 3d
       1.7452259 -0.49607158 2.9306433 0.12236127
0000d0 af 4c f1 bf 8f 97 1f bf 16 46 c0 bf 4e 13 87 3f
       -1.8851527 -0.62340635 -1.5021389 1.0552766
0000e0 e3 aa 2c c0 5b e9 61 c0 c5 1f 64 40 6f c9 43 3f
       -2.69793 -3.529868 3.564439 0.7647924
0000f0 c0 c7 86 3e 98 7c 9b 3f ed 1f 12 40 f0 d9 40 be
       0.26324272 1.2147398 2.2831986 -0.18833137
000100 ed 09 24 40 0b 23 78 c0 12 94 f4 bf 47 0c 20 bf
       2.5631058 -3.8771389 -1.9107687 -0.62518734
000110 6e 48 e6 3f 0b 7e 18 c0 dd 8a 3c 40 97 a4 4f 40
       1.7990854 -2.382693 2.9459755 3.2444208
000120 79 5c 42 40 82 4d 77 c0 34 b8 55 c0 7a b3 83 bf
       3.036894 -3.8641057 -3.3393679 -1.0289147
000130 f3 9b f1 3e ca c3 49 40 58 75 41 3f e6 2b 5a 40
       0.47189292 3.152575 0.7556968 3.4089293

_initial._model.0.bias f4 [16]
000000 09 99 f6 3f e0 86 5c c0 54 88 c4 bf 8e 0a 48 3f
       1.9265453 -3.445732 -1.5354104 0.78141105
000010 12 f2 d3 3e 1b d4 60 c0 95 76 d0 bf 26 17 1e 40
       0.41395622 -3.512946 -1.6286188 2.4701629
000020 8a 43 e8 3f 4a ba 47 bf 55 44 60 c0 b1 21 64 40
       1.8145611 -0.7801863 -3.5041707 3.5645564
000030 0a d2 03 c0 26 fd a4 3f f9 71 19 bf 56 ab 42 3e
       -2.0596948 1.2889755 -0.59939533 0.19010672

_initial._model.2.weight f4 [16, 16]
000000 89 38 60 be d8 2f a0 be 11 0e 3a 3d a1 49 c3 bf
       -0.21896566 -0.31286502 0.04542357 -1.5256845
000010 88 77 fa 3f 19 6b d2 bf 06 33 30 3f 9d 4f 2e 3e
       1.9567728 -1.6438934 0.68827856 0.17022558
000020 94 f2 4d bf 20 45 df 3f a5 b9 9b be 1d f2 bf bf
       -0.8044827 1.744297 -0.30415073 -1.4995762
000030 96 9b 20 3f 6f 8e 2b bf 45 03 d2 3f 4e ca 04 c0
       0.62737405 -0.6701421 1.6407248 -2.0748477
000040 15 b7 93 3f c9 f0 04 bf 44 74 19 c0 11 e5 06 40
       1.1540247 -0.5192991 -2.3977213 2.107731
000050 c7 80 be 3f d5 5b 1f 3f 27 c9 63 3f 80 d8 dd bf
       1.488305 0.622495 0.8897881 -1.7331696
000060 97 f7 13 40 ed 55 f2 b8 52 b8 ef be f1 5c 03 c0
       2.3119867 -0.00011555464 -0.46820313 -2.0525477
000070 2d 7c b3 bf 75 16 c9 be 56 2a 6a bf 4e da 95 3f
       -1.402227 -0.39274946 -0.9147085 1.1707246
000080 8a b8 34 bd 14 59 d9 3f 32 7c 0d 3f 51 8c 74 bf
       -0.044121303 1.698031 0.5526763 -0.95526606
000090 72 3b 6a 3f 67 7c 15 40 54 ee 39 bf 31 23 51 bf
       0.91496956 2.335718 -0.72629285 -0.8169432
0000a0 00 72 69 be 77 5d 49 3f f0 60 ae bf a4 df 54 be
       -0.22797394 0.7865824 -1.3623333 -0.20788437
0000b0 2c 9a a6 bf 2e 1f c2 3f 2c 08 00 bf 88 ad be 3f
       -1.30158 1.5165765 -0.5001247 1.4896708
0000c0 18 42 c5 be a6 c5 f8 bf 72 65 80 3f 44 74 98 bf
       -0.38526988 -1.9435318 1.0030959 -1.1910481
0000d0 5f 07 f3 bf fb a6 13 40 ee a3 ec be 5c 21 93 3e
       -1.8986624 2.3070667 -0.46218818 0.2873639
0000e0 c4 70 c6 bf cb ac 02 c0 48 31 b5 3f 51 5a 43 bf
       -1.5503163 -2.0417964 1.4155664 -0.76309687
0000f0 c5 51 5c 3f 1a e2 3e 3f 52 ac 75 3f e0 76 0f c0
       0.8606227 0.74563754 0.95966065 -2.2416306
000100 33 d6 20 bf ea 7b 02 3f 35 a2 d5 bf e0 76 f7 3f
       -0.6282684 0.5097033 -1.6690127 1.9333153
000110 f8 e6 b2 3f 6b cb 0d c0 76 9d e2 3f b7 9d 4b 3f
       1.3976736 -2.2155406 1.7704303 0.7953753
000120 56 e2 ce 3f 4e cd bb 3f 9c cc 93 3f 66 81 5f 3f
       1.6162822 1.4672029 1.1546817 0.8730682
000130 f6 cb b2 3f 52 cf 46 bf d5 72 a5 3f 32 bf e7 bf
       1.3968494 -0.77660096 1.2925669 -1.8105223
000140 28 33 2a bf 39 c1 0c 3f ec e0 01 c0 61 b9 1b 40
       -0.6648431 0.54982334 -2.0293531 2.4331896
000150 45 3c 8b bf 6c c6 ab bf 8d 98 d0 bf 90 ad 09 bf
       -1.0877768 -1.3419929 -1.6296555 -0.5378046
000160 eb 71 b3 bf d9 35 01 40 4f a2 dd 3e 9e 29 e7 3f
       -1.401914 2.0189116 0.43287894 1.8059576
000170 c6 3b bf 3e 45 fb ee bf 43 80 4e 3f 0f 8a 5a bc
       0.3735029 -1.8670431 0.8066446 -0.01333858
000180 04 43 aa bd 6e 44 04 bf 6a b8 74 3e ac 41 ec 3e
       -0.083135635 -0.51666915 0.23898473 0.46143854
000190 d0 5f 4e 3f 60 fc ba bd bf 5c 84 3f e2 34 15 3f
       0.8061495 -0.09130168 1.0340804 0.5828382
0001a0 b8 e0 d6 3f 01 8f 20 bd c8 22 27 bf 59 e8 9c bf
       1.6787329 -0.03919888 -0.65287447 -1.2258407
0001b0 80 02 f5 3f f2 d2 8a 3f fc 80 d0 3f 3d 08 5b 3f
       1.9141388 1.0845625 1.6289363 0.85559446
0001c0 d0 ff 71 bd 3e 5e 11 c0 af 61 ac bf 4f ec b5 be
       -0.059081852 -2.271377 -1.3467311 -0.35531852
0001d0 56 e6 7f 3f 67 d7 07 c0 f9 e0 14 c0 cb 7d d5 3f
       0.9996084 -2.122522 -2.3262312 1.6679014
0001e0 a8 c5 ac bf 7a 32 af 3e c2 c3 1a 3f f1 f6 91 3f
       -1.349782 0.34218198 0.6045495 1.1403486
0001f0 60 ed 1e 3d 4b e9 96 bf 11 14 cb be 8f 85 2a bf
       0.038800597 -1.1789945 -0.39663747 -0.66610044
000200 e1 53 b2 3f 98 f3 26 3f ec de 95 3e 4a be be 3f
       1.3931848 0.65215445 0.29271638 1.4901822
000210 4a f4 15 c0 70 cb 20 be 41 e8 20 3f 18 94 ec 3e
       -2.3430352 -0.15702605 0.6285439 0.46206737
000220 db 4a a3 bf 16 6f e9 bf 36 ce e8 be 7c a8 61 be
       -1.2757219 -1.8237026 -0.45469826 -0.22036928
000230 ee 63 d7 bf 1f cb 9a 3e 27 a9 6c 3f cf 53 13 3f
       -1.6827371 0.30233094 0.92445606 0.57549757
000240 ba 4d 8b 3f 29 32 10 3e a4 b8 07 40 b1 86 91 3f
       1.0883095 0.14081635 2.1206446 1.136923
000250 e8 eb 6b bf 9b 86 0f c0 e3 0b 4c be 68 3f 34 3f
       -0.9215684 -2.2425907 -0.1992641 0.7040925
000260 7c 2a fa 3f 81 3a 15 bf 25 92 f2 3c e5 87 56 bf
       1.9544215 -0.58292395 0.029610703 -0.8380111
000270 30 fc 3d 3f c3 28 2f 3e 23 44 09 3f 2b 83 bc bf
       0.7421293 0.17105393 0.53619593 -1.4727529
000280 3e da 92 3f 5b f4 10 c0 a9 77 9a 3f 75 b6 c1 be
       1.1472852 -2.2649143 1.2067767 -0.37834516
000290 46 f3 ad bf d3 93 7c 3f 32 ed 9f bf 17 21 f8 3f
       -1.3589866 0.9866306 -1.2494261 1.9385098
0002a0 93 f9 fa 3f 04 dc ef bf ae 8b e2 bf e6 47 43 3f
       1.9607414 -1.8739018 -1.7698877 0.76281583
0002b0 89 66 c2 bf 9e 20 a6 bf d1 1d 83 3f 6c 67 f1 3f
       -1.5187541 -1.2978704 1.0243474 1.8859687
0002c0 cd 4b 15 3e ab 9e bd bf 7a 2d 72 3f e7 04 a3 bd
       0.14579697 -1.4814047 0.9460064 -0.079599194
0002d0 8f 10 d0 bf d5 12 11 40 c5 ac b1 bf 61 d4 10 bf
       -1.6255053 2.2667744 -1.388085 -0.56574064
0002e0 01 c0 01 3f c1 4f 84 bf 6e ac 21 bf 64 a4 59 3f
       0.506836 -1.0336839 -0.6315373 0.85016465
0002f0 a8 37 d9 be c5 07 66 3d 15 af 96 3f 76 e5 8d 3f
       -0.42425275 0.056159753 1.1772181 1.1085651
000300 49 45 94 bf b6 9c e0 bf 87 cc ee 3f 16 ce 8c 3d
       -1.1583644 -1.7547824 1.8656167 0.06875245
000310 61 94 be bf a2 c9 f8 bf 8b c7 a7 bf dd a8 04 be
       -1.4889032 -1.9436533 -1.3107771 -0.12955041
000320 b4 17 bd be 5d cd 4d bf 52 51 01 40 77 bb 12 40
       -0.36932147 -0.80391484 2.0205884 2.292692
000330 a3 e5 da 3f 1e 21 fa bf c0 7f b0 bf b6 dc c6 3f
       1.710133 -1.9541357 -1.3788986 1.5536106
000340 5a 2a 51 bf f2 a9 cc bd d9 0f 48 bf 79 e7 f6 3f
       -0.8170525 -0.09993352 -0.7814918 1.928939
000350 cc f1 10 40 0c 6f b0 3f 22 f9 e7 3f 8c d5 cd bf
       2.264758 1.3783889 1.8122904 -1.6080794
000360 bd a3 ef 3f 2e 69 aa 3d c4 63 08 c0 91 ce d5 bd
       1.8721844 0.08320843 -2.1310892 -0.1043979
000370 2f d6 ca 3f ef c2 3b bf 4f 4e 05 bf 53 1c 28 bf
       1.5846614 -0.7334432 -0.52072614 -0.6566822
000380 01 64 85 bf e4 a0 be 3f f0 b5 98 3f 27 63 b0 3c
       -1.0421144 1.489285 1.1930523 0.021531655
000390 9c 0e dd 3f 2d ae 2b 3f e4 fb 6f bf 80 c9 d3 bf
       1.7270083 0.67062646 -0.9374373 -1.6545868
0003a0 cd 99 8d 3e 72 c5 42 bf 4d 16 20 bf e3 b9 a8 3f
       0.27656403 -0.7608253 -0.6253403 1.3181728
0003b0 12 7e b0 3f 4e 81 e1 be 21 13 23 bf 7a 5b 46 3f
       1.3788474 -0.44043964 -0.63701063 0.7748333
0003c0 22 d1 8f 3e 9a ba 35 3f 90 7a 63 3f 1d 45 b6 3f
       0.28089243 0.70987856 0.8885889 1.4239842
0003d0 20 bc ef bf 9d 04 9a 3d 56 d8 1d 3f d5 57 d3 3e
       -1.8729286 0.07520411 0.6165823 0.41277948
0003e0 ef b8 3e bf 9e a0 eb bf 12 bc fb 3f 6f 06 d5 bf
       -0.74500936 -1.8408391 1.966677 -1.6642588
0003f0 2c 33 a0 3f 41 bc 0e c0 1c e2 01 3f 41 92 e1 3f
       1.2515616 -2.23024 0.5073564 1.7622758

_initial._model.2.bias f4 [16]
000000 5f f8 06 3f 53 92 a5 be 42 49 1b 40 0c 21 9c bf
       0.52722734 -0.323382 2.4263463 -1.2197585
000010 ae f3 19 c0 e9 75 33 3e 44 8e 92 bf 87 89 67 bf
       -2.405498 0.17525448 -1.1449666 -0.90444225
000020 73 2d e4 3f cb c7 f9 ba 14 1a 0c c0 39 5d 28 bf
       1.782637 -0.0019056735 -2.1890917 -0.65767246
000030 7c 0d af bf 79 6c 11 c0 e4 aa 60 3f 84 b5 09 c0
       -1.367599 -2.2722456 0.8776076 -2.1517038

_func._drift._model.0.weight f4 [16, 17]
000000 eb 81 34 3a c9 ce b3 bb 9f 1a a2 3b b7 2a aa b9
       0.00068858144 -0.005487297 0.004947021 -0.00032456752
000010 2e 0f ef 3a 58 73 92 3a 3f 36 38 bb 7a a3 e1 39
       0.0018238777 0.0011173291 -0.0028108505 0.00043037144
000020 8c c3 e9 3a 72 85 ae bb 35 12 94 bb f7 f2 8f bb
       0.0017834767 -0.0053259665 -0.004518772 -0.0043929773
000030 57 c4 96 b9 ec 20 3b bb 7b c8 b1 bb 4d 64 ac 3b
       -0.00028756514 -0.0028553559 -0.0054255105 0.00526098
000040 77 52 98 3b e1 c5 05 bb a5 96 86 bb 28 07 33 3b
       0.0046485025 -0.0020412134 -0.0041073137 0.0027317498
000050 79 77 81 ba 05 25 52 bb 94 89 ad bb 1c 47 43 38
       -0.0009877525 -0.0032065522 -0.0052959416 4.655785e-05
000060 5a 70 40 bb 4b 3d c5 3a fa a0 c1 3a 4b 29 36 ba
       -0.0029363842 0.0015048174 0.0014772706 -0.0006948902
000070 04 72 bf 3b bf d4 93 ba 2d 52 ba 3b 30 b8 e2 3a
       0.005842449 -0.0011278613 0.0056860656 0.0017297324
000080 a7 f2 e1 3a 5f 43 9d 3b 54 0b ff ba cb 20 b2 3b
       0.0017238454 0.004799291 -0.0019458332 0.005436038
000090 64 8a 2a 3b 47 24 d7 ba 3a 17 30 3b 3f d0 b8 bb
       0.0026022429 -0.001641401 0.0026869313 -0.0056400592
0000a0 2d 77 3f 3a e2 c6 a7 ba ed bc 9c ba 30 2d 99 bb
       0.00073038304 -0.001280036 -0.001195816 -0.004674576
0000b0 87 fe 3e 3b 6d 02 06 3b 75 ab 1f bb 53 36 97 3b
       0.002914341 0.0020448223 -0.002436367 0.0046146302
0000c0 87 d3 91 ba 29 e7 13 b9 9a 10 66 bb 44 d1 f3 3a
       -0.0011125662 -0.00014105126 -0.003510511 0.0018601795
0000d0 c1 95 0a 3b 6a ac 86 3a fa 72 c3 39 dd fe ba bb
       0.002114639 0.0010274772 0.00037278963 -0.0057066516
0000e0 1e 8a a1 3b 5f 23 73 b9 bc d6 62 3b b7 89 6b 3b
       0.004929795 -0.00023187463 0.0034612855 0.0035940239
0000f0 ac 1e a7 bb 27 23 7f 3b 90 5a 82 bb 0e 6e f2 3a
       -0.005100092 0.0038930865 -0.003978081 0.0018495934
000100 90 c0 a5 3b 57 28 a5 3b 8f 7d ee 3a 39 92 aa bb
       0.0050583556 0.0050402093 0.0018195378 -0.0052054194
000110 b4 b8 4c 3b 7f 00 67 bb e1 49 1a 3b 95 04 b4 bb
       0.0031238021 -0.0035248098 0.002354257 -0.0054937103
000120 61 86 1f bb 2e 45 92 bb 86 65 94 ba 3a 1a 03 bb
       -0.002434157 -0.0044638133 -0.001132176 -0.0020004646
000130 04 c6 b9 bb d8 e4 bb bb 4c 98 4d 3a 08 06 51 3a
       -0.0056693573 -0.0057340674 0.00078428234 0.0007973616
000140 ad 0d 17 bb 69 2b 4b bb 42 ad 92 bb 23 ea 69 bb
       -0.0023048923 -0.0031001216 -0.0044762203 -0.0035692535
000150 3f 68 13 bb d8 60 1e bb 3f 02 73 3b f9 c7 c6 3a
       -0.0022492555 -0.002416661 0.0037080196 0.0015165798
000160 ed e2 9d 3b e9 d1 9e bb 36 ac 07 3b 78 94 af 3a
       0.0048183114 -0.0048468006 0.002070201 0.0013395688
000170 50 2e 9b bb 29 33 4d 3b a8 b5 24 bb cb 33 18 bb
       -0.0047357455 0.0031311011 -0.002513269 -0.002322423
000180 c7 2b 06 3b b3 22 b3 3a 53 90 a5 39 bd 20 ac 3b
       0.002047287 0.0013666957 0.00031578782 0.005252926
000190 b9 17 db ba c0 ab 6a bb 93 80 bf bb e4 95 a3 3a
       -0.0016715444 -0.0035807937 -0.0058441847 0.0012480584
0001a0 0c ac 94 bb 3a d4 9b 3b 96 3a e3 3a 44 a5 b5 ba
       -0.004537111 0.004755524 0.0017336186 -0.0013858457
0001b0 35 41 75 3b f3 7d a7 3b 48 cc 8c 3b 89 b7 13 bb
       0.00374229 0.00511145 0.004296813 -0.0022539815
0001c0 93 43 09 3a d2 c7 4b bb ec 83 6e 3b 43 13 b5 3b
       0.00052362046 -0.0031094444 0.003639455 0.005525978
0001d0 a8 0b 31 b9 cb 56 7d 3b 0d 89 01 3b d5 f0 3b 3b
       -0.00016884378 0.003865647 0.0019765527 0.0028677483
0001e0 d8 06 8f bb 78 6a 84 bb 3c b3 a3 bb 41 a8 b7 3b
       -0.0043648295 -0.0040410124 -0.0049957316 0.005604774
0001f0 60 b9 1c 3b 24 95 8d 3b 58 6d 84 3b 00 b1 9a 3b
       0.0023914203 0.0043207575 0.004041355 0.004720807
000200 8b 63 ba ba 49 bb ba bb a9 5b 3a 3a 4d 83 1d bb
       -0.001422034 -0.0056985957 0.00071089953 -0.002403456
000210 34 32 21 3b 5e fd 24 3b f1 7d 14 3a 17 f0 b7 bb
       0.0024596574 0.0025175433 0.00056645187 -0.0056133377
000220 f5 ee ce 3a e9 ab 52 bb 76 8d 30 bb 3c 1f 93 3b
       0.0015787767 -0.0032145923 -0.0026939786 0.0044898074
000230 4a dd 45 bb 6a 8e f3 3a 4d 61 dc ba 4e 90 77 39
       -0.0030191713 0.0018581871 -0.0016813666 0.00023609513
000240 88 d6 32 bb 25 d4 0a bb 83 73 a3 3b 91 fd 51 3b
       -0.0027288515 -0.0021183577 0.0049881353 0.0032042006
000250 4f 00 a3 bb 75 23 ab 3b e2 ac 66 bb b1 55 77 bb
       -0.004974402 0.0052227327 -0.003519826 -0.0037740285
000260 db 60 aa bb 1c 3b b0 b9 0e 5f 2f bb c8 4a bb bb
       -0.0051995344 -0.00033613376 -0.0026759538 -0.0057157017
000270 39 50 23 3b 49 d5 bb ba 9e bb 13 3b fa 3d 92 bb
       0.0024919643 -0.0014330532 0.0022542248 -0.0044629546
000280 b3 c7 73 bb 0b 31 5c bb a5 17 c9 b9 ae 02 a9 bb
       -0.0037197887 -0.0033598568 -0.00038355324 -0.00515779
000290 5e f9 87 3a b1 fb 4d b8 53 52 9c 3b c9 de af b9
       0.0010374 -4.9110215e-05 0.004770556 -0.0003354459
0002a0 8f 4e a6 3b af 44 44 3b 25 7b 98 36 7a 9d 7d b9
       0.005075283 0.0029948165 4.544289e-06 -0.00024186625
0002b0 63 06 e3 39 a3 75 03 3a b1 b5 bb ba b2 27 67 bb
       0.00043301572 0.00050147827 -0.0014321116 -0.0035271463
0002c0 d1 03 3a ba 50 85 47 bb a3 35 b8 ba e7 c0 9b bb
       -0.00070959056 -0.003044445 -0.0014054071 -0.0047532204
0002d0 63 bf 98 3b c3 37 33 3b 24 ff dc ba 49 3d ff ba
       0.004661487 0.002734647 -0.0016860706 -0.001947322
0002e0 3f e5 b6 3b d8 18 b2 bb 1d 78 b8 bb 0c e9 97 ba
       0.0055815275 -0.0054350905 -0.005629553 -0.0011589839
0002f0 46 2c ca 3a 58 44 92 bb 2a f8 70 3b 5d 39 d4 ba
       0.0015424571 -0.0044637136 0.003676901 -0.0016191412
000300 16 98 90 3b 7a d4 7d 3b 38 51 86 bb 3d f9 52 3b
       0.0044126613 0.0038731382 -0.0040990375 0.0032192015
000310 3f 98 40 3b 30 9b 6c ba eb 64 86 3b b7 d5 9e bb
       0.002938762 -0.000902581 0.004101386 -0.004847254
000320 80 7b a9 3a 61 8e b6 ba 78 3a b0 b8 94 78 11 bb
       0.0012930483 -0.001392793 -8.403225e-05 -0.0022197114
000330 46 87 23 bb 9d 3a 7f 3b 34 4e 5f 3b 7d 26 87 3b
       -0.0024952455 0.0038944848 0.0034073712 0.004124461
000340 57 5f 94 bb 6e 59 3b 3a ef f7 c4 39 07 39 8a bb
       -0.004527967 0.000714681 0.00037568758 -0.004218224
000350 d5 b1 71 3b 55 6d f3 ba 6e 17 49 bb 11 93 83 b9
       0.0036879678 -0.0018572012 -0.0030684131 -0.0002509584
000360 5e 82 32 3b d3 05 e1 3a 73 84 99 3b 28 e0 0f 3a
       0.002723835 0.0017167873 0.0046849786 0.0005488419
000370 74 a4 a0 bb 43 72 09 bb 6d cb 5d ba 42 aa aa 3b
       -0.004902417 -0.0020972646 -0.0008460794 0.0052082846
000380 09 1c 2b 3b 9f 92 d1 3a 18 29 9c bb 4a 73 2a bb
       0.002610924 0.0015989131 -0.004765641 -0.002600866
000390 09 b9 19 3b 5f 6e 4f bb 8c ad 08 bb 09 db b6 3b
       0.0023456237 -0.003165148 -0.0020855395 0.0055803102
0003a0 a3 13 a0 3a 5e 9a 24 3b 55 d6 73 3b 11 d1 b5 bb
       0.0012212883 0.0025116424 0.003720661 -0.0055486043
0003b0 0f 75 d6 3a 83 00 8f bb 4f 85 ec ba 57 d9 37 3b
       0.001636179 -0.0043640747 -0.00180451 0.0028053129
0003c0 bc 31 b7 bb 30 d1 86 3b 8c f7 eb 3a df 3e 65 3b
       -0.0055906456 0.0041142926 0.0018002852 0.00349801
0003d0 47 b5 2d 3b c0 78 22 3b 42 c5 1d b9 42 89 b2 3b
       0.0026505755 0.002479121 -0.00015046171 0.0054484913
0003e0 45 1e 4d bb a2 f8 26 ba c9 ac a2 ba 68 62 d1 3a
       -0.003129856 -0.00063694466 -0.0012411113 0.0015974762
0003f0 c9 b9 3e 3b 3e 01 68 3b 56 d0 34 3b d6 8d 82 bb
       0.0029102436 0.003540113 0.0027589998 -0.0039841933

_func._drift._model.0.bias f4 [16]
000000 1f 7f b7 3b 8d 4e c7 b9 b5 ac 19 3b 17 53 0f 3b
       0.005599871 -0.00038014763 0.0023448889 0.0021869594
000010 d1 97 c9 b7 0b 41 16 bb 01 11 82 3b cd a7 ae bb
       -2.4031762e-05 -0.0022926952 0.003969312 -0.005330062
000020 69 ea ac bb 97 b4 a9 bb 31 14 0c bb d8 24 ad 3a
       -0.0052769673 -0.0051789987 -0.002137434 0.0013209833
000030 92 85 ad b9 8b 41 fa 38 70 06 99 3b af 08 9a bb
       -0.0003309665 0.00011933137 0.004669957 -0.004700742

_func._drift._model.2.weight f4 [16, 16]
000000 7d dd 24 bb e0 cf 12 3b 40 3f b2 bb 12 ee c3 bb
       -0.0025156431 0.0022401735 -0.005439669 -0.005979308
000010 02 9e 7a bb 16 c4 bb bb 79 41 07 bb d5 1d b4 bb
       -0.0038241153 -0.0057301624 -0.002063839 -0.0054967203
000020 98 10 36 ba c6 f0 50 3b a1 54 a2 bb a6 2a bd bb
       -0.00069452217 0.0031881793 -0.004953936 -0.0057729064
000030 3e f2 63 3b 71 65 01 bb 9d aa 20 3b a0 8b 30 3b
       0.0034781839 -0.0019744302 0.0024515756 0.0026938692
000040 e5 30 ab ba 90 91 d2 b9 58 13 a5 b8 b3 db 9b bb
       -0.0013060836 -0.00040162774 -7.871416e-05 -0.004756415
000050 4b 88 b3 3b 95 db 9c b9 ab 19 0c 3b 13 5b 7b 3a
       0.005478894 -0.0002991824 0.0021377604 0.0009588461
000060 7d 4e a4 3b db 74 9d bb 40 cc 81 bb 97 b2 15 b9
       0.0050142393 -0.00480519 -0.003961116 -0.00014276277
000070 dd 7a 1a bb 1f 38 07 3b c5 ba b0 3b b6 67 ac b9
       -0.0023571767 0.0020632816 0.0053933584 -0.00032883667
000080 9b f1 a9 bb 7c 29 a4 3b c2 bc c4 ba 6b 95 fd 3a
       -0.0051862723 0.005009828 -0.0015009867 0.0019346898
000090 43 6d 00 bb 54 4e b0 3b 29 9e 61 bb 01 e0 45 3a
       -0.0019596375 0.005380431 -0.0034426546 0.0007548333
0000a0 f5 e1 31 3b 3b 80 a2 bb f3 46 de 3a 70 5a 64 bb
       0.0027142738 -0.004959134 0.00169584 -0.0034843944
0000b0 80 01 ae 3b 41 df a0 3b 80 c0 f8 3a 58 04 41 bb
       0.0053102374 0.0049094264 0.0018978268 -0.0029452052
0000c0 04 01 66 39 c6 86 a8 3b ca a1 77 3b e1 71 3a bb
       0.00021934888 0.0051430194 0.0037785643 -0.0028449225
0000d0 05 44 55 bb 5c f6 c4 ba 75 3e df ba f9 4f 3f bb
       -0.0032541764 -0.0015027034 -0.0017032163 -0.0029191955
0000e0 16 55 c1 bb 3b 6f 64 38 98 1a ad 3a 46 c0 8b bb
       -0.0059000356 5.4463027e-05 0.0013206778 -0.004264864
0000f0 21 2e 4a 3b 53 d8 2b bb 24 eb 70 3b ea 94 2f bb
       0.003085025 -0.0026221469 0.0036761248 -0.002679164
000100 fe 42 b3 3b 22 59 64 bb 4d f3 a6 3a 55 ce dd 3a
       0.0054706326 -0.0034843166 0.0012737304 0.0016922454
000110 20 99 90 3b 45 cb 42 3b c7 ed 9b bb 0c 3d 87 ba
       0.004412785 0.002972321 -0.00475857 -0.0010317876
000120 20 51 9d b9 e1 6d 53 3b 4b 6f 58 bb 10 5f 4e 3b
       -0.00030005816 0.0032261538 -0.003302532 0.0031489767
000130 18 b2 7d bb 6d f0 1a 3b f1 5d 8c bb 4a 78 bb 3a
       -0.0038710888 0.002364184 -0.0042836596 0.0014302817
000140 59 5a d2 b7 02 74 92 3b 89 60 36 bb ce ba cb 3a
       -2.5076022e-05 0.0044693956 -0.0027828536 0.0015543343
000150 fb be 8a bb bf de 3a bb 5d 56 56 3b 7e e5 ac 3a
       -0.0042341924 -0.0028514115 0.0032705285 0.0013190953
000160 e5 d6 9a 3b 62 16 31 3b d3 3a 72 3b c9 f1 46 bb
       0.0047253245 0.0027021398 0.0036961331 -0.0030356518
000170 db d6 16 3a a5 9f b2 bb 3f d2 e6 3a 82 98 8c ba
       0.0005754062 -0.00545116 0.0017610266 -0.0010726603
000180 ad 7b 10 3b 7d f3 07 bb 55 e1 d8 ba 66 04 6a 3b
       0.0022046373 -0.0020744496 -0.0016546646 0.0035708188
000190 cc a1 66 3b 92 fd ac 3b 1c 33 bb bb 95 22 08 bb
       0.0035191653 0.0052792514 -0.00571288 -0.0020772566
0001a0 bb 04 aa bb dd 6f 9b 3a 7b 3b ab 3b 6d c8 ea ba
       -0.005188552 0.0011858899 0.0052255965 -0.0017912515
0001b0 d2 dc 1e ba ab 41 e3 ba cb ff 06 bb 31 12 d9 3a
       -0.00060601265 -0.0017338296 -0.0020599242 0.0016561208
0001c0 d5 5c 84 3b 4a b8 7f bb 06 3d 9e 3b f4 c9 93 3b
       0.0040393868 -0.0039019757 0.004829052 0.0045101587
0001d0 21 7c 7a b9 51 e6 87 bb 4b c6 99 bb ac 35 88 ba
       -0.000238881 -0.004147329 -0.004692828 -0.0010391972
0001e0 2d 43 8c b9 21 d5 97 bb 5f bf b8 bb f9 cd f0 3a
       -0.0002675293 -0.0046335612 -0.0056380476 0.0018371932
0001f0 0d b5 fb 39 a1 61 88 3b cf eb 97 3a 99 fd 17 3b
       0.00048009344 0.004162029 0.0011590662 0.0023191927
000200 e8 6c 26 3a c5 15 24 3b 4c a7 30 bb 44 84 f6 37
       0.0006348626 0.002503739 -0.0026955185 2.9387076e-05
000210 7a 6a 51 3b c5 c4 00 3b 3b 22 38 3b 12 30 ab bb
       0.0031954334 0.0019648534 0.0028096575 -0.0052242363
000220 9c ce 29 b8 6a 57 4b bb 19 0a ba ba 42 5e 30 3b
       -4.048516e-05 -0.0031027445 -0.0014193683 0.002691165
000230 8c 73 9e ba 7c a8 3a bb 6c f3 05 b9 93 e5 76 bb
       -0.0012088879 -0.0028481772 -0.0001277455 -0.0037673458
000240 81 5f 24 bb 50 f8 30 bb 7b d4 b2 3b e9 7a 34 bb
       -0.0025081339 -0.0027003475 0.0054574586 -0.002753908
000250 93 b2 56 bb a1 92 c9 ba 67 91 8d 3b e4 41 06 38
       -0.0032760247 -0.0015378782 0.004320312 3.2009455e-05
000260 80 27 69 ba df 0b 5b 3b eb 85 7c 3b 47 5c b6 3b
       -0.00088941306 0.0033423824 0.003853197 0.0055651995
000270 28 3a 86 bb 93 4b 4c 3b 49 85 81 bb 9d c5 3c bb
       -0.0040962882 0.0031172975 -0.0039526564 -0.002880431
000280 be c2 a2 3b 49 0f 0a 3b 46 0e 33 bb e1 fa c4 ba
       0.0049670627 0.002106624 -0.002732174 -0.0015028381
000290 5e 60 66 3b 34 2d 8b 3a 5f ba a8 ba 0e 7e cb ba
       0.0035152654 0.001061833 -0.0012872926 -0.0015525238
0002a0 5b c0 e5 ba 44 29 74 ba df b9 96 3b d2 bf 8a bb
       -0.001752864 -0.00093140104 0.0045997943 -0.0042342925
0002b0 e0 2c 7d 3b 65 33 7c 3a 35 76 c3 3b 1f 34 02 3b
       0.0038631484 0.00096206955 0.005965019 0.0019867492
0002c0 55 f8 c4 bb 57 cc 0a bb 72 ba 84 ba 9d 8d 09 3b
       -0.006011049 -0.0021178925 -0.0010126366 0.002098895
0002d0 28 78 b5 bb df 2a 07 3b 4e fb a2 ba d6 71 5e bb
       -0.0055380054 0.0020624918 -0.0012434514 -0.0033942363
0002e0 5d dd 8b bb 75 06 73 bb b7 b9 ae bb 8a d6 e4 b9
       -0.004268332 -0.0037082706 -0.0053321975 -0.00043647393
0002f0 77 30 1c 3b 8e 75 5c bb 4c cc 61 bb 73 62 6f 39
       0.0023832598 -0.0033639404 -0.0034454046 0.00022829491
000300 0f 31 a0 bb 4a a2 8a bb 48 bf d1 ba 98 95 82 3b
       -0.0048886607 -0.004230772 -0.0016002441 0.003985118
000310 57 65 49 3b 50 d3 92 3a d5 6e 02 bb 34 7d a7 bb
       0.003073057 0.0011201892 -0.0019902487 -0.005111361
000320 e4 63 68 3b 4f 70 67 39 b6 4a 27 3b 5a 40 5b b9
       0.003545993 0.00022071715 0.002552671 -0.0002090944
000330 d3 08 54 3b cc 90 3b b8 4d c7 4a 3b 33 63 80 ba
       0.0032353892 -4.4719127e-05 0.0030941546 -0.0009795189
000340 3c ff 00 bb ad 1d 9b 3a a9 ed c1 bb 38 18 94 bb
       -0.0019683382 0.0011834406 -0.005918224 -0.0045194887
000350 a5 4c 1d 3a 04 76 bc 3b f6 de d9 ba 34 f8 f8 ba
       0.00060004956 0.0057513732 -0.0016622234 -0.0018994869
000360 a9 0a 66 3b a5 23 a7 3b ac f2 6d bb 68 70 b0 3b
       0.0035101569 0.0051006847 -0.0036307974 0.0053844936
000370 b9 d7 fe ba 8b 60 55 3b be 42 e8 3a ad f2 53 3a
       -0.0019442952 0.0032558765 0.0017720086 0.0008085173
000380 be 7a 9e 3b 7f 9c 93 ba 8b 10 c4 b9 f1 4a 77 3b
       0.0048364094 -0.001126185 -0.0003739636 0.0037733878
000390 fb f9 17 bb 32 82 c5 3a b2 6c 66 3b ba 65 8f 39
       -0.0023189771 0.0015068708 0.0035160002 0.00027350878
0003a0 2e 67 bd 3b 5f 88 ca 39 04 70 29 3b c2 2e 5e 3b
       0.0057801222 0.00038630047 0.002585412 0.0033902382
0003b0 f9 07 a3 3b 71 bf 37 bb 67 b9 1f b9 f7 1d 1e bb
       0.0049753156 -0.0028037692 -0.0001523249 -0.0024126747
0003c0 91 4c 31 bb c2 82 22 bb 74 76 46 3a 4b 3d 89 bb
       -0.0027053694 -0.0024797176 0.00075707515 -0.004188215
0003d0 ff 65 1e bb fb b1 9b 3b 5f a3 00 3b e6 27 c5 3b
       -0.002416968 0.0047514415 0.0019628627 0.006016719
0003e0 4f 18 6c ba c3 9c 6f b9 0d 31 4a bb d5 8d 70 3a
       -0.0009006308 -0.00022851214 -0.003085199 0.0009176408
0003f0 57 7b bc 3a 2c c4 92 3b 01 84 94 bb 2a 50 f4 ba
       0.001438002 0.004478952 -0.0045323377 -0.0018639613

_func._drift._model.2.bias f4 [16]
000000 b1 fb a7 3b 36 3b 83 bb 2d 28 26 3b 02 4b 8f bb
       0.0051264395 -0.004004861 0.0025353536 -0.0043729553
000010 a1 87 32 bb 60 0b ba bb cc de 60 bb 70 b9 3f bb
       -0.0027241486 -0.0056776255 -0.0034312485 -0.0029254816
000020 38 47 a1 3b 32 28 7d bb b3 09 89 3b a6 a2 2c 3a
       0.00492182 -0.0038628695 0.0041820644 0.0006585516
000030 76 c1 2e 3b 60 42 85 3b 4d 2e 93 3b e3 b8 98 bb
       0.0026665605 0.0040667504 0.0044916035 -0.004660712

_func._diffusion._model.0.weight f4 [16, 17]
000000 df 51 a3 3d f8 d0 7a bd c0 b9 25 bd e0 ea 97 3d
       0.079746 -0.061234444 -0.040460348 0.07417846
000010 cc a9 e5 bd 39 60 3a bd 65 30 5c 3d 06 c5 76 3c
       -0.11214027 -0.04550192 0.05375709 0.0150616225
000020 9d 57 ac bc 58 3c aa 3d 2e b7 8a 3d ac eb 7b 3d
       -0.021037871 0.08312291 0.0677322 0.06150405
000030 f6 a5 dc 3c 2d 35 c9 3c 0e bf ff bc 00 04 e2 3c
       0.026934605 0.024561489 -0.031219032 0.027589798
000040 da 4c 83 bd 23 9e 4d bd 5f 26 3a 3c 44 ff 6a bd
       -0.06411143 -0.05019964 0.011361687 -0.057372347
000050 b6 a0 aa bc 3d 43 46 bc 5f 08 30 3d 8f 77 b8 3c
       -0.020828586 -0.012100992 0.042976733 0.022517947
000060 0a b7 41 3d 41 35 f4 3c b3 25 84 bc c5 b0 62 3c
       0.0472937 0.02981055 -0.016131258 0.01383609
000070 93 35 23 ba b5 9b 35 3d 60 0d 28 3d f2 bc 6a 3b
       -0.000622594 0.044337947 0.04102838 0.0035818187
000080 1f 91 8c bc 68 53 9c bd fc c9 5e 3c 64 7c 0e 3d
       -0.017159043 -0.07633096 0.0135979615 0.034786597
000090 f6 c6 1f 3d dc 25 57 3d b5 39 13 bd 8e 9d 5e 3d
       0.039008103 0.05252634 -0.035943706 0.054349475
0000a0 6c a6 5c bd ce 09 0f bb 6d 48 0b 3d 3c 04 09 3d
       -0.05386965 -0.0021825912 0.034004617 0.033451304
0000b0 c6 56 59 3d 07 91 84 3d 3f 23 56 bd db 30 00 bb
       0.05306127 0.06472974 -0.052279707 -0.001956037
0000c0 67 2c 2a 3d fa 93 95 3c c9 e6 be 3b fa 54 e9 3c
       0.04154625 0.018259037 0.0058258516 0.028482903
0000d0 b0 ae 5a 3c e2 a5 28 bc fc 5b ac bc 46 03 f4 bd
       0.013347313 -0.010293456 -0.021039955 -0.11914687
0000e0 ee 03 d0 3c 8d 8a 7f bc 1e d3 d8 3c 2e 86 a8 bd
       0.025392499 -0.015596998 0.026467856 -0.08228718
0000f0 e1 64 96 3d e5 39 93 3c 08 0a 30 3d 97 4b 0f 3d
       0.0734346 0.017971942 0.042978317 0.034984197
000100 25 14 f6 bc c8 07 9f bd 01 1e 14 bd 14 a6 48 bd
       -0.030038903 -0.07765156 -0.036161426 -0.04898651
000110 83 0b ae bd 42 c5 63 3c 75 c4 db 3c 51 93 92 bd
       -0.084982894 0.01390201 0.026827076 -0.071570046
000120 31 83 86 3d c1 bf 8c bd f4 02 4c 3b fd 69 c9 bd
       0.065679915 -0.06872512 0.003112969 -0.09834669
000130 88 2d 00 3d d4 97 e3 bd 63 14 3a bd d0 be d4 bc
       0.031293422 -0.11112943 -0.0454296 -0.025969893
000140 7d 5c b1 bd 7d 91 11 bd 3b 16 ae 3b 5c 7b 33 bd
       -0.08660219 -0.03553914 0.0053127087 -0.043818817
000150 0c 96 41 3c 73 75 b1 3d 4f ad a9 bd 60 04 ad 3c
       0.011815559 0.0866498 -0.08285009 0.02112025
000160 c5 42 9b bc f0 f3 ce bd 02 d7 5e bd 8d aa f2 bc
       -0.018952737 -0.10105121 -0.054404266 -0.02962234
000170 ab 9e 05 3b b3 c0 9d bd 22 ab 86 3d 0f 36 bc bc
       0.0020388763 -0.0770277 0.0657561 -0.022974996
000180 d6 0e 91 3d 3e 9d 47 bd 00 0e 36 bd ef a2 07 3d
       0.07082908 -0.048733942 -0.044446945 0.03311437
000190 3a 12 45 3d 73 70 13 3b 02 36 ee bd 2d 93 97 bc
       0.048113085 0.0022497445 -0.11631395 -0.018502796
0001a0 da 65 c5 bc 72 ef 55 bd c4 5f 18 3b 03 5f 87 bd
       -0.024096418 -0.052230306 0.002325044 -0.06609919
0001b0 52 69 0a 3c 56 21 97 bc 70 8a 64 3d f7 33 a8 bd
       0.008447962 -0.018448513 0.055796087 -0.082130365
0001c0 19 60 6e bd 37 4d 56 bd 47 fc 7a bd 3a e6 18 bd
       -0.058197115 -0.05231973 -0.061275747 -0.037328936
0001d0 21 63 31 3d 86 95 b8 bd 3b 08 2b 3d de c5 0a bd
       0.043307427 -0.09012894 0.041755896 -0.033880107
0001e0 61 29 1a bb 99 f1 97 bc b7 db ab bd 63 67 c6 bb
       -0.00235232 -0.01854782 -0.08391517 -0.006054805
0001f0 81 cf 92 bc 33 49 13 bd 68 75 83 bd c5 ee 89 3b
       -0.017921211 -0.03595848 -0.06418878 0.0042093717
000200 bd b1 93 bd 80 8d 55 bd d3 3c a3 bd a6 33 ff bc
       -0.07211635 -0.052136898 -0.07970586 -0.031152558
000210 6f aa d2 3b eb a1 db bc 3a 67 86 bd f8 92 ed 3c
       0.0064290087 -0.026810607 -0.06562658 0.029000744
000220 bd c1 16 3d ee a0 93 bd 13 24 b5 bb 8d d0 01 3d
       0.036805857 -0.07208429 -0.005527982 0.03169303
000230 ac 15 c3 bd a1 19 73 bc 85 67 1a 3d ee 5b 72 3d
       -0.09525618 -0.014837653 0.03769638 0.059169702
000240 ba 60 d6 ba 87 37 d3 bb 63 5d d1 3b 7d 7c 4e 3d
       -0.0016355731 -0.0064458284 0.0063893064 0.05041169
000250 4f 27 38 bd cf 21 fc 3c 39 14 68 bd 0e 81 a3 3c
       -0.044959363 0.03077784 -0.05665991 0.019958999
000260 20 f8 4f bd 4f 84 14 bd 7a f4 3d 3d 62 ce a2 3b
       -0.05077374 -0.03625899 0.04637573 0.0049684504
000270 be 8a e0 bd e8 fc b3 3b 15 17 11 bd fb 85 08 bd
       -0.10963963 0.0054927953 -0.035422403 -0.0333309
000280 18 44 82 bd af 86 2e 3d b4 b9 3d bd 58 08 b9 bd
       -0.06360644 0.042608913 -0.04631968 -0.090347946
000290 75 cd 26 bd 89 bb 41 bc 7c 44 54 bb d6 9b a3 b9
       -0.040723283 -0.011824497 -0.0032389453 -0.0003120589
0002a0 79 4b 9f bd ac 28 36 3d b4 2d c9 bd 3f 2e 36 bd
       -0.07778067 0.04447238 -0.0982317 -0.044477697
0002b0 34 e9 31 bd af 58 b8 bc a8 a6 42 3d b5 32 9e 3c
       -0.04343529 -0.022503225 0.047522217 0.019311288
0002c0 e7 ea 8f bd 59 9e 2f bd 38 e3 76 3d 2d 0e 01 be
       -0.07027226 -0.04287562 0.060275286 -0.12603064
0002d0 82 9c 88 bd 1e d8 ed bc 42 98 3b bd 20 6c fd 3b
       -0.066704765 -0.029033717 -0.0457995 0.007733837
0002e0 f5 37 0f bd 02 00 40 bd 66 fd b7 3c 9e e5 f6 3b
       -0.034965474 -0.046875007 0.022459697 0.0075346967
0002f0 d0 6f d1 3c 48 e1 3d bb 02 36 13 3d 8a b0 08 bc
       0.025566012 -0.002897339 0.035940178 -0.008342871
000300 e3 19 5e bc 0d b9 a1 bb 25 d5 5c 3d 43 5c aa bd
       -0.013555977 -0.00493539 0.053914208 -0.08318379
000310 fe 56 11 3c 00 2a e6 bc 6b a7 7b 3d 52 a3 08 3d
       0.008870838 -0.028096199 0.06143896 0.03335888
000320 38 f7 b0 bd 5d e1 9d bc e8 e3 6f 3d 2b e1 7f bd
       -0.08640903 -0.0192725 0.058566958 -0.062470596
000330 08 a4 81 bd bb cb 86 3b c9 8f e6 3b 78 44 ba bd
       -0.063301146 0.004113642 0.0070361835 -0.09095091
000340 de 05 26 3d 7e df 3a 3b 30 bb 82 bd 52 c6 a5 bd
       0.04053294 0.002851456 -0.063833594 -0.08094467
000350 82 2f 84 3c 90 7c 3a bd 87 07 a1 bd 8c 5e 61 bd
       0.016135935 -0.04552895 -0.07862764 -0.055021808
000360 e8 26 28 bd 6b e8 db 3c 70 46 79 bc b8 b4 3a bd
       -0.04105273 0.026844224 -0.0152145475 -0.045582503
000370 b4 43 73 3d 1b 67 83 3d ab c7 57 3c 9d f5 0e bb
       0.05939074 0.0641615 0.013170163 -0.0021813877
000380 13 ac 85 3d 3d 43 8b bd 9c aa 19 bd 43 b8 64 bc
       0.06526961 -0.06799934 -0.03751622 -0.013959947
000390 eb 05 04 3d 03 c5 60 bd 08 57 9f 3d 91 62 89 3d
       0.032232206 -0.054875385 0.07780272 0.06708253
0003a0 83 80 5c 3d 7c d3 bd 3c 37 0a 92 3c ad fa 69 bc
       0.053833496 0.023172133 0.017827136 -0.014280957
0003b0 21 85 6d bc 35 43 42 bc f2 b0 11 3c b3 12 31 3b
       -0.014497072 -0.011856844 0.008892285 0.0027019202
0003c0 b8 79 d2 3c 4b 1e 16 3c 72 ec 8f bc ec af 23 3c
       0.025692806 0.009162496 -0.0175688 0.0099906735
0003d0 ab cd a0 bb 2a 1a 14 3d 3c c0 9b bd f0 ea 7d 3c
       -0.00490733 0.036157764 -0.07605025 0.015497908
0003e0 c0 3e e1 3c c6 fd 03 3d 47 50 85 bb 76 27 b7 bd
       0.027495742 0.03222444 -0.0040684077 -0.089430735
0003f0 71 ab ff bc 77 9f 23 3d 52 e9 cd bc b9 6e 6b bb
       -0.03120968 0.039947 -0.02513567 -0.003592415

_func._diffusion._model.0.bias f4 [16]
000000 55 f2 db 3d bd b6 6b 3c ab 92 73 3c 3e 81 c7 3d
       0.107395805 0.01438683 0.014866511 0.09741448
000010 48 b3 38 bc 3f ab 6f 3c 83 cc 6d bd 76 a7 cc bd
       -0.011273213 0.014628231 -0.058056366 -0.09992878
000020 ab d7 6f 3d 5c cb df bc 1e bd 9c bc 24 a1 4c 3d
       0.058555286 -0.027318649 -0.019133147 0.049958363
000030 72 bd a9 bd 0e 60 bd 3d 46 a8 9e 3d eb e1 0a 3c
       -0.08288087 0.092468366 0.07746939 0.008476715

_func._diffusion._model.2.weight f4 [48, 16]
000000 65 68 94 3d 2a 8c 57 3d a0 43 02 bc c8 bf 3c 3d
       0.07246474 0.052623905 -0.007950693 0.046081334
000010 6f f2 c6 bd c5 b8 25 3d 8a c6 90 3b f2 9a b8 bb
       -0.09714209 0.040459413 0.004418199 -0.0056337053
000020 e7 e4 18 3d 80 78 af bd f2 e7 33 3c 8d 34 7b 3d
       0.037327673 -0.085679054 0.010980593 0.061329413
000030 4d da 65 bd 8c 50 cf bc 94 12 96 bc d9 e3 90 3d
       -0.05611639 -0.025306962 -0.018319406 0.070747085
000040 2d 01 10 3d fe 6b 22 bd 0f 06 e3 bc 6d e2 27 3c
       0.03515737 -0.03965377 -0.02771285 0.010246855
000050 5e cb 92 bd 32 0a 4e 3d f9 48 0b bd d1 06 b3 bd
       -0.071676955 0.05030269 -0.03400514 -0.087415345
000060 ff 1f 9e 3d 36 4b 11 bc 6e 9e 13 3c 6a 24 89 3d
       0.077209465 -0.008868029 0.009009941 0.066963986
000070 e2 f7 68 bc dd bd d3 bc bc 1f f3 bc 72 15 76 bc
       -0.014219256 -0.02584737 -0.029678218 -0.015019761
000080 7a 15 1f 3c 41 86 be bc 61 90 0b bd 29 b7 c6 3d
       0.00970971 -0.023257377 -0.034073237 0.09702904
000090 5a b4 ae bd c4 ff 21 3d 3a d3 37 bd 76 37 cd 3c
       -0.08530493 0.039550558 -0.044879176 0.02505086
0000a0 b4 86 5d bc 61 d4 f6 bc b6 3c b6 bd 36 04 b1 bc
       -0.013520885 -0.030130567 -0.088982984 -0.021608453
0000b0 8d 47 f1 bc 16 38 6b 3a 79 57 b6 3c 19 26 a1 bc
       -0.029453063 0.0008972896 0.022258507 -0.019671487
0000c0 a1 d6 95 3d b9 c6 6d 3d 2e 75 54 bd 57 22 62 3c
       0.07316328 0.058050845 -0.051869564 0.013802133
0000d0 df c1 b8 3b 10 bb 8c bc 7b 9a 30 bd 38 17 0a bd
       0.0056383456 -0.017179042 -0.043116074 -0.03371355
0000e0 4b 51 63 3d 91 3d 2c bd 83 1c 95 bc b4 c5 49 bc
       0.05549745 -0.0420509 -0.018202072 -0.0123152025
0000f0 9b 3f be bc e3 13 cf bb 6c b6 7f 3d 1b d3 24 3d
       -0.023223689 -0.0063195094 0.06242983 0.04024039
000100 d8 80 89 3d ea 90 f0 3b 69 f7 09 bc a8 a0 c2 3d
       0.06714028 0.007341494 -0.008420804 0.09503299
000110 83 c5 2a bd 40 e1 89 3d 13 79 8b bd 40 94 19 3c
       -0.041692268 0.06732416 -0.068102024 0.009373724
000120 bb b9 40 3d 74 57 a8 bd bc 11 13 bd 31 1e 1c bd
       0.047052126 -0.08219805 -0.035905585 -0.03811473
000130 ac fd de bc 2f 71 b6 3b 22 f7 22 3b 75 5c 64 3c
       -0.02722057 0.0055676918 0.002486654 0.013938059
000140 a6 aa b9 3d f2 4f 8a 3c 04 14 4c bd 5e e1 88 3d
       0.09065752 0.016883824 -0.049823776 0.066836104
000150 da 9a e8 bc d8 e1 36 3d 74 21 ee bc cc 6b 93 bc
       -0.028394151 0.044648975 -0.029068686 -0.017995737
000160 a5 13 0d 3d 8a bd 2a bd 28 71 a1 bb 59 c0 74 3d
       0.034442563 -0.041684665 -0.0049268194 0.05975375
000170 0b 1f bd bd 09 eb c0 3c ed e2 a6 3c b6 90 78 3d
       -0.092344366 0.023549573 0.020371879 0.060684882
000180 7f 98 a1 3d 76 64 1f 3d f1 5a 72 bd 94 c9 d3 3c
       0.078904144 0.038914166 -0.05916876 0.025852956
000190 2c 9e 92 3b fb c5 00 3c 24 e7 34 bd 19 46 91 bd
       0.004474422 0.007859702 -0.044165745 -0.07093448
0001a0 d6 cc 52 3d 77 dd a9 bc 44 62 26 bd 08 a4 3a 3d
       0.051464878 -0.020735485 -0.040621057 0.04556659
0001b0 28 cb 37 bd ef 9d 96 bb 86 76 98 3d 34 47 51 3d
       -0.04487148 -0.004596464 0.074444816 0.051093295
0001c0 62 6a b0 3d b4 9d c2 3b ba 4f 0c bd 6b a5 81 3c
       0.08614041 0.00593921 -0.03425572 0.015825948
0001d0 e6 6a 80 bd 77 0f 37 3a 30 d7 51 bc ae 02 7d bd
       -0.06270389 0.00069832004 -0.012807652 -0.061770134
0001e0 62 55 be 3d a6 48 ad bd 05 83 c6 bc d1 c3 6d 3d
       0.09293629 -0.08461122 -0.024232397 0.058048073
0001f0 3d d8 b4 bd bf ab 30 3d 5a 64 a5 3d 06 15 24 3d
       -0.08830307 0.04313254 0.08075781 0.040059112
000200 db 53 dd bc e4 86 bb bc e7 15 d2 38 39 36 17 3d
       -0.027017524 -0.02289147 0.0001001766 0.036916945
000210 21 36 60 bd db 63 3c 3d 9b 0e bc bc b7 5f a5 3c
       -0.05473912 0.045993667 -0.022956183 0.020187242
000220 12 0a 29 3d df f3 06 3c 11 95 36 bd 0c 52 be 3c
       0.04126937 0.008236854 -0.044575755 0.023232482
000230 2d a6 c2 3b c1 f5 e3 3c f9 c7 89 3d 43 f5 6b 3d
       0.00594022 0.027827146 0.06727595 0.057606947
000240 7f ca b2 ba 4c f5 65 bc 45 08 1b bc 16 87 96 3c
       -0.0013640671 -0.014035534 -0.009462421 0.01837496
000250 86 76 df bc 5b 4f 3d 3d 95 98 1a 3c 9a 94 9f bd
       -0.027278196 0.046218257 0.009435792 -0.077920154
000260 9f fa 41 3d 5d 13 19 bd 25 c0 7c bd 6d ce 85 3d
       0.04735815 -0.037371982 -0.06170668 0.06533513
000270 72 14 b8 bd fb 61 25 3b cb bb 74 3d a0 c6 fc bc
       -0.08988275 0.0025235403 0.059749406 -0.03085643
000280 e2 e0 9e 3a 06 79 f1 bb 88 10 2a 3d b4 e1 2f 3d
       0.0012121464 -0.0073691634 0.04151967 0.042939857
000290 be 6f d3 bd e5 ca 54 3b 5c 45 84 bd e6 78 91 bd
       -0.103240475 0.0032469567 -0.06458542 -0.07103138
0002a0 2f 9c 6f 3c 33 56 84 bd 5b 8a ce bd 54 2e 20 3d
       0.014624639 -0.06461754 -0.10084983 0.039106682
0002b0 bd 34 58 bd a9 69 95 3d 25 f9 9e 3c a3 93 83 3d
       -0.05278467 0.07295544 0.01940591 0.06424644
0002c0 d4 b3 af 3d 3b 46 37 3b f2 9d 1e bd 79 38 f6 3c
       0.08579221 0.0027965445 -0.038724847 0.030056225
0002d0 bf 94 b8 bd 37 54 ce 3c d7 f2 85 bd 48 25 9f bd
       -0.09012746 0.025186641 -0.06540459 -0.07770783
0002e0 c2 d1 b9 bc 48 6b a4 bc 21 03 68 3c ac e6 48 bc
       -0.022683028 -0.020070687 0.014160902 -0.012262028
0002f0 49 87 a8 bd e9 c9 8c 3c 83 33 05 3d f6 20 93 3d
       -0.082289286 0.017186122 0.03251983 0.07184021
000300 d8 a8 07 bd 11 d3 b1 3c d8 cc 35 3c 4a 70 4c bd
       -0.033120006 0.02170709 0.011096202 -0.049911775
000310 75 cc 09 3b 78 cd 4d bd f6 c5 fa 3b 19 01 e4 bc
       0.0021026407 -0.05024478 0.0076529933 -0.027832555
000320 57 e3 89 bc 50 d0 ae 3c 04 ae 6c 3d 1a aa 92 bc
       -0.016832037 0.021339566 0.05778314 -0.017903376
000330 3e 48 77 3d a8 67 48 bd c0 39 ab bd 71 80 94 bd
       0.06037163 -0.04892698 -0.08360624 -0.07251061
000340 65 ed 24 3c 82 5d 02 bc a3 9b dc ba 2f 65 c8 bd
       0.010066365 -0.007956864 -0.0016831051 -0.09784924
000350 0a 15 7e 3c b4 22 80 bd ab 4f a1 3b cf b2 04 3d
       0.015507946 -0.06256619 0.0049228272 0.032397088
000360 a1 cc 90 bd c3 fa 60 3c c3 d5 31 3d 38 53 2a bd
       -0.0707028 0.013731661 0.04341675 -0.04158327
000370 fb 9f 5c 3d 9c 36 f1 3c c2 95 18 3d 54 cd ca 3c
       0.053863507 0.029444985 0.037252195 0.024756111
000380 eb 11 54 bd 4c fb bf 3c 32 8f 14 3d c2 41 50 bd
       -0.0517749 0.023435257 0.036269374 -0.05084396
000390 48 73 8f 3d 19 0b 26 3c d5 b6 03 3d 55 b3 ab 3d
       0.0700441 0.010134482 0.032156784 0.08383814
0003a0 2e 53 e5 bc b2 4b 97 3d 02 e7 d4 3b 46 ea c1 bc
       -0.027993765 0.073874846 0.006497265 -0.02367128
0003b0 19 36 a7 3d b2 d8 55 bd 50 47 1a bd 38 0d a0 bd
       0.08164615 -0.05220861 -0.037665665 -0.07815021
0003c0 49 63 ec bb 91 24 cd bb f6 30 2e bd 2d 0b eb 3c
       -0.007213984 -0.0062604626 -0.04252716 0.028691852
0003d0 45 53 25 bd ce 19 89 ba 00 93 87 bd c6 4b a1 bc
       -0.040362615 -0.0010459961 -0.06619835 -0.019689452
0003e0 6d 88 9f 3b 15 83 b5 bd 19 ef 81 bd 88 17 4c 3d
       0.004868558 -0.088628925 -0.063444324 0.04982713
0003f0 f2 77 d0 3a 83 cb 88 3d b8 90 31 bb c5 2b f7 3c
       0.0015904887 0.06679442 -0.0027094316 0.030172238

_func._diffusion._model.2.bias f4 [48]
000000 36 bc 89 3d 89 46 b0 3d 86 f5 c9 3d 5f 7a a0 3d
       0.067253515 0.086072035 0.09861283 0.078358404
000010 85 d2 f1 3c bb 09 53 3d e1 f3 17 3d f5 17 6d 3d
       0.029519329 0.05152295 0.037097815 0.057884175
000020 ca 2c b6 3c 3a 40 e8 3c aa 3e e0 3d 22 96 da 3c
       0.022238154 0.028350938 0.10949452 0.026682917
000030 41 9e 2c bd f5 4f 75 bc 0c 4e 9f bd b2 ae a0 3a
       -0.04214311 -0.0149726765 -0.07778558 0.0012259095
000040 21 13 bd 3b cf 51 8c 3d ed 2b 5f bd 81 01 d7 bd
       0.0057701026 0.06851541 -0.05448525 -0.10498334
000050 6b 3c bc bd 1d 8b 25 bc e2 83 4d bd 11 a8 d1 bd
       -0.09191211 -0.010103968 -0.0501746 -0.10237134
000060 a2 95 c1 bc d4 8d ac bc ed 03 6e 3d 3f 78 91 bd
       -0.02363092 -0.021063723 0.058109213 -0.07103013
000070 e0 63 d5 bc 40 d3 30 bd 8a 8d 5e bc f2 33 69 bd
       -0.0260486 -0.043170214 -0.01358355 -0.056934305
000080 75 d3 db bd 62 71 c0 3d 28 4c 92 3d 3b 6a b1 3d
       -0.107336916 0.09396626 0.07143432 0.0866284
000090 82 7d 2f 3d f2 08 27 3c 56 73 95 3c ff 2c 8e 3b
       0.042844303 0.010195004 0.018243473 0.00433886
0000a0 ff 04 d5 bc 65 83 91 bd b8 43 3c 3d 08 b0 90 3d
       -0.026003359 -0.0710514 0.04596302 0.07064825
0000b0 23 4c c4 3d 9c 7a 5e bd 66 95 90 bc 61 2b 9b 3a
       0.095848344 -0.05431615 -0.017649364 0.001183849

_readout.weight f4 [1, 16]
000000 a0 06 c4 bd 54 94 45 be 8e d7 75 be 85 48 54 be
       -0.09571576 -0.19294864 -0.24008009 -0.20730789
000010 18 7d a2 3d 44 9d cb bd 6e 7c 1a 3c 91 1f 04 3e
       0.07934016 -0.099421054 0.00942908 0.12902667
000020 73 69 df bc a2 92 92 3d 6d de b4 3d fa 2c 8a be
       -0.027271962 0.07156874 0.08831487 -0.2698744
000030 41 21 72 be 6a b3 94 bb 4a e3 8b bd 33 11 15 3e
       -0.23645498 -0.0045379894 -0.06830461 0.14557342

_initial._model.0.weight f4 [16, 2]
000000 0f d9 26 b6 46 d8 b1 be c2 af 32 b6 0b bc 99 3f
       -2.4862272e-06 -0.34735316 -2.6626371e-06 1.2010511
000010 92 b0 c6 34 c7 41 37 bf 42 e9 bc 36 6f b2 11 bf
       3.7008846e-07 -0.71584743 5.6299914e-06 -0.56912893
000020 7f d5 8c b6 11 4a a1 be 7e 53 40 36 55 e0 31 bf
       -4.1971794e-06 -0.3150182 2.8658828e-06 -0.6948293
000030 8d b8 43 36 d5 81 62 3f 79 22 e4 b5 f6 2a aa 3f
       2.9164687e-06 0.8847936 -1.6997357e-06 1.3294361
000040 08 25 63 34 ba a0 3d bf c5 4e 59 b6 1a 2a 3a 3f
       2.1154494e-07 -0.74073374 -3.238137e-06 0.7272049
000050 f1 c4 81 b6 75 34 f1 3d 82 1c be 36 12 e3 ae be
       -3.8674266e-06 0.117775835 5.66576e-06 -0.34157616
000060 ab 5d c4 b6 ee 50 b1 bf 79 82 3b 36 1f 96 b9 3e
       -5.8521596e-06 -1.3852823 2.7941117e-06 0.36247346
000070 fa 25 a1 35 28 4d 1c 3f 2a 1d de b5 80 e8 1c 3f
       1.2006487e-06 0.6105523 -1.6548777e-06 0.61292267

_initial._model.0.bias f4 [16]
000000 50 10 01 bf e7 54 fa bc 2d 22 9c 3d d5 c6 0b 3f
       -0.50415516 -0.030558063 0.07623706 0.5460027
000010 93 17 7d be b9 24 e1 3a f4 ff a4 be a5 cf 04 bf
       -0.24716024 0.0017177082 -0.32226527 -0.5187934
000020 fb 3b 41 3f b8 68 14 3e 70 24 96 bd 57 39 fb bd
       0.7548215 0.14493072 -0.07331169 -0.12266796
000030 f2 a7 5c be d0 1f b2 be 89 4d 85 3d 9e 41 bd 3e
       -0.21548441 -0.34789896 0.06508929 0.36964124

_initial._model.2.weight f4 [16, 16]
000000 df 59 1d bd de d0 f7 be 01 2e 9e bc 26 19 7c bd
       -0.038415786 -0.4840154 -0.019309046 -0.06154742
000010 62 7b 7c be 7c 4b 1d be 7c 3b 1c be 20 07 44 be
       -0.24656442 -0.15360826 -0.15257066 -0.19143343
000020 ba 0a 36 bd 46 a1 5b be cb 2d b2 3a aa 4f 2c be
       -0.044443823 -0.2144824 0.001359397 -0.16827264
000030 7c 0e 3d be de 9d da bd 50 c8 ae 3d b6 fc 53 be
       -0.18462557 -0.10674642 0.085343 -0.2070187
000040 e0 5b d0 3d 7e e7 bf 3e 98 49 d7 3e 25 bf 8a 3e
       0.10173774 0.37481302 0.42048335 0.27098957
000050 2b ae 28 3e 5d 7f c2 3e ae cf 6e 3e 24 cf 87 3e
       0.1647269 0.37987795 0.23321411 0.26525223
000060 54 3e 55 3e 02 16 61 3e 66 5f 61 bb 89 58 0e 3e
       0.20824558 0.21981052 -0.0034389137 0.13900961
000070 2b 1a 01 3f 20 af 36 be 3c 59 85 3d 49 f9 8f 3e
       0.50430554 -0.17840242 0.06511161 0.28119877
000080 de c0 8e be 1f b7 c1 3e 35 86 05 3e 87 55 1f 3e
       -0.2788152 0.37835023 0.13039477 0.1555997
000090 a9 88 be be 5a b3 17 3e 42 0f 8c 3d d0 7b fa 3d
       -0.37213638 0.14814511 0.06838848 0.122306466
0000a0 0e 3d 80 3e c1 e3 e2 3e b9 35 8a be d5 59 88 be
       0.2504658 0.44314387 -0.26994112 -0.26631036
0000b0 e2 a5 90 3e cc 15 df bc 82 0e 89 3d 50 c3 07 3f
       0.2825156 -0.027232073 0.0669222 0.530324
0000c0 47 9b 73 3c f5 4e 1a 3f 49 36 30 3e da c8 cd 3d
       0.014868564 0.6027673 0.17208208 0.10048075
0000d0 29 32 93 bd 5c 90 b5 3d 68 29 a6 3e cb 72 da 3e
       -0.07187302 0.08865425 0.32453465 0.42665705
0000e0 66 59 38 3e f1 d6 e9 3d 94 f0 44 be a6 eb 32 3e
       0.18002853 0.1141795 -0.19232398 0.17472705
0000f0 c9 c4 8c 3e 2b 2a 0e bd 8d 8e a3 3e 47 91 ad 3c
       0.27493885 -0.034708183 0.31944695 0.021187438
000100 61 02 de bd 3e eb e5 3e 6e ef 3f 3e 63 32 20 3e
       -0.108402975 0.44906038 0.18743679 0.15644221
000110 cd 47 84 bd 7a f9 aa 3e ba d6 c1 3d 89 86 fc 3e
       -0.064590074 0.3339346 0.09464784 0.49321392
000120 95 98 21 be 6a 81 99 3e eb 8f 46 be 3b 1c ee 3d
       -0.15780862 0.29981548 -0.19390838 0.11626478
000130 b6 63 1b 3f 03 c6 06 3d 84 74 9f bd fd e8 7a bc
       0.6069902 0.032903682 -0.077858955 -0.015314338
000140 1b f3 c9 3c fa 50 03 3f 4a 9c 7c bd 5c 58 bf 3d
       0.024652055 0.51295435 -0.061672486 0.09343025
000150 99 71 72 3e c0 ca 5f 3e 35 3c 8e 3e 75 5b ee 3e
       0.23676147 0.21854687 0.2778031 0.4655415
000160 83 c6 a8 3d 75 e3 99 3e 1f f9 04 3e 95 57 a1 bd
       0.08240988 0.30056348 0.12985657 -0.07878033
000170 39 a5 a1 3e 96 83 27 3e 6e 83 de 3d 1e 82 8b bd
       0.31571367 0.1635879 0.10864912 -0.06811927
000180 c6 d1 5b 3e 01 7b 52 bb 6c 25 b4 3b 65 72 d5 bd
       0.21466741 -0.0032116773 0.005497625 -0.1042221
000190 99 9b 9f 3e 60 58 b7 bd 3a e0 c0 3d e3 c8 36 bc
       0.311734 -0.08952403 0.09417768 -0.011156294
0001a0 ec 9f 28 be 0a 1e d5 be 58 54 bc 3d e7 ae cb 3e
       -0.16467255 -0.4162448 0.09195775 0.39781877
0001b0 66 6a 15 3e 21 36 2f bc 2e 8a 5d bd 8d 4f 9b bd
       0.14591369 -0.010694058 -0.054086857 -0.075835325
0001c0 69 ed 1f be 6a bc a2 be 91 38 53 3d 16 6d 91 be
       -0.15617909 -0.31784374 0.051567618 -0.28403538
0001d0 b6 87 9b 3d 41 ae 05 be 9f 8e 30 be ea 8d d2 be
       0.07594244 -0.13054754 -0.17241906 -0.41123897
0001e0 37 ca 0a be cf d0 05 3c e6 80 fe 3d ab 7c 14 bd
       -0.13553701 0.00816746 0.12426929 -0.036251705
0001f0 96 87 19 bf 54 70 88 3d cc 31 44 3d e5 b0 74 be
       -0.5997251 0.0666205 0.047899053 -0.23895605
000200 32 76 9d 3e d5 33 0a 3e 9d b0 6a bd 15 f5 e6 3d
       0.30754238 0.13496335 -0.057297338 0.112772144
000210 ac 39 16 3e 20 b1 b1 3d b3 6d a6 3e 11 74 00 3f
       0.14670438 0.08676362 0.3250557 0.50177103
000220 aa 0e de bd 0f c1 5e 3e e3 48 05 bc 27 d7 40 3e
       -0.10842641 0.21753334 -0.008135053 0.18832074
000230 59 e0 1c 3f 44 66 06 3e 86 59 29 be ae fe 63 3e
       0.6127983 0.13124949 -0.16538057 0.22265121
000240 05 3d 0a 3e 20 ef 69 be b5 36 6f be e2 6e 2c bc
       0.1349984 -0.22845125 -0.23360713 -0.010524483
000250 25 20 08 be 97 47 ea be a1 a3 7a be c8 f5 92 be
       -0.13293512 -0.45757744 -0.24476482 -0.2870314
000260 87 75 59 be 73 e3 c8 bb d7 a3 52 3e 3a 8a 72 3d
       -0.2123624 -0.0061306297 0.20570312 0.059213854
000270 60 d2 1f bf 45 ba 03 be fa 60 f8 bd 15 d2 78 3c
       -0.6243038 -0.12864025 -0.12127872 0.015186806
000280 e2 75 f6 bd ea 5d 08 3e 99 bf 41 3e 7e b7 15 be
       -0.12034203 0.13317075 0.18920745 -0.14620778
000290 bb fb 8c bd 72 07 d4 3e 2b 46 94 3e 87 9c a8 3e
       -0.06883951 0.4141193 0.28959784 0.3293192
0002a0 4a 15 04 3c e0 8f 7b 3e 09 7e c6 bd a5 92 8c 3e
       0.008061716 0.24566603 -0.09692008 0.2745563
0002b0 36 d6 5d 3e 1f b0 2e 3e ea 9f 97 bc 35 dd 5b bd
       0.21663746 0.17059372 -0.01850887 -0.053677756
0002c0 6c 97 b6 bd 0a 6e 7a 3e f0 6b 3a 3e 9a 88 d0 3d
       -0.089156 0.24456039 0.18205237 0.10182305
0002d0 bd 2d 4e 3e 2e 81 b8 3e 89 e7 4e 3e fb 68 d6 3d
       0.20134635 0.36036056 0.20205511 0.10469242
0002e0 88 eb 52 3e c8 72 4a 3d a3 e8 aa bd f6 a0 9a 3d
       0.2059766 0.04942587 -0.08345153 0.07550232
0002f0 b2 7f 16 3f b2 e5 16 be 9d f0 22 3e 77 47 a7 3d
       0.587886 -0.1473606 0.15912099 0.08167928
000300 27 95 12 bd 34 14 97 3e bf 48 0c 3e f2 e6 3b be
       -0.035786774 0.295076 0.13699625 -0.18349817
000310 f0 be a7 3d 34 55 9f 3e c3 e6 a0 3e da 6c b1 3e
       0.08190715 0.31119692 0.31426057 0.3465336
000320 84 8f 4e 3e 21 3d 6c 3e 5a ca ac bd 0e 37 9d bd
       0.20171934 0.23070194 -0.08437033 -0.076765165
000330 01 a3 0c 3f 73 ed ae 3e 24 0b 5f 3e 33 9c 2f 3e
       0.54936224 0.34165534 0.21781594 0.17149429
000340 02 1f 20 3e b9 77 be 3e 10 8b c2 3e 97 4b 8b 3e
       0.15636829 0.37200716 0.3799672 0.27206108
000350 bb 9a 95 bd da 90 ee 3e 15 97 a3 3e 0c e6 97 3d
       -0.07304903 0.46594888 0.31951204 0.07416925
000360 32 9e 2e 3e 7e 44 fd 3b 51 f2 e1 bd 46 96 d2 3d
       0.17052534 0.007729112 -0.11032546 0.10282569
000370 4c 87 1b 3f cd 38 1e be f5 85 2c 3e e0 ad 58 3e
       0.6075332 -0.15451355 0.16847976 0.21160078
000380 8d fc a1 3e d5 0e 77 be 94 57 9b 3e da db 35 3e
       0.31637993 -0.24126752 0.30340254 0.17759648
000390 55 62 1c 3e 91 d0 e3 3e 0c 9f 23 3e f1 d6 28 bd
       0.15271886 0.4449506 0.1597864 -0.04122061
0003a0 1f c3 88 bd 62 1c a4 bd f7 e8 d1 bc e1 f3 d2 3e
       -0.066778414 -0.08013226 -0.025623782 0.4120169
0003b0 2d 01 b7 3e ee dc 78 bd e2 83 93 bd ef 0f 9c be
       0.35743085 -0.06075757 -0.07202889 -0.30480906
0003c0 79 e6 1a 3a a2 da d2 be 1c b1 6e be 97 8c 87 3d
       0.0005908977 -0.4118243 -0.2330975 0.06618612
0003d0 3d 99 6e be cd 1f 4e be b3 69 96 be b3 be ce be
       -0.23300643 -0.20129319 -0.29377517 -0.40379867
0003e0 ac 5f 21 be 00 9b 06 be 10 c9 a2 bc 54 48 51 be
       -0.15759152 -0.13145065 -0.019871265 -0.20437747
0003f0 45 84 eb be 9d 87 6d be a0 b2 10 bb 41 48 a9 bd
       -0.4599935 -0.23196264 -0.0022079125 -0.082657345
