hyperparameter_tuning/ray_results/SUD_learning_rate_tuning/MyTrainableClass_dae05b7e_4_batch_size=16,name=SUD_v2,patience=1000,steps=200,steps_per_print=5,swa_step_start=2500,t_size=7,train_2024-03-12_14-10-42/checkpoint_000000/checkpoint.pt (torch, 61346 bytes, 66 tensors)

_initial._model.0.weight f4 [16, 5]
-0.82956636 -2.107122 -1.4444761 -1.1349692 -2.7777438 -1.7530402 -3.4284084 -3.7810223
-3.2670255 2.5179126 2.8958995 -2.5139387 3.2853484 -3.548848 1.9945992 1.0154312
3.1759732 -2.3157659 3.1737607 0.22412278 2.7409358 -1.0886157 -0.21193472 -2.4452238
1.3686333 -2.706853 -1.0586108 -2.9791558 -1.6525849 0.12091584 -3.2353086 0.7773562
-2.61499 -0.08919552 -0.89558125 -0.86099315 -0.8181351 1.5832231 0.6164003 2.0433078
-0.54504824 -3.6286519 -3.4453826 3.6997201 -3.4382703 2.6089115 0.6346077 1.5892901
1.745228 -0.49607217 2.9306388 0.12236045 -1.8851564 -0.6234087 -1.5021483 1.0552772
-2.697931 -3.5298615 3.564437 0.764795 0.2632464 1.2147453 2.283201 -0.18832658
2.5631135 -3.8771205 -1.9107649 -0.6251891 1.7990859 -2.382684 2.9459748 3.2444184
3.0368917 -3.8640952 -3.3393788 -1.0289197 0.47188932 3.1525729 0.7556953 3.4089215
00000000: 765e 54bf 16db 06c0 98e4 b8bf ac46 91bf
00000010: 8ec6 31c0 9f63 e0bf 0b6b 5bc0 45fc 71c0
00000020: f216 51c0 7b25 2140 6b56 3940 5fe4 20c0
00000030: 2643 5240 5320 63c0 074f ff3f a6f9 813f
00000040: 2543 4b40 8235 14c0 e51e 4b40 7180 653e
00000050: 7e6b 2f40 c257 8bbf 6a05 59be 8c7e 1cc0
00000060: 602f af3f 143d 2dc0 8f80 87bf 7daa 3ec0
00000070: e787 d3bf b9a2 f73d 4c0f 4fc0 d100 473f
00000080: ff5b 27c0 24ac b6bd d044 65bf 0c6a 5cbf
00000090: 4d71 51bf 0ea7 ca3f 69cc 1d3f 8ec5 0240
000000a0: 4888 0bbf d53b 68c0 2681 5cc0 37c8 6c40
000000b0: 9f0c 5cc0 68f8 2640 a675 223f dc6d cb3f
000000c0: a263 df3f 2cfd fdbe 968f 3b40 1e98 fa3d
000000d0: ce4c f1bf b697 1fbf 6546 c0bf 5313 873f
000000e0: e7aa 2cc0 40e9 61c0 bc1f 6440 9bc9 433f
000000f0: 3bc8 863e c67c 9b3f f71f 1240 afd8 40be
00000100: 0d0a 2440 be22 78c0 f293 f4bf 650c 20bf
00000110: 7248 e63f e57d 18c0 da8a 3c40 8da4 4f40
00000120: 6f5c 4240 564d 77c0 62b8 55c0 a4b3 83bf
00000130: 7a9b f13e c1c3 4940 3f75 413f c52b 5a40

_initial._model.0.bias f4 [16]
1.9265578 -3.4457314 -1.5354137 0.78141797 0.4139573 -3.5129457 -1.628605 2.4701636
1.8145735 -0.7801781 -3.5041656 3.5645542 -2.059691 1.2889616 -0.59938544 0.19010322
00000000: 7299 f63f dd86 5cc0 7088 c4bf 020b 483f
00000010: 36f2 d33e 1ad4 60c0 2176 d0bf 2917 1e40
00000020: f243 e83f c1b9 47bf 4044 60c0 a821 6440
00000030: fad1 03c0 b2fc a43f 5371 19bf 6baa 423e

_initial._model.2.weight f4 [16, 16]
-0.21897592 -0.31286925 0.045427524 -1.5256915 1.9567777 -1.6438963 0.6882705 0.17022614
-0.8044918 1.7442956 -0.30414984 -1.4995803 0.6273702 -0.670154 1.6407206 -2.0748472
1.1540145 -0.51930344 -2.3977158 2.1077263 1.4883097 0.6224926 0.88978016 -1.7331685
2.3119752 -0.0001158612 -0.46820217 -2.05255 -1.4022293 -0.39276123 -0.91471356 1.1707242
-0.044131495 1.6980264 0.5526803 -0.9552739 0.9149758 2.335717 -0.72630066 -0.8169425
-0.22798283 0.78658247 -1.3623319 -0.20788923 -1.3015821 1.5165657 -0.5001298 1.4896698
-0.3852799 -1.9435363 1.0030997 -1.191055 -1.8986577 2.3070657 -0.46219653 0.28736436
-1.5503246 -2.0417953 1.4155681 -0.763102 0.86061895 0.74562573 0.9596555 -2.24163
-0.62825763 0.5097076 -1.6690167 1.9333224 1.3976686 -2.2155397 1.7704387 0.7953747
1.6162905 1.4672047 1.1546805 0.8730734 1.3968518 -0.7765891 1.2925711 -1.8105215
-0.664854 0.549819 -2.0293477 2.4331849 -1.0877718 -1.3419957 -1.6296637 -0.53780395
-1.4019222 2.0189128 0.43287987 1.8059537 0.37349975 -1.8670541 0.8066395 -0.013339467
-0.08312578 -0.51666486 0.23898034 0.46144626 0.8061437 -0.09129981 1.0340884 0.5828368
1.6787409 -0.03919872 -0.6528747 -1.2258369 1.9141405 1.0845735 1.6289405 0.85559523
-0.05907165 -2.2713716 -1.3467356 -0.35531074 0.9996022 -2.1225212 -2.326221 1.6679004
-1.3497738 0.34218222 0.6045492 1.1403524 0.03880385 -1.1789837 -0.39663255 -0.66609913
1.393175 0.6521499 0.29271987 1.4901747 -2.3430288 -0.15702815 0.62853634 0.46206737
-1.2757304 -1.8237042 -0.45469716 -0.22037435 -1.6827399 0.30231923 0.9244506 0.5754958
1.0883197 0.14082041 2.120639 1.1369302 -0.92157453 -2.2425897 -0.19925599 0.7040916
1.9544296 -0.58292395 0.029609928 -0.83800596 0.7421332 0.1710659 0.53620106 -1.4727525
1.1472954 -2.2649078 1.2067729 -0.37833744 -1.3589915 0.986633 -1.2494181 1.9385086
1.9607496 -1.8739007 -1.7698894 0.7628209 -1.5187525 -1.2978595 1.0243517 1.8859692
0.14578669 -1.4814092 0.9460104 -0.079606846 -1.6255006 2.2667735 -1.3880932 -0.5657399
0.5068269 -1.0336854 -0.63153696 0.8501594 -0.42425594 0.056147944 1.1772139 1.1085644
-1.1583747 -1.754787 1.8656207 0.068744816 -1.4888984 -1.9436563 -1.3107852 -0.12954989
-0.36933032 -0.8039149 2.0205903 2.2926896 1.7101308 -1.9541466 -1.3789028 1.5536101
-0.8170627 -0.09993768 -0.78148746 1.928932 2.2647655 1.3783857 1.8122818 -1.6080762
1.8721774 0.08320851 -2.1310897 -0.10440123 1.5846603 -0.7334556 -0.5207301 -0.65668184
-1.0421246 1.4892806 1.1930565 0.02152399 1.7270133 0.670624 -0.93744516 -1.6545857
0.27655515 -0.7608253 -0.62534 1.318169 1.3788452 -0.4404514 -0.6370158 0.77483207
0.28090245 0.7098829 0.888585 1.4239912 -1.8729336 0.07520597 0.61659014 0.41277933
-0.7450005 -1.8408374 1.9666755 -1.6642551 1.251564 -2.230227 0.50736177 1.7622768
00000000: 393b 60be 6630 a0be 3612 3a3d dc49 c3bf
00000010: b177 fa3f 326b d2bf 7f32 303f c34f 2e3e
00000020: 2df3 4dbf 1445 df3f 87b9 9bbe 3ff2 bfbf
00000030: 559b 203f 368f 2bbf 2203 d23f 4cca 04c0
00000040: bfb6 933f 12f1 04bf 2d74 19c0 fde4 0640
00000050: ef80 be3f ad5b 1f3f a2c8 633f 77d8 ddbf
00000060: 67f7 1340 82fa f2b8 32b8 efbe fb5c 03c0
00000070: 407c b3bf 0018 c9be ab2a 6abf 4ada 953f
00000080: 3ac3 34bd ee58 d93f 757c 0d3f d58c 74bf
00000090: db3b 6a3f 637c 1540 d7ee 39bf 2523 51bf
000000a0: 5574 69be 785d 493f e460 aebf eae0 54be
000000b0: 3e9a a6bf d31e c23f 8208 00bf 80ad be3f
000000c0: 6843 c5be ccc5 f8bf 9265 803f 7e74 98bf
000000d0: 3707 f3bf f7a6 1340 06a5 ecbe 6c21 933e
000000e0: 0971 c6bf c6ac 02c0 5631 b53f a75a 43bf
000000f0: 8651 5c3f 54e1 3e3f fcab 753f de76 0fc0
00000100: 7ed5 20bf 337c 023f 57a2 d5bf 1c77 f73f
00000110: cee6 b23f 67cb 0dc0 bc9d e23f ad9d 4b3f
00000120: 9be2 ce3f 5dcd bb3f 92cc 933f bd81 5f3f
00000130: 0acc b23f 8bce 46bf f872 a53f 2bbf e7bf
00000140: df33 2abf f0c0 0c3f d5e0 01c0 4db9 1b40
00000150: 1b3c 8bbf 84c6 abbf d298 d0bf 85ad 09bf
00000160: 3072 b3bf de35 0140 6ea2 dd3e 7e29 e73f
00000170: 5c3b bf3e a1fb eebf ed7f 4e3f c88d 5abc
00000180: d93d aabd 2644 04bf 43b7 743e af42 ec3e
00000190: 6f5f 4e3f 65fb babd 025d 843f cb34 153f
000001a0: fbe0 d63f d68e 20bd cc22 27bf 39e8 9cbf
000001b0: 8e02 f53f 4ed3 8a3f 1f81 d03f 4a08 5b3f
000001c0: 1df5 71bd 275e 11c0 d561 acbf 4aeb b5be
000001d0: eee5 7f3f 63d7 07c0 cee0 14c0 c37d d53f
000001e0: 63c5 acbf 8232 af3e bdc3 1a3f 11f7 913f
000001f0: c9f0 1e3d f0e8 96bf 6c13 cbbe 7985 2abf
00000200: 8f53 b23f 4cf3 263f 61df 953e 0bbe be3f
00000210: 2ff4 15c0 fdcb 20be c2e7 203f 1894 ec3e
00000220: 224b a3bf 246f e9bf 11ce e8be d0a9 61be
00000230: 0564 d7bf 96c9 9a3e cba8 6c3f b153 133f
00000240: 0f4e 8b3f 3a33 103e 8db8 0740 ee86 913f
00000250: 4fec 6bbf 9786 0fc0 c309 4cbe 593f 343f
00000260: c02a fa3f 813a 15bf 8590 f23c 8f87 56bf
00000270: 71fc 3d3f e62b 2f3e 7944 093f 2783 bcbf
00000280: 93da 923f 40f4 10c0 8977 9a3f 72b5 c1be
00000290: 6ff3 adbf fb93 7c3f efec 9fbf 0d21 f83f
000002a0: d8f9 fa3f fadb efbf bc8b e2bf 3b48 433f
000002b0: 7b66 c2bf 4320 a6bf f51d 833f 7067 f13f
000002c0: 1b49 153e d19e bdbf bd2d 723f ea08 a3bd
000002d0: 6710 d0bf d112 1140 0aad b1bf 55d4 10bf
000002e0: 68bf 013f ce4f 84bf 68ac 21bf 0ca4 593f
000002f0: 1338 d9be 63fb 653d f2ae 963f 70e5 8d3f
00000300: 9f45 94bf dc9c e0bf a9cc ee3f 15ca 8c3d
00000310: 3994 bebf bbc9 f8bf cfc7 a7bf baa8 04be
00000320: dd18 bdbe 5ecd 4dbf 5a51 0140 6dbb 1240
00000330: 91e5 da3f 7a21 fabf e37f b0bf b2dc c63f
00000340: 052b 51bf 20ac ccbd 900f 48bf 3ee7 f63f
00000350: ebf1 1040 f16e b03f daf8 e73f 71d5 cdbf
00000360: 82a3 ef3f 3969 aa3d c663 08c0 50d0 d5bd
00000370: 26d6 ca3f bfc3 3bbf 914e 05bf 4d1c 28bf
00000380: 5764 85bf bfa0 be3f 13b6 983f 1453 b03c
00000390: c60e dd3f 04ae 2b3f 68fc 6fbf 77c9 d3bf
000003a0: a398 8d3e 72c5 42bf 4816 20bf c3b9 a83f
000003b0: 007e b03f d982 e1be 7813 23bf 655b 463f
000003c0: 72d2 8f3e e3ba 353f 4e7a 633f 5845 b63f
000003d0: 4abc efbf 9605 9a3d dad8 1d3f d057 d33e
000003e0: 5ab8 3ebf 8fa0 ebbf 06bc fb3f 5006 d5bf
000003f0: 4033 a03f 0abc 0ec0 76e2 013f 4992 e13f

_initial._model.2.bias f4 [16]
0.52721864 -0.3233904 2.4263456 -1.2197664 -2.4054973 0.17524621 -1.1449597 -0.9044334
1.7826294 -0.001897369 -2.189091 -0.65768117 -1.3676068 -2.2722466 0.87759876 -2.1517031
00000000: cdf7 063f 6d93 a5be 3f49 1b40 4e21 9cbf
00000010: abf3 19c0 be73 333e 0a8e 92bf f388 67bf
00000020: 332d e43f 24b1 f8ba 111a 0cc0 cb5d 28bf
00000030: bd0d afbf 7d6c 11c0 50aa 603f 81b5 09c0

_func._drift._model.0.weight f4 [16, 17]
0.0006885931 -0.0054873903 0.0049471143 -0.00032457334 0.0018239242 0.0011173524 -0.002810897 0.00043037726
0.0017835 -0.0053260596 -0.004518865 -0.0043930705 -0.00028757096 -0.002855449 -0.0054256036 0.0052610734
0.0046485956 -0.0020412134 -0.0041073137 0.0027317964 -0.0009877757 -0.0032065988 -0.0052960347 4.6558576e-05
-0.0029364307 0.0015048407 0.0014772939 -0.00069490186 0.0058425423 -0.0011278846 0.005686252 0.0017297557
0.0017238687 0.004799384 -0.0019458565 0.0054361313 0.0026022894 -0.0016414475 0.0026869779 -0.0056401524
0.0007303947 -0.0012800593 -0.0011958393 -0.0046746694 0.0029143875 0.0020448223 -0.0024364137 0.0046147234
-0.0011125895 -0.00014105417 -0.0035105576 0.001860226 0.0021146855 0.0010274772 0.00037279545 -0.005706838
0.004929888 -0.00023188045 0.003461332 0.0035940704 -0.005100185 0.003893133 -0.003978174 0.0018496399
0.0050584488 0.0050403024 0.0018195844 -0.0052055125 0.0031238487 -0.0035248564 0.0023543036 -0.0054938034
-0.0024342036 -0.0044639064 -0.0011321993 -0.0020005112 -0.0056694504 -0.0057342537 0.000784294 0.00079737324
-0.0023049389 -0.0031001682 -0.0044763135 -0.0035693 -0.002249302 -0.0024167076 0.0037081128 0.001516603
0.0048184046 -0.0048468937 0.002070201 0.001339592 -0.0047358386 0.0031311477 -0.0025133155 -0.0023224696
0.002047287 0.001366719 0.00031579364 0.0052530193 -0.001671591 -0.0035808403 -0.005844278 0.0012480817
-0.0045372043 0.004755617 0.0017336418 -0.001385869 0.003742383 0.005111543 0.0042969063 -0.002254028
0.0005236321 -0.003109491 0.003639548 0.005526071 -0.00016884669 0.0038656935 0.0019765992 0.0028678414
-0.0043649226 -0.0040410124 -0.004995825 0.0056048674 0.0023914669 0.0043208506 0.004041355 0.0047209
-0.0014220806 -0.005698782 0.0007109228 -0.0024035026 0.002459704 0.0025175898 0.0005664635 -0.005613431
0.0015788 -0.003214639 -0.0026940252 0.0044899005 -0.0030192179 0.0018582337 -0.0016813899 0.00023610095
-0.002728898 -0.0021184043 0.0049882284 0.0032042472 -0.004974495 0.005222826 -0.0035198727 -0.0037741216
-0.0051996275 -0.00033613958 -0.0026760004 -0.005715888 0.0024920108 -0.0014330997 0.0022542714 -0.0044630477
-0.0037198819 -0.00335995 -0.00038355906 -0.0051578833 0.0010374 -4.9110942e-05 0.004770649 -0.0003354517
0.005075376 0.002994863 4.54438e-06 -0.00024186916 0.00043302155 0.0005014899 -0.0014321582 -0.0035271929
-0.0007096022 -0.0030444916 -0.0014054304 -0.0047533135 0.00466158 0.0027346935 -0.0016860939 -0.0019473453
0.0055816206 -0.0054351836 -0.005629646 -0.0011590072 0.0015424804 -0.0044638067 0.0036769942 -0.0016191878
0.0044127544 0.0038731848 -0.0040990375 0.003219248 0.0029388086 -0.0009026043 0.004101386 -0.0048473473
0.0012930715 -0.0013928163 -8.40337e-05 -0.002219758 -0.002495292 0.0038945314 0.0034074178 0.004124461
-0.00452806 0.0007147043 0.0003756934 -0.004218317 0.003688061 -0.0018572478 -0.0030684597 -0.00025096422
0.0027238815 0.0017168106 0.0046850718 0.00054885354 -0.00490251 -0.0020973112 -0.000846091 0.0052083777
0.0026109705 0.0015989364 -0.004765734 -0.0026009125 0.0023456702 -0.0031651945 -0.002085586 0.0055804034
0.0012213116 0.002511689 0.003720754 -0.0055486974 0.0016362256 -0.004364168 -0.0018045566 0.0028053594
-0.0055907387 0.0041142926 0.0018003318 0.0034980567 0.002650622 0.0024791677 -0.00015046462 0.0054485844
-0.0031299025 -0.0006369563 -0.0012411346 0.0015974995 0.0029103367 0.0035401597 0.0027590464 -0.0039842864
00000000: b382 343a 91cf b3bb 671b a23b 7f2b aab9
00000010: be10 ef3a 2074 923a 0737 38bb 42a4 e139
00000020: 54c4 e93a 3a86 aebb fd12 94bb bff3 8fbb
00000030: 1fc5 96b9 7c22 3bbb 43c9 b1bb 1565 ac3b
00000040: 3f53 983b e1c5 05bb a596 86bb f007 333b
00000050: 4178 81ba cd25 52bb 5c8a adbb e447 4338
00000060: 2271 40bb 133e c53a c2a1 c13a 132a 36ba
00000070: cc72 bf3b 87d5 93ba bd53 ba3b f8b8 e23a
00000080: 6ff3 e13a 2744 9d3b 1c0c ffba 9321 b23b
00000090: 2c8b 2a3b d725 d7ba 0218 303b 07d1 b8bb
000000a0: f577 3f3a aac7 a7ba b5bd 9cba f82d 99bb
000000b0: 4fff 3e3b 6d02 063b 3dac 1fbb 1b37 973b
000000c0: 4fd4 91ba f1e7 13b9 6211 66bb d4d2 f33a
000000d0: 8996 0a3b 6aac 863a c273 c339 6d00 bbbb
000000e0: e68a a13b ef24 73b9 84d7 623b 7f8a 6b3b
000000f0: 741f a7bb ef23 7f3b 585b 82bb 9e6f f23a
00000100: 58c1 a53b 1f29 a53b 1f7f ee3a 0193 aabb
00000110: 7cb9 4c3b 4701 67bb a94a 1a3b 5d05 b4bb
00000120: 2987 1fbb f645 92bb 4e66 94ba 021b 03bb
00000130: ccc6 b9bb 68e6 bbbb 1499 4d3a d006 513a
00000140: 750e 17bb 312c 4bbb 0aae 92bb ebea 69bb
00000150: 0769 13bb a061 1ebb cf03 733b c1c8 c63a
00000160: b5e3 9d3b b1d2 9ebb 36ac 073b 4095 af3a
00000170: 182f 9bbb f133 4d3b 70b6 24bb 9334 18bb
00000180: c72b 063b 7b23 b33a 1b91 a539 8521 ac3b
00000190: 4919 dbba 88ac 6abb 5b81 bfbb ac96 a33a
000001a0: d4ac 94bb 02d5 9b3b 5e3b e33a 0ca6 b5ba
000001b0: c542 753b bb7e a73b 10cd 8c3b 51b8 13bb
000001c0: 5b44 093a 9ac8 4bbb 7c85 6e3b 0b14 b53b
000001d0: 700c 31b9 9357 7d3b d589 013b 65f2 3b3b
000001e0: a007 8fbb 786a 84bb 04b4 a3bb 09a9 b73b
000001f0: 28ba 1c3b ec95 8d3b 586d 843b c8b1 9a3b
00000200: 1b65 baba d9bc babb 395d 3a3a 1584 1dbb
00000210: fc32 213b 26fe 243b b97e 143a dff0 b7bb
00000220: bdef ce3a b1ac 52bb 3e8e 30bb 0420 933b
00000230: 12de 45bb fa8f f33a 1562 dcba de91 7739
00000240: 50d7 32bb edd4 0abb 4b74 a33b 59fe 513b
00000250: 1701 a3bb 3d24 ab3b aaad 66bb 4157 77bb
00000260: a361 aabb e43b b0b9 d65f 2fbb 584c bbbb
00000270: 0151 233b d9d6 bbba 66bc 133b c23e 92bb
00000280: 43c9 73bb 9b32 5cbb 6d18 c9b9 7603 a9bb
00000290: 5ef9 873a 79fc 4db8 1b53 9c3b 91df afb9
000002a0: 574f a63b 7745 443b ed7b 9836 429e 7db9
000002b0: 2b07 e339 6b76 033a 41b7 bbba 7a28 67bb
000002c0: 9904 3aba 1886 47bb 6b36 b8ba afc1 9bbb
000002d0: 2bc0 983b 8b38 333b ecff dcba 113e ffba
000002e0: 07e6 b63b a019 b2bb e578 b8bb d4e9 97ba
000002f0: 0e2d ca3a 2045 92bb baf9 703b ed3a d4ba
00000300: de98 903b 42d5 7d3b 3851 86bb 05fa 523b
00000310: 0799 403b c09c 6cba eb64 863b 7fd6 9ebb
00000320: 487c a93a 298f b6ba 403b b0b8 5c79 11bb
00000330: 0e88 23bb 653b 7f3b fc4e 5f3b 7d26 873b
00000340: 1f60 94bb fe5a 3b3a b7f8 c439 cf39 8abb
00000350: 65b3 713b e56e f3ba 3618 49bb d993 83b9
00000360: 2683 323b 9b06 e13a 3b85 993b f0e0 0f3a
00000370: 3ca5 a0bb 0b73 09bb 35cc 5dba 0aab aa3b
00000380: d11c 2b3b 6793 d13a e029 9cbb 1274 2abb
00000390: d1b9 193b 276f 4fbb 54ae 08bb d1db b63b
000003a0: 6b14 a03a 269b 243b e5d7 733b d9d1 b5bb
000003b0: 9f76 d63a 4b01 8fbb df86 ecba 1fda 373b
000003c0: 8432 b7bb 30d1 863b 1cf9 eb3a a73f 653b
000003d0: 0fb6 2d3b 8879 223b 0ac6 1db9 0a8a b23b
000003e0: 0d1f 4dbb 6af9 26ba 91ad a2ba 3063 d13a
000003f0: 59bb 3e3b 0602 683b 1ed1 343b 9e8e 82bb

_func._drift._model.0.bias f4 [16]
0.005599964 -0.00038015345 0.0023449354 0.002187006 -2.4032126e-05 -0.0022927418 0.0039694053 -0.005330155
-0.0052770604 -0.005179092 -0.0021374805 0.0013210066 -0.0003309723 0.00011933283 0.00467005 -0.0047008353
00000000: e77f b73b 554f c7b9 7dad 193b df53 0f3b
00000010: 9998 c9b7 d341 16bb c911 823b 95a8 aebb
00000020: 31eb acbb 5fb5 a9bb f914 0cbb a025 ad3a
00000030: 5a86 adb9 5342 fa38 3807 993b 7709 9abb

_func._drift._model.2.weight f4 [16, 16]
-0.0025156897 0.00224022 -0.005439762 -0.005979401 -0.0038241618 -0.0057303486 -0.002063839 -0.0054968135
-0.0006945338 0.003188226 -0.0049540293 -0.0057730926 0.0034782304 -0.0019744767 0.0024516222 0.0026939157
-0.0013061069 -0.00040163356 -7.871562e-05 -0.004756508 0.005478987 -0.00029918822 0.002137807 0.00095885777
0.0050143325 -0.004805283 -0.003961209 -0.00014276568 -0.0023572233 0.0020632816 0.0053934515 -0.0003288425
-0.0051863655 0.0050099213 -0.00150101 0.0019347131 -0.001959684 0.0053805243 -0.0034427012 0.0007548449
0.0027143203 -0.004959227 0.0016958633 -0.003484441 0.0053103305 0.0049095196 0.0018978734 -0.0029452518
0.00021935179 0.0051431125 0.0037786574 -0.0028450156 -0.0032542695 -0.0015027267 -0.0017032396 -0.002919242
-0.0059001287 5.4463755e-05 0.0013207011 -0.0042649573 0.0030850715 -0.0026221934 0.003676218 -0.0026792106
0.0054707257 -0.0034843632 0.0012737537 0.0016922686 0.0044128783 0.0029723675 -0.004758663 -0.0010317876
-0.00030006398 0.003226247 -0.0033026251 0.0031490233 -0.0038711354 0.0023642306 -0.0042837528 0.0014303282
-2.5076386e-05 0.0044694887 -0.0027829001 0.0015543576 -0.0042342856 -0.0028515046 0.0032706216 0.0013191185
0.0047254176 0.0027021863 0.0036962263 -0.0030356983 0.0005754178 -0.005451253 0.0017610498 -0.0010726836
0.0022046838 -0.0020744496 -0.0016547112 0.0035708654 0.003519212 0.0052793445 -0.005713066 -0.0020772566
-0.0051886453 0.0011859132 0.0052256896 -0.0017912748 -0.0006060243 -0.0017338529 -0.0020599242 0.0016561673
0.0040393868 -0.0039020223 0.004829145 0.004510252 -0.0002388839 -0.004147329 -0.004692921 -0.0010391972
-0.00026753513 -0.0046336544 -0.0056381407 0.0018372397 0.00048009926 0.004162029 0.0011590895 0.0023192393
0.0006348742 0.0025037855 -0.002695565 2.9387804e-05 0.00319548 0.0019649 0.002809704 -0.0052243294
-4.0485887e-05 -0.003102791 -0.0014193916 0.0026912116 -0.0012089112 -0.0028482703 -0.0001277455 -0.003767439
-0.0025081804 -0.002700394 0.0054575517 -0.0027539546 -0.0032761178 -0.0015379015 0.004320405 3.2009455e-05
-0.0008894247 0.0033424755 0.0038532435 0.0055652927 -0.0040962882 0.003117344 -0.0039527495 -0.0028805241
0.004967156 0.0021066705 -0.0027322206 -0.0015028614 0.003515312 0.0010618563 -0.0012873159 -0.0015525471
-0.0017528873 -0.0009314243 0.0045998874 -0.0042343857 0.003863195 0.0009620812 0.0059651122 0.0019867958
-0.006011142 -0.002117939 -0.0010126366 0.0020989415 -0.0055380985 0.0020624918 -0.0012434747 -0.003394283
-0.004268425 -0.0037083637 -0.0053322907 -0.00043647975 0.0023833064 -0.003363987 -0.0034454511 0.00022830073
-0.004888754 -0.0042308653 -0.0016002674 0.0039852113 0.0030731035 0.0011202125 -0.0019902952 -0.005111454
0.0035460396 0.00022072006 0.0025527175 -0.00020910022 0.0032354824 -4.4720582e-05 0.0030942012 -0.0009795422
-0.0019683847 0.0011834638 -0.005918317 -0.004519582 0.0006000612 0.0057515595 -0.0016622699 -0.0018995334
0.0035102034 0.005100778 -0.0036308905 0.0053845868 -0.0019443185 0.0032559696 0.0017720319 0.00080854056
0.0048365025 -0.0011262082 -0.0003739694 0.003773481 -0.0023190237 0.0015068941 0.0035160468 0.0002735146
0.0057803085 0.0003863063 0.0025854586 0.0033902847 0.004975409 -0.0028038158 -0.0001523278 -0.0024127213
-0.002705416 -0.0024797642 0.0007570868 -0.004188308 -0.0024170147 0.0047515347 0.0019629092 0.0060168123
-0.00090065406 -0.00022851797 -0.0030852456 0.0009176641 0.0014380486 0.004479045 -0.004532431 -0.0018640079
00000000: 45de 24bb a8d0 123b 0840 b2bb daee c3bb
00000010: ca9e 7abb a6c5 bbbb 7941 07bb 9d1e b4bb
00000020: 6011 36ba 8ef1 503b 6955 a2bb 362c bdbb
00000030: 06f3 633b 3966 01bb 65ab 203b 688c 303b
00000040: ad31 abba 5892 d2b9 2014 a5b8 7bdc 9bbb
00000050: 1389 b33b 5ddc 9cb9 731a 0c3b db5b 7b3a
00000060: 454f a43b a375 9dbb 08cd 81bb 5fb3 15b9
00000070: a57b 1abb 1f38 073b 8dbb b03b 7e68 acb9
00000080: 63f2 a9bb 442a a43b 8abd c4ba 3396 fd3a
00000090: 0b6e 00bb 1c4f b03b f19e 61bb c9e0 453a
000000a0: bde2 313b 0381 a2bb bb47 de3a 385b 64bb
000000b0: 4802 ae3b 09e0 a03b 10c2 f83a 2005 41bb
000000c0: cc01 6639 8e87 a83b 5aa3 773b 7173 3abb
000000d0: 9545 55bb 24f7 c4ba 3d3f dfba c150 3fbb
000000e0: de55 c1bb 0370 6438 601b ad3a 0ec1 8bbb
000000f0: e92e 4a3b 1bd9 2bbb b4ec 703b b295 2fbb
00000100: c643 b33b ea59 64bb 15f4 a63a 1dcf dd3a
00000110: e899 903b 0dcc 423b 8fee 9bbb 0c3d 87ba
00000120: e851 9db9 716f 533b db70 58bb d85f 4e3b
00000130: e0b2 7dbb 35f1 1a3b b95e 8cbb da79 bb3a
00000140: 215b d2b7 ca74 923b 5161 36bb 96bb cb3a
00000150: c3bf 8abb 4fe0 3abb ed57 563b 46e6 ac3a
00000160: add7 9a3b 2a17 313b 633c 723b 91f2 46bb
00000170: a3d7 163a 6da0 b2bb 07d3 e63a 4a99 8cba
00000180: 757c 103b 7df3 07bb e5e2 d8ba 2e05 6a3b
00000190: 94a2 663b 5afe ac3b ac34 bbbb 9522 08bb
000001a0: 8305 aabb a570 9b3a 433c ab3b 35c9 eaba
000001b0: 9add 1eba 7342 e3ba cbff 06bb c113 d93a
000001c0: d55c 843b 12b9 7fbb ce3d 9e3b bcca 933b
000001d0: e97c 7ab9 51e6 87bb 13c7 99bb ac35 88ba
000001e0: f543 8cb9 e9d5 97bb 27c0 b8bb 89cf f03a
000001f0: d5b5 fb39 a161 883b 97ec 973a 61fe 173b
00000200: b06d 263a 8d16 243b 14a8 30bb d485 f637
00000210: 426b 513b 8dc5 003b 0323 383b da30 abbb
00000220: 64cf 29b8 3258 4bbb e10a baba 0a5f 303b
00000230: 5474 9eba 0caa 3abb 6cf3 05b9 23e7 76bb
00000240: 4960 24bb 18f9 30bb 43d5 b23b b17b 34bb
00000250: 23b4 56bb 6993 c9ba 2f92 8d3b e441 0638
00000260: 4828 69ba 6f0d 5b3b b386 7c3b 0f5d b63b
00000270: 283a 86bb 5b4c 4c3b 1186 81bb 2dc7 3cbb
00000280: 86c3 a23b 1110 0a3b 0e0f 33bb a9fb c4ba
00000290: 2661 663b fc2d 8b3a 27bb a8ba d67e cbba
000002a0: 23c1 e5ba d42a 74ba a7ba 963b 9ac0 8abb
000002b0: a82d 7d3b 2d34 7c3a fd76 c33b e734 023b
000002c0: 1df9 c4bb 1fcd 0abb 72ba 84ba 658e 093b
000002d0: f078 b5bb df2a 073b 16fc a2ba 9e72 5ebb
000002e0: 25de 8bbb 0508 73bb 7fba aebb 52d7 e4b9
000002f0: 3f31 1c3b 5676 5cbb 14cd 61bb 0364 6f39
00000300: d731 a0bb 12a3 8abb 10c0 d1ba 6096 823b
00000310: 1f66 493b 18d4 923a 9d6f 02bb fc7d a7bb
00000320: ac64 683b 1771 6739 7e4b 273b ea41 5bb9
00000330: 630a 543b 5c92 3bb8 15c8 4a3b fb63 80ba
00000340: 0400 01bb 751e 9b3a 71ee c1bb 0019 94bb
00000350: 6d4d 1d3a 9477 bc3b 86e0 d9ba c4f9 f8ba
00000360: 710b 663b 6d24 a73b 3cf4 6dbb 3071 b03b
00000370: 81d8 feba 1b62 553b 8643 e83a 3df4 533a
00000380: 867b 9e3b 479d 93ba 5311 c4b9 814c 773b
00000390: c3fa 17bb fa82 c53a 7a6d 663b 8266 8f39
000003a0: be68 bd3b 2789 ca39 cc70 293b 8a2f 5e3b
000003b0: c108 a33b 39c0 37bb 2fba 1fb9 bf1e 1ebb
000003c0: 594d 31bb 8a83 22bb 3c77 463a 133e 89bb
000003d0: c766 1ebb c3b2 9b3b 27a4 003b ae28 c53b
000003e0: df19 6cba 539e 6fb9 d531 4abb 658f 703a
000003f0: e77c bc3a f4c4 923b c984 94bb ba51 f4ba

_func._drift._model.2.bias f4 [16]
0.0051265326 -0.0040049544 0.0025354002 -0.0043730484 -0.0027241951 -0.0056777187 -0.003431295 -0.0029255282
0.004921913 -0.003862916 0.0041821576 0.0006585632 0.002666607 0.0040667504 0.0044916966 -0.004660805
00000000: 79fc a73b fe3b 83bb f528 263b ca4b 8fbb
00000010: 6988 32bb 280c babb 94df 60bb 38ba 3fbb
00000020: 0048 a13b fa28 7dbb 7b0a 893b 6ea3 2c3a
00000030: 3ec2 2e3b 6042 853b 152f 933b abb9 98bb

_func._diffusion._model.0.weight f4 [16, 17]
0.07974586 -0.06123114 -0.040460505 0.07417937 -0.11213804 -0.045502637 0.05375998 0.015060542
-0.02103632 0.08312182 0.067731775 0.06150217 0.026935678 0.024567425 -0.031216336 0.027584713
-0.06411152 -0.050193984 0.011357277 -0.05737195 -0.020829292 -0.012108444 0.04298043 0.022517476
0.04729415 0.029810335 -0.016138082 0.013840776 -0.0006181225 0.044341613 0.041031864 0.0035844147
-0.0171543 -0.076337755 0.013591128 0.034795687 0.039008357 0.052520774 -0.035937242 0.05434588
-0.05386771 -0.0021864441 0.03400954 0.0334503 0.05305692 0.064723976 -0.05228474 -0.0019582382
0.041544776 0.018256055 0.005830556 0.028480496 0.013349219 -0.010287714 -0.021037808 -0.11914263
0.02539059 -0.015593377 0.026464073 -0.08228514 0.07344785 0.01796781 0.04297439 0.034981906
-0.030033842 -0.07765005 -0.03616693 -0.048984557 -0.08498508 0.01390568 0.026825605 -0.071570985
0.06568109 -0.068729274 0.0031122144 -0.098349124 0.031293117 -0.111128554 -0.04542962 -0.025968079
-0.086601734 -0.035540566 0.0053095887 -0.04382246 0.011817002 0.08664839 -0.082848 0.021127163
-0.018952146 -0.1010486 -0.0544042 -0.029619588 0.0020364826 -0.07702759 0.065762736 -0.02297624
0.07082706 -0.048733644 -0.044444438 0.033116896 0.048109043 0.0022503294 -0.116306074 -0.01850715
-0.024098858 -0.05222697 0.0023212992 -0.066102095 0.008445411 -0.018445311 0.055795647 -0.082116246
-0.058202922 -0.05231795 -0.061277974 -0.037332114 0.04329914 -0.09013566 0.041754853 -0.033876345
-0.0023559413 -0.01855132 -0.08391331 -0.0060583022 -0.017921073 -0.03596145 -0.06418943 0.004210459
-0.07211469 -0.052143093 -0.07970655 -0.031156693 0.006427872 -0.026814446 -0.06562874 0.02899638
0.03680891 -0.07208426 -0.0055283434 0.031694036 -0.095257185 -0.014835418 0.037698396 0.05917
-0.0016363611 -0.00644722 0.0063917707 0.05041169 -0.044958442 0.03077984 -0.056657333 0.019957291
-0.05077543 -0.036257166 0.046376713 0.004966092 -0.10963865 0.005494207 -0.035426673 -0.03333354
-0.06360919 0.04260918 -0.046319265 -0.09035103 -0.040723365 -0.011825267 -0.0032392486 -0.00031514087
-0.077783704 0.04446944 -0.09823045 -0.04447856 -0.043436635 -0.022498913 0.04752138 0.019308668
-0.0702756 -0.0428725 0.060273062 -0.12603226 -0.066706315 -0.029035307 -0.04580382 0.007734297
-0.034970123 -0.046875134 0.022460684 0.0075347177 0.025564523 -0.0028963608 0.035936143 -0.0083448
-0.013558417 -0.0049364166 0.05391122 -0.08318288 0.008872114 -0.028096939 0.06143735 0.033361014
-0.0864042 -0.019269777 0.05856396 -0.062472574 -0.06330188 0.0041153207 0.0070327404 -0.09094973
0.040535007 0.002848717 -0.06383522 -0.080947556 0.016132116 -0.04552772 -0.07863116 -0.055022217
-0.041053377 0.026839389 -0.015217062 -0.04558847 0.05938985 0.06416036 0.0131707955 -0.0021775705
0.065269545 -0.067996964 -0.037517842 -0.013955924 0.032227375 -0.054873146 0.077809945 0.06707629
0.05383023 0.023171147 0.017832138 -0.014279305 -0.014501216 -0.011857066 0.008891366 0.0027010865
0.025691096 0.009160172 -0.017568186 0.00998952 -0.004905737 0.03615474 -0.076048434 0.015498012
0.027496407 0.03222305 -0.004066539 -0.08942409 -0.031207224 0.039944723 -0.025135411 -0.0035934714
00000000: cc51 a33d 81cd 7abd eab9 25bd 5beb 973d
00000010: a1a8 e5bd f960 3abd 6d33 5c3d 7ec0 763c
00000020: 5c54 acbc c63b aa3d f5b6 8a3d b3e9 7b3d
00000030: 36a8 dc3c a041 c93c 67b9 ffbc 56f9 e13c
00000040: e74c 83bd 3598 4dbd df13 3a3c dafe 6abd
00000050: 31a2 aabc 7f62 46bc 3f0c 303d 9276 b83c
00000060: 83b7 413d ce34 f43c 0334 84bc 6cc4 623c
00000070: 8009 22ba 8d9f 353d 0711 283d 80e8 6a3b
00000080: 2d87 8cbc f856 9cbd 53ad 5e3c ec85 0e3d
00000090: 3ac7 1f3d 0620 573d ee32 13bd c999 5e3d
000000a0: 63a4 5cbd 724a 0fbb 964d 0b3d 2f03 093d
000000b0: 3752 593d 018e 843d 8628 56bd c955 00bb
000000c0: db2a 2a3d b98d 953c 400e bf3b ee4f e93c
000000d0: afb6 5a3c cd8d 28bc 7b57 acbc 0d01 f4bd
000000e0: edff cf3c 5d7b 7fbc 2fcb d83c 1d85 a8bd
000000f0: d46b 963d 3b31 933c ea05 303d 3049 0f3d
00000100: 8809 f6bc fd06 9fbd c623 14bd 08a4 48bd
00000110: a80c aebd a6d4 633c 5fc1 db3c cf93 92bd
00000120: cf83 863d efc1 8cbd 4bf6 4b3b 446b c9bd
00000130: 362d 003d 5e97 e3bd 6914 3abd 02bb d4bc
00000140: 405c b1bd fc92 11bd 0ffc ad3b 2e7f 33bd
00000150: 199c 413c b674 b13d 36ac a9bd df12 ad3c
00000160: 8841 9bbc 92f2 cebd f0d6 5ebd c7a4 f2bc
00000170: 8276 053b a4c0 9dbd 9dae 863d ab38 bcbc
00000180: c70d 913d ee9c 47bd 5f0b 36bd 95a5 073d
00000190: fd0d 453d 437a 133b e131 eebd 4e9c 97bc
000001a0: f86a c5bc f3eb 55bd f020 183b 8960 87bd
000001b0: 9f5e 0a3c 9f1a 97bc fa89 643d 902c a8bd
000001c0: 3066 6ebd 594b 56bd 9dfe 7abd 8fe9 18bd
000001d0: 705a 313d 0b99 b8bd 2307 2b3d ecc1 0abd
000001e0: 2366 1abb f0f8 97bc beda abbd b984 c6bb
000001f0: 37cf 92bc 504c 13bd bf75 83bd e4f7 893b
00000200: deb0 93bd ff93 55bd 303d a3bd 523c ffbc
00000210: e6a0 d23b f8a9 dbbc 5c68 86bd d189 ed3c
00000220: f1c4 163d eaa0 93bd 1b27 b5bb 9bd1 013d
00000230: 3316 c3bd 4110 73bc a269 1a3d 3e5c 723d
00000240: 2b7b d6ba 3443 d3bb 0f72 d13b 7d7c 4e3d
00000250: 5826 38bd 0126 fc3c 8511 68bd 797d a33c
00000260: e6f9 4fbd 6582 14bd 82f5 3d3d 99ba a23b
00000270: 3b8a e0bd c008 b43b 8f1b 11bd c088 08bd
00000280: 8945 82bd f786 2e3d 45b9 3dbd f609 b9bd
00000290: 8bcd 26bd c4be 41bc 9349 54bb 7e39 a5b9
000002a0: 104d 9fbd 9625 363d 0c2d c9bd 272f 36bd
000002b0: 9dea 31bd a44f b8bc c7a5 423d 362d 9e3c
000002c0: a7ec 8fbd 139b 2fbd e3e0 763d 9a0e 01be
000002d0: 529d 88bd 74db edbc c99c 3bbd fc6f fd3b
000002e0: d53c 0fbd 2400 40bd 78ff b73c cbe5 f63b
000002f0: b16c d13c dfd0 3dbb c731 133d a1b8 08bc
00000300: 1f24 5ebc aac1 a1bb 03d2 5c3d c95b aabd
00000310: 585c 113c 8d2b e6bc bba5 7b3d 8fa5 083d
00000320: aff4 b0bd a7db 9dbc c3e0 6f3d 3ee3 7fbd
00000330: 6ba4 81bd d0d9 863b e772 e63b da43 babd
00000340: 0908 263d 8ab1 3a3b 0abc 82bd d5c7 a5bd
00000350: 8027 843c 467b 3abd 6009 a1bd fa5e 61bd
00000360: 9627 28bd 47de db3c fc50 79bc faba 3abd
00000370: c542 733d 8266 833d 52ca 573c 92b5 0ebb
00000380: 0aac 853d fe41 8bbd 4fac 19bd 63a7 64bc
00000390: da00 043d aac2 60bd d25a 9f3d 4b5f 893d
000003a0: 167d 5c3d 6bd1 bd3c b414 923c bff3 69bc
000003b0: 8296 6dbc 2444 42bc 18ad 113c b604 313b
000003c0: 2276 d23c 8c14 163c 28eb 8fbc 15ab 233c
000003d0: 4ec0 a0bb fe16 143d 48bf 9bbd 60eb 7d3c
000003e0: 2540 e13c 51fc 033d 9a40 85bb fa23 b7bd
000003f0: 4ba6 ffbc 149d 233d c7e8 cdbc 7280 6bbb

_func._diffusion._model.0.bias f4 [16]
0.107392095 0.0143903745 0.014860866 0.09740903 -0.011274569 0.014624352 -0.058048837 -0.099924274
0.058555115 -0.027318424 -0.019128097 0.04995523 -0.08288255 0.09246303 0.07746533 0.00847136
00000000: 63f0 db3d 9bc5 6b3c fd7a 733c 637e c73d
00000010: f8b8 38bc fa9a 6f3c 9ec4 6dbd 19a5 ccbd
00000020: 7dd7 6f3d e3ca dfbc 87b2 9cbc db9d 4c3d
00000030: 54be a9bd 425d bd3d 25a6 9e3d 76cb 0a3c

_func._diffusion._model.2.weight f4 [48, 16]
0.07246537 0.052624755 -0.007945389 0.04607782 -0.09714122 0.04045845 0.0044186353 -0.005637261
0.037327655 -0.08567884 0.010977481 0.061327416 -0.05611634 -0.025307396 -0.018321533 0.07074609
0.035158914 -0.03965305 -0.02771286 0.01024608 -0.07167498 0.05030246 -0.034003887 -0.087415665
0.07721144 -0.008865973 0.009006245 0.06696329 -0.0142167425 -0.025847048 -0.029679218 -0.015018996
0.009700752 -0.0232641 -0.0340792 0.09702176 -0.08529935 0.039539907 -0.044872284 0.025058754
-0.01353004 -0.030124955 -0.088978805 -0.021613264 -0.029444315 0.0008904804 0.022254353 -0.019680038
0.073164575 0.058052048 -0.051864136 0.013799781 0.0056389705 -0.017178683 -0.04311584 -0.033717476
0.055498693 -0.042050775 -0.01820474 -0.012315648 -0.023224143 -0.006318743 0.06242963 0.040240996
0.06714154 0.007341755 -0.008420524 0.095032796 -0.041691072 0.067324415 -0.06810176 0.009372085
0.047054227 -0.08219739 -0.035909258 -0.038115125 -0.027219282 0.005568271 0.0024860946 0.013938596
0.09064957 0.016878162 -0.04982987 0.066830724 -0.028388737 0.044638768 -0.029062212 -0.01798717
0.034434646 -0.04167945 -0.004922289 0.05975111 -0.09233575 0.023544617 0.0203691 0.060677547
0.07890559 0.03891604 -0.059163675 0.025850793 0.004474377 0.007859659 -0.044166278 -0.07093878
0.05146663 -0.020735031 -0.040623248 0.04556624 -0.044872474 -0.0045959787 0.07444411 0.051094487
0.086142 0.0059396042 -0.034254406 0.015826061 -0.06270296 0.0006989327 -0.012807815 -0.061772127
0.09293845 -0.08461077 -0.024236007 0.05804762 -0.088302106 0.043133292 0.08075703 0.040060025
-0.027025715 -0.022897568 9.337476e-05 0.03691042 -0.054733563 0.04598419 -0.022949524 0.020195907
0.04126127 0.008242293 -0.04457152 0.02322906 0.0059490586 0.027821682 0.06727262 0.057597708
-0.0013636475 -0.01403433 -0.009458233 0.018371249 -0.027278068 0.046218235 0.009435438 -0.07792503
0.047357913 -0.037372682 -0.061709408 0.06533341 -0.08988363 0.002523146 0.059746828 -0.030856725
0.0012139962 -0.0073684063 0.041520167 0.042939346 -0.10323807 0.0032468922 -0.0645841 -0.07103169
0.014626843 -0.06461531 -0.100853726 0.039106123 -0.05278217 0.072955914 0.019404598 0.0642473
0.085783266 0.0027897446 -0.038730633 0.030049494 -0.09012157 0.025174534 -0.06539767 -0.07769925
-0.02269184 -0.020065216 0.014164967 -0.0122671975 -0.08228006 0.017179692 0.032515816 0.071832344
-0.03312126 0.021704866 0.011091262 -0.04990947 0.002102667 -0.050244015 0.007653327 -0.027828988
-0.016834587 0.021338696 0.057784487 -0.017902946 0.060371358 -0.048926603 -0.0836053 -0.0725125
0.010065697 -0.00795718 -0.0016831903 -0.09784947 0.015507523 -0.06256699 0.0049232696 0.032399274
-0.07070453 0.013731465 0.043419894 -0.041582793 0.05386303 0.02944461 0.037252527 0.024755018
-0.05176687 0.023441173 0.036274765 -0.05083823 0.070039146 0.010143328 0.032150384 0.08383027
-0.027985731 0.07386965 0.00649295 -0.023668418 0.08163814 -0.052204203 -0.037662897 -0.07814151
-0.0072124363 -0.006258557 -0.042522643 0.02869017 -0.040362272 -0.0010452322 -0.066198505 -0.019693429
0.00486989 -0.08862829 -0.06344619 0.049827136 0.0015905192 0.0667956 -0.002709081 0.03017371
00000000: b968 943d 0e8d 573d 602d 02bc 19bc 3c3d
00000010: faf1 c6bd c2b7 253d 33ca 903b c6b8 b8bb
00000020: e2e4 183d 6378 afbd e4da 333c 7532 7b3d
00000030: 3fda 65bd 7551 cfbc 0a17 96bc 53e3 903d
00000040: cb02 103d 3d6b 22bd 1406 e3bc 2ddf 273c
00000050: 55ca 92bd f409 4e3d a947 0bbd fc06 b3bd
00000060: 0821 9e3d 9642 11bc ee8e 133c 0d24 893d
00000070: 57ed 68bc 30bd d3bc d521 f3bc 3c12 76bc
00000080: e7ef 1e3c 5b94 bebc a296 0bbd 58b3 c63d
00000090: 6db1 aebd 99f4 213d 00cc 37bd 0448 cd3c
000000a0: 1aad 5dbc 9cc8 f6bc 853a b6bd 4d0e b1bc
000000b0: 3435 f1bc 216f 693a c34e b63c 0838 a1bc
000000c0: 4fd7 953d fcc7 6d3d 7d6f 54bd 7a18 623c
000000d0: 1dc7 b83b 4fba 8cbc 3c9a 30bd 561b 0abd
000000e0: 9952 633d 6f3d 2cbd 1b22 95bc 92c7 49bc
000000f0: 8f40 bebc 750d cfbb 36b6 7f3d bed3 243d
00000100: 8181 893d 1b93 f03b 3df6 09bc 8ea0 c23d
00000110: 42c4 2abd 62e1 893d f078 8bbd 608d 193c
00000120: efbb 403d 1b57 a8bd 9615 13bd 9b1e 1cbd
00000130: f9fa debc 0b76 b63b bfed 223b b55e 643c
00000140: 7ba6 b93d 1244 8a3c 681a 4cbd 8cde 883d
00000150: 7f8f e8bc 24d7 363d e013 eebc d459 93bc
00000160: 580b 0d3d 12b8 2abd 274b a1bb 94bd 743d
00000170: 871a bdbd a4e0 c03c 19dd a63c 0589 783d
00000180: 4199 a13d 6d66 1f3d 9c55 72bd 0bc5 d33c
00000190: cb9d 923b cdc5 003c b3e7 34bd 5a48 91bd
000001a0: acce 523d 83dc a9bc 9064 26bd aaa3 3a3d
000001b0: 33cc 37bd dd99 96bb 2776 983d 7448 513d
000001c0: 386b b03d 03a1 c23b 594e 0cbd a8a5 813c
000001d0: 696a 80bd 9438 373a dfd7 51bc c504 7dbd
000001e0: 8456 be3d 6948 adbd 978a c6bc 57c3 6d3d
000001f0: bcd7 b4bd 89ac 303d f163 a53d fb15 243d
00000200: 0865 ddbc ae93 bbbc 31d2 c338 612f 173d
00000210: 4d30 60bd eb59 3c3d a400 bcbc e371 a53c
00000220: 9401 293d af0a 073c a090 36bd df4a be3c
00000230: 52f0 c23b 4cea e33c 3ac6 893d 93eb 6b3d
00000240: 6bbc b2ba 3ff0 65bc b4f6 1abc 4d7f 963c
00000250: 4176 dfbc 554f 3d3d 1897 1a3c 2897 9fbd
00000260: 5ffa 413d 1914 19bd 01c3 7cbd 86cd 853d
00000270: e914 b8bd 5e5b 253b 17b9 743d 3ec7 fcbc
00000280: f41e 9f3a ac72 f1bb 0d11 2a3d 2be1 2f3d
00000290: 7b6e d3bd d0c9 543b ab44 84bd 1079 91bd
000002a0: 6da5 6f3c 0855 84bd 668c cebd be2d 203d
000002b0: 1e32 58bd e969 953d 64f6 9e3c 1794 833d
000002c0: 23af af3d 26d4 363b 03a4 1ebd 5b2a f63c
000002d0: a891 b8bd d33a ce3c 37ef 85bd c920 9fbd
000002e0: 3de4 b9bc cf5f a4bc 2e14 683c 5bfc 48bc
000002f0: 7382 a8bd 6dbc 8c3c 4e2f 053d d61c 933d
00000300: 29aa 07bd 67ce b13c 20b8 353c df6d 4cbd
00000310: e6cc 093b abcc 4dbd c3c8 fa3b 9ef9 e3bc
00000320: b0e8 89bc 7dce ae3c 6daf 6c3d 33a9 92bc
00000330: f547 773d 4367 48bd 4139 abbd 6f81 94bd
00000340: 98ea 243c d55e 02bc 7f9e dcba 4e65 c8bd
00000350: 4413 7e3c 1f23 80bd 6153 a13b 1ab5 043d
00000360: 89cd 90bd f0f9 603c 0fd9 313d b852 2abd
00000370: 7b9f 5c3d d335 f13c 1b96 183d 09cb ca3c
00000380: 7f09 54bd b407 c03c d994 143d bf3b 50bd
00000390: af70 8f3d 3430 263c 1fb0 033d 34af ab3d
000003a0: 5542 e5bc f948 973d d0c2 d43b 45e4 c1bc
000003b0: e631 a73d 13d4 55bd 6944 1abd a808 a0bd
000003c0: 4d56 ecbb 9514 cdbb 392c 2ebd a607 eb3c
000003d0: e952 25bd 2c00 89ba 1593 87bd 1d54 a1bc
000003e0: 9993 9f3b c082 b5bd 13f0 81bd 8a17 4c3d
000003f0: f878 d03a 22cc 883d d68a 31bb db2e f73c

_func._diffusion._model.2.bias f4 [48]
0.06725148 0.08607189 0.098604366 0.07835684 0.029519156 0.051515415 0.037096605 0.057883948
0.02223037 0.028349128 0.10949471 0.0266745 -0.04214182 -0.014972332 -0.07777836 0.001225253
0.0057701436 0.06850816 -0.0544858 -0.104980454 -0.091903254 -0.010103514 -0.050173637 -0.10236649
-0.02363028 -0.021068215 0.058109727 -0.071027525 -0.026048513 -0.043161854 -0.013581471 -0.056934502
-0.107328124 0.09396452 0.07143408 0.086620755 0.042842273 0.010195401 0.018235533 0.004334343
-0.026013274 -0.07105622 0.045962524 0.070648365 0.095840976 -0.054315355 -0.017648937 0.0011893827
00000000: 25bb 893d 7646 b03d 16f1 c93d 8d79 a03d
00000010: 28d2 f13c d401 533d 9cf2 173d b817 6d3d
00000020: 771c b63c 6e3c e83c c33e e03d 7b84 da3c
00000030: e79c 2cbd 834e 75bc 434a 9fbd ab98 a03a
00000040: 7913 bd3b 024e 8c3d 812c 5fbd feff d6bd
00000050: c637 bcbd 3689 25bc df82 4dbd 86a5 d1bd
00000060: 4a94 c1bc 4097 acbc 7704 6e3d e176 91bd
00000070: b163 d5bc 7cca 30bd d184 5ebc 2734 69bd
00000080: d9ce dbbd 7870 c03d 084c 923d 3966 b13d
00000090: 617b 2f3d 9c0a 273c af62 953c 1b07 8e3b
000000a0: ca19 d5bc ec85 91bd 3343 3c3d 17b0 903d
000000b0: 4648 c43d c779 5ebd 8194 90bc 10e5 9b3a

_readout.weight f4 [1, 16]
-0.09573046 -0.19295113 -0.24007669 -0.20730937 0.0793445 -0.09942229 0.009437995 0.12902316
-0.027262658 0.071579866 0.088324025 -0.26986533 -0.23645481 -0.0045369477 -0.068302035 0.14556961
00000000: 550e c4bd fb94 45be aad6 75be e848 54be
00000010: 5f7f a23d ea9d cbbd d2a1 1a3c a61e 043e
00000020: f055 dfbc 7798 923d 3ae3 b43d ca2b 8abe
00000030: 3621 72be adaa 94bb f0e1 8bbd 3310 153e

_initial._model.0.weight f4 [16, 2]
-2.487546e-06 -0.34752515 -2.6640469e-06 1.2008269 3.7028173e-07 -0.71570736 5.6329927e-06 -0.569238
-4.199362e-06 -0.31502858 2.867338e-06 -0.69468164 2.9179694e-06 0.88457054 -1.7006224e-06 1.3292122
2.1165579e-07 -0.74073774 -3.2398195e-06 0.7269817 -3.8694275e-06 0.11799764 5.6686704e-06 -0.34160343
-5.855252e-06 -1.3851199 2.7955668e-06 0.36225364 1.2012626e-06 0.6103307 -1.655719e-06 0.6126994
00000000: b7ef 26b6 d1ee b1be fac7 32b6 b2b4 993f
00000010: 22cb c634 9938 37bf 0a03 bd36 95b9 11bf
00000020: 3fe8 8cb6 6d4b a1be 7e6c 4036 a8d6 31bf
00000030: 55d2 4336 3773 623f f140 e4b5 a023 aa3f
00000040: 8043 6334 fda0 3dbf ad6b 59b6 791b 3a3f
00000050: 21d6 81b6 bfa8 f13d 8235 be36 a5e6 aebe
00000060: 3b78 c4b6 9c4b b1bf 799b 3b36 4f79 b93e
00000070: 123b a135 a23e 1c3f 123a deb5 ded9 1c3f

_initial._model.0.bias f4 [16]
-0.5041539 -0.030468961 0.0763249 0.5460866 -0.2470644 0.0018072367 -0.32217467 -0.51870304
0.75490737 0.14501904 -0.073398106 -0.1225727 -0.21539392 -0.34780347 0.06517478 0.36972567
00000000: 3b10 01bf 0b9a f9bc 3b50 9c3d 55cc 0b3f
00000010: 73fe 7cbe cde0 ec3a 14f4 a4be b9c9 04bf
00000020: 9c41 413f df7f 143e bf51 96bd 6507 fbbd
00000030: 3990 5cbe 4c13 b2be 5b7a 853d af4c bd3e

_initial._model.2.weight f4 [16, 16]
-0.03832322 -0.48389003 -0.019402782 -0.06164035 -0.24647196 -0.15372838 -0.15247503 -0.1913374
-0.044536714 -0.21457016 0.0014530139 -0.16818057 -0.18453278 -0.106652915 0.08525959 -0.20710978
0.10165665 0.37469143 0.42056614 0.2710712 0.164646 0.37999526 0.23312917 0.26516685
0.20832708 0.21988532 -0.0035213863 0.13892907 0.50422424 -0.17848483 0.06518047 0.28127813
-0.27885604 0.37820974 0.13044032 0.15564187 -0.37217632 0.14828381 0.06833534 0.12225247
0.25050786 0.4431555 -0.2699866 -0.26634848 0.2824744 -0.027276786 0.06688765 0.5303577
0.014778451 0.6026419 0.17217349 0.100571185 -0.07196297 0.08877436 0.32444146 0.4265637
0.18011917 0.1142644 -0.19241518 0.17463744 0.27484855 -0.03479927 0.31952688 0.021276014
-0.10849337 0.4489398 0.18752824 0.15653309 -0.06468035 0.3340494 0.09455477 0.49312073
-0.15771775 0.29990193 -0.19399965 0.1161748 0.60690004 0.032812428 -0.07777655 -0.0152251525
0.024559582 0.5128251 -0.0615787 0.09352317 0.23666917 0.21867059 0.27770743 0.46544546
0.08250276 0.3006505 0.12976302 -0.07887215 0.315621 0.16349441 0.10873106 -0.06802845
0.21469635 -0.0030533343 0.005461052 -0.10425357 0.3117618 -0.08968186 0.09422378 -0.011109031
-0.16470377 -0.41622582 0.09199392 0.39784345 0.14594351 -0.010658855 -0.05403487 -0.07585229
-0.15608913 -0.31771818 0.051476516 -0.28412554 0.07603212 -0.13066806 -0.1723259 -0.41114554
-0.13562727 0.008082859 0.12436029 -0.036162402 -0.5996355 0.06671142 0.047819298 -0.23904426
0.30744678 0.13481967 -0.057199612 0.112868465 0.14660892 0.08690253 0.32495543 0.5016705
-0.10833012 0.21762128 -0.00823251 0.1882257 0.61270255 0.13115245 -0.16530015 0.22274484
0.13508634 -0.22834137 -0.23369566 -0.010612509 -0.13284741 -0.45768148 -0.244675 -0.28694177
-0.21245056 -0.0062155128 0.20579173 0.059301406 -0.62421566 -0.12855177 -0.121360935 0.015099844
-0.120433085 0.13303918 0.1893 -0.14611627 -0.06893048 0.41424575 0.28950277 0.3292239
0.008153285 0.24575101 -0.0970126 0.27446565 0.21654612 0.17050134 -0.018429713 -0.053588383
-0.08924113 0.24443133 0.18213937 0.101908736 0.20126143 0.36048532 0.20196573 0.10460262
0.20606206 0.049503937 -0.08353828 0.075418055 0.58780026 -0.14744706 0.15919232 0.08176245
-0.035881855 0.29494882 0.13709244 -0.18340288 0.08181231 0.31131846 0.31416258 0.34643555
0.20181458 0.23079242 -0.08446638 -0.076859735 0.5492676 0.34155935 0.21790212 0.17158791
0.15629098 0.37187856 0.38004676 0.27213913 -0.073126145 0.4660738 0.31942934 0.07408609
0.1706033 0.0077976766 -0.11040473 0.10274918 0.6074561 -0.15459256 0.16853964 0.21167563
0.31640232 -0.24110506 0.30337137 0.1775711 0.15273957 0.44479176 0.15983051 -0.041174736
-0.06680334 -0.0801046 -0.025592571 0.4120344 0.35745427 -0.06072753 -0.071982086 -0.3048159
0.00068410614 -0.41169006 -0.2331922 0.066092424 -0.2329135 -0.20142235 -0.2936782 -0.40370148
-0.15768516 -0.13153747 -0.019776696 -0.20428488 -0.45989993 -0.23186833 -0.0022888621 -0.0827487
00000000: cff8 1cbd 6fc0 f7be 95f2 9ebc 977a 7cbd
00000010: 2563 7cbe f96a 1dbe 6a22 1cbe f4ed 43be
00000020: 216c 36bd 48b8 5bbe 0e73 be3a 8737 2cbe
00000030: 29f6 3cbe d86c dabd 949c ae3d 9614 54be
00000040: 5d31 d03d 8ed7 bf3e 7254 d73e d8c9 8a3e
00000050: f698 283e bd8e c23e 6ab9 6e3e f3c3 873e
00000060: b253 553e 9e29 613e 0fc7 66bb 6c43 0e3e
00000070: d714 013f bac4 36be 577d 853d b003 903e
00000080: 38c6 8ebe b5a4 c13e 2692 053e 9560 1f3e
00000090: e58d bebe b6d7 173e 66f3 8b3d 815f fa3d
000000a0: 9142 803e 47e5 e23e af3b 8abe d45e 88be
000000b0: 7ca0 903e 9173 dfbc 64fc 883d 86c5 073f
000000c0: 5121 723c bd46 1a3f 3f4e 303e 44f8 cd3d
000000d0: 5261 93bd 55cf b53d 311d a63e 8f66 da3e
000000e0: 2971 383e 7403 ea3d 7c08 45be 28d4 323e
000000f0: f3b8 8c3e ae89 0ebd 0799 a33e 094b ae3c
00000100: c631 debd 70db e53e 6707 403e 364a 203e
00000110: 2277 84bd 8608 ab3e eea5 c13d 527a fc3e
00000120: c380 21be bf8c 993e d8a7 46be 0eed ed3d
00000130: cd5d 1b3f 5366 063d 5049 9fbd eb72 79bc
00000140: 2d31 c93c 8148 033f f239 7cbd 1389 bf3d
00000150: 6759 723e 2feb 5f3e ab2f 8e3e de4e ee3e
00000160: 35f7 a83d ddee 993e 99e0 043e b987 a1bd
00000170: 1399 a13e 146b 273e 64ae de3d 8052 8bbd
00000180: 5cd9 5b3e 731a 48bb a0f2 b23b e582 d5bd
00000190: 3e9f 9f3e 1fab b7bd 66f8 c03d a702 36bc
000001a0: 1ba8 28be 8d1b d5be 4f67 bc3d 23b2 cb3e
000001b0: 3772 153e 7aa2 2ebc ab53 5dbd 7258 9bbd
000001c0: d4d5 1fbe f5ab a2be 0ad9 523d e778 91be
000001d0: bab6 9b3d d9cd 05be 3376 30be ab81 d2be
000001e0: e0e1 0abe f86d 043c 9cb0 fe3d 071f 14bd
000001f0: b681 19bf ff9f 883d 2bde 433d 05c8 74be
00000200: aa69 9d3e 2b0e 0a3e 244a 6abd 9527 e73d
00000210: a620 163e f4f9 b13d 8f60 a63e 7a6d 003f
00000220: 2fdc ddbd 1dd8 5e3e a6e1 06bc 3dbe 403e
00000230: 13da 1c3f d44c 063e 7144 29be 3917 643e
00000240: 1354 0a3e 52d2 69be ea4d 6fbe 17e0 2dbc
00000250: 2709 08be 3a55 eabe 158c 7abe 08ea 92be
00000260: a48c 59be 80ab cbbb 11bb 523e 08e6 723d
00000270: 99cc 1fbf 13a3 03be 158c f8bd 5665 773c
00000280: 9fa5 f6bd 6c3b 083e dcd7 413e 819f 15be
00000290: 6c2b 8dbd 0518 d43e b539 943e 0990 a83e
000002a0: 5b95 053c 27a6 7b3e 8bae c6bd c386 8c3e
000002b0: 44be 5d3e e797 2e3e e9f9 96bc 7e7f 5bbd
000002c0: 0ec4 b6bd 354c 7a3e be82 3a3e 87b5 d03d
000002d0: 7a17 4e3e 8891 b83e 1bd0 4e3e e639 d63d
000002e0: ef01 533e a4c4 4a3d 1e16 abbd c874 9a3d
000002f0: 147a 163f 5dfc 16be 5003 233e 1273 a73d
00000300: daf8 12bd 8803 973e f661 0c3e f7cd 3bbe
00000310: 368d a73d 2265 9f3e ebd9 a03e 0060 b13e
00000320: 7ba8 4e3e d954 6c3e b6fc acbd a368 9dbd
00000330: cd9c 0c3f dee0 ae3e bc21 5f3e beb4 2f3e
00000340: be0a 203e de66 be3e 7d95 c23e d255 8b3e
00000350: 29c3 95bd 3aa1 ee3e 3e8c a33e 73ba 973d
00000360: a2b2 2e3e a783 ff3b e01b e2bd 296e d23d
00000370: 3e82 1b3f 834d 1ebe a895 2c3e 7fc1 583e
00000380: 7cff a13e 3fe4 76be 7e53 9b3e 33d5 353e
00000390: c367 1c3e bfbb e33e 9caa 233e d7a6 28bd
000003a0: 31d0 88bd e10d a4bd 83a7 d1bc 2cf6 d23e
000003b0: 3f04 b73e 6ebd 78bd 586b 93bd d410 9cbe
000003c0: 9655 333a 0ac9 d2be f0c9 6ebe 775b 873d
000003d0: e080 6ebe a941 4ebe fd5c 96be f6b1 cebe
000003e0: 3878 21be c2b1 06be bd02 a2bc 0e30 51be
000003f0: 0178 ebbe e46e 6dbe bc00 16bb 2778 a9bd

_initial._model.2.bias f4 [16]
0.33699927 0.107764356 0.3162242 -0.018917661 -0.21691313 0.11348262 -0.34024817 0.027972594
-0.24539341 -0.22744127 0.10379699 0.19172136 -0.07961638 0.04323394 -0.29166913 0.15003316
00000000: 2b8b ac3e 8fb3 dc3d 23e8 a13e 36f9 9abc
00000010: 7a1e 5ebe 9369 e83d 0235 aebe c826 e53c
00000020: 6948 7bbe 5de6 68be 8493 d43d 9b52 443e
00000030: ea0d a3bd 1216 313d a855 95be 4ba2 193e
