hyperparameter_tuning/ray_results/SUD_learning_rate_tuning/MyTrainableClass_bcf60252_16_batch_size=16,name=SUD_v2,patience=1000,steps=200,steps_per_print=5,swa_step_start=2500,t_size=7,trai_2024-03-11_19-06-31/checkpoint_000000/checkpoint.pt (torch, 61346 bytes, 66 tensors)

_initial._model.0.weight f4 [16, 5]
-0.82955056 -2.1067472 -1.4443581 -1.1348724 -2.777203 -1.7529761 -3.427979 -3.7807643
-3.2667599 2.517526 2.896498 -2.5145454 3.2860112 -3.549454 1.9951103 1.0150912
3.1750062 -2.3154166 3.173112 0.22409502 2.7402894 -1.0883137 -0.21199454 -2.4447894
1.3681598 -2.7070658 -1.0587411 -2.9794352 -1.6527236 0.1209893 -3.234933 0.77713484
-2.6145995 -0.089280345 -0.8952545 -0.86094284 -0.8178599 1.5828 0.61617786 2.0427375
-0.5450692 -3.6282105 -3.4450161 3.699136 -3.437735 2.6081204 0.63415855 1.5883789
1.7445067 -0.49573234 2.930002 0.12227934 -1.8847388 -0.62318885 -1.5016423 1.0555409
-2.698316 -3.5302813 3.5650094 0.7649222 0.2628955 1.2140968 2.2824128 -0.18807827
2.5622768 -3.8774896 -1.9110503 -0.62511337 1.7995342 -2.3832464 2.9455187 3.2439418
3.0363555 -3.8637245 -3.3388627 -1.029126 0.47210836 3.1533284 0.7560139 3.4097497
00000000: 6d5d 54bf f2d4 06c0 bae0 b8bf 8043 91bf
00000010: b2bd 31c0 8561 e0bf 0264 5bc0 0bf8 71c0
00000020: 9812 51c0 251f 2140 3960 3940 50ee 20c0
00000030: 024e 5240 412a 63c0 c65f ff3f 82ee 813f
00000040: 4d33 4b40 c92f 14c0 4414 4b40 2a79 653e
00000050: e760 2f40 dd4d 8bbf 1915 59be 6e77 1cc0
00000060: dc1f af3f 9140 2dc0 d484 87bf 11af 3ec0
00000070: 728c d3bf 3dc9 f73d 2409 4fc0 4ff2 463f
00000080: 9955 27c0 9dd8 b6bd 662f 65bf c066 5cbf
00000090: 445f 51bf 3199 ca3f d5bd 1d3f 36bc 0240
000000a0: a889 0bbf 9a34 68c0 257b 5cc0 a5be 6c40
000000b0: da03 5cc0 72eb 2640 3758 223f 0050 cb3f
000000c0: ff4b df3f a1d0 fdbe 2785 3b40 976d fa3d
000000d0: 1f3f f1bf 4e89 1fbf d135 c0bf f71b 873f
000000e0: 36b1 2cc0 21f0 61c0 1d29 6440 f1d1 433f
000000f0: 3d9a 863e 8667 9b3f 0d13 1240 9797 40be
00000100: 58fc 2340 ca28 78c0 4c9d f4bf 6e07 20bf
00000110: 2357 e63f 1c87 18c0 6183 3c40 be9c 4f40
00000120: a653 4240 4347 77c0 edaf 55c0 67ba 83bf
00000130: 30b8 f13e 22d0 4940 208a 413f 5739 5a40

_initial._model.0.bias f4 [16]
1.9256091 -3.446286 -1.5344093 0.7802698 0.41294214 -3.5125844 -1.6292632 2.4689279
1.8134109 -0.7812536 -3.5048726 3.565766 -2.0608091 1.2898823 -0.6002605 0.19135931
00000000: 5c7a f63f f38f 5cc0 8667 c4bf c3bf 473f
00000010: 276d d33e 2fce 60c0 b28b d0bf ea02 1e40
00000020: d91d e83f 3c00 48bf d54f 60c0 8335 6440
00000030: 4ce4 03c0 dd1a a53f acaa 19bf b2f3 433e

_initial._model.2.weight f4 [16, 16]
-0.218267 -0.31252795 0.04630755 -1.5246341 1.9576737 -1.6437905 0.6885566 0.17137648
-0.80362064 1.745201 -0.3037083 -1.4986222 0.62811303 -0.6694143 1.6414813 -2.0737376
1.1547227 -0.5189617 -2.3968382 2.1087816 1.489207 0.6225965 0.89006805 -1.7320164
2.3128455 0.00079163065 -0.4677606 -2.0515945 -1.4014846 -0.39202046 -0.9139513 1.1718367
-0.04342196 1.6983689 0.5535618 -0.9542129 0.9158739 2.3358233 -0.726012 -0.8157886
-0.22710997 0.787491 -1.3618903 -0.2069283 -1.3008369 1.5173068 -0.4993664 1.4907842
-0.38457125 -1.9431937 1.0039788 -1.1899986 -1.8977617 2.3071728 -0.4619106 0.2885154
-1.5494534 -2.0408914 1.4160075 -0.7621434 0.8613627 0.74636567 0.960417 -2.24052
-0.6289645 0.5093668 -1.6698933 1.9322683 1.3967742 -2.2156458 1.7701498 0.79422736
1.6154215 1.4662989 1.1542395 0.8721172 1.3961091 -0.7773273 1.2918116 -1.8116293
-0.66414434 0.55016047 -2.0284708 2.434241 -1.0868746 -1.3418897 -1.6293749 -0.5366515
-1.4010502 2.0198169 0.4333209 1.8069131 0.3742445 -1.8663131 0.80740184 -0.012227119
-0.08381792 -0.51699716 0.23812495 0.4604264 0.8052758 -0.0914032 1.0338098 0.58173144
1.6778939 -0.04007591 -0.6533036 -1.2267629 1.9134085 1.0838555 1.6281977 0.85452676
-0.059780963 -2.2717168 -1.3476143 -0.356372 0.99870306 -2.1226263 -2.3265145 1.6667467
-1.3506464 0.34127313 0.604107 1.1393915 0.038058862 -1.1797254 -0.39739606 -0.66721153
1.3938835 0.65249217 0.29360205 1.4912423 -2.342127 -0.1569271 0.62882525 0.46322665
-1.2748559 -1.8227873 -0.45425412 -0.2194091 -1.6819894 0.30306086 0.92521775 0.576611
1.0876131 0.14047979 2.1197665 1.1358782 -0.9224668 -2.2426958 -0.19954126 0.7029453
1.9535601 -0.5838263 0.029169297 -0.8389614 0.74139065 0.17032768 0.5354421 -1.4738581
1.1465873 -2.2652528 1.205894 -0.3793922 -1.3598858 0.9865281 -1.2497039 1.9373605
1.9598796 -1.8748045 -1.7703273 0.7618643 -1.5194924 -1.2985971 1.0235925 1.8848606
0.14649656 -1.4810662 0.9468923 -0.07854587 -1.6246017 2.26688 -1.3878047 -0.564586
0.5077 -1.032776 -0.63109505 0.8511201 -0.42351028 0.05688942 1.1779771 1.1096785
-1.1576662 -1.754444 1.866501 0.069804266 -1.4880009 -1.9435505 -1.3104975 -0.1283971
-0.36845818 -0.8030072 2.021032 2.2936454 1.7108753 -1.9534063 -1.3781408 1.5547229
-0.81635565 -0.09959683 -0.7805856 1.9299356 2.2656562 1.3784754 1.812525 -1.6068976
1.8730558 0.08410781 -2.1306105 -0.10342694 1.585379 -0.7327246 -0.5199718 -0.6555476
-1.0414137 1.4896234 1.1939386 0.022588337 1.7279135 0.67072725 -0.9371558 -1.6534284
0.27743027 -0.7599136 -0.6248971 1.3191326 1.3795904 -0.4397084 -0.63625044 0.775948
0.28019315 0.7095408 0.88770276 1.4229296 -1.8738321 0.07510236 0.6163012 0.411624
-0.74587387 -1.8417475 1.9662328 -1.6652164 1.2508179 -2.230969 0.5065975 1.7611622
00000000: 6281 5fbe aa03 a0be fcac 3d3d 3627 c3bf
00000010: 0d95 fa3f ba67 d2bf 3f45 303f 517d 2f3e
00000020: 15ba 4dbf bf62 df3f a87f 9bbe dad2 bfbf
00000030: 04cc 203f bc5e 2bbf 0f1c d23f 1eb8 04c0
00000040: f4cd 933f adda 04bf cc65 19c0 47f6 0640
00000050: 569e be3f 7c62 1f3f 80db 633f b7b2 ddbf
00000060: a905 1440 6f85 4f3a 517e efbe 534d 03c0
00000070: d963 b3bf e8b6 c8be b6f8 69bf bffe 953f
00000080: 3adb 31bd 2764 d93f 3ab6 0d3f 4c47 74bf
00000090: b676 6a3f 217e 1540 ecdb 39bf 86d7 50bf
000000a0: 848f 68be 0399 493f 6c52 aebf 03e5 53be
000000b0: d381 a6bf 1c37 c23f f4ac ffbe 04d2 be3f
000000c0: 86e6 c4be 92ba f8bf 6182 803f e051 98bf
000000d0: dbe9 f2bf b8a8 1340 8c7f ecbe 4ab8 933e
000000e0: 7d54 c6bf f79d 02c0 bc3f b53f d41b 43bf
000000f0: 4482 5c3f d211 3f3f e3dd 753f ae64 0fc0
00000100: d103 21bf dd65 023f 10bf d5bf 9154 f73f
00000110: 7fc9 b23f 24cd 0dc0 4594 e23f 7c52 4b3f
00000120: 22c6 ce3f afaf bb3f 1fbe 933f 1343 5f3f
00000130: b4b3 b23f ecfe 46bf 155a a53f 78e3 e7bf
00000140: 5d05 2abf 51d7 0c3f 77d2 01c0 9bca 1b40
00000150: b51e 8bbf 0bc3 abbf 5b8f d0bf fe61 09bf
00000160: 9d55 b3bf ae44 0140 3ddc dd3e ee48 e73f
00000170: fa9c bf3e 59e3 eebf e3b1 4e3f 4154 48bc
00000180: bba8 abbd ed59 04bf 07d7 733e 02bd eb3e
00000190: 8e26 4e3f 9a31 bbbd e153 843f 5aec 143f
000001a0: 3ac5 d63f a326 24bd e83e 27bf 9106 9dbf
000001b0: 92ea f43f c7bb 8a3f c868 d03f 44c2 5a3f
000001c0: e2dc 74bd cf63 11c0 a07e acbf 6476 b6be
000001d0: 01ab 7f3f 1cd9 07c0 9de5 14c0 f557 d53f
000001e0: fbe1 acbf 5abb ae3e c2a6 1a3f 95d7 913f
000001f0: 9ce3 1b3d 3e01 97bf 7f77 cbbe 60ce 2abf
00000200: c66a b23f ba09 273f 0253 963e 07e1 be3f
00000210: 69e5 15c0 7fb1 20be b1fa 203f 0b2c ed3e
00000220: 7a2e a3bf 1851 e9bf ff93 e8be c7ac 60be
00000230: 6e4b d7bf cb2a 9b3e 12db 6c3f c79c 133f
00000240: e836 8b3f efd9 0f3e 41aa 0740 7564 913f
00000250: c926 6cbf 5488 0fc0 8b54 4cbe 39f4 333f
00000260: 420e fa3f a475 15bf 73f4 ee3c 2dc6 56bf
00000270: c7cb 3d3f 616a 2e3e bc12 093f 62a7 bcbf
00000280: 5fc3 923f e7f9 10c0 bc5a 9a3f b23f c2be
00000290: bd10 aebf 1b8d 7c3f 4cf6 9fbf 6efb f73f
000002a0: 56dd fa3f 98f9 efbf 169a e2bf 8a09 433f
000002b0: ba7e c2bf 6e38 a6bf 1405 833f 1d43 f13f
000002c0: 3203 163e 9493 bdbf 8967 723f a8dc a0bd
000002d0: f3f2 cfbf 9014 1140 96a3 b1bf b588 10bf
000002e0: a1f8 013f 0132 84bf 728f 21bf 02e3 593f
000002f0: 57d6 d8be e104 693d f4c7 963f f209 8e3f
00000300: 682e 94bf 9f91 e0bf 81e9 ee3f 8af5 8e3d
00000310: d076 bebf 43c6 f8bf 62be a7bf 887a 03be
00000320: 8da6 bcbe e191 4dbf 9758 0140 16cb 1240
00000330: f6fd da3f 3809 fabf eb66 b0bf 2901 c73f
00000340: affc 50bf 6cf9 cbbd 75d4 47bf 2108 f73f
00000350: 8300 1140 e271 b03f d200 e83f d2ae cdbf
00000360: 4bc0 ef3f b740 ac3d ec5b 08c0 81d1 d3bd
00000370: b3ed ca3f d793 3bbf df1c 05bf f8d1 27bf
00000380: 0b4d 85bf fbab be3f fbd2 983f 2d0b b93c
00000390: 452c dd3f c8b4 2b3f 71e9 6fbf 8ba3 d3bf
000003a0: 570b 8e3e b389 42bf 42f9 1fbf 56d9 a83f
000003b0: 6b96 b03f 7621 e1be 4fe1 22bf 87a4 463f
000003c0: 7a75 8f3e 77a4 353f 7d40 633f 8f22 b63f
000003d0: bbd9 efbf 44cf 993d eac5 1d3f 62c0 d23e
000003e0: 97f1 3ebf 62be ebbf 84ad fb3f d025 d5bf
000003f0: cd1a a03f 32c8 0ec0 60b0 013f c36d e13f

_initial._model.2.bias f4 [16]
0.5284089 -0.32219857 2.4275358 -1.2185774 -2.4066823 0.17643777 -1.1461008 -0.90562683
1.7838247 -0.0030820577 -2.1902778 -0.65648735 -1.3664151 -2.2710326 0.8787962 -2.152894
00000000: ce45 073f 36f7 a4be bf5c 1b40 58fa 9bbf
00000010: 1507 1ac0 1aac 343e 6eb3 92bf 29d7 67bf
00000020: 5e54 e43f 59fc 49bb 832d 0cc0 8e0f 28bf
00000030: b1e6 aebf 9958 11c0 caf8 603f 04c9 09c0

_func._drift._model.0.weight f4 [16, 17]
0.0006865325 -0.0054709553 0.0049323495 -0.00032360203 0.0018184608 0.0011140048 -0.0028024686 0.00042909087
0.0017781646 -0.005310134 -0.004505361 -0.004379939 -0.0002867095 -0.0028468808 -0.005409364 0.005245334
0.004634655 -0.0020351133 -0.0040950472 0.0027236082 -0.0009848133 -0.003196999 -0.0052802023 4.6419605e-05
-0.0029276682 0.001500347 0.0014728813 -0.000692818 0.0058251116 -0.0011245086 0.0056692087 0.0017245868
0.0017187176 0.004784976 -0.0019400376 0.0054198336 0.002594513 -0.0016365285 0.0026789275 -0.005623239
0.00072821544 -0.0012762392 -0.0011922537 -0.004660662 0.0029056796 0.0020387222 -0.0024291028 0.0046009007
-0.00110926 -0.00014063217 -0.0035000576 0.0018546514 0.00210836 0.0010244058 0.0003716821 -0.005689704
0.004915173 -0.00023118535 0.0034509897 0.0035833137 -0.005084939 0.0038814915 -0.0039662533 0.0018440986
0.0050433613 0.0050252406 0.0018141362 -0.0051899594 0.0031144929 -0.0035143131 0.002347241 -0.0054773334
-0.0024268928 -0.0044505526 -0.0011288064 -0.0019945041 -0.005652448 -0.0057170405 0.0007819455 0.0007949867
-0.0022980433 -0.0030909013 -0.0044629024 -0.0035586199 -0.0022425633 -0.0024094447 0.003696999 0.0015120656
0.004803969 -0.004832365 0.0020640104 0.0013355874 -0.004721638 0.0031217826 -0.0025058184 -0.0023155112
0.002041187 0.0013626212 0.00031485068 0.005237294 -0.0016665783 -0.0035701287 -0.0058268383 0.0012443564
-0.004523607 0.004741368 0.0017284577 -0.0013817191 0.0037311607 0.0050962693 0.004284054 -0.002247276
0.0005220715 -0.0031001784 0.0036286516 0.005509496 -0.0001683408 0.003854145 0.0019706665 0.002859231
-0.004351884 -0.0040289774 -0.0049809236 0.0055880747 0.0023842957 0.004307912 0.0040293178 0.004706744
-0.0014178198 -0.0056816903 0.0007087924 -0.0023962848 0.0024523146 0.0025100743 0.00056476466 -0.0055965926
0.0015740736 -0.0032050016 -0.0026859692 0.004476481 -0.0030101843 0.0018526671 -0.001676367 0.00023539322
-0.002720726 -0.0021120713 0.0049733273 0.0031946546 -0.0049596536 0.005207194 -0.0035093487 -0.003762806
-0.0051840744 -0.0003351326 -0.002667991 -0.0056987517 0.0024845614 -0.0014287989 0.0022475193 -0.0044496995
-0.0037087349 -0.0033498704 -0.00038241237 -0.0051424652 0.0010343033 -4.8963968e-05 0.0047563254 -0.00033444777
0.0050601955 0.0029859224 4.5307374e-06 -0.00024114634 0.0004317272 0.0004999847 -0.0014278623 -0.0035166396
-0.00070747203 -0.0030353887 -0.0014012161 -0.0047390643 0.0046476102 0.0027264978 -0.0016810603 -0.0019415246
0.0055648847 -0.005418891 -0.005612789 -0.001155538 0.0015378704 -0.0044504534 0.0036659779 -0.0016143373
0.0043995297 0.0038616068 -0.004086832 0.0032096088 0.002930034 -0.0008999035 0.0040891627 -0.0048328186
0.0012892066 -0.0013886462 -8.378195e-05 -0.0022131086 -0.0024878415 0.0038828899 0.0033972345 0.0041121677
-0.0045144935 0.00071256224 0.00037457 -0.0042057442 0.0036770143 -0.0018516831 -0.0030592862 -0.00025021
0.0027157324 0.0017116809 0.004671009 0.0005472121 -0.004887795 -0.0020910488 -0.0008435648 0.0051928246
0.0026031572 0.001594145 -0.0047514415 -0.002593136 0.0023386388 -0.0031557172 -0.0020793465 0.005563674
0.0012176465 0.0025041918 0.0037096036 -0.00553207 0.0016313194 -0.0043511293 -0.0017991549 0.0027969475
-0.005573975 0.004101999 0.0017949423 0.0034875926 0.0026427002 0.0024717636 -0.00015001351 0.0054322863
-0.0031205427 -0.0006350539 -0.0012374326 0.0015927148 0.0029016004 0.0035295687 0.0027507807 -0.00397232
00000000: 6bf8 333a b345 b3bb 8c9f a13b 21a9 a9b9
00000010: 6b59 ee3a cc03 923a 9fa9 37bb 9af7 e039
00000020: 4e11 e93a a200 aebb b5a1 93bb 9785 8fbb
00000030: 7f51 96b9 bc92 3abb 0941 b1bb 0de1 ab3b
00000040: 4ede 973b 895f 05bb bf2f 86bb 907e 323b
00000050: da14 81ba be84 51bb 8c05 adbb acb2 4238
00000060: 1fde 3fbb 4ba7 c43a b20d c13a 3b9e 35ba
00000070: 94e0 be3b 3f64 93ba c5c4 b93b 880b e23a
00000080: 9846 e13a 4acb 9c3b dc48 feba dc98 b13b
00000090: b408 2a3b c980 d6ba f290 2f3b 2643 b8bb
000000a0: b6e5 3e3a 7b47 a7ba 6545 9cba 77b8 98bb
000000b0: 376d 3e3b 159c 053b 9531 1fbb 27c3 963b
000000c0: 9764 91ba a976 13b9 3961 65bb c617 f33a
000000d0: 692c 0a3b 5b45 863a 54de c239 b270 babb
000000e0: 760f a13b 586a 72b9 002a 623b 07d6 6a3b
000000f0: 8f9f a6bb 9f60 7e3b 58f7 81bb aeb5 f13a
00000100: c842 a53b c6aa a43b 4fc8 ed3a 8910 aabb
00000110: 851c 4c3b 6450 66bb 2bd4 193b 347b b3bb
00000120: 810c 1fbb f1d5 91bb 75f4 93ba 3ab6 02bb
00000130: 2c38 b9bb 0356 bbbb 79fb 4c3a a866 503a
00000140: c59a 16bb b890 4abb 8a3d 92bb bc37 69bb
00000150: f8f7 12bb c6e7 1dbb 5a49 723b 8130 c63a
00000160: 9d6a 9d3b d158 9ebb 5944 073b e00e af3a
00000170: f8b7 9abb d296 4c3b a838 24bb d5bf 17bb
00000180: 6fc5 053b fb99 b23a 8b12 a539 9b9d ab3b
00000190: 1771 daba d2f8 69bb 10ef bebb ac19 a33a
000001a0: c43a 94bb 7a5d 9b3b 6b8d e23a cd1a b5ba
000001b0: 7d86 743b 9bfe a63b 4061 8c3b 0947 13bb
000001c0: a0db 083a 5d2c 4bbb acce 6d3b 0189 b43b
000001d0: a484 30b9 d395 7c3b 4c26 013b f061 3b3b
000001e0: 409a 8ebb 8305 84bb 0437 a3bb 2b1c b73b
000001f0: d841 1c3b 6329 8d3b 5e08 843b 083b 9a3b
00000200: 23d6 b9ba 792d babb 41ce 393a fd0a 1dbb
00000210: 03b7 203b 0f80 243b b70c 143a 9f63 b7bb
00000220: 2551 ce3a 010b 52bb 1607 30bb 72af 923b
00000230: 8346 45bb 31d5 f23a 8bb9 dbba e3d3 7639
00000240: 354e 32bb ad6a 0abb 4bf7 a23b 695d 513b
00000250: 9784 a2bb 1ca1 aa3b 1afd 65bb 6999 76bb
00000260: 2bdf a9bb bcb4 afb9 76d9 2ebb 98bc babb
00000270: 06d4 223b 8946 bbba 1e4b 133b c9ce 91bb
00000280: 3f0e 73bb 8089 5bbb 857e c8b9 2082 a8bb
00000290: 7691 873a a95e 4db8 f3da 9b3b d258 afb9
000002a0: ffcf a53b 77af 433b bd06 9836 3adc 7cb9
000002b0: 7259 e239 6811 033a 1c27 bbba 6c77 66bb
000002c0: a575 39ba 5fed 46bb 03a9 b7ba 274a 9bbb
000002d0: fb4a 983b 0baf 323b 0657 dcba c17a feba
000002e0: a359 b63b f490 b1bb 7deb b7bb 6c75 97ba
000002f0: 5e92 c93a 1cd5 91bb e740 703b 2c98 d3ba
00000300: ee29 903b 0313 7d3b d5ea 85bb 4d58 523b
00000310: d005 403b 80e7 6bba 62fe 853b 9f5c 9ebb
00000320: 98fa a83a 3c03 b6ba 18b4 afb8 cd09 11bb
00000330: 0e0b 23bb 1578 7e3b 23a4 5e3b 5dbf 863b
00000340: 51ee 93bb 3ecb 3a3a ef61 c439 57d0 89bb
00000350: 10fa 703b 2db4 f2ba 4e7e 48bb 9e2e 83b9
00000360: 6efa 313b 7b5a e03a 430f 993b c872 0f3a
00000370: cc29 a0bb fa09 09bb ad22 5dba 9228 aa3b
00000380: bb99 2a3b a1f2 d03a fbb1 9bbb 9af1 29bb
00000390: d943 193b 26d0 4ebb a545 08bb 7b4f b63b
000003a0: 7099 9f3a 5e1d 243b d21c 733b 5e46 b5bb
000003b0: ffd1 d53a eb93 8ebb 9fd1 ebba fe4c 373b
000003c0: e4a5 b6bb 106a 863b 4544 eb3a 1890 643b
000003d0: 2731 2d3b 50fd 213b f24c 1db9 5201 b23b
000003e0: 0582 4cbb bf79 26ba 5931 a2ba a4c2 d03a
000003f0: c728 3e3b 5650 673b 7146 343b 3c2a 82bb

_func._drift._model.0.bias f4 [16]
0.0055832 -0.00037901758 0.002337904 0.0021804678 -2.3960223e-05 -0.0022858742 0.0039574844 -0.005314227
-0.0052612764 -0.005163632 -0.002131101 0.0013170507 -0.00032998278 0.000118976306 0.0046560722 -0.0046867593
00000000: 47f3 b63b e1b6 c6b9 8537 193b 2ee6 0e3b
00000010: 30fe c8b7 9bce 15bb c9ad 813b f822 aebb
00000020: c966 acbb af33 a9bb f1a9 0bbb e3a0 ac3a
00000030: 8a01 adb9 eb82 f938 f791 983b 6393 99bb

_func._drift._model.2.weight f4 [16, 16]
-0.0025081853 0.0022335146 -0.005423464 -0.0059615197 -0.003812739 -0.005713156 -0.0020576923 -0.005480329
-0.00069245027 0.0031786798 -0.0049392227 -0.00575577 0.0034678334 -0.00196856 0.0024442647 0.0026858598
-0.0013021966 -0.0004004298 -7.848051e-05 -0.0047422587 0.0054625957 -0.00029829182 0.0021314274 0.00095599395
0.004999339 -0.0047908477 -0.0039492883 -0.00014233786 -0.0023501453 0.0020571349 0.005377317 -0.00032785878
-0.0051708636 0.0049949544 -0.0014965219 0.0019289315 -0.0019538123 0.0053644124 -0.00343241 0.00075258646
0.0027061922 -0.004944419 0.0016907965 -0.0034740171 0.005294435 0.0048948047 0.001892182 -0.0029364508
0.00021869579 0.0051277457 0.0037673295 -0.0028364933 -0.003244518 -0.0014982331 -0.0016981501 -0.0029105342
-0.0058825267 5.43008e-05 0.0013167469 -0.004252198 0.0030758514 -0.0026143554 0.0036652049 -0.0026712012
0.0054543344 -0.0034739398 0.0012699498 0.0016872162 0.0043996535 0.002963482 -0.004744414 -0.0010287142
-0.00029916284 0.003216579 -0.0032927191 0.0031395978 -0.0038595654 0.0023571525 -0.0042709564 0.0014260419
-2.5001273e-05 0.0044560977 -0.0027745648 0.0015497032 -0.0042216196 -0.0028429476 0.0032608176 0.0013151733
0.0047112615 0.0026940885 0.0036851463 -0.003026618 0.0005736949 -0.005434945 0.001755784 -0.0010694723
0.002198081 -0.0020682563 -0.0016497519 0.0035601784 0.003508688 0.0052635474 -0.0056959298 -0.0020710633
-0.0051731304 0.0011823509 0.0052100434 -0.0017859151 -0.0006042082 -0.0017286679 -0.0020537775 0.0016512031
0.0040273643 -0.003890356 0.0048146457 0.0044967476 -0.00023817047 -0.0041349423 -0.004678858 -0.0010361006
-0.00026673675 -0.0046197777 -0.005621238 0.0018317366 0.0004786648 0.0041496153 0.0011556203 0.002312301
0.00063297665 0.002496309 -0.0026875043 2.929973e-05 0.0031859085 0.0019589881 0.0028012756 -0.0052086893
-4.036497e-05 -0.0030935109 -0.0014151308 0.0026831557 -0.001205279 -0.0028397304 -0.00012736424 -0.0037561425
-0.0025006833 -0.0026923062 0.0054412084 -0.0027457124 -0.0032662924 -0.0015333004 0.0043074694 3.191414e-05
-0.0008867627 0.0033324535 0.0038417312 0.005548622 -0.004084088 0.0031080195 -0.0039408873 -0.0028718796
0.004952348 0.002100384 -0.00272403 -0.0014983678 0.0035047918 0.0010586898 -0.0012834739 -0.0015479014
-0.0017476476 -0.0009286317 0.004586104 -0.0042217197 0.0038516466 0.00095920573 0.005947297 0.0019808353
-0.0059931674 -0.002111606 -0.0010096101 0.0020926674 -0.005521521 0.002056345 -0.0012397652 -0.0033841378
-0.004255666 -0.003697249 -0.0053163483 -0.00043517505 0.0023761573 -0.003353936 -0.00343516 0.0002276168
-0.004874072 -0.0042182035 -0.001595471 0.0039732377 0.0030639146 0.0011168597 -0.001984326 -0.0050961804
0.0035354237 0.0002200594 0.0025450806 -0.00020847298 0.0032257952 -4.4586515e-05 0.0030849362 -0.0009766085
-0.0019624708 0.0011799168 -0.005900622 -0.004506072 0.0005982593 0.0057343207 -0.0016572874 -0.0018938355
0.003499705 0.0050855284 -0.003620018 0.005368475 -0.0019385056 0.0032462103 0.0017667281 0.0008061191
0.004821974 -0.0011228322 -0.00037285182 0.0037621653 -0.0023120854 0.0015023908 0.0035055235 0.00027269637
0.005762986 0.00038515046 0.0025777286 0.0033801573 0.0049605616 -0.0027954122 -0.00015187087 -0.0024054833
-0.0026973134 -0.0024723602 0.0007548241 -0.0041758283 -0.0024097504 0.0047372854 0.0019570128 0.0059988378
-0.0008979573 -0.0002278338 -0.0030760246 0.00091491645 0.0014337378 0.004465634 -0.0045188353 -0.00185842
00000000: 5e60 24bb 2860 123b 50b7 b1bb da58 c3bb
00000010: 25df 79bb 6d35 bbbb 59da 06bb 5594 b3bb
00000020: 8d85 35ba 6651 503b 34d9 a1bb e69a bcbb
00000030: 9744 633b f502 01bb f52f 203b 4005 303b
00000040: 78ae aaba c7f0 d1b9 e795 a4b8 f364 9bbb
00000050: 93ff b23b 0d64 9cb9 6baf 0b3b ab9b 7a3a
00000060: 7fd1 a33b 8bfc 9cbb 0869 81bb 8740 15b9
00000070: e504 1abb ffd0 063b 3434 b03b 76e4 abb9
00000080: 5970 a9bb b7ac a33b f126 c4ba 33d4 fc3a
00000090: 880b 00bb f4c7 af3b 49f2 60bb 3949 453a
000000a0: 5f5a 313b cb04 a2bb b79d dd3a 56ac 63bb
000000b0: f17c ad3b 9964 a03b 1803 f83a 7871 40bb
000000c0: b451 6539 a606 a83b 4de5 763b 76e4 39bb
000000d0: fba1 54bb 5c60 c4ba 7694 deba a9be 3ebb
000000e0: 36c2 c0bb 0ac1 6338 b296 ac3a 0656 8bbb
000000f0: 3994 493b 9b55 2bbb ef33 703b 520f 2fbb
00000100: 46ba b23b 0aab 63bb 7274 a63a 9525 dd3a
00000110: f82a 903b fa36 423b 0777 9bbb ecd5 86ba
00000120: f5d8 9cb9 3ecd 523b a9ca 57bb b6c1 4d3b
00000130: c3f0 7cbb 757a 1a3b 61f3 8bbb 07ea ba3a
00000140: d3b9 d1b7 7504 923b 79d5 35bb 691f cb3a
00000150: 8355 8abb bf50 3abb 71b3 553b e561 ac3a
00000160: ed60 9a3b 4e8f 303b 7f82 713b 395a 46bb
00000170: 0364 163a a017 b2bb 5622 e63a 892d 8cba
00000180: ae0d 103b 958b 07bb 7d3c d8ba e251 693b
00000190: 04f2 653b d679 ac3b eca4 babb adba 07bb
000001a0: 5d83 a9bb 1df9 9a3a 03b9 aa3b 5e15 eaba
000001b0: ba63 1eba 7894 e2ba ab98 06bb 2f6d d83a
000001c0: fbf7 833b 58f5 7ebb 2dc4 9d3b 7459 933b
000001d0: 66bd 79b9 697e 87bb 1b51 99bb c4cd 87ba
000001e0: cdd8 8bb9 8161 97bb 5d32 b8bb e216 f03a
000001f0: 4df5 fa39 7ff9 873b 2f78 973a f989 173b
00000200: 58ee 253a 1e99 233b d720 30bb b1c8 f537
00000210: adca 503b 5e62 003b 9b95 373b a7ad aabb
00000220: 8e4d 29b8 80bc 4abb e97b b9ba e2d7 2f3b
00000230: 74fa 9dba c51a 3abb 148d 05b9 9d29 76bb
00000240: 81e2 23bb 6771 30bb 2a4c b23b 69f1 33bb
00000250: 4b0f 56bb 06f9 c8ba ac25 8d3b 8cdb 0538
00000260: a375 68ba 4b65 5a3b 8ec5 7b3b 37d1 b53b
00000270: d0d3 85bb eaaf 4b3b 8f22 81bb 2536 3cbb
00000280: 4e47 a23b 99a6 093b a485 32bb e164 c4ba
00000290: a6b0 653b bcc3 8a3a 3d3a a8ba f4e2 caba
000002a0: 5311 e5ba 6b6f 73ba 0747 963b 5a56 8abb
000002b0: e86b 7c3b 3573 7b3a 8be1 c23b e7d0 013b
000002c0: 5562 c4bb df62 0abb e554 84ba 2225 093b
000002d0: e0ed b4bb bfc3 063b 9e7f a2ba 69c8 5dbb
000002e0: 1d73 8bbb 8c4d 72bb c334 aebb 3528 e4b9
000002f0: 4eb9 1b3b b5cd 5bbb 6c20 61bb 6bac 6e39
00000300: aeb6 9fbb db38 8abb 201f d1ba ef31 823b
00000310: f5cb 483b 9863 923a 770b 02bb dcfd a6bb
00000320: 91b2 673b bfbf 6639 5ecb 263b 8a99 5ab9
00000330: dd67 533b 6802 3bb8 a42c 4a3b 8b01 80ba
00000340: cc9c 00bb 70a7 9a3a 015a c1bb aca7 93bb
00000350: 81d4 1c3a f8e6 bb3b 5639 d9ba 933a f8ba
00000360: 4f5b 653b 81a4 a63b d33d 6dbb 08ea af3b
00000370: 7415 feba 5fbe 543b 8f91 e73a bd51 533a
00000380: a601 9e3b ff2b 93ba 537b c3b9 a98e 763b
00000390: 5b86 17bb dfeb c43a edbc 653b b0f8 8e39
000003a0: 6ed7 bc3b 05ee c939 1cef 283b a185 5d3b
000003b0: 358c a23b 3c33 37bb 873f 1fb9 50a5 1dbb
000003c0: 69c5 30bb 5207 22bb 63df 453a 63d5 88bb
000003d0: e7ec 1dbb 3b3b 9b3b 3a41 003b e691 c43b
000003e0: e564 6bba ace6 6eb9 2197 49bb 01d7 6f3a
000003f0: 42ec bb3a 7454 923b bd12 94bb 3a96 f3ba

_func._drift._model.2.bias f4 [16]
0.005111215 -0.0039929403 0.0025278216 -0.0043599787 -0.002716046 -0.0056606755 -0.0034210458 -0.002916791
0.0049071196 -0.0038513676 0.004169678 0.0006565958 0.002658633 0.004054643 0.004478265 -0.0046468354
00000000: fb7b a73b 36d7 82bb cfa9 253b 27de 8ebb
00000010: b1ff 31bb 307d b9bb a033 60bb a227 3fbb
00000020: e7cb a03b 3a67 7cbb cba1 883b 661f 2c3a
00000030: 763c 2e3b d0dc 843b 69be 923b 7b44 98bb

_func._diffusion._model.0.weight f4 [16, 17]
0.07965109 -0.061329857 -0.040664297 0.073905215 -0.11222688 -0.04564153 0.053620238 0.014941194
-0.02106465 0.08289076 0.06755184 0.061334 0.026536882 0.024486128 -0.031368323 0.02739125
-0.064168684 -0.050288364 0.011319644 -0.05746592 -0.02103371 -0.012058567 0.042874556 0.022446759
0.047196176 0.029764581 -0.016291244 0.013695649 -0.0007929112 0.044030797 0.040951256 0.003446644
-0.017262278 -0.076315895 0.013810013 0.034745295 0.039008006 0.052692022 -0.036115732 0.054500494
-0.053889327 -0.001985991 0.033939596 0.033592995 0.053231075 0.064914234 -0.052082583 -0.0019625071
0.041627295 0.018390305 0.005762595 0.028396035 0.013237539 -0.010485561 -0.021287173 -0.11928612
0.025266951 -0.015739733 0.026328264 -0.082321614 0.073195934 0.017739765 0.04275302 0.034533985
-0.030114274 -0.077786975 -0.036345158 -0.0490591 -0.08479746 0.013606367 0.026588706 -0.07166738
0.06528649 -0.06859474 0.002957104 -0.09823313 0.031046713 -0.111233704 -0.04537973 -0.025956819
-0.08721694 -0.035726156 0.0051947073 -0.04389819 0.01155233 0.08664188 -0.08288139 0.020898707
-0.019171987 -0.1011384 -0.054533362 -0.029742636 0.0019564345 -0.0770784 0.065589614 -0.023153163
0.07067889 -0.04916165 -0.044594735 0.032966614 0.047907658 0.0022333022 -0.116497934 -0.01852124
-0.024205023 -0.05241535 0.0023750288 -0.066187024 0.0082098115 -0.018510751 0.055600397 -0.08237731
-0.058053687 -0.052314628 -0.06143504 -0.037425634 0.04325874 -0.09019893 0.041555595 -0.03413827
-0.002364458 -0.018547418 -0.084132105 -0.005972155 -0.017951088 -0.036071923 -0.06414721 0.0040438403
-0.07233665 -0.051956855 -0.07962042 -0.03107303 0.006401707 -0.026767785 -0.065714166 0.028969642
0.036749482 -0.07211336 -0.005760846 0.031462435 -0.09529793 -0.015000239 0.03754882 0.05904925
-0.0017028883 -0.0066577573 0.006189903 0.05017545 -0.045530677 0.030617176 -0.05683122 0.01974653
-0.050800227 -0.03634979 0.046116997 0.0048025427 -0.1098239 0.005215891 -0.03549835 -0.033532403
-0.063705586 0.042416103 -0.04654861 -0.09045194 -0.040882833 -0.012212781 -0.0032796543 -0.00034155798
-0.07780892 0.044227947 -0.09861297 -0.044218883 -0.043113235 -0.022882849 0.04782169 0.019425347
-0.070164256 -0.04311745 0.06009855 -0.12596275 -0.06666819 -0.029343363 -0.045821432 0.007466727
-0.034657065 -0.047076344 0.022467779 0.007476731 0.025443638 -0.0030838307 0.03570473 -0.008492857
-0.013671074 -0.0051026917 0.05381094 -0.08328388 0.008650126 -0.028252412 0.06126296 0.032864157
-0.086491115 -0.01943106 0.05840616 -0.06257845 -0.063186586 0.0039156694 0.006820718 -0.09110737
0.04016323 0.0028978677 -0.063965045 -0.08086725 0.015907912 -0.045689102 -0.07862711 -0.055051338
-0.04161807 0.026694177 -0.015326915 -0.04564408 0.05915567 0.0641227 0.013015996 -0.0023873392
0.06498282 -0.068219125 -0.03763629 -0.014146819 0.03215351 -0.055015147 0.077618666 0.06689806
0.05368881 0.022714457 0.017691223 -0.014452619 -0.014731114 -0.011997378 0.008884008 0.0026197415
0.025474835 0.008943787 -0.01770577 0.009891862 -0.005046893 0.03606209 -0.07606043 0.015269761
0.027356679 0.0320866 -0.0044574086 -0.08946989 -0.031345226 0.0398182 -0.0252072 -0.0035978034
00000000: 1c20 a33d 0435 7bbd 9b8f 26bd 9e5b 973d
00000010: 35d7 e5bd 9df2 3abd e5a0 5b3d e9cb 743c
00000020: c68f acbc a1c2 a93d 9e58 8a3d 5c39 7b3d
00000030: e063 d93c 2297 c83c 127c 00bd 9d63 e03c
00000040: df6a 83bd 2cfb 4dbd 0776 393c 6261 6bbd
00000050: e34e acbc 4c91 45bc 3b9d 2f3d 44e2 b73c
00000060: c750 413d dad4 f33c 3775 85bc b763 603c
00000070: 5fdb 4fba a359 343d 81bc 273d 17e1 613b
00000080: 9f69 8dbc 824b 9cbd 6543 623c 1551 0e3d
00000090: dcc6 1f3d 97d3 573d 17ee 13bd e93b 5f3d
000000a0: 0ebb 5cbd 6627 02bb 3f04 0b3d cf98 093d
000000b0: d408 5a3d c1f1 843d 8c54 55bd 689d 00bb
000000c0: 6281 2a3d 44a7 963c 27d4 bc3b cd9e e83c
000000d0: 43e2 583c a1cb 2bbc 7062 aebc 484c f4bd
000000e0: a3fc ce3c 9df0 80bc 5fae d73c 3c98 a8bd
000000f0: c0e7 953d fc52 913c ca1d 2f3d 8273 0d3d
00000100: 36b2 f6bc c74e 9fbd a9de 14bd 32f2 48bd
00000110: 4aaa adbd 3ded 5e3c 8fd0 d93c 59c6 92bd
00000120: ecb4 853d 667b 8cbd f9cb 413b 742e c9bd
00000130: ad55 fe3c 7fce e3bd 19e0 39bd 65a3 d4bc
00000140: cc9e b2bd 9755 12bd 5d38 aa3b 97ce 33bd
00000150: fc45 3d3c 4c71 b13d b8bd a9bd c433 ab3c
00000160: 920e 9dbc a621 cfbd 605e 5fbd d4a6 f3bc
00000170: 8637 003b 48db 9dbd d953 863d b4ab bdbc
00000180: 18c0 903d ba5d 49bd f8a8 36bd 0008 073d
00000190: d23a 443d 985c 123b 7896 eebd dbb9 97bc
000001a0: 9d49 c6bc 7ab1 56bd 5fa6 1b3b 108d 87bd
000001b0: 7282 063c dca3 97bc 3ebd 633d 6fb5 a8bd
000001c0: b4c9 6dbd dd47 56bd 4fa3 7bbd 9f4b 19bd
000001d0: 1430 313d 37ba b8bd 3336 2a3d 92d4 0bbd
000001e0: 06f5 1abb c1f0 97bc 744d acbd 11b2 c3bb
000001f0: 290e 93bc 27c0 13bd 9d5f 83bd 3182 843b
00000200: 3d25 94bd b6d0 54bd 0810 a3bd de8c febc
00000210: 69c5 d13b 1d48 dbbc 2695 86bd be51 ed3c
00000220: a086 163d 2bb0 93bd 7bc5 bcbb c1de 003d
00000230: 902b c3bd 90c3 75bc cbcc 193d a0dd 713d
00000240: 7333 dfba 5129 dabb abd4 ca3b c684 4d3d
00000250: 607e 3abd dfd0 fa3c dac7 68bd 7ac3 a13c
00000260: e613 50bd 84e3 14bd 2de5 3c3d a65e 9d3b
00000270: 5aeb e0bd 11ea aa3b b866 11bd 4659 09bd
00000280: 1378 82bd 82bc 2d3d c1a9 3ebd de3e b9bd
00000290: c274 27bd 1e18 48bc 78ef 56bb 2313 b3b9
000002a0: 485a 9fbd 5d28 353d 99f5 c9bd dc1e 35bd
000002b0: 8197 30bd d074 bbbc ade0 433d e821 9f3c
000002c0: 47b2 8fbd ec9b 30bd e629 763d 61fc 00be
000002d0: 5589 88bd 7e61 f0bc 41af 3bbd 72ab f43b
000002e0: 91f4 0dbd 20d3 40bd 590e b83c 5eff f43b
000002f0: 2d6f d03c 181a 4abb 1f3f 123d a025 0bbc
00000300: a4fc 5fbc 7b34 a7bb dc68 5c3d bd90 aabd
00000310: 42b9 0d3c 9a71 e7bc dfee 7a3d 919c 063d
00000320: 4122 b1bd e32d 9fbc 4c3b 6f3d 2129 80bd
00000330: f867 81bd 044f 803b 5480 df3b 8096 babd
00000340: 3382 243d 27ea 3d3b 1b00 83bd bb9d a5bd
00000350: 4f51 823c 7f24 3bbd 4007 a1bd 837d 61bd
00000360: b677 2abd bfad da3c be1d 7bbc 49f5 3abd
00000370: 374d 723d c352 833d 0b41 553c e874 1cbb
00000380: b615 853d 78b6 8bbd 8328 1abd 0fc8 67bc
00000390: 66b3 033d 9057 61bd 89f6 9e3d da01 893d
000003a0: cce8 5b3d ab13 ba3c 2fed 903c adca 6cbc
000003b0: c55a 71bc a790 44bc 3b8e 113c f8af 2b3b
000003c0: 9ab0 d03c f688 123c b10b 91bc 7a11 223c
000003d0: 6860 a5bb d8b5 133d 92c5 9bbd 052e 7a3c
000003e0: 1d1b e03c 3d6d 033d 740f 92bb fd3b b7bd
000003f0: da63 00bd 6918 233d 547f cebc 20c9 6bbb

_func._diffusion._model.0.bias f4 [16]
0.107265025 0.014278987 0.015130451 0.09730785 -0.011105515 0.014595682 -0.058222186 -0.100124724
0.058471296 -0.027385632 -0.019504618 0.049901992 -0.082747914 0.09243958 0.077428795 0.008420217
00000000: c4ad db3d 6af2 693c b6e5 773c 5749 c73d
00000010: e8f3 35bc ba22 6f3c 637a 6ebd 310e cdbd
00000020: 997f 6f3d d557 e0bc 26c8 9fbc 0866 4c3d
00000030: bd77 a9bd f650 bd3d fd92 9e3d f3f4 093c

_func._diffusion._model.2.weight f4 [48, 16]
0.07245234 0.052677747 -0.008075635 0.046116233 -0.097238466 0.040479954 0.0043101944 -0.0057879803
0.037442673 -0.08574279 0.010906529 0.061290197 -0.056196105 -0.025373576 -0.018350532 0.07087233
0.035127707 -0.039711446 -0.027941588 0.010324078 -0.0718656 0.05044732 -0.034183443 -0.08760343
0.077284396 -0.009001193 0.008935781 0.066956155 -0.014397315 -0.025937539 -0.02964175 -0.0148731945
0.009732054 -0.023247214 -0.03414677 0.09712633 -0.085486464 0.039644048 -0.045094445 0.024787433
-0.013430426 -0.03029456 -0.08906016 -0.021597968 -0.029653959 0.00087139086 0.022283753 -0.019518482
0.07312199 0.058072403 -0.051970474 0.01379973 0.0055046156 -0.01718286 -0.043194436 -0.03384512
0.055552892 -0.042112052 -0.018236822 -0.012367353 -0.023295777 -0.006397074 0.062384587 0.04030794
0.06699667 0.0072039757 -0.008758566 0.09502288 -0.04183476 0.06740815 -0.06819968 0.009242756
0.04701913 -0.08224691 -0.035890155 -0.038193166 -0.027318265 0.0053804843 0.0024529437 0.014017694
0.0905958 0.01684182 -0.04999025 0.06691055 -0.028558563 0.04476209 -0.029221566 -0.018174458
0.03450827 -0.041793525 -0.004958285 0.059740443 -0.092479266 0.023456987 0.020374289 0.060886472
0.078818366 0.03888017 -0.059345737 0.02582796 0.0043727756 0.007841886 -0.04420915 -0.07102065
0.05148663 -0.020762678 -0.040586576 0.0454856 -0.04490876 -0.004724036 0.07437342 0.051157698
0.085981525 0.0057923337 -0.034640484 0.015804464 -0.06280597 0.0007931946 -0.012875142 -0.06185079
0.09288675 -0.08462755 -0.024184315 0.057955224 -0.08835409 0.042923927 0.080716 0.040133607
-0.027069902 -0.022934875 -5.0583698e-05 0.036987346 -0.05490237 0.04608355 -0.023122162 0.01999167
0.04132391 0.008116302 -0.04460511 0.023202028 0.0057787993 0.027729925 0.06726701 0.057756558
-0.0013352103 -0.013949852 -0.009544234 0.018437788 -0.027477678 0.046262026 0.009284195 -0.07812494
0.047503904 -0.03750096 -0.06180502 0.06531702 -0.09000439 0.00248248 0.059743177 -0.030708775
0.001201935 -0.00741797 0.041269403 0.043045383 -0.103438765 0.0034512666 -0.0647603 -0.07122774
0.014718389 -0.06474545 -0.1008908 0.03913 -0.052959725 0.0728747 0.019469265 0.06442799
0.085838236 0.0028241244 -0.038798157 0.030195825 -0.09034779 0.025300672 -0.065638654 -0.07797061
-0.022550683 -0.020262165 0.014043166 -0.012232535 -0.0825058 0.017182069 0.032562103 0.07205272
-0.033030264 0.021734307 0.011301072 -0.04988656 0.002193778 -0.05021698 0.0076937955 -0.027732685
-0.016846644 0.021355843 0.057704855 -0.017820379 0.060385 -0.04878136 -0.08353478 -0.072583824
0.010267959 -0.007778967 -0.0013094089 -0.09776305 0.015607904 -0.06257529 0.004981909 0.032466203
-0.070605196 0.013741145 0.043336727 -0.04143786 0.05388719 0.029699886 0.037363425 0.024743922
-0.051714726 0.02347858 0.036410563 -0.05090263 0.07016525 0.010057879 0.032300826 0.08398809
-0.02804419 0.073957205 0.0065238206 -0.023648612 0.081757404 -0.052114483 -0.037658986 -0.0782983
-0.007263957 -0.0062644514 -0.042631254 0.02867954 -0.040454146 -0.0010528438 -0.06624634 -0.019799784
0.0049044522 -0.088643566 -0.06342611 0.049767144 0.0015332759 0.066706076 -0.002759175 0.030226886
00000000: e461 943d 9fc4 573d ab4f 04bc 60e4 3c3d
00000010: f624 c7bd 4fce 253d 883c 8d3b 19a9 bdbb
00000020: 7d5d 193d ea99 afbd 4cb1 323c 6e0b 7b3d
00000030: e32d 66bd 3fdc cfbc db53 96bc 8325 913d
00000040: 12e2 0f3d 78a8 22bd c2e5 e4bc 5226 293c
00000050: 462e 93bd d9a1 4e3d f003 0cbd 6d69 b3bd
00000060: 4847 9e3d bd79 13bc 6267 123c 4f20 893d
00000070: b7e2 6bbc f67a d4bc 41d3 f2bc b3ae 73bc
00000080: 3173 1f3c f170 bebc 7cdd 0bbd 2bea c63d
00000090: 8713 afbd cc61 223d f4b4 38bd 040f cb3c
000000a0: 4a0b 5cbc 4c2c f8bc 2c65 b6bd 39ee b0bc
000000b0: dcec f2bc 0d6e 643a 6b8c b63c 39e5 9fbc
000000c0: fbc0 953d 54dd 6d3d fede 54bd 4318 623c
000000d0: 1060 b43b 12c3 8cbc a6ec 30bd 2ea1 0abd
000000e0: 6e8b 633d b07d 2cbd 6365 95bc 70a0 4abc
000000f0: c9d6 bebc 8c9e d1bb fb86 7f3d f019 253d
00000100: 8d35 893d 540f ec3b 1780 0fbc 5b9b c23d
00000110: ed5a 2bbd 490d 8a3d 46ac 8bbd ee6e 173c
00000120: 2297 403d 1171 a8bd 8e01 13bd 7070 1cbd
00000130: 8eca dfbc c64e b03b 91c1 203b 78aa 653c
00000140: 4a8a b93d dbf7 893c 94c2 4cbd 6608 893d
00000150: a6f3 e9bc 7458 373d 1162 efbc 9ae2 94bc
00000160: 8b58 0d3d b02f 2bbd 1c79 a2bb 65b2 743d
00000170: c565 bdbd de28 c03c fbe7 a63c 1864 793d
00000180: 866b a13d d040 1f3d 8414 73bd 2895 d33c
00000190: 8049 8f3b 417b 003c a714 35bd 4673 91bd
000001a0: a5e3 523d 7e16 aabc 1c3e 26bd 1c4f 3a3d
000001b0: 3ff2 37bd 16cc 9abb 1751 983d bc8a 513d
000001c0: 1517 b03d 9ecd bd3b 2ee3 0dbd 5d78 813c
000001d0: 6ba0 80bd 63ee 4f3a 42f2 52bc 4157 7dbd
000001e0: 693b be3d 3551 adbd 2f1e c6bc 7562 6d3d
000001f0: fdf2 b4bd 00d1 2f3d 6e4e a53d 2363 243d
00000200: b3c1 ddbc ebe1 bbbc d529 54b8 0b80 173d
00000210: 4fe1 60bd 1bc2 3c3d b06a bdbc 92c5 a33c
00000220: 4343 293d 3dfa 043c d9b3 36bd 2e12 be3c
00000230: 155c bd3b de29 e33c 49c3 893d 2492 6c3d
00000240: 3902 afba ec8d 64bc 6b5f 1cbc d80a 973c
00000250: de18 e1bc 407d 3d3d bc1c 183c f8ff 9fbd
00000260: 7493 423d 9b9a 19bd 4327 7dbd eec4 853d
00000270: 3954 b8bd 1ab1 223b 43b5 743d f890 fbbc
00000280: 3f8a 9d3a 7112 f3bb 1b0a 293d 5b50 303d
00000290: b4d7 d3bd a52e 623b 0ca1 84bd d9df 91bd
000002a0: 6625 713c 4399 84bd d69f cebd c746 203d
000002b0: 4cec 58bd 553f 953d 027e 9f3c d2f2 833d
000002c0: f5cb af3d f214 393b d1ea 1ebd 3c5d f73c
000002d0: 4308 b9bd 5b43 cf3c 8f6d 86bd 0eaf 9fbd
000002e0: 36bc b8bc d7fc a5bc 4f15 663c f86a 48bc
000002f0: cdf8 a8bd 69c1 8c3c d75f 053d 6090 933d
00000300: be4a 07bd 250c b23c 2228 393c d955 4cbd
00000310: 7dc5 0f3b 52b0 4dbd 3c1c fc3b a82f e3bc
00000320: f901 8abc 73f2 ae3c ed5b 6c3d 0bfc 91bc
00000330: 4356 773d f7ce 47bd 4814 abbd d4a6 94bd
00000340: f13a 283c b4e6 febb 79a0 abba fe37 c8bd
00000350: 4bb8 7f3c 7927 80bd 483f a33b 48fb 043d
00000360: 7599 90bd 8a22 613c da81 313d bfba 29bd
00000370: d0b8 5c3d 2d4d f33c 640a 193d c4b3 ca3c
00000380: d2d2 53bd 2756 c03c 3e23 153d 477f 50bd
00000390: ccb2 8f3d cdc9 243c df4d 043d f301 ac3d
000003a0: eebc e5bc e076 973d c6c5 d53b bcba c1bc
000003b0: 6d70 a73d ff75 55bd 4f40 1abd dc5a a0bd
000003c0: 7d06 eebb 0746 cdbb 1c9e 2ebd 5bf1 ea3c
000003d0: 3fb3 25bd 93ff 89ba 29ac 87bd 2833 a2bc
000003e0: 87b5 a03b c28a b5bd 8ce5 81bd a2d8 4b3d
000003f0: 34f8 c83a 329d 883d 46d3 34bb 609e f73c

_func._diffusion._model.2.bias f4 [48]
0.06721858 0.086041756 0.09863299 0.07828716 0.029385133 0.051474422 0.036990695 0.057724006
0.02218086 0.028347718 0.10947969 0.026734695 -0.042026706 -0.014761486 -0.07772201 0.0011346856
0.005598252 0.06849089 -0.054775536 -0.10539208 -0.09195656 -0.009992206 -0.049913928 -0.102232315
-0.02386105 -0.021535452 0.057779618 -0.07102376 -0.025988586 -0.043236673 -0.013601807 -0.056913804
-0.107374094 0.09387595 0.07129368 0.08659937 0.042788632 0.01008687 0.018252375 0.004995404
-0.025179056 -0.07036913 0.045853924 0.0704643 0.09579413 -0.054179855 -0.017422331 0.0012984184
00000000: e5a9 893d a936 b03d 1800 ca3d 0555 a03d
00000010: 17b9 f03c d8d6 523d 8e83 173d 0270 6c3d
00000020: a3b4 b53c 7939 e83c e336 e03d b802 db3c
00000030: 3224 2cbd 29da 71bc b82c 9fbd bbb9 943a
00000040: 8b71 b73b f444 8c3d 505c 60bd ced7 d7bd
00000050: b953 bcbd 59b6 23bc 8c72 4cbd 2d5f d1bd
00000060: 4078 c3bc 1e6b b0bc 52aa 6c3d e874 91bd
00000070: 04e6 d4bc f018 31bd 1dda 5ebc 731e 69bd
00000080: f3e6 dbbd 0942 c03d 6c02 923d 035b b13d
00000090: 2243 2f3d 6643 253c 0186 953c 7cb0 a33b
000000a0: 4f44 cebc b11d 90bd 53d1 3b3d 964f 903d
000000b0: b62f c43d b2eb 5dbd 47b9 8ebc b12f aa3a

_readout.weight f4 [1, 16]
-0.095142365 -0.19271685 -0.24056515 -0.20614478 0.078332484 -0.099319406 0.008389657 0.12941523
-0.02770943 0.07033047 0.08718426 -0.27069414 -0.23625256 -0.004751269 -0.069071144 0.14631055
00000000: 00da c2bd 9157 45be b656 76be 9e17 53be
00000010: c86c a03d f967 cbbd c674 093c 6d85 043e
00000020: e3fe e2bc 6c09 903d a98d b23d 6c98 8abe
00000030: 31ec 71be 88b0 9bbb 2c75 8dbd 6fd2 153e

_initial._model.0.weight f4 [16, 2]
-2.4141548e-06 -0.3391782 -2.5854433e-06 1.21407 3.59357e-07 -0.723172 5.4667917e-06 -0.5656816
-4.075512e-06 -0.3142813 2.7827675e-06 -0.70255405 2.8318905e-06 0.8977656 -1.6504517e-06 1.3424411
2.0541182e-07 -0.7400315 -3.1442423e-06 0.7401251 -3.7553166e-06 0.10555324 5.5014957e-06 -0.34015235
-5.682518e-06 -1.3921309 2.7130902e-06 0.37536907 1.1658337e-06 0.6236923 -1.6068851e-06 0.62574583
00000000: dd02 22b6 c4a8 adbe 9481 2db6 a566 9b3f
00000010: a6ed c034 cd21 39bf 626f b736 82d0 10bf
00000020: 62c0 88b6 7be9 a0be 95bf 3a36 95da 33bf
00000030: 820b 3e36 f7d3 653f 1785 ddb5 1cd5 ab3f
00000040: 2c8f 5c34 b472 3dbf ac01 53b6 d778 3d3f
00000050: d903 7cb6 4c2c d83d 7d99 b836 7328 aebe
00000060: 75ac beb6 5831 b2bf 8912 3636 6030 c03e
00000070: be79 9c35 4caa 1f3f 27ac d7b5 e130 203f

_initial._model.0.bias f4 [16]
-0.5048843 -0.03393476 0.07265642 0.542583 -0.25128543 -0.0019280189 -0.3256366 -0.5219665
0.7513222 0.14157285 -0.06993544 -0.126671 -0.21919233 -0.3518513 0.061782915 0.3664116
00000000: 1940 01bf 2dff 0abd e4cc 943d b8e6 0a3f
00000010: 7ca8 80be 94b5 fcba d7b9 a6be 999f 05bf
00000020: a756 403f 79f8 103e 503a 8fbd 0bb6 01be
00000030: f473 60be db25 b4be 1510 7d3d 4d9a bb3e

_initial._model.2.weight f4 [16, 16]
-0.042085625 -0.49184605 -0.015233636 -0.057708316 -0.25014463 -0.14837848 -0.15718237 -0.19610219
-0.040619683 -0.21675366 -0.0026647365 -0.17161857 -0.18826701 -0.11078025 0.080808714 -0.2043471
0.10493217 0.3831133 0.4166379 0.2675197 0.16775998 0.37379986 0.23764321 0.26974872
0.20479733 0.22280927 0.00028851553 0.14164045 0.50740635 -0.17468275 0.06953622 0.27967468
-0.27670333 0.38957706 0.12597659 0.15237854 -0.37074032 0.13753384 0.073761135 0.12780893
0.2473247 0.4487811 -0.26595 -0.2663933 0.28475147 -0.023320645 0.07689434 0.53285587
0.018357484 0.610704 0.16811833 0.096795164 -0.06849276 0.08319908 0.3290449 0.43122798
0.17635989 0.11680602 -0.18843274 0.17782092 0.27837422 -0.030813446 0.3238789 0.018895375
-0.10483135 0.45668617 0.18350326 0.15271074 -0.061103307 0.32906488 0.09909789 0.49771753
-0.16152634 0.30134562 -0.19000708 0.1195297 0.61051 0.036814 -0.07386267 -0.018000392
0.028252091 0.5209673 -0.06575026 0.089637555 0.24025665 0.21293142 0.2824375 0.47023717
0.07863417 0.3035037 0.13385755 -0.075560525 0.3192865 0.16759492 0.11340643 -0.07049546
0.21346709 -0.015881259 0.0108844815 -0.10096096 0.3117147 -0.07730242 0.08727917 -0.018256625
-0.16156256 -0.42467326 0.08731705 0.39966065 0.14420573 -0.015168495 -0.06525633 -0.079896
-0.1597524 -0.32587102 0.055607807 -0.28026813 0.07247521 -0.12503335 -0.17701915 -0.4159002
-0.1317865 0.0054337042 0.12029551 -0.0394381 -0.6032546 0.06264161 0.043329015 -0.23657824
0.31140363 0.14349951 -0.061790142 0.10866238 0.15042967 0.08005891 0.33020878 0.50699747
-0.11251325 0.22232135 -0.0037506341 0.19168192 0.61669743 0.13564 -0.15893164 0.2208776
0.13151433 -0.23541597 -0.22988398 -0.0069160215 -0.13635513 -0.45355427 -0.24893536 -0.2912447
-0.2087638 -0.005700539 0.20197183 0.0559605 -0.6277064 -0.13238397 -0.123909205 0.018075628
-0.11679307 0.1414291 0.18509814 -0.14998029 -0.06541649 0.4080923 0.29429406 0.3340825
0.004308707 0.24909444 -0.09291034 0.27764073 0.2201532 0.17460467 -0.013524568 -0.055690758
-0.0858412 0.2530724 0.17805511 0.098229855 0.2044946 0.35390478 0.20665911 0.10936806
0.20240618 0.052887805 -0.079586335 0.07821674 0.5911314 -0.14350231 0.16398166 0.08028258
-0.031839315 0.3028739 0.13269621 -0.18759626 0.08578002 0.3060197 0.31910715 0.3514356
0.19763519 0.2328457 -0.080097884 -0.073078014 0.55332917 0.34594464 0.22297412 0.16840781
0.15948768 0.38102087 0.37595028 0.26856673 -0.07016143 0.45863795 0.32418144 0.078919575
0.16706023 0.011462327 -0.106494695 0.1051302 0.61057246 -0.15070076 0.17365254 0.2110351
0.3149687 -0.25355843 0.30846006 0.18089029 0.15244961 0.45688474 0.15344688 -0.04773361
-0.063617535 -0.09206041 -0.030100884 0.41356227 0.35557613 -0.06510392 -0.08556969 -0.3085418
-0.0031437303 -0.42012784 -0.22882636 0.070132546 -0.23662557 -0.19521616 -0.29864478 -0.40873498
-0.15366402 -0.13513263 -0.024051066 -0.20768952 -0.4637235 -0.23614836 -0.007564392 -0.080393724
00000000: fa61 2cbd 3fd3 fbbe 8096 79bc 8e5f 6cbd
00000010: f512 80be 87f0 17be 6af4 20be 03cf 48be
00000020: d360 26bd acf4 5dbe dca2 2ebb c7bc 2fbe
00000030: 11c9 40be c1e0 e2bd 0a7f a53d 5e40 51be
00000040: ade6 d63d 6d27 c43e 9051 d53e 58f8 883e
00000050: 46c9 2b3e b262 bf3e be58 733e 811c 8a3e
00000060: 64b6 513e 1d28 643e e643 9739 320a 113e
00000070: 62e5 013f 09e0 32be 0169 8e3d 8531 8f3e
00000080: 0fac 8dbe a576 c73e 0200 013e 1f09 1c3e
00000090: add1 bdbe acd5 0c3e 1410 973d 58e0 023e
000000a0: b042 7d3e a3c6 e53e 992a 88be b464 88be
000000b0: f2ca 913e f00a bfbc c87a 9d3d 3e69 083f
000000c0: 6f62 963c 1957 1c3f 3627 2c3e 8b3c c63d
000000d0: ef45 8cbd 4764 aa3d 9378 a83e eac9 dc3e
000000e0: b097 343e ff37 ef3d 83f4 40be b016 363e
000000f0: 1187 8e3e 7b6c fcbc 75d3 a53e 79ca 9a3c
00000100: d2b1 d6bd c5d2 e93e 47e8 3b3e 3460 1c3e
00000110: 7647 7abd 317b a83e d6f3 ca3d d5d4 fe3e
00000120: 2967 25be f949 9a3e 3791 42be fdcb f43d
00000130: 624a 1c3f 47ca 163d 5045 97bd 8f75 93bc
00000140: ee70 e73c 1d5e 053f 13a8 86bd e593 b73d
00000150: d705 763e b20a 5a3e a69b 903e edc2 f03e
00000160: f40a a13d d664 9b3e f411 093e 7abf 9abd
00000170: 8579 a33e 019e 2b3e a141 e83d ec5f 90bd
00000180: 1e97 5a3e 6a19 82bc d354 323c 9fc4 cebd
00000190: 1299 9f3e bb50 9ebd 6cbf b23d eb8e 95bc
000001a0: a870 25be c66e d9be 48d3 b23d 52a0 cc3e
000001b0: abaa 133e 4785 78bc 1ca5 85bd 84a0 a3bd
000001c0: 2296 23be 91d8 a6be 03c5 633d 4e7f 8fbe
000001d0: e26d 943d be08 00be 8244 35be dff0 d4be
000001e0: 0af3 06be 370d b23b 7e5d f63d d889 21bd
000001f0: e56e 1abf 3f4a 803d c479 313d 9141 72be
00000200: 4c70 9f3e 89f1 123e a917 7dbd 628a de3d
00000210: 3c0a 1a3e edf5 a33d 2011 a93e 96ca 013f
00000220: 596d e6bd 35a8 633e 33cd 75bb 4448 443e
00000230: e2df 1d3f 36e5 0a3e fabe 22be bd2d 623e
00000240: b1ab 063e e210 71be b566 6bbe cb9f e2bb
00000250: aea0 0bbe 4438 e8be e9e8 7ebe 061e 95be
00000260: 2dc6 55be 96cb babb b4d1 4e3e d636 653d
00000270: 5eb1 20bf aa8f 07be 1cc4 fdbd 5713 943c
00000280: 3531 efbd cad2 103e 5e8a 3d3e 6f94 19be
00000290: 15f9 85bd 79f1 d03e b6ad 963e dd0c ab3e
000002a0: 0e30 8d3b 9d12 7f3e c747 bebd ed26 8e3e
000002b0: d76f 613e 91cb 323e 2696 5dbc fe1b 64bd
000002c0: 83cd afbd b592 813e 1454 363e bc2c c93d
000002d0: 0867 513e 0233 b53e 729e 533e 5dfc df3d
000002e0: 9143 4f3e e2a0 583d 29fe a2bd 1930 a03d
000002f0: 6354 173f 45f2 12be cfea 273e 316b a43d
00000300: f169 02bd 4a12 9b3e 84e1 073e 3c19 40be
00000310: 6fad af3d 9dae 9c3e 0362 a33e 5eef b33e
00000320: e160 4a3e 1a6f 6e3e 5c0a a4bd eda9 95bd
00000330: fba6 0d3f a81f b13e 5453 643e 1973 2c3e
00000340: bd50 233e 2b15 c33e 8e7c c03e 9481 893e
00000350: ccb0 8fbd 98d2 ea3e 1cfb a53e 96a0 a13d
00000360: d611 2b3e 7ccc 3b3c e419 dabd 814e d73d
00000370: 7a4e 1c3f 4d51 1abe f9d1 313e 9619 583e
00000380: 9443 a13e 69d2 81be 7aee 9d3e 4e3b 393e
00000390: c01b 1c3e ccec e93e 2e21 1d3e 5184 43bd
000003a0: e949 82bd 2b8a bcbd 2196 f6bc 6fbe d33e
000003b0: 130e b63e 3455 85bd 293f afbd 31f9 9dbe
000003c0: 0b07 4ebb ff1a d7be 7551 6abe a7a1 8f3d
000003d0: f94d 72be bfe6 47be f8e7 98be b645 d1be
000003e0: 1a5a 1dbe 3560 0abe be06 c5bc 90ac 54be
000003f0: 2b6d edbe e0d0 71be b8de f7bb 77a5 a4bd

_initial._model.2.bias f4 [16]
0.34079903 0.10442281 0.31380785 -0.022541592 -0.22061136 0.10974726 -0.3385456 0.031679664
-0.24940395 -0.22383988 0.10010662 0.18825571 -0.083690666 0.039946087 -0.28979182 0.15390734
00000000: 367d ae3e a0db d53d 6cab a03e 25a9 b8bc
00000010: f2e7 61be 2cc3 e03d d955 adbe 89c2 013d
00000020: c063 7fbe 4836 65be b304 cd3d 1bc6 403e
00000030: 0366 abbd 829e 233d 985f 94be e399 1d3e
