train/checkpoints/2024-01-22_10-35-03/discriminator.pt (torch, 8527 bytes, 9 tensors)

_initial._model.0.weight f4 [16, 2]
00000000: 7872 12bb 144b 89bc 20e6 45bc bcb6 973d
00000010: 4197 a6bc 1a72 f03d 3335 c4ba b522 a5bc
00000020: 1f65 afbc 24de 0fbc be75 423c 2097 c5bc
00000030: 5381 993a d025 97bc 4420 b9bc 8d7a 20bd
00000040: 609e 233c 6faa da3d d868 d5bb f75e 4a3c
00000050: d50a a5bb 4a95 b839 d2f9 b73c fbbc 9dbc
00000060: e03f 09bb 60aa 2cba 2565 9abb 0f66 8fbd
00000070: bcc7 a43c e95e 7d3b cf65 04bc ee32 b7bc
-0.002234606 -0.016759433 -0.012078792 0.07407901 -0.020335795 0.11740513 -0.0014969468 -0.020158151
-0.021410523 -0.00878099 0.011868892 -0.024119914 0.0011711515 -0.018450648 -0.022598393 -0.039179374
0.00998649 0.10677039 -0.0065127425 0.012351743 -0.0050366917 0.00035206444 0.02245799 -0.019255152
-0.0020942613 -0.0006586667 -0.0047117644 -0.07001888 0.020114772 0.0038661307 -0.008080914 -0.022363152

_initial._model.0.bias f4 [16]
00000000: 291b 8e3e 04c7 70be 4b16 6cbe 1721 713e
00000010: ee4e 8a3e a8e8 fc3d d8c5 36be 6cd5 77be
00000020: 733e 1dbd 66e8 1d3e 0a1a f63d 97c6 c33e
00000030: c81d 6ebe f82b 8dbe 19ef e5bd 8697 afbd
0.27755097 -0.23513418 -0.23055379 0.23547779 0.27013344 0.12349063 -0.17848909 -0.24202508
-0.038389634 0.15420684 0.12016685 0.3823745 -0.23253548 -0.27572608 -0.11227245 -0.08573823

_initial._model.2.weight f4 [16, 16]
00000000: a2b2 163d 9e17 553b e802 63bd 2f9f 493d
00000010: 2cbf 843d a6ff 5f3d dc92 b0bd 9a47 74bc
00000020: 56af afbc f60f 9f3d 6547 d83c 0b94 733d
00000030: 5bca 283d 3d07 4f3d 95f7 c2bc 022a 3bbd
00000040: 704e ccbc 0ef7 943b 3d47 103d 42d4 82bd
00000050: 9211 0ebe dd2d aa3c a04e e4bc 88ec b83d
00000060: 1f49 2fb8 8d18 17bb 5595 d0bc b5f5 14be
00000070: 4cf1 6ebd ced9 95bd 0d46 07bd 98ba 313c
00000080: 9c2d 4d3d cf63 80ba 70b1 2a3c 227d b6bc
00000090: 60ef 0ebd f084 0b3d b178 293d 522d 673d
000000a0: 5a84 17bd 30ac be3c 9aef f9bc 74a4 c73a
000000b0: 5e17 173d 7d60 6cbd 7647 a4bc 8671 913b
000000c0: 787a f53d 1d7e 85bd 9e28 1abb e831 003d
000000d0: 80ac 863c 2ab0 233d 8024 63bd 05fc 29bd
000000e0: 0614 3cbd 0a19 343d 3359 e33c 7fe4 db3d
000000f0: 7f39 2e39 fafe dfbd 1e10 1cbc cbbf 193a
00000100: 9264 b33b fcf0 c33b af3f 84bd afb9 3d3c
00000110: 3605 c2bd 3a44 1bbd 96dc 24bb 6013 803d
00000120: c672 c23b 5df7 75bd 36fe 08bd 6381 adbd
00000130: 55df 583d af7a 8abd b9a4 7e3b a065 fa3c
00000140: 03e0 c7bd fbb9 0f3d e497 923d 94b8 ec3d
00000150: 104e f93c 6f5b 7bbb 080d b1bd 8f57 2cbc
00000160: 4b18 6cbc 6ed2 8bbc 0490 8b3d cbdc 96bd
00000170: e035 0f3d cf17 053c 37cb fb3b 2ce8 89bd
00000180: fe4b 99bd 41a7 8dbd 2101 56bc 8a24 2abd
00000190: d4e2 4f3d 04f8 513c dca8 8abb e9c4 563d
000001a0: 0f4c 0dbd 5686 0b3d 6ac1 f6bc a2f9 ae3d
000001b0: 4e66 cabc eb72 debb 5a32 223d f13d ee3b
000001c0: 737f 623d 3a9c 56bd 26a2 d0bd 6e0f 2a3d
000001d0: 17e0 c03d 75dc ea3c 1e2b 52bd a222 81bd
000001e0: abfa c6bb cfa2 7e3d 6db6 5e3d a1b5 b83d
000001f0: 81ba 82bd 7f80 e5bc c3b0 10bd f2b5 7cbc
00000200: fb83 473d 8b51 f9bb 538c 04be b4fc 6b3c
00000210: 6bf2 833d 7204 113c 3e33 c53c 2d75 2cbd
00000220: a3d0 71bd 88c2 7a3d 86a1 7d3d 7cf3 093e
00000230: 7fc7 ae3a 9308 9fbd 14d3 a73b c715 b0bc
00000240: d7f0 de3d 63db 213d feda 9abb 5763 7c3d
00000250: 521f 273c 340b 323d 2485 d3bb 886d 68bd
00000260: 6142 19bd f5ef a73d 86b8 b83c bc2a d23d
00000270: c07e a1bd 8308 b33d f54e 3fbc 2079 cdbc
00000280: 3a8f 223e 8d66 83bd 906b 11bd 9d0b 4b3e
00000290: 3e31 493e 1301 bb3d 805b 1ebd a688 17be
000002a0: 7f9e 5ebc dfb3 be3d 27f9 943d 74ea 0b3d
000002b0: 1a98 37bd 52ff e8b8 049b f3bd 0b28 87bd
000002c0: ec2c 4ebd a9cc a53d 56fc 4d3d d328 c1bd
000002d0: 854a 083d 24d3 e9b9 1d8d b13c 24cf 983c
000002e0: fda5 3d3a 97ed 00bd ac67 d33c 27c0 b6bd
000002f0: 5ad3 743d 1c63 84bd de70 62bd 1e03 5cbc
00000300: c490 0abb fc29 f6ba ed88 e73b ba54 193d
00000310: 65be 92bd 6c9e ba3b f43d 4a3d 76fc 3e3d
00000320: efa9 90ba fde7 c33c 9397 043d 647f 6d3c
00000330: 5402 953c 5be7 7dbd 976e 8c3c ec03 92bc
00000340: e614 25bd 1dcd 8a3d e87a 733d 18b0 47bc
00000350: 3527 d7bc db5d c6bc 8bdf 0f3d 1990 923d
00000360: 48d4 b6bb 74f4 09bd 1511 4bbd 84b5 6abc
00000370: 7779 013d 5f57 463c 5a8c 683d 8ab7 303d
00000380: 2aad 763d d1b8 8d3d 6364 ce3d 6237 7abd
00000390: 05d0 583d 2c4b 823d 6eed 5abd 812b f9bc
000003a0: 480f 753a c618 b23d f053 4e3c 2d6f 183e
000003b0: c03f 853d 8abb 1f3d 4b4e 8839 d127 75bd
000003c0: 0dd1 45bd afa5 0fbd 3547 3a3d ad0a cebc
000003d0: 295d 52bd 839b 443d ccb3 0d3d 7ed5 39bd
000003e0: 312e 89bc 8809 a3bc e779 4b3d c8f3 64bd
000003f0: af02 55bd e281 ecbc 2d08 a4bc 39a9 73bc
0.03679145 0.0032515298 -0.055422693 0.049224075 0.06481776 0.054687165 -0.08621761 -0.014909649
-0.021445911 0.07766716 0.026401231 0.059467357 0.041208606 0.050544012 -0.023799697 -0.04569436
-0.024939746 0.004546053 0.035224188 -0.06388141 -0.1387389 0.020773822 -0.027869523 0.0902949
-4.179135e-05 -0.0023055405 -0.025461832 -0.14546855 -0.058335587 -0.073169336 -0.03302579 0.01084771
0.050092325 -0.000979537 0.010418281 -0.022276465 -0.034896255 0.034062326 0.041374866 0.056439705
-0.036991455 0.023275465 -0.030509759 0.0015231506 0.03688752 -0.057709206 -0.020053606 0.004438582
0.1198625 -0.06518195 -0.0023522745 0.031297594 0.016439676 0.039962925 -0.05545473 -0.04150011
-0.045917533 0.04396919 0.027752494 0.107369415 0.00016615352 -0.10937305 -0.009525327 0.0005865066
0.0054746354 0.0059796553 -0.06457459 0.011579915 -0.0947365 -0.037906863 -0.0025155894 0.062536955
0.005934092 -0.060050357 -0.03344556 -0.08471944 0.05294736 -0.06761681 0.0038855507 0.030566037
-0.09759524 0.035089474 0.07157877 0.11558643 0.03043273 -0.003835406 -0.08645064 -0.0105189225
-0.014410089 -0.017068114 0.06814578 -0.07366332 0.03496349 0.008123352 0.007684137 -0.067337364
-0.074851975 -0.06916667 -0.013061793 -0.041538753 0.05075343 0.012815479 -0.0042315554 0.052433882
-0.034496363 0.03406366 -0.030121524 0.085437074 -0.024706986 -0.0067886016 0.0395988 0.0072705676
0.055297326 -0.052395083 -0.10187177 0.04151862 0.09417742 0.028669575 -0.05131065 -0.06305434
-0.0060723624 0.062166985 0.054373194 0.09019018 -0.06383229 -0.028015373 -0.035324823 -0.0154242385
0.04870985 -0.0076085976 -0.12944154 0.014403511 0.06442722 0.0088511575 0.024072286 -0.042103935
-0.059036862 0.061220676 0.06192162 0.13471788 0.0013334601 -0.07765307 0.005121598 -0.02149476
0.1088578 0.039515864 -0.004725813 0.061618175 0.010200338 0.043467715 -0.0064550806 -0.056745082
-0.03741682 0.08200065 0.022548925 0.10262057 -0.07885504 0.08741858 -0.01167654 -0.025082171
0.15874949 -0.064160444 -0.03550297 0.19828649 0.1964769 0.09131064 -0.03866148 -0.14798221
-0.013587593 0.093116514 0.072740845 0.03415914 -0.04482279 -0.00011110179 -0.11894801 -0.065994345
-0.05033581 0.080956765 0.050289474 -0.09431615 0.033274192 -0.00044598535 0.021673733 0.01865346
0.0007234512 -0.031476583 0.02580627 -0.08923369 0.059771873 -0.06464216 -0.05528342 -0.013428478
-0.0021143416 -0.0018780823 0.0070658834 0.037434317 -0.07165221 0.005695155 0.04937549 0.046627484
-0.0011036972 0.023914332 0.032371115 0.014495704 0.018189587 -0.061988216 0.017142577 -0.017824136
-0.040303133 0.067774035 0.059443384 -0.01218798 -0.026263813 -0.024214676 0.035125297 0.07156391
-0.005579505 -0.033680394 -0.049576838 -0.014325503 0.03160998 0.012105792 0.056774475 0.043143786
0.060223736 0.069200166 0.10077741 -0.061087973 0.052932758 0.06361994 -0.053449087 -0.030416252
0.00093482854 0.086961314 0.012593254 0.1488616 0.065063 0.03899721 0.00025998274 -0.059852425
-0.04829507 -0.035070118 0.045478065 -0.025151575 -0.051358376 0.04799987 0.034595296 -0.045369618
-0.016745659 -0.019902006 0.049676802 -0.05589655 -0.052004512 -0.028870527 -0.02002343 -0.014871889

_initial._model.2.bias f4 [16]
00000000: 51c2 87bc cab1 86be 9fbe 2bbe cfb9 0bbe
00000010: 5149 8abd 5d1d 1abe 1b6d 46bd 4ffc 4c3e
00000020: 83e4 8d3c 0faa 59be 254f 5bbd 9e15 bebd
00000030: 8312 c4bc 7766 32be 0249 4fbe 22e1 37be
-0.01657215 -0.26307517 -0.16771935 -0.13645099 -0.06752265 -0.15050264 -0.048443895 0.20018123
0.017320877 -0.21256278 -0.053542275 -0.09281467 -0.023934608 -0.174219 -0.20242694 -0.17956975

_func._module._model.0.weight f4 [16, 17]
00000000: 7efd ae3e 1538 3b3e 4c49 713d c51d 083e
00000010: af6a 353c c046 c43c 2256 c93e ca28 88bd
00000020: 6aef 053e 9aa4 f33d 80d2 0a3e c6d3 e33e
00000030: 0300 7c3e 7a69 223e e671 9ebd cd06 b23e
00000040: ce12 6b3e d0ca 6ebd 3e4f e4bd 2624 e43d
00000050: 2b2f 903e 8043 a03e 8423 393e 441f 7fbd
00000060: 07d8 813e 1590 8d3d 8731 793e 93bb fabd
00000070: 97ce 46be b5a1 acba 2b57 66bc b198 603d
00000080: af45 b5bd cfa0 853d 6e72 283d 4c4f 7fbd
00000090: 2867 ce3e 256b 453d 23dc 253e bfdb 34bb
000000a0: 1d46 6dbe 46d5 f73d 5fee 843e f704 753e
000000b0: 1a83 f43d c74c 833d 7de7 84bc 6820 863e
000000c0: 8fec 60bc fb26 fc3d 2c15 363b 2cc8 b33e
000000d0: e924 a8be 630b b5be ecb8 6c3d bf42 e7bd
000000e0: 7210 583e cd7b 7fbe 4e48 613e c609 6ebd
000000f0: e1f3 0bbe 10cf 94be 02f3 abbd f7fa 273d
00000100: 0379 d8be 1a35 d23c 67c7 a9be 73b0 a1be
00000110: 4c3d 4bbe eeda 1d3e c9ca 7e3e 113e 973e
00000120: 8480 8f3e a5cf 81bd 2482 643d f136 863e
00000130: 2233 863e 72f1 573e 5aef 9a3d a360 763e
00000140: ed4f 453e 552c 573e f13d 36bd 30cf 55be
00000150: 4569 313e 4b79 b43e b608 94be 8139 a9be
00000160: 81f5 f53d 4757 ea3d 4104 8f3e 23c8 bfbe
00000170: 0fab ad3e 5250 e4bc e3f4 77be 9039 c9be
00000180: cdec 5ebe 7ea9 cabe cc06 ccbe 90fe 7a3c
00000190: e8c6 c7be 9d18 7bbe 464e 37be 30c3 b4bd
000001a0: 9ba2 33be ac6a 42be f57c f0bc 744b 9bbd
000001b0: c162 02be a59e 83be 12a5 4fbe 1940 92be
000001c0: 8905 7bbd 3276 03be ff39 2ebe 1b2b 27be
000001d0: a42c 2dbe a2ce 80bd 938b bbbd 38bd 16be
000001e0: 4ebe 183e f6fd 1c3e c6a2 bd3e c5ff 8b3d
000001f0: ef5b a83e f567 b33c f781 6c3e 5241 1e3e
00000200: 59ce a93d b7fb f1bd ce74 c1bc 1d7f ce3e
00000210: a6c3 a33c 8c3c 273d 3270 05be dd5d 063e
00000220: 903d d33b c754 a8bd 7a69 85be 4469 86be
00000230: bbd2 80be 7ef9 f6bd 861c 5ebe 67f4 51be
00000240: d88b 2ebe bc4f fc3c e716 18be d2d5 0abd
00000250: cad8 8dbe 9b12 81be 3f56 1cbe cf10 0cbe
00000260: 8c93 72be af7d 813e 8fb1 9ebe f57d f4bd
00000270: a2bf 243d 7ce8 5fbe 0033 56be e6a0 0abe
00000280: 45b5 a33d 06d4 b83d 5732 44be c70e 9abe
00000290: 472b d4bd 1de3 b6be 19c6 bebd 05ec 3cbe
000002a0: 33e1 bebe 1013 c1be 6954 db3d a577 a6be
000002b0: ffff 2ebe 6774 44be efef f7bd 9f26 bcbc
000002c0: 8735 a3be fbb4 26be a752 49be 2c02 3cbd
000002d0: 8f47 3bbe db98 66be 8a48 9cbd 745e 52be
000002e0: 3aa5 0cbd b958 9fbe 9852 5fbe 1f74 a33e
000002f0: 9697 b83e 3ec9 d0bd 5694 31be b3a4 1f3e
00000300: 4034 20be 7de4 323e 63d0 b53d 744b 7f3e
00000310: 3e7d 1e3e c561 a73e 555a 983e 700c 53be
00000320: 3b1e 6f3d 0cba 3fbe 4581 bc3e f965 1f3d
00000330: 1ba0 6e3e 0227 a4be 0aa8 b1be 4965 afbd
00000340: 3438 21bd a2a0 273e 402d 19be e0ab 383e
00000350: 22a7 a8bd d288 a6bc dceb 43be 5aab bdbd
00000360: 0d23 9fbe 79f6 3abe 0446 2c3d cf61 3ebe
00000370: d421 7cbe ab62 d43d 3369 38bd 626f ce3e
00000380: d4fb 6f3e cf24 953e f4d5 883e 62e5 113d
00000390: 37ab 373e a9ce f6bb b25d d03e 9260 c0bd
000003a0: ecde 7d3e 98b3 bc3e 96a1 ad3e f637 f6bb
000003b0: 1f87 4bbd c9b9 413d c534 f73d 5200 e3bc
000003c0: d0b9 d3bc 7530 d23d f244 2dbd e430 073e
000003d0: c97f e0be b71b 903e 075c 0e3d c8b2 1a3e
000003e0: a3a8 ffbd 334f 40be 274e 883e c745 b93d
000003f0: 7d86 4a3e 2c9a 6bbe 0278 cdbd 1a98 2bbd
0.34177774 0.18283112 0.058907792 0.13292606 0.011072799 0.023959517 0.39323527 -0.06648405
0.1307961 0.1189663 0.13556862 0.44497508 0.2460938 0.15860549 -0.07736568 0.34770814
0.22956392 -0.058298886 -0.11147927 0.11139707 0.28160986 0.31301498 0.18079954 -0.062285677
0.25360128 0.06912247 0.243353 -0.12242808 -0.19414745 -0.0013170751 -0.014058868 0.054833118
-0.08851182 0.065248124 0.041124754 -0.062331483 0.40313077 0.048197884 0.16197257 -0.00275968
-0.23171277 0.121012256 0.25963113 0.23927675 0.11939068 0.064111285 -0.016223663 0.261966
-0.013728275 0.123121224 0.0027783616 0.35113657 -0.3284066 -0.3536025 0.057793543 -0.11292028
0.21100023 -0.2494957 0.22000238 -0.05811479 -0.13667251 -0.29064226 -0.083959594 0.041010823
-0.42279825 0.025660086 -0.33159944 -0.31579933 -0.19847602 0.15415546 0.24882044 0.2953954
0.28027737 -0.06338433 0.055788174 0.26213792 0.26210886 0.21088198 0.07565184 0.24060301
0.1926877 0.21013005 -0.044492666 -0.20879817 0.17325313 0.3524879 -0.28912896 -0.33051684
0.12009717 0.11442428 0.27932933 -0.3745738 0.3391957 -0.027870331 -0.2421451 -0.3930173
-0.2177002 -0.39582437 -0.39848936 0.0153194815 -0.3901894 -0.24521108 -0.17900953 -0.088262916
-0.17542498 -0.18986005 -0.02935646 -0.07582751 -0.12732984 -0.25706974 -0.20277813 -0.28564528
-0.061284576 -0.12838057 -0.17014311 -0.16325037 -0.1691156 -0.06289412 -0.09157481 -0.14720619
0.14916345 0.15331253 0.3703825 0.068358935 0.3288264 0.021900157 0.23096453 0.15454605
0.08291311 -0.11815589 -0.023615267 0.40331355 0.019990753 0.040829226 -0.1303108 0.13121744
0.006446548 -0.08219295 -0.26057035 -0.26252186 -0.25160775 -0.120593056 -0.21690568 -0.20503388
-0.17045534 0.030799739 -0.14852487 -0.03389532 -0.2770446 -0.25209507 -0.15267275 -0.13678287
-0.23689097 0.252912 -0.3099484 -0.11938087 0.040221818 -0.2186603 -0.20917892 -0.1353794
0.07993559 0.09024815 -0.19159828 -0.300894 -0.10359817 -0.3572015 -0.09315128 -0.1844941
-0.37281188 -0.37709856 0.10709459 -0.32513157 -0.17089842 -0.19185029 -0.121063106 -0.022967635
-0.31876776 -0.16279976 -0.19660436 -0.04590051 -0.18289016 -0.22519247 -0.07631023 -0.20543844
-0.03433726 -0.31122378 -0.21808851 0.3192453 0.3605315 -0.10194634 -0.17341742 0.15590172
-0.15644932 0.17469974 0.08877637 0.24931127 0.15477464 0.3269178 0.29756418 -0.20610213
0.05837844 -0.18723315 0.36817375 0.038915608 0.23303263 -0.3206101 -0.34698516 -0.085642405
-0.03936024 0.1636987 -0.14958668 0.18034315 -0.08235003 -0.020328913 -0.19132942 -0.09261198
-0.3108143 -0.18258084 0.04205896 -0.18591999 -0.2462228 0.10370382 -0.0450222 0.40319353
0.23435909 0.29129645 0.26725733 0.035619147 0.17936407 -0.00753196 0.40696484 -0.09393419
0.24792069 0.3685577 0.33912343 -0.0075139953 -0.04968941 0.04729632 0.12070612 -0.027710114
-0.025845438 0.10263149 -0.04230208 0.13202244 -0.43847492 0.28146145 0.034755733 0.15107262
-0.12483337 -0.18780212 0.26622126 0.09046512 0.19777866 -0.2300803 -0.10032655 -0.041893102

_func._module._model.0.bias f4 [16]
00000000: fe91 d93d d318 fabc 4a08 bd3d 16c1 c6bd
00000010: 40a8 c3bc b5a7 003d 4231 1abe d24d 853d
00000020: ba23 823d a2c5 513e 54a2 7a3d 1403 983e
00000030: bdfa 073d 969c a53c 8a0c b53b d1e6 33bd
0.10623549 -0.030529415 0.09230097 -0.09704797 -0.023883939 0.031409938 -0.15057853 0.06508984
0.063544706 0.20485547 0.061189964 0.29689848 0.033198107 0.020216268 0.0055251764 -0.043921296

_func._module._model.2.weight f4 [32, 16]
00000000: 6513 003e a68b 13be c659 19be 6888 52bd
00000010: d93f 33be 2737 29be ab89 00be fc52 cfbd
00000020: 4bd8 75be 9f07 e2bb a2d7 71be 8254 053e
00000030: 3817 b3bd 8496 ce3c 05fe 87be d772 8ebe
00000040: b299 7e3e 1d71 b0bc 8cbd ff3d 9322 c1bd
00000050: b281 733e 02c4 cdbd 5c72 483d 3585 283e
00000060: 7fc5 c43c 2f9d 90bd c58d 27bd 5189 2e3d
00000070: e445 5ebe b452 ce3e 96b4 e43d cd49 b73b
00000080: 2693 023e b970 303d 1c9f 383c bd63 7fbe
00000090: 8796 bb3e a0e4 80be 9706 563d 9d4a 823e
000000a0: 7f14 7d3d a080 e9bc f71c 92bd 6d00 8cbe
000000b0: 0f19 40be b441 123d 49b7 5f3d a2ad fdbd
000000c0: f490 0abe 21a6 debb 6c26 8ebd 3a04 803e
000000d0: 249e 15bc 528e 723e 0733 c1bc 9043 603d
000000e0: ae15 873e 57d1 2f3e 67bc 9f3e ee11 6b3d
000000f0: bff2 3d3e a0ea 4b3e 02a2 e03d ad3b 32bc
00000100: f9ba 023d f5be 763d d00a bfbc fd17 57be
00000110: 4523 823e 6261 04be 3f55 6b3e 6f5a 5b3e
00000120: f80a 563e 305f 9c3d 84c9 043e 1aa7 54be
00000130: b76f bbbb 1e21 8e3e fbcf e3bd 3c47 333e
00000140: ba3b b03b 4cc9 133e a0b8 1c3e d984 b43e
00000150: 73ce 35bd 5405 983e 750b 283d a11b 623d
00000160: f469 533e ffc1 723e 0182 453e 043a 323d
00000170: c363 bc3e 818d 18bd 3e98 9cbd efaa 183e
00000180: 7d3e ab3c d841 fd3c 8015 573e b974 2fbe
00000190: 8862 8a3e ac08 b5bd 3a7d 803e c671 7c3e
000001a0: b2f6 053e 31e9 163e 9cc7 f0bd 913d 95be
000001b0: 8745 233d d94f 43bc d14b 073c 104a 7e3e
000001c0: 663d ec39 7ad2 1ebe 4073 58bd cb87 763e
000001d0: ee4a 47be dce9 d93e 448c 003d af63 88bd
000001e0: f9c7 763e 2fb8 873e b053 b43d 7ea5 00be
000001f0: 9351 a53e daa1 8bbd 1ba5 383e 8b06 fc3d
00000200: 59c3 5dbe a29b 973e f4ee 1d3e 272d c33b
00000210: 973f cebd d22e d53d 3eec 093e cf93 063c
00000220: abb9 1f3e ac1a a63d 16f4 9b3e cf60 d4be
00000230: 3acf c33d d3a0 ae3d dc12 823e 6038 993e
00000240: b1e5 a6be 37a4 c7bd 3dc3 50be a1c6 163e
00000250: a3fa 1bbe ed9e b53e 39e5 a3bc 5173 a73d
00000260: 9efb 4e3d 9f7e 963e a3e8 643e 7e0b 92be
00000270: be5b e33e 402e c4bc 5ff6 ba3d c68f 913c
00000280: ba99 313e b1cf 7fbe 609c 19bd 5b59 e6bd
00000290: 3981 b7bd f469 7f3a 8c9c 74be bcb3 2bbe
000002a0: ebc7 c0be c4d4 f3bd 07a1 c1bd e99e 553e
000002b0: 05ac c9bd c6c6 f2bd a0ab 55be 4595 c2bd
000002c0: a364 953e 4537 653d 2422 953e 960e 2dbe
000002d0: 25e5 8c3e d4ab dfbe 96ef 29bd a1eb 7e3e
000002e0: f970 7bbd 2d43 2fbd fade 7a3d c0e1 153e
000002f0: 7d7c 51be 4e21 723e 260c bebd 7b1f c9bd
00000300: 9d99 febd 3a9f 773e 5f60 d63b 086b be3c
00000310: dd01 933e aeb6 883e f71c 0d3e 0cb6 5a3e
00000320: 2fc2 f63d 20f0 f13d d6c8 983e d279 38be
00000330: c499 70bd c514 5c3d 1983 8a3e 5961 9b3e
00000340: d86d e5be 010d f8bd 0a50 5abe 3871 613e
00000350: 1867 09be 0260 5a3e 5977 463d 911f 07be
00000360: e71e 533d 3770 e03e 98cb 8f3d d59a c8bd
00000370: 1aee 953e 2361 0ebd 46e1 e1bd 4886 3f3d
00000380: 9e87 2f3e f6d7 6ebd 9685 053e 8c12 83be
00000390: 292e 533d dbd3 cabd 2cef e1bd 1ade 3e3e
000003a0: d5ca 25be bd93 4abd 2486 cbbd 379b 843a
000003b0: 08e9 4bbe 5e75 633e f52f a4bd 7abf a0bd
000003c0: befa 3c3d 37ed 443d 2adf af3d c8d8 a73d
000003d0: 5232 583d b30c 54bc 3a33 e03d 05a7 a73d
000003e0: 6810 3e3d 02b5 853c 6a33 20bc 141f d7b9
000003f0: 80fe 00bd 198a 633d 9020 983d 46b1 a13d
0.12507398 -0.1440874 -0.14975652 -0.05139962 -0.17504825 -0.16524945 -0.12552516 -0.1012325
-0.2400829 -0.006897881 -0.23617414 0.13020518 -0.08744663 0.025218256 -0.2656099 -0.2782199
0.24863318 -0.021538312 0.12487325 -0.09430423 0.23779944 -0.10047151 0.048937187 0.16457064
0.024019955 -0.070612304 -0.040906686 0.042611424 -0.21706349 0.40297472 0.111672565 0.0055935145
0.12751445 0.04307625 0.011268403 -0.24940391 0.3663828 -0.25174427 0.05225238 0.2544755
0.061787125 -0.028503716 -0.07134431 -0.27344075 -0.18759559 0.03570719 0.054618154 -0.123866335
-0.13531858 -0.0067947065 -0.06940922 0.25003225 -0.009131942 0.23687103 -0.023583902 0.054751933
0.26383728 0.171697 0.31198427 0.057390146 0.18549632 0.19913721 0.109684005 -0.010878486
0.031916592 0.060240705 -0.023320585 -0.21005245 0.25417534 -0.12927774 0.22981738 0.21421216
0.20902622 0.07635343 0.12967497 -0.20766869 -0.0057201046 0.2775964 -0.111236535 0.17507643
0.0053782137 0.14432257 0.15304804 0.35257605 -0.04438634 0.29691565 0.04102655 0.05520213
0.20645887 0.23706816 0.19287874 0.04351236 0.36794862 -0.037244324 -0.076462254 0.14908956
0.02090382 0.030915186 0.21004295 -0.1713437 0.27028298 -0.08839545 0.2509554 0.24652776
0.13082388 0.14737393 -0.117568225 -0.29148534 0.03986123 -0.011920893 0.008257822 0.2483294
0.00045059173 -0.15509978 -0.052844286 0.24075238 -0.19462177 0.42561233 0.031383768 -0.06659638
0.24099721 0.26507708 0.088050246 -0.1256313 0.322888 -0.0681798 0.18031733 0.123059355
-0.2165655 0.29610926 0.15423185 0.0059563103 -0.100707226 0.10409321 0.13469025 0.008213951
0.1559817 0.08110556 0.3045966 -0.4148011 0.0956101 0.085267685 0.25405014 0.29925823
-0.32597116 -0.09748118 -0.20386977 0.14724208 -0.15232329 0.35472813 -0.020006763 0.08176292
0.05053293 0.2939348 0.22354369 -0.28524393 0.4440593 -0.023947835 0.09129023 0.017768752
0.17343798 -0.24981572 -0.037502646 -0.11247512 -0.08960194 0.0009743266 -0.23887843 -0.16767782
-0.37652525 -0.11905816 -0.09454542 0.208614 -0.09847263 -0.11854319 -0.20866251 -0.09501127
0.29178342 0.055960912 0.2912761 -0.16900095 0.27518573 -0.43685782 -0.041488253 0.24894573
-0.061387036 -0.042788673 0.061247803 0.14636898 -0.20457645 0.23645517 -0.09279661 -0.098204575
-0.12431643 0.24181834 0.00654225 0.023244396 0.2871236 0.26701874 0.1378058 0.21358508
0.12048756 0.11813378 0.29840726 -0.18015221 -0.058740392 0.053730745 0.27053145 0.30347708
-0.44810367 -0.12111855 -0.21319595 0.22015846 -0.13418233 0.21325687 0.048453663 -0.13195635
0.051543143 0.43835613 0.07021254 -0.09795157 0.2928322 -0.034760606 -0.110292956 0.04675892
0.17141578 -0.058311425 0.1303924 -0.25600088 0.051557694 -0.099036895 -0.110319465 0.18639413
-0.16190656 -0.0494573 -0.09937695 0.0010117058 -0.19913113 0.22212741 -0.080169596 -0.07849021
0.046137564 0.04807779 0.08587487 0.081956446 0.052782364 -0.012942481 0.10947271 0.08186153
0.046402365 0.016321663 -0.009777883 -0.0004103115 -0.03149271 0.055551622 0.07428086 0.0789514

_func._module._model.2.bias f4 [32]
00000000: 40a7 873d 01d5 7d3d 4a39 67be bd05 a23e
00000010: 2201 b4bd 9500 db3a 5a76 d2bd 0828 41be
00000020: febd 733a db52 35be 834a 1a3e eca0 9c3d
00000030: a6dc 3cbe e6dc 8ebd 647b ec3d fc19 95bc
00000040: 14b8 58be a68c 463e b3ea 703d 129e 37bd
00000050: ed9c a73d c52d b83c 790a 9abe 3221 333e
00000060: 2964 b5bc 6497 1a3d 6ca3 c4be d457 7a3d
00000070: 317e 5bbd 4c65 b03d 74d3 1cbe ea0c 89bd
0.06623697 0.061970714 -0.22580448 0.31645003 -0.087892786 0.0016708547 -0.1027648 -0.18862927
0.00092980254 -0.17707388 0.15067486 0.07647881 -0.18443546 -0.06975727 0.115469724 -0.018200867
-0.2116397 0.1938959 0.058817577 -0.044828482 0.08184228 0.022482762 -0.30086115 0.17493132
-0.022142487 0.037742034 -0.3840593 0.061118916 -0.053587142 0.08613071 -0.15315038 -0.06691916

_readout.weight f4 [1, 16]
00000000: 06c9 6ebe b574 4b3e 675a 493e 5860 b93e
00000010: e672 e63e 1fbd d4be 8cd3 d73e 9431 a7bc
00000020: 292e ca3e 39e7 b6be a1b7 aebe 88c5 a13e
00000030: 4933 c7bd ae25 173f 3415 cbbe 5cb3 613e
-0.23318872 0.19868739 0.19663392 0.36206317 0.45009536 -0.41550538 0.42153585 -0.020409383
0.39488342 -0.35723284 -0.34124473 0.31596017 -0.09726579 0.5904187 -0.39664614 0.22041076
