hyperparameter_tuning/ray_results/SUD_learning_rate_tuning/MyTrainableClass_4d644285_9_batch_size=16,name=SUD_v2,patience=1000,steps=200,steps_per_print=5,swa_step_start=2500,t_size=7,train_2024-03-12_14-35-41/checkpoint_000000/checkpoint.pt (torch, 61346 bytes, 66 tensors)

_initial._model.0.weight f4 [16, 5]
0	0xbf545e75	-0.8295663
1	0xc006db65	-2.1071408
2	0xbfb8e4c3	-1.4444813
3	0xbf914708	-1.1349802
4	0xc031c6d2	-2.77776
5	0xbfe063b4	-1.7530427
6	0xc05b6b51	-3.428425
7	0xc071fc59	-3.781027
8	0xc051173a	-3.2670426
9	0x402125b2	2.5179257
10	0x4039560d	2.8958771
11	0xc020e3f9	-2.5139143
12	0x405242c9	3.2853262
13	0xc0631ff8	-3.5488262
14	0x3fff4eb9	1.9945899
15	0x3f81fa01	1.015442
16	0x404b438c	3.1759977
17	0xc01435b6	-2.3157783
18	0x404b1f55	3.1737874
19	0x3e6580fa	0.22412482
20	0x402f6c06	2.7409682
21	0xbf8b580f	-1.0886248
22	0xbe590630	-0.21193767
23	0xc01c7ef4	-2.4452486
24	0x3faf2fb8	1.3686438
25	0xc02d3ce8	-2.7068424
26	0xbf878063	-1.0586056
27	0xc03eaa6f	-2.9791524
28	0xbfd3876b	-1.6525701
29	0x3df7a235	0.120914854
30	0xc04f0f89	-3.2353232
31	0x3f470160	0.77736473
32	0xc0275c24	-2.6149988
33	0xbdb6aceb	-0.089197
34	0xbf654514	-0.8955853
35	0xbf5c6a46	-0.8609966
36	0xbf5171d4	-0.8181431
37	0x3fcaa762	1.5832331
38	0x3f1dccb0	0.61640453
39	0x4002c5e2	2.0433278
40	0xbf0b8815	-0.5450452
41	0xc0683c24	-3.6286707
42	0xc05c813c	-3.4453878
43	0x406cc89a	3.6997437
44	0xc05c0cce	-3.4382815
45	0x4026f8ee	2.6089435
46	0x3f227610	0.634614
47	0x3fcb6e76	1.5893085
48	0x3fdf6438	1.7452459
49	0xbefdfddb	-0.4960774
50	0x403b8ffc	2.930663
51	0x3dfa9868	0.122361004
52	0xbff14d5b	-1.8851732
53	0xbf1f982c	-0.6234157
54	0xbfc046d6	-1.5021617
55	0x3f871310	1.0552692
56	0xc02caaaa	-2.6979165
57	0xc061e91a	-3.5298524
58	0x40641f67	3.5644166
59	0x3f43c947	0.76479
60	0x3e86c874	0.2632481
61	0x3f9b7d2c	1.2147574
62	0x4012206f	2.2832296
63	0xbe40d9bc	-0.18833059
64	0x40240aa0	2.5631485
65	0xc0782278	-3.8771038
66	0xbff4938f	-1.9107531
67	0xbf200c63	-0.625189
68	0x3fe647fb	1.7990717
69	0xc0187db0	-2.3826714
70	0x403c8b30	2.9459953
71	0x404fa4eb	3.2444408
72	0x40425cd5	3.036916
73	0xc0774dfd	-3.864135
74	0xc055b8a2	-3.339394
75	0xbf83b33f	-1.0289077
76	0x3ef19b77	0.47188923
77	0x4049c346	3.1525435
78	0x3f4174d9	0.7556892
79	0x405a2b2f	3.4088857

_initial._model.0.bias f4 [16]
0	0x3ff69a7b	1.9265894
1	0xc05c8658	-3.4456997
2	0xbfc4897f	-1.535446
3	0x3f480d08	0.78144884
4	0x3ed3f70a	0.41399413
5	0xc060d46a	-3.5129647
6	0xbfd07577	-1.6285847
7	0x401e17ee	2.4702106
8	0x3fe844c3	1.8145984
9	0xbf47b830	-0.7801542
10	0xc06043d2	-3.5041394
11	0x406420e7	3.5645082
12	0xc003d157	-2.059652
13	0x3fa4fbc4	1.2889333
14	0xbf196fa9	-0.59936005
15	0x3e42a1c4	0.19007021

_initial._model.2.weight f4 [16, 16]
0	0xbe604064	-0.21899563
1	0xbea03169	-0.31287697
2	0x3d39f4d8	0.045399517
3	0xbfc34ac7	-1.5257195
4	0x3ffa76ab	1.9567465
5	0xbfd26b5b	-1.6439012
6	0x3f3031c4	0.68825936
7	0x3e2e4676	0.17019066
8	0xbf4df47f	-0.80451196
9	0x3fdf4466	1.7442749
10	0xbe9bbb62	-0.304164
11	0xbfbff33a	-1.4996102
12	0x3f209a1a	0.6273514
13	0xbf2b907e	-0.6701735
14	0x3fd2025b	1.6406969
15	0xc004cb00	-2.0748901
16	0x3f93b612	1.1539938
17	0xbf04f195	-0.51931125
18	0xc01974d7	-2.3977563
19	0x4006e463	2.1076896
20	0x3fbe7fe9	1.4882785
21	0x3f1f5b5b	0.6224877
22	0x3f63c7e7	0.889769
23	0xbfddd98e	-1.7332017
24	0x4013f6f1	2.311947
25	0xb90eef78	-0.00013631384
26	0xbeefba0f	-0.4682164
27	0xc0035daf	-2.052593
28	0xbfb37cf1	-1.4022504
29	0xbec91a80	-0.3927803
30	0xbf6a2c14	-0.9147351
31	0x3f95d94e	1.1706941
32	0xbd34d81e	-0.044151418
33	0x3fd958a5	1.6980177
34	0x3f0d7a94	0.55265164
35	0xbf748e78	-0.9552989
36	0x3f6a39e6	0.91494596
37	0x40157c57	2.335714
38	0xbf39ef94	-0.7263119
39	0xbf512589	-0.816979
40	0xbe69795d	-0.22800203
41	0x3f495c20	0.78656197
42	0xbfae616e	-1.3623483
43	0xbe54e83f	-0.2079172
44	0xbfa69aef	-1.3016032
45	0x3fc21e2a	1.5165455
46	0xbf0009eb	-0.50015134
47	0x3fbeac87	1.4896401
48	0xbec54615	-0.3853003
49	0xbff8c615	-1.943545
50	0x3f806499	1.00307
51	0xbf98756a	-1.1910832
52	0xbff3083d	-1.8986889
53	0x4013a6eb	2.3070629
54	0xbeeca66f	-0.4622073
55	0x3e931cc3	0.2873288
56	0xbfc671b8	-1.5503454
57	0xc002ad4e	-2.0418277
58	0x3fb530ce	1.4155519
59	0xbf435c78	-0.7631297
60	0x3f5c504a	0.8606001
61	0x3f3ee00c	0.7456062
62	0x3f75aa95	0.9596341
63	0xc00f7792	-2.241673
64	0xbf20d423	-0.62823695
65	0x3f027cb6	0.50971544
66	0xbfd5a15d	-1.6689869
67	0x3ff77808	1.9333506
68	0x3fb2e7d4	1.3976998
69	0xc00dcb5b	-2.2155368
70	0x3fe29e19	1.7704498
71	0x3f4ba00f	0.79541105
72	0x3fcee349	1.6163112
73	0x3fbbce09	1.4672252
74	0x3f93cd1b	1.1546968
75	0x3f5f838e	0.8731011
76	0x3fb2ccbb	1.3968729
77	0xbf46cd43	-0.77656955
78	0x3fa573bf	1.2925948
79	0xbfe7be33	-1.8104919
80	0xbf2a3538	-0.66487455
81	0x3f0cc06c	0.5498111
82	0xc001e180	-2.0293884
83	0x401bb8b3	2.4331481
84	0xbf8b3d21	-1.087803
85	0xbfabc6ad	-1.3420006
86	0xbfd0992f	-1.6296748
87	0xbf09afe9	-0.5378404
88	0xbfb372de	-1.401943
89	0x40013556	2.0188804
90	0x3edda094	0.43286574
91	0x3fe72882	1.8059237
92	0x3ebf38e9	0.37348107
93	0xbfeefc4a	-1.8670743
94	0x3f4e7e84	0.806618
95	0xbc5b0d0c	-0.01336981
96	0xbdaa3366	-0.08310585
97	0xbf0443a4	-0.5166571
98	0x3e74beae	0.23900864
99	0x3eec45e6	0.46147078
100	0x3f4e6161	0.8061734
101	0xbdbaf8f8	-0.09129518
102	0x3f845d62	1.0340998
103	0x3f15372d	0.58287317
104	0x3fd6e1a7	1.6787614
105	0xbd20792f	-0.03917807
106	0xbf2721e8	-0.6528611
107	0xbf9ce73f	-1.2258071
108	0x3ff50341	1.9141618
109	0x3f8ad3f8	1.0845938
110	0x3fd081e9	1.6289645
111	0x3f5b0a4a	0.85562575
112	0xbd71e02f	-0.05905169
113	0xc0115e07	-2.271364
114	0xbfac60d8	-1.3467054
115	0xbeb5e80e	-0.35528606
116	0x3f7fe7e4	0.9996321
117	0xc007d757	-2.1225183
118	0xc014e0a2	-2.3262105
119	0x3fd57ed8	1.6679335
120	0xbfacc4b5	-1.349753
121	0x3eaf3539	0.34220293
122	0x3f1ac4a5	0.60456306
123	0x3f91f80d	1.1403824
124	0x3d1f047f	0.038822647
125	0xbf96e846	-1.1789634
126	0xbecb1088	-0.3966105
127	0xbf2a8379	-0.6660686
128	0x3fb252dd	1.3931538
129	0x3f26f2c6	0.6521419
130	0x3e95dbbd	0.2926921
131	0x3fbebd21	1.4901468
132	0xc015f4de	-2.3430705
133	0xbe20cd35	-0.1570328
134	0x3f20e702	0.6285249
135	0x3eec8f73	0.46203193
136	0xbfa34bcf	-1.275751
137	0xbfe96fd1	-1.8237249
138	0xbee8cff1	-0.45471147
139	0xbe61b125	-0.22040232
140	0xbfd764b6	-1.682761
141	0x3e9ac711	0.3023
142	0x3f6ca761	0.924429
143	0x3f1351b7	0.5754656
144	0x3f8b4ebc	1.0883403
145	0x3e103542	0.14082816
146	0x4007b937	2.1206796
147	0x3f9187da	1.1369584
148	0xbf6bea5a	-0.9215447
149	0xc00f868b	-2.2425869
150	0xbe4c06e8	-0.1992451
151	0x3f3441c1	0.7041283
152	0x3ffa2b6f	1.9544505
153	0xbf153929	-0.58290344
154	0x3cf2adc6	0.029623877
155	0xbf5685be	-0.83797824
156	0x3f3dfdad	0.74215204
157	0x3e2f30bd	0.17108436
158	0x3f0945df	0.5362224
159	0xbfbc822b	-1.4727224
160	0x3f92db40	1.147316
161	0xc010f422	-2.2649007
162	0x3f9a7882	1.2068026
163	0xbec1b239	-0.37831286
164	0xbfadf269	-1.3589603
165	0x3f7c944d	0.9866379
166	0xbf9fec92	-1.249407
167	0x3ff82225	1.938542
168	0x3ffafa87	1.9607705
169	0xbfefdb4c	-1.8738799
170	0xbfe28b34	-1.7698731
171	0x3f434a0d	0.7628487
172	0xbfc265c8	-1.5187311
173	0xbfa61f99	-1.2978393
174	0x3f831eba	1.0243752
175	0x3ff1686b	1.8859991
176	0x3e1543ee	0.14576694
177	0xbfbd9f1a	-1.4814179
178	0x3f722bdc	0.94598174
179	0xbda315bf	-0.07963132
180	0xbfd0116d	-1.6255318
181	0x401112c5	2.2667706
182	0xbfb1ad67	-1.3881043
183	0xbf10d6b9	-0.5657764
184	0x3f01be16	0.50680673
185	0xbf84507b	-1.0337061
186	0xbf21ad50	-0.6315508
187	0x3f59a23b	0.8501317
188	0xbed93a85	-0.4242746
189	0x3d65e7f3	0.056129407
190	0x3f96ae2b	1.1771902
191	0x3f8de475	1.1085345
192	0xbf94464c	-1.1583953
193	0xbfe09d25	-1.7547957
194	0x3feecbaf	1.8655909
195	0x3d8cbd42	0.068720356
196	0xbfbe953f	-1.4889296
197	0xbff8c9e4	-1.9436612
198	0xbfa7c82d	-1.3107964
199	0xbe04b208	-0.12958539
200	0xbebd1b61	-0.3693495
201	0xbf4dceb6	-0.8039354
202	0x4001510d	2.020572
203	0x4012bab9	2.2926466
204	0x3fdae4e0	1.7101097
205	0xbffa2222	-1.9541667
206	0xbfb080aa	-1.3789265
207	0x3fc6dbb5	1.5535799
208	0xbf512c51	-0.81708246
209	0xbdccaffb	-0.09994503
210	0xbf48116e	-0.78151596
211	0x3ff6e660	1.9289055
212	0x4010f141	2.264725
213	0x3fb06ed3	1.3783821
214	0x3fe7f889	1.8122722
215	0xbfcdd692	-1.6081107
216	0x3fefa2db	1.8721575
217	0x3daa5e48	0.08318764
218	0xc0086414	-2.1311083
219	0xbdd5df39	-0.10442967
220	0x3fcad57d	1.5846401
221	0xbf3bc4f7	-0.7334742
222	0xbf054ffe	-0.52075183
223	0xbf281e54	-0.6567128
224	0xbf856505	-1.0421454
225	0x3fbea075	1.4892718
226	0x3f98b518	1.1930265
227	0x3cb01fbb	0.021499505
228	0x3fdd0dc1	1.7269822
229	0x3f2badb3	0.6706192
230	0xbf6ffd25	-0.9374564
231	0xbfd3ca8e	-1.654619
232	0x3e8d9620	0.276536
233	0xbf42c6ca	-0.7608458
234	0xbf201730	-0.6253538
235	0x3fa8b8c7	1.318139
236	0x3fb07d4f	1.3788241
237	0xbee1855d	-0.4404706
238	0xbf2314e1	-0.63703734
239	0x3f465964	0.7748015
240	0x3e8fd523	0.28092298
241	0x3f35bb67	0.7098908
242	0x3f637c2d	0.8886135
243	0x3fb64645	1.4240195
244	0xbfefbb45	-1.8729025
245	0x3d9a07fb	0.075210534
246	0x3f1dd997	0.6166014
247	0x3ed35c72	0.41281468
248	0xbf3eb703	-0.74498004
249	0xbfeb9fe3	-1.8408169
250	0x3ffbbc90	1.966692
251	0xbfd50554	-1.6642251
252	0x3fa033f1	1.2515851
253	0xc00ebba1	-2.230202
254	0x3f01e3de	0.5073832
255	0x3fe19341	1.7623063

_initial._model.2.bias f4 [16]
0	0x3f06f5a3	0.5271856
1	0xbea597df	-0.3234243
2	0x401b487b	2.4262989
3	0xbf9c227a	-1.2198021
4	0xc019f2e7	-2.4054506
5	0x3e336ad3	0.17521219
6	0xbf928cde	-1.1449239
7	0xbf6786c8	-0.90440035
8	0x3fe42c05	1.7825934
9	0xbaf44284	-0.0018635546
10	0xc00c194d	-2.1890442
11	0xbf285ff7	-0.6577143
12	0xbfaf0ee9	-1.3676425
13	0xc0116d41	-2.2722933
14	0x3f60a825	0.8775657
15	0xc009b4bd	-2.1516564

_func._drift._model.0.weight f4 [16, 17]
0	0x3a3485d3	0.00068863964
1	0xbbb3d2b1	-0.005487763
2	0x3ba21e87	0.004947487
3	0xb9aa2e9f	-0.00032459662
4	0x3aef14a6	0.0018240407
5	0x3a927678	0.0011174222
6	0xbb383a27	-0.0028110833
7	0x39e1a82a	0.00043040636
8	0x3ae9c83c	0.0017836164
9	0xbbae895a	-0.005326432
10	0xbb941555	-0.0045191445
11	0xbb8ff617	-0.00439335
12	0xb996c777	-0.00028758842
13	0xbb3b259c	-0.0028556352
14	0xbbb1cc63	-0.005425976
15	0x3bac6835	0.005261446
16	0x3b985597	0.004648875
17	0xbb05c839	-0.0020413531
18	0xbb8698fd	-0.004107593
19	0x3b330b10	0.0027319826
20	0xba8179d1	-0.0009878223
21	0xbb5229b5	-0.0032068316
22	0xbbad8d7c	-0.0052964073
23	0x38434bcc	4.6562214e-05
24	0xbb40750a	-0.0029366636
25	0x3ac541fb	0.0015049571
26	0x3ac1a5aa	0.0014774103
27	0xba362d33	-0.0006949484
28	0x3bbf76b4	0.005843008
29	0xba93d7df	-0.0011279545
30	0x3bba56dd	0.0056866244
31	0x3ae2bce0	0.0017298721
32	0x3ae1f757	0.0017239851
33	0x3b9d467f	0.0047996636
34	0xbaff10cc	-0.0019459962
35	0x3bb224b3	0.005436504
36	0x3b2a8e4c	0.0026024757
37	0xbad728f7	-0.0016415407
38	0x3b301b22	0.0026871641
39	0xbbb8d427	-0.005640525
40	0x3a3f7bdd	0.0007304529
41	0xbaa7caca	-0.0012801525
42	0xba9cc00d	-0.0011959091
43	0xbb993050	-0.0046749488
44	0x3b3f0337	0.0029146203
45	0x3b0604c5	0.002044962
46	0xbb1fae95	-0.0024365534
47	0x3b973973	0.004615003
48	0xba91d6a7	-0.0011126593
49	0xb913ea49	-0.0001410629
50	0xbb66154a	-0.0035107904
51	0x3af3d6bc	0.0018603425
52	0x3b0a98e1	0.0021148252
53	0x3a86aec2	0.001027547
54	0x39c377aa	0.00037282455
55	0xbbbb038d	-0.0057072104
56	0x3ba18e06	0.0049302606
57	0xb97328d7	-0.000231895
58	0x3b62db6c	0.003461565
59	0x3b6b8e67	0.0035943033
60	0xbba72294	-0.0051005576
61	0x3b7f289f	0.0038934124
62	0xbb825ce8	-0.0039783604
63	0x3af27386	0.0018497563
64	0x3ba5c478	0.0050588213
65	0x3ba52c3f	0.005040675
66	0x3aee8307	0.0018197008
67	0xbbaa9621	-0.005205885
68	0x3b4cbd64	0.0031240815
69	0xbb67052f	-0.0035250892
70	0x3b1a4d01	0.0023544433
71	0xbbb4087d	-0.005494176
72	0xbb1f8981	-0.0024343433
73	0xbb92484e	-0.004464186
74	0xba9468a6	-0.0011322692
75	0xbb031c92	-0.0020006043
76	0xbbb9c9ec	-0.005669823
77	0xbbbbe988	-0.005734626
78	0x3a4d9cfc	0.0007843522
79	0x3a510ab8	0.00079743145
80	0xbb1710cd	-0.0023050786
81	0xbb4b3019	-0.003100401
82	0xbb92b062	-0.004476593
83	0xbb69eed3	-0.003569533
84	0xbb136b5f	-0.0022494418
85	0xbb1e63f8	-0.0024168473
86	0x3b7307b7	0.0037083456
87	0x3ac6cca9	0.0015167195
88	0x3b9de60d	0.004818684
89	0xbb9ed509	-0.004847173
90	0x3b07ae8e	0.0020703408
91	0x3aaf9860	0.0013396852
92	0xbb9b3170	-0.004736118
93	0x3b4d37d9	0.0031313805
94	0xbb24b990	-0.0025135018
95	0xbb1836eb	-0.0023226093
96	0x3b062e1f	0.0020474268
97	0x3ab3269b	0.0013668122
98	0x39a5943b	0.00031581693
99	0x3bac24a5	0.005253392
100	0xbadb1c69	-0.0016716841
101	0xbb6ab070	-0.0035810731
102	0xbbbf8543	-0.0058447435
103	0x3aa399cc	0.0012481748
104	0xbb94af2c	-0.0045374837
105	0x3b9bd75a	0.0047558965
106	0x3ae33f46	0.0017337583
107	0xbab5a92c	-0.0013859621
108	0x3b7546ad	0.003742616
109	0x3ba781db	0.0051119155
110	0x3b8ccf68	0.0042971857
111	0xbb13baa9	-0.0022541678
112	0x3a0946b3	0.000523667
113	0xbb4bcc82	-0.0031097238
114	0x3b6e8964	0.003639781
115	0x3bb5172b	0.0055264435
116	0xb9310f90	-0.00016885833
117	0x3b7d5c43	0.0038659729
118	0x3b018b65	0.0019766924
119	0x3b3bf585	0.0028680277
120	0xbb8f09f8	-0.004365202
121	0xbb846cd0	-0.004041292
122	0xbba3b724	-0.0049961973
123	0x3bb7ac29	0.00560524
124	0x3b1cbc80	0.0023916066
125	0x3b8d9844	0.00432113
126	0x3b846fb0	0.0040416345
127	0x3b9ab420	0.0047211796
128	0xbaba683b	-0.0014221737
129	0xbbbabff9	-0.0056991545
130	0x3a3a6059	0.0007109694
131	0xbb1d866d	-0.0024036423
132	0x3b213554	0.0024598436
133	0x3b250146	0.002517776
134	0x3a148111	0.00056649843
135	0xbbb7f3ff	-0.0056138034
136	0x3acef3a5	0.0015789164
137	0xbb52b099	-0.0032148717
138	0xbb30915e	-0.0026942114
139	0x3b93225c	0.00449018
140	0xbb45e1fa	-0.0030194507
141	0x3af393e2	0.0018583501
142	0xbadc65fd	-0.0016815063
143	0x397795c6	0.0002361155
144	0xbb32da70	-0.0027290843
145	0xbb0ad745	-0.002118544
146	0x3ba3776b	0.004988601
147	0x3b520241	0.00320448
148	0xbba30437	-0.0049748677
149	0x3bab275d	0.0052231983
150	0xbb66b192	-0.0035201055
151	0xbb775b29	-0.0037743545
152	0xbbaa64c3	-0.0052
153	0xb9b03f04	-0.00033616286
154	0xbb2f62f6	-0.0026761866
155	0xbbbb4f78	-0.0057162605
156	0x3b235421	0.002492197
157	0xbabbd9f9	-0.0014331929
158	0x3b13bebe	0.002254411
159	0xbb92411a	-0.004463327
160	0xbb73cd2b	-0.0037201147
161	0xbb5c35bb	-0.0033601362
162	0xb9c91c55	-0.00038358817
163	0xbba90696	-0.005158256
164	0x3a87fbb6	0.0010374698
165	0xb84e0061	-4.911458e-05
166	0x3b9c5573	0.0047709285
167	0xb9afe2b1	-0.000335475
168	0x3ba65277	0.0050757485
169	0x3b44495f	0.002995096
170	0x36987e45	4.5446527e-06
171	0xb97da2f2	-0.00024188662
172	0x39e30b13	0.00043305065
173	0x3a0377fb	0.0005015132
174	0xbabbba61	-0.0014322513
175	0xbb672c62	-0.0035274257
176	0xba3a07b9	-0.00070964877
177	0xbb478a00	-0.0030447245
178	0xbab8398b	-0.0014055235
179	0xbb9bc407	-0.004753593
180	0x3b98c283	0.0046618595
181	0x3b333bab	0.0027348797
182	0xbadd03d4	-0.0016862103
183	0xbaff42c1	-0.001947485
184	0x3bb6e927	0.005581993
185	0xbbb21cc0	-0.005435556
186	0xbbb87c05	-0.0056300187
187	0xba97ec2c	-0.001159077
188	0x3aca30f6	0.0015425968
189	0xbb924778	-0.004464086
190	0x3b70fda2	0.003677227
191	0xbad43ed5	-0.0016193042
192	0x3b909b36	0.004413034
193	0x3b7dd9f2	0.0038734642
194	0xbb865390	-0.004099317
195	0x3b52fded	0.0032194809
196	0x3b409cef	0.0029390415
197	0xba6ca0a8	-0.0009026625
198	0x3b866743	0.004101665
199	0xbb9ed8d7	-0.0048476267
200	0x3aa97f68	0.0012931647
201	0xbab69249	-0.0013929094
202	0xb8b03e60	-8.403952e-05
203	0xbb117bb4	-0.0022198977
204	0xbb238b2e	-0.0024954784
205	0x3b7f4015	0.0038948108
206	0x3b5f52e4	0.0034076506
207	0x3b8728d5	0.0041247406
208	0xbb946277	-0.0045283395
209	0x3a3b5e1e	0.00071475084
210	0x39c4fc9f	0.0003757225
211	0xbb8a3c27	-0.0042185965
212	0x3b71b74d	0.0036882937
213	0xbaf372cd	-0.0018573642
214	0xbb491c1e	-0.0030686925
215	0xb9839569	-0.00025097586
216	0x3b328646	0.0027240678
217	0x3ae10a83	0.001716927
218	0x3b998793	0.004685351
219	0x3a0fe348	0.00054888846
220	0xbba0a794	-0.0049027894
221	0xbb097563	-0.002097451
222	0xba5dd01d	-0.0008461492
223	0x3baaae2a	0.0052087503
224	0x3b2b1ff1	0.0026111568
225	0x3ad1974f	0.0015990528
226	0xbb9c2c38	-0.0047660135
227	0xbb2a7732	-0.0026010987
228	0x3b19bc29	0.00234581
229	0xbb4f730f	-0.0031654274
230	0xbb08b0ac	-0.0020857258
231	0x3bb6def1	0.005580776
232	0x3aa016c3	0.0012213815
233	0x3b249e46	0.0025118752
234	0x3b73dbcd	0.003720987
235	0xbbb5d4f9	-0.00554907
236	0x3ad679bf	0.0016363187
237	0xbb8f03a3	-0.004364447
238	0xbaec8ac7	-0.001804673
239	0x3b37dd3f	0.0028055457
240	0xbbb735a4	-0.0055911113
241	0x3b86d388	0.004114572
242	0x3aebfd04	0.0018004482
243	0x3b65438f	0.0034982895
244	0x3b2db92f	0.0026508083
245	0x3b227ca8	0.002479354
246	0xb91dc862	-0.00015047335
247	0x3bb28d2a	0.005448957
248	0xbb4d22f5	-0.0031301354
249	0xba26fc8a	-0.0006370029
250	0xbaa2b0b1	-0.0012412277
251	0x3ad16718	0.0015976159
252	0x3b3ebe79	0.002910523
253	0x3b6805ee	0.0035403925
254	0x3b34d43e	0.0027592327
255	0xbb82902e	-0.0039844727

_func._drift._model.0.bias f4 [16]
0	0x3bb78307	0.0056003365
1	0xb9c7533d	-0.00038018255
2	0x3b19afd5	0.0023450751
3	0x3b0f5637	0.0021871456
4	0xb7c99c81	-2.4033945e-05
5	0xbb16442b	-0.0022928815
6	0x3b821359	0.0039695916
7	0xbbaeabb5	-0.0053305277
8	0xbbacee51	-0.005277433
9	0xbba9b87f	-0.0051794644
10	0xbb0c1751	-0.0021376202
11	0x3aad28c0	0.0013210997
12	0xb9ad897a	-0.0003309956
13	0x38fa4703	0.00011934156
14	0x3b990990	0.0046703294
15	0xbb9a0bcf	-0.0047011147

_func._drift._model.2.weight f4 [16, 16]
0	0xbb24e165	-0.002515876
1	0x3b12d300	0.0022403598
2	0xbbb24328	-0.0054401346
3	0xbbc3f2c2	-0.0059798667
4	0xbb7aa37a	-0.0038244412
5	0xbbbbc8c6	-0.005730721
6	0xbb0743d1	-0.0020639787
7	0xbbb421bd	-0.005497186
8	0xba361480	-0.0006945804
9	0x3b50f576	0.0031884587
10	0xbba25889	-0.004954402
11	0xbbbd2f56	-0.005773465
12	0x3b63f6ee	0.0034784633
13	0xbb0167c9	-0.0019745699
14	0x3b20adbd	0.0024517619
15	0x3b308f88	0.002694102
16	0xbaab34cd	-0.0013062
17	0xb9d29640	-0.00040166266
18	0xb8a51740	-7.872144e-05
19	0xbb9bded3	-0.0047567873
20	0x3bb38c33	0.0054793595
21	0xb99cdeb5	-0.00029920568
22	0x3b0c1ccb	0.0021379467
23	0x3a7b608b	0.0009589276
24	0x3ba45265	0.005014705
25	0xbb9d77fb	-0.0048055626
26	0xbb81ce98	-0.0039613955
27	0xb915b5b7	-0.00014277441
28	0xbb1a7dfd	-0.002357363
29	0x3b073a77	0.0020634213
30	0x3bb0bead	0.005393824
31	0xb9ac6b9e	-0.00032886578
32	0xbba9f583	-0.005186738
33	0x3ba42d64	0.005010294
34	0xbac4c172	-0.0015011264
35	0x3afd9ae3	0.0019348528
36	0xbb006f9b	-0.0019597772
37	0x3bb0523c	0.005380897
38	0xbb61a2d9	-0.003442934
39	0x3a45e4b1	0.0007549031
40	0x3b31e5dd	0.0027145066
41	0xbba28423	-0.0049595996
42	0x3ade4ba3	0.0016959797
43	0xbb645f20	-0.0034846738
44	0x3bae0568	0.005310703
45	0x3ba0e261	0.004909799
46	0x3af8c5f8	0.0018979898
47	0xbb410908	-0.0029454846
48	0x396605b4	0.00021936634
49	0x3ba88aae	0.005143485
50	0x3b77a742	0.0037788902
51	0xbb3a7691	-0.0028452019
52	0xbb55497d	-0.0032545023
53	0xbac4fb0c	-0.0015028431
54	0xbadf4325	-0.001703356
55	0xbb3f54a9	-0.0029194748
56	0xbbc159c6	-0.0059005944
57	0x386473eb	5.4467393e-05
58	0x3aad1e80	0.0013207942
59	0xbb8bc366	-0.0042652367
60	0x3b4a32d1	0.0030853043
61	0xbb2bdc3b	-0.0026223797
62	0x3b70f09c	0.0036764508
63	0xbb2f98d2	-0.002679397
64	0x3bb346e6	0.0054710982
65	0xbb645dd2	-0.003484596
66	0x3aa6f735	0.0012738468
67	0x3addd305	0.0016923851
68	0x3b909c40	0.0044131577
69	0x3b42cff5	0.0029726003
70	0xbb9bf0e7	-0.0047589424
71	0xba873f64	-0.0010318574
72	0xb99d5440	-0.00030008145
73	0x3b537359	0.0032264797
74	0xbb5873fb	-0.0033028114
75	0x3b4e63c0	0.003149256
76	0xbb7db790	-0.0038714148
77	0x3b1af38d	0.0023643703
78	0xbb8c6111	-0.004284032
79	0x3abb7cfa	0.0014304214
80	0xb7d25f09	-2.5078205e-05
81	0x3b927722	0.004469768
82	0xbb366471	-0.0027830864
83	0x3acbbf7e	0.001554474
84	0xbb8ac21b	-0.004234565
85	0xbb3ae36f	-0.0028516909
86	0x3b565b0d	0.003270808
87	0x3aace966	0.0013192117
88	0x3b9ada05	0.004725697
89	0x3b311a4a	0.0027023726
90	0x3b72404b	0.003696459
91	0xbb46f679	-0.0030359311
92	0x3a16d9fb	0.00057545275
93	0xbbb2a38d	-0.0054516257
94	0x3ae6d6ef	0.0017611663
95	0xba8c9ba2	-0.0010727535
96	0x3b107ecd	0.0022048235
97	0xbb07f5d5	-0.0020745893
98	0xbad8e605	-0.0016548043
99	0x3b6a0916	0.0035710982
100	0x3b66a67c	0.0035194447
101	0x3bad017a	0.005279717
102	0xbbbb37cc	-0.0057134386
103	0xbb0824ed	-0.0020773963
104	0xbbaa08a3	-0.005189018
105	0x3a9b72fd	0.0011859831
106	0x3bab3f63	0.005226062
107	0xbaeacd1d	-0.0017913912
108	0xba1edff2	-0.0006060592
109	0xbae3465b	-0.0017339693
110	0xbb070223	-0.0020600639
111	0x3ad916e1	0.0016562605
112	0x3b845f2d	0.004039666
113	0xbb7fbdc2	-0.0039023017
114	0x3b9e4026	0.0048294244
115	0x3b93cd14	0.004510531
116	0xb97a8199	-0.00023890137
117	0xbb87e8a9	-0.0041476083
118	0xbb99c96b	-0.0046932003
119	0xba883804	-0.001039267
120	0xb98c464d	-0.0002675526
121	0xbb97d841	-0.004633934
122	0xbbb8c347	-0.0056385132
123	0x3af0d371	0.0018373561
124	0x39fbba85	0.0004801342
125	0x3b8863f9	0.0041623083
126	0x3a97eeef	0.0011591594
127	0x3b1800b9	0.002319379
128	0x3a2670d0	0.0006349208
129	0x3b2419ad	0.0025039718
130	0xbb30ab34	-0.0026957514
131	0x37f689bc	2.9389623e-05
132	0x3b516f2a	0.0031957128
133	0x3b00c71d	0.001964993
134	0x3b382623	0.0028098903
135	0xbbab33fa	-0.005224702
136	0xb829d284	-4.0488798e-05
137	0xbb4b5c1a	-0.0031030239
138	0xbaba0e01	-0.0014194847
139	0x3b30622a	0.002691398
140	0xba9e76ac	-0.001208981
141	0xbb3aad2c	-0.0028484566
142	0xb905f5c4	-0.00012775423
143	0xbb76eb0b	-0.0037676718
144	0xbb246369	-0.0025083667
145	0xbb30fc38	-0.0027005803
146	0x3bb2d863	0.005457924
147	0xbb347ed1	-0.0027541409
148	0xbb56b743	-0.003276304
149	0xbac99751	-0.0015380179
150	0x3b8d9487	0.0043206844
151	0x3806443c	3.2011638e-05
152	0xba692c30	-0.0008894829
153	0x3b5b108f	0.0033426618
154	0x3b7c8b63	0.003853523
155	0x3bb6602f	0.005565665
156	0xbb863c80	-0.0040965676
157	0x3b4c5043	0.003117577
158	0xbb8187a1	-0.003952936
159	0xbb3cca4d	-0.0028807104
160	0x3ba2c6a6	0.0049675284
161	0x3b0a1269	0.0021068102
162	0xbb33122e	-0.0027324068
163	0xbac4ff91	-0.0015029778
164	0x3b66650e	0.0035155448
165	0x3a8b3054	0.0010619261
166	0xbaa8be47	-0.001287409
167	0xbacb82be	-0.0015526635
168	0xbae5c50b	-0.0017530037
169	0xba742ebc	-0.00093148253
170	0x3b96bcff	0.004600167
171	0xbb8ac2f2	-0.004234665
172	0x3b7d3258	0.0038634744
173	0x3a7c38dd	0.00096215104
174	0x3bc37ae5	0.005965578
175	0x3b023677	0.001986889
176	0xbbc4fd05	-0.0060116076
177	0xbb0acf77	-0.0021180788
178	0xba84bcca	-0.0010127064
179	0x3b0990bd	0.0020990812
180	0xbbb57c10	-0.005538471
181	0x3b072d37	0.0020626315
182	0xbaa2ff36	-0.0012435678
183	0xbb5e7686	-0.0033945157
184	0xbb8be07d	-0.0042687044
185	0xbb730bed	-0.0037085966
186	0xbbaebd9f	-0.005332663
187	0xb9e4db3a	-0.00043650885
188	0x3b1c3397	0.002383446
189	0xbb5c7a3e	-0.0033642198
190	0xbb61d0fc	-0.003445684
191	0x396f67eb	0.00022831529
192	0xbba0342f	-0.0048890333
193	0xbb8aa56a	-0.0042311447
194	0xbad1c3f8	-0.0016003838
195	0x3b8297f0	0.0039853975
196	0x3b496a07	0.0030733363
197	0x3a92d670	0.0011202823
198	0xbb02712d	-0.0019903884
199	0xbba7811c	-0.0051118266
200	0x3b686894	0.0035462724
201	0x396774ff	0.00022073461
202	0x3b274e9e	0.0025529037
203	0xb95b450a	-0.00020911187
204	0x3b540e4b	0.0032357152
205	0xb83b957c	-4.4723492e-05
206	0x3b4acbfd	0.003094434
207	0xba80658b	-0.0009795887
208	0xbb010194	-0.0019684779
209	0x3a9b20cd	0.0011835337
210	0xbbc1f259	-0.0059187827
211	0xbb941b58	-0.004519861
212	0x3a1d4fc5	0.00060009613
213	0x3bbc7ab4	0.005751932
214	0xbad9e3a6	-0.0016623631
215	0xbaf8fdac	-0.0018996499
216	0x3b660f59	0.0035104363
217	0x3ba7278d	0.0051011504
218	0xbb6df824	-0.0036311233
219	0x3bb07450	0.0053849593
220	0xbafedd31	-0.0019444582
221	0x3b556603	0.0032562024
222	0x3ae8476e	0.0017721483
223	0x3a53f825	0.00080859876
224	0x3b9e7dde	0.004836782
225	0xba939f9f	-0.0011262781
226	0xb9c4153b	-0.0003739985
227	0x3b775069	0.0037737137
228	0xbb17fd1b	-0.0023191634
229	0x3ac586e2	0.0015070105
230	0x3b667162	0.0035162796
231	0x398f68da	0.00027353206
232	0x3bbd6bde	0.005780681
233	0x39ca8d0f	0.0003863354
234	0x3b2973ec	0.0025856448
235	0x3b5e3372	0.0033905176
236	0x3ba30be1	0.0049757813
237	0xbb37c359	-0.002804002
238	0xb91fbc87	-0.00015233654
239	0xbb1e2117	-0.002412861
240	0xbb315079	-0.0027056022
241	0xbb2286aa	-0.0024799504
242	0x3a467b24	0.000757145
243	0xbb89406b	-0.0041885874
244	0xbb1e691f	-0.0024171544
245	0x3b9bb51b	0.004751814
246	0x3b00a5b7	0.0019630024
247	0x3bc52c96	0.006017278
248	0xba6c1dc7	-0.0009007123
249	0xb96fa23b	-0.00022853252
250	0xbb4a35bd	-0.0030854784
251	0x3a70934d	0.0009177223
252	0x3abc8007	0.0014381417
253	0x3b92c74c	0.0044793244
254	0xbb948721	-0.00453271
255	0xbaf455a2	-0.0018641243

_func._drift._model.2.bias f4 [16]
0	0x3ba7ff99	0.005126905
1	0xbb833d8e	-0.0040051406
2	0x3b262c15	0.0025355865
3	0xbb8f4e22	-0.004373328
4	0xbb328b89	-0.0027243814
5	0xbbba0f48	-0.005678091
6	0xbb60e37c	-0.0034315279
7	0xbb3fbe20	-0.002925761
8	0x3ba14a58	0.0049221925
9	0xbb7d2daa	-0.0038631954
10	0x3b890cd3	0.004182437
11	0x3a2ca68e	0.0006586098
12	0x3b2ec55e	0.0026667933
13	0x3b8544b8	0.00406703
14	0x3b93316d	0.004491976
15	0xbb98bc03	-0.0046610846

_func._diffusion._model.0.weight f4 [16, 17]
0	0x3da3521c	0.079746455
1	0xbd7ac75f	-0.06122529
2	0xbd25b355	-0.040454227
3	0x3d97ef9e	0.0741875
4	0xbde5a6b7	-0.11213439
5	0xbd3a5c8c	-0.045498416
6	0x3d5c34a8	0.053761154
7	0x3c76ce5a	0.0150638465
8	0xbcac4e9b	-0.021033576
9	0x3daa3f85	0.08312897
10	0x3d8abac4	0.06773904
11	0x3d7bef82	0.06150771
12	0x3cdcc19e	0.026947793
13	0x3cc94741	0.02457011
14	0xbcffb0a5	-0.03121216
15	0x3ce2139c	0.027597241
16	0xbd834c5d	-0.064110495
17	0xbd4d9960	-0.050195098
18	0x3c3a329f	0.011364608
19	0xbd6b012d	-0.05737417
20	0xbcaa929e	-0.020821866
21	0xbc4648b8	-0.012102298
22	0x3d300b26	0.042979382
23	0x3cb87665	0.022517392
24	0x3d41bad4	0.047297314
25	0x3cf43727	0.029811455
26	0xbc842490	-0.016130716
27	0x3c62cbcb	0.013842533
28	0xba21aaea	-0.0006167131
29	0x3d35a682	0.044348247
30	0x3d28117d	0.041032303
31	0x3b6ae5c9	0.003584253
32	0xbc8c84e0	-0.017153203
33	0xbd9c540d	-0.07633219
34	0x3c5ea536	0.013589194
35	0x3d0e7ecd	0.034788895
36	0x3d1fc9c5	0.03901078
37	0x3d571f3f	0.052520033
38	0xbd133533	-0.035939407
39	0x3d5e98c9	0.054344926
40	0xbd5ca593	-0.05386884
41	0xbb0f72fa	-0.00218886
42	0x3d0b4cbc	0.034008726
43	0x3d090197	0.03344878
44	0x3d5950ae	0.053055458
45	0x3d848d34	0.06472245
46	0xbd562d03	-0.05228902
47	0xbb005a9d	-0.001958526
48	0x3d2a2b3b	0.041545134
49	0x3c958bd8	0.01825516
50	0x3bbefa45	0.0058281743
51	0x3ce9535a	0.028482128
52	0x3c5ac932	0.013353633
53	0xbc287c88	-0.010283597
54	0xbcac48d4	-0.02103082
55	0xbdf40040	-0.1191411
56	0x3cd00881	0.02539468
57	0xbc7f74f2	-0.015591847
58	0x3cd8d620	0.02646929
59	0xbda88410	-0.08228314
60	0x3d966e70	0.07345283
61	0x3c93440d	0.017976785
62	0x3d300d21	0.04298127
63	0x3d0f57fa	0.03499601
64	0xbcf60303	-0.030030733
65	0xbd9f046e	-0.07764517
66	0xbd141601	-0.036153797
67	0xbd48a3fd	-0.048984516
68	0xbdae1123	-0.08499362
69	0x3c63f19c	0.013912585
70	0x3cdbd578	0.026835188
71	0xbd9291c9	-0.071567126
72	0x3d8688d0	0.06569064
73	0xbd8cc276	-0.06873028
74	0x3b4c2d30	0.0031154864
75	0xbdc96dd3	-0.098354004
76	0x3d003815	0.031303484
77	0xbde39677	-0.11112683
78	0xbd3a15c0	-0.0454309
79	0xbcd4c0ad	-0.025970781
80	0xbdb158cc	-0.08659515
81	0xbd118b88	-0.035533458
82	0x3bae1bbe	0.0053133657
83	0xbd3378f0	-0.043816507
84	0x3c41ae2e	0.011821313
85	0x3db173fd	0.08664701
86	0xbda9ab08	-0.08284575
87	0x3cad22a9	0.021134691
88	0xbc9b346f	-0.0189459
89	0xbdcef140	-0.101046085
90	0xbd5ed4de	-0.054402225
91	0xbcf2a06b	-0.029617509
92	0x3b05994c	0.0020385562
93	0xbd9dbee5	-0.07702426
94	0x3d86b1b6	0.065768644
95	0xbcbc2f5f	-0.022971807
96	0x3d910fe1	0.07083107
97	0xbd479099	-0.048721883
98	0xbd36063d	-0.044439543
99	0x3d07aa63	0.033121478
100	0x3d4518cd	0.048119355
101	0x3b138119	0.0022507368
102	0xbdee30b1	-0.11630381
103	0xbc979613	-0.018504178
104	0xbcc5675a	-0.024097133
105	0xbd55e6cd	-0.052222062
106	0x3b1820a9	0.0023212826
107	0xbd876081	-0.066102035
108	0x3c0a7567	0.008450842
109	0xbc9719f5	-0.018444994
110	0x3d649186	0.055802844
111	0xbda82b19	-0.08211345
112	0xbd6e69bf	-0.058206316
113	0xbd564bd6	-0.052318417
114	0xbd7afd4e	-0.061276726
115	0xbd18e500	-0.037327766
116	0x3d315bd1	0.043300454
117	0xbdb895c5	-0.09012941
118	0x3d2b0bef	0.041759428
119	0xbd0abc72	-0.03387112
120	0xbb1a48e6	-0.0023541986
121	0xbc97ff6e	-0.018554416
122	0xbdabd752	-0.083906785
123	0xbbc69040	-0.0060596764
124	0xbc92d2ad	-0.017922724
125	0xbd134a63	-0.035959613
126	0xbd8375ba	-0.06418939
127	0x3b8a1ca4	0.00421484
128	0xbd93af43	-0.07211163
129	0xbd559704	-0.052145973
130	0xbda33cbc	-0.079705685
131	0xbcff3fcd	-0.031158352
132	0x3bd2afd1	0.0064296504
133	0xbcdbaf77	-0.026817067
134	0xbd8665ea	-0.06562407
135	0x3ced8ea7	0.028998686
136	0x3d16c3f6	0.036807977
137	0xbd939e44	-0.07207921
138	0xbbb4f3f7	-0.005522247
139	0x3d01d820	0.031700253
140	0xbdc31412	-0.095253125
141	0xbc73078a	-0.01483334
142	0x3d1a6b49	0.03769997
143	0x3d725fba	0.059173323
144	0xbad608ad	-0.001632949
145	0xbbd308e2	-0.006440268
146	0x3bd191b3	0.0063955425
147	0x3d4e8121	0.050416116
148	0xbd3818a4	-0.044945374
149	0x3cfc3128	0.030785158
150	0xbd680ddb	-0.05665384
151	0x3ca38d49	0.019964831
152	0xbd4ff7e3	-0.050773513
153	0xbd147fbf	-0.03625464
154	0x3d3dfeb1	0.04638547
155	0x3ba2c780	0.00496763
156	0xbde086db	-0.10963222
157	0x3bb42d98	0.0054985993
158	0xbd111a07	-0.035425212
159	0xbd08868c	-0.03333144
160	0xbd82435e	-0.063605055
161	0x3d2e8e7e	0.04261636
162	0xbd3db2ff	-0.046313282
163	0xbdb90804	-0.09034732
164	0xbd26c986	-0.04071953
165	0xbc419507	-0.011815316
166	0xbb543526	-0.0032380312
167	0xb9a5de8a	-0.00031637057
168	0xbd9f4af7	-0.0777797
169	0x3d362bbe	0.04447531
170	0xbdc92689	-0.09821803
171	0xbd3636a4	-0.044485703
172	0xbd31f4a5	-0.0434462
173	0xbcb83e3c	-0.022490613
174	0x3d429af9	0.047511075
175	0x3c9e2755	0.019305864
176	0xbd8fee8c	-0.07027921
177	0xbd2f935d	-0.042865146
178	0x3d76e641	0.06027818
179	0xbe010e78	-0.12603176
180	0xbd889bc1	-0.06670333
181	0xbcedc009	-0.029022234
182	0xbd3b991c	-0.045800313
183	0x3bfd99d8	0.007739287
184	0xbd0f4482	-0.034977444
185	0xbd3ffab6	-0.046869956
186	0x3cb7fc22	0.022459093
187	0x3bf6e94f	0.007535137
188	0x3cd17c62	0.025572006
189	0xbb3d8669	-0.0028919226
190	0x3d133dbb	0.035947543
191	0xbc089f19	-0.008338713
192	0xbc5e0b10	-0.013552442
193	0xbba18f51	-0.0049304147
194	0x3d5cd6ed	0.053915907
195	0xbdaa597a	-0.083178475
196	0x3c11729b	0.008877422
197	0xbce61d34	-0.028090097
198	0x3d7bab85	0.06144287
199	0x3d08b23c	0.033373103
200	0xbdb0f1d6	-0.086398765
201	0xbc9dd0d1	-0.01926461
202	0x3d6febf7	0.058574643
203	0xbd7fdee9	-0.062468443
204	0xbd81a66a	-0.06330569
205	0x3b87099c	0.0041210186
206	0x3be6b2ea	0.007040371
207	0xbdba4043	-0.09094288
208	0x3d260ee8	0.04054156
209	0x3b3a90fc	0.0028467765
210	0xbd82bafd	-0.063833214
211	0xbda5c85b	-0.080948554
212	0x3c843dcf	0.016142754
213	0xbd3a7833	-0.045524787
214	0xbda10953	-0.078631066
215	0xbd615d21	-0.055020455
216	0xbd281ed8	-0.04104504
217	0x3cdbf285	0.02684904
218	0xbc79484e	-0.015214993
219	0xbd3ab253	-0.04558022
220	0x3d734946	0.05939605
221	0x3d836664	0.06416014
222	0x3c57eb6d	0.0131786885
223	0xbb0e6784	-0.002172918
224	0x3d85b050	0.065277696
225	0xbd8b3fa8	-0.06799251
226	0xbd19a87c	-0.037514195
227	0xbc649a22	-0.013952764
228	0x3d0405f8	0.032232255
229	0xbd60be45	-0.054868955
230	0x3d9f5d3a	0.077814534
231	0x3d896490	0.06708634
232	0x3d5c81a3	0.05383457
233	0x3cbdebe0	0.023183763
234	0x3c921e83	0.017836815
235	0xbc69dd1a	-0.014273906
236	0xbc6d657d	-0.014489529
237	0xbc423a43	-0.011854711
238	0x3c11a93f	0.008890449
239	0x3b3163fc	0.0027067652
240	0x3cd28355	0.02569739
241	0x3c163e36	0.009170106
242	0xbc8fdd0b	-0.017561456
243	0x3c23b819	0.009992623
244	0xbba0afd1	-0.0049037714
245	0x3d141aba	0.0361583
246	0xbd9bbd8b	-0.07604512
247	0x3c7e005c	0.015503015
248	0x3ce14afc	0.027501576
249	0x3d0401e2	0.032228358
250	0xbb84e376	-0.004055436
251	0xbdb7222a	-0.08942063
252	0xbcff9cbd	-0.031202668
253	0x3d23a88c	0.03995566
254	0xbccde515	-0.025133649
255	0xbb6ba40b	-0.0035955932

_func._diffusion._model.0.bias f4 [16]
0	0x3ddbf268	0.10739595
1	0x3c6bc942	0.014391245
2	0x3c737573	0.014859545
3	0x3dc78071	0.09741295
4	0xbc38ce29	-0.011279621
5	0x3c6fa011	0.014625565
6	0xbd6dc342	-0.05804754
7	0xbdcca343	-0.09992077
8	0x3d6fd933	0.058556747
9	0xbcdfc495	-0.027315417
10	0xbc9c9d59	-0.019117998
11	0x3d4ca03c	0.0499575
12	0xbda9bfbc	-0.082885236
13	0x3dbd5e66	0.09246521
14	0x3d9ea6f1	0.07746685
15	0x3c0ad3a7	0.008473313

_func._diffusion._model.2.weight f4 [48, 16]
0	0x3d9467e6	0.072463796
1	0x3d578c36	0.05262395
2	0xbc0226a6	-0.007943785
3	0x3d3cb825	0.04607405
4	0xbdc6eeee	-0.09713541
5	0x3d25b167	0.040452387
6	0x3b9109f5	0.004426236
7	0xbbb85e4f	-0.005626477
8	0x3d18df7e	0.037322514
9	0xbdaf753a	-0.08567281
10	0x3c33e8d6	0.010980805
11	0x3d7b31ea	0.0613269
12	0xbd65d30e	-0.05610948
13	0xbccf511b	-0.025307229
14	0xbc961b3a	-0.01832353
15	0x3d90e008	0.070739806
16	0x3d100171	0.035157625
17	0xbd226b9e	-0.039653413
18	0xbce3005c	-0.027710132
19	0x3c27d16a	0.010242799
20	0xbd92c6cf	-0.07166826
21	0x3d4e0525	0.050297875
22	0xbd0b3e14	-0.03399475
23	0xbdb3024d	-0.08740673
24	0x3d9e1ed8	0.07720727
25	0xbc1123f6	-0.008858671
26	0x3c139a10	0.009008899
27	0x3d8923ec	0.06696305
28	0xbc68cad9	-0.014208519
29	0xbcd3bbd4	-0.0258464
30	0xbcf3246e	-0.029680457
31	0xbc7623b6	-0.015023163
32	0x3c1f05ce	0.009705974
33	0xbcbe8d08	-0.023260608
34	0xbd0b90cb	-0.034073632
35	0x3dc6b3c5	0.09702257
36	0xbdaeaf79	-0.085295625
37	0x3d21f68a	0.03954176
38	0xbd37c80d	-0.044868518
39	0x3ccd50a1	0.02506286
40	0xbc5d9bec	-0.013525944
41	0xbcf6c37d	-0.030122513
42	0xbdb63b51	-0.088980325
43	0xbcb10bc0	-0.021612048
44	0xbcf12f79	-0.029441582
45	0x3a6a3204	0.00089338445
46	0x3cb64f8d	0.02225473
47	0xbca131c8	-0.019677058
48	0x3d95d712	0.07316412
49	0x3d6dc7b6	0.058051787
50	0xbd546d3d	-0.05186199
51	0x3c620cd5	0.013797005
52	0x3bb8fe85	0.0056455755
53	0xbc8cc36c	-0.017183028
54	0xbd309314	-0.043109015
55	0xbd0a10b9	-0.033707354
56	0x3d634f11	0.055495325
57	0xbd2c374a	-0.042044915
58	0xbc951e0c	-0.018202804
59	0xbc49c78c	-0.012315642
60	0xbcbe31c5	-0.023217091
61	0xbbcf07e4	-0.0063180793
62	0x3d7fb4d3	0.062428307
63	0x3d24cf4b	0.040236752
64	0x3d898269	0.06714327
65	0x3bf0a3e6	0.007343757
66	0xbc09e208	-0.008415706
67	0x3dc29fca	0.095031336
68	0xbd2abda6	-0.04168477
69	0x3d89dfc6	0.067321345
70	0xbd8b754b	-0.06809481
71	0x3c19aea3	0.009380016
72	0x3d40ba0f	0.04705244
73	0xbda85477	-0.082192354
74	0xbd131597	-0.03590926
75	0xbd1c1ccf	-0.03811341
76	0xbcdeed69	-0.027212815
77	0x3bb68f8d	0.005571312
78	0x3b22f508	0.0024865288
79	0x3c645461	0.013936133
80	0x3db9a9cf	0.090655915
81	0x3c8a4b4d	0.01688161
82	0xbd4c132d	-0.049822975
83	0x3d88df0a	0.06683166
84	0xbce88877	-0.028385384
85	0x3d36d8ef	0.044640478
86	0xbcee10b1	-0.029060693
87	0xbc935733	-0.017985916
88	0x3d0d1075	0.034439523
89	0xbd2ab6f9	-0.041678403
90	0xbba15ecb	-0.0049246303
91	0x3d74becd	0.059752274
92	0xbdbd1a28	-0.092335045
93	0x3cc0e8c8	0.023548499
94	0x3ca6de05	0.020369539
95	0x3d788bbf	0.060680147
96	0x3da199e5	0.07890681
97	0x3d1f66e8	0.0389165
98	0xbd72525d	-0.05916058
99	0x3cd3c0d7	0.02584879
100	0x3b92d095	0.0044804313
101	0x3c00b33a	0.007855231
102	0xbd34e0e3	-0.04415978
103	0xbd9143be	-0.07092999
104	0x3d52cc10	0.05146414
105	0xbca9d2fc	-0.020730488
106	0xbd26649f	-0.040623304
107	0x3d3aa4cb	0.045567315
108	0xbd37c593	-0.044866156
109	0xbb96865e	-0.0045936545
110	0x3d9875ce	0.074443445
111	0x3d51442b	0.0510904
112	0x3db06c52	0.086144105
113	0x3bc2b55c	0.00594203
114	0xbd0c4962	-0.03424967
115	0x3c81a2d9	0.015824722
116	0xbd806786	-0.062697455
117	0x3a36576c	0.0006955776
118	0xbc51bcd1	-0.012801365
119	0xbd7cfd9b	-0.061765295
120	0x3dbe55a4	0.092936784
121	0xbdad4634	-0.08460656
122	0xbcc68c5e	-0.024236854
123	0x3d6dc5d8	0.058050007
124	0xbdb4d4fc	-0.08829686
125	0x3d30b082	0.04313708
126	0x3da56458	0.0807578
127	0x3d24135b	0.04005752
128	0xbcdd5711	-0.027019056
129	0xbcbb8b2e	-0.022893514
130	0x38d44111	0.00010121067
131	0x3d173181	0.036912445
132	0xbd602d08	-0.054730445
133	0x3d3c5cf3	0.04598708
134	0xbcbbfcfc	-0.02294778
135	0x3ca57538	0.020197496
136	0x3d2906f3	0.041266393
137	0x3c070ef8	0.008243315
138	0xbd36932c	-0.044573948
139	0x3cbe4f9d	0.023231322
140	0x3bc2fa51	0.00595025
141	0x3ce3f441	0.02782643
142	0x3d89c6c3	0.06727364
143	0x3d6bf0c1	0.057602648
144	0xbab317f5	-0.0013663756
145	0xbc65fa03	-0.014036658
146	0xbc1af56d	-0.009457928
147	0x3c9675c2	0.018366698
148	0xbcdf66ca	-0.027270693
149	0x3d3d48e9	0.04621211
150	0x3c1aba19	0.009443783
151	0xbd9f90eb	-0.07791313
152	0x3d41f4e4	0.047352687
153	0xbd190c0a	-0.037364997
154	0xbd7cbfad	-0.061706234
155	0x3d85ccdf	0.06533217
156	0xbdb810af	-0.08987557
157	0x3b254c12	0.0025222343
158	0x3d74b649	0.059744153
159	0xbcfcd3f4	-0.030862786
160	0x3a9eeef8	0.0012125662
161	0xbbf1775d	-0.0073689655
162	0x3d2a1411	0.041523043
163	0x3d2fdd4a	0.042935647
164	0xbdd36ae9	-0.10323126
165	0x3b54720d	0.0032416612
166	0xbd843ff7	-0.06457513
167	0xbd917430	-0.07102239
168	0x3c6f9292	0.014622347
169	0xbd84514e	-0.0646082
170	0xbdce8b85	-0.10085205
171	0x3d202d73	0.039105844
172	0xbd582976	-0.052773915
173	0x3d956a5a	0.072956756
174	0x3c9ef398	0.019403264
175	0x3d8391bb	0.0642428
176	0x3dafb17d	0.08578775
177	0x3b370457	0.002792617
178	0xbd1e9f22	-0.03872598
179	0x3cf629c3	0.03004921
180	0xbdb88f28	-0.0901168
181	0x3cce3bc8	0.02517499
182	0xbd85ecd7	-0.06539314
183	0xbd9f1ea7	-0.07769518
184	0xbcb9dda8	-0.022688702
185	0xbca458f3	-0.020061946
186	0x3c68120d	0.01416446
187	0xbc48fc19	-0.012267136
188	0xbda880be	-0.082276806
189	0x3c8cc063	0.01718158
190	0x3d052ecb	0.03251533
191	0x3d931db7	0.07183402
192	0xbd07abb9	-0.03312275
193	0x3cb1ce1d	0.021704728
194	0x3c35a719	0.0110872025
195	0xbd4c6c4d	-0.04990797
196	0x3b0973d0	0.002097357
197	0xbd4dc887	-0.050240066
198	0x3bfa992e	0.007647655
199	0xbce40a0f	-0.027836828
200	0xbc89e314	-0.016831912
201	0x3caec6f0	0.021335095
202	0x3d6cb124	0.057786122
203	0xbc92aca2	-0.017904583
204	0x3d7743cb	0.060367387
205	0xbd486ae1	-0.048930053
206	0xbdab392d	-0.08360515
207	0xbd947f6c	-0.07250866
208	0x3c24dd54	0.010062534
209	0xbc026c0c	-0.007960331
210	0xbadd59ec	-0.0016887761
211	0xbdc8652e	-0.097849235
212	0x3c7dfcd2	0.015502172
213	0xbd802234	-0.06256524
214	0x3ba12069	0.0049171937
215	0x3d04aec6	0.03239324
216	0xbd90cd90	-0.07070458
217	0x3c60e897	0.013727329
218	0x3d31dac3	0.043421518
219	0xbd2a5581	-0.04158545
220	0x3d5c9b12	0.053858824
221	0x3cf12cf8	0.029440388
222	0x3d1894c9	0.037251268
223	0x3ccacdec	0.024756394
224	0xbd54107d	-0.051773537
225	0x3cbfff64	0.02343721
226	0x3d148e12	0.0362683
227	0xbd503d0b	-0.050839465
228	0x3d8f6f87	0.07003694
229	0x3c26279b	0.010141279
230	0x3d03aee6	0.032149218
231	0x3dabaf0f	0.08382999
232	0xbce54d59	-0.027990984
233	0x3d9748f7	0.07386964
234	0x3bd4d88f	0.0064955424
235	0xbcc1e71f	-0.023669777
236	0x3da7320b	0.08163842
237	0xbd55d7ff	-0.052207943
238	0xbd1a44d4	-0.037663296
239	0xbda00af3	-0.078145884
240	0xbbec5757	-0.00721256
241	0xbbcd17fd	-0.006258963
242	0xbd2e29b5	-0.042520244
243	0x3ceb0344	0.02868808
244	0xbd254d69	-0.040357027
245	0xba897d20	-0.0010489561
246	0xbd878fec	-0.06619248
247	0xbca14134	-0.019684412
248	0x3b9f7cea	0.004867186
249	0xbdb580b5	-0.088624395
250	0xbd81f007	-0.0634461
251	0x3d4c1835	0.049827773
252	0x3ad138c8	0.0015962357
253	0x3d88ccb1	0.06679667
254	0xbb3197ef	-0.0027098616
255	0x3cf7285d	0.030170614

_func._diffusion._model.2.bias f4 [48]
0	0x3d89ba6b	0.067250095
1	0x3db045dd	0.08607075
2	0x3dc9f2f5	0.098607935
3	0x3da0799e	0.07835697
4	0x3cf1d5dd	0.029520923
5	0x3d530681	0.051519874
6	0x3d17f414	0.037098005
7	0x3d6d1a5e	0.057886474
8	0x3cb6273a	0.022235502
9	0x3ce83738	0.028346643
10	0x3de03e16	0.10949342
11	0x3cda89d5	0.026677052
12	0xbd2c9f2e	-0.042143993
13	0xbc755eda	-0.014976228
14	0xbd9f4ccb	-0.07778319
15	0x3aa0bcf2	0.0012263341
16	0x3bbd2930	0.005772732
17	0x3d8c4ffd	0.06851194
18	0xbd5f1e5e	-0.05447232
19	0xbdd6fa28	-0.10496932
20	0xbdbc3885	-0.09190468
21	0xbc259255	-0.010105689
22	0xbd4d88c5	-0.05017926
23	0xbdd1a819	-0.1023714
24	0xbcc18197	-0.023621364
25	0xbcac7cba	-0.021055568
26	0x3d6e0da8	0.058118492
27	0xbd9175bf	-0.071025364
28	0xbcd5635a	-0.026048351
29	0xbd30cc98	-0.043163866
30	0xbc5e780f	-0.013578429
31	0xbd6932bd	-0.056933153
32	0xbddbd06d	-0.107331134
33	0x3dc070fd	0.09396551
34	0x3d924d0d	0.071436025
35	0x3db16876	0.086625025
36	0x3d2f7b0e	0.042841963
37	0x3c270e0d	0.010196221
38	0x3c9569f9	0.018239008
39	0x3b8d6ac0	0.004315704
40	0xbcd54290	-0.026032716
41	0xbd918ffb	-0.0710754
42	0x3d3c454e	0.04596453
43	0x3d90b18e	0.07065116
44	0x3dc44ad3	0.09584584
45	0xbd5e7cf1	-0.054318372
46	0xbc909d30	-0.017653078
47	0x3a9b47cc	0.0011846959

_readout.weight f4 [1, 16]
0	0xbdc41656	-0.09574573
1	0xbe45963e	-0.19295594
2	0xbe75d24b	-0.24006002
3	0xbe5450e6	-0.20733985
4	0x3da28d51	0.0793711
5	0xbdcb9f6d	-0.099425174
6	0x3c1b1882	0.009466292
7	0x3e041b3c	0.12901014
8	0xbcdf3053	-0.027244722
9	0x3d92a611	0.07160581
10	0x3db4f3d6	0.088355705
11	0xbe8a2882	-0.2698403
12	0xbe7222ca	-0.23646083
13	0xbb9473e6	-0.0045304177
14	0xbd8bd964	-0.06828573
15	0x3e150bcd	0.14555283

_initial._model.0.weight f4 [16, 2]
0	0xb6269daf	-2.4827712e-06
1	0xbeb19b87	-0.3468897
2	0xb6326fb2	-2.6589082e-06
3	0x3f99d0f5	1.2016894
4	0x34c66927	3.6956882e-07
5	0xbf374fb3	-0.71605986
6	0x36bca607	5.6221647e-06
7	0xbf11b0f7	-0.5691065
8	0xb68ca36e	-4.191351e-06
9	0xbea14782	-0.3149987
10	0x36400df6	2.8618356e-06
11	0xbf31ee6e	-0.6950444
12	0x3643723d	2.912376e-06
13	0x3f62ac13	0.88543814
14	0xb5e3d071	-1.6973482e-06
15	0x3faa4034	1.3300843
16	0x3462d3c8	2.1124936e-07
17	0xbf3da27b	-0.7407605
18	0xb65900a5	-3.2335895e-06
19	0x3f3a540c	0.72784495
20	0xb68196d9	-3.8620606e-06
21	0x3defed0c	0.11715135
22	0x36bdd88a	5.6578474e-06
23	0xbeaedfed	-0.34155217
24	0xb6c4175b	-5.843974e-06
25	0xbfb15549	-1.3854152
26	0x363b3f49	2.7902008e-06
27	0x3eb9e8e3	0.3631049
28	0x35a0ec2a	1.1989662e-06
29	0x3f1c7711	0.6111918
30	0xb5ddcd14	-1.6525469e-06
31	0x3f1d1294	0.6135647

_initial._model.0.bias f4 [16]
0	0xbf011778	-0.50426435
1	0xbcfc434b	-0.030793807
2	0x3d9ba61f	0.076000445
3	0x3f0bb76f	0.5457677
4	0xbe7d57a4	-0.24740463
5	0x3ac20629	0.0014802861
6	0xbea51ed6	-0.32250088
7	0xbf04df02	-0.5190278
8	0x3f412c81	0.7545853
9	0x3e142afb	0.14469521
10	0xbd95a957	-0.0730769
11	0xbdfbb839	-0.12290997
12	0xbe5ce648	-0.2157222
13	0xbeb23fac	-0.34814203
14	0x3d84d2ce	0.0648552
15	0x3ebd22e0	0.3694067

_initial._model.2.weight f4 [16, 16]
0	0xbd1e53de	-0.0386542
1	0xbef80063	-0.48437795
2	0xbc9c3348	-0.019067422
3	0xbd7b1d9e	-0.061307542
4	0xbe7cb9b1	-0.2468021
5	0xbe1d1e91	-0.15343691
6	0xbe1c7df8	-0.15282428
7	0xbe4449f3	-0.19168834
8	0xbd350f6c	-0.04420416
9	0xbe5b69f9	-0.21427144
10	0x3a9246df	0.0011160037
11	0xbe2c8d8b	-0.1685087
12	0xbe3d4d7a	-0.18486586
13	0xbddb1d4e	-0.10698949
14	0x3daf2698	0.08552283
15	0xbe53c02b	-0.20678775
16	0x3dd0d683	0.10197165
17	0x3ec01a9b	0.37520298
18	0x3ed72a31	0.42024377
19	0x3e8aa02a	0.2707532
20	0x3e28eb2b	0.1649596
21	0x3ec2615f	0.37964913
22	0x3e6f1294	0.2334693
23	0x3e87f0d5	0.26550928
24	0x3e55007e	0.20800969
25	0x3e60e374	0.21961766
26	0xbb5191a3	-0.0031977675
27	0x3e0e94dd	0.13923974
28	0x3f0129a2	0.5045415
29	0xbe367022	-0.17816213
30	0x3d850f6c	0.06497082
31	0x3e8fdc12	0.28097588
32	0xbe8ea397	-0.27859184
33	0x3ec1fdfe	0.37889093
34	0x3e05421e	0.13013503
35	0x3e1f17da	0.15536442
36	0xbebe6c3c	-0.3719195
37	0x3e172cde	0.14763209
38	0x3d8cafb3	0.068694495
39	0x3dfb1f40	0.1226182
40	0x3e801e69	0.250232
41	0x3ee2ef6a	0.44323283
42	0xbe8a1415	-0.26968446
43	0xbe883f32	-0.26610714
44	0x3e90c3c0	0.28274345
45	0xbcdd0477	-0.026979668
46	0x3d89ad77	0.06722539
47	0x3f07b899	0.5301605
48	0x3c777eab	0.015105884
49	0x3f1a6734	0.60313725
50	0x3e2ff71b	0.17184107
51	0x3dcd4b90	0.10024178
52	0xbd92b639	-0.071636625
53	0x3db52fad	0.08846984
54	0x3ea64abb	0.3247889
55	0x3eda9458	0.42691302
56	0x3e381ad2	0.17978981
57	0x3de96aae	0.11397301
58	0xbe44b0e8	-0.1920811
59	0x3e332926	0.17496166
60	0x3e8ce42a	0.27517825
61	0xbd0d2bf5	-0.03446575
62	0x3ea37820	0.31927586
63	0x3cabb140	0.020958543
64	0xbddd8631	-0.108166106
65	0x3ee61977	0.44941303
66	0x3e3fb0a5	0.18719728
67	0x3e1ff3f2	0.15620402
68	0xbd83cbfb	-0.064353906
69	0x3eaae410	0.33377123
70	0x3dc25a20	0.09489846
71	0x3efca787	0.49346563
72	0xbe21d6f6	-0.15804657
73	0x3e996595	0.29960313
74	0xbe4650aa	-0.19366708
75	0x3dee9756	0.11649959
76	0x3f1b735e	0.6072291
77	0x3d07c2b4	0.033144668
78	0xbd9fd618	-0.07804507
79	0xbc7eae0f	-0.0155444285
80	0x3ccbe97a	0.024891604
81	0x3f03697e	0.51332843
82	0xbd7d9bc1	-0.061916117
83	0x3dbed9e7	0.09318905
84	0x3e72b026	0.23700008
85	0x3e5f9a4d	0.21836205
86	0x3e8e5de0	0.27805996
87	0x3eee7d4c	0.4657997
88	0x3da84827	0.08216887
89	0x3e99c840	0.3003559
90	0x3e053973	0.13010196
91	0xbda0db6d	-0.07854352
92	0x3ea1c4df	0.31595513
93	0x3e27c3c1	0.16383268
94	0x3dde2a52	0.10847916
95	0xbd8bfb22	-0.06835009
96	0x3e5ba36d	0.2144906
97	0xbb7ab612	-0.0038255495
98	0x3bbcd1af	0.005762301
99	0xbdd505ae	-0.10401474
100	0x3e9f86bd	0.31157485
101	0xbdb62b43	-0.0889497
102	0x3dc02669	0.09382326
103	0xbc3cc3a6	-0.011521256
104	0xbe286a67	-0.1644684
105	0xbed54c7e	-0.4165992
106	0x3dbbcde4	0.0917013
107	0x3ecb9f7b	0.3977011
108	0x3e153946	0.1457263
109	0xbc333e1f	-0.010940104
110	0xbd601250	-0.054704964
111	0xbd9b5248	-0.07584053
112	0xbe202b41	-0.156415
113	0xbea2ecf1	-0.31821397
114	0x3d543456	0.051807724
115	0xbe914df5	-0.2837979
116	0x3d9b0c72	0.07570733
117	0xbe057d10	-0.13035989
118	0xbe30d0fb	-0.1726722
119	0xbed2af4d	-0.4114937
120	0xbe0a8bed	-0.1352994
121	0x3c0929f3	0.008371818
122	0x3dfe0235	0.12402765
123	0xbd15713e	-0.03648495
124	0xbf199732	-0.5999633
125	0x3d87f1e0	0.06637931
126	0x3d44e1a7	0.04806676
127	0xbe74754b	-0.23872869
128	0x3e9d961f	0.30778596
129	0x3e0a9d37	0.13536535
130	0xbd6bb66d	-0.05754702
131	0x3de6743e	0.1125264
132	0x3e16791f	0.14694642
133	0x3db140bf	0.086549275
134	0x3ea69094	0.3253218
135	0x3f0085a9	0.5020395
136	0xbdde8f52	-0.1086718
137	0x3e5e8d51	0.21733595
138	0xbc012b90	-0.007883921
139	0x3e4115e2	0.18856004
140	0x3f1cf06a	0.6130434
141	0x3e06a7e9	0.1314999
142	0xbe297c3c	-0.16551298
143	0x3e63c20a	0.22241989
144	0x3e09ff4f	0.13476299
145	0xbe6a44b4	-0.2287777
146	0xbe6ef8b8	-0.23337066
147	0xbc28900a	-0.010288248
148	0xbe085dcc	-0.1331703
149	0xbeea3566	-0.45743865
150	0xbe7ae3f1	-0.24501015
151	0xbe931614	-0.28727782
152	0xbe5937aa	-0.2121264
153	0xbbc1b967	-0.0059119943
154	0x3e52655b	0.20546477
155	0x3d7194b8	0.05897972
156	0xbf1fe1e1	-0.6245404
157	0xbe03f8c0	-0.1288786
158	0xbdf7f731	-0.12107695
159	0x3c7c9986	0.015417462
160	0xbdf5f93e	-0.1201043
161	0x3e08c2c7	0.13355552
162	0x3e417fe4	0.18896443
163	0xbe15f665	-0.14644773
164	0xbd8c7faf	-0.06860291
165	0x3ed3ecd3	0.4139162
166	0x3e9467e6	0.28985518
167	0x3ea8be7f	0.32957837
168	0x3c0028b1	0.007822202
169	0x3e7b5b75	0.24546607
170	0xbdc5fde1	-0.09667564
171	0x3e8cb161	0.2747908
172	0x3e5e151a	0.21687737
173	0x3e2ef00a	0.17083755
174	0xbc98e0de	-0.018661913
175	0xbd5ccbe7	-0.053905394
176	0xbdb61c12	-0.08892073
177	0x3e7ad686	0.24495897
178	0x3e3a2c79	0.18181027
179	0x3dd00bf4	0.1015853
180	0x3e4e6b10	0.20158029
181	0x3eb86242	0.36012465
182	0x3e4f2b33	0.20231323
183	0x3dd6f167	0.104952626
184	0x3e52ad48	0.20573914
185	0x3d49abec	0.049236223
186	0xbdaa692c	-0.08320841
187	0x3d9b1a37	0.075733595
188	0x3f168f41	0.5881234
189	0xbe16a626	-0.14711818
190	0x3e22cf0f	0.15899299
191	0x3da6d269	0.08145601
192	0xbd119821	-0.035545472
193	0x3e974349	0.29543522
194	0x3e0c08c6	0.13675222
195	0xbe3c2690	-0.18374085
196	0x3da83d17	0.08214777
197	0x3e9f3fff	0.31103513
198	0x3ea10844	0.3145162
199	0x3eb18e8c	0.34679067
200	0x3e4e4ff2	0.20147684
201	0x3e6c049d	0.23048635
202	0xbdac4968	-0.08412439
203	0xbd9cb9b1	-0.07652605
204	0x3f0cb2f1	0.5496054
205	0x3eaf0da1	0.34190086
206	0x3e5eda17	0.21762882
207	0x3e2f5ec7	0.17125998
208	0x3e205bf0	0.15660071
209	0x3ebeaf39	0.3724306
210	0x3ec26b50	0.37972498
211	0x3e8b2caa	0.27182513
212	0xbd9521dc	-0.07281849
213	0x3eee6a36	0.46565408
214	0x3ea3b96e	0.3197741
215	0x3d9870a2	0.07443358
216	0x3e2e6079	0.17028989
217	0x3bf7bc8a	0.0075603174
218	0xbde172e6	-0.11008243
219	0x3dd30d34	0.10305253
220	0x3f1b96b7	0.6077685
221	0xbe1df969	-0.15427174
222	0x3e2c75b1	0.1684177
223	0x3e58751b	0.21138422
224	0x3ea1e202	0.31617743
225	0xbe77ad74	-0.24187261
226	0x3e9b7cb1	0.3036857
227	0x3e361840	0.17782688
228	0x3e1c3183	0.15253262
229	0x3ee41c09	0.4455264
230	0x3e233f8a	0.15942207
231	0xbd2a5ecd	-0.041594315
232	0xbd884bd5	-0.06655089
233	0xbda4d0e6	-0.08047657
234	0xbcd42a03	-0.025898939
235	0x3ed2e067	0.4118683
236	0x3eb6e557	0.35721847
237	0xbd79f3ab	-0.061023396
238	0xbd94c9d5	-0.07265059
239	0xbe9c0d00	-0.30478668
240	0x39b8a7f4	0.0003522035
241	0xbed30d22	-0.41220957
242	0xbe6e7137	-0.23285376
243	0x3d880acf	0.066426866
244	0xbe6ed77c	-0.23324388
245	0xbe4deb1d	-0.2010922
246	0xbe968b91	-0.29403356
247	0xbecee0d3	-0.40405902
248	0xbe2120a4	-0.15735108
249	0xbe066656	-0.13124976
250	0xbca4cb93	-0.020116603
251	0xbe51860b	-0.2046129
252	0xbeeba3d6	-0.46023434
253	0xbe6dc7d0	-0.23220754
254	0xbb06a2fc	-0.0020543924
255	0xbda8d061	-0.0824287

_initial._model.2.bias f4 [16]
0	0x3eacb68f	0.3373303
1	0x3ddc0e33	0.10744896
2	0x3ea1c53e	0.31595796
3	0xbc9da891	-0.019245418
4	0xbe5e745e	-0.21724078
5	0x3de7bb52	0.113150254
6	0xbeae1926	-0.34003562
7	0x3ce7d2e8	0.02829881
8	0xbe7ba171	-0.24573304
9	0xbe689193	-0.22711782
10	0x3dd3e6e2	0.10346772
11	0x3e43fe74	0.19140035
12	0xbda3be68	-0.079953015
13	0x3d2fd075	0.04292341
14	0xbe95376f	-0.29143855
15	0x3e19f96d	0.15036555
