train/generator.pt (torch, 13339 bytes, 13 tensors)

_initial._model.0.weight f4 [16, 5]
-1.2949435 -0.5634596 1.1271902 0.05297979 -1.0814352 -0.82767755 1.0172151 0.66418487
-0.066270076 -0.41797146 -0.6684813 0.33071432 -0.35309035 -0.6285199 -0.33371282 0.006605139
-1.2443745 1.1949018 0.29047504 -1.3037194 1.2067295 -0.629741 -0.23427969 -0.4205347
1.061129 -0.028696185 -1.1032718 -0.89762443 -1.0910789 0.73365897 -1.2879709 0.8578864
0.80949545 0.8771296 0.8238418 0.2842706 0.7947534 -0.76660585 -0.5081326 1.251175
-0.9126108 0.6835978 0.11217018 0.14013319 0.9633626 0.040934473 -0.23569092 0.41191888
0.43533313 -0.07061776 0.7295055 -1.1152151 -0.6685211 -0.2795301 0.14950167 0.7918893
0.4814195 -0.7744249 0.5910249 1.2029699 0.28883752 1.1523001 -1.2867488 1.3294519
-1.3283952 -1.2578546 0.42090476 0.012494338 -0.317687 0.6361237 0.46064872 -1.1555185
-0.92814577 -0.8207018 0.39400473 0.7104647 0.32462782 0.5172284 -1.1070426 1.1409156
00000000: b5c0 a5bf e33e 10bf c547 903f 5601 593d
00000010: 786c 8abf ade2 53bf 1b34 823f 0508 2a3f
00000020: 9bb8 87bd 5b00 d6be 9721 2bbf 6353 a93e
00000030: 42c8 b4be aee6 20bf 68dc aabe ec6f d83b
00000040: aa47 9fbf 8bf2 983f 25b9 943e 47e0 a6bf
00000050: 1d76 9a3f b536 21bf 04e7 6fbe 5350 d7be
00000060: 13d3 873f 4314 ebbc 0338 8dbf b7ca 65bf
00000070: 79a8 8bbf 13d1 3b3f 3bdc a4bf 719e 5b3f
00000080: 183b 4f3f 918b 603f 4ce7 523f eb8b 913e
00000090: f574 4b3f 4840 44bf fa14 02bf 8126 a03f
000000a0: dda0 69bf 4400 2f3f 7bb9 e53d 137f 0f3e
000000b0: ee9e 763f e8aa 273d f658 71be 08e7 d23e
000000c0: fce3 de3e 0ba0 90bd dfc0 3a3f 5ebf 8ebf
000000d0: 3324 2bbf 921e 8fbe f716 193e 42b9 4a3f
000000e0: 9e7c f63e b640 46bf 684d 173f ebfa 993f
000000f0: 83e2 933e 927e 933f 2fb4 a4bf 7b2b aa3f
00000100: db08 aabf 6101 a1bf d480 d73e 0db5 4c3c
00000110: dfa7 a2be 01d9 223f 26da eb3e 08e8 93bf
00000120: f69a 6dbf 8319 52bf fdba c93e 04e1 353f
00000130: 9e35 a63e 1569 043f 92b3 8dbf 8609 923f

_initial._model.0.bias f4 [16]
0.28514883 -1.0861715 -0.72837746 -1.2689756 1.0715867 -0.55417335 0.65508854 0.6660221
-1.2153511 -0.23993552 -0.48717022 1.1798962 -0.76461256 -0.40655074 -0.018548291 -0.23447356
00000000: 07ff 913e ab07 8bbf f276 3abf cb6d a2bf
00000010: c129 893f 4ede 0dbf e2b3 273f 6d80 2a3f
00000020: a090 9bbf a8b1 75be 606e f9be d706 973f
00000030: a6bd 43bf 6b27 d0be 96f2 97bc d619 70be

_initial._model.2.weight f4 [16, 16]
-0.1392341 0.24591231 -0.5277431 0.67030174 0.13645853 -0.15581386 -0.15005518 0.495561
0.04300455 0.6100084 -0.26849294 -0.44304395 -0.3274488 -0.72657305 0.25890136 -0.23331314
0.49177533 -0.5314732 0.52462643 -0.22452903 0.20109326 -0.73679215 0.28239676 0.6771734
-0.0884067 0.1340993 0.5249977 0.09231836 0.24456674 -0.30650738 -0.39538148 -0.29853532
0.06287193 0.49215147 0.33616963 0.5989916 0.46724296 -0.37996215 0.24530856 -0.24882543
0.5199773 0.03837898 0.023964968 0.31814042 -0.4397646 -0.3423282 -0.12580107 0.30316508
-0.38750035 0.054432224 0.3791922 0.6908229 0.053293522 -0.42611244 0.25262317 0.009568441
0.486761 0.09654365 0.16470303 -0.5092414 -0.714852 0.46919677 -0.20529144 -0.45781073
0.39848384 -0.023210594 -0.11347921 0.7060749 0.6351446 0.40849096 0.049610764 0.043814804
-0.13715644 0.22502838 -0.43798232 -0.46444005 -0.5378951 -0.70601827 -0.11625199 0.47652313
-0.568346 0.6729123 -0.39728516 -0.2513831 0.061252818 0.45908493 0.15442201 -0.70342153
-0.20191589 0.14266366 -0.06032862 0.07517486 -0.4995664 0.07873878 0.67603505 0.033284273
0.5602667 0.45900154 -0.056636754 -0.4505792 -0.5190735 -0.71112454 0.43191653 0.03079691
0.5302542 -0.051040296 0.7159142 0.5318501 -0.019863484 -0.3005449 -0.68729436 -0.03182286
-0.0074470947 0.7416322 -0.325857 -0.57126564 -0.36920404 0.13933882 0.3157308 -0.34828183
-0.63140595 -0.2206689 -0.47637567 -0.6658993 0.2547167 0.3289948 -0.6030429 -0.3920872
0.15214503 -0.46607822 0.47462624 -0.27729648 -0.57115287 0.1419286 -0.65140057 0.7316051
-0.25079563 0.5515194 0.18058132 0.5990059 0.48104098 0.119593106 0.46568677 0.27583697
0.06373343 -0.3361811 -0.22932938 0.019651204 0.54202086 0.71439564 -0.12222179 -0.061631028
-0.50311327 -0.2088277 -0.4291561 -0.3698771 -0.31666845 -0.66811424 0.5377184 -0.73717904
-0.10775372 -0.6766389 0.26073244 -0.2965066 0.73725146 -0.16513535 0.74261326 -0.07617105
-0.59127915 -0.30131066 0.11128231 -0.01658166 -0.6709587 0.45122233 0.68516123 0.7393885
0.20428364 0.69144636 0.67796886 -0.478043 -0.2831317 0.11520262 -0.4558786 -0.6374334
-0.53131324 -0.05986741 -0.6801287 -0.35861415 -0.46546185 -0.09294158 0.27234814 -0.36929956
-0.6706638 0.69787663 0.29848042 0.29483086 0.14925201 -0.25534892 -0.37047663 0.47859734
0.35303733 -0.45618892 -0.6205542 -0.006117334 -0.3277361 -0.41175604 -0.24501264 -0.35132322
0.042001955 0.049131356 0.37922916 0.13093178 0.2958758 0.66767764 0.5211494 0.66296595
-0.30632186 0.23187649 -0.38081396 0.14563762 -0.38639393 0.57607627 -0.6006285 -0.6332291
-0.005420208 0.5082141 0.33525804 -0.32421574 0.3601047 -0.15873618 -0.57300806 0.44489542
0.5068669 0.21669847 0.05168831 -0.6474744 -0.6279313 0.7386741 0.18003467 0.648339
0.3814672 -0.32939157 -0.48776433 -0.4154684 -0.59177256 0.11895983 -0.23369907 -0.59204954
0.32384562 0.55873215 -0.744496 -0.3869903 -0.19649015 0.008404343 0.39495185 0.40977624
00000000: 6293 0ebe 70d0 7b3e 2c1a 07bf e598 2b3f
00000010: c9bb 0b3e ab8d 1fbe 11a8 19be 2cba fd3e
00000020: 8a25 303d 8329 1c3f e877 89be a8d6 e2be
00000030: 5ea7 a7be b100 3abf b88e 843e a4e9 6ebe
00000040: fac9 fb3e a10e 08bf eb4d 063f f0ea 65be
00000050: 64eb 4d3e 699e 3cbf 4f96 903e 3c5b 2d3f
00000060: 920e b5bd 5451 093e 4066 063f 6911 bd3d
00000070: b46f 7a3e 89ee 9cbe 716f cabe 9fd9 98be
00000080: 00c3 803d 47fb fb3e 6d1e ac3e 8357 193f
00000090: 783a ef3e 668a c2be 2b32 7b3e 18cc 7ebe
000000a0: 3b1d 053f 4733 1d3d 2e52 c43c 4de3 a23e
000000b0: d328 e1be a445 afbe ffd1 00be 7438 9b3e
000000c0: 7266 c6be 53f4 5e3d 7b25 c23e c5d9 303f
000000d0: 4f4a 5a3d 692b dabe d357 813e f3c4 1c3c
000000e0: bd38 f93e adb8 c53d e9a7 283e a55d 02bf
000000f0: 8a00 37bf 8f3a f03e eb37 52be 2b66 eabe
00000100: 1306 cc3e 2524 bebc ca67 e8bd 53c1 343f
00000110: d698 223f ba25 d13e a834 4b3d 2777 333d
00000120: bd72 0cbe d76d 663e 383f e0be 16cb edbe
00000130: 7eb3 09bf 9dbd 34bf 8615 eebd d7fa f33e
00000140: 207f 11bf fb43 2c3f f668 cbbe 49b5 80be
00000150: 3ce4 7a3d 2e0d eb3e ce20 1e3e 6f13 34bf
00000160: 0ac3 4ebe 6c16 123e 251b 77bd 47f5 993d
00000170: 2bc7 ffbe cc41 a13d a210 2d3f 1755 083d
00000180: a36d 0f3f 4002 eb3e f1fb 67bd 51b2 e6be
00000190: 00e2 04bf 420c 36bf 2a24 dd3e cd49 fc3c
000001a0: bdbe 073f a10f 51bd 2746 373f 5427 083f
000001b0: bfb8 a2bc 05e1 99be 86f2 2fbf b058 02bd
000001c0: c206 f4bb 9cdb 3d3f bbd6 a6be 773e 12bf
000001d0: 5008 bdbe d6ae 0e3e 78a7 a13e ff51 b2be
000001e0: d2a3 21bf 07f7 61be 83e7 f3be 6078 2abf
000001f0: 3a6a 823e 0272 a83e 0561 1abf a7bf c8be
00000200: e8cb 1b3e cea1 eebe 3602 f33e cef9 8dbe
00000210: 1337 12bf bb55 113e 30c2 26bf 794a 3b3f
00000220: 4968 80be 6030 0d3f 4fea 383e 7358 193f
00000230: 014b f63e 3bed f43d 7f6e ee3e 813a 8d3e
00000240: ac86 823d ee1f acbe 52d5 6abe 90fb a03c
00000250: e1c1 0a3f a2e2 363f 6b4f fabd d170 7cbd
00000260: 08cc 00bf eed6 55be 59ba dbbe 8860 bdbe
00000270: 5e22 a2be 8909 2bbf eaa7 093f c4b7 3cbf
00000280: fbad dcbd 3538 2dbf b97e 853e b7cf 97be
00000290: 83bc 3c3f 3e19 29be e71b 3e3f 91ff 9bbd
000002a0: 125e 17bf 6445 9abe fbe7 e33d 43d6 87bc
000002b0: f3c3 2bbf 9d06 e73e ba66 2f3f 9148 3d3f
000002c0: bb2f 513e a102 313f 5e8f 2d3f 0dc2 f4be
000002d0: a3f6 90be 5aef eb3d eb68 e9be d62e 23bf
000002e0: 2504 08bf 8837 75bd ea1c 2ebf 469c b7be
000002f0: 0451 eebe 2858 bebd 3771 8b3e d514 bdbe
00000300: 9fb0 2bbf 0ba8 323f 6dd2 983e 12f4 963e
00000310: 85d5 183e 18bd 82be 1daf bdbe b60a f53e
00000320: 4fc1 b43e 9891 e9be a4dc 1ebf eb73 c8bb
00000330: 07cd a7be b0d1 d2be 98e4 7abe a3e0 b3be
00000340: 3e0a 2c3d f63d 493d 532a c23e fb12 063e
00000350: 087d 973e ecec 2a3f 0c6a 053f 23b8 293f
00000360: 38d6 9cbe 0871 6d3e 0cfa c2be 0722 153e
00000370: 6dd5 c5be bc79 133f cac2 19bf 4d1b 22bf
00000380: 009c b1bb 521a 023f f1a6 ab3e 9bff a5be
00000390: a55f b83e bd8b 22be a8b0 12bf 55c9 e33e
000003a0: 07c2 013f 34e6 5d3e 1fb7 533d e2c0 25bf
000003b0: 1bc0 20bf bf19 3d3f 025b 383e 8bf9 253f
000003c0: ab4f c33e 03a6 a8be 3fbc f9be 46b8 d4be
000003d0: 687e 17bf 36a1 f33d cf4e 6fbe 8f90 17bf
000003e0: 18cf a53e 1209 0f3f 4a97 3ebf 9823 c6be
000003f0: b734 49be 5fb2 093c 2137 ca3e 31ce d13e

_initial._model.2.bias f4 [16]
-0.4860053 -0.67912596 -0.09001622 -0.33227292 -0.082192145 -0.17904344 0.31998762 0.14024812
-0.18505901 -0.020300543 0.06804833 0.18367803 0.02405654 -0.120314166 0.71424425 0.44620645
00000000: b0d5 f8be 33db 2dbf 6d5a b8bd ad1f aabe
00000010: 5b54 a8bd 2a57 37be 6bd5 a33e 349d 0f3e
00000020: 1c80 3dbe 534d a6bc ec5c 8b3d 1816 3c3e
00000030: 3912 c53c 4667 f6bd b6d8 363f 2c75 e43e

_func._drift._model.0.weight f4 [16, 17]
-0.052948587 0.013249774 0.026701279 0.050158437 -0.06147957 -0.10836939 0.02903927 -0.015980145
0.00013465127 -0.025029302 -0.07980546 0.037745524 0.057248075 -0.09935777 0.033246156 0.1164823
-0.092448965 0.06911488 0.03734377 0.10362002 -0.09732708 -0.073801115 -0.060482047 0.09326309
0.120751955 -0.08693939 0.10391168 -0.037415806 -0.10121679 0.031246949 0.03627414 0.061399493
0.03615284 0.018129772 0.039307505 -0.013525206 -0.05173874 0.021733575 0.06494056 -0.10777414
-0.003823181 0.011418024 0.05903085 -0.07383076 0.05801273 -0.07556715 0.11543211 0.04125081
0.03282652 0.046529364 0.07719612 0.063244395 -0.11275786 -0.00059913506 0.08126113 0.0616242
0.01773393 0.08534857 -0.08395219 0.022606557 -0.11258501 0.02094187 0.03633566 -0.101880215
0.053773258 -0.08586806 -0.09200262 0.0008774037 0.065779075 -0.1071519 -0.06790852 -0.031772867
-0.049882874 0.0068303808 -0.054855876 -0.08746349 0.0064928355 0.11601362 0.11159198 -0.09892984
-0.030812554 -0.05796523 0.017582934 -0.05953254 -0.032562662 -0.06785318 -0.08616807 0.035601944
-0.00424673 0.042122375 -0.058209322 -0.04461357 0.042103745 -0.11941846 0.018208034 0.0037144087
0.0319805 0.07662769 0.05790145 -0.10901292 0.11485669 0.087428965 0.0009621704 -0.022672405
0.022278732 0.008576179 -0.041792102 -0.120814 0.024087118 0.039829098 0.11898631 0.09495719
0.11596952 0.068748705 0.06600167 0.056432176 0.10215223 0.03978816 -0.011748782 0.08785637
0.119619004 0.02302343 0.0062034866 -0.050251827 0.09606891 -0.009345017 0.0879979 0.046100203
0.04418698 0.029096905 0.08569197 -0.116153106 0.008058878 0.009500177 -0.1037171 -0.053431846
-0.0043490147 0.0663248 0.07535727 0.09438453 0.044728655 -0.09252052 0.062460877 -0.05222598
0.11332191 0.07621302 0.0054365126 0.0007982872 0.004011477 -0.049170777 -0.08732036 -0.11446723
0.053049415 0.033597182 -0.026353607 -0.032849807 0.03395496 0.015860679 -0.032689806 0.0955669
-0.119296536 -0.006693726 -0.09707408 0.005525324 0.053085152 -0.06267435 0.054439012 0.0516775
0.08366134 -0.11637475 -0.099292055 0.02285192 -0.11652963 0.04294963 0.06597952 -0.05570711
0.045834742 0.09039056 0.020527449 0.10429921 0.10604178 -0.10063682 0.106289685 -0.008648199
0.035730775 -0.10379165 -0.03155449 0.0942456 -0.088583834 -0.02420203 -0.116374955 -0.08262062
0.094110765 0.032848813 0.019051073 -0.04699828 0.06508586 -0.12070386 -0.06574972 0.040209282
-0.10955553 0.07071428 -0.012847541 0.06760547 -0.027010845 -0.089627385 -0.05876295 0.058765855
-0.11151591 -0.016698286 0.007931663 -0.029250469 0.015959993 0.03848279 0.028796302 0.023419935
0.10532439 -0.09272966 0.025482664 0.0065477546 -0.09401823 -0.008676461 0.11825714 -0.10000912
0.008605255 -0.01778671 0.069406 0.079196714 0.026802847 0.05991248 -0.00042769662 0.063593395
0.11642489 -0.07718113 0.11449451 0.029314362 0.07098639 -0.03468199 -0.07897857 -0.07394184
-0.04232661 0.064079486 -0.00815955 0.0036420517 -0.011241399 -0.04448787 -0.09997838 -0.0066412496
-0.012111388 -0.026637685 -0.00855461 -0.024144828 -0.079142384 -0.017899988 0.10101501 -0.010662485
00000000: 9ee0 58bd 9515 593c a4bc da3c ef72 4d3d
00000010: 00d2 7bbd c5f0 ddbd c3e3 ed3c cbe8 82bc
00000020: 2d31 0d39 400a cdbc 0c71 a3bd 0d9b 1a3d
00000030: f57c 6a3d 167c cbbd 1f2d 083d 468e ee3d
00000040: e255 bdbd 1a8c 8d3d c8f5 183d bc36 d43d
00000050: 6c53 c7bd 0a25 97bd 06bc 77bd b800 bf3d
00000060: cd4c f73d 470d b2bd a6cf d43d 5141 19bd
00000070: c04a cfbd 9af9 ff3c 3194 143d 097e 7b3d
00000080: 0015 143d e384 943c e800 213d d398 5dbc
00000090: 00ec 53bd 9c0a b23c 8eff 843d b0b8 dcbd
000000a0: 558e 7abb aa12 3b3c 55ca 713d 9534 97bd
000000b0: c29e 6d3d f3c2 9abd ac67 ec3d 9cf6 283d
000000c0: 1a75 063d 9395 3e3d 0019 9e3d 4786 813d
000000d0: 98ed e6bd 460f 1dba 3c6c a63d a869 7c3d
000000e0: bf46 913c 3bcb ae3d 20ef abbd 6331 b93c
000000f0: f892 e6bd 498e ab3c b3d4 143d 93a6 d0bd
00000100: 5941 5c3d 98db afbd df6b bcbd 9101 663a
00000110: 2eb7 863d 7572 dbbd 9f13 8bbd 4424 02bd
00000120: fc51 4cbd 63d1 df3b 8eb0 60bd 0f20 b3bd
00000130: dac1 d43b 8c98 ed3d 568a e43d ba9b cabd
00000140: 9c6a fcbc f36c 6dbd 160a 903c 65d8 73bd
00000150: 6d60 05bd 9cf6 8abd e378 b0bd 58d3 113d
00000160: 2728 8bbb 8388 2c3d e66c 6ebd b8bc 36bd
00000170: fa74 2c3d aa91 f4bd 0429 953c 706d 733b
00000180: fcfd 023d faee 9c3d 122a 6d3d 2a42 dfbd
00000190: fc39 eb3d f50d b33d 2a3a 7c3a 7bbb b9bc
000001a0: e381 b63c 1a83 0c3c 322e 2bbd 556d f7bd
000001b0: 5952 c53c d623 233d 18af f33d ea78 c23d
000001c0: 6d81 ed3d 1fcc 8c3d e22b 873d 6d25 673d
000001d0: 3035 d13d e9f8 223d f77d 40bc 0aee b33d
000001e0: cffa f43d a29b bc3c 9e46 cb3b dcd4 4dbd
000001f0: c7bf c43d d81b 19bc 3e38 b43d 91d3 3c3d
00000200: 68fd 343d a25c ee3c 467f af3d aee1 edbd
00000210: 6209 043c a1a6 1b3c a269 d4bd 5adb 5abd
00000220: 2e82 8ebb 4cd5 873d ea54 9a3d ad4c c13d
00000230: 6535 373d 667b bdbd fad6 7f3d e9ea 55bd
00000240: 5115 e83d 9215 9c3d c624 b23b 2644 513a
00000250: b572 833b 4c67 49bd 04d5 b2bd cc6d eabd
00000260: 584a 593d 339d 093d 85e3 d7bc 858d 06bd
00000270: 5b14 0b3d 41ee 813c bfe5 05bd 94b8 c33d
00000280: be51 f4bd 0b57 dbbb c6ce c6bd c70d b53b
00000290: d16f 593d 695b 80bd 71fb 5e3d c9ab 533d
000002a0: a356 ab3d e355 eebd a259 cbbd f333 bb3c
000002b0: 16a7 eebd f4eb 2f3d 4520 873d 232d 64bd
000002c0: 36bd 3b3d b01e b93d 2e29 a83c d39a d53d
000002d0: 6f2c d93d ad1a cebd 68ae d93d 2db1 0dbc
000002e0: 6f5a 123d b790 d4bd 483f 01bd d603 c13d
000002f0: 716b b5bd 5643 c6bc fe55 eebd 0035 a9bd
00000300: 25bd c03d 7a8c 063d ff10 9c3c 4581 40bd
00000310: bc4b 853d 9633 f7bd caa7 86bd 7db2 243d
00000320: a65e e0bd a6d2 903d 7e7e 52bc bd74 8a3d
00000330: d945 ddbc 908e b7bd 6bb1 70bd 77b4 703d
00000340: 7462 e4bd d8ca 88bc cef3 013c ae9e efbc
00000350: 88be 823c 21a0 1d3d 39e6 eb3c 2adb bf3c
00000360: 50b4 d73d 0ce9 bdbd 05c1 d03c 8c8e d63b
00000370: a18c c0bd b727 0ebc cd30 f23d 95d1 ccbd
00000380: 0efd 0c3c 6fb5 91bc bc24 8e3d e331 a23d
00000390: a591 db3c ca66 753d 783c e0b9 413d 823d
000003a0: 2c70 ee3d 2411 9ebd 197c ea3d ac24 f03c
000003b0: 5061 913d b40e 0ebd 84bf a1bd d26e 97bd
000003c0: ab5e 2dbd 1b3c 833d a2af 05bc 7daf 6e3b
000003d0: d82d 38bc ea38 36bd 77c1 ccbd d79e d9bb
000003e0: d86e 46bc 4637 dabc a328 0cbc 60cb c5bc
000003f0: 6715 a2bd ffa2 92bc f5e0 ce3d b4b1 2ebc

_func._drift._model.0.bias f4 [16]
-0.04464046 0.04456118 -0.075465985 0.013692522 -0.026064064 -0.036803138 0.037681542 -0.0068341396
-0.05583551 -0.09455675 -0.05604335 0.016132357 -0.042480078 0.08411663 -0.06111574 0.005287281
00000000: ead8 36bd c985 363d e98d 9abd 9a56 603c
00000010: 4e84 d5bc e3be 16bd f657 1a3d ebf0 dfbb
00000020: c7b3 64bd f8a6 c1bd b68d 65bd 0128 843c
00000030: 97ff 2dbd 5745 ac3d 8054 7abd ed40 ad3b

_func._drift._model.2.weight f4 [16, 16]
-0.004197836 -0.008040741 0.023941219 0.06194362 -0.079491675 0.07975832 0.07743547 -0.07149401
0.015914902 -0.09253274 0.08528348 0.06549673 -0.088712 -0.09455936 0.037250057 0.09346503
-0.087005764 -0.0135264695 0.054442808 0.08604167 -0.035231933 -0.09782765 0.07620292 -0.008389607
-0.070402846 -0.087871455 0.09144311 0.07495883 0.02486381 -0.0039340407 -0.06468429 0.05605705
-0.09329765 0.07567343 -0.06601858 -0.042095177 -0.09645825 -0.08856026 0.00384669 0.10779641
-0.07600202 0.016620219 0.09919073 -0.05538079 -0.015515313 -0.0577462 -0.016745314 -0.049251214
-0.08872073 -0.028566793 -0.015981123 0.09103052 -0.00732554 0.08069877 0.10056062 -0.07907805
-0.106624946 -0.011665806 -0.07811059 0.029583186 0.023481205 -0.109820485 -0.0923026 0.106671415
-0.102409646 0.008703902 0.1034782 0.027966619 -0.08658066 -0.00057023764 -0.011575326 -0.11694228
-0.054035112 -0.07292498 0.11018723 -0.09315805 0.11621852 0.03242424 0.04828751 -0.0025393367
0.089966275 -0.061546758 -0.11974253 -0.09819018 0.085420236 0.071661636 0.109220006 0.023792744
-0.04503876 0.015884742 0.062751755 -0.020698726 -0.0192668 -0.081297 -0.023833156 -0.1171763
0.0822597 -0.015229747 -0.08561287 0.05435607 0.05968629 -0.07911359 0.038061127 -0.028206259
0.016919196 0.06185767 -0.022074163 -0.009376496 0.036689445 0.07522388 -0.050617367 0.097317524
0.08374747 0.044611245 -0.09115233 -0.017749742 -0.0032782704 -0.083112 0.0893776 0.07764984
-0.11132404 -0.06765333 0.08947484 -0.11829667 -0.018797278 0.055844843 0.119229235 -0.10766959
0.00026301667 -0.08461602 0.025018439 -0.022355705 0.06906867 0.053868905 -0.0995577 -0.048216447
0.12219106 0.005743459 0.015430242 -0.06002401 0.060155526 0.023053795 0.019077694 0.059846103
-0.10867711 -0.07333823 0.073353656 0.002231449 0.095872454 0.011739984 -0.11656563 0.033835918
-0.008295089 -0.065816954 -0.005908057 0.0045430064 -0.06386012 -0.119714245 0.12023743 -0.025461957
-0.029856727 -0.066499606 -0.09662742 -0.10549974 -0.03506939 -0.0972333 -0.022947371 -0.0724982
-0.013689369 -0.10342853 0.09883549 -0.0369429 0.012638107 -0.10696533 -0.026243806 -0.10760621
0.036148652 -0.07146424 -0.035953864 -0.009346515 0.08454577 -0.122153595 0.05918096 -0.115035914
-0.0959995 0.055175424 0.06634665 0.035413593 0.045480028 0.084198184 -0.043625355 0.08324464
0.03226213 -0.11430355 -0.060373854 -0.015600741 0.093508095 0.023823053 -0.07959002 -0.021101817
0.019542128 -0.011576951 0.024334729 0.017038822 -0.013900191 -0.01787962 -0.08233226 0.10161933
-0.03985229 -0.017408654 0.08804201 0.027635917 -0.052906916 -0.0740081 -0.037567824 -0.07954082
-0.038644627 -0.06382002 0.09772877 -0.028516024 -0.0317588 -0.018783927 -0.025674865 0.11265391
-0.118903704 -0.09909008 -0.053511288 -0.07535328 -0.07928361 0.088226296 -0.019904792 0.09371368
0.10366212 -0.061755344 0.10710591 0.072027415 -0.08684075 -0.07869853 0.098324664 -0.10772195
0.04055479 0.07750799 0.08264901 -0.0302028 -0.09045249 -0.12175201 -0.10913918 0.087333746
0.0093654245 -0.100491285 0.09932965 -0.11910708 0.09788212 -0.04093483 0.07140158 -0.12205728
00000000: 008e 89bb 50bd 03bc 6020 c43c 98b8 7d3d
00000010: 88cc a2bd 5458 a33d 7d96 9e3d 746b 92bd
00000020: f85f 823c ce81 bdbd 1ba9 ae3d 2623 863d
00000030: a3ae b5bd 56a8 c1bd 8493 183d 986a bf3d
00000040: 1430 b2bd 209e 5dbc 6cff 5e3d 9d36 b03d
00000050: 5c4f 10bd dd59 c8bd 4710 9c3d 9074 09bc
00000060: 5e2f 90bd f3f5 b3bd 8646 bb3d 0484 993d
00000070: 30af cb3c 20e9 80bb 3279 84bd 149c 653d
00000080: d712 bfbd acfa 9a3d c034 87bd fe6b 2cbd
00000090: e78b c5bd 155f b5bd c018 7c3b 5dc4 dc3d
000000a0: f2a6 9bbd 2027 883c 8224 cb3d f8d6 62bd
000000b0: f033 7ebc 4887 6cbd 782d 89bc a4bb 49bd
000000c0: 37b3 b5bd e804 eabc d8ea 82bc 366e ba3d
000000d0: 150b f0bb 6645 a53d baf2 cd3d acf3 a1bd
000000e0: 2e5e dabd f021 3fbc 72f8 9fbd 7058 f23c
000000f0: a85b c03c 90e9 e0bd 2509 bdbd 8b76 da3d
00000100: 26bc d1bd d09a 0e3c 61ec d33d 401a e53c
00000110: 3351 b1bd 007c 15ba 70a6 3dbc 6f7f efbd
00000120: ec53 5dbd b159 95bd d8a9 e13d a6c9 bebd
00000130: fa03 ee3d 48cf 043d 20c9 453d 006b 26bb
00000140: 3d40 b83d 7418 7cbd 923b f5bd ef17 c9bd
00000150: cef0 ae3d 56c3 923d bdae df3d 00e9 c23c
00000160: 907a 38bd b820 823c fe83 803d 6090 a9bc
00000170: 68d5 9dbc 0b7f a6bd c03d c3bc 21fa efbd
00000180: c677 a83d 3086 79bc cd55 afbd 78a4 5e3d
00000190: 9c79 743d 4e06 a2bd fce5 1b3d d010 e7bc
000001a0: 209a 8a3c 785e 7d3d e0d4 b4bc e09f 19bc
000001b0: ac47 163d fa0e 9a3d 2854 4fbd 694e c73d
000001c0: cb83 ab3d 48ba 363d 13ae babd e867 91bc
000001d0: 40d8 56bb a036 aabd 9a0b b73d e106 9f3d
000001e0: dcfd e3bd d48d 8abd 963e b73d 8645 f2bd
000001f0: c0fc 99bc 90bd 643d 752e f43d e081 dcbd
00000200: 80e5 8939 2a4b adbd 78f3 cc3c 5023 b7bc
00000210: e073 8d3d a4a5 5c3d e8e4 cbbd 9c7e 45bd
00000220: 4e3f fa3d a033 bc3b 20cf 7c3c bcdb 75bd
00000230: a465 763d 50db bc3c d348 9c3c 3021 753d
00000240: 1b92 debd 5b32 96bd 713a 963d 803d 123b
00000250: c758 c43d 1059 403c f6b9 eebd 8897 0a3d
00000260: 20e8 07bc 0acb 86bd 6098 c1bb 80dd 943b
00000270: 18c9 82bd be2c f5bd 0b3f f63d 9895 d0bc
00000280: 1896 f4bc f230 88bd 99e4 c5bd 3f10 d8bd
00000290: eca4 0fbd 4122 c7bd 20fc bbbc f079 94bd
000002a0: 6049 60bc 56d2 d3bd 436a ca3d 7051 17bd
000002b0: 1010 4f3c a410 dbbd 40fd d6bc a560 dcbd
000002c0: 9c10 143d d85b 92bd 5c44 13bd 2022 19bc
000002d0: 5526 ad3d aa2b fabd bc67 723d f397 ebbd
000002e0: 639b c4bd a0ff 613d c1e0 873d d80d 113d
000002f0: 4449 3a3d 1970 ac3d 80b0 32bd 2a7c aa3d
00000300: 4c25 043d fb17 eabd 934a 77bd 409a 7fbc
00000310: 2c81 bf3d 9028 c33c 1800 a3bd b8dd acbc
00000320: d016 a03c 40ad 3dbc a059 c73c 0095 8b3c
00000330: a0bd 63bc 4878 92bc d19d a8bd cc1d d03d
00000340: 283c 23bd 989c 8ebc 5f4f b43d b864 e23c
00000350: ecb4 58bd 8f91 97bd b8e0 19bd 4ce6 a2bd
00000360: d449 1ebd 12b4 82bd 0526 c83d 709a e9bc
00000370: 8415 02bd c0e0 99bc 1854 d2bc 18b7 e63d
00000380: c983 f3bd bdef cabd a72e 5bbd d252 9abd
00000390: 725f a2bd fdaf b43d 600f a3bc f5ec bf3d
000003a0: ce4c d43d 2cf3 7cbd 585a db3d 1c83 933d
000003b0: 90d9 b1bd b22c a1bd 715e c93d 539d dcbd
000003c0: c81c 263d 82bc 9e3d e243 a93d dd6b f7bc
000003d0: 283f b9bd 1e59 f9bd 5d84 dfbd 09dc b23d
000003e0: 7071 193c 60ce cdbd 586d cb3d 6aee f3bd
000003f0: 6c76 c83d 48ab 27bd fe3a 923d 2bf9 f9bd

_func._drift._model.2.bias f4 [16]
-0.10202262 -0.08937816 0.021073058 -0.040006906 -0.09121806 -0.08029325 0.093597226 -0.10971889
-0.052489534 -0.122421645 0.006188169 0.090226755 -0.011793479 -0.022393525 0.08369997 0.10882176
00000000: 3cf1 d0bd e60b b7bd 68a1 ac3c 48de 23bd
00000010: 89d0 babd ca70 a4bd e7af bf3d 4cb4 e0bd
00000020: 44ff 56bd 33b8 fabd 20c6 ca3b cec8 b83d
00000030: 7039 41bc a072 b7bc e46a ab3d f1dd de3d

_func._diffusion._model.0.weight f4 [16, 17]
-0.09689018 0.0072367243 0.050310507 0.09619541 -0.09654264 -0.082083665 0.029771602 -0.018494489
0.046713084 -0.039891638 0.112962835 0.03121308 -0.09515861 0.06898014 -0.080424674 -0.017577963
-0.0058179824 -0.101646625 0.11291389 0.094247825 -0.0022221617 0.03810076 0.007477476 -0.113900155
-0.024930794 -0.0948929 -0.102548525 0.023117084 0.0645191 0.08224409 0.03465581 -0.05221904
-0.024840465 0.12041979 -0.082405895 0.1035346 -0.09901607 0.023332238 0.009892166 -0.09811354
-0.07217543 -0.02035383 0.0196061 0.07342776 0.093955584 -0.06471742 -0.015857795 0.0726319
-0.060310144 0.0714768 0.022827659 0.043694418 -0.11261738 -0.11565347 -0.028993338 0.06903812
-0.008448554 -0.0031179432 0.028173165 -0.10015833 0.0868292 0.09827296 -0.079503424 0.018732289
0.050363116 -0.08566729 -0.11645132 0.05638543 0.004267779 0.014259989 0.035514377 0.0007810408
0.109542586 -0.08415164 0.05077925 -0.08311924 0.08699297 -0.016169416 0.07442586 -0.12065928
0.021304702 -0.0889684 0.08653793 0.0827844 0.061649866 0.06090355 -0.042954914 -0.073371634
-0.08932219 0.0051633636 0.010666468 0.08200459 -0.011020715 -0.090101026 -0.10826183 0.039631292
0.05953766 0.03190269 0.071420364 -0.028223822 -0.04011152 -0.101501 0.00046595244 0.0032466652
0.11800993 0.119122624 -0.055378627 -0.019305343 0.09413586 -0.08758515 -0.09071439 -0.11159118
0.10469052 0.061840806 -0.08099429 -0.06020608 0.11278075 0.03735316 -0.05220729 -0.065887794
-0.07043486 0.10372159 0.050434113 -0.012407062 0.03181 0.025565058 -0.030657666 -0.064375974
0.10711453 -0.017105978 -0.1170898 -0.0033037225 -0.05544732 -0.10477902 -0.0062193186 0.114654236
-0.009044783 0.052458204 0.06969072 0.06388342 0.063503966 0.013916589 -0.008804684 -0.10908231
0.052714515 -0.046179455 0.091463745 -0.044959668 -0.045099165 0.115285285 -0.051829845 -0.10788022
0.0871386 -0.10642299 -0.06857996 0.020160563 -0.007241709 0.0010711051 0.018893588 -0.088009045
0.04973459 -0.050899066 0.09856681 -0.06698793 -0.00664173 -0.038469806 0.07630399 0.11435374
3.382052e-05 0.020948559 0.022378536 0.08164897 -0.01633921 0.08362766 -0.0473991 0.08104314
-0.048148207 0.01634353 0.015125337 -0.110736795 -0.028199121 -0.09199659 -0.0054479665 0.004900666
-0.09138651 -0.0797309 -0.07212553 -0.10777554 0.09322891 -0.09909465 0.082774535 0.03155465
-0.05630494 -0.05764958 -0.017169764 -0.047288075 -0.032572724 -0.042470522 -0.040454607 0.11798991
-0.07396352 0.060407903 -0.104044616 0.07220099 0.01794362 -0.023120949 0.033777837 -0.09692295
0.022790566 -0.08260317 0.09632816 -0.1159633 -0.042418327 0.058385115 -0.054979183 -0.06952346
-0.015464824 0.11569127 -0.075013116 -0.020454926 -0.0908838 0.050532438 0.11104011 0.05606332
-0.12088466 0.092310324 0.07368566 0.0017748266 0.023001129 -0.016370418 -0.0679444 0.079803005
0.07263381 -0.11011584 0.010448341 -0.116760455 0.05995984 0.0054489914 -0.053589582 -0.077339485
0.07848073 0.04700363 -0.03095263 -0.100988366 0.080811135 -0.08953528 -0.060755786 -0.01097568
0.029411763 -0.05723282 -0.034419052 -0.02019139 -0.036702797 0.02647514 -0.030203516 -0.025258003
00000000: 5c6e c6bd 0b22 ed3b 6412 4e3d 1902 c53d
00000010: 26b8 c5bd 7b1b a8bd 93e3 f33c c181 97bc
00000020: 3856 3f3d 6a65 23bd 0f59 e73d 93b2 ff3c
00000030: 84e2 c2bd 7645 8d3d b1b5 a4bd a9ff 8fbc
00000040: c6a4 bebb 1b2c d0bd 663f e73d 0105 c13d
00000050: b0a1 11bb 8b0f 1c3d 9d05 f53b 7c44 e9bd
00000060: aa3b ccbc 3557 c2bd f604 d2bd 0a60 bd3c
00000070: 9722 843d 976f a83d 40f3 0d3d a2e3 55bd
00000080: 3b7e cbbc a79e f63d 6cc4 a8bd f309 d43d
00000090: f0c8 cabd 4023 bf3c c012 223c c0ef c8bd
000000a0: b6d0 93bd 13bd a6bc f99c a03c 4b61 963d
000000b0: c96b c03d 918a 84bd 35e8 81bc 09c0 943d
000000c0: c507 77bd 6e62 923d 1201 bb3c ebf8 323d
000000d0: f1a3 e6bd badb ecbd 7083 edbc dc63 8d3d
000000e0: ce6b 0abc 6856 4cbb 69cb e63c cf1f cdbd
000000f0: 82d3 b13d 5543 c93d b1d2 a2bd 7574 993c
00000100: 8e49 4e3d 5572 afbd 087e eebd 69f4 663d
00000110: bad8 8b3b bba2 693c 8677 113d c3be 4c3a
00000120: dd57 e03d b257 acbd e7fd 4f3d 6c3a aabd
00000130: 5f29 b23d b975 84bc 966c 983d 361c f7bd
00000140: 3387 ae3c 1135 b6bd cc3a b13d de8a a93d
00000150: 9284 7c3d 0076 793d 7ef1 2fbd de43 96bd
00000160: 8dee b6bd 6f31 a93b 69c2 2e3c 06f2 a73d
00000170: 3b90 34bc e386 b8bd 61b8 ddbd 6c54 223d
00000180: c3dd 733d 65ac 023d d744 923d a535 e7bc
00000190: fa4b 24bd c2df cfbd 144b f439 01c6 543b
000001a0: 31af f13d 90f6 f33d b3d4 62bd 3d26 9ebc
000001b0: 4dca c03d d85f b3bd 77c8 b9bd eb89 e4bd
000001c0: fc67 d63d c94c 7d3d 56e0 a5bd a79a 76bd
000001d0: 98f9 e63d a1ff 183d 50d7 55bd 2ef0 86bd
000001e0: 2740 90bd fc6b d43d 0094 4e3d fd46 4bbc
000001f0: 344b 023d d06d d13c c925 fbbc 8dd7 83bd
00000200: dd5e db3d d621 8cbc c7cc efbd 4483 58bb
00000210: bb1c 63bd 6296 d6bd 6dcb cbbb d7cf ea3d
00000220: 9230 14bc 6ade 563d 02ba 8e3d 4fd5 823d
00000230: 5e0e 823d 6802 643c 8541 10bc 8c66 dfbd
00000240: 2deb 573d ab26 3dbd 5851 bb3d a127 38bd
00000250: e7b9 38bd b11a ec3d 884b 54bd 4ef0 dcbd
00000260: b975 b23d 4cf4 d9bd a673 8cbd c427 a53c
00000270: dc4b edbb 5364 8c3a bac6 9a3c 163e b4bd
00000280: 7fb6 4b3d 8a7b 50bd 65dd c93d f830 89bd
00000290: dfa2 d9bb 8492 1dbd 4445 9c3d 4b32 ea3d
000002a0: 82da 0d38 509c ab3c 3153 b73c 9337 a73d
000002b0: cfd9 85bc fb44 ab3d 8f25 42bd f2f9 a53d
000002c0: 0e37 45bd dee2 853c 43d0 773c f9c9 e2bd
000002d0: d801 e7bc b568 bcbd db84 b2bb c495 a03b
000002e0: da28 bbbd f449 a3bd 8db6 93bd 6cb9 dcbd
000002f0: ccee be3d 23f2 cabd b285 a93d 733f 013d
00000300: 02a0 66bd f721 6cbd 9ba7 8cbc 24b1 41bd
00000310: fa6a 05bd 92f5 2dbd bbb3 25bd b2a4 f13d
00000320: 307a 97bd 476e 773d 5815 d5bd 1dde 933d
00000330: 80fe 923c 2568 bdbc a15a 0a3d 8a7f c6bd
00000340: 48b3 ba3c da2b a9bd b347 c53d 2b7e edbd
00000350: d7be 2dbd 3b25 6f3d da31 61bd 5162 8ebd
00000360: 2c60 7dbc 8bef ec3d 7aa0 99bd 1791 a7bc
00000370: 4921 babd 1afb 4e3d ff68 e33d a7a2 653d
00000380: 6092 f7bd 320d bd3d 82e8 963d 4ca1 e83a
00000390: dd6c bc3c 411b 86bc 6f26 8bbd c26f a33d
000003a0: 09c1 943d 6a84 e1bd 852f 2b3c 1b20 efbd
000003b0: 7398 753d 748d b23b c080 5bbd 2a64 9ebd
000003c0: 81ba a03d e186 403d 5f90 fdbc fdd2 cebd
000003d0: 4f80 a53d 465e b7bd 0fdb 78bd 57d3 33bc
000003e0: f0f0 f03c f66c 6abd fefa 0cbd 6a68 a5bc
000003f0: ac55 16bd 65e2 d83c 5d6d f7bc dfe9 cebc

_func._diffusion._model.0.bias f4 [16]
-0.10155416 0.042488 -0.020965524 0.09800379 0.083204724 -0.06071609 -0.025010409 -0.0047888407
-0.08058318 -0.06816947 -0.05877921 0.111023985 -0.07560463 -0.032157 -0.111098796 -0.006209694
00000000: a1fb cfbd e607 2e3d e4bf abbc 36b6 c83d
00000010: 3d67 aa3d 6fb1 78bd a1e2 ccbc b5eb 9cbb
00000020: cb08 a5bd 6f9c 8bbd 78c2 70bd 8b60 e33d
00000030: 9ad6 9abd 0fb7 03bd c487 e3bd b07a cbbb

_func._diffusion._model.2.weight f4 [48, 16]
0.035395786 0.12347945 0.1066201 0.053143118 -0.04413745 0.09549704 0.052708156 -0.05786692
0.046947856 0.12006753 0.03865994 -0.042711843 -0.116446905 -0.017727911 0.06785286 -0.11585442
-0.089393936 0.06024478 0.048865188 0.09589311 -0.05120887 0.06221315 -0.013754815 0.10488753
0.093127765 0.020600593 0.01947951 0.08695407 -0.04439035 0.02951647 -0.061879225 0.06318102
-0.073506996 -0.108387046 -0.10550033 -0.11358472 -0.032083247 -0.0651974 0.04816075 0.06389421
-0.03502897 -0.119146466 -0.08837915 -0.11151971 -0.11227858 -0.01965855 0.07362904 -0.076453075
-0.114902094 0.08751471 -0.015120129 0.0063446485 0.044124205 -0.07482766 -0.12048245 -0.03221966
0.023993092 -0.08589108 -0.028490035 0.07315879 0.03146401 0.06826372 -0.104744025 -0.015481553
0.06889144 -0.04681576 -0.03701603 -0.117805496 0.08334494 0.11343531 -0.10398704 -0.055133853
0.107077025 -0.033559322 -0.10290386 -0.040316578 0.004182726 0.030810842 0.029096974 0.050270114
0.1172716 0.10762735 -0.08183619 0.0907275 0.0570047 -0.026047906 -0.08564681 0.082401246
-0.10643477 -0.124286294 0.07917987 -0.087045744 -0.03194139 9.461424e-05 -0.066910334 0.10509113
-0.060297806 0.042870972 -0.07885465 0.008632538 0.10516247 0.006243204 -0.07236724 -0.09443813
-0.064396046 0.11181754 3.1196185e-05 -0.026073068 -0.05632181 -0.058966305 0.100823425 0.01111986
0.000831013 0.01670554 -0.039576147 -0.05061911 -0.021471638 0.057001315 -0.07030483 0.069013394
-0.09660561 -0.09931062 -0.017239332 0.023915173 0.123383544 0.0325044 -0.009205372 -0.049573246
-0.10954616 -0.01352235 -0.10047038 -0.081678845 -0.03838186 -0.0057533574 -0.09654052 -0.11419583
0.06568308 -0.0956423 0.11554203 0.12426915 0.10822054 0.11508452 0.11509344 0.020168573
-0.067774266 -0.013965032 0.020895721 0.11676401 -0.039143804 -0.034232054 0.008985803 0.06713074
0.0016855539 -0.012728873 -0.041108854 -0.015870422 0.122729845 0.057956986 -0.023382122 -0.10853542
-0.06405378 0.05565658 -0.07700467 0.07664707 0.052007888 0.102197886 0.07273158 0.096607044
-0.11341056 -0.021720124 0.027502028 -0.009638753 0.052694295 0.031236546 -0.061805107 0.123621084
0.11427366 0.042211507 0.045178648 0.10903812 0.11947609 -0.08309656 0.11728076 0.09760173
-0.110976085 0.08836282 0.12284055 -0.03402091 0.076980196 0.07871895 -0.07098844 -0.04378384
-0.09985335 -0.09451951 -0.021997077 -0.080356754 -0.015773717 0.07417469 -0.036300786 -0.0021111101
-0.098838106 0.021395959 0.01083792 -0.018596916 -0.018180428 -0.032492213 -0.032092288 -0.09920714
0.11348928 -0.060120255 0.10300176 -0.07053509 0.0291791 -0.08460927 -0.04795758 0.052703775
-0.10348572 0.10964618 -0.064738005 -0.011992468 -0.066592716 0.07421186 -0.035194352 -0.09517377
-0.033488024 -0.0107678715 0.078920305 0.09483734 0.09773289 0.0018241748 -0.10350456 -0.11951387
-0.0040634037 0.08779289 -0.11687825 -0.08474528 -0.032759227 -0.06954439 -0.0040035625 -0.1145134
0.062962085 0.038111955 0.07929764 0.023664463 0.008710811 0.10320525 0.03784346 -0.027450461
-0.066243604 0.03134846 -0.061321493 0.06619967 0.03824821 -0.08269091 -0.09911408 -0.038420316
00000000: 2cfb 103d cbe2 fc3d a45b da3d 99ac 593d
00000010: 79c9 34bd f493 c33d 82e4 573d dd05 6dbd
00000020: 654c 403d f7e5 f53d e359 1e3d 9df2 2ebd
00000030: b77b eebd 203a 91bc 71f6 8a3d 1545 edbd
00000040: 2b14 b7bd 3bc3 763d dd26 483d 9b63 c43d
00000050: 64c0 51bd 37d3 7e3d e05b 61bc 46cf d63d
00000060: c5b9 be3d 93c2 a83c 7e93 9f3c fa14 b23d
00000070: a8d2 35bd 86cc f13c 1275 7dbd 0d65 813d
00000080: d68a 96bd 07fa ddbd 8f10 d8bd 1b9f e8bd
00000090: b969 03bd 3786 85bd 3544 453d f8da 823d
000000a0: 8a7a 0fbd 1003 f4bd 2100 b5bd 7264 e4bd
000000b0: 50f2 e5bd f80a a1bc d2ca 963d 6e93 9cbd
000000c0: ca51 ebbd ea3a b33d 6bba 77bc c5e6 cf3b
000000d0: 95bb 343d 3f3f 99bd 81bf f6bd c3f8 03bd
000000e0: 298d c43c aae7 afbd ef63 e9bc 47d4 953d
000000f0: 68e0 003d d9cd 8b3d 0984 d6bd 57a6 7dbc
00000100: f516 8d3d e2c1 3fbd 1f9e 17bd 0244 f1bd
00000110: c0b0 aa3d c650 e83d 28f7 d4bd 09d4 61bd
00000120: 334b db3d 8075 09bd 42bf d2bd ff22 25bd
00000130: 400f 893b 0567 fc3c c75c ee3c 09e8 4d3d
00000140: 182c f03d ba6b dc3d bb99 a7bd 57cf b93d
00000150: c37d 693d 6b62 d5bc 9867 afbd fcc1 a83d
00000160: 79fa d9bd d089 febd 0e29 a23d 0a45 b2bd
00000170: fad4 02bd a26b c638 4908 89bd 053a d73d
00000180: d5fa 76bd 7999 2f3d 8c7e a1bd 7d6f 0d3c
00000190: 6c5f d73d cb93 cc3b 4735 94bd c768 c1bd
000001a0: 13e2 83bd 9800 e53d a6d8 0238 3097 d5bc
000001b0: b3b1 66bd a786 71bd 837c ce3d 1330 363c
000001c0: 57d8 593a 0eda 883c 991a 22bd fc55 4fbd
000001d0: 4ae5 afbc 367a 693d fbfb 8fbd e556 8d3d
000001e0: 29d9 c5bd 5e63 cbbd 8039 8dbc c1e9 c33c
000001f0: 83b0 fc3d 5523 053d 21d2 16bc 510d 4bbd
00000200: bd59 e0bd d98c 5dbc 6ac3 cdbd 3d47 a7bd
00000210: 4c36 1dbd a986 bcbb 09b7 c5bd 81df e9bd
00000220: da84 863d 1ce0 c3bd 4da1 ec3d d380 fe3d
00000230: bba2 dd3d 6fb1 eb3d 1cb6 eb3d 9038 a53c
00000240: 3ccd 8abd 97cd 64bc 812d ab3c f821 ef3d
00000250: 4155 20bd e936 0cbd 3139 133c d77b 893d
00000260: ceed dc3a c38c 50bc c261 28bd b002 82bc
00000270: c959 fb3d 4e64 6d3d dd8b bfbc d147 debd
00000280: a12e 83bd 27f8 633d a0b4 9dbd 24f9 9c3d
00000290: 3906 553d 204d d13d 4bf4 943d ead9 c53d
000002a0: cc43 e8bd 67ee b1bc ef4b e13c dceb 1dbc
000002b0: f9d5 573d c9e3 ff3c 5a27 7dbd 0d2d fd3d
000002c0: 4f08 ea3d f9e5 2c3d 3f0d 393d 614f df3d
000002d0: e1af f43d 872e aabd e530 f03d 6ae3 c73d
000002e0: 6e47 e3bd 91f7 b43d d493 fb3d 8259 0bbd
000002f0: cba7 9d3d 6737 a13d 6362 91bd af56 33bd
00000300: ea7f ccbd 7293 c1bd 3733 b4bc 1592 a4bd
00000310: e237 81bc e6e8 973d 22b0 14bd 8d5a 0abb
00000320: a26b cabd 9446 af3c 8891 313c 8f58 98bc
00000330: 1fef 94bc 8e16 05bd 3473 03bd 1d2d cbbd
00000340: 116d e83d a840 76bd 96f2 d23d b474 90bd
00000350: 0209 ef3c a047 adbd 2b6f 44bd eadf 573d
00000360: 52f0 d3bd 2d8e e03d 5c95 84bd 0e7c 44bc
00000370: c361 88bd 63fc 973d f427 10bd 77ea c2bd
00000380: bd2a 09bd ba6b 30bc f8a0 a13d 143a c23d
00000390: 2e28 c83d 2619 ef3a 33fa d3bd b0c3 f4bd
000003a0: 4d26 85bb c2cc b33d dd5d efbd ef8e adbd
000003b0: 8a2e 06bd 4a6d 8ebd 5130 83bb 0086 eabd
000003c0: 44f2 803d 481b 1c3d cd66 a23d fadb c13c
000003d0: cab7 0e3c 465d d33d be01 1b3d cadf e0bc
000003e0: baaa 87bd 3e67 003d 3f2c 7bbd b193 873d
000003f0: 28aa 1c3d da59 a9bd 53fc cabd 9f5e 1dbd

_func._diffusion._model.2.bias f4 [48]
-0.11827429 0.112562574 -0.062071744 0.017789973 0.025854368 0.07705204 0.07905221 -0.012511969
0.01968667 -0.0935157 0.0057480293 -0.06741477 0.090853214 0.009521575 -0.06339497 -0.12464866
0.024262989 0.08533873 0.07006348 -0.03860586 -0.020661406 0.02623939 0.0061821183 0.010701675
0.09645563 0.00615738 0.11931857 0.051934022 -0.006153034 -0.051956944 0.0229982 -0.060875345
0.019055849 -0.094838746 0.0085558705 0.09747034 0.084052116 -0.081687436 -0.057578996 0.10251755
-0.06670953 -0.0145444395 0.0798915 -0.10886094 0.11194973 0.009542579 -0.035118103 0.089176
00000000: ca39 f2bd 3587 e63d f13e 7ebd 47bc 913c
00000010: 8acc d33c 76cd 9d3d 20e6 a13d 00ff 4cbc
00000020: f045 a13c 2985 bfbd f759 bc3b c110 8abd
00000030: 4011 ba3d 6100 1c3c 39d5 81bd cc47 ffbd
00000040: 2dc3 c63c 12c6 ae3d 717d 8f3d 2e21 1ebd
00000050: 1c42 a9bc fdf3 d63c 5e93 ca3b 1456 2f3c
00000060: 888a c53d d9c3 c93b 4b5d f43d c5b8 543d
00000070: 649f c9bb ced0 54bd b966 bc3c 6d58 79bd
00000080: 031b 9c3c d13a c2bd ec2d 0c3c 889e c73d
00000090: 8423 ac3d be4b a7bd f4d7 6bbd b9f4 d13d
000000a0: 029f 88bd cd4b 6ebc 289e a33d 7cf2 debd
000000b0: e645 e53d 7a58 1c3c 00d8 0fbd e8a1 b63d

_readout.weight f4 [1, 16]
-0.19637881 0.18962179 -0.023528734 -0.078551404 -0.036968313 0.12768802 0.24172634 0.07797489
-0.08593786 0.13438228 -0.11610281 0.0077109192 -0.17478848 0.116623655 -0.22025949 0.089144975
00000000: 8717 49be 372c 423e 55bf c0bc 8fdf a0bd
00000010: 166c 17bd a6c0 023e 1c87 773e 4db1 9f3d
00000020: 3000 b0bd 829b 093e 4fc7 edbd e1ab fc3b
00000030: c0fb 32be 62d8 ee3d b48b 61be a491 b63d
