hyperparameter_tuning/ray_results/hyperparameter_tuning_SUD/MyTrainableClass_079961f0_1_batch_size=16,name=SUD_v2,patience=1000,steps=200,steps_per_print=5,swa_step_start=2500,t_size=7,train_2024-03-11_16-06-38/checkpoint_000000/checkpoint.pt (torch, 61346 bytes, 66 tensors)

_initial._model.0.weight f4 [16, 5]
000000 0a b7 0e 3f b7 4a 25 bf 18 4f 79 3f b9 e8 a3 bf
       0.55748045 -0.6456713 0.9738631 -1.2805396
000010 25 10 9e 3f 6c de 0b 3f 1b 35 15 3f 90 c5 0b bf
       1.2348677 0.54636264 0.5828416 -0.5459833
000020 9a 97 5a be 2e 64 12 bf 15 8d 8d 3f 7a cc 83 bf
       -0.21346894 -0.5718411 1.105868 -1.0296776
000030 e8 04 a4 bf 8b 51 1f 3e 6b 1e 5b 3e 9f b6 19 3f
       -1.2813997 0.1555845 0.21398322 0.6004428
000040 39 55 d6 be 2c ba 5d bd c3 9f e2 3e 8f d1 15 3e
       -0.41861895 -0.054132625 0.44262514 0.14630722
000050 a0 68 18 3f 01 e3 9f 3f 60 df 95 bf f5 c5 77 bf
       0.59534645 1.2491151 -1.1708794 -0.96786433
000060 d3 ed 75 3e 5d 06 68 3f ce e8 5d bf 1a ac 2c bf
       0.24016504 0.9063471 -0.86683357 -0.67450106
000070 46 74 51 3f d2 35 ab 3e 79 90 83 3e 18 cb 41 be
       0.81818044 0.334395 0.2569616 -0.1892513
000080 6f 7c a4 3f fb 8f a7 bf 0c a4 16 bf 5b ee 85 bf
       1.2850474 -1.3090814 -0.58844066 -1.0463365
000090 b1 c7 b7 3e 38 e9 ff 3d 02 74 c7 be c2 bf 34 bc
       0.3589454 0.12495655 -0.38955694 -0.011032047
0000a0 23 cd e4 be 48 ee fc be 36 e6 c8 3e 85 d6 0c bf
       -0.44687757 -0.49400544 0.39238137 -0.5501483
0000b0 8d 94 28 3e db 70 8a bf 63 79 ef be 45 12 35 bf
       0.16462918 -1.0815691 -0.46772298 -0.70731
0000c0 dc ca 1f 3f a1 ed 51 3b 25 d5 14 be ff 82 3f 3f
       0.62418914 0.0032032507 -0.14534433 0.7480926
0000d0 a1 d0 c3 3d 52 c3 9c bf 49 44 a4 3f 68 5c 1f bf
       0.09561277 -1.2247107 1.2833339 -0.62250376
0000e0 95 86 cf 3d dc 35 84 bf d9 88 8f 3f 6f b3 55 bf
       0.10133091 -1.0328937 1.1213638 -0.8347692
0000f0 d7 0b 3a bf ab fb 76 3f 2a 09 df bd 49 69 5a bf
       -0.72674316 0.96477765 -0.1089042 -0.853169
000100 f4 f2 4b 3e 8b 80 f5 3e de af 27 3f 45 9f 22 bf
       0.19916898 0.47949633 0.6550273 -0.63524276
000110 8d a3 0c bf 0d 39 66 bf 5f 3a c5 be dd 11 8d 3f
       -0.5493706 -0.899308 -0.38521096 1.1021076
000120 21 19 9d 3f 45 3f 01 3e dc 10 82 be f1 6a 29 3f
       1.2273294 0.12621792 -0.25403488 0.66178805
000130 c5 be 8d 3e bf 28 31 3f a0 64 5b 3f de 8a 92 3f
       0.27684608 0.692028 0.85700417 1.1448629

_initial._model.0.bias f4 [16]
000000 7b e0 a1 bd 5d 26 c5 be f3 b1 2b 3f 75 2c 86 3e
       -0.079041444 -0.3850583 0.67068404 0.26205793
000010 2e 17 e4 3d 1f 4c a1 3f 17 b3 98 3f 90 bb a2 bf
       0.11137234 1.2601355 1.1929654 -1.271349
000020 8c 75 3e bf 2e 40 46 3f a1 56 3f bf 68 dc e4 be
       -0.7439811 0.7744168 -0.7474156 -0.44699407
000030 2a e7 84 bf e1 fe 35 3f a0 e9 91 3d aa 86 aa bf
       -1.0383046 0.7109204 0.071246386 -1.3322346

_initial._model.2.weight f4 [16, 16]
000000 58 39 fb 3c 22 f3 30 3f a4 68 05 be f6 91 f2 be
       0.030666992 0.6912099 -0.13028198 -0.47376984
000010 29 c2 25 3f e0 df ad be 1f 2a 34 bf cf 45 39 bf
       0.6474939 -0.33959866 -0.7037677 -0.72372144
000020 8d dc 0d bf 01 5b 8e 3c 9a da 26 3e 56 02 e0 be
       -0.5541466 0.017377378 0.16294327 -0.43751782
000030 bc ec f9 3e 29 a5 26 bf 93 59 05 3f e9 b1 4d 3e
       0.48813426 -0.65095764 0.52089804 0.20087399
000040 05 89 31 bf f9 b5 c1 3d 11 d0 1c 3e bf 90 aa be
       -0.693497 0.09458537 0.15313746 -0.33313558
000050 aa 5b 1e 3f 8f 50 54 3e 01 ad bc be 30 38 28 bf
       0.6185862 0.20733856 -0.36850742 -0.65710735
000060 0d 79 e7 3e fc 72 b0 be 98 ff 8d bd d5 ec d8 3d
       0.45209542 -0.34462726 -0.06933516 0.10592047
000070 74 7e 03 3e 6a 5b ca be f6 87 26 3e 66 65 0c be
       0.12841207 -0.39522868 0.16262802 -0.13710555
000080 19 0e a1 3e ac 5a 20 bf 8d 23 fc 3e a3 7a 9a be
       0.31456068 -0.62638354 0.49245873 -0.3017169
000090 64 bb af 3e 65 6d 39 3f 44 be d3 3e de d4 06 3f
       0.34322655 0.7243255 0.413561 0.5266856
0000a0 3a 4d 38 3f 54 51 b3 be 31 af 9f 3d f9 e3 2f 3f
       0.7199284 -0.35022986 0.07797087 0.68707234
0000b0 2f 84 15 3f ee ea c6 3e 58 05 a2 be a6 c7 0c 3f
       0.5840482 0.38851112 -0.31644702 0.5499214
0000c0 5b de 9b be 4b c7 bc 3e 6f 9b 3a 3f 7e b7 15 3f
       -0.3044308 0.36870798 0.7289342 0.5848311
0000d0 bf 8b 80 be 1d b3 d3 3e 35 79 27 3d e3 a0 b1 3e
       -0.25106618 0.4134759 0.040887076 0.3469306
0000e0 26 83 20 be da e0 99 3e c7 cc ff 3e 35 66 df be
       -0.15675029 0.3005436 0.4996092 -0.43632665
0000f0 58 08 8c be a5 70 17 bf 35 b4 fb 3c aa 67 34 3f
       -0.27350116 -0.59156257 0.030725578 0.7047068
000100 7a fd ea be 66 24 fc be c6 6a 16 3e 49 01 c5 bd
       -0.45896512 -0.4924652 0.14689168 -0.09619386
000110 c4 9f 2e 3f 82 3c d3 be bf 96 be 3d cb a3 38 3f
       0.68212533 -0.412571 0.09306096 0.7212493
000120 a1 72 37 3f 3f fd 1e 3f f1 7f 2f 3f a7 b9 bf 3e
       0.71659285 0.6210517 0.685546 0.3744633
000130 99 23 a3 be 11 94 6a 3b d1 df 32 3f f7 cd 78 be
       -0.31863096 0.003579382 0.69872767 -0.2429732
000140 29 0b f7 be 0d a6 2d 3f 2a f7 fb 3e c8 3c 71 3e
       -0.48250702 0.678315 0.4921201 0.23558342
000150 7f b2 f7 bd 57 c4 9c 3e a0 a3 06 3f 5d c8 7b 3e
       -0.12094592 0.30618545 0.5259342 0.24588151
000160 15 03 ee 3e e9 4c 42 3c 49 d6 24 3f ee 3a 10 3f
       0.46486726 0.011859157 0.64389473 0.5633992
000170 80 81 ee be 2a 80 11 bf a4 0c 43 be c3 90 38 bf
       -0.46583176 -0.5683619 -0.19047791 -0.7209589
000180 f1 ff 15 bf 63 97 1b bf 2e 35 0a 3e ef 08 98 be
       -0.5859366 -0.6077787 0.13496849 -0.29694316
000190 3c 17 37 3f 18 6f a6 3e 04 00 31 bf 27 bc 83 3e
       0.7151983 0.32506633 -0.6914065 0.25729486
0001a0 87 f0 a0 3e 48 cd b4 be ac b0 97 3d 0e eb 10 bf
       0.31433508 -0.35312867 0.07406744 -0.56608665
0001b0 90 4d 2b bf f6 03 02 bf ce 25 4b 3d 2c 44 ea be
       -0.66915226 -0.50787294 0.0495966 -0.45755136
0001c0 e1 96 21 3e 0e 96 b6 3e 53 86 8c 3d 40 96 e4 be
       0.15780212 0.35661358 0.06861558 -0.44645882
0001d0 5a b6 2d 3f 56 ff b0 be f6 7d 45 3e 05 ac 1e 3f
       0.6785637 -0.34569806 0.19286332 0.6198123
0001e0 9c 9c d8 3d 42 d1 9a be 89 31 11 bf 41 aa 90 3d
       0.10576746 -0.30237776 -0.5671621 0.07063723
0001f0 cb 02 ba 3e 6c 6c 21 be 10 1d d8 3e 89 d8 30 3f
       0.36330256 -0.15764016 0.42209673 0.69080406
000200 9d 57 2f 3f e4 98 d1 be c5 ab 6f be b1 a6 37 bf
       0.6849306 -0.4093696 -0.23405369 -0.71738726
000210 4b 92 af be f4 c7 5b 3e c4 8f d0 3e 03 01 26 3f
       -0.342913 0.21462995 0.40734684 0.64845294
000220 48 5a 83 be d0 5b 24 bf 21 04 0c bf 08 c4 32 3d
       -0.25654817 -0.64202595 -0.546938 0.04364398
000230 4a 9b 1b be af 53 e5 bd f9 55 a0 3c 61 b3 45 3e
       -0.15195957 -0.11197602 0.019572245 0.19306709
000240 1c cf b5 bd 35 ff 3e bf 02 3b 1c 3e e8 75 00 3f
       -0.088773936 -0.74608165 0.15256885 0.5017991
000250 14 35 37 bf 2b 79 0d 3f b5 fd 29 bf 7a 5a ce 3e
       -0.71565366 0.5526301 -0.6640275 0.40303403
000260 b7 2a 21 3f 97 b6 da be cb 1a c7 3e b2 f4 2c 3f
       0.629558 -0.4271743 0.3888763 0.67560875
000270 3f 62 2c 3f bd 0f 25 bf c8 c8 c9 be 40 f9 1b 3f
       0.6733741 -0.6447714 -0.39410996 0.609272
000280 b1 98 bb 3d 99 f2 1b bf a0 70 12 bf 5d 50 c6 3e
       0.09159983 -0.6091705 -0.572031 0.38733187
000290 6d 47 a7 bc 4a 7d b3 be 1f 12 9e 3c ed 9c a2 be
       -0.0204198 -0.35056525 0.01929575 -0.3176035
0002a0 15 fd 2e bf 14 98 36 3f 82 84 2d bf 16 c8 28 3f
       -0.6835492 0.713258 -0.67780316 0.65930307
0002b0 3a 95 24 bf cc d5 08 3f 6d 8e 00 bf 7d a4 15 bf
       -0.642902 0.5345123 -0.50217324 -0.58454114
0002c0 82 bb 11 bf 3f 57 7c bd aa 68 7a bd 95 e5 b5 be
       -0.5692674 -0.06160664 -0.06113497 -0.3552672
0002d0 22 f1 3d 3e d2 6f b4 3e c1 a6 c4 be af 89 e3 3d
       0.18549016 0.35241562 -0.38408473 0.111102454
0002e0 2f b6 2e bf a1 3b a2 3c 05 09 93 3e 25 80 28 3f
       -0.6824674 0.019803824 0.2871782 0.65820533
0002f0 07 ac b5 be a1 69 ff bd 40 43 c3 be e9 2b 97 3e
       -0.3548281 -0.12471319 -0.38137245 0.29525688
000300 6d 5e be be c5 de ff 3d eb 26 bf bd 08 d6 38 3f
       -0.37181416 0.12493662 -0.09333595 0.72201586
000310 ec 63 ac 3e 74 54 cf bd 0c 4b ca be 9c a3 8f bd
       0.33669984 -0.1012353 -0.3951038 -0.07013628
000320 75 23 79 be 8b 10 97 be 3c e8 cd 3e 99 34 77 3d
       -0.24329932 -0.2950481 0.40216243 0.060352895
000330 11 2c 37 3f a9 4a fd bd 4f 9b 30 be 82 b5 a1 bc
       0.71551615 -0.12367756 -0.17246746 -0.01973987
000340 e5 9a c7 be fa 6a b9 3d 05 d4 1d bf 03 a8 15 bf
       -0.38985363 0.09053607 -0.6165164 -0.5845949
000350 c2 f4 00 bf e5 78 c7 3b c6 37 f7 3e db c1 97 3e
       -0.5037347 0.00608741 0.4828474 0.29640087
000360 de c5 03 bf e0 38 3a 3f 64 fd 29 be e6 03 9a 3e
       -0.51473796 0.72743034 -0.16600567 0.300811
000370 8d 1c 47 be fd 03 c6 3e ce 6f 96 3e c5 40 23 3f
       -0.19444485 0.38674918 0.29382175 0.63770705
000380 14 49 2e 3f 85 8b f1 bd 7f ac 09 3f 3b 49 13 bf
       0.6808026 -0.11794189 0.53778833 -0.57533616
000390 64 b1 7f be 78 58 27 3f a3 2d 59 3d 5d 7f d4 bd
       -0.24970013 0.6536937 0.05302204 -0.10375855
0003a0 95 51 51 3d c6 0a 2c bd 89 90 1f 3f dc e5 15 be
       0.051103193 -0.04200246 0.6232992 -0.14638466
0003b0 b5 95 8b 3d 1a c5 45 3e db 6f d9 be 41 2f ad be
       0.06815664 0.1931347 -0.4246815 -0.33825114
0003c0 63 75 99 bc 84 b3 7f 3b e8 07 52 bd a8 4a 95 bd
       -0.018732732 0.0039016912 -0.05127707 -0.0728963
0003d0 39 a0 0e 3e 15 79 3e bf 51 21 e3 3e 5b 15 5e be
       0.13928308 -0.74403507 0.44361356 -0.21687834
0003e0 84 cb 0a 3e cd c4 a0 3e ae ff 25 bf 57 00 3d 3f
       0.13554198 0.31400147 -0.6484326 0.73828644
0003f0 4d a7 20 bf 19 ef bc 3e 30 58 00 bf df 47 64 3e
       -0.6275528 0.36901167 -0.50134563 0.22293042

_initial._model.2.bias f4 [16]
000000 70 56 54 bd e0 ec 22 bf e3 81 4d 3e 73 04 16 be
       -0.051840246 -0.6364269 0.20069079 -0.14650135
000010 0c 74 24 3e 6b 49 5f be 53 ea 99 3e 20 e9 27 bf
       0.16059893 -0.2180535 0.30061588 -0.65590096
000020 66 a8 94 3e a6 51 37 bf c6 31 c9 3e f5 31 40 be
       0.29034728 -0.7160896 0.39295787 -0.18769057
000030 48 7d 84 3e 5f c8 f9 3e 07 68 f0 3e 5c fb ef 3e
       0.25876832 0.48785684 0.46954367 0.4687146

_func._drift._model.0.weight f4 [16, 17]
000000 c8 a3 6c bc 88 34 2f bc 58 92 bd 3d f7 6b e9 bd
       -0.014443345 -0.010693677 0.092564285 -0.11397546
000010 b8 a0 e9 b8 5f c6 e3 bd 7a 09 cb 3d 5d 45 f0 3d
       -0.00011140242 -0.11121821 0.09913917 0.1173198
000020 74 72 7b 3d 97 cb 58 3c 2d 00 f1 3d 3e 6b 51 3d
       0.061388448 0.013232133 0.11767612 0.051127665
000030 30 ba 35 3c 09 da 0c bd 83 e3 73 bd 40 33 c6 3d
       0.011091754 -0.034387622 -0.059543144 0.09677744
000040 a3 b1 ae 3d 6d 25 df bd cc 30 06 3d 20 4c fd 3c
       0.08529975 -0.1089581 0.03276138 0.030920088
000050 59 ad 97 3d a7 8f 86 bd 62 8f 13 bd 5d 4d eb bd
       0.0740611 -0.06570368 -0.036025412 -0.11489365
000060 4c 10 e2 bd b3 c4 e0 bd 01 88 da 3d ec f3 11 3d
       -0.11038265 -0.109750174 0.10670472 0.035633013
000070 d8 9a 10 bd 68 9f 14 bd d3 36 8a bd 30 42 b8 3d
       -0.03530392 -0.036284834 -0.06748738 0.08996999
000080 74 b3 ce 3d bd 37 4a bd 54 f4 2c 3d 78 ba c8 bc
       0.10092822 -0.049369562 0.042225197 -0.024502978
000090 e4 3a 2c 3d 80 b4 ab 3c d0 bf d3 bd ab 0b cc bd
       0.04204835 0.020960093 -0.1033932 -0.09963163
0000a0 b8 39 08 bd b2 3b 87 3d 94 3c 77 3d 8c 2b 50 3d
       -0.03325817 0.06603183 0.060360506 0.05082278
0000b0 76 08 77 3d 58 d8 81 3d ce ff 5e bd ee fe 81 3d
       0.060310803 0.063400924 -0.054443173 0.06347452
0000c0 f6 a1 11 bd 01 2e eb bd 60 cf 7e 3d 32 31 26 bd
       -0.03555485 -0.11483384 0.062209487 -0.04057426
0000d0 57 94 f2 3d a8 8b 83 3c 4e 70 b5 3d 16 1b b0 bd
       0.118447 0.016057804 0.08859311 -0.08598916
0000e0 f8 1a ad bb c2 65 a2 bd 79 e5 77 3d 6a f1 d7 3d
       -0.005282756 -0.07929565 0.060521577 0.10544093
0000f0 a6 59 e2 3d b8 c5 ed 3b 4d aa e5 bd 8d 40 86 bd
       0.11052255 0.007256236 -0.11214123 -0.06555281
000100 60 81 73 bb 68 a6 0e 3c 78 d3 b6 3c f1 6b 85 bc
       -0.003715597 0.0087066665 0.022317633 -0.016286822
000110 70 fa 02 3d 10 d8 ca 3c cf fe ef 3d e6 84 65 bd
       0.031977117 0.02476123 0.11718523 -0.056034945
000120 18 17 5c 3c e9 ab 8d bd 61 6b 49 3d e7 18 d9 3d
       0.01343324 -0.06917555 0.04917467 0.10600453
000130 98 0d b0 3d 68 6b 6b 3d 72 13 60 3d 20 b5 5a bc
       0.08596343 0.057475477 0.054706044 -0.013348848
000140 0e c2 a3 3d 2c ae 44 3d a4 a9 1a bd d7 0c 73 bd
       0.07995997 0.048017666 -0.03775944 -0.059338417
000150 8a ef 1e bd 34 67 d7 bd 79 96 ce bd 44 b7 3e bd
       -0.03880266 -0.10517731 -0.10087294 -0.046561494
000160 27 17 ec 3d 25 cf f4 3d 02 0f b1 bd 2c ef 95 3d
       0.115278535 0.11953572 -0.08645441 0.07321009
000170 02 6f 0a bd 58 a8 dc 3c 12 e8 92 3d b0 4c b9 bb
       -0.03379727 0.026935741 0.0717317 -0.005654894
000180 f8 31 67 3d cd b3 e7 3d 30 70 2b 3c 9a 73 35 bd
       0.05644414 0.11313591 0.010463759 -0.0442997
000190 14 67 49 3d 98 68 11 3b c6 ff 80 bd 92 dd 99 bd
       0.04917057 0.0022187587 -0.06298785 -0.07512964
0001a0 bc 44 93 3d b4 ba 2c bd 9b ac c8 3d 4c df d4 bd
       0.071908444 -0.04217024 0.09798547 -0.10394153
0001b0 9c 19 ca bd d4 1f 7c 3d ac 0a 76 3d 80 39 f6 3d
       -0.09868166 0.06155379 0.06006877 0.12022686
0001c0 58 d1 2c 3d 90 32 29 3d b4 8f da bd a2 a3 68 bd
       0.042191833 0.041307986 -0.106719404 -0.056796677
0001d0 dc bb 4f 3d 88 5f e6 3c bc be 05 bd 0b 34 70 bc
       0.050716266 0.028121725 -0.0326526 -0.0146608455
0001e0 30 9e dd 3c aa 65 ab bd 74 06 83 bc b8 10 2f 3c
       0.027052969 -0.08369 -0.015994288 0.010685138
0001f0 52 55 f5 bd b8 1b cb bd 06 7c 6a bd 7e 04 a3 3d
       -0.11979164 -0.09917396 -0.057247184 0.07959841
000200 59 59 77 3d d8 ea 97 3c a4 48 db bc a4 9f 8a bd
       0.060387943 0.0185446 -0.026768036 -0.0676873
000210 f4 2f f0 3d 3d c2 58 3c c4 fa a9 3d b6 fa a0 bd
       0.11727896 0.013229904 0.08299783 -0.07860319
000220 88 92 40 3b 24 c2 b4 3d ec 1c d9 bd 59 d5 9f 3d
       0.0029384214 0.08826092 -0.106012195 0.07804365
000230 0c 2b 12 3d e5 20 71 bd 41 ff aa bd d8 ef ae 3c
       0.035685584 -0.05886926 -0.08349467 0.0213546
000240 00 fe 6f 3d 28 f6 93 3d 2d 48 b9 3d b5 62 e2 3d
       0.058591843 0.07224685 0.090469696 0.11053983
000250 4c 94 8b bc 63 1e 94 3d 60 ce 40 3d f1 82 c5 3d
       -0.017038487 0.07232358 0.047071815 0.09644116
000260 6e 88 ab 3d ff b7 59 bd fe d0 c2 3d c6 69 58 bd
       0.08375631 -0.053153988 0.09512518 -0.05283525
000270 51 69 d7 3d 37 bf 97 3d 60 69 a3 3d c2 77 68 bd
       0.105181344 0.07409518 0.07979083 -0.056754835
000280 44 72 eb bc 7c 22 ed bc be dc d6 bd 2c d2 5c 3d
       -0.02874101 -0.028947107 -0.10491322 0.053911373
000290 72 93 90 bd 88 2f 0d 3d 8f 5f da bd 34 55 15 3d
       -0.07059373 0.034469157 -0.106627576 0.03645821
0002a0 38 a2 91 3c 2f 38 9c 3d ec d3 36 bd 7b 61 80 bd
       0.017777547 0.07627904 -0.0446357 -0.06268593
0002b0 6f 18 96 bd d8 bf 05 bc 58 40 b0 3b 88 dc 7a bd
       -0.07328879 -0.008163415 0.005378764 -0.06124547
0002c0 ec 6b 58 bd 98 c0 94 3d 3c 65 89 3d a6 c0 ec bd
       -0.052837297 0.07263297 0.06708762 -0.11560182
0002d0 b6 d3 a9 3d 6d 4f f0 bc 24 fe 25 bd 39 ca c7 bd
       0.08292334 -0.029334748 -0.04052557 -0.09755368
0002e0 3c 77 c1 bc 9f 6f 96 bd 35 fd a3 3a 05 99 ac 3d
       -0.023616426 -0.07345509 0.0012511375 0.08427624
0002f0 a0 4a 08 3c 0f 65 e2 3d a6 2c 80 3d 64 e3 a5 bc
       0.008318573 0.11054432 0.06258516 -0.02025003
000300 cf 7e a5 bd f4 71 c9 3c 2e e9 e6 bd 41 d3 67 bd
       -0.080808274 0.02459047 -0.11274944 -0.05659795
000310 48 50 07 3d f8 1b 06 3d ce 5e 9f 3d 5b b9 b7 3d
       0.033035547 0.032741517 0.077817544 0.089709006
000320 03 1b b8 bd f0 78 70 3c e3 d2 e0 bd 73 60 f7 3c
       -0.08989527 0.014677271 -0.109777234 0.030197358
000330 d8 4b fc bb 56 b8 ef 3d be 78 a5 bd e8 b4 dd 3d
       -0.007699471 0.11705081 -0.0807967 0.10825521
000340 b8 bd c3 bd 40 1c 1e 3d 38 39 30 bb 0c 92 28 bd
       -0.0955767 0.03860116 -0.0026889574 -0.041154906
000350 9b 7c 42 3d 15 a9 b5 3d 94 b4 22 3d 86 24 c2 bd
       0.047482114 0.088701405 0.039722994 -0.094796225
000360 0c 01 4c 3d 5b 40 93 bd f0 03 92 3c f0 76 a2 bc
       0.049805686 -0.07190009 0.017824143 -0.019832104
000370 d6 8f 4f bd 59 ec ef bd 79 25 5a 3d c8 9f b6 3d
       -0.050674282 -0.117150016 0.053258393 0.089171946
000380 e8 56 f1 bd f8 bd 40 3d e8 b9 0a bd b8 b8 f0 bc
       -0.11784154 0.04705617 -0.0338687 -0.029384956
000390 ac 86 20 3d 28 2f 75 bc 20 b9 e9 3c 0b fc b3 bd
       0.039190933 -0.014964856 0.028530657 -0.08788308
0003a0 c5 6b b3 bd 2a 9b 88 bd c4 51 ee bd 7c a1 e3 bc
       -0.0876079 -0.0667022 -0.11636689 -0.027786963
0003b0 a0 bd a1 3c b0 1f 16 3c 4c 60 cc bd 13 85 5a 3d
       0.01974374 0.009162828 -0.09979305 0.053349566
0003c0 30 81 d9 3d f5 c5 d5 3d 7e 2a 24 3d b1 f1 dd bd
       0.10620344 0.10438148 0.040079586 -0.108371146
0003d0 63 e4 e7 bd 6a 8a ed bd e5 99 3b 3d ee ba be bd
       -0.11322858 -0.11598666 0.045801062 -0.09312998
0003e0 72 fb 6f bd db c0 52 bd 3e b3 b9 bd c3 fe b9 3d
       -0.058589406 -0.051453453 -0.09067391 0.09081795
0003f0 60 c2 c4 bd f1 21 d0 bd 5c bf 9c bc a8 8c df 3d
       -0.096073866 -0.10162724 -0.019134216 0.109155

_func._drift._model.0.bias f4 [16]
000000 90 eb 42 bd 00 26 a5 bd 8d 8f d6 bd b6 2c 8e bd
       -0.04758793 -0.080638885 -0.10476599 -0.06942122
000010 66 6d 5b bd 52 c2 8e bd 84 92 26 3d 20 82 52 bd
       -0.053571127 -0.069706574 0.040667072 -0.051393628
000020 eb 4d b5 bd 84 67 66 3d 38 f3 2d bb 48 c3 46 3d
       -0.08852752 0.056251064 -0.0026542675 0.04852608
000030 f4 e0 b3 3d e2 4b c6 3d 30 6a 9e bd bb 82 94 3d
       0.08783141 0.09682442 -0.077350974 0.07251497

_func._drift._model.2.weight f4 [16, 16]
000000 53 6b d8 3d 02 32 e6 bd d3 4a e3 bd 72 4e eb bd
       0.105673455 -0.11240007 -0.11098256 -0.11489572
000010 08 20 b6 bd 96 b6 84 bd ea 4c ed 3d aa 3a 98 bd
       -0.08892828 -0.06480138 0.11586936 -0.07433064
000020 3c 61 74 3d d2 84 ab 3d 40 6e b7 bb d7 6f be bd
       0.059663042 0.08374943 -0.0055978596 -0.092986755
000030 4e 08 c1 3d 54 55 d8 3d 8c 11 47 3d 70 64 a8 bb
       0.09425412 0.1056315 0.04860072 -0.005138926
000040 26 b5 fa 3d cd 35 e7 bd 5c 16 2a bd d0 61 8a 3c
       0.122415826 -0.112895586 -0.04152523 0.016892344
000050 e3 0f cd bd 3d 4d ca bd 8b 67 e9 bd 0f be c2 bd
       -0.10012796 -0.09878013 -0.113967024 -0.09508907
000060 4f 70 f2 bd 8c 81 9b bd 22 55 c6 bd be cb a5 3d
       -0.118378274 -0.075930685 -0.096842065 0.08095501
000070 0e 94 ef bd 1f b5 cd bd 78 52 0e bd ec 1f 58 3d
       -0.11698161 -0.10044312 -0.034746617 0.052764818
000080 78 3b e1 bc c0 12 8a 3d d0 1c 0e 3d b6 9a 83 bd
       -0.027494177 0.067418575 0.034695446 -0.06425993
000090 b8 ec 9c 3d e8 ae f6 3d 68 a1 5d 3d 3c 2e 7e 3d
       0.07662338 0.120450795 0.054109007 0.06205581
0000a0 c0 77 bb bc 55 c9 b5 3d 3e 63 8e 3d 62 04 8b 3d
       -0.02288425 0.08876292 0.06952523 0.06787945
0000b0 64 8b 2b bc 4c 09 5e bd 20 a7 96 bc 1c 48 67 3d
       -0.010470245 -0.054208085 -0.018390238 0.056465253
0000c0 d7 81 ab 3d 4c c2 be bd 8a 03 82 bd f0 7b b9 3c
       0.08374374 -0.09314403 -0.06348331 0.022642106
0000d0 10 e5 92 3d 4c 50 3f bd 1c 82 93 3d 64 ef 37 bd
       0.071725965 -0.046707436 0.07202551 -0.044906035
0000e0 00 ef a0 3d 54 66 19 bd c8 7c 38 3d 80 8d 75 bc
       0.07858086 -0.037451103 0.045040876 -0.0149873495
0000f0 58 01 eb bc 70 e3 ca 3d 86 78 1c bd b7 5d 94 bd
       -0.028687164 0.099066615 -0.038200878 -0.07244437
000100 4e 23 80 3d 54 55 cd bd c0 19 a1 bd 60 b8 2f bd
       0.06256734 -0.10026041 -0.078662395 -0.042900443
000110 b0 47 bd 3c 88 50 6e 3c 5b 83 5a 3d 1b 1c 72 bd
       0.023105472 0.014545567 0.053347927 -0.059108835
000120 f5 79 e9 bd 9b b5 ed bd 55 86 94 3d 18 4a df 3c
       -0.114002146 -0.11606904 0.07252184 0.02725701
000130 bc 39 6c 3d 60 38 fa 3d 05 34 f0 bd c8 da 66 bd
       0.057672247 0.12217784 -0.11728672 -0.05636099
000140 13 f0 cc 3d 01 03 f1 3d 91 c4 ed 3d b8 52 a9 bc
       0.10006728 0.11768151 0.11609758 -0.020669326
000150 b0 44 98 3d ec cb 6f bd bb a5 cc bd f0 9e 88 bb
       0.07434976 -0.058544084 -0.09992548 -0.0041693375
000160 78 c6 2c 3b 00 7c 8f 3c 50 c1 87 bc 20 15 10 bd
       0.0026363414 0.017515182 -0.01657167 -0.035176396
000170 7d 41 e5 bd 41 5c fa bd 38 da a6 bd b0 51 8c 3b
       -0.111941315 -0.12224627 -0.08147091 0.004282199
000180 80 6c b8 bb bd 10 a6 bd 33 41 ef bc aa e6 a4 bd
       -0.0056281686 -0.08108661 -0.029205894 -0.08051808
000190 c8 50 d4 bc fc 03 1d bd 30 4d 75 bc 8a 06 9b bd
       -0.025917426 -0.038333878 -0.014972016 -0.075696066
0001a0 53 51 db 3d 8b 2c 6a bd d4 a9 c2 bd 57 1e b7 3d
       0.10708871 -0.057171386 -0.095050484 0.08941334
0001b0 db d2 d9 3d 52 93 85 bd 24 14 ed bd a3 3c e5 3d
       0.106359206 -0.0652224 -0.11576107 0.11193206
0001c0 55 4c 9c bd 4a 94 cb bd 27 95 58 bd b8 f9 06 bd
       -0.07631747 -0.09940393 -0.052876618 -0.032952994
0001d0 fc 79 98 bd c3 b1 db bd bc f8 9b bc 93 a3 cc bd
       -0.07445142 -0.10727265 -0.019039504 -0.09992137
0001e0 69 4f db 3d 4e 20 87 3d 0c 0d ce 3d a8 cd b1 3c
       0.10708506 0.065979585 0.10061082 0.02170451
0001f0 48 7a cf bc fc dc 30 3d c8 41 f9 bc 54 5d f5 3d
       -0.025326863 0.043179497 -0.030426875 0.119806916
000200 28 cc bb 3c 00 0d d0 bc a4 e7 d2 3d 15 d0 ac 3d
       0.022924498 -0.025396824 0.10298088 0.08438126
000210 50 78 1f 3d ea 82 9b 3d fa 30 81 3d a9 f2 d5 3d
       0.0389331 0.07593329 0.0630817 0.104466744
000220 ce 18 bd 3d d2 89 0c 3d f0 6f 82 bd 20 6c 62 bc
       0.09233247 0.034311123 -0.06369007 -0.013819724
000230 90 b4 bc 3c 80 c6 8d bd 0f 41 e5 bd bc f9 0e 3d
       0.023035318 -0.069226265 -0.111940496 0.034906134
000240 2e 41 a9 3d a0 a6 16 3d f6 b0 96 3d 3a 55 23 3d
       0.08264385 0.03678 0.07357971 0.0398762
000250 98 77 1f bc c2 76 da 3d af 95 d8 bd 90 d8 fa 3c
       -0.009733103 0.106671825 -0.10575425 0.030620843
000260 c6 ac d8 3d 41 41 da 3d d1 b7 f7 3d 6f 70 f7 3d
       0.10579829 0.106569774 0.12095607 0.12081992
000270 8c b3 81 bd 1a 10 c2 bd 65 ad 76 3c 44 14 38 3d
       -0.06333074 -0.094757274 0.015055989 0.0449412
000280 f8 f6 af 3d 12 9d ee bd 8e 0f 99 bd d6 c9 bb bd
       0.085920274 -0.116510525 -0.0747367 -0.091693565
000290 0e 23 80 bd 2f 42 69 bd ef 17 d1 bd 7f 2a 49 3d
       -0.06256686 -0.056947883 -0.10209643 0.049112793
0002a0 4c 94 d8 3d 68 be dc bb c4 88 2a 3d 60 dc 25 bd
       0.105751604 -0.0067365654 0.041634336 -0.04049337
0002b0 58 e3 cd 3c 18 cc 6c bc ec 50 af bd 90 9c b9 3c
       0.02513282 -0.014452957 -0.085603565 0.022657663
0002c0 28 4f 30 3d 94 98 83 3d 70 03 d4 bd c8 bf 03 bc
       0.04304424 0.06425586 -0.10352218 -0.00804133
0002d0 48 db 8a 3c 6b 0d 24 3d 52 7e de 3d f0 5f 07 3d
       0.016950265 0.04005186 0.108639374 0.033050478
0002e0 a2 14 d9 3d a2 4e b2 3d 72 01 f0 bd a4 40 4c bd
       0.105996385 0.08706404 -0.11719026 -0.049866334
0002f0 25 3f d2 3d 68 9f a8 3c 7e 11 d6 3d 38 94 4b bd
       0.1026595 0.020583823 0.10452555 -0.0497019
000300 65 18 5b 3d 9f ce fb 3d 73 63 3a bc 34 09 85 3c
       0.05349006 0.12295269 -0.01137625 0.01623974
000310 3b 7c e2 bd 9c 27 9c 3d cb cd ab bd 5b 97 f7 bd
       -0.11058851 0.076247424 -0.08388861 -0.12089416
000320 08 97 40 b9 b8 15 bc bc 39 b1 e0 bd ba fe 6f bd
       -0.0001836681 -0.022959575 -0.109713025 -0.058592536
000330 e4 f6 27 bd f8 f2 c4 3c d8 2e 2f bd 64 4d c4 3d
       -0.041006938 0.024041638 -0.042769283 0.095850736
000340 13 b4 a5 bd 18 8b ef 3d c4 b8 bb 3d 08 f3 2b bc
       -0.08090987 0.11696452 0.091661006 -0.010494955
000350 a4 4f ab 3d 00 ed f2 b9 d8 9e 75 3d 38 6f 2c bb
       0.083647996 -0.00046334416 0.05996594 -0.0026311409
000360 56 3f 71 3d 96 cd dd 3d 36 b0 32 3d d4 4d 9b bd
       0.058898292 0.10830228 0.04362508 -0.07583204
000370 48 62 df 3d 60 9f ee bd b0 41 eb bd b8 91 bf bd
       0.109074175 -0.11651492 -0.11487138 -0.093539655
000380 78 07 93 3d d0 20 07 3c 68 63 90 bd 23 59 ee 3d
       0.07179159 0.008247569 -0.0705021 0.11638095
000390 90 00 8d bd 90 f0 57 3c 80 e9 97 bb 0e 50 1c ba
       -0.06884873 0.013179913 -0.0046359897 -0.0005962857
0003a0 69 c8 c3 bd 61 bd e5 3d 7b ee e9 bd 7a 55 3a 3d
       -0.095597096 0.11217762 -0.1142244 0.045491673
0003b0 2c 8b 3f bd 5c e5 1d bd 4c 5d d4 bd 1e 74 83 bd
       -0.046763584 -0.038548812 -0.103693575 -0.06418632
0003c0 e4 7f 7c bd e0 9c b8 bb 10 72 9d 3d c4 b1 1c 3d
       -0.061645404 -0.0056339353 0.07687771 0.038255468
0003d0 92 e5 d8 bd 0d 70 43 3d 15 23 9c 3d 33 21 ef 3d
       -0.10590662 0.04771428 0.07623879 0.11676254
0003e0 70 24 80 bc 08 79 bd 3b 78 d4 39 bd ae fe 8c bd
       -0.015642375 0.0057822503 -0.04536864 -0.06884514
0003f0 74 11 18 bd 58 91 ee 3b b0 35 54 3d 39 f5 39 bd
       -0.03712602 0.00728051 0.051809013 -0.04539988

_func._drift._model.2.bias f4 [16]
000000 c0 9c 70 3c 73 62 a3 bd 90 d6 86 3d cc d1 27 3d
       0.01468581 -0.07977762 0.06583893 0.040971562
000010 70 98 61 3a f0 6b a0 3c 49 83 a6 3d 00 22 cd 3c
       0.0008605784 0.019582719 0.081305094 0.025040627
000020 ca 33 be 3d 7f 6d 59 bc f0 9d ca 3d 51 50 59 3d
       0.09287222 -0.013270735 0.098934054 0.05305511
000030 80 97 bc bc 92 5f c3 3d 21 77 fa 3d cc 06 37 bd
       -0.02302146 0.09539713 0.12229753 -0.044684216

_func._diffusion._model.0.weight f4 [16, 17]
000000 c9 b0 1a 3d 50 50 ba 3c ce 83 4a bc aa 66 81 3b
       0.03776625 0.022743374 -0.012360526 0.003949006
000010 44 b4 27 bd 75 55 03 3c b2 d7 57 3d 6c 10 ad bd
       -0.0409434 0.00801598 0.052695937 -0.08450398
000020 5a 42 ca bd aa 3f bc bc 25 16 a8 3d f5 7c 84 bd
       -0.09875937 -0.022979576 0.08207349 -0.06469146
000030 5b f5 ea bd 4c 6d 8d 3c 93 df bb 3d f1 ee f0 bd
       -0.11472579 0.01726403 0.09173503 -0.117643245
000040 08 df 6f bd c5 f9 29 b9 ef 81 ff 3b 3d 93 bd 3c
       -0.05856231 -0.00016210142 0.0077974717 0.023141498
000050 77 7e 00 bd f4 7b e8 3d 48 17 0e 3d 0e 79 f0 3d
       -0.031370606 0.11351767 0.03469017 0.11741839
000060 bd f3 3f bc cf 6a 62 bc 52 45 9e bd 32 48 33 bd
       -0.011715827 -0.01381941 -0.077280656 -0.043770023
000070 38 06 9d 3d 49 33 4e 3d dc b5 e8 3d 05 5b 69 3d
       0.07667202 0.050341878 0.11362812 0.05697157
000080 ee 73 51 3d 6d c9 c5 bd 48 f5 a1 3d a6 f1 c5 3d
       0.05113595 -0.096575595 0.07908112 0.096652314
000090 51 62 ec bd 6f a4 1a 3d cc 34 53 bd b0 ef bf 3d
       -0.1154219 0.037754472 -0.051564023 0.09371889
0000a0 d6 94 c1 bd cd 96 f3 bc e4 74 1a 3d 28 bf a1 3c
       -0.09452216 -0.029734993 0.03770913 0.01974447
0000b0 9c 50 7d 3d 89 f6 9e bd d0 eb 98 bc 2b 69 ee 3d
       0.061844453 -0.077618666 -0.018667132 0.11641153
0000c0 cd c1 af bd b0 f8 a0 3d dd 5b b2 bd cf 22 ba 3c
       -0.085818864 0.078599334 -0.08708928 0.022721676
0000d0 5b 01 88 bd d3 af ad 3d c4 73 ab 3d 10 a6 c2 bd
       -0.066408835 0.084808014 0.0837169 -0.0950433
0000e0 2f 0c 8a bd 0c a3 8c bd 42 51 ae bd bb df ea 3c
       -0.06740605 -0.06867036 -0.085115924 0.028671136
0000f0 db 36 b4 3d 92 31 d2 bc 9a bb 90 bd 28 de c3 3d
       0.08799525 -0.025658403 -0.07067032 0.09563857
000100 97 bc b5 bd b0 59 dc bc 50 73 45 bd 7c 9f 83 bd
       -0.08873861 -0.026898235 -0.048205674 -0.064269036
000110 25 2d 81 3d 45 9c 43 3d df d3 f1 3d 5e 8f 50 3d
       0.06307439 0.047756452 0.11807989 0.050917976
000120 0c 82 b1 bc a7 35 86 3d f4 eb e3 3d 06 b1 e1 bd
       -0.021668456 0.06553202 0.11128989 -0.11020093
000130 ea be 08 3d 72 1a 70 3d b1 95 f3 3d a9 47 d8 3d
       0.033385195 0.05861897 0.11893786 0.10560543
000140 73 20 d5 bc d2 f3 94 bc 36 c9 fe 3b ac 68 5b bd
       -0.02601645 -0.018182669 0.007775451 -0.05356662
000150 88 50 97 bc 4b d7 c4 bd ce 1b 40 3d aa 09 12 3d
       -0.018471017 -0.096113764 0.046901517 0.035653748
000160 4b 73 bb 3c 1c 22 2a 3c 6f 44 34 bd 20 78 1c bd
       0.022882124 0.010384109 -0.044010576 -0.038200498
000170 0c 44 d2 3d 18 cc e2 3d 8c b6 66 bd ec 7b a6 bc
       0.10266885 0.11074084 -0.056326434 -0.020322762
000180 62 84 9a bd 05 7d ce bd 7e f0 aa bc 8f 53 8e bd
       -0.07544781 -0.10082439 -0.020866629 -0.06949531
000190 cb 52 a2 bc e4 86 2f bd ae 17 85 bd 3f 88 cc bd
       -0.01981487 -0.04285325 -0.06498657 -0.099869244
0001a0 1b e7 b4 3d b2 34 92 bd ff 23 2d ba 3c df 0d 3d
       0.08833142 -0.07138957 -0.000660479 0.03463672
0001b0 9f 90 10 bd cc 9a 89 3d 0f 9b e2 3d 78 9a a4 3d
       -0.03529417 0.06718978 0.11064731 0.08037275
0001c0 e1 29 8a bd 31 fe 9d bd e5 83 ee 3d 91 08 a4 3d
       -0.06746269 -0.07714499 0.11646251 0.080094464
0001d0 b6 6d d3 3c 39 dd ff bc b9 37 20 3d 93 90 2c 3c
       0.02580915 -0.031233417 0.03911564 0.010532516
0001e0 0d 06 55 bd 4b 11 66 3d 98 22 80 3b 31 fe e1 3c
       -0.052007724 0.056168836 0.003910374 0.027587028
0001f0 a0 da 9d bd a1 e7 a7 bd f6 87 b4 3d ba 28 83 3c
       -0.07707715 -0.081984766 0.08814995 0.01601063
000200 da 6b 61 bd db 22 ea bd ac 6e 15 bd d4 ae b9 bd
       -0.055034496 -0.114324294 -0.036482498 -0.09066549
000210 c4 13 69 bc de b7 7b bd 33 55 61 bd 43 58 5d bc
       -0.014225904 -0.061454646 -0.055012893 -0.013509813
000220 48 52 d1 3d 58 8e bb 3d 91 cd 51 bc 8d 21 87 bd
       0.10220772 0.09158009 -0.0128053585 -0.06598196
000230 e5 73 b3 3d 48 fd 63 3d 95 c5 30 3d b6 8e d2 3d
       0.087623395 0.05566147 0.04315718 0.10281126
000240 36 5c 86 3d e8 7c 3f 3d a4 30 5f bd e3 82 22 3d
       0.065605566 0.04674998 -0.054489747 0.039675605
000250 1b 2b bb bd 6e 1c e2 3d 2f 79 9f bc b8 87 a5 3c
       -0.09139081 0.11040579 -0.019466965 0.020206317
000260 62 6d a0 bd 24 ab a3 bd b3 d1 d8 bc c8 24 9d bd
       -0.07833363 -0.07991627 -0.02646718 -0.07673031
000270 44 cd 97 3d 04 f0 48 bc a2 01 a0 3c d5 9b a4 3d
       0.07412198 -0.012264255 0.019532029 0.08037535
000280 8c 82 45 3d 65 ae 15 bd 87 f7 92 3d af c1 d2 3d
       0.048220202 -0.03654327 0.07176118 0.102908485
000290 2b c9 a0 bc f8 f3 2a bd 73 a6 34 bd fd 19 de 3d
       -0.019627174 -0.041736573 -0.04410405 0.108448006
0002a0 c3 4a 8d bc 71 f1 74 3d 62 16 8b 3c 8f d5 34 bd
       -0.017247563 0.05980057 0.016978446 -0.044148978
0002b0 48 22 9b 3c b8 28 ce 3d b3 81 26 bc f3 47 00 bd
       0.018937245 0.1006636 -0.010162759 -0.031318616
0002c0 cc 40 0f 3d 99 e6 c0 bd 79 11 0c bc f3 bb f3 bd
       0.034973904 -0.09418983 -0.008549088 -0.11901083
0002d0 d3 7f 59 bd 0e e2 3d 3d 12 f9 ab bd a6 4d c6 3d
       -0.05310042 0.04635816 -0.08397116 0.09682779
0002e0 54 7e f1 3d 39 55 35 3d ad 5f e1 3d 3a 09 8d bd
       0.11791673 0.044270728 0.11004577 -0.068865255
0002f0 88 ad e7 bd 20 d8 23 3d 64 cd 84 3d 48 50 c5 bd
       -0.11312395 0.040001035 0.06484488 -0.09634453
000300 09 ef e5 3d 06 d1 25 3c 17 ba 9e 3d e3 df f0 3b
       0.11227233 0.010120636 0.077503376 0.007350908
000310 fa b6 e5 bd 21 32 f6 bd a3 16 20 3d c8 77 90 bd
       -0.11216541 -0.1202128 0.039084088 -0.070540965
000320 67 ff 56 bd a3 cf 87 bd 25 0e 56 bc 8e f9 27 3d
       -0.052489664 -0.066314004 -0.013064896 0.04100948
000330 f3 2c aa 3d 60 e6 8e 3d 61 0e 45 3d fe df fb 3c
       0.08309355 0.06977534 0.048109416 0.030746456
000340 e4 d1 ff 3c d7 64 88 3c af 93 a7 bd e4 13 7a bd
       0.031228013 0.016649647 -0.08182465 -0.061054125
000350 99 6e 96 bd a4 37 49 3d 98 a4 a3 3c 3a dd a4 3d
       -0.073453136 0.04912533 0.019975945 0.08050008
000360 2d a0 83 3c 4d 61 b4 3d ec 38 de bd 11 5a dd bc
       0.016067589 0.08807621 -0.10850701 -0.027020486
000370 ce d5 ab 3d 3f 76 23 3d 38 42 32 bd 17 97 f6 bc
       0.083903894 0.03990769 -0.043520182 -0.030101342
000380 ee f9 52 3c 2c 25 f3 3d 83 66 5f bd bc 24 e7 bd
       0.012876971 0.11872324 -0.054541122 -0.112863034
000390 cd 4f 60 3d 5d 85 c3 bd 9f 13 13 3d f1 4d ee bd
       0.054763604 -0.095469214 0.035907384 -0.1163596
0003a0 1c 05 d6 bc 6a 57 d2 bc ca 9a df 3d ad 1b ed 39
       -0.026125483 -0.025676448 0.109181955 0.00045224783
0003b0 e9 99 e2 3c 31 6c b2 3d 45 01 94 bc 6f 26 95 bd
       0.02766128 0.08712042 -0.018067012 -0.07282721
0003c0 75 a6 66 bd 3d 18 6b bd 3e 91 44 bd d1 ca 19 3c
       -0.05631109 -0.057396162 -0.047990076 0.009386734
0003d0 f0 ef a7 bd e4 7d b1 bb e7 70 8b 3d 28 d8 42 3d
       -0.08200061 -0.0054166187 0.06808644 0.047569424
0003e0 fc 65 d1 bc 4d 90 6e bc c7 ae 0e 3d a6 86 9d bd
       -0.025561325 -0.014560771 0.03483465 -0.07691698
0003f0 9d 18 7e 3d 7f 56 6e bd f2 92 c6 bd de ce d5 bc
       0.06203519 -0.058187958 -0.09695996 -0.026099619

_func._diffusion._model.0.bias f4 [16]
000000 b3 14 a2 bd 51 06 da 3d 84 64 a4 3d 23 bc 31 3d
       -0.07914104 0.10645736 0.08026984 0.04339231
000010 ac 24 c9 bd 53 fd d3 3d df fd 83 3d c6 6f 64 3d
       -0.09821448 0.10351052 0.064449064 0.055770658
000020 e4 e7 b3 bc f0 6f 3a 3d d7 18 82 3d bd 7c 5c bd
       -0.02196116 0.04551691 0.06352394 -0.053829897
000030 3b 79 ea bc a1 b5 ac 3d 1c 7a e5 3d 19 fb 8a bd
       -0.02862226 0.084330805 0.11204931 -0.06786174

_func._diffusion._model.2.weight f4 [48, 16]
000000 f3 f3 52 bd 5f 8e f7 bd ac 42 e1 3d 80 d4 e1 bc
       -0.05150218 -0.12087702 0.10999045 -0.027567148
000010 2d 26 52 bb e7 68 9b 3d a5 07 2e 3c 4f 0e e9 3d
       -0.0032066212 0.07588368 0.01062194 0.11379682
000020 bd 4d a8 3c 2f f3 38 bd 9a 74 54 bd b0 e2 e6 bd
       0.020544881 -0.045153793 -0.051869012 -0.11273706
000030 31 a2 f8 3d 68 3b 88 bd 69 6d e9 3d e2 ec 96 bd
       0.121403106 -0.06651956 0.113978215 -0.073694006
000040 30 e5 34 3b ee 5b b3 3c 70 5d 96 bd 46 50 c0 bd
       0.0027602427 0.021894421 -0.073420405 -0.09390311
000050 2c 2e 0a bd 1e 02 32 bd f8 e9 97 3d 0a a1 ca bd
       -0.03373544 -0.04345905 0.07417673 -0.09893997
000060 48 a9 8e 3d ed c6 ba bd 15 5f 0c 3d d6 c1 a4 bd
       0.069658816 -0.09119973 0.034270365 -0.08044784
000070 e8 39 25 bc a2 9b c0 bd 97 8a 21 3d 8c 03 8b bd
       -0.010084607 -0.094046846 0.03943881 -0.06787786
000080 64 56 ea 3d b9 bc 55 3d 51 e1 85 bc f4 45 5f ba
       0.11442259 0.052181933 -0.01634279 -0.0008517199
000090 e1 62 b8 bd 6b 28 3c 3d af be b3 3d 81 3e fe bc
       -0.09003235 0.045936983 0.087766044 -0.031035664
0000a0 60 81 0b 3d 1f 58 fb bd 18 f8 21 bd 69 f1 d8 3d
       0.03405893 -0.12272667 -0.03954324 0.1059292
0000b0 9b 83 38 3d 50 c1 c8 3d a1 b8 ba bd fc bf 56 bd
       0.045047384 0.098024964 -0.091172464 -0.052429184
0000c0 be ac 98 bd 2f da 93 3d a7 4a 72 3c ff 12 c7 3d
       -0.07454823 0.072193496 0.014788306 0.0972042
0000d0 bc bb 29 bc c8 cd c2 3d 79 1a ee bd 02 be 6f bc
       -0.010359701 0.09511906 -0.11626143 -0.014632704
0000e0 5c 57 85 3d 3f 0a 5d 3c d7 ec a8 bd 51 0f c2 b9
       0.06510803 0.013491212 -0.082482986 -0.00037013975
0000f0 d0 f3 ac 3d bb a5 10 3d c8 ea ca bd 8e 61 c8 bb
       0.08444941 0.035314303 -0.09908062 -0.006115145
000100 cd df 9a 3d 9a 11 32 bc 79 c2 d9 3d 1b c8 f6 3d
       0.07562218 -0.010868454 0.10632796 0.12049886
000110 49 db fa 3d b3 29 f6 bd 8b cc 2f bd 7d b2 b5 bd
       0.122488566 -0.12019672 -0.042919677 -0.088719346
000120 95 d9 f9 3d 8b 57 c3 3c 36 3d ab 3d f1 44 f3 bc
       0.121997036 0.023845455 0.083612844 -0.02969596
000130 34 62 0b 3d b7 21 d8 3d c8 f0 a9 bd 78 b1 8d bd
       0.0340292 0.105533056 -0.082978785 -0.06918615
000140 df 4a e0 bd 81 b8 da bd 78 14 8e bd 7b 4b b7 bd
       -0.109517805 -0.106797226 -0.06937498 -0.08949944
000150 e0 b2 b0 3c 5c 03 63 bc ce 79 11 3d 2f d4 85 bd
       0.02156967 -0.013855781 0.035516553 -0.065346114
000160 0a bf 9b bd f0 11 39 bd f4 c7 2b 3c 0d 79 e4 3c
       -0.07604797 -0.045183122 0.010484684 0.027889753
000170 50 94 21 3d 57 49 dd 3c 9b 21 cf bd 8f 00 cf 3c
       0.039448082 0.02701251 -0.101138316 0.025268821
000180 24 63 80 bd 60 e6 88 3c 1e e1 69 3d 47 fe 81 3d
       -0.062689096 0.016711414 0.057099454 0.06347328
000190 f2 2e 93 bd b6 03 a0 3a ec ff 93 3d 7c 94 77 3c
       -0.071866885 0.0012208137 0.072265476 0.015111085
0001a0 2c 05 1a 3d dd 3a a1 bd f4 3b 4d 3d e7 22 ac 3b
       0.03760259 -0.078725554 0.050106004 0.005253184
0001b0 b5 e1 15 3c 95 f9 d2 3d fc 80 b0 bd 31 05 95 3d
       0.009148051 0.1030151 -0.08618352 0.07276381
0001c0 9e a6 b8 3d 0f 98 d2 3d 82 80 d3 3d e9 54 c0 bd
       0.09016155 0.10282909 0.10327245 -0.09391195
0001d0 ef 16 58 3d 49 16 76 3c 23 a8 b5 3d 93 47 49 3d
       0.052756246 0.015019962 0.0886996 0.049140524
0001e0 aa 98 12 3c 47 c6 a2 3d 01 4c e8 3d 34 f1 37 bb
       0.008947531 0.07947975 0.113426216 -0.0028067352
0001f0 61 b2 ec bd 21 81 74 3c 41 e4 fb bd 53 5e 10 3d
       -0.115574606 0.014923365 -0.12299395 0.035246205
000200 1e fd 25 bb 9d 38 97 bd 10 20 6a bd 78 bd fb bd
       -0.0025327872 -0.07383845 -0.057159483 -0.12291998
000210 e3 68 e6 3c f4 6f da bd 31 0c 21 bc 27 97 e1 bd
       0.028126186 -0.106658846 -0.009829567 -0.11015158
000220 a4 7f f6 bd af ee a6 3d 71 7c d2 bc f8 e0 f9 bc
       -0.12036064 0.08150994 -0.025694104 -0.030502781
000230 90 9c 78 bd 7b 80 dc 3d cb 3c f0 3d 5b 40 64 bd
       -0.060696185 0.10766693 0.11730345 -0.055725437
000240 b9 3a fb bc a0 63 02 bd 95 8b 62 3d b7 c9 04 3d
       -0.03066765 -0.03183329 0.055308897 0.032418933
000250 66 b3 0d 3d 31 12 91 3c 5c 39 e5 3d 30 c5 a8 3d
       0.034594916 0.01770887 0.11192581 0.082407355
000260 ad a8 cc 3d 0c 68 87 3d fa 1c 7d bc ce 4b e6 3d
       0.0999311 0.06611642 -0.015448803 0.11244927
000270 4f 48 f0 bb 1b e5 d0 bd 89 4a ea bd 08 b3 b7 3d
       -0.0073328386 -0.101999484 -0.11439998 0.089696944
000280 61 a7 9a 3d 2f ff 7d 3d cd aa ae 3d a3 26 88 3d
       0.07551456 0.06201094 0.085286714 0.06647994
000290 6b 4d ff 3d 6f 29 29 bb fb 6f bd bc 27 e9 11 bd
       0.12465938 -0.002581205 -0.023124686 -0.035622742
0002a0 71 d7 7b 3d fc 50 d1 3d 1e d9 3d 3c 9c 03 98 3c
       0.061484758 0.10220525 0.011587409 0.018556409
0002b0 a4 40 4c bd 49 16 73 bd 07 ea aa bd 16 7f d0 3d
       -0.049866334 -0.059347425 -0.083454184 0.1018049
0002c0 18 d0 47 3d 3c 18 06 bc 54 d0 cd bd 91 08 69 3c
       0.048782438 -0.008184489 -0.10049501 0.014223234
0002d0 68 60 14 bd 06 fe 0c bd 73 de 90 bd df c7 85 bd
       -0.036224753 -0.034421943 -0.07073679 -0.06532263
0002e0 3d f3 49 bd be c1 c0 bd c5 a7 62 3d 7c 5d 9b bd
       -0.049304236 -0.094119534 0.05533578 -0.0758619
0002f0 81 8e e8 3d 7f 41 f8 bd e7 bc 19 b9 a2 62 bf bd
       0.113553055 -0.121218674 -0.00014661589 -0.093449846
000300 4a 4d 88 bd 12 fa 22 3d be d9 0e 3d 9d 9b fc 3d
       -0.06655367 0.039789267 0.034875624 0.123343684
000310 87 23 74 3d 30 5b 8c 3c d6 4b 9e bd 7b e3 bb bc
       0.059604194 0.017133325 -0.07729308 -0.02293562
000320 84 aa ac 3b 0c fc 3c bd ba 16 b0 3c 37 86 b2 bd
       0.0052693505 -0.046138808 0.021495212 -0.08717006
000330 35 ed a5 3d fd 54 58 3d 77 70 df bd f3 d8 56 3d
       0.08101884 0.052815426 -0.10910123 0.052452993
000340 54 a9 03 bd 37 2d 7e 3d 8c f1 c7 3c d5 07 93 bd
       -0.032143906 0.06205484 0.02440717 -0.07179228
000350 24 09 69 3d 98 5e dc 3d aa d3 11 3d d4 8b 63 bd
       0.056893483 0.1076023 0.03560225 -0.055553272
000360 26 6e c3 bc cb ff eb 3d ee 10 f4 bb 78 c1 87 3d
       -0.023856234 0.11523398 -0.0074483072 0.06628698
000370 9d f8 b8 3d df 54 88 bd 0c 2b f6 3d 04 38 52 3d
       0.09031794 -0.06656813 0.12019929 0.051322952
000380 1d bb 58 bd 08 98 f9 3d 22 e1 b5 3d fe 50 ce bd
       -0.05291282 0.12187201 0.08880831 -0.10074042
000390 4e 53 8e bd b9 0c a9 3d e4 3d e6 bd 1c 4f d0 3d
       -0.06949483 0.0825438 -0.112422734 0.10171339
0003a0 64 be f6 3d 1c b9 87 bd cb c3 cc 3d 32 fa 7e 3d
       0.12048033 -0.06627104 0.09998282 0.062250324
0003b0 29 99 9a bd c0 35 57 bd 87 96 6e 3d ed 47 cb 3d
       -0.07548744 -0.052541494 0.058249023 0.09925828
0003c0 9c 07 77 3d 1e 97 02 bd c4 8c 8b bd ac e8 05 3d
       0.06030999 -0.031882398 -0.06813958 0.032692596
0003d0 66 d1 d2 3d 72 91 cc bd 99 fa fd bc 70 58 b9 3c
       0.10293846 -0.09988679 -0.031003283 0.022625178
0003e0 1b 1f 61 3d 49 79 a4 3d 85 3a d8 3d f1 6a af bd
       0.054961305 0.08030946 0.10558037 -0.08565319
0003f0 2b b8 cc 3c 2d 55 f1 3d 4f 2a b4 3d e4 a0 7d bd
       0.024990162 0.11783824 0.08797132 -0.061921015

_func._diffusion._model.2.bias f4 [48]
000000 94 b5 9b bd 00 df 14 bd 00 0f 3a 3d 46 a7 c7 bc
       -0.07602993 -0.036345482 0.04542446 -0.024371754
000010 30 88 87 3d 02 6b ac 3c c3 fc 84 bd ac 6d c0 bd
       0.066177726 0.021047119 -0.06493523 -0.09395918
000020 a5 91 f4 3d fc 0c a5 bd f9 86 d8 bc 47 33 90 bd
       0.11941842 -0.08059117 -0.026431547 -0.070410304
000030 9f f3 e7 3d ce 6e 2d bd 01 2a bd 3d 4c d9 d8 3d
       0.11325764 -0.042342 0.09236527 0.10588321
000040 0a 05 a1 3c 9f eb d9 bd c5 e2 a4 bd c9 87 6b 3d
       0.019655723 -0.10640644 -0.08051065 0.05750254
000050 52 d2 82 3a 1c 92 56 bd 63 e9 fa 3d 2a 92 a9 3d
       0.0009980893 -0.052385435 0.12251546 0.08279832
000060 00 ad 3b 3c 0f 98 90 bd c7 ba e8 3d e1 bc c4 3d
       0.011454821 -0.07060253 0.1136375 0.09606338
000070 bb 61 29 bd 1f a4 4c 3d 5b 22 bf bd 54 04 be 3d
       -0.04135297 0.049961206 -0.09332725 0.09278169
000080 e5 39 b7 bd 11 49 67 bd 53 7f 4d 3d 87 b8 fc bd
       -0.089465894 -0.056466166 0.050170254 -0.12339883
000090 ca e8 04 bd c5 28 a6 3c 28 01 bd bc 88 99 a3 3b
       -0.032448567 0.020283112 -0.02307184 0.0049926676
0000a0 90 c8 45 bd 8c c1 7b 3d 53 48 a0 bd 2e d3 8d 3d
       -0.048286974 0.061463878 -0.07826295 0.06925045
0000b0 36 18 bc bd dc 96 6f 3d f8 77 b8 bd 20 6f 8d 3d
       -0.09184305 0.05849348 -0.09007257 0.06905961

_readout.weight f4 [1, 16]
000000 be 6f 78 be 7f e4 45 3e 78 2b 59 3e 1c 55 dd bd
       -0.24261376 0.19325446 0.21207988 -0.10807249
000010 11 4c a8 3c 3b 11 1c 3d 29 e9 0c bd e4 58 1c be
       0.020544084 0.03810237 -0.034402046 -0.15268284
000020 81 a2 5d be 1e b0 77 be 6c 64 54 bb b8 03 03 3b
       -0.21644022 -0.24188277 -0.003240849 0.001999123
000030 a7 76 13 3e 08 ff 03 bd a7 3b 4a 3e 21 b7 b0 bc
       0.14400731 -0.03222564 0.19749318 -0.021571698

_initial._model.0.weight f4 [16, 2]
000000 77 7f 05 3f 7a c8 86 bd e8 d7 b3 be 82 a7 6a bc
       0.5214762 -0.065812066 -0.3512566 -0.014322164
000010 b9 ee e4 3e 68 2a 5a 3c 88 51 10 bf 75 bd a9 3e
       0.4471338 0.0133157745 -0.56374407 0.33152357
000020 8d cc 59 3e a3 ad 83 3e 1c 18 5e be f2 c3 25 3f
       0.21269436 0.25718412 -0.21688884 0.64752114
000030 88 34 aa 3d 7c 4d 43 be 5f d7 6c 3e e8 34 2c 3f
       0.08310801 -0.19072527 0.23129033 0.6726823
000040 ca e4 f5 bc 19 ee 5a bd a1 d1 69 3d eb 1b 39 bf
       -0.030016322 -0.053449724 0.057084683 -0.72308224
000050 4c 5d 09 3f 4d 34 27 3f 63 88 8e 3e 1c be e0 3d
       0.53657985 0.6531418 0.2783843 0.109737605
000060 5e 95 24 bf 1d 3f 08 3f eb b8 ec 3e bb 06 2e bf
       -0.64290416 0.53221303 0.4623483 -0.6797902
000070 f0 19 b5 3d db 8b e4 be 22 57 08 3f c5 c0 fd be
       0.08842838 -0.4463795 0.53257954 -0.49561134

_initial._model.0.bias f4 [16]
000000 17 54 d1 bd 0c 32 74 be b1 c2 c3 be f2 a6 c6 bd
       -0.10221117 -0.23847216 -0.38234475 -0.09699811
000010 dd f4 0d bf 35 4d 0e bf d2 6a 13 bf 36 2d d2 be
       -0.55451757 -0.5558656 -0.5758487 -0.41050118
000020 a2 21 84 3e 0b 0a 31 3f e0 16 27 3e b4 57 28 3f
       0.2580691 0.6915595 0.1631732 0.65758824
000030 1f 76 29 3f e8 e4 0c 3c d2 d1 de 3e e9 21 37 3f
       0.66195863 0.008599497 0.43519455 0.7153612

_initial._model.2.weight f4 [16, 16]
000000 e7 b9 2f 3e d8 40 b1 bd 6f 99 67 bd be 50 cc 3d
       0.1716076 -0.08654946 -0.05654281 0.09976338
000010 87 93 46 3e 0b e5 15 3e 67 9e b6 bd b0 5c 51 3d
       0.19392215 0.14638154 -0.089169316 0.051113784
000020 98 62 31 be 28 8f 1f 3e 9c be 91 bd af 2f 53 3e
       -0.17322767 0.15581954 -0.07116434 0.20623659
000030 66 7d 2f be 8a b4 ca bd 3e 3c 88 3e 18 ce 77 3d
       -0.1713768 -0.09897716 0.2660846 0.06049928
000040 64 3f 16 be ac f2 89 3d 4c cc 07 3d f8 47 50 3d
       -0.14672619 0.06735739 0.033153817 0.050849885
000050 af 04 1a be 09 0f 69 3d 9c 3f 96 3d d4 c0 85 3d
       -0.15040849 0.056899104 0.07336351 0.0653092
000060 22 25 33 bd 10 e3 70 3e b3 f2 da bd ad 19 d5 bd
       -0.043736584 0.23524117 -0.106908225 -0.10405288
000070 33 e7 7d be a8 b2 d3 bd 52 3b 88 3c 04 fb ce 3d
       -0.24795227 -0.1033681 0.016629849 0.10106471
000080 25 ed f1 3d be 48 75 3d 9a c8 09 be ac 15 d7 bd
       0.1181281 0.059883825 -0.1345543 -0.105021805
000090 49 e0 2d 3d f4 12 48 be 73 33 c3 bd c1 94 aa bd
       0.042450223 -0.1953848 -0.095312975 -0.08329154
0000a0 d4 88 19 3e 8a 19 89 3e 81 e3 eb 3b 91 c4 7c be
       0.14993602 0.26777297 0.0071987514 -0.24684359
0000b0 ef 1e 8b be 52 f3 50 be c1 47 0a be 17 57 ae bb
       -0.27172038 -0.2040532 -0.13503934 -0.0053204405
0000c0 cc dd b8 bd 89 4c b6 bd 14 a7 33 be f0 3c 4d 3d
       -0.090266794 -0.08901317 -0.17544204 0.050106943
0000d0 32 07 0a be 85 4f 02 3e 6f 40 f5 bd ff a6 70 3e
       -0.13479307 0.12725647 -0.1197518 0.23501204
0000e0 7a 08 f3 3d 85 02 f9 bc 5c df 8c bb 05 98 58 be
       0.11866851 -0.03039671 -0.0042990874 -0.21151741
0000f0 11 e3 32 be 28 0d 3e be e1 1e 37 3e 69 16 21 be
       -0.17469431 -0.18559706 0.17882873 -0.15731205
000100 62 28 0e be f2 fe 2d bd d6 34 11 bd ad b4 01 be
       -0.13882592 -0.042479463 -0.03545078 -0.12666579
000110 1d e8 52 bd d1 4e 60 3e f9 68 1e bd cc 3f 51 be
       -0.05149089 0.21905066 -0.03867433 -0.20434493
000120 74 3a 22 be 63 ae 88 3e 40 17 63 3d e4 6e 27 be
       -0.1584261 0.26695547 0.055442095 -0.16350895
000130 ef 0f 13 3e 0b b8 53 be a4 64 bf bd 68 41 49 3e
       0.14361547 -0.20675676 -0.093453676 0.19653857
000140 d4 e4 ba 3c 71 8a ff 3c 4f 28 7b 3c 40 a3 7e 3c
       0.022814192 0.031193944 0.015329435 0.0155418515
000150 fc 77 65 3e 61 e4 1f be 7e 4d 78 be 00 7a d0 3d
       0.22409052 -0.15614463 -0.24248311 0.1017952
000160 39 28 6a bd 29 cc 97 bd 2d 90 6e 3e cb f7 19 3e
       -0.057167266 -0.07411987 0.23297186 0.15035932
000170 be b7 05 3e 52 39 f6 3d b3 d8 38 3e 84 97 a0 3b
       0.13058373 0.12022652 0.18051414 0.0049008746
000180 d2 2a 6f be ee ff f1 3d 0b b0 3e bd 0f b5 91 bd
       -0.23356178 0.11816393 -0.046554606 -0.07114612
000190 47 0c 2c be 35 f9 42 be 08 b3 6e bd d8 55 24 3e
       -0.16801558 -0.19040377 -0.058276206 0.16048372
0001a0 0c 47 79 bb 9e 0f 04 3e e1 01 08 3e c6 10 9d 3d
       -0.0038036732 0.12896582 0.13281967 0.07669215
0001b0 5c 95 88 3e 8c ca 3a 3e 1b 34 4d be a0 5e 5f 3d
       0.26676452 0.18241328 -0.20039408 0.0545336
0001c0 23 f1 7f 3d d3 f0 9c bd 8f b1 53 be a8 7f 69 3c
       0.062485825 -0.07663121 -0.20673202 0.014251627
0001d0 50 d4 48 3e 65 02 7b 3e ce 10 3a be 6a 9f aa 3d
       0.19612241 0.24512632 -0.18170473 0.08331187
0001e0 36 b1 d2 bd 26 d0 be bd c9 45 2b be 24 b1 7c 3e
       -0.102877066 -0.09317045 -0.1672584 0.24676949
0001f0 81 18 61 be a8 0e 22 be cf 94 ba bc dd 13 55 3e
       -0.21982004 -0.15825903 -0.022776036 0.20808358
000200 4e c2 bc bd 39 5b 16 be 4d f7 57 be f6 69 5b 3e
       -0.09216748 -0.14683236 -0.21090432 0.2142714
000210 44 db 71 3e 16 8e c9 3d 50 3d bd bb 6a 16 e8 3d
       0.236188 0.09841554 -0.0057751313 0.113324
000220 8f 17 86 bc 5f b2 05 be 48 ff 67 be c3 31 ad bc
       -0.016368655 -0.13056324 -0.22655976 -0.021141892
000230 fc 3e 25 3e 5b a1 26 be f4 1c ca 3d a2 26 a6 3d
       0.16137308 -0.1627249 0.098688036 0.081128374
000240 ed ec 2a be d2 5a 1d be 82 06 53 3e 00 18 d8 bc
       -0.16691943 -0.15366676 0.20607951 -0.026378632
000250 3d 04 08 be 8a 27 a1 3c 43 a7 82 be 31 46 2b 3e
       -0.13282867 0.019672174 -0.25518236 0.16725995
000260 60 61 20 be 75 09 32 be c1 de 61 3c 28 ff 23 3e
       -0.15662146 -0.1738642 0.013786019 0.16015303
000270 d4 01 14 be 29 c9 56 3e b5 72 04 3e 85 f7 18 be
       -0.14453822 0.20975174 0.12934382 -0.14938171
000280 a8 61 58 3e ab ee 94 bd 1d c9 df bc fa 7c 1e 3d
       0.21131003 -0.07272085 -0.027317578 0.038693406
000290 d6 ce 5d be c6 19 61 be 73 ca 11 be e1 03 04 bd
       -0.21660933 -0.21982488 -0.14237384 -0.03223026
0002a0 7d 45 3a bd 78 2f 5f 3e fe 27 82 be da 14 75 3e
       -0.045476425 0.21795452 -0.25421137 0.23933735
0002b0 55 3c 02 3e d0 5d 2d be 81 a5 83 3e 1f ec b1 3d
       0.12718327 -0.16930318 0.25712207 0.08687615
0002c0 db 11 c5 3d 26 a1 f6 3d 87 c1 59 be 1e 3e 32 3e
       0.09622546 0.120424554 -0.21265231 0.17406508
0002d0 84 d8 96 bd b8 8d 8d bd b2 79 0c be 3a 94 bb bc
       -0.07365516 -0.06911796 -0.13718298 -0.022897828
0002e0 14 ab b3 3d e0 07 79 3e 47 a7 9f 3d 4b 53 08 be
       0.08772865 0.2431941 0.077955775 -0.13313024
0002f0 aa 05 65 3e 6c 18 3b 3e 88 97 fd bd 1d 69 dd bd
       0.22365442 0.18271035 -0.12382418 -0.108110644
000300 36 64 cc bd e5 5a 96 bd 58 d0 1b be 49 ef bf 3d
       -0.09980051 -0.073415555 -0.15216196 0.09371812
000310 da 80 36 bd cb f2 08 be ad 5e 3c be 5e f1 f7 3d
       -0.044556476 -0.13373868 -0.18395491 0.12106584
000320 f3 dd 34 be b7 02 35 be 05 33 8f 3d c5 ac 73 bd
       -0.17662792 -0.17676817 0.06992153 -0.059490938
000330 a7 7a 5b 3d d5 28 dd 3d 17 f8 87 be 38 8a 16 be
       0.053583767 0.10798804 -0.26556465 -0.14701164
000340 cf 70 dd bd 97 a6 b6 3d f7 ed fb 3d dc 67 90 3d
       -0.10812532 0.08918493 0.123012476 0.070510596
000350 d8 9f 0c 3e 29 8b cc 3c 18 d1 3e 3e b3 0d 9d bd
       0.1373285 0.0249687 0.1863445 -0.076686285
000360 17 8e 5a be fb a0 64 3e 6a 23 09 3d b3 a0 c2 bd
       -0.21343265 0.22327034 0.03348104 -0.09503307
000370 bd 49 e6 bd 52 d6 59 bb 7c 49 66 be cc 97 29 3e
       -0.11244533 -0.0033239317 -0.2248897 0.16561812
000380 cb a1 0b 3d e1 da 61 be 57 78 2d 3e bb 42 53 be
       0.034089845 -0.22056152 0.16940437 -0.20630924
000390 73 42 55 3e 81 9d 2b 3e 60 24 9c 3c a2 63 5c 3e
       0.2082613 0.16759302 0.019060314 0.21522382
0003a0 fe 71 c7 3b a5 97 47 be 5e 85 02 bd 6f a5 df 3c
       0.006086587 -0.19491442 -0.03186547 0.027300565
0003b0 44 d1 27 3e b7 ee 33 be c5 60 0e be 8e a7 e8 bd
       0.16388422 -0.17571531 -0.13904102 -0.113600835
0003c0 60 83 41 bd 32 ac 6a 3e c8 31 be 3c 9d bb 04 be
       -0.04724443 0.2291725 0.023217097 -0.12962194
0003d0 47 4c 3e 3e bc ea 6b bd 95 27 5f 3e 89 a5 49 3e
       0.18583785 -0.057596907 0.21792443 0.19692053
0003e0 3e fa cc bd 99 ce 7e bd 99 c1 41 bd 0d 03 26 3e
       -0.100086674 -0.062208746 -0.04730377 0.16212101
0003f0 e5 73 e6 bb 51 31 c0 3d d5 89 43 3e 38 b9 a5 bd
       -0.0070328587 0.09384406 0.19095547 -0.08091968

_initial._model.2.bias f4 [16]
000000 93 c5 05 3e 8c 4e 66 3e e4 65 40 bd 91 34 33 bd
       0.1306365 0.22490901 -0.04697217 -0.043751303
000010 0e e9 62 3d 42 06 2c b9 50 be 48 3e fd 4c 7d 3d
       0.05539804 -0.0001640553 0.19603848 0.061841
000020 7b 51 61 bd 13 15 c8 3d 88 1f 5e be 58 6d 8e bd
       -0.055009346 0.097696446 -0.21691716 -0.069544494
000030 1a 3e c2 bd 38 66 e7 3d 3a 14 5b 3d 5e 75 a5 3b
       -0.09484501 0.112987936 0.053486086 0.0050493916
