hyperparameter_tuning/ray_results/SUD_learning_rate_tuning/MyTrainableClass_5e603ba6_13_batch_size=16,name=SUD_v2,patience=1000,steps=200,steps_per_print=5,swa_step_start=2500,t_size=7,trai_2024-03-11_19-06-17/checkpoint_000000/checkpoint.pt (torch, 61346 bytes, 66 tensors)

_initial._model.0.weight f4 [16, 5]
00000000: b63c 54bf 13c6 06c0 b6c7 b8bf 8e2c 91bf
00000010: be9f 31c0 da4e e0bf c845 5bc0 cde3 71c0
00000020: c2fe 50c0 0c0c 2140 7c76 3940 7c08 21c0
00000030: a471 5240 1951 63c0 749d ff3f fed4 813f
00000040: 3c14 4b40 bb18 14c0 93f2 4a40 912d 653e
00000050: 704d 2f40 6741 8bbf 94f6 58be d65f 1cc0
00000060: e208 af3f c458 2dc0 5a91 87bf 8ac3 3ec0
00000070: e5a4 d3bf 5c87 f73d 10ee 4ec0 1db1 463f
00000080: 3640 27c0 8459 b6bd 410f 65bf 1a4f 5cbf
00000090: da3f 51bf f86d ca3f 04ab 1d3f 64a7 0240
000000a0: df7d 0bbf 881f 68c0 1a64 5cc0 f5b0 6c40
000000b0: c5f5 5bc0 f0be 2640 f11f 223f 421b cb3f
000000c0: c90c df3f 1e8a fdbe e35d 3b40 15ce f93d
000000d0: 08f6 f0bf 363c 1fbf f7fd bfbf 3227 873f
000000e0: 56c3 2cc0 a10b 62c0 4d3b 6440 dce9 433f
000000f0: e974 863e cd29 9b3f 7de6 1140 e299 40be
00000100: 1acc 2340 0042 78c0 44b8 f4bf 8504 20bf
00000110: 3160 e63f 9f9d 18c0 c477 3c40 c47f 4f40
00000120: 9a3f 4240 9529 77c0 1d98 55c0 47d8 83bf
00000130: 59f9 f13e c201 4a40 02b7 413f fe65 5a40
-0.8290514 -2.1058395 -1.4435947 -1.1341722 -2.775375 -1.7524064 -3.426134 -3.7795289
-3.2655492 2.5163603 2.8978567 -2.5161428 3.288186 -3.5518248 1.9969926 1.0143125
3.17311 -2.3140094 3.1710556 0.22380663 2.7391014 -1.0879334 -0.21187812 -2.4433494
1.3674586 -2.7085428 -1.0591233 -2.9806848 -1.6534697 0.120863646 -3.2332802 0.77614003
-2.6132941 -0.089037925 -0.894764 -0.860582 -0.81738055 1.581481 0.61589074 2.0414667
-0.5448894 -3.6269245 -3.4436097 3.6983006 -3.4368756 2.605404 0.6332999 1.5867693
1.7425777 -0.49519438 2.9276054 0.1219751 -1.8825083 -0.6220125 -1.4999379 1.0558836
-2.6994224 -3.5319598 3.5661194 0.76528716 0.2626107 1.2122132 2.279693 -0.18808702
2.5593324 -3.8790283 -1.9118733 -0.62506896 1.7998105 -2.3846204 2.94481 3.2421732
3.035132 -3.861913 -3.3374093 -1.0300378 0.4726055 3.1563573 0.7566987 3.412475

_initial._model.0.bias f4 [16]
00000000: 2e0e f63f adb4 5cc0 eeec c3bf 8f17 473f
00000010: f12e d23e f7b4 60c0 89cb d0bf 9dd0 1d40
00000020: 82ce e73f 64c9 48bf 2e77 60c0 135e 6440
00000030: ac1b 04c0 f077 a53f 795f 1abf 8098 473e
1.9223077 -3.4485276 -1.530668 0.7777032 0.41051438 -3.5110452 -1.6312114 2.4658577
1.8109896 -0.784323 -3.5072742 3.5682418 -2.064189 1.2927227 -0.6030193 0.19491768

_initial._model.2.weight f4 [16, 16]
00000000: 88e7 5cbe 30f9 9ebe a1d3 493d 07d9 c2bf
00000010: c2e1 fa3f c352 d2bf d1aa 303f 4e1e 333e
00000020: dfd0 4cbf e4bf df3f 3e4d 9abe ec76 bfbf
00000030: d8bd 213f 3bb9 2abf 056b d23f 3779 04c0
00000040: 9421 943f 1055 04bf b134 19c0 c81d 0740
00000050: bbeb be3f 238c 1f3f 1d41 643f 4c3d ddbf
00000060: 6240 1440 3fe4 6f3b 5e4a eebe f81e 03c0
00000070: 72e9 b2bf c069 c7be 8059 69bf f77d 963f
00000080: 6b61 27bd 15a7 d93f a17b 0e3f 8ba8 73bf
00000090: 6012 6b3f 8d88 1540 3776 39bf 37eb 4fbf
000000a0: 2cdf 64be d455 4a3f 3405 aebf d7fa 50be
000000b0: af06 a6bf b88a c23f 746d febe 1952 bf3f
000000c0: 5598 c3be dc77 f8bf f0e3 803f 5c03 98bf
000000d0: c39c f2bf 0db3 1340 d6b3 ebbe a58a 953e
000000e0: 6adf c5bf 1f6f 02c0 8e8c b53f 4263 42bf
000000f0: cc74 5d3f d1b7 3f3f 747c 763f 8d25 0fc0
00000100: 10a9 21bf 3ce1 013f 9e1f d6bf bb06 f73f
00000110: 257d b23f 5dd7 0dc0 cc61 e23f 416c 4a3f
00000120: bc52 ce3f 4253 bb3f cb71 933f ad8c 5e3f
00000130: b83a b23f 75a3 47bf 890b a53f 5560 e8bf
00000140: c45e 29bf 9a5c 0d3f 76a1 01c0 fef1 1b40
00000150: 5ed1 8abf 0fae abbf a95c d0bf a177 08bf
00000160: 83e0 b2bf 9673 0140 7c0f df3e 73a5 e73f
00000170: e785 c13e 3e90 eebf a450 4f3f 1ccc 08bc
00000180: eb4d b0bd efd4 04bf 5f62 713e 65ba ea3e
00000190: 4ea7 4d3f 3869 bcbd a123 843f cf37 143f
000001a0: 1c65 d63f 3284 2dbd c4c1 27bf 5251 9dbf
000001b0: 1e88 f43f 3e74 8a3f 1925 d03f c9fe 593f
000001c0: 5d58 7fbd 5985 11c0 b6e1 acbf 09b5 b7be
000001d0: e00e 7f3f 85e3 07c0 f9fe 14c0 56e1 d43f
000001e0: 2e58 adbf 3141 ad3e 200c 1a3f 0c7a 913f
000001f0: 2966 0c3d ff54 97bf c0b7 ccbe cecf 2bbf
00000200: 1abf b23f c790 273f b7e7 973e 4832 bf3f
00000210: 96bd 15c0 e604 20be 2860 213f 2212 ef3e
00000220: 6eb6 a2bf 33f1 e8bf 065e e7be 21b1 5dbe
00000230: 74cb d6bf e17e 9c3e 5c7d 6d3f 86a5 143f
00000240: 2be4 8a3f d0c7 0d3e 217a 0740 0617 913f
00000250: c5be 6cbf 7b92 0fc0 8ce9 4dbe 570f 333f
00000260: 199b f93f f12d 16bf dde7 db3c c57b 57bf
00000270: e6db 3c3f b8d9 2b3e ed75 083f 6823 bdbf
00000280: 4070 923f 291b 11c0 ecf9 993f 6a77 c3be
00000290: 2c5d aebf 7063 7c3f 0529 a0bf d787 f73f
000002a0: 2f69 fa3f 7256 f0bf 51e6 e2bf 6752 423f
000002b0: d0f6 c2bf f08a a6bf 43b6 823f ffc5 f03f
000002c0: 66a1 183e aa50 bdbf cf2c 733f e3e7 9bbd
000002d0: 2ba5 cfbf f81e 1140 b470 b1bf 819c 0fbf
000002e0: a0e4 023f 92d3 83bf 05f5 20bf 779d 5a3f
000002f0: 70ea d6be b876 733d c917 973f f389 8e3f
00000300: ddda 93bf dd4e e0bf 964b ef3f 47e3 933d
00000310: 7629 bebf 5db1 f8bf 958b a7bf eb9f ffbd
00000320: eed0 babe ddd5 4cbf ec7e 0140 69f9 1240
00000330: 1c78 db3f fdb5 f9bf 6517 b0bf 4580 c73f
00000340: a836 50bf 7590 c7bd ddf9 46bf 8162 f73f
00000350: 682b 1140 e883 b03f e634 e83f b728 cdbf
00000360: e04b f03f c4fa b23d e42e 08c0 c726 cdbd
00000370: 6c66 cb3f 28d7 3abf bc64 04bf e7b8 26bf
00000380: f7f8 84bf 01ef be3f 5236 993f b100 cd3c
00000390: 7c7a dd3f 82de 2b3f 9083 6fbf 6c2c d3bf
000003a0: 46e6 8f3e 91cb 41bf c75d 1fbf 3437 a93f
000003b0: 4912 b13f 64d1 dfbe 9d40 22bf e7a6 473f
000003c0: 8e26 8e3e 981e 353f 7c7a 623f fdd2 b53f
000003d0: b227 f0bf 777f 983d 5560 1d3f ffe5 d03e
000003e0: f7dd 3fbf f71c ecbf 2460 fb3f 4683 d5bf
000003f0: 119f 9f3f 04f2 0ec0 6d10 013f 0fed e03f
-0.21572697 -0.3104949 0.04927409 -1.5222481 1.9600146 -1.6431507 0.69010645 0.17492029
-0.8000621 1.7480435 -0.30137056 -1.4958167 0.63180304 -0.6668889 1.643891 -2.0698984
1.1572747 -0.51692295 -2.393841 2.1111927 1.4915689 0.62323207 0.89161855 -1.7284331
2.3164296 0.003660455 -0.46541113 -2.0487652 -1.3977492 -0.38947868 -0.9115219 1.1757191
-0.04086439 1.7004114 0.5565739 -0.9517905 0.91824913 2.3364594 -0.72446007 -0.81218284
-0.22350758 0.79037213 -1.3595338 -0.20408188 -1.297079 1.5198584 -0.4969288 1.4946929
-0.38202158 -1.9411578 1.0069561 -1.1876025 -1.895409 2.3078034 -0.4603564 0.2920734
-1.5458806 -2.0380323 1.4183519 -0.75932705 0.8650634 0.74889857 0.9628365 -2.236667
-0.63148594 0.50734305 -1.6728399 1.9298929 1.3944441 -2.2162697 1.7686095 0.7907143
1.6118999 1.4634783 1.1519102 0.86933404 1.392417 -0.7798379 1.2894145 -1.8154398
-0.66160226 0.55219424 -2.0254798 2.436645 -1.0845144 -1.3412493 -1.6278278 -0.5330754
-1.3974766 2.0226798 0.435665 1.8097366 0.37797472 -1.8637769 0.8098242 -0.008349445
-0.08608612 -0.5188741 0.23572682 0.45845333 0.8033341 -0.091997564 1.0323373 0.5789766
1.6749606 -0.0423624 -0.6553004 -1.2290442 1.910404 1.0816724 1.6261321 0.85154396
-0.06234013 -2.273764 -1.3506382 -0.35880306 0.9963207 -2.1232617 -2.3280623 1.6631267
-1.3542535 0.338388 0.6017475 1.1365371 0.034277115 -1.1822814 -0.3998394 -0.6711396
1.396457 0.6545529 0.29668972 1.493722 -2.3396964 -0.15626869 0.6303735 0.46693522
-1.2711923 -1.8198608 -0.45188922 -0.216496 -1.6780839 0.3056555 0.9276941 0.5806507
1.0850881 0.13845754 2.1168292 1.1335151 -0.9247859 -2.2433155 -0.20108622 0.6994528
1.9500457 -0.5866385 0.02684396 -0.8417323 0.7377304 0.16782272 0.5330494 -1.477643
1.1440506 -2.2672827 1.2029395 -0.38177043 -1.3622184 0.9858923 -1.2512518 1.933833
1.956335 -1.8776381 -1.7726537 0.75906986 -1.5231571 -1.301115 1.0211872 1.8810424
0.14905319 -1.4790242 0.9499025 -0.07612588 -1.622228 2.2675152 -1.3862519 -0.5609818
0.51130104 -1.0298941 -0.6287387 0.8539652 -0.41975737 0.05943939 1.1804134 1.1135849
-1.1551167 -1.7524067 1.8694942 0.07221084 -1.4856403 -1.9429127 -1.3089472 -0.12481674
-0.36487526 -0.8001383 2.0233717 2.2964728 1.714603 -1.9508663 -1.375714 1.558602
-0.813334 -0.0974435 -0.7772501 1.9326936 2.2682743 1.3790255 1.8141143 -1.602805
1.8773155 0.08739236 -2.127862 -0.10017162 1.5890632 -0.7298455 -0.5171621 -0.6512589
-1.0388478 1.4916688 1.1969702 0.025024744 1.7303004 0.67136395 -0.93560123 -1.6497931
0.28105372 -0.7570124 -0.6225247 1.3219972 1.3833705 -0.4371444 -0.6337984 0.7798905
0.2776379 0.7074981 0.88468146 1.4205014 -1.8762114 0.07446187 0.61475116 0.40800473
-0.74948066 -1.8446339 1.9638715 -1.6680686 1.2470418 -2.2335215 0.5041569 1.7572345

_initial._model.2.bias f4 [16]
00000000: fd22 083f 0538 a3be f994 1b40 3d8b 9bbf
00000010: d93d 1ac0 4428 383e 620a 93bf e7b8 68bf
00000020: b6c7 e43f f529 d2bb 8264 0cc0 c12e 27bf
00000030: 0577 aebf cb16 11c0 4edb 613f 6301 0ac0
0.5317839 -0.31878677 2.4309676 -1.2151867 -2.410025 0.1798411 -1.1487544 -0.9090714
1.7873447 -0.006413693 -2.1936345 -0.65305716 -1.3630072 -2.2670162 0.8822526 -2.1563346

_func._drift._model.0.weight f4 [16, 17]
00000000: 9947 323a b396 b1bb 001b a03b 5c11 a8b9
00000010: 6e1c ec3a e1a4 903a 1bf0 35bb c0da de39
00000020: e9e0 e63a 3a5e acbb 943e 92bb 7d2c 8ebb
00000030: 1de8 94b9 42d2 38bb dd96 afbb dd43 aa3b
00000040: 4671 963b 141f 04bb 3fed 84bb 8fd1 303b
00000050: cebc 7fba f38c 4fbb 7e65 abbb 76de 4038
00000060: c110 3ebb 63ce c23a 953d bf3a b5e9 33ba
00000070: 9915 bd3b e201 92ba 1c06 b83b 08ec df3a
00000080: f328 df3a 6b52 9b3b 98e5 fbba 12ee af3b
00000090: dc6f 283b 0a7d d4ba ffea 2d3b 3288 b6bb
000000a0: af1a 3d3a 2cb5 a5ba a7cd 9aba 4449 97bb
000000b0: 8aa3 3c3b e05a 043b d4b2 1dbb aa58 953b
000000c0: 0d07 90ba 1014 12b9 c639 63bb 58cf f03a
000000d0: 61e0 083b b902 853a c909 c139 a1b0 b8bb
000000e0: 4c8c 9f3b 9823 70b9 2f0a 603b 6da1 683b
000000f0: 120f a5bb 20fd 7b3b adbe 80bb 8d70 ef3a
00000100: 4cb5 a33b fe1e a33b 9f8c eb3a 9a77 a8bb
00000110: ec31 4a3b ac26 64bb 6a62 183b d6cb b1bb
00000120: 398e 1dbb 4777 90bb da90 92ba f37b 01bb
00000130: e87a b7bb bc93 b9bb bb0e 4b3a 8971 4e3a
00000140: 8a30 15bb 96a9 48bb 15de 90bb 0607 67bb
00000150: bb96 11bb 556c 1cbb e802 703b 2454 c43a
00000160: feef 9b3b ffdb 9cbb 59ff 053b dd69 ad3a
00000170: 0344 99bb dcaa 4a3b b9ad 22bb fa52 16bb
00000180: b383 043b c1ec b03a aa85 a339 2401 aa3b
00000190: e363 d8ba 39c6 67bb f723 bdbb 8b91 a13a
000001a0: 80d6 92bb d9e7 993b cd6c e03a 5367 b3ba
000001b0: b33a 723b 236d a53b db0f 8b3b 05e5 11bb
000001c0: 6892 073a 0b44 49bb e892 6b3b 22d7 b23b
000001d0: 62dc 2eb9 8136 7a3b 89df ff3a 929f 393b
000001e0: 4e43 8dbb fec7 82bb 8aae a1bb e763 b53b
000001f0: 24ca 1a3b 33d6 8b3b d4ca 823b 43c8 983b
00000200: 3e17 b8ba e46d b8bb 760f 383a 8e91 1bbb
00000210: b634 1f3b 88f4 223b f3a8 123a d6aa b5bb
00000220: 2061 cc3a 2a12 50bb c15f 2ebb a34e 913b
00000230: 616c 43bb 538d f03a 5ca9 d9ba 6c82 7439
00000240: 88a1 30bb fe1d 09bb 9b6f a13b fe65 4f3b
00000250: d3fd a0bb 0507 a93b 18d4 63bb 8a48 74bb
00000260: d946 a8bb 6d0e aeb9 1f35 2dbb 9cfb b8bb
00000270: be4c 213b 6184 b9ba 0de9 113b 2b70 90bb
00000280: e3c5 70bb b179 59bb 719c c6b9 09ed a6bb
00000290: 8b4b 863a e470 4bb8 5f64 9a3b 42b3 adb9
000002a0: 8a41 a43b dfd8 413b 7399 9636 4d7c 7ab9
000002b0: 4039 e039 34d6 013a 2b65 b9ba 634d 64bb
000002c0: edb7 37ba 1e0f 45bb 81ef b5ba c4d4 99bb
000002d0: dadc 963b 8f01 313b 3845 daba ed16 fcba
000002e0: 52a3 b43b 35e6 afbb 2831 b6bb 2909 96ba
000002f0: a1ad c73a 7476 90bb 52ff 6d3b 6d9b d1ba
00000300: 88cf 8e3b 9eb2 7a3b afa8 84bb 865e 503b
00000310: 2538 3e3b 43b0 69ba 22bc 843b c1df 9cbb
00000320: 5a64 a73a 864d b4ba cd0d aeb8 3dad 0fbb
00000330: 1a83 21bb 4b14 7c3b f08c 5c3b 4a7b 853b
00000340: c28a 92bb 110a 393a e389 c239 ce84 88bb
00000350: adb6 6e3b a76c f0ba 3b9c 46bb 48f3 81b9
00000360: 6e4e 303b 143f de3a 749f 973b e719 0e3a
00000370: b8a8 9ebb 83c0 07bb f80e 5bba 548f a83b
00000380: b0ff 283b 5efc ce3a ab3b 9abb 0c59 28bb
00000390: 60d3 173b f3de 4cbb 40fe 06bb 3b99 b43b
000003a0: b419 9e3a c892 223b 59d4 703b 9392 b3bb
000003b0: 00d0 d33a 0e3d 8dbb a59a e9ba 5f94 353b
000003c0: dcee b4bb 0c27 853b a80e e93a a76a 623b
000003d0: a790 2b3b f777 203b b0d2 1bb9 3c55 b03b
000003e0: 3a96 4abb 79e9 24ba 59ab a0ba c1cc ce3a
000003f0: a85f 3c3b 3724 653b 0995 323b 4ef1 80bb
0.000680083 -0.005419576 0.004886031 -0.0003205639 0.0018013844 0.0011035466 -0.0027761522 0.0004250612
0.0017614636 -0.005260256 -0.0044630263 -0.0043387995 -0.00028401698 -0.0028201495 -0.0053585605 0.005196078
0.00459114 -0.0020160126 -0.0040566023 0.0026980375 -0.0009755612 -0.0031669706 -0.0052306047 4.598355e-05
-0.0029001685 0.0014862533 0.0014590496 -0.0006863133 0.005770397 -0.0011139477 0.0056159627 0.0017083893
0.0017025754 0.0047400496 -0.0019218205 0.0053689564 0.002570144 -0.0016211581 0.0026537774 -0.005570435
0.0007213754 -0.0012642494 -0.0011810557 -0.0046168882 0.0028784 0.0020195767 -0.0024062889 0.0045576887
-0.001098843 -0.00013931119 -0.0034671887 0.001837234 0.0020885693 0.0010147906 0.0003681912 -0.00563629
0.0048690196 -0.00022901443 0.0034185757 0.0035496608 -0.005037197 0.0038450435 -0.0039289803 0.0018267796
0.0049959775 0.00497806 0.0017970986 -0.0051412107 0.003085251 -0.003481309 0.0023252019 -0.0054259105
-0.002404107 -0.00440875 -0.0011182085 -0.0019757717 -0.0055993684 -0.0056633633 0.00077460305 0.00078751944
-0.0022764527 -0.003061866 -0.0044210055 -0.003525199 -0.0022215087 -0.0023868282 0.0036622826 0.0014978689
0.004758834 -0.0047869678 0.0020446389 0.0013230402 -0.004677297 0.0030924594 -0.0024822785 -0.0022937641
0.00202201 0.0013498293 0.0003118937 0.0051881243 -0.0016509261 -0.0035365953 -0.0057721096 0.00123267
-0.004481137 0.004696828 0.0017122269 -0.0013687409 0.0036961257 0.0050484105 0.0042438335 -0.002226175
0.00051716575 -0.0030710723 0.0035945717 0.0054577747 -0.00016676032 0.003817946 0.0019521575 0.002832387
-0.004311002 -0.003991126 -0.0049341368 0.005535591 0.002361902 0.004267478 0.003991464 0.004662545
-0.0014045013 -0.0056283344 0.0007021347 -0.002373788 0.0024292893 0.002486499 0.00055946334 -0.005544047
0.001559291 -0.0031749108 -0.0026607367 0.004434423 -0.0029819238 0.0018352665 -0.0016606259 0.00023318239
-0.002695175 -0.0020922418 0.0049266345 0.0031646485 -0.0049130707 0.0051583075 -0.003476387 -0.0037274682
-0.005135399 -0.00033198614 -0.0026429368 -0.0056452285 0.0024612392 -0.0014153832 0.0022264153 -0.0044079027
-0.0036739043 -0.0033184106 -0.0003788206 -0.0050941748 0.0010245902 -4.850411e-05 0.004711672 -0.0003313069
0.0050126957 0.0029578728 4.488212e-06 -0.00023888164 0.00042767264 0.0004952878 -0.001414453 -0.0034836165
-0.0007008303 -0.0030068825 -0.0013880582 -0.004694553 0.0046039643 0.0027008986 -0.0016652709 -0.0019232907
0.0055126334 -0.005368019 -0.005560059 -0.0011446822 0.001523424 -0.004408652 0.0036315513 -0.0015991755
0.0043582357 0.0038253437 -0.004048429 0.0031794622 0.0029025164 -0.00089145097 0.0040507475 -0.0047874157
0.0012770996 -0.0013756014 -8.299537e-05 -0.0021923326 -0.0024644793 0.0038464244 0.0033653341 0.004073535
-0.0044721076 0.000705869 0.00037105297 -0.004166222 0.0036424801 -0.0018342928 -0.0030305523 -0.00024786056
0.0026902216 0.0016956055 0.0046271626 0.000542073 -0.00484189 -0.002071411 -0.00083564175 0.005144039
0.0025787167 0.0015791764 -0.00470682 -0.0025687842 0.002316676 -0.0031260818 -0.0020598322 0.0055114306
0.0012062103 0.0024806727 0.0036747663 -0.0054801195 0.0016160011 -0.004310257 -0.0017822577 0.0027706844
-0.0055216383 0.0040634926 0.0017780857 0.0034548433 0.0026178749 0.0024485567 -0.00014860439 0.0053812545
-0.0030912296 -0.00062908937 -0.0012258097 0.0015777574 0.002874354 0.0034964213 0.0027249476 -0.0039350158

_func._drift._model.0.bias f4 [16]
00000000: 443b b53b 0bd9 c4b9 31c7 173b 958e 0d3b
00000010: 061b c7b7 6f66 14bb 0576 803b 2880 acbb
00000020: 4ec8 aabb ba9c a7bb 0e5a 0abb 0202 ab3a
00000030: 8861 abb9 142b f738 0123 973b 0922 98bb
0.0055307467 -0.00037545743 0.0023159499 0.0021599878 -2.3735232e-05 -0.0022644063 0.003920319 -0.005264301
-0.0052118665 -0.005115119 -0.0021110806 0.0013046863 -0.00032688328 0.00011785902 0.004612327 -0.004642729

_func._drift._model.2.weight f4 [16, 16]
00000000: 10d5 22bb 4100 113b 260c b0bb 5683 c1bb
00000010: 6786 77bb 6473 b9bb f295 05bb c3e4 b1bb
00000020: 4ed1 33ba 8c5c 4e3b 4954 a0bb 7bd5 babb
00000030: 2c22 613b 3599 ffba ceae 1e3b f25d 2e3b
00000040: 4a14 a9ba 22f8 cfb9 3f0a a3b8 3aef 99bb
00000050: 1851 b13b edeb 9ab9 735f 0a3b 1c41 783a
00000060: d847 a23b 4a83 9bbb 1e32 80bb c3d9 13b9
00000070: ca92 18bb b68c 053b 808c ae3b 3b47 aab9
00000080: f7d8 a7bb 5023 a23b 744f c2ba 5774 fa3a
00000090: 07af fdba 6a21 ae3b 81d5 5ebb 106f 433a
000000a0: 05b0 2f3b 597f a0bb f588 db3a 0f89 61bb
000000b0: ebdb ab3b cbe2 9e3b d5ae f53a e6a2 3ebb
000000c0: 622a 6339 ad72 a63b b493 743b 6225 38bb
000000d0: c3a2 52bb 5588 c2ba 607d dcba f6f3 3cbb
000000e0: a3f2 bebb 9a9d 6138 e3f7 aa3a 2d07 8abb
000000f0: 75af 473b a2b9 29bb 75f2 6d3b 4e6a 2dbb
00000100: a60c b13b c487 61bb 36e4 a43a d711 db3a
00000110: 91d0 8e3b 2764 403b 1501 9abb 9391 85ba
00000120: 0160 9bb9 7cd2 503b ecc3 55bb 06d3 4b3b
00000130: a990 7abb e306 193b e0a2 8abb 8928 b93a
00000140: 99c1 cfb7 8aa5 903b 4320 34bb 2f37 c93a
00000150: 1709 89bb e990 38bb b1b1 533b 71c3 aa3a
00000160: aced 983b f9e6 2e3b f63d 6f3b 717d 44bb
00000170: 63fa 143a 556b b0bb fef8 e33a b6dc 8aba
00000180: 7eb3 0e3b bd45 06bb 8f34 d6ba f520 673b
00000190: 27c9 633b 3ddb aa3b 37e4 b8bb 3f74 06bb
000001a0: dfeb a7bb bd84 993a c21e a93b 8be2 e7ba
000001b0: c3e6 1cba cb73 e0ba 1655 05bb ce64 d63a
000001c0: 88ba 823b 6790 7cbb f648 9c3b 38f7 913b
000001d0: ef64 77b9 bb38 86bb 79e0 97bb 1987 86ba
000001e0: 7488 8ab9 80f5 95bb 8677 b6bb a9d5 ed3a
000001f0: f699 f839 81b2 863b e20b 963a 781d 163b
00000200: 815f 243a d30f 223b 4579 2ebb ba79 f337
00000210: bbd4 4e3b dc5b fe3a 5bdc 353b 7a13 a9bb
00000220: 6cb6 27b8 0cd5 48bb 23be b7ba 2531 2e3b
00000230: ce7e 9cba 535b 38bb 0a4c 04b9 d4d9 73bb
00000240: a658 22bb 48c9 2ebb 849f b03b b040 32bb
00000250: c10c 54bb e515 c7ba 83d2 8b3b 8d99 0438
00000260: d046 66ba 2e58 583b 3b68 793b 0f1c b43b
00000270: e891 84bb 29c6 493b 17d8 7fbb b771 3abb
00000280: 09c1 a03b 955b 083b 96d8 30bb cb8c c2ba
00000290: 8c88 633b f075 893a 9fa5 a6ba 32fb c8ba
000002a0: 81ea e2ba 3c26 71ba c1dd 943b eb09 89bb
000002b0: 190d 7a3b b916 793a fa0c c13b b298 003b
000002c0: 488a c2bb 4816 09bb f816 83ba 86db 073b
000002d0: c83a b3bb 9e7f 053b e3f8 a0ba 4db3 5bbb
000002e0: e623 8abb 1107 70bb d891 acbb 9d03 e2b9
000002f0: f242 1a3b 5abd 59bb 1303 5fbb aa6e 6c39
00000300: c536 9ebb c0ec 88bb 7928 cfba faf8 803b
00000310: 2ee9 463b a603 913a acd2 00bb 676c a5bb
00000320: a485 653b 1895 6439 8b3a 253b 008c 58b9
00000330: 7e6b 513b be40 39b8 b946 483b 2d9b 7dba
00000340: 54cf feba 9233 993a 5089 bfbb 8544 92bb
00000350: 955b 1b3a 1b23 ba3b 052f d7ba d7e5 f5ba
00000360: e333 633b f813 a53b 7803 6bbb 1243 ae3b
00000370: a1b2 fbba efbe 523b e764 e53a a055 513a
00000380: e985 9c3b 56ca 91ba 61a5 c1b9 ee3d 743b
00000390: e419 16bb 6d12 c33a ba94 633b 00a1 8d39
000003a0: 4011 bb3b 9308 c839 ff58 273b 0e71 5b3b
000003b0: 6205 a13b c77a 35bb 9bc0 1db9 492a 1cbb
000003c0: 7c1c 2fbb d581 20bb a503 443a 358c 87bb
000003d0: 6c71 1cbb 09c6 993b ec19 fe3a 42b9 c23b
000003e0: 032f 69ba 41a8 6cb9 58b2 47bb 5196 6d3a
000003f0: 5d28 ba3a b0f4 903b f2ae 92bb a94c f1ba
-0.0024846233 0.0022125395 -0.005372542 -0.005905549 -0.003776932 -0.0056595076 -0.0020383564 -0.005428882
-0.0006859497 0.0031488268 -0.00489286 -0.0057017184 0.0034352643 -0.0019500615 0.0024213078 0.0026606289
-0.0012899723 -0.0003966699 -7.774354e-05 -0.0046977075 0.0054112785 -0.00029548947 0.002111402 0.0009470151
0.004952412 -0.0047458755 -0.0039122244 -0.00014100135 -0.0023280852 0.002037806 0.0053268075 -0.00032477998
-0.0051223 0.0049480572 -0.0014824704 0.0019108158 -0.001935453 0.005314042 -0.003400177 0.0007455209
0.0026807797 -0.0048979935 0.001674919 -0.0034413969 0.005244722 0.004848813 0.0018744121 -0.0029088794
0.00021664196 0.0050795884 0.0037319483 -0.0028098454 -0.003214047 -0.0014841656 -0.0016822033 -0.0028831935
-0.0058272644 5.379096e-05 0.0013043847 -0.004212281 0.003046957 -0.0025898 0.0036307846 -0.0026461068
0.005403119 -0.0034413198 0.0012580219 0.0016713691 0.004358359 0.002935657 -0.004699836 -0.0010190479
-0.00029635432 0.003186374 -0.0032618 0.0031101122 -0.0038233197 0.0023350052 -0.004230842 0.001412646
-2.4766474e-05 0.004414265 -0.002748505 0.0015351529 -0.004181992 -0.0028162545 0.0032301957 0.0013028217
0.0046670046 0.0026687963 0.0036505437 -0.0029981995 0.00056830625 -0.0053838887 0.0017392931 -0.0010594341
0.0021774466 -0.0020488345 -0.0016342568 0.0035267447 0.0034757347 0.0052141235 -0.0056424397 -0.0020516065
-0.0051245536 0.0011712533 0.0051611373 -0.0017691416 -0.0005985314 -0.0017124353 -0.0020344905 0.0016356946
0.0039895214 -0.003853822 0.00476944 0.0044545196 -0.00023593356 -0.0040961183 -0.0046349135 -0.0010263651
-0.00026423077 -0.004576385 -0.0055684475 0.0018145341 0.00047416956 0.004110635 0.0011447633 0.0022905748
0.00062703347 0.002472867 -0.0026622575 2.902454e-05 0.0031559903 0.0019406038 0.002774975 -0.0051597925
-3.9985796e-05 -0.0030644564 -0.0014018457 0.0026579585 -0.0011939646 -0.0028130605 -0.00012616828 -0.0037208693
-0.0024772077 -0.0026670266 0.0053901095 -0.0027199201 -0.0032356235 -0.001518902 0.0042670383 3.1614258e-05
-0.00087843556 0.0033011544 0.003805651 0.005496509 -0.0040457137 0.0030788279 -0.0039038712 -0.0028449127
0.004905824 0.002080654 -0.0026984564 -0.0014842985 0.003471884 0.0010487419 -0.0012714154 -0.0015333651
-0.0017312319 -0.0009199118 0.0045430367 -0.0041820905 0.003815478 0.0009501982 0.0058914395 0.0019622263
-0.0059368946 -0.0020917822 -0.0010001352 0.0020730211 -0.0054696538 0.0020370255 -0.0012281205 -0.003352362
-0.004215705 -0.0036625306 -0.0052664094 -0.0004310877 0.0023538438 -0.0033224435 -0.0034028932 0.0002254794
-0.0048283064 -0.0041786134 -0.0015804908 0.0039359303 0.0030351388 0.0011063709 -0.001965682 -0.005048323
0.0035022283 0.00021799316 0.0025211896 -0.0002065152 0.003195494 -4.4167733e-05 0.0030559732 -0.0009674307
-0.0019440451 0.0011688343 -0.0058452263 -0.0044637346 0.00059264275 0.0056804544 -0.0016417211 -0.0018760514
0.0034668378 0.005037781 -0.0035860222 0.005318054 -0.0019203016 0.0032157262 0.0017501385 0.00079854764
0.0047767055 -0.0011122923 -0.00036935046 0.0037268358 -0.0022903616 0.0014882811 0.00347261 0.0002701357
0.0057088435 0.0003815336 0.0025535224 0.0033484134 0.0049139718 -0.002769159 -0.00015044438 -0.0023828915
-0.002671986 -0.0024491448 0.000747735 -0.004136587 -0.0023871316 0.004692797 0.0019386387 0.0059424946
-0.000889525 -0.00022569393 -0.0030471291 0.00090632314 0.0014202703 0.0044237003 -0.0044764215 -0.0018409687

_func._drift._model.2.bias f4 [16]
00000000: 51e9 a53b 819c 81bb a11b 243b 9c86 8dbb
00000010: a053 30bb 69bf b7bb 8718 5ebb 1e5c 3dbb
00000020: 7849 9f3b 7c08 7abb 4159 873b 6f81 2a3a
00000030: 7d99 2c3b 389d 833b 825d 913b 6dd6 96bb
0.005063214 -0.0039554243 0.0025040882 -0.004319025 -0.0026905313 -0.0056075347 -0.003388913 -0.0028894017
0.004861053 -0.003815203 0.004130513 0.00065042725 0.0026336603 0.0040165447 0.004436196 -0.0046031983

_func._diffusion._model.0.weight f4 [16, 17]
00000000: e79b a33d 66cd 7dbd dc75 2bbd 922a 943d
00000010: a559 e6bd a16a 3dbd 43d6 583d 3ca1 703c
00000020: 3159 b0bc b973 a73d 99ca 883d 1123 793d
00000030: 72df c63c d8c2 c13c a379 05bd a8d0 d53c
00000040: bb66 83bd a2fd 4ebd 0687 373c b5cb 6bbd
00000050: c310 afbc eac1 44bc 867f 2d3d 9fd7 b23c
00000060: 274b 403d 5d1a f13c 193c 8cbc 4761 5d3c
00000070: e830 6eba bd2b 323d 2618 263d 9f1f 4e3b
00000080: 77f9 8ebc 1835 9dbd b508 6c3c e885 0e3d
00000090: 16fa 1f3d d910 5a3d 9ff6 14bd d126 613d
000000a0: ea8a 5bbd ff31 cbba 31cf 093d e277 0c3d
000000b0: 882b 5a3d 65d7 843d 242a 54bd 9507 08bb
000000c0: c6de 2b3d 48af 973c 37af c73b 7e28 eb3c
000000d0: 9b5a 533c 5e77 3ebc a2de babc a9da f4bd
000000e0: bcec cc3c 0b99 83bc 47b1 d63c 4f5e a9bd
000000f0: 56ef 933d a6f3 8b3c d44e 2d3d 90a2 073d
00000100: 80d0 fcbc 151e a1bd 5260 19bd 7c60 48bd
00000110: 5262 acbd 7619 573c d8f4 d03c a5cd 93bd
00000120: 794e 843d dc0a 8cbd 41c1 243b 5a38 c7bd
00000130: b0bc f83c 2ae9 e4bd f50e 38bd f6b9 ccbc
00000140: 9838 b2bd 3ee8 13bd b778 853b cbba 35bd
00000150: 4cc5 3a3c 7da4 b23d 0f3a aabd 9666 a13c
00000160: d8ec a7bc 10e7 cfbd 41ba 5fbd f88d f6bc
00000170: 4a33 0b3b 03a4 9ebd 91d0 843d 12f3 bfbc
00000180: db61 903d 923a 4fbd cf79 3abd bdde 023d
00000190: 0f86 403d 5423 123b 38c3 efbd 2cc9 95bc
000001a0: f9e4 c9bc a3e6 59bd f4b8 3a3b 83ea 87bd
000001b0: 9835 fb3b eae5 98bc e0c1 613d 4437 abbd
000001c0: f776 6bbd 57d1 55bd 087b 7abd 79db 19bd
000001d0: 255f 313d 195b b9bd 3275 293d be5e 0fbd
000001e0: 60e0 08bb cdb6 95bc a965 aebd e9a6 b4bb
000001f0: 1c40 91bc 15ab 13bd 8c1d 83bd 3cb0 703b
00000200: 381d 96bd 31d3 52bd f6f7 a2bd cec5 f9bc
00000210: 83e7 d03b 171e d7bc 9060 87bd 3df5 ef3c
00000220: 6731 183d 91ae 94bd a033 dabb 5dca f53c
00000230: 7295 c3bd 7f62 7bbc 3d97 173d 9abe 713d
00000240: 0149 0ebb 7282 fabb c79b c03b 0d94 4c3d
00000250: 8be2 40bd 2898 f23c f1e0 6cbd 8d9c 993c
00000260: fd49 50bd 8303 16bd fb80 3b3d e422 8e3b
00000270: 9079 e2bd 32a0 9f3b e7ee 11bd 85e5 0bbd
00000280: 8553 82bd 9e29 2a3d db4a 42bd 58ea b8bd
00000290: 2b36 28bd 19b6 52bc 11b7 5fbb 9c24 9cb9
000002a0: 4f66 9fbd 44b4 343d 11b8 cdbd 712b 32bd
000002b0: 48fa 2cbd e59c cabc 0bc1 473d bf76 a33c
000002c0: b227 8dbd 09a4 34bd 846f 743d 53eb 00be
000002d0: 94fd 88bd dfd6 f8bc 8cc6 3bbd c43b e13b
000002e0: b55c 09bd 64cf 43bd e5a3 ba3c c144 023c
000002f0: 52a0 cb3c 1d25 80bb b9ad 0c3d 310e 13bc
00000300: 9b77 65bc d572 c4bb 40b3 5c3d 7da2 abbd
00000310: 9740 023c 0d4d eabc 0f7c 7a3d ebed 013d
00000320: 1fd8 b2bd 0938 a6bc 1bcb 6b3d df7d 80bd
00000330: 2f5d 80bd 9950 6b3b bfcb c23b b683 bcbd
00000340: 948e 203d 6558 5d3b 9fe3 83bd a51d a4bd
00000350: 7d6b 713c 0523 3fbd cd30 a0bd 37ed 60bd
00000360: 029d 2cbd 6e9a d43c 0f5b 81bc 33d7 3cbd
00000370: 1a0c 713d 1a8f 843d cf40 4c3c 34c6 6dbb
00000380: 8574 823d 66c1 8cbd bef8 1abd 0364 71bc
00000390: e2d6 043d 7f21 64bd 243f 9d3d 2c73 883d
000003a0: 65f2 5b3d 8d7b ad3c c6ee 893c bf05 7fbc
000003b0: c44d 81bc b347 45bc 5f55 1a3c 43a6 063b
000003c0: ee53 c83c 3014 f93b be1b 95bc 9ffa 1d3c
000003d0: 703b c0bb ee42 143d 3d99 9cbd ac79 6d3c
000003e0: 7266 dc3c f6e1 023d ac8a bcbb 54b5 b8bd
000003f0: be9f 04bd 77ea 1e3d 3369 cebc b925 52bb
0.079887204 -0.06196346 -0.041860446 0.07234682 -0.11247567 -0.046244267 0.05293871 0.014686879
-0.021526905 0.08176369 0.066792674 0.060824458 0.024276469 0.023652479 -0.032586705 0.026100472
-0.06416079 -0.05053485 0.011201626 -0.057567317 -0.021370297 -0.012009123 0.042357944 0.021831332
0.04694667 0.029431516 -0.0171185 0.013511962 -0.0009086267 0.043498743 0.040550373 0.0031451953
-0.017452938 -0.076761425 0.014406373 0.03479567 0.03905686 0.053238723 -0.03636801 0.05496866
-0.053599276 -0.0015502571 0.03364486 0.034294017 0.05326417 0.06486396 -0.051798 -0.0020756472
0.0419605 0.018516198 0.0060938853 0.028705832 0.01290002 -0.011625139 -0.022811238 -0.119557686
0.025015227 -0.016064188 0.02620758 -0.08269941 0.07223384 0.017083954 0.042311504 0.033114016
-0.03086114 -0.07867066 -0.037445374 -0.04892014 -0.084171906 0.013128629 0.025507376 -0.07216958
0.0646028 -0.06838009 0.0025139602 -0.09727545 0.03036341 -0.11177285 -0.04493614 -0.024991017
-0.08702201 -0.036110155 0.004073228 -0.044367593 0.011399578 0.0872278 -0.08311855 0.019702237
-0.020498678 -0.101514935 -0.054620985 -0.030096993 0.0021240287 -0.077461265 0.064850934 -0.023431335
0.070499144 -0.050592966 -0.045526322 0.0319507 0.04700285 0.002229889 -0.11707157 -0.018284403
-0.024645315 -0.053198468 0.0028491588 -0.066365264 0.007666301 -0.018664319 0.055116534 -0.083601505
-0.0574865 -0.052201595 -0.061152488 -0.03756282 0.043303628 -0.090505786 0.04137153 -0.035002463
-0.002088569 -0.018275643 -0.08515484 -0.0055130613 -0.017730765 -0.03605183 -0.0640212 0.0036726138
-0.07329792 -0.05147094 -0.07957451 -0.030489828 0.0063752546 -0.026259465 -0.06610215 0.029291743
0.03715649 -0.072598584 -0.006658986 0.03000372 -0.09549989 -0.0153433075 0.037009466 0.059019662
-0.0021710994 -0.007644945 0.005877945 0.04994588 -0.04709105 0.02961357 -0.05783171 0.018751407
-0.05085181 -0.036624443 0.045777302 0.0043376554 -0.110583425 0.0048713917 -0.035628226 -0.034154434
-0.06363586 0.041543595 -0.04743467 -0.090290725 -0.041067284 -0.012860798 -0.0034136216 -0.00029781915
-0.07783186 0.044117227 -0.100448735 -0.04349846 -0.042230874 -0.024733016 0.048768084 0.019954083
-0.06892337 -0.04410175 0.059676662 -0.12589769 -0.06688991 -0.030375896 -0.045843646 0.0068735797
-0.033535678 -0.047805205 0.02278323 0.0079509625 0.02485672 -0.0039106742 0.034345362 -0.008975551
-0.014005567 -0.0059951344 0.053881884 -0.083806016 0.00794997 -0.028601194 0.061153468 0.031721037
-0.08732628 -0.020290392 0.057566743 -0.06274008 -0.06267773 0.0035906194 0.0059446986 -0.09204809
0.039198473 0.003377461 -0.064399 -0.08013467 0.0147351 -0.046664257 -0.07821808 -0.054913726
-0.04214192 0.025952544 -0.01579049 -0.046103667 0.05884943 0.06472607 0.012466623 -0.0036281468
0.063698806 -0.06872825 -0.037834875 -0.014733317 0.03243149 -0.055696007 0.07678059 0.06662592
0.053697962 0.021177078 0.016837489 -0.015565335 -0.015784152 -0.01204102 0.009419768 0.0020545877
0.024454083 0.0076012835 -0.018201705 0.009642272 -0.0058664605 0.03619664 -0.076464154 0.014494341
0.026904318 0.031953774 -0.0057538357 -0.090189606 -0.032378905 0.03879782 -0.025196647 -0.0032065941

_func._diffusion._model.0.bias f4 [16]
00000000: 0357 db3d 995c 633c 366a 803c 734b c73d
00000010: 0f24 2fbc 91d2 733c 8f68 72bd e2d7 cebd
00000020: 2d0d 6f3d 838a e4bc bf1e adbc 662d 4d3d
00000030: 3b69 a8bd c419 be3d b6f2 9e3d e166 0a3c
0.107099555 0.0138770575 0.015675645 0.09731188 -0.010689749 0.014881746 -0.059181746 -0.1009977
0.058362175 -0.027898079 -0.021132825 0.050092123 -0.08223196 0.09282258 0.07761137 0.00844738

_func._diffusion._model.2.weight f4 [48, 16]
00000000: 02c5 933d 43e2 553d 9323 11bc fc35 3e3d
00000010: 0172 c8bd f62d 273d 159d 663b 4271 d9bb
00000020: c085 193d 48ff b0bd b052 323c d9a6 7b3d
00000030: 9868 69bd 006d d1bc 39b1 94bc 31a9 913d
00000040: 6b53 113d 653f 21bd fca6 e4bc 5a4f 373c
00000050: d530 95bd 93cf 503d ba62 11bd 28be b5bd
00000060: 874a 9f3d a776 25bc 0f36 093c bad9 893d
00000070: ed37 80bc 5648 d2bc daf4 eebc 94bf 6bbc
00000080: 2492 1b3c 5677 bfbc c98b 0ebd 446a c73d
00000090: 5715 b0bd ba37 233d 727d 3cbd 6b8f c33c
000000a0: 59b7 5cbc b6d9 febc 4e4e b6bd 2b24 b2bc
000000b0: 2e5e fabc 86e1 283a 0a87 b63c 7a13 9fbc
000000c0: b3d2 943d 4491 6b3d 6433 58bd 6e56 643c
000000d0: bf97 9d3b 9129 8cbc f166 33bd 0d5f 0dbd
000000e0: 30ff 623d 391c 2fbd 5634 94bc a2c4 4abc
000000f0: 5eec c4bc 8661 dcbb 36a5 7f3d 9169 253d
00000100: 3944 893d ccae f13b c278 14bc 10e1 c33d
00000110: 5e00 2fbd 1bb8 8a3d 98bd 8dbd 0064 073c
00000120: 50d1 413d b514 aabd 5620 14bd d120 1cbd
00000130: 0554 e8bc 61dd ae3b c159 2c3b 7402 6b3c
00000140: 81df b83d 14e1 883c 3a26 50bd 968d 893d
00000150: 808b edbc 4169 383d a9c7 f5bc 1db9 9abc
00000160: 59f0 0c3d e7e2 2dbd 936f 9dbb 2dae 733d
00000170: 6ada bebd f29c bd3c 03e8 a63c 2bfd 793d
00000180: 811d a03d 4b77 1c3d 0b6a 77bd 43ad d33c
00000190: e029 7b3b 6142 003c 05ba 36bd c557 92bd
000001a0: 7493 513d 9702 aebc 1eba 24bd d1d6 393d
000001b0: d12d 3abd 0237 abbb b82d 983d 9d29 513d
000001c0: 4a1f b03d be49 c13b c66b 0fbd bed1 863c
000001d0: 5746 82bd e0bb a63a b006 62bc 537d 80bd
000001e0: d5e2 be3d 39c0 aebd aa92 c7bc 9b9e 6d3d
000001f0: 66ce b6bd d16b 2f3d 6ba2 a53d 2e04 263d
00000200: 1373 e1bc 301f bebc 9ba7 8cba efbf 173d
00000210: 95a3 62bd c9df 3c3d 79d6 c3bc e6ac 9d3c
00000220: 9a34 283d 6d91 f33b 57b8 35bd 34cf ba3c
00000230: 2ca5 a33b fc8c df3c 0e64 893d c446 6c3d
00000240: 2d54 c9ba 9dfa 68bc 5c8a 28bc d53d 9a3c
00000250: d59e e7bc 4d10 3f3d cef8 093c 0ae6 a1bd
00000260: 26fc 423d 5c30 1dbd 6135 7dbd 5c25 863d
00000270: 7d32 babd b39d 173b adbc 753d d5e3 f8bc
00000280: eabd ce3a 91da e7bb c0fe 283d cb08 343d
00000290: 8010 d6bd 4ab7 853b 09ad 87bd 1372 94bd
000002a0: d1f5 793c 33e0 86bd 689b cfbd 8faf 213d
000002b0: 435b 5ebd 93ed 953d ff53 a33c 1dfb 843d
000002c0: 629c af3d c4f1 383b e434 21bd 73ad fa3c
000002d0: 2237 babd f26f d23c 3779 88bd 3795 a1bd
000002e0: a2ed b7bc b547 adbc e726 643c d370 48bc
000002f0: afec aabd 432e 8c3c 83ff 053d 961b 943d
00000300: 558f 04bd 3546 b73c 6dfe 4c3c 8d23 4cbd
00000310: cffa 2b3b 3d8f 4dbd 3d12 033c 4602 e0bc
00000320: 0204 87bc dcba b13c 1d5b 6a3d 6ab7 90bc
00000330: 04a6 783d 4f6c 45bd fbe1 aabd bb53 94bd
00000340: ae76 2a3c 0fad 00bc d296 7fba fdf3 c8bd
00000350: 945a 853c 5255 80bd 11bc b93b 1cd3 073d
00000360: f8d2 90bd 81aa 6b3c 4c6e 313d 1d2d 29bd
00000370: 3183 5f3d 1be2 f53c 44f6 183d 171c c93c
00000380: 86d8 51bd d087 c23c a139 193d acf0 50bd
00000390: d75c 903d 0093 233c 132b 073d 0f36 ad3d
000003a0: 728c e3bc c489 983d 1e49 ce3b 8bd6 bebc
000003b0: a9a9 a83d 21a2 53bd bbc8 19bd 0b62 a0bd
000003c0: 5874 00bc b5a6 dfbb bf80 32bd 53c5 ea3c
000003d0: e390 27bd e696 90ba 2761 88bd 26d5 a5bc
000003e0: cfbb 973b d947 b6bd 372c 81bd c331 4b3d
000003f0: cde6 823a e696 873d 612d 3bbb 2be6 f63c
0.07215311 0.052217733 -0.008858579 0.046438202 -0.097873695 0.040815316 0.0035188843 -0.006635816
0.03748107 -0.08642441 0.010883972 0.061438415 -0.056984514 -0.02556467 -0.018150913 0.07112349
0.035479944 -0.0393671 -0.027911656 0.0111883525 -0.072847046 0.05097921 -0.035494544 -0.0887416
0.07777887 -0.01009909 0.008374705 0.06730981 -0.015651667 -0.025669258 -0.029169489 -0.0143889375
0.009495292 -0.023372333 -0.03480128 0.097370654 -0.0859782 0.039848067 -0.04601807 0.023872098
-0.013471448 -0.031109672 -0.08901654 -0.021745762 -0.030562486 0.0006442297 0.022281189 -0.019418467
0.0726675 0.057511583 -0.052783385 0.013936622 0.0048093493 -0.017109664 -0.043799344 -0.034514476
0.055419147 -0.042751525 -0.018091362 -0.0123759825 -0.02403849 -0.006725493 0.062413417 0.04038388
0.067024656 0.0073755737 -0.009061994 0.09564412 -0.04272496 0.067733966 -0.06920928 0.008263588
0.047318757 -0.08304731 -0.03616365 -0.038117234 -0.028360376 0.005336449 0.0026298615 0.014343847
0.09027005 0.016708888 -0.050817706 0.067164585 -0.028997183 0.045022253 -0.030002432 -0.018887097
0.0344089 -0.04245272 -0.0048045604 0.05949228 -0.09319003 0.023146126 0.020374304 0.061032455
0.078181274 0.038199704 -0.060403865 0.025839454 0.003832452 0.007828326 -0.044610996 -0.07145647
0.051166013 -0.02124147 -0.040216558 0.04537088 -0.04545385 -0.0052250633 0.07430595 0.051065076
0.08599718 0.0058986833 -0.03501489 0.016457435 -0.063610725 0.0012720786 -0.01379554 -0.06273904
0.093206085 -0.08532757 -0.024361927 0.058012586 -0.08926086 0.04282743 0.080876194 0.04053133
-0.027520692 -0.02320823 -0.0010731103 0.037048277 -0.055331785 0.046111856 -0.02390598 0.019247483
0.04106579 0.0074331076 -0.044365253 0.02280388 0.0049940553 0.027288906 0.06708537 0.057684675
-0.0015360169 -0.014219907 -0.010286894 0.018828312 -0.02827398 0.046646405 0.008421136 -0.079052046
0.04760375 -0.038376197 -0.061818484 0.065500945 -0.09091661 0.0023134768 0.05999439 -0.030382076
0.0015773152 -0.0070756157 0.041258574 0.043953698 -0.10452366 0.0040806876 -0.06624801 -0.072483204
0.015256361 -0.06585731 -0.10137063 0.039474066 -0.054286253 0.07320704 0.019937513 0.064932086
0.085747495 0.0028220275 -0.03935708 0.030600285 -0.09092547 0.025688145 -0.06663745 -0.078897886
-0.02245218 -0.021152357 0.013925291 -0.012233931 -0.08345925 0.017111903 0.032714378 0.07231824
-0.032363255 0.022372345 0.012511832 -0.04983859 0.0026242023 -0.05018543 0.007999954 -0.027344834
-0.016481403 0.021695547 0.0572158 -0.017665584 0.0607052 -0.048198994 -0.083438836 -0.07242533
0.010404272 -0.00785376 -0.0009749952 -0.09812162 0.016278543 -0.062662736 0.005668171 0.033160314
-0.07071489 0.014383913 0.043318078 -0.04130279 0.054568473 0.030015042 0.037344232 0.024549527
-0.051231883 0.023746401 0.037408475 -0.051010773 0.07048958 0.009983778 0.033000063 0.084575765
-0.02777693 0.07448152 0.0062953373 -0.023295661 0.08235485 -0.05166829 -0.037544947 -0.078312
-0.0078402385 -0.006825293 -0.043579813 0.028658545 -0.04090966 -0.0011031299 -0.06659155 -0.020243239
0.004630543 -0.089004226 -0.063072614 0.049608003 0.0009986997 0.066205785 -0.0028560983 0.03013905

_func._diffusion._model.2.bias f4 [48]
00000000: 2a6f 893d d831 b13d 4850 ca3d 8caf 9f3d
00000010: eacb f13c 6b44 533d a149 153d 6cbd 6c3d
00000020: 672b b53c c70b e83c 3673 e13d afe9 dd3c
00000030: 0e9b 29bd 000d 6fbc 4706 9fbd 07f3 213a
00000040: 0b39 b83b c643 8c3d 9635 67bd 3589 dbbd
00000050: 46cc bdbd 4495 19bc d5ee 4abd 8797 d0bd
00000060: 64a9 cdbc cca3 b7bc 9706 663d 077f 91bd
00000070: d8b2 d8bc 4de3 32bd 2f7a 60bc 1fea 6bbd
00000080: 57c0 dcbd 8259 bf3d fd58 923d bf41 b13d
00000090: 0847 2e3d 3d17 293c 1e37 963c edba f53b
000000a0: a227 bbbc 104e 8bbd b053 393d b931 903d
000000b0: 4717 c43d f1e5 5abd bf0c 8dbc 78c7 c43a
0.06710656 0.08652085 0.09878594 0.07797155 0.02951618 0.05157892 0.03644717 0.057797834
0.022115422 0.028325928 0.11008303 0.027088968 -0.041407637 -0.014590502 -0.07764869 0.00061778765
0.0056220344 0.06848864 -0.056447588 -0.107195295 -0.09267478 -0.009373967 -0.049544174 -0.101851515
-0.025105186 -0.022416972 0.05615863 -0.07104307 -0.026452467 -0.043673802 -0.013701006 -0.057596322
-0.107788734 0.09343244 0.071458794 0.08655118 0.04254821 0.010320482 0.018336829 0.00749909
-0.022846047 -0.068019986 0.045245826 0.07040734 0.09574752 -0.053441945 -0.017217992 0.001501306

_readout.weight f4 [1, 16]
00000000: ed8d bebd 9cea 44be 4f73 78be a80d 50be
00000010: 8db6 9a3d d9b9 cabd 12e2 9a3b 5f5f 063e
00000020: c30e efbc ac65 893d 8ea1 ad3d ac91 8bbe
00000030: b93f 71be 5794 c0bb cd17 90bd 0c51 183e
-0.09304414 -0.19230121 -0.24262737 -0.2031771 0.0755435 -0.09898729 0.0047266567 0.13122319
-0.029181844 0.067088455 0.0847808 -0.27259576 -0.23559465 -0.0058770585 -0.0703579 0.14874667

_initial._model.0.weight f4 [16, 2]
00000000: 7395 23b6 759c afbe b730 2fb6 afd2 9a3f
00000010: 09cd c234 50fb 37bf 3137 b936 10eb 10bf
00000020: 3014 8ab6 b8a9 a0be 9d8f 3c36 4da8 32bf
00000030: bde3 3f36 c5ab 643f 86ab dfb5 0842 ab3f
00000040: 3eb3 5e34 1d3d 3dbf fc0d 55b6 a451 3c3f
00000050: 1076 7eb6 3adb e03d 2f64 ba36 98cd adbe
00000060: 4286 c0b6 f4b9 b1bf f3d6 3736 82d1 bd3e
00000070: 8dfe 9d35 9278 1e3f 13c4 d9b5 b40d 1f3f
-2.4375884e-06 -0.34299055 -2.6105388e-06 1.2095546 3.62845e-07 -0.7186785 5.5198548e-06 -0.56608677
-4.1150706e-06 -0.31379485 2.8097777e-06 -0.69788057 2.859378e-06 0.893246 -1.6664715e-06 1.3379526
2.0740569e-07 -0.73921376 -3.1747613e-06 0.73562074 -3.791767e-06 0.10979314 5.554895e-06 -0.33945918
-5.7376756e-06 -1.3884873 2.7394242e-06 0.37073904 1.1771496e-06 0.61902726 -1.6224825e-06 0.62130284

_initial._model.0.bias f4 [16]
00000000: 9c72 01bf 8ff3 07bd 7472 963d d310 0b3f
00000010: 73d9 7fbe 5ff8 89ba ce52 a6be 0d72 05bf
00000020: 4d85 403f 50b4 113e c49d 90bd e361 00be
00000030: 9c82 5fbe 0678 b3be 4299 7f3d fde3 bb3e
-0.50565505 -0.03319126 0.07346049 0.54322547 -0.24985294 -0.0010526291 -0.3248505 -0.5212715
0.752034 0.1422894 -0.070613414 -0.12537341 -0.21827167 -0.35052508 0.062402017 0.3669738

_initial._model.2.weight f4 [16, 16]
00000000: b752 28bd da45 fabe 2700 86bc 91bb 70bd
00000010: e02c 7fbe 322f 1abe e17a 1fbe 594e 47be
00000020: b0b4 2abd 2c8b 5bbe 13b7 c5ba 33e2 2ebe
00000030: f9c0 3fbe 2d7c e0bd cbf7 aa3d 96ab 51be
00000040: 19ee d53d 669e c23e ebb6 d53e 8749 893e
00000050: 0565 2b3e 08b1 c03e 7d41 723e 358d 893e
00000060: d455 523e 9517 623e 2e2b efb9 28e2 103e
00000070: 10ca 013f 71a3 33be 1747 8c3d 73ee 8e3e
00000080: d875 8dbe 5b6f c53e c8b4 013e e32c 1c3e
00000090: 1b7f bdbe 8ebc 103e fee6 943d 74bf 013e
000000a0: e65b 7d3e 765c e53e ba69 88be c64b 88be
000000b0: 5eeb 913e 50cf c2bc 04bc 953d ae76 083f
000000c0: d0b9 8f3c 7091 1b3f 2f2b 2d3e 7316 c83d
000000d0: 87d3 8dbd cb1a af3d 49ce a73e f41b dc3e
000000e0: 5182 353e 8351 ea3d 0efc 41be 3b78 353e
000000f0: e11d 8e3e be5c 02bd 4bbc a43e 6d95 9b3c
00000100: 457f d8bd b855 e83e adee 3c3e 1e5a 1d3e
00000110: f0b6 7dbd c88c a93e 4a49 c83d e526 fe3e
00000120: 296f 24be 4d4e 993e 6aa1 43be 5c51 f33d
00000130: 4211 1c3f 3f7f 123d b597 9cbd 037e 90bc
00000140: dead df3c f491 043f 735c 84bd 54b1 b93d
00000150: 671a 753e 3376 5c3e f8de 8f3e 7702 f03e
00000160: c223 a33d d60b 9a3e 5de8 073e 5d4c 9cbd
00000170: 7cfb a23e a271 2a3e 528f e33d 2cee 8fbd
00000180: d477 5a3e 50a5 38bc 6468 193c e580 cfbd
00000190: 3bec 9f3e 9b33 a7bd 9e42 b73d 38e3 82bc
000001a0: ccbb 25be 73f9 d7be b1fd b43d 5d17 cd3e
000001b0: 01d7 133e 6556 68bc 00b5 78bd 0346 a3bd
000001c0: fcb4 22be 3549 a5be ff89 5f3d 97fb 8fbe
000001d0: 9814 963d b462 02be a8e2 33be 453c d4be
000001e0: 49e9 07be 92ee 013c 3884 f83d f4d9 1ebd
000001f0: ff36 1abf ae75 823d a466 3a3d c666 72be
00000200: d1cb 9e3e 0672 0f3e 55f3 76bd 1e56 e13d
00000210: 6bd1 183e 989c a93d 4a1a a83e eb4c 013f
00000220: e3a7 e3bd 4110 603e 991a acbb 383e 433e
00000230: 3a89 1d3f 4d57 093e 1890 25be dd16 623e
00000240: f273 073e 047d 6ebe f23f 6cbe b595 fdbb
00000250: f0e0 0abe b21b e9be 6eca 7dbe 318c 94be
00000260: 7c9c 56be 21d5 9dbb d9b9 4f3e 9dd7 673d
00000270: 6981 20bf 4ba5 06be 1003 f9bd 159b 903c
00000280: 4d00 f1bd dd8f 0d3e 6fab 3e3e 1592 18be
00000290: 93a7 87bd 6939 d23e 2ff2 953e 3f4d aa3e
000002a0: 0727 ad3b d246 7c3e 6189 c0bd 18d3 8d3e
000002b0: 1e87 603e 77a8 313e c1d8 7bbc aa54 64bd
000002c0: 360f b1bd 9fe4 7f3e 3244 373e 9cb7 ca3d
000002d0: 26de 503e e993 b63e 775c 523e 0268 dd3d
000002e0: eb05 503e 41c5 4f3d e8cd a4bd e59f 9f3d
000002f0: 942e 173f fdda 13be bcca 263e bb4f a33d
00000300: 02a6 07bd 4e7d 993e dc48 093e 5eba 3ebe
00000310: fd1e ad3d 71c6 9d3e e181 a23e bc0b b33e
00000320: d2bd 4b3e eeeb 6b3e fbf5 a6bd c20f 98bd
00000330: 3a4f 0d3f 5962 b03e ddac 603e ef43 2d3e
00000340: 25ed 223e af68 c13e eee6 c03e 93cd 893e
00000350: 1032 90bd 7d5b ec3e 6368 a53e 0f44 9f3d
00000360: e5a5 2b3e 1ab3 283c 9f9d dbbd fa77 d73d
00000370: 2739 1c3f 8f12 1bbe 8008 313e 081a 573e
00000380: 2417 a13e 832d 7fbe e377 9d3e ef17 393e
00000390: 3d7a 1c3e d4db e73e 748a 1e3e 23a2 3dbd
000003a0: 0c71 82bd c6f4 afbd 3d4d f1bc 7932 d43e
000003b0: c90d b63e 8f13 84bd 7184 a7bd 9d1d 9ebe
000003c0: a717 09bb eb71 d5be 2b9a 6bbe 0949 8d3d
000003d0: 5048 71be 0371 4abe 7416 98be 1c70 d0be
000003e0: d883 1ebe 0e41 07be cfb1 babc bfcf 53be
000003f0: 59df ecbe 1783 70be f61c afbb f8f6 a4bd
-0.041094508 -0.48881418 -0.016357495 -0.058772627 -0.24919462 -0.15057066 -0.15574218 -0.19463481
-0.041676223 -0.21439809 -0.0015084468 -0.17078476 -0.18725957 -0.10961185 0.08348044 -0.20475611
0.10445804 0.38011473 0.41741118 0.2681391 0.16737755 0.37635064 0.23657794 0.26865545
0.20540553 0.22079308 -0.00045617804 0.14148772 0.5069895 -0.17542817 0.06849497 0.27916297
-0.2762897 0.3856152 0.12666619 0.15251498 -0.37011036 0.14134428 0.07270621 0.1267069
0.24742088 0.44797105 -0.26643163 -0.2662031 0.28499883 -0.023780495 0.07311252 0.5330609
0.017544657 0.60768795 0.16911004 0.09769907 -0.06925111 0.08550032 0.3277457 0.42990077
0.17725493 0.114413284 -0.18943807 0.17721646 0.2775717 -0.031826727 0.32174906 0.01899215
-0.1057115 0.45377898 0.18450423 0.15366408 -0.06194204 0.3311522 0.09779604 0.4963905
-0.16058029 0.2994255 -0.19104543 0.118807524 0.60963833 0.035765883 -0.07646123 -0.017638212
0.027304586 0.51785207 -0.06462946 0.09067026 0.23935853 0.21529464 0.280998 0.4687688
0.07965805 0.30087155 0.13272233 -0.07631753 0.31832492 0.1664491 0.111113206 -0.070278496
0.21334773 -0.011269882 0.009363268 -0.101320066 0.31234917 -0.0816414 0.08948253 -0.015977487
-0.1618492 -0.42182502 0.0883745 0.40056887 0.14437486 -0.014180754 -0.06071949 -0.07972338
-0.15889353 -0.32282415 0.054574963 -0.28121635 0.07328147 -0.12732965 -0.17566931 -0.41452232
-0.13272585 0.007930415 0.12134594 -0.038782075 -0.6024017 0.06370102 0.045508042 -0.23672017
0.31014875 0.1400834 -0.060290653 0.11002754 0.14923637 0.08281821 0.32832557 0.5050799
-0.11116006 0.218812 -0.005252194 0.19066703 0.61537516 0.13412209 -0.16168249 0.22079034
0.13227823 -0.23289877 -0.23071268 -0.0077387937 -0.1356237 -0.45528942 -0.24784252 -0.29013208
-0.20958132 -0.0048166667 0.20285739 0.05660211 -0.62697464 -0.13148992 -0.12158787 0.017652074
-0.117676355 0.1382441 0.18620084 -0.14899476 -0.06623759 0.41059425 0.29286334 0.3326206
0.0052841934 0.24636391 -0.09401203 0.27700114 0.21926543 0.1734942 -0.015371502 -0.055744804
-0.086454794 0.24989556 0.17897108 0.09898302 0.20397243 0.35659721 0.20543085 0.108108535
0.20314758 0.050725225 -0.08047086 0.07794169 0.5905545 -0.14439006 0.16288275 0.07974192
-0.0331173 0.29978412 0.134067 -0.18625781 0.08453176 0.3081546 0.31739715 0.3496989
0.1989663 0.23039219 -0.08152386 -0.074248806 0.55199015 0.34450033 0.21940942 0.16920446
0.15910776 0.3777518 0.37676185 0.26914653 -0.07040799 0.4616355 0.32306203 0.07776653
0.16762502 0.010296607 -0.10723423 0.105209306 0.6102471 -0.15143798 0.17288399 0.21006024
0.31462967 -0.24919705 0.3075553 0.18075536 0.15281005 0.45284903 0.15482503 -0.046297204
-0.06369218 -0.08591609 -0.029455775 0.41444758 0.35557392 -0.06449043 -0.08179558 -0.30881968
-0.002091864 -0.41688475 -0.23008029 0.06898696 -0.23562741 -0.19769673 -0.2970463 -0.40710533
-0.15479982 -0.1320841 -0.022789864 -0.20684718 -0.4626415 -0.23487507 -0.0053440286 -0.08054918

_initial._model.2.bias f4 [16]
00000000: 30f9 ad3e d5e7 d63d d884 a03e 26d3 b1bc
00000010: b5fc 60be ffbd e23d 2b3e adbe 1950 fc3c
00000020: bc14 7ebe 6802 66be 31e0 ce3d 2b70 413e
00000030: bcc1 a8bd 8b63 253d cd2f 94be cf80 1c3e
0.33979177 0.10493437 0.31351352 -0.021707129 -0.219714 0.11071395 -0.33836493 0.030799912
-0.24812597 -0.22461855 0.10101355 0.18890445 -0.08240077 0.040378135 -0.2894272 0.15283512
