hyperparameter_tuning/ray_results/SUD_learning_rate_tuning/MyTrainableClass_e3015210_29_batch_size=16,name=SUD_v2,patience=1000,steps=200,steps_per_print=5,swa_step_start=2500,t_size=7,trai_2024-03-12_14-38-19/checkpoint_000000/checkpoint.pt (torch, 61346 bytes, 66 tensors)

_initial._model.0.weight f4 [16, 5]
-0.8293912 -2.1053655 -1.4440322 -1.1340588 -2.7760441 -1.7526472 -3.4264984 -3.7799072
-3.2649424 2.5165591 2.8981476 -2.5165536 3.288202 -3.5538285 1.9965544 1.0146189
3.1741312 -2.3148656 3.1710312 0.22408172 2.737383 -1.0869331 -0.21210077 -2.4411654
1.3668137 -2.708168 -1.059369 -2.9803326 -1.6537176 0.12099216 -3.2333105 0.77669024
-2.6137953 -0.089662254 -0.89471084 -0.86042684 -0.81702656 1.5819167 0.61511534 2.0414746
-0.5451628 -3.626822 -3.4443913 3.6976304 -3.436969 2.60544 0.6334043 1.5869137
1.7424421 -0.4946973 2.9275646 0.12233609 -1.8831248 -0.62215 -1.4996941 1.0560708
-2.6994467 -3.5310009 3.5666194 0.76513904 0.26284495 1.2123117 2.2798615 -0.18821128
2.5593622 -3.8793564 -1.9121178 -0.6250382 1.8010218 -2.3839703 2.9434366 3.241929
3.0343804 -3.860831 -3.335766 -1.0305688 0.4723125 3.155924 0.7573103 3.4127762
00000000: fb52 54bf 4fbe 06c0 0cd6 b8bf d728 91bf
00000010: b5aa 31c0 be56 e0bf c04b 5bc0 00ea 71c0
00000020: d1f4 50c0 4e0f 2140 407b 3940 370f 21c0
00000030: e771 5240 ed71 63c0 188f ff3f 08df 813f
00000040: f724 4b40 c226 14c0 2df2 4a40 ae75 653e
00000050: 4831 2f40 a020 8bbf f230 59be 0e3c 1cc0
00000060: c0f3 ae3f a052 2dc0 6799 87bf c5bd 3ec0
00000070: 05ad d3bf bdca f73d 8fee 4ec0 2cd5 463f
00000080: 6c48 27c0 d8a0 b7bd c50b 65bf ef44 5cbf
00000090: a728 51bf 3f7c ca3f 3378 1d3f 85a7 0240
000000a0: ca8f 0bbf da1d 68c0 e870 5cc0 faa5 6c40
000000b0: 4df7 5bc0 87bf 2640 c926 223f fd1f cb3f
000000c0: 5808 df3f f748 fdbe 385d 3b40 588b fa3d
000000d0: 3c0a f1bf 3945 1fbf faf5 bfbf 542d 873f
000000e0: bcc3 2cc0 ebfb 61c0 7e43 6440 27e0 433f
000000f0: 9d93 863e 082d 9b3f 40e9 1140 75ba 40be
00000100: 97cc 2340 6047 78c0 47c0 f4bf 8102 20bf
00000110: e287 e63f f892 18c0 4461 3c40 c47b 4f40
00000120: 4a33 4240 db17 77c0 317d 55c0 aee9 83bf
00000130: f2d2 f13e a9fa 4940 16df 413f ed6a 5a40

_initial._model.0.bias f4 [16]
1.9235575 -3.4479048 -1.5303391 0.7786603 0.40971333 -3.5115068 -1.6305444 2.4657185
1.8115073 -0.7848112 -3.5073886 3.5679948 -2.0640476 1.2921231 -0.60392845 0.19523665
00000000: 2237 f63f 79aa 5cc0 27e2 c3bf 4856 473f
00000010: f2c5 d13e 87bc 60c0 aeb5 d0bf 55ce 1d40
00000020: 79df e73f 63e9 48bf 0e79 60c0 075a 6440
00000030: 5b19 04c0 4a64 a53f 0e9b 1abf 1eec 473e

_initial._model.2.weight f4 [16, 16]
-0.2163224 -0.3104116 0.049412988 -1.5228275 1.9608767 -1.6431143 0.68946266 0.17557219
-0.8021214 1.747981 -0.3023322 -1.4969512 0.63103217 -0.6676563 1.6452136 -2.070099
1.156679 -0.5168375 -2.3937137 2.1105974 1.4924285 0.6232677 0.8909761 -1.727786
2.3143528 0.0035929624 -0.46637902 -2.049919 -1.3985492 -0.39025086 -0.9101899 1.1755011
-0.041459356 1.7004987 0.556699 -0.95238984 0.9191107 2.3364933 -0.7251017 -0.81153095
-0.22559711 0.7903058 -1.3605032 -0.20524707 -1.29789 1.519083 -0.4955847 1.4944707
-0.38262367 -1.9410745 1.007094 -1.1881881 -1.8945442 2.307843 -0.46100277 0.29272318
-1.5479516 -2.0381012 1.4173839 -0.76047003 0.8642891 0.74812543 0.9641583 -2.2368708
-0.63091177 0.50725454 -1.6729851 1.9304609 1.393583 -2.2163064 1.7692428 0.7900495
1.6139187 1.4635191 1.1528587 0.87045044 1.3931998 -0.7790896 1.2880905 -1.815253
-0.6621887 0.55228305 -2.0253468 2.4360554 -1.0836544 -1.3412167 -1.6284642 -0.5324237
-1.3995404 2.0226169 0.4347003 1.8085889 0.3771744 -1.8645418 0.8111599 -0.008563727
-0.0856187 -0.518999 0.23536314 0.45879757 0.8023811 -0.09205772 1.0329437 0.5781418
1.6765189 -0.04251866 -0.654479 -1.2283028 1.9107422 1.0822551 1.6249131 0.8513772
-0.061748076 -2.2738497 -1.3507488 -0.3581979 0.99547243 -2.1232963 -2.3274217 1.6624864
-1.3521621 0.33845505 0.6027206 1.1377101 0.035114605 -1.1815063 -0.40118024 -0.67090094
1.3958982 0.6546547 0.29681066 1.4931182 -2.3388236 -0.15624805 0.62974936 0.46765688
-1.2733042 -1.8198745 -0.45284542 -0.21769792 -1.6789727 0.30489767 0.92913187 0.58043593
1.0856717 0.13837132 2.1166718 1.1340768 -0.925658 -2.2433586 -0.20044608 0.6987813
1.9520626 -0.5865937 0.027796835 -0.8406264 0.73848444 0.16857435 0.5317342 -1.4774693
1.1446488 -2.2673633 1.2028023 -0.3811898 -1.3630775 0.98585445 -1.2506062 1.933194
1.958386 -1.8775684 -1.7716919 0.76019895 -1.5223963 -1.3003474 1.0198803 1.8812457
0.14845836 -1.4789373 0.950027 -0.07672347 -1.6213667 2.2675507 -1.3868939 -0.56033134
0.509212 -1.0299618 -0.62970966 0.85280156 -0.42056486 0.05866492 1.1817554 1.1133623
-1.1557105 -1.7523215 1.8696235 0.07161964 -1.4847783 -1.9428766 -1.3095881 -0.12416921
-0.36695057 -0.8002063 2.0224085 2.29532 1.713806 -1.9516375 -1.3743821 1.5583853
-0.8143956 -0.09742054 -0.7773059 1.9318154 2.2690976 1.3791287 1.8134353 -1.6025035
1.8745462 0.086946025 -2.1290638 -0.10168578 1.588336 -0.7309877 -0.51612467 -0.6517946
-1.0394405 1.4917606 1.1971027 0.024425408 1.7311745 0.6713981 -0.936241 -1.6491218
0.27895188 -0.7570709 -0.62350243 1.3208207 1.3825567 -0.4379202 -0.632432 0.77967393
0.27822694 0.7074096 0.8845658 1.4211048 -1.8770658 0.07443039 0.6153898 0.40736243
-0.74738896 -1.8445641 1.9648429 -1.666898 1.2478698 -2.2327473 0.50281155 1.7574706
00000000: 9f83 5dbe 45ee 9ebe 4665 4a3d 03ec c2bf
00000010: 02fe fa3f 9251 d2bf a080 303f 32c9 333e
00000020: d457 4dbf d7bd df3f 49cb 9abe 199c bfbf
00000030: 538b 213f 86eb 2abf 5c96 d23f 817c 04c0
00000040: 0f0e 943f 764f 04bf 9b32 19c0 0714 0740
00000050: e607 bf3f 798e 1f3f 0217 643f 1728 ddbf
00000060: 5b1e 1440 e877 6b3b 3bc9 eebe df31 03c0
00000070: a903 b3bf f6ce c7be 3502 69bf d276 963f
00000080: 49d1 29bd f1a9 d93f d383 0e3f d2cf 73bf
00000090: d74a 6b3f 1b89 1540 44a0 39bf 7ec0 4fbf
000000a0: ee02 67be 7b51 4a3f f824 aebf 4a2c 52be
000000b0: 4221 a6bf 5071 c23f 47bd fdbe d14a bf3f
000000c0: 40e7 c3be 2175 f8bf 75e8 803f 8c16 98bf
000000d0: 6d80 f2bf b3b3 1340 8e08 ecbe d0df 953e
000000e0: 4723 c6bf 4070 02c0 d66c b53f 2aae 42bf
000000f0: 0d42 5d3f 2685 3f3f 14d3 763f e428 0fc0
00000100: 6f83 21bf 6fdb 013f 6024 d6bf 5819 f73f
00000110: ee60 b23f f7d7 0dc0 8c76 e23f af40 4a3f
00000120: e394 ce3f 9854 bb3f e090 933f d7d5 5e3f
00000130: 5f54 b23f 6b72 47bf 26e0 a43f 365a e8bf
00000140: 3385 29bf 6c62 0d3f 489f 01c0 55e8 1b40
00000150: 30b5 8abf fdac abbf 8471 d0bf eb4c 08bf
00000160: 2424 b3bf 8e72 0140 0a91 de3e d77f e73f
00000170: 011d c13e 4ea9 eebf 2da8 4f3f e04e 0cbc
00000180: db58 afbd 1edd 04bf 0903 713e 84e7 ea3e
00000190: d968 4d3f c288 bcbd 8037 843f 1a01 143f
000001a0: 2c98 d63f 0c28 2ebd f08b 27bf 0739 9dbf
000001b0: 3393 f43f 5687 8a3f 27fd cf3f dbf3 593f
000001c0: 8deb 7cbd c186 11c0 56e5 acbf b765 b7be
000001d0: 48d7 7e3f 16e4 07c0 7af4 14c0 5bcc d43f
000001e0: a613 adbf fb49 ad3e e64b 1a3f 7ca0 913f
000001f0: 55d4 0f3d 993b 97bf 7f67 cdbe 2ac0 2bbf
00000200: cbac b23f 7397 273f 91f7 973e 7f1e bf3f
00000210: 49af 15c0 7dff 1fbe 4137 213f b970 ef3e
00000220: a2fb a2bf a6f1 e8bf 5bdb e7be 34ec 5ebe
00000230: 94e8 d6bf 8c1b 9c3e 96db 6d3f 7397 143f
00000240: 4af7 8a3f 36b1 0d3e 8d77 0740 6e29 913f
00000250: ecf7 6cbf 3093 0fc0 bd41 4dbe 55e3 323f
00000260: 30dd f93f 012b 16bf 30b6 e33c 4b33 57bf
00000270: 510d 3d3f c19e 2c3e bc1f 083f b71d bdbf
00000280: da83 923f 7b1c 11c0 6df5 993f 4f2b c3be
00000290: 5379 aebf f560 7c3f dd13 a0bf e772 f73f
000002a0: 64ac fa3f 2954 f0bf cdc6 e2bf 669c 423f
000002b0: e2dd c2bf c971 a6bf 708b 823f a9cc f03f
000002c0: 7805 183e d14d bdbf f834 733f 3221 9dbd
000002d0: f288 cfbf 8d1f 1140 bd85 b1bf e071 0fbf
000002e0: b85b 023f cad5 83bf a734 21bf 3451 5a3f
000002f0: 4754 d7be a14a 703d c343 973f a882 8e3f
00000300: 52ee 93bf 124c e0bf d34f ef3f 51ad 923d
00000310: 370d bebf 2eb0 f8bf 95a0 a7bf 6d4c febd
00000320: f2e0 bbbe 52da 4cbf 246f 0140 86e6 1240
00000330: ff5d db3f 42cf f9bf c1eb afbf 2b79 c73f
00000340: 3b7c 50bf 6c84 c7bd 85fd 46bf ba45 f73f
00000350: e538 1140 4a87 b03f a61e e83f d61e cdbf
00000360: 21f1 ef3f c210 b23d 9542 08c0 a240 d0bd
00000370: 984e cb3f 0322 3bbf bf20 04bf 03dc 26bf
00000380: 630c 85bf 03f2 be3f a93a 993f cb17 c83c
00000390: 2097 dd3f bfe0 2b3f 7dad 6fbf 6c16 d3bf
000003a0: c8d2 8e3e 66cf 41bf db9d 1fbf a710 a93f
000003b0: 9ef7 b03f 1437 e0be 10e7 21bf b698 473f
000003c0: c373 8e3e cc18 353f e772 623f c3e6 b53f
000003d0: b143 f0bf f66e 983d 308a 1d3f cf91 d03e
000003e0: e254 3fbf ad1a ecbf f97f fb3f ea5c d5bf
000003f0: 33ba 9f3f 55e5 0ec0 42b8 003f ccf4 e03f

_initial._model.2.bias f4 [16]
0.53095174 -0.31963858 2.430108 -1.2160279 -2.4092145 0.1789963 -1.1483458 -0.9082003
1.7864796 -0.005612497 -2.192803 -0.6539166 -1.3638563 -2.268339 0.8813891 -2.155469
00000000: 74ec 073f aba7 a3be e486 1b40 cda6 9bbf
00000010: 9230 1ac0 ce4a 373e fffc 92bf d17f 68bf
00000020: 5dab e43f 0ae9 b7bb e256 0cc0 1467 27bf
00000030: d892 aebf 772c 11c0 b7a2 613f 34f3 09c0

_func._drift._model.0.weight f4 [16, 17]
0.0006798363 -0.0054176105 0.004884258 -0.0003204478 0.001800731 0.0011031462 -0.002775146 0.00042490708
0.0017608249 -0.0052583483 -0.0044614077 -0.0043372256 -0.00028391395 -0.002819127 -0.0053566173 0.005194194
0.0045894743 -0.0020152817 -0.0040551303 0.002697059 -0.0009752075 -0.0031658225 -0.005228709 4.596687e-05
-0.002899117 0.0014857142 0.0014585208 -0.0006860643 0.005768303 -0.0011135436 0.005613924 0.0017077696
0.0017019579 0.004738331 -0.0019211234 0.005367008 0.0025692116 -0.0016205703 0.0026528153 -0.005568415
0.0007211138 -0.0012637909 -0.0011806275 -0.004615216 0.0028773563 0.0020188447 -0.0024054155 0.0045560366
-0.0010984445 -0.00013926062 -0.0034659312 0.0018365674 0.0020878112 0.0010144231 0.0003680576 -0.005634246
0.0048672543 -0.00022893141 0.0034173361 0.0035483737 -0.0050353683 0.0038436495 -0.0039275545 0.001826117
0.004994167 0.004976253 0.0017964469 -0.0051393462 0.003084133 -0.0034800458 0.0023243588 -0.005423941
-0.0024032348 -0.0044071525 -0.001117803 -0.0019750544 -0.0055973376 -0.00566131 0.00077432225 0.00078723376
-0.0022756266 -0.0030607553 -0.0044194004 -0.003523921 -0.0022207021 -0.0023859632 0.0036609538 0.0014973256
0.004757108 -0.004785232 0.002043898 0.0013225605 -0.004675599 0.0030913388 -0.002481378 -0.002292933
0.002021277 0.0013493398 0.00031178063 0.005186244 -0.0016503271 -0.0035353126 -0.0057700174 0.0012322232
-0.004479511 0.004695125 0.0017116058 -0.0013682443 0.0036947846 0.0050465795 0.0042422926 -0.0022253685
0.00051697815 -0.0030699584 0.003593268 0.005455796 -0.00016669986 0.0038165608 0.0019514499 0.0028313608
-0.0043094386 -0.003989679 -0.0049323454 0.005533582 0.0023610457 0.0042659324 0.003990017 0.004660852
-0.0014039917 -0.0056262934 0.0007018799 -0.0023729268 0.0024284085 0.002485598 0.00055926066 -0.0055420366
0.0015587255 -0.0031737594 -0.0026597716 0.0044328137 -0.0029808427 0.0018346008 -0.0016600236 0.00023309788
-0.0026941975 -0.0020914823 0.0049248463 0.0031635007 -0.0049112886 0.005156438 -0.0034751256 -0.0037261168
-0.0051335366 -0.00033186577 -0.0026419787 -0.00564318 0.0024603466 -0.0014148697 0.002225608 -0.004406305
-0.0036725726 -0.0033172076 -0.00037868324 -0.0050923275 0.0010242183 -4.848652e-05 0.0047099637 -0.00033118675
0.005010877 0.0029568002 4.4865837e-06 -0.00023879495 0.0004275175 0.0004951082 -0.0014139402 -0.0034823525
-0.0007005763 -0.0030057929 -0.0013875548 -0.0046928516 0.004602292 0.0026999195 -0.0016646672 -0.0019225932
0.005510633 -0.0053660735 -0.0055580423 -0.0011442673 0.0015228714 -0.004407054 0.0036302346 -0.0015985956
0.0043566558 0.003823956 -0.0040469593 0.0031783087 0.0029014638 -0.0008911276 0.004049279 -0.0047856797
0.0012766365 -0.0013751027 -8.2965256e-05 -0.0021915375 -0.002463586 0.0038450295 0.003364113 0.004072059
-0.004470484 0.0007056129 0.00037091842 -0.0041647116 0.0036411595 -0.0018336275 -0.0030294533 -0.00024777066
0.0026892459 0.0016949904 0.0046254825 0.00054187624 -0.004840133 -0.0020706595 -0.00083533867 0.005142175
0.002577782 0.0015786036 -0.004705112 -0.002567853 0.0023158356 -0.0031249484 -0.002059085 0.0055094315
0.0012057732 0.0024797725 0.0036734333 -0.0054781334 0.0016154153 -0.0043086936 -0.0017816117 0.0027696793
-0.0055196346 0.0040620193 0.0017774411 0.0034535902 0.0026169254 0.0024476682 -0.00014855046 0.005379303
-0.0030901092 -0.0006288615 -0.0012253651 0.0015771854 0.002873311 0.0034951535 0.0027239597 -0.003933588
00000000: 0b37 323a 3686 b1bb 200c a03b c701 a8b9
00000010: 8206 ec3a 7297 903a 39df 35bb 10c6 de39
00000020: 7bcb e63a 394e acbb 0031 92bb 491f 8ebb
00000030: 49da 94b9 1ac1 38bb 9086 afbb 0f34 aa3b
00000040: 4d63 963b d112 04bb e6e0 84bb 24c1 303b
00000050: 11a5 7fba b079 4fbb 9755 abbb 8dcc 4038
00000060: 1dff 3dbb 4cbc c23a d62b bf3a ffd8 33ba
00000070: 0804 bd3b 53f4 91ba 02f5 b73b 3dd7 df3a
00000080: 3b14 df3a 0044 9b3b 34ce fbba badd af3b
00000090: 3860 283b 5169 d4ba dbda 2d3b 4077 b6bb
000000a0: 2109 3d3a c9a5 a5ba 49bf 9aba 3d3b 97bb
000000b0: 0792 3c3b 984e 043b 2da4 1dbb ce4a 953b
000000c0: aef9 8fba 7d06 12b9 ad24 63bb fab8 f03a
000000d0: a9d3 083b 64f6 843a dbf7 c039 7b9f b8bb
000000e0: 7d7d 9f3b 4f0d 70b9 63f5 5f3b d58b 683b
000000f0: bbff a4bb bde5 7b3b b7b2 80bb 525a ef3a
00000100: 1ca6 a33b d60f a33b c176 eb3a f667 a8bb
00000110: 2a1f 4a3b 7b11 64bb 4554 183b 51bb b1bb
00000120: 977f 1dbb e069 90bb 3f83 92ba ea6f 01bb
00000130: df69 b7bb 8382 b9bb e3fb 4a3a 5d5e 4e3a
00000140: ae22 15bb f496 48bb 9ed0 90bb 95f1 66bb
00000150: 3389 11bb d25d 1cbb 9dec 6f3b e941 c43a
00000160: 84e1 9b3b 6fcd 9cbb ebf2 053b c459 ad3a
00000170: c435 99bb 0f98 4a3b 9d9e 22bb 0845 16bb
00000180: 6777 043b 55dc b03a 7d76 a339 5ef1 a93b
00000190: ca4f d8ba b4b0 67bb 6a12 bdbb 8d82 a13a
000001a0: ddc8 92bb 90d9 993b f657 e03a a956 b3ba
000001b0: 3324 723b c75d a53b ee02 8b3b 7dd7 11bb
000001c0: d185 073a 5b31 49bb 097d 6b3b 89c6 b23b
000001d0: 27cc 2eb9 441f 7a3b cbc7 ff3a 5a8e 393b
000001e0: 3136 8dbb dabb 82bb 839f a1bb 0d53 b53b
000001f0: c6bb 1a3b 3cc9 8b3b b0be 823b 0fba 983b
00000200: 2506 b8ba c55c b8bb 5dfe 373a 1b83 1bbb
00000210: ef25 1f3b 6ae5 223b 599b 123a f999 b5bb
00000220: 264e cc3a d9fe 4fbb 904f 2ebb 2341 913b
00000230: 3e5a 43bb fd76 f03a 2695 d9ba bc6b 7439
00000240: 2291 30bb 4011 09bb 9b60 a13b bc52 4f3b
00000250: e0ee a0bb 56f7 a83b efbe 63bb de31 74bb
00000260: 3a37 a8bb 45fe adb9 0c25 2dbb 6dea b8bb
00000270: c43d 213b 2673 b9ba 82db 113b c462 90bb
00000280: 8baf 70bb 8265 59bb 018a c6b9 8add a6bb
00000290: 103f 863a 015e 4bb8 0a56 9a3b 22a3 adb9
000002a0: 4832 a43b e0c6 413b 768b 9636 0865 7ab9
000002b0: 6d24 e039 26ca 013a f653 b9ba 2e38 64bb
000002c0: e1a6 37ba d6fc 44bb 9dde b5ba 7ec6 99bb
000002d0: d3ce 963b 22f1 303b f630 daba 86ff fbba
000002e0: 8a92 b43b e3d5 afbb 3d20 b6bb 3dfb 95ba
000002f0: 169b c73a 0c69 90bb 3be9 6d3b f887 d1ba
00000300: 47c2 8e3b 569b 7a3b 5b9c 84bb 2c4b 503b
00000310: 7c26 3e3b 909a 69ba d0af 843b 31d1 9cbb
00000320: d054 a73a ca3c b4ba a2fd adb8 e69f 0fbb
00000330: 1d74 21bb e4fc 7b3b 7378 5c3b e86e 853b
00000340: 237d 92bb e1f8 383a d477 c239 2278 88bb
00000350: 85a0 6e3b 5456 f0ba cb89 46bb 37e7 81b9
00000360: 0f3e 303b 712a de3a 5c91 973b b30c 0e3a
00000370: fa99 9ebb e7b3 07bb a1fa 5aba b17f a83b
00000380: 01f0 283b 26e9 ce3a 572d 9abb 6d49 28bb
00000390: 46c5 173b efcb 4cbb b7f1 06bb 7688 b43b
000003a0: 090b 9e3a ae83 223b fcbd 703b ea81 b3bb
000003b0: 58bc d33a f12f 8dbb f884 e9ba 8283 353b
000003c0: 0dde b4bb b01a 853b 07f9 e83a a155 623b
000003d0: b980 2b3b 0f69 203b 36c4 1bb9 dd44 b03b
000003e0: 6e83 4abb 2eda 24ba 6e9c a0ba 8fb9 ce3a
000003f0: 294e 3c3b f20e 653b 7684 323b 54e5 80bb

_func._drift._model.0.bias f4 [16]
0.005528742 -0.0003753213 0.0023151098 0.002159205 -2.3726621e-05 -0.0022635858 0.0039188974 -0.005262391
-0.005209976 -0.005113264 -0.002110314 0.0013042131 -0.0003267648 0.000117816264 0.004610654 -0.0046410444
00000000: 732a b53b c6c6 c4b9 19b9 173b 7381 0d3b
00000010: 8808 c7b7 ab58 14bb 186a 803b 2370 acbb
00000020: 72b8 aabb 2b8d a7bb 324d 0abb 21f2 aa3a
00000030: a151 abb9 2014 f738 f814 973b e713 98bb

_func._drift._model.2.weight f4 [16, 16]
-0.0024837223 0.0022117374 -0.005370594 -0.005903407 -0.0037755622 -0.005657455 -0.0020376162 -0.0054269135
-0.000685701 0.0031476847 -0.0048910845 -0.005699652 0.0034340182 -0.0019493538 0.0024204294 0.002659664
-0.0012895042 -0.00039652607 -7.771535e-05 -0.004696003 0.0054093148 -0.00029538225 0.0021106366 0.0009466717
0.0049506165 -0.0047441553 -0.003910807 -0.00014095021 -0.0023272403 0.0020370667 0.0053248755 -0.00032466213
-0.0051204446 0.004946261 -0.0014819326 0.0019101228 -0.0019347508 0.0053121145 -0.0033989442 0.0007452507
0.0026798067 -0.004896217 0.0016743114 -0.0034401494 0.0052428218 0.0048470534 0.0018737325 -0.0029078242
0.00021656339 0.005077746 0.0037305944 -0.0028088272 -0.0032128822 -0.0014836274 -0.0016815932 -0.0028821477
-0.005825151 5.3771444e-05 0.0013039116 -0.004210754 0.0030458528 -0.0025888612 0.0036294681 -0.0026451475
0.0054011606 -0.0034400725 0.001257566 0.0016707629 0.0043567773 0.0029345935 -0.0046981312 -0.0010186781
-0.00029624673 0.003185218 -0.0032606176 0.0031089843 -0.0038219336 0.0023341577 -0.0042293086 0.0014121337
-2.4757499e-05 0.0044126636 -0.0027475078 0.0015345964 -0.0041804765 -0.0028152328 0.003229024 0.0013023493
0.0046653133 0.002667829 0.0036492199 -0.0029971118 0.00056810013 -0.0053819367 0.0017386626 -0.0010590502
0.0021766564 -0.0020480913 -0.001633664 0.0035254657 0.0034744733 0.0052122315 -0.0056403945 -0.0020508633
-0.0051226947 0.0011708282 0.005159264 -0.0017685003 -0.0005983145 -0.001711814 -0.002033752 0.001635101
0.003988075 -0.0038524242 0.0047677094 0.0044529033 -0.000235848 -0.004094634 -0.004633231 -0.0010259924
-0.00026413484 -0.004574725 -0.0055664293 0.0018138757 0.00047399756 0.004109146 0.0011443486 0.002289744
0.00062680594 0.0024719706 -0.0026612922 2.901402e-05 0.0031548457 0.0019399003 0.0027739683 -0.0051579215
-3.9971288e-05 -0.0030633446 -0.0014013374 0.002656995 -0.0011935314 -0.00281204 -0.00012612257 -0.00371952
-0.0024763092 -0.002666059 0.0053881546 -0.0027189332 -0.0032344502 -0.0015183511 0.004265491 3.1602787e-05
-0.000878117 0.0032999576 0.0038042709 0.005494515 -0.004044247 0.0030777112 -0.0039024567 -0.0028438808
0.004904043 0.0020798997 -0.0026974776 -0.0014837603 0.003470624 0.0010483616 -0.0012709543 -0.0015328091
-0.0017306047 -0.0009195782 0.004541391 -0.0041805757 0.0038140942 0.0009498536 0.005889302 0.001961515
-0.0059347427 -0.0020910236 -0.0009997726 0.0020722703 -0.0054676686 0.0020362874 -0.0012276749 -0.0033511466
-0.004214177 -0.0036612018 -0.0052645006 -0.0004309314 0.0023529897 -0.0033212388 -0.0034016592 0.00022539761
-0.0048265546 -0.0041770977 -0.0015799179 0.003934501 0.0030340373 0.0011059699 -0.0019649698 -0.0050464934
0.0035009587 0.0002179141 0.0025202755 -0.00020644031 0.0031943356 -4.415171e-05 0.0030548647 -0.0009670794
-0.0019433403 0.0011684103 -0.005843107 -0.0044621136 0.0005924276 0.0056783943 -0.0016411254 -0.0018753714
0.0034655817 0.005035954 -0.0035847216 0.0053161234 -0.0019196053 0.0032145595 0.0017495037 0.0007982579
0.004774973 -0.0011118887 -0.0003692165 0.0037254847 -0.0022895313 0.0014877411 0.003471349 0.00027003765
0.005706775 0.00038139528 0.0025525969 0.0033471994 0.0049121906 -0.0027681554 -0.00015038977 -0.002382028
-0.0026710175 -0.0024482568 0.0007474637 -0.004135086 -0.0023862661 0.0046910946 0.0019379347 0.0059403395
-0.00088920235 -0.00022561204 -0.0030460244 0.0009059944 0.0014197549 0.004422097 -0.0044747987 -0.001840301
00000000: f2c5 22bb ccf2 103b cffb afbb 5e71 c1bb
00000010: 6c6f 77bb 2c62 b9bb 8789 05bb 40d4 b1bb
00000020: 9dc0 33ba 6349 4e3b 6445 a0bb 25c4 babb
00000030: 440d 613b 7681 ffba 11a0 1e3b c24d 2e3b
00000040: 9504 a9ba d4e4 cfb9 1cfb a2b8 eee0 99bb
00000050: 9f40 b13b 89dd 9ab9 9b52 0a3b 102a 783a
00000060: c838 a23b dc74 9bbb 3a26 80bb 09cc 13b9
00000070: 9d84 18bb 4f80 053b 4b7c ae3b 6a37 aab9
00000080: 67c9 a7bb 3f14 a23b 683d c2ba 165d fa3a
00000090: 7797 fdba 3f11 ae3b d2c0 5ebb ee5c 433a
000000a0: b29f 2f3b 7270 a0bb 9174 db3a 2174 61bb
000000b0: facb ab3b 08d4 9e3b 0898 f53a 3291 3ebb
000000c0: 4b15 6339 3963 a63b fd7c 743b 4d14 38bb
000000d0: 388f 52bb 4676 c2ba e868 dcba 6ae2 3cbb
000000e0: e9e0 bebb a688 6138 03e8 aa3a 5dfa 89bb
000000f0: ee9c 473b e2a9 29bb 5fdc 6d3b 365a 2dbb
00000100: 38fc b03b d772 61bb ead4 a43a 80fd da3a
00000110: 4cc3 8e3b 4f52 403b c8f2 99bb 2a85 85ba
00000120: 9051 9bb9 17bf 503b 16b0 55bb 1ac0 4b3b
00000130: 6879 7abb abf8 183b 0396 8abb 5817 b93a
00000140: 53ae cfb7 1b98 903b 880f 34bb 8324 c93a
00000150: 61fc 88bb c57f 38bb 089e 533b 97b3 aa3a
00000160: 7cdf 983b bed6 2e3b c027 6f3b 316b 44bb
00000170: 8eec 143a f55a b0bb d6e3 e33a d4cf 8aba
00000180: 3ca6 0e3b 4539 06bb ab20 d6ba 800b 673b
00000190: fdb3 633b 5ecb aa3b 0fd3 b8bb c767 06bb
000001a0: 47dc a7bb 7a76 993a 0b0f a93b 06cd e7ba
000001b0: 35d8 1cba f25e e0ba b248 05bb e350 d63a
000001c0: 66ae 823b f478 7cbb 723a 9c3b a9e9 913b
000001d0: f74d 77b9 482c 86bb 5cd2 97bb 987a 86ba
000001e0: 947b 8ab9 93e7 95bb 9866 b6bb 92bf ed3a
000001f0: e082 f839 04a6 863b f8fd 953a 880f 163b
00000200: 3c50 243a c900 223b 1369 2ebb 2263 f337
00000210: 87c1 4e3b 4144 fe3a 77cb 353b c803 a9bb
00000220: d8a6 27b8 65c2 48bb 15ad b7ba fb20 2e3b
00000230: 4570 9cba 344a 38bb c53f 04b9 31c3 73bb
00000240: 9349 22bb 0cb9 2ebb 1e8f b03b 2130 32bb
00000250: 12f9 53bb 6903 c7ba 88c5 8b3b 3c8d 0438
00000260: 6f31 66ba 1a44 583b 1351 793b 550b b43b
00000270: 9a85 84bb 6db3 493b 5cc0 7fbb 6760 3abb
00000280: 18b2 a03b ed4e 083b 2ac8 30bb bc7a c2ba
00000290: 6973 633b 2e69 893a 2696 a6ba 8ae8 c8ba
000002a0: 75d5 e2ba d90f 71ba f3cf 943b 36fd 88bb
000002b0: e2f5 793b 99ff 783a 0cfb c03b c38c 003b
000002c0: 3b78 c2bb 8e09 09bb cd0a 83ba edce 073b
000002d0: 212a b3bb 3c73 053b efe9 a0ba e99e 5bbb
000002e0: 1417 8abb c6f0 6fbb d581 acbb a2ee e1b9
000002f0: 9e34 1a3b 24a9 59bb 5fee 5ebb b658 6c39
00000300: 1328 9ebb 09e0 88bb 3f15 cfba fdec 803b
00000310: b3d6 463b 31f6 903a b9c6 00bb 0e5d a5bb
00000320: 5770 653b df7f 6439 352b 253b e677 58b9
00000330: 0f58 513b 8a2f 39b8 2034 483b 9a83 7dba
00000340: aeb7 feba 5825 993a 8977 bfbb ec36 92bb
00000350: 254d 1b3a d311 ba3b 081b d7ba 06cf f5ba
00000360: d01e 633b a504 a53b a6ed 6abb e032 ae3b
00000370: 449b fbba 5cab 523b 9a4f e53a 2e42 513a
00000380: 6077 9c3b cbbc 91ba 6693 c1b9 4327 743b
00000390: f60b 16bb 4f00 c33a 927f 633b d793 8d39
000003a0: e6ff ba3b 02f6 c739 7849 273b b05c 5b3b
000003b0: 71f6 a03b f169 35bb f2b1 1db9 cc1b 1cbb
000003c0: 3d0c 2fbb ef72 20bb 71f1 433a 9e7f 87bb
000003d0: e762 1cbb c1b7 993b 4c02 fe3a 2ea7 c23b
000003e0: 5c19 69ba 4592 6cb9 cf9f 47bb 4180 6d3a
000003f0: 1217 ba3a 3de7 903b 55a1 92bb 4136 f1ba

_func._drift._model.2.bias f4 [16]
0.0050613782 -0.003953991 0.00250318 -0.00431746 -0.0026895555 -0.0056055 -0.003387684 -0.0028883542
0.0048592896 -0.0038138188 0.004129016 0.00065019133 0.002632705 0.0040150876 0.0044345865 -0.0046015284
00000000: ebd9 a53b 7b90 81bb 640c 243b 7b79 8dbb
00000010: 4143 30bb 58ae b7bb e803 5ebb 8b4a 3dbb
00000020: ad3a 9f3b 43f1 79bb b24c 873b 9a71 2a3a
00000030: 7689 2c3b ff90 833b 0250 913b 6bc8 96bb

_func._diffusion._model.0.weight f4 [16, 17]
0.07951135 -0.061677102 -0.041418254 0.07270992 -0.11270105 -0.045844097 0.053269204 0.014464284
-0.021038285 0.08155367 0.06699055 0.060790736 0.02496425 0.02419459 -0.03183581 0.026144793
-0.06438962 -0.05073188 0.0113396235 -0.057501234 -0.02178584 -0.01204773 0.042796392 0.022425829
0.04698879 0.029942568 -0.016866107 0.013358311 -0.0011309525 0.043359034 0.040683784 0.0032960277
-0.01777912 -0.07633287 0.014533211 0.034570042 0.038670935 0.05356772 -0.036523502 0.05473333
-0.054205414 -0.0011960777 0.033541292 0.033951793 0.05386807 0.06612674 -0.050598297 -0.0018947409
0.041676994 0.018903356 0.005601623 0.028437667 0.012598369 -0.0113023035 -0.022554655 -0.12004461
0.025037713 -0.016181814 0.025893494 -0.0823489 0.07213581 0.017117474 0.042277627 0.03279525
-0.030291531 -0.07827568 -0.037511602 -0.04924124 -0.083924964 0.0128499335 0.02566319 -0.07218284
0.064256296 -0.068139926 0.0029082382 -0.09784754 0.030881051 -0.11170363 -0.045426678 -0.025625246
-0.08822616 -0.03582137 0.0048047043 -0.044135697 0.011203543 0.08681406 -0.08314495 0.020180076
-0.020164607 -0.10158303 -0.054568768 -0.030009571 0.0017082557 -0.07705735 0.06444956 -0.023576085
0.070318766 -0.050859366 -0.044835158 0.032560803 0.04693654 0.0020764873 -0.11687315 -0.018576829
-0.024844073 -0.053506624 0.002237363 -0.066145666 0.007857069 -0.01880156 0.055293173 -0.08348963
-0.057737827 -0.052383527 -0.061767407 -0.037549958 0.043421235 -0.090357274 0.04115651 -0.03512364
-0.0023748549 -0.018478012 -0.085290276 -0.0058742785 -0.017421866 -0.035891198 -0.06420285 0.0037203587
-0.07310597 -0.05149057 -0.07959692 -0.030890226 0.006379903 -0.02625175 -0.06603185 0.028868603
0.03683451 -0.07227179 -0.0062356708 0.03038993 -0.095525295 -0.015059944 0.03735314 0.058738813
-0.0017035595 -0.0078368485 0.005773879 0.049706932 -0.046717703 0.030173207 -0.057205077 0.018802302
-0.050976552 -0.03641067 0.045405023 0.0041334624 -0.11087208 0.0041698907 -0.03530516 -0.03369646
-0.06394048 0.041772798 -0.04804888 -0.09057597 -0.041235823 -0.013609907 -0.0034794281 -0.00019721648
-0.07776083 0.04345584 -0.09985072 -0.04346556 -0.04220502 -0.024272468 0.048874725 0.020047477
-0.069410175 -0.04392582 0.059187755 -0.12585452 -0.06676702 -0.03043866 -0.045915395 0.006721325
-0.033010058 -0.047780376 0.022679502 0.0074452423 0.025104016 -0.0036014651 0.034413446 -0.008899756
-0.013875457 -0.0052053723 0.053444535 -0.08323886 0.007520344 -0.028824951 0.06074405 0.03145234
-0.0868244 -0.019836241 0.057377264 -0.06263483 -0.06248522 0.003430106 0.005916988 -0.09215306
0.039029013 0.0036823577 -0.06408982 -0.080778696 0.01544485 -0.046838112 -0.0786461 -0.05528745
-0.042959027 0.026242346 -0.015393224 -0.045803558 0.058467444 0.064403675 0.012515497 -0.0031807371
0.06392342 -0.06884566 -0.037887212 -0.014822819 0.03196654 -0.055142164 0.07663651 0.066449404
0.053488158 0.021167647 0.017323492 -0.015056164 -0.016030623 -0.012182355 0.009036505 0.002348084
0.024772104 0.007992401 -0.01821372 0.009710796 -0.005315727 0.0358664 -0.076088145 0.014137434
0.0269303 0.031774603 -0.0057233074 -0.08992775 -0.031834323 0.038901266 -0.02528532 -0.00323354
00000000: d9d6 a23d 21a1 7cbd 30a6 29bd f0e8 943d
00000010: cfcf e6bd 05c7 3bbd cf30 5a3d 9bfb 6c3c
00000020: 7b58 acbc 9c05 a73d 5732 893d b5ff 783d
00000030: d481 cc3c bc33 c63c 4466 02bd 9b2d d63c
00000040: b5de 83bd 3bcc 4fbd d4c9 393c 6a86 6bbd
00000050: 3878 b2bc d863 45bc 454b 2f3d 5fb6 b73c
00000060: 5177 403d 1e4a f53c ca2a 8abc d1dc 5a3c
00000070: 783c 94ba 3e99 313d 0aa4 263d 2b02 583b
00000080: 84a5 91bc 6854 9cbd b41c 6e3c 5199 0d3d
00000090: 6a65 1e3d d369 5b3d ab99 15bd 0e30 603d
000000a0: 7f06 5ebd b5c5 9cba 9862 093d 0911 0b3d
000000b0: c4a4 5c3d 756d 873d 2940 4fbd f458 f8ba
000000c0: 7fb5 2a3d 36db 9a3c d28d b73b 1cf6 e83c
000000d0: 6469 4e3c 4c2d 39bc 8ac4 b8bc f3d9 f5bd
000000e0: e41b cd3c b98f 84bc 981e d43c 8aa6 a8bd
000000f0: f1bb 933d f239 8c3c 4e2b 2d3d 5054 063d
00000100: f225 f8bc 004f a0bd c4a5 19bd 2fb1 49bd
00000110: dae0 abbd 8788 523c 9c3b d23c 99d4 93bd
00000120: ce98 833d f28c 8bbd 2498 3e3b 4b64 c8bd
00000130: 42fa fc3c dfc4 e4bd 5311 3abd 09ec d1bc
00000140: ebaf b4bd 6eb9 12bd c870 9d3b a2c7 34bd
00000150: 118f 373c 92cb b13d e647 aabd b050 a53c
00000160: 3f30 a5bc c30a d0bd 8083 5fbd a2d6 f5bc
00000170: 8de7 df3a 3ed0 9dbd 22fe 833d a222 c1bc
00000180: 4903 903d e951 50bd 12a5 37bd 7a5e 053d
00000190: 8840 403d ad15 083b 315b efbd 6f2e 98bc
000001a0: cc85 cbbc c329 5bbd b9a0 123b 6177 87bd
000001b0: f0ba 003c bb05 9abc 187b 623d 9cfc aabd
000001c0: 807e 6cbd 1c90 56bd d2ff 7cbd fccd 19bd
000001d0: 77da 313d 3c0d b9bd bb93 283d cedd 0fbd
000001e0: 74a3 1bbb 335f 97bc abac aebd 057d c0bb
000001f0: 4db8 8ebc a602 13bd c97c 83bd 43d1 733b
00000200: 95b8 95bd c7e7 52bd b603 a3bd 800d fdbc
00000210: 810e d13b e90d d7bc b53b 87bd d97d ec3c
00000220: c8df 163d 3b03 94bd 9954 ccbb 4df4 f83c
00000230: c4a2 c3bd fcbd 76bc 9bff 183d 1c98 703d
00000240: f949 dfba 2066 00bc cf32 bd3b 7f99 4b3d
00000250: 105b 3fbd cd2d f73c df4f 6abd 4907 9a3c
00000260: cacc 50bd 5b23 15bd 9efa 393d ff71 873b
00000270: e710 e3bd 94a3 883b 259c 10bd 4d05 0abd
00000280: 3af3 82bd f419 2b3d e7ce 44bd e57f b9bd
00000290: e5e6 28bd 16fc 5ebc 1e07 64bb e5cb 4eb9
000002a0: 1241 9fbd c0fe 313d 897e ccbd f108 32bd
000002b0: 2cdf 2cbd 0ed7 c6bc dd30 483d 9b3a a43c
000002c0: ec26 8ebd 90eb 33bd dc6e 723d 02e0 00be
000002d0: 26bd 88bd 7f5a f9bc c811 3cbd 903e dc3b
000002e0: 8e35 07bd 5bb5 43bd 5dca b93c 38f7 f33b
000002f0: f0a6 cd3c 8f06 6cbb 1df5 0c3d 48d0 11bc
00000300: e355 63bc d491 aabb a8e8 5a3d 2379 aabd
00000310: 386d f63b 4e22 ecbc c1ce 783d 2bd4 003d
00000320: fed0 b1bd 9d7f a2bc 6c04 6b3d b146 80bd
00000330: 81f0 7fbd a1cb 603b 4be3 c13b beba bcbd
00000340: e3dc 1f3d b653 713b 8641 83bd 4d6f a5bd
00000350: 650c 7d3c 52d9 3fbd 3511 a1bd 1875 62bd
00000360: cef5 2fbd 30fa d63c dc33 7cbc 839c 3bbd
00000370: 8f7b 6f3d 13e6 833d cd0d 4d3c ea73 50bb
00000380: 48ea 823d f4fe 8cbd 9f2f 1bbd 69db 72bc
00000390: 59ef 023d c0dc 61bd 9af3 9c3d a016 883d
000003a0: 6616 5b3d c667 ad3c ffe9 8d3c 21ae 76bc
000003b0: a752 83bc 8098 47bc d90d 143c 50e2 193b
000003c0: deee ca3c 8ff2 023c f034 95bc 081a 1f3c
000003d0: 8d2f aebb a5e8 123d 1ad4 9bbd b2a0 673c
000003e0: ef9c dc3c 1626 023d 958a bbbb 0a2c b8bd
000003f0: b564 02bd ef56 1f3d 2923 cfbc cde9 53bb

_func._diffusion._model.0.bias f4 [16]
0.10697273 0.014027294 0.015950905 0.097135015 -0.010550777 0.0145306075 -0.058928408 -0.101000756
0.05828634 -0.027777363 -0.021267697 0.04962338 -0.082371995 0.092412554 0.07728952 0.008415714
00000000: 8514 db3d bcd2 653c 79ab 823c b9ee c63d
00000010: 2bdd 2cbc c911 6e3c ea5e 71bd 7cd9 cebd
00000020: a8bd 6e3d 5a8d e3bc 9839 aebc e341 4b3d
00000030: a6b2 a8bd cb42 bd3d f849 9e3d 10e2 093c

_func._diffusion._model.2.weight f4 [48, 16]
0.07224984 0.05280626 -0.008649597 0.046286844 -0.097812474 0.040495582 0.0032757365 -0.006872099
0.037553366 -0.08648963 0.011033123 0.06122298 -0.056914184 -0.02570791 -0.018406224 0.07130363
0.035129398 -0.0394701 -0.028171651 0.0104968045 -0.07233406 0.050584365 -0.034925528 -0.088310145
0.07760144 -0.00970949 0.008744039 0.06682486 -0.015029219 -0.026185783 -0.029691938 -0.0145432865
0.010055371 -0.022779122 -0.034479544 0.09759375 -0.0860121 0.0400438 -0.045977585 0.023645032
-0.0128199095 -0.030956931 -0.08929863 -0.021626374 -0.030515235 0.00093135645 0.022299673 -0.019023528
0.07281515 0.058044124 -0.05258229 0.013771368 0.004850166 -0.017303908 -0.044086333 -0.034821842
0.055536296 -0.042838402 -0.01800789 -0.012546037 -0.024003554 -0.0068134875 0.06219503 0.040499095
0.06670908 0.0071705324 -0.009203972 0.0949904 -0.04221085 0.06738585 -0.06868544 0.008711033
0.04706017 -0.08269199 -0.035698898 -0.038484067 -0.027714752 0.0048855566 0.0022622007 0.014176566
0.090685554 0.017020248 -0.05068477 0.06703903 -0.02907061 0.04500473 -0.029853579 -0.018850291
0.03485331 -0.042257678 -0.004885745 0.0595126 -0.09308088 0.023241997 0.020186538 0.061135147
0.078333095 0.03878285 -0.060122263 0.025702499 0.003813953 0.0076303254 -0.044953126 -0.071836896
0.05135507 -0.021371268 -0.040212654 0.04522796 -0.045468252 -0.0052764914 0.07410616 0.051297203
0.08564714 0.005691319 -0.035109315 0.0157571 -0.06313745 0.0007511659 -0.013359102 -0.062291674
0.09289568 -0.084996656 -0.023923496 0.05761116 -0.0886454 0.042335913 0.08050016 0.040296774
-0.026941702 -0.022669736 -0.0007225892 0.037178464 -0.055386394 0.04633817 -0.023790348 0.019196449
0.041718032 0.007620766 -0.044557765 0.022994764 0.005076323 0.02754376 0.06709351 0.058082066
-0.0014538143 -0.013792322 -0.010008865 0.018639864 -0.02822338 0.046330657 0.0081403665 -0.0793001
0.047632314 -0.038435176 -0.061703112 0.06534401 -0.090876974 0.0022488139 0.05970771 -0.030381074
0.0012060901 -0.00714321 0.04099951 0.043273706 -0.103976324 0.0035761383 -0.06556255 -0.0720211
0.0150538655 -0.06548041 -0.100971565 0.038983617 -0.053609718 0.07260072 0.019421965 0.06479583
0.08622032 0.0033319732 -0.03907614 0.030658724 -0.090994835 0.025781346 -0.0666369 -0.07907713
-0.02189851 -0.021015309 0.013605213 -0.01220537 -0.08343027 0.017311404 0.032618828 0.072560735
-0.032490786 0.021832995 0.012145641 -0.049788456 0.002690094 -0.050006315 0.0083610965 -0.026930595
-0.016689667 0.021858636 0.057248008 -0.017529296 0.06075444 -0.04817792 -0.0832268 -0.07276372
0.010624585 -0.0076358574 -0.00083302427 -0.0976433 0.015858106 -0.062500276 0.0053382125 0.032779146
-0.070511766 0.014026504 0.04298941 -0.041104335 0.054006398 0.0302447 0.037574925 0.024682714
-0.05177276 0.023266641 0.03709133 -0.051045902 0.07050018 0.009837513 0.03282094 0.084481046
-0.028368296 0.074285604 0.0064032525 -0.023450306 0.08222868 -0.05188715 -0.03750409 -0.07857746
-0.007629279 -0.006386259 -0.043269645 0.028586535 -0.040968314 -0.0012122487 -0.066973105 -0.020674279
0.0048026545 -0.08914936 -0.063078135 0.049508363 0.0009471176 0.06625056 -0.0030466618 0.030277327
00000000: b9f7 933d 604b 583d 0ab7 0dbc 4697 3d3d
00000010: e851 c8bd b2de 253d bdad 563b 582f e1bb
00000020: 8fd1 193d 7a21 b1bd 46c4 343c f3c4 7a3d
00000030: d91e 69bd 6599 d2bc a6c8 96bc a307 923d
00000040: d8e3 0f3d 66ab 21bd 3cc8 e6bc cafa 2b3c
00000050: e123 94bd 8d31 4f3d 120e 0fbd f3db b4bd
00000060: 81ed 9e3d 8e14 1fbc 2843 0f3c 79db 883d
00000070: 1d3d 76bc 9183 d6bc 823c f3bc f746 6ebc
00000080: 48bf 243c 489b babc 6c3a 0dbd 3bdf c73d
00000090: 1d27 b0bd f804 243d fe52 3cbd 3ab3 c13c
000000a0: 990a 52bc 6499 fdbc 33e2 b6bd cb29 b1bc
000000b0: 16fb f9bc 4626 743a cead b63c 3bd7 9bbc
000000c0: 1c20 953d adbf 6d3d 8760 57bd 4ea1 613c
000000d0: 24ee 9e3b edc0 8dbc df93 34bd 59a1 0ebd
000000e0: 077a 633d 5277 2fbd 4885 93bc e58d 4dbc
000000f0: 1aa3 c4bc ad43 dfbb 37c0 7e3d 61e2 253d
00000100: c59e 883d c9f6 ea3b 42cc 16bc 548a c23d
00000110: 49e5 2cbd 9801 8a3d f4aa 8cbd b8b8 0e3c
00000120: 2ac2 403d 6b5a a9bd 0239 12bd 78a1 1dbd
00000130: 0c0a e3bc 0517 a03b 6e41 143b d444 683c
00000140: 59b9 b93d 0c6e 8b3c d59a 4fbd c24b 893d
00000150: 7d25 eebc e156 383d 7e8f f4bc ed6b 9abc
00000160: 58c2 0e3d 6316 2dbd 9918 a0bb 7cc3 733d
00000170: 30a1 bebd 0066 be3c 3d5e a53c d968 7a3d
00000180: 1a6d a03d c4da 1e3d c342 76bd 0c8e d23c
00000190: 83f3 793b cf07 fa3b c520 38bd 391f 93bd
000001a0: b259 523d cc12 afbc 06b6 24bd f440 393d
000001b0: eb3c 3abd 6be6 acbb f8c4 973d 041d 523d
000001c0: c567 af3d 3e7e ba3b c9ce 0fbd 0915 813c
000001d0: 354e 81bd e4e9 443a 23e0 5abc 8e25 7fbd
000001e0: 1740 be3d ba12 aebd 35fb c3bc aef9 6b3d
000001f0: b88b b5bd 6c68 2d3d 45dd a43d 3b0e 253d
00000200: d8b4 dcbc e2b5 b9bc 246c 3dba 7248 183d
00000210: d8dc 62bd 18cd 3d3d fae3 c2bc df41 9d3c
00000220: 87e0 2a3d 9eb7 f93b 3482 36bd 845f bc3c
00000230: 4957 a63b 74a3 e13c 5268 893d 76e7 6d3d
00000240: ea8d beba 31f9 61bc 39fc 23bc a1b2 983c
00000250: b834 e7bc 37c5 3d3d 2c5f 053c 1768 a2bd
00000260: 1a1a 433d 346e 1dbd 67bc 7cbd 15d3 853d
00000270: b51d babd d660 133b 1290 743d bbe1 f8bc
00000280: ab15 9e3a 9711 eabb 1aef 273d c53f 313d
00000290: 8af1 d4bd a55d 6a3b a945 86bd cc7f 93bd
000002a0: 7da4 763c 981a 86bd 2eca cebd 49ad 1f3d
000002b0: dd95 5bbd b0af 943d d01a 9f3c adb3 843d
000002c0: 4794 b03d 3c5d 5a3b 4d0e 20bd 0128 fb3c
000002d0: 805b babd 6733 d33c ed78 88bd 31f3 a1bd
000002e0: 8164 b3bc 4c28 acbc 66e8 5e3c 08f9 47bc
000002f0: 7ddd aabd a5d0 8d3c 529b 053d b99a 943d
00000300: 0f15 05bd 1cdb b23c 83fe 463c fbee 4bbd
00000310: 4a4c 303b 6cd3 4cbd fbfc 083c 8d9d dcbc
00000320: c5b8 88bc e210 b33c e37c 6a3d 9999 8fbc
00000330: a6d9 783d 3656 45bd d072 aabd 2505 95bd
00000340: bd12 2e3c 3736 fabb 505f 5aba 36f9 c7bd
00000350: dce8 813c 2500 80bd 2cec ae3b 6d43 063d
00000360: 7968 90bd 6ccf 653c aa15 303d 055d 28bd
00000370: d035 5d3d bcc3 f73c 2ae8 193d 6733 ca3c
00000380: ac0f 54bd af99 be3c 14ed 173d 8215 51bd
00000390: 6662 903d 852d 213c 406f 063d 6604 ad3d
000003a0: a164 e8bc 0d23 983d 60d2 d13b db1a c0bc
000003b0: 8367 a83d 9f87 54bd e49d 19bd 38ed a0bd
000003c0: 08ff f9bb d343 d1bb 833b 31bd 4f2e ea3c
000003d0: 64ce 27bd 51e4 9eba 3229 89bd 1b5d a9bc
000003e0: 965f 9d3b f193 b6bd 1c2f 81bd 48c9 4a3d
000003f0: fc47 783a 60ae 873d 81aa 47bb 2808 f83c

_func._diffusion._model.2.bias f4 [48]
0.06723746 0.08600457 0.09886877 0.0780787 0.029070988 0.051393684 0.036607802 0.05733857
0.022136576 0.028452778 0.1094721 0.027055604 -0.041586116 -0.014335944 -0.07761342 0.0007885578
0.0052739037 0.06851606 -0.05628674 -0.10696551 -0.09247507 -0.009529467 -0.049340732 -0.10191006
-0.024848321 -0.022247765 0.056888584 -0.07112716 -0.02585613 -0.04352667 -0.013875303 -0.056958728
-0.10772921 0.093591444 0.07097427 0.086637124 0.042688027 0.009879714 0.018419579 0.0070443074
-0.0226998 -0.06733547 0.045429375 0.07014018 0.0957196 -0.05362353 -0.016997878 0.0015821911
00000000: cbb3 893d 2a23 b03d b67b ca3d bae7 9f3d
00000010: 4826 ee3c 2f82 523d 10f2 153d d9db 6a3d
00000020: c457 b53c cd15 e93c e932 e03d b7a3 dd3c
00000030: 3456 2abd 4fe1 6abc c9f3 9ebd 38b7 4e3a
00000040: b6d0 ac3b 2652 8c3d ed8c 66bd bc10 dbbd
00000050: 9263 bdbd 7b21 1cbc 8219 4abd 39b6 d0bd
00000060: b58e cbbc f240 b6bc 0104 693d 1eab 91bd
00000070: 3cd0 d3bc 0649 32bd 3d55 63bc 8e4d 69bd
00000080: 22a1 dcbd dfac bf3d f55a 913d ce6e b13d
00000090: a4d9 2e3d 86de 213c a8e4 963c efd3 e63b
000000a0: eef4 b9bc 2ee7 89bd 2714 3a3d a8a5 8f3d
000000b0: a308 c43d 59a4 5bbd 223f 8bbc 8661 cf3a

_readout.weight f4 [1, 16]
-0.093688644 -0.19226411 -0.24271527 -0.20431083 0.07674315 -0.09900006 0.006030521 0.1306133
-0.030149048 0.06859065 0.08482588 -0.2728526 -0.23564044 -0.005020658 -0.07074546 0.14763705
00000000: d5df bfbd e2e0 44be 5a8a 78be dc36 51be
00000010: 832b 9d3d 8bc0 cabd ad9b c53b 7ebf 053e
00000020: 23fb f6bc 4179 8c3d 31b9 ad3d 56b3 8bbe
00000030: ba4b 71be 5584 a4bb ffe2 90bd 2b2e 173e

_initial._model.0.weight f4 [16, 2]
-2.4388319e-06 -0.34330332 -2.61187e-06 1.2089334 3.630301e-07 -0.71811277 5.522671e-06 -0.5663578
-4.117168e-06 -0.31437027 2.81121e-06 -0.69729084 2.8608367e-06 0.8927452 -1.6673216e-06 1.3375052
2.0751149e-07 -0.739114 -3.176381e-06 0.7350595 -3.7937018e-06 0.11050459 5.5577298e-06 -0.34025323
-5.7406023e-06 -1.3882259 2.7408216e-06 0.37032065 1.1777503e-06 0.61839056 -1.6233101e-06 0.62073284
00000000: d0aa 23b6 74c5 afbe 9647 2fb6 54be 9a3f
00000010: 7ae6 c234 3dd6 37bf 624f b936 d3fc 10bf
00000020: 3426 8ab6 24f5 a0be 38a8 3c36 a781 32bf
00000030: cdfc 3f36 f38a 643f bcc8 dfb5 5f33 ab3f
00000040: 53d0 5e34 9336 3dbf cf29 55b6 dc2c 3c3f
00000050: 4d97 7eb6 3b50 e23d 897c ba36 ac35 aebe
00000060: 669f c0b6 63b1 b1bf f5ee 3736 ab9a bd3e
00000070: 3113 9e35 d84e 1e3f 83e0 d9b5 59e8 1e3f

_initial._model.0.bias f4 [16]
-0.5058718 -0.03327563 0.07340867 0.5431907 -0.2499818 -0.001116372 -0.32494158 -0.52138376
0.75198895 0.1422134 -0.070562854 -0.1254868 -0.21833257 -0.35066462 0.062349 0.36692593
00000000: d080 01bf 074c 08bd 4957 963d 8c0e 0b3f
00000010: 3bfb 7fbe 3a53 92ba be5e a6be 6879 05bf
00000020: 5982 403f 64a0 113e 4283 90bd 9d7f 00be
00000030: 9392 5fbe 508a b3be aa61 7f3d b7dd bb3e

_initial._model.2.weight f4 [16, 16]
-0.04119411 -0.4889406 -0.016297497 -0.058686785 -0.24930061 -0.15053302 -0.1558547 -0.19475369
-0.041590817 -0.21503885 -0.001602419 -0.17091496 -0.18744698 -0.10971052 0.08306565 -0.20465478
0.10448161 0.38006735 0.41738838 0.2681207 0.1674039 0.37632558 0.23663093 0.26871237
0.20538783 0.22148344 -0.00042461455 0.14152971 0.50708616 -0.17539512 0.0686795 0.2791821
-0.27634317 0.38514698 0.12659985 0.15251929 -0.37022167 0.14258897 0.07271526 0.12670764
0.24742894 0.44827294 -0.26640147 -0.26662228 0.28500363 -0.023753593 0.07334684 0.5328153
0.017627265 0.6077842 0.16905649 0.09762788 -0.06916298 0.08544978 0.3278472 0.43000835
0.17718445 0.11511527 -0.1893571 0.17732656 0.27773893 -0.031742007 0.32215238 0.018916937
-0.10562852 0.4538746 0.18445173 0.1535933 -0.06185323 0.3310335 0.097892426 0.49649277
-0.1606505 0.29999402 -0.19096705 0.11891794 0.6098034 0.03584858 -0.07595173 -0.017721914
0.027416794 0.5180103 -0.06470793 0.09057005 0.23947644 0.21527375 0.28112954 0.46890703
0.07955845 0.30155486 0.13283235 -0.07617724 0.3185236 0.16656317 0.11146726 -0.070382975
0.21332057 -0.010642193 0.009897524 -0.10102681 0.31225106 -0.08305761 0.08907655 -0.01635284
-0.1615761 -0.42291296 0.08792773 0.40044993 0.14427055 -0.014613461 -0.06516628 -0.08006576
-0.15896025 -0.32288933 0.054613743 -0.28116056 0.07320947 -0.12728612 -0.17575333 -0.41461188
-0.13267082 0.0072016264 0.121280976 -0.038875263 -0.6025492 0.06363241 0.045115188 -0.23666032
0.31029212 0.14035329 -0.060407966 0.10989373 0.1493841 0.08289542 0.3285013 0.50526196
-0.111293025 0.21935979 -0.005105268 0.19083571 0.61560625 0.13427235 -0.16141541 0.22068578
0.13221803 -0.23292771 -0.23068324 -0.007691848 -0.13569021 -0.45512062 -0.24790755 -0.29020232
-0.20953459 -0.00495073 0.20280518 0.05651455 -0.62711626 -0.13154687 -0.122295015 0.01771989
-0.11758362 0.13836923 0.186135 -0.14907724 -0.066139884 0.41062704 0.2929804 0.33274367
0.0052024415 0.24708529 -0.09391805 0.27712 0.21944232 0.1735916 -0.015121389 -0.055818148
-0.08640373 0.24991828 0.17892736 0.09893769 0.20402627 0.35664216 0.20551321 0.10819542
0.20310317 0.051303986 -0.08041188 0.07801206 0.59068125 -0.14432915 0.16297147 0.07974398
-0.03299905 0.2999543 0.13399626 -0.1863608 0.08465696 0.30813667 0.31752455 0.34983265
0.19886382 0.23098381 -0.08141402 -0.07409918 0.55219716 0.34461555 0.21985248 0.16908112
0.15911163 0.37763593 0.376744 0.26914242 -0.07040455 0.4618394 0.32310462 0.077811934
0.16762206 0.010469601 -0.10721318 0.10522134 0.61031795 -0.1514169 0.17281078 0.21026503
0.31468228 -0.24868673 0.30778202 0.18087974 0.15295945 0.45148417 0.15474689 -0.046352923
-0.063579306 -0.08711773 -0.029643955 0.41455305 0.3555271 -0.06468115 -0.08303194 -0.3090999
-0.00219396 -0.4170345 -0.23000985 0.06907792 -0.23573467 -0.19775511 -0.29717016 -0.4072354
-0.15470949 -0.13282098 -0.022891443 -0.20697665 -0.46282813 -0.23498039 -0.005597755 -0.080460526
00000000: 28bb 28bd 6c56 fabe 5482 85bc 8e61 70bd
00000010: a948 7fbe 5425 1abe 6098 1fbe 836d 47be
00000020: 225b 2abd 2533 5cbe 4208 d2ba 5504 2fbe
00000030: 1af2 3fbe e9af e0bd 531e aa3d 0691 51be
00000040: 74fa d53d 3098 c23e eeb3 d53e 1e47 893e
00000050: ee6b 2b3e bfad c03e 614f 723e ab94 893e
00000060: 3051 523e 8ecc 623e cd9e deb9 2aed 103e
00000070: 66d0 013f c79a 33be d6a7 8c3d f5f0 8e3e
00000080: da7c 8dbe fc31 c53e 64a3 013e 042e 1c3e
00000090: b28d bdbe d802 123e bdeb 943d a6bf 013e
000000a0: 035e 7d3e 0884 e53e c665 88be b782 88be
000000b0: ffeb 913e e596 c2bc de36 963d 9566 083f
000000c0: 0e67 903c bf97 1b3f 251d 2d3e 20f1 c73d
000000d0: 52a5 8dbd 4b00 af3d 97db a73e 0e2a dc3e
000000e0: d76f 353e 8ec1 eb3d d4e6 41be 1895 353e
000000f0: cc33 8e3e e803 02bd 28f1 a43e b1f7 9a3c
00000100: c453 d8bd 4062 e83e eae0 3c3e 9047 1d3e
00000110: d059 7dbd 397d a93e d37b c83d 4d34 fe3e
00000120: 9181 24be d198 993e de8c 43be 408b f33d
00000130: 131c 1c3f f6d5 123d 958c 9bbd 8c2d 91bc
00000140: 2f99 e03c 539c 043f 9785 84bd ca7c b93d
00000150: 5039 753e b970 5c3e 36f0 8f3e 9514 f03e
00000160: 8aef a23d 6665 9a3e 3405 083e d002 9cbd
00000170: 8615 a33e 898f 2a3e f248 e43d f324 90bd
00000180: b570 5a3e 985c 2ebc 3929 223c 25e7 cebd
00000190: 5fdf 9f3e 1c1a aabd c46d b63d 64f6 85bc
000001a0: 3574 25be 0c88 d8be 7413 b43d c607 cd3e
000001b0: a9bb 133e 4c6d 6fbc e675 85bd 84f9 a3bd
000001c0: 7ac6 22be c051 a5be a9b2 5f3d 47f4 8fbe
000001d0: d9ee 953d 4b57 02be aef8 33be 0248 d4be
000001e0: dcda 07be 9ffb eb3b 2962 f83d ab3b 1fbd
000001f0: aa40 1abf b551 823d b4ca 383d 1557 72be
00000200: 9cde 9e3e c6b8 0f3e 586e 77bd f70f e13d
00000210: 25f8 183e 13c5 a93d 5331 a83e d958 013f
00000220: 99ed e3bd da9f 603e 184a a7bb 706a 433e
00000230: 5f98 1d3f b17e 093e 154a 25be 74fb 613e
00000240: 2a64 073e 9a84 6ebe 3a38 6cbe e60b fcbb
00000250: 60f2 0abe 9205 e9be 7adb 7dbe 6695 94be
00000260: 3c90 56be bc39 a2bb 29ac 4f3e cd7b 673d
00000270: b18a 20bf 39b4 06be cf75 fabd 4e29 913c
00000280: aecf f0bd aab0 0d3e 2c9a 3e3e b4a7 18be
00000290: 5974 87bd b53d d23e 8701 963e 615d aa3e
000002a0: 3e79 aa3b ed03 7d3e 1b58 c0bd ace2 8d3e
000002b0: 7db5 603e ffc1 313e b4bf 77bc 92a1 64bd
000002c0: 70f4 b0bd 94ea 7f3e bc38 373e d89f ca3d
000002d0: 43ec 503e cd99 b63e 0e72 523e 8f95 dd3d
000002e0: 47fa 4f3e 2124 523d fcae a4bd c9c4 9f3d
000002f0: e336 173f 05cb 13be fee1 263e d050 a33d
00000300: 032a 07bd 9c93 993e 5136 093e 5ed5 3ebe
00000310: a160 ad3d 17c4 9d3e 9492 a23e 441d b33e
00000320: f5a2 4b3e 0587 6c3e 65bc a6bd 50c1 97bd
00000330: cb5c 0d3f 7371 b03e 0221 613e 9a23 2d3e
00000340: 29ee 223e 7f59 c13e 97e4 c03e 09cd 893e
00000350: 4330 90bd 3776 ec3e f86d a53e dd5b 9f3d
00000360: 1ea5 2b3e b088 2b3c 9592 dbbd 497e d73d
00000370: cc3d 1c3f 080d 1bbe 4ff5 303e b74f 573e
00000380: 091e a13e bca7 7ebe 9b95 9d3e 8a38 393e
00000390: 67a1 1c3e ef28 e73e f875 1e3e 90dc 3dbd
000003a0: de35 82bd c86a b2bd e1d7 f2bc 4c40 d43e
000003b0: a607 b63e 8d77 84bd a60c aabd 5842 9ebe
000003c0: 8ac8 0fbb 8c85 d5be b487 6bbe b978 8d3d
000003d0: 6e64 71be 5180 4abe b026 98be 2981 d0be
000003e0: 2a6c 1ebe 3902 08be d686 bbbc b0f1 53be
000003f0: cff7 ecbe b39e 70be 5f6d b7bb 7dc8 a4bd

_initial._model.2.bias f4 [16]
0.3398863 0.104913555 0.31355527 -0.021785261 -0.21979256 0.110606365 -0.33826274 0.030862277
-0.24826515 -0.22456297 0.100925036 0.1888565 -0.08251357 0.04037596 -0.2894264 0.1529327
00000000: 9405 ae3e ebdc d63d 518a a03e 0177 b2bc
00000010: 4d11 61be 9785 e23d c630 adbe e3d2 fc3c
00000020: 3839 7ebe d6f3 65be c9b1 ce3d 9963 413e
00000030: e0fc a8bd 4361 253d b22f 94be 649a 1c3e
