hyperparameter_tuning/ray_results/SUD_learning_rate_tuning/MyTrainableClass_48d0e73b_12_batch_size=16,name=SUD_v2,patience=1000,steps=200,steps_per_print=5,swa_step_start=2500,t_size=7,trai_2024-03-12_14-12-07/checkpoint_000000/checkpoint.pt (torch, 61346 bytes, 66 tensors)

_initial._model.0.weight f4 [16, 5]
00000000: 163c 54bf 10cd 06c0 36dc b8bf 4532 91bf
00000010: 6aa7 31c0 2554 e0bf e45c 5bc0 a8f0 71c0
00000020: cc02 51c0 b20c 2140 627e 3940 b9ff 20c0
00000030: d363 5240 3e46 63c0 aa8f ff3f 63d9 813f
00000040: 3a19 4b40 d223 14c0 cdea 4a40 37ed 643e
00000050: 5637 2f40 9a44 8bbf ab65 59be 4c5a 1cc0
00000060: 7af5 ae3f e94c 2dc0 f588 87bf f4b6 3ec0
00000070: 32a1 d3bf 6f5f f83d fdf5 4ec0 4de1 463f
00000080: 2450 27c0 5e06 b7bd 7c1d 65bf 643f 5cbf
00000090: d85a 51bf 2d83 ca3f 4ca7 1d3f 5f93 0240
000000a0: b979 0bbf 852c 68c0 9778 5cc0 86ae 6c40
000000b0: 96ef 5bc0 6ab4 2640 b008 223f 4c11 cb3f
000000c0: fff6 de3f cb55 fdbe 8e4a 3b40 bf96 f93d
000000d0: 9d0e f1bf 344e 1fbf aee9 bfbf e01c 873f
000000e0: 3db8 2cc0 abf2 61c0 523c 6440 66ed 433f
000000f0: 746d 863e ac2c 9b3f dae8 1140 b736 40be
00000100: 08b5 2340 713d 78c0 faaa f4bf 8907 20bf
00000110: 766e e63f 0a98 18c0 3469 3c40 a783 4f40
00000120: db2e 4240 e126 77c0 639a 55c0 28e9 83bf
00000130: 1402 f23e 9cfe 4940 56bc 413f 7f87 5a40
-0.82904184 -2.106266 -1.4442203 -1.1343466 -2.7758431 -1.7525679 -3.4275446 -3.7803135
-3.2657957 2.5163999 2.8983388 -2.515608 3.2873428 -3.5511622 1.9965718 1.0144466
3.1734147 -2.3146863 3.170581 0.22356115 2.7377524 -1.088031 -0.2123019 -2.4430113
1.3668664 -2.7078192 -1.0588671 -2.9799166 -1.6533568 0.121275775 -3.233764 0.7768753
-2.6142664 -0.08936761 -0.89498115 -0.86034226 -0.8177924 1.5821282 0.615834 2.0402448
-0.5448261 -3.6277173 -3.4448602 3.698152 -3.4364982 2.6047616 0.63294506 1.5864654
1.7419127 -0.49479517 2.9264255 0.12186956 -1.8832585 -0.62228703 -1.4993188 1.0555687
-2.698745 -3.5304363 3.5661817 0.76534116 0.2625538 1.2123008 2.2798371 -0.18770872
2.5579243 -3.87875 -1.9114678 -0.625115 1.800246 -2.3842797 2.943921 3.2424104
3.0341098 -3.861748 -3.337548 -1.0305529 0.4726721 3.1561651 0.75678 3.41452

_initial._model.0.bias f4 [16]
00000000: d444 f63f 04a0 5cc0 880a c4bf ac10 473f
00000010: 283f d23e e2c0 60c0 9ba8 d0bf 68e3 1d40
00000020: 27f7 e73f 140f 49bf 2480 60c0 ac50 6440
00000030: d320 04c0 934a a53f 3a55 1abf d31d 483e
1.9239755 -3.4472666 -1.5315714 0.77759814 0.4106381 -3.5117726 -1.6301454 2.4670048
1.81223 -0.7853863 -3.507821 3.5674238 -2.0645034 1.2913383 -0.60286295 0.19542627

_initial._model.2.weight f4 [16, 16]
00000000: a67a 5ebe d1af 9fbe d3a1 473d 1bc8 c2bf
00000010: 3add fa3f b05d d2bf 7e6e 303f dbae 323e
00000020: c591 4dbf 7ec7 df3f 219b 9abe 8eb7 bfbf
00000030: 16a0 213f ac1f 2bbf 777a d23f 5878 04c0
00000040: e7ee 933f aeb0 04bf e13d 19c0 fb25 0740
00000050: b2e6 be3f 8476 1f3f ad04 643f 144c ddbf
00000060: c50f 1440 f80d 7e3b b398 eebe ab3f 03c0
00000070: 5ef9 b2bf 8d38 c8be 293b 69bf ab7e 963f
00000080: fdba 2dbd 3079 d93f 5156 0e3f f187 73bf
00000090: f107 6b3f 2983 1540 adb2 39bf 9c09 50bf
000000a0: 6eed 67be ac63 4a3f d318 aebf 8809 53be
000000b0: fc16 a6bf b856 c23f d430 febe 6552 bf3f
000000c0: 1563 c4be a3a5 f8bf 12d2 803f b9f2 97bf
000000d0: 94a1 f2bf bbad 1340 e72c ecbe 5251 953e
000000e0: 5940 c6bf 826b 02c0 b878 b53f 3ce5 42bf
000000f0: 5d56 5d3f df50 3f3f f29a 763f e724 0fc0
00000100: 4b45 21bf 0f3c 023f 3d0e d6bf ebf5 f63f
00000110: ab81 b23f 1cd2 0dc0 c27f e23f 1687 4a3f
00000120: 02b2 ce3f 504b bb3f a284 933f 9f0c 5f3f
00000130: c349 b23f ba3d 47bf 04fc a43f 2662 e8bf
00000140: 9ec3 29bf 3e01 0d3f 94aa 01c0 3efa 1b40
00000150: 73d6 8abf 03b9 abbf c27a d0bf 1c95 08bf
00000160: 7041 b3bf 2577 0140 b0c1 de3e 3964 e73f
00000170: 8546 c13e d5c3 eebf 346f 4f3f 1271 08bc
00000180: d588 adbd 9c80 04bf 5298 713e 7569 ea3e
00000190: 6ea4 4d3f 91c7 bbbd 1440 843f 4438 143f
000001a0: eeb2 d63f c577 2fbd bba5 27bf 271f 9dbf
000001b0: 5f89 f43f 789e 8a3f a813 d03f 0de2 593f
000001c0: 30fe 78bd 5c6e 11c0 c1ce acbf 65f5 b7be
000001d0: b419 7f3f 20de 07c0 deef 14c0 dff0 d43f
000001e0: 47f6 acbf 9025 ad3e 1233 1a3f 1fbc 913f
000001f0: a884 0e3d e020 97bf e2f3 ccbe 72cf 2bbf
00000200: 868c b23f 9a34 273f cc9a 973e 2a43 bf3f
00000210: 25c0 15c0 095f 20be 4424 213f d2d4 ee3e
00000220: 8a19 a3bf fbe8 e8bf 8aa5 e7be e1ca 5fbe
00000230: 1ddd d6bf 26ac 9b3e 8a9d 6d3f 3ca5 143f
00000240: 4316 8b3f 5833 0f3e b782 0740 0f06 913f
00000250: 04b6 6cbf 3f8d 0fc0 c0f8 4cbe ad29 333f
00000260: 41fa f93f a53d 16bf 51bd e03c 4ffc 56bf
00000270: 10f9 3c3f c26f 2d3e 3957 083f ad25 bdbf
00000280: bfa2 923f 5204 11c0 a90b 9a3f bdb8 c3be
00000290: 6058 aebf 2379 7c3f ce0a a0bf 2a96 f73f
000002a0: 5ac9 fa3f 795d f0bf 8cd2 e2bf 69d3 423f
000002b0: d1e7 c2bf c557 a6bf 5ba7 823f dcc4 f03f
000002c0: 5c0b 173e 877e bdbf b407 733f b2e0 9abd
000002d0: 4faa cfbf 9719 1140 e98e b1bf a9ba 0fbf
000002e0: 2d21 023f 93cc 83bf 571c 21bf e519 5a3f
000002f0: e22a d7be 48fa 6c3d 0927 973f 6c8a 8e3f
00000300: 7f0d 94bf a07c e0bf 4939 ef3f 8feb 943d
00000310: 762e bebf 40bc f8bf bca9 a7bf 2846 00be
00000320: c955 bcbe c0c7 4cbf 2875 0140 bbd8 1240
00000330: 5768 db3f a6e9 f9bf 3308 b0bf 0b81 c73f
00000340: 94b7 50bf c5a2 cabd 0e30 47bf 936a f73f
00000350: 8f25 1140 ae7b b03f b816 e83f a245 cdbf
00000360: 89d4 ef3f c4ad b23d ec41 08c0 4217 d2bd
00000370: b353 cb3f 2e51 3bbf a35a 04bf 71cd 26bf
00000380: ed2b 85bf 0ec1 be3f 6523 993f 6e16 d13c
00000390: 2d75 dd3f eec8 2b3f 16c0 6fbf fb3b d3bf
000003a0: 9c5c 8e3e dcbd 41bf 5385 1fbf daf4 a83f
000003b0: 9901 b13f 8ca2 e0be 2522 22bf d8a6 473f
000003c0: 4ff1 8e3e 5a7a 353f 42a0 623f c8c2 b53f
000003d0: 5d22 f0bf 3c2e 993d b49c 1d3f 1524 d13e
000003e0: 2b1a 3fbf c023 ecbf a173 fb3f 4541 d5bf
000003f0: c3af 9f3f 08d8 0ec0 2bf2 003f 2bed e03f
-0.21726474 -0.31188825 0.048738312 -1.5217317 1.9598763 -1.6434841 0.689186 0.17449515
-0.8030055 1.7482755 -0.3019648 -1.4977891 0.63134897 -0.668452 1.6443623 -2.0698452
1.1557282 -0.5183209 -2.3944018 2.1116931 1.4914153 0.62290215 0.89069635 -1.7288842
2.3134625 0.003876565 -0.46600875 -2.050761 -1.3982351 -0.39105645 -0.91105896 1.1757406
-0.042414654 1.6990108 0.5560046 -0.95129305 0.9180899 2.3361304 -0.7253826 -0.8126466
-0.22649166 0.7905834 -1.3601326 -0.20609105 -1.2975764 1.5182714 -0.49646628 1.494702
-0.38356844 -1.9425548 1.0064108 -1.1870948 -1.895556 2.3074787 -0.46128008 0.29163605
-1.5488387 -2.0378118 1.4177465 -0.76131034 0.86459905 0.74732774 0.9633018 -2.2366273
-0.6299636 0.5087289 -1.6723095 1.9293798 1.3945822 -2.215949 1.7695239 0.79112375
1.6148074 1.4632359 1.1524851 0.87128633 1.392876 -0.7782856 1.2889409 -1.8154953
-0.66314113 0.5508002 -2.0260363 2.4371486 -1.0846695 -1.3415836 -1.6287463 -0.5335252
-1.4004345 2.022897 0.43507147 1.807746 0.37749115 -1.8653513 0.8102906 -0.008327739
-0.08473364 -0.5175874 0.23593262 0.45783582 0.80329025 -0.09168924 1.0332055 0.57898355
1.6773355 -0.04283883 -0.6548726 -1.2275132 1.9104422 1.0829611 1.6255999 0.8511055
-0.060789287 -2.2723608 -1.3500596 -0.3592941 0.99648595 -2.1229324 -2.3271403 1.6636008
-1.3512658 0.3381772 0.6023418 1.1385535 0.03479448 -1.1806908 -0.40029818 -0.6711341
1.3949134 0.6531464 0.29610288 1.4942372 -2.3398526 -0.15661253 0.6294596 0.46646744
-1.2742169 -1.81961 -0.45243484 -0.21854736 -1.6786228 0.30404776 0.9281851 0.5806463
1.0866169 0.1398443 2.1173532 1.1329974 -0.92465234 -2.242996 -0.20016766 0.6998547
1.9529496 -0.5868781 0.027434023 -0.8397874 0.7381754 0.16937163 0.5325809 -1.4777123
1.1455916 -2.2658887 1.2034808 -0.38226882 -1.362072 0.9862234 -1.2503297 1.9342701
1.9592698 -1.8778526 -1.7720504 0.76103836 -1.5226995 -1.2995535 1.0207323 1.8810077
0.14750427 -1.4804238 0.9493363 -0.075623885 -1.6223849 2.2671869 -1.3871738 -0.56144196
0.5083187 -1.0296806 -0.6293387 0.8519576 -0.42024904 0.057855874 1.1808788 1.1135993
-1.1566619 -1.7538033 1.8689357 0.07271492 -1.4857929 -1.9432449 -1.3098674 -0.12526762
-0.367842 -0.79992294 2.0227757 2.2944782 1.7141217 -1.9524429 -1.3752502 1.5586256
-0.8153012 -0.09894327 -0.778077 1.9329399 2.2679174 1.3787744 1.8131933 -1.6036875
1.8736736 0.087245494 -2.1290236 -0.10258342 1.5884918 -0.73170745 -0.517008 -0.6515723
-1.040403 1.4902666 1.1963927 0.02552339 1.7301384 0.6710347 -0.93652475 -1.650268
0.2780503 -0.7568033 -0.6231281 1.3199723 1.3828613 -0.43874013 -0.6333335 0.7798896
0.2791848 0.7088982 0.88525784 1.4200068 -1.8760487 0.07479522 0.61567235 0.4084784
-0.74649304 -1.844841 1.9644662 -1.6660544 1.2475513 -2.2319355 0.5036952 1.7572378

_initial._model.2.bias f4 [16]
00000000: 4ac2 073f 7efd a3be 077c 1b40 07bc 9bbf
00000010: ff25 1ac0 579e 363e 69eb 92bf 5c54 68bf
00000020: 4b94 e43f 7ad4 a2bb 544c 0cc0 5292 27bf
00000030: 4da8 aebf 5b37 11c0 5176 613f 48e8 09c0
0.53030837 -0.32029337 2.429445 -1.2166756 -2.408569 0.1783384 -1.1478091 -0.9075372
1.7857755 -0.004969177 -2.1921587 -0.6545764 -1.3645111 -2.2690036 0.8807116 -2.1548023

_func._drift._model.0.weight f4 [16, 17]
00000000: b2f9 313a 1a49 b1bb 0ad5 9f3b f0c7 a7b9
00000010: 3fb5 eb3a ad65 903a 9ca0 35bb 5e79 de39
00000020: 077c e63a e812 acbb aafe 91bb 58ee 8dbb
00000030: 0aa7 94b9 8081 38bb 214a afbb 76f9 a93b
00000040: 882f 963b 59e5 03bb 26b3 84bb 4b84 303b
00000050: 0c4d 7fba 4032 4fbb 971a abbb 2c8a 4038
00000060: b2bd 3dbb 4179 c23a 02ea be3a 169b 33ba
00000070: f7c2 bc3b 10c2 91ba adb5 b73b 2b8a df3a
00000080: 6ec7 de3a 8c0e 9b3b 8577 fbba 35a1 af3b
00000090: 4126 283b 2d20 d4ba fd9e 2d3b 6f38 b6bb
000000a0: 09c8 3c3a c26c a5ba 008a 9aba 2907 97bb
000000b0: 1c51 3c3b 0921 043b ec6d 1dbb 6617 953b
000000c0: 1ec8 8fba 3cd4 11b9 78d6 62bb 1c66 f03a
000000d0: 8ea4 083b 9dc8 843a 6ab5 c039 eb5f b8bb
000000e0: 9146 9f3b adba 6fb9 49a8 5f3b c63b 683b
000000f0: edc6 a4bb 028f 7b3b 6b86 80bb ec07 ef3a
00000100: c56d a33b b4d7 a23b b225 eb3a fb2d a8bb
00000110: 93d9 493b fac2 63bb d31f 183b 207e b1bb
00000120: 6049 1dbb 2938 90bb cd50 92ba 5843 01bb
00000130: ba2a b7bb a742 b9bb 00b6 4a3a 5217 4e3a
00000140: 55ef 14bb e651 48bb c49e 90bb 12a2 66bb
00000150: 1957 11bb fc27 1cbb 059a 6f3b 59fe c33a
00000160: d7ab 9b3b 7497 9cbb cbc4 053b 171e ad3a
00000170: 0801 99bb 4a52 4a3b a366 22bb 4b11 16bb
00000180: ca49 043b 719f b03a 363e a339 deb6 a93b
00000190: 5205 d8ba f460 67bb 50d1 bcbb f14a a13a
000001a0: 5496 92bb 99a4 993b b90a e03a ec18 b3ba
000001b0: d9d0 713b dc24 a53b 15d3 8a3b 48a5 11bb
000001c0: 2b57 073a 1aec 48bb f82b 6b3b fb88 b23b
000001d0: f88f 2eb9 29c9 793b b16f ff3a 764e 393b
000001e0: 9205 8dbb d58e 82bb de67 a1bb a014 b53b
000001f0: 8086 1a3b 1799 8b3b ab91 823b 7d85 983b
00000200: cac6 b7ba 4b1d b8bb 05bf 373a 934d 1bbb
00000210: 25ef 1e3b 54ad 223b de68 123a 725b b5bb
00000220: d007 cc3a 3cb7 4fbb 8e13 2ebb 220f 913b
00000230: fd16 43bb 3424 f03a 3d4a d9ba 9517 7439
00000240: 5b54 30bb 12e2 08bb 0c29 a13b 590b 4f3b
00000250: 7ab7 a0bb 29bd a83b 8a70 63bb cedd 73bb
00000260: 51fd a7bb 5fc2 adb9 6fe9 2cbb c4aa b8bb
00000270: 4306 213b 4a33 b9ba 4ea9 113b 1131 90bb
00000280: ae5c 70bb a91a 59bb a245 c6b9 15a4 a6bb
00000290: db10 863a fd17 4bb8 e720 9a3b 5767 adb9
000002a0: c1f9 a33b 2984 413b a257 9636 d80e 7ab9
000002b0: 44d7 df39 7a9d 013a 2914 b9ba 9de9 63bb
000002c0: a767 37ba 04b9 44bb 01a0 b5ba 8b91 99bb
000002d0: ea9a 963b 36b4 303b dae5 d9ba c5a8 fbba
000002e0: 6154 b43b 5999 afbb 8ce1 b5bb 9bc7 95ba
000002f0: 5b56 c73a 5537 90bb 5297 6d3b d63f d1ba
00000300: 1f91 8e3b 1145 7a3b b66e 84bb 7803 503b
00000310: 04e5 3d3b 254a 69ba 2282 843b 369b 9cbb
00000320: 331b a73a bcfe b3ba bec1 adb8 716e 0fbb
00000330: 893c 21bb 23a6 7b3b 8e2c 5c3b f640 853b
00000340: b74a 92bb 34b9 383a e034 c239 2649 88bb
00000350: 5c4e 6e3b 9703 f0ba 7045 46bb 7dba 81b9
00000360: 6201 303b f3dd dd3a 2f5d 973b cfdb 0d3a
00000370: 6463 9ebb 2f85 07bb 3eaf 5aba ac45 a83b
00000380: d6b5 283b eba1 ce3a 42f8 99bb 7a0f 28bb
00000390: 0591 173b 6d85 4cbb 43c3 06bb 4f4a b43b
000003a0: 9ed4 9d3a bc4b 223b 1a6b 703b 1b44 b3bb
000003b0: 7273 d33a 55ff 8cbb 9134 e9ba 0545 353b
000003c0: c89f b4bb dcec 843b d2a8 e83a b607 623b
000003d0: ab45 2b3b d731 203b 9a8e 1bb9 2f08 b03b
000003e0: b43d 4abb 6ca1 24ba 2365 a0ba 6372 ce3a
000003f0: 570d 3c3b 16c0 643b 0047 323b f7b8 80bb
0.00067892217 -0.0054103257 0.004877691 -0.00032001687 0.0017983093 0.001101663 -0.002771414 0.00042433565
0.001758457 -0.0052512772 -0.004455407 -0.0043313913 -0.00028353214 -0.002815336 -0.005349413 0.0051872088
0.004583303 -0.0020125716 -0.0040496765 0.0026934322 -0.0009738959 -0.0031615645 -0.0052216756 4.590505e-05
-0.0028952179 0.0014837162 0.0014565589 -0.0006851418 0.0057605463 -0.0011120457 0.0056063742 0.0017054727
0.001699669 0.0047319587 -0.00191854 0.0053597935 0.0025657567 -0.0016183906 0.002649247 -0.0055609266
0.00072014384 -0.0012620913 -0.0011790395 -0.004609008 0.0028734868 0.0020161292 -0.0024021817 0.0045499085
-0.0010969674 -0.00013907341 -0.0034612697 0.0018340978 0.0020850035 0.0010130588 0.00036756258 -0.0056266687
0.004860707 -0.00022862358 0.0034127405 0.0035436018 -0.0050285966 0.00383848 -0.003922274 0.0018236614
0.004987451 0.0049695615 0.0017940311 -0.0051324344 0.003079985 -0.0034753666 0.0023212328 -0.0054166466
-0.0024000034 -0.004401226 -0.0011162997 -0.0019723978 -0.00558981 -0.0056536975 0.00077328086 0.00078617514
-0.002272566 -0.0030566393 -0.0044134576 -0.0035191816 -0.0022177158 -0.0023827543 0.0036560309 0.0014953121
0.0047507095 -0.004778797 0.0020411487 0.001320782 -0.0046693124 0.0030871802 -0.0024780415 -0.002289849
0.0020185583 0.0013475252 0.00031136133 0.00517927 -0.0016481078 -0.0035305591 -0.0057622567 0.001230566
-0.004473487 0.004688811 0.0017093039 -0.0013664044 0.0036898165 0.0050397944 0.0042365887 -0.002222376
0.00051628303 -0.0030658306 0.0035884362 0.0054484583 -0.00016647566 0.0038114286 0.0019488243 0.0028275526
-0.0043036425 -0.003984312 -0.004925712 0.0055261403 0.0023578703 0.004260193 0.00398465 0.004654585
-0.0014021036 -0.0056187264 0.000700936 -0.002369736 0.0024251428 0.002482255 0.00055850844 -0.005534583
0.0015566293 -0.003169491 -0.0026561948 0.004426853 -0.002976834 0.0018321336 -0.0016577911 0.00023278438
-0.0026905749 -0.0020886702 0.0049182232 0.0031592457 -0.0049046846 0.005149503 -0.003470453 -0.0037211063
-0.005126633 -0.0003314195 -0.0026384254 -0.005635591 0.0024570383 -0.0014129665 0.0022226158 -0.0044003804
-0.0036676335 -0.0033127463 -0.00037817383 -0.005085478 0.0010228412 -4.8421312e-05 0.0047036293 -0.00033074126
0.005004138 0.0029528236 4.48055e-06 -0.00023847388 0.0004269426 0.00049444253 -0.0014120388 -0.0034776696
-0.00069963414 -0.0030017504 -0.0013856889 -0.0046865395 0.004596104 0.0026962883 -0.0016624287 -0.0019200078
0.005503223 -0.0053588566 -0.005550569 -0.0011427285 0.0015208231 -0.0044011273 0.0036253524 -0.0015964459
0.004350796 0.003818814 -0.004041518 0.0031740349 0.0028975615 -0.0008899293 0.0040438334 -0.004779245
0.0012749195 -0.0013732533 -8.28537e-05 -0.0021885897 -0.0024602732 0.0038398586 0.0033595893 0.004066582
-0.004464473 0.00070466404 0.00037041958 -0.0041591106 0.0036362624 -0.0018311617 -0.003025379 -0.00024743742
0.0026856293 0.0016927108 0.0046192626 0.0005411477 -0.0048336256 -0.002067875 -0.0008342153 0.0051352587
0.0025743148 0.0015764808 -0.004698784 -0.002564399 0.002312721 -0.0031207458 -0.0020563162 0.0055020223
0.0012041514 0.002476438 0.0036684931 -0.0054707653 0.0016132428 -0.004302899 -0.0017792155 0.0027659547
-0.0055122115 0.004056556 0.0017750508 0.003448946 0.0026134055 0.002444377 -0.00014835075 0.0053720693
-0.0030859532 -0.0006280157 -0.0012237172 0.0015750643 0.0028694475 0.0034904531 0.0027202964 -0.0039282995

_func._drift._model.0.bias f4 [16]
00000000: 15ec b43b 0683 c4b9 e084 173b bb50 0d3b
00000010: 03c4 c6b7 9925 14bb e23d 803b c634 acbb
00000020: ad7d aabb 7d53 a7bb 951d 0abb 49b7 aa3a
00000030: a316 abb9 13bf f638 f7e0 963b 8edf 97bb
0.0055213072 -0.00037481653 0.002311997 0.0021563012 -2.3694714e-05 -0.0022605418 0.003913627 -0.0052553145
-0.00520297 -0.005106388 -0.0021074761 0.0013024594 -0.00032632527 0.000117657844 0.0046044546 -0.004634804

_func._drift._model.2.weight f4 [16, 16]
00000000: e78d 22bb e5c0 103b 33bf afbb c72e c1bb
00000010: 3a1a 77bb 5c22 b9bb 8f5b 05bb 0897 b1bb
00000020: bb82 33ba 5e02 4e3b 390e a0bb d783 babb
00000030: c7bf 603b 7b29 ffba 7569 1e3b be11 2e3b
00000040: 68ca a8ba 419d cfb9 00c3 a2b8 f7ab 99bb
00000050: 9803 b13b 3aa8 9ab9 fd22 0a3b a0d4 773a
00000060: ee00 a23b 543f 9bbb 31f4 7fbb 2899 13b9
00000070: 1d50 18bb 5952 053b 3840 ae3b d0fc a9b9
00000080: a58f a7bb 71dc a13b 89fa c1ba e706 fa3a
00000090: 2940 fdba 50d5 ad3b 2274 5ebb a819 433a
000000a0: 3e63 2f3b 3839 a0bb 0529 db3a 8126 61bb
000000b0: d390 ab3b 5c9d 9e3b 7a43 f53a 974f 3ebb
000000c0: 1ac7 6239 f029 a63b d128 743b eed4 37bb
000000d0: b846 52bb 5233 c2ba 051d dcba 63a1 3cbb
000000e0: 359f bebb 003b 6138 2dad aa3a ddca 89bb
000000f0: 3558 473b 786f 29bb 7b8a 6d3b 871e 2dbb
00000100: 4abf b03b 3725 61bb 299c a43a 1db2 da3a
00000110: 2892 8e3b 1610 403b c7bd 99bb 3457 85ba
00000120: 1c1c 9bb9 3b77 503b 8366 55bb f679 4b3b
00000130: 2823 7abb 04c4 183b 4d66 8abb 9fd7 b83a
00000140: d266 cfb7 5466 903b 8bd1 33bb 42df c83a
00000150: 33cd 88bb 4140 38bb 2f55 533b d278 aa3a
00000160: d7aa 983b 8c9a 2e3b 6bd5 6e3b 9227 44bb
00000170: 4ab9 143a 411e b0bb 6195 e33a 0aa0 8aba
00000180: 2475 0e3b 100b 06bb efd6 d5ba f8bb 663b
00000190: 9c65 633b 9390 aa3b 6d93 b8bb 7e39 06bb
000001a0: 7ca2 a7bb a641 993a d9d4 a83b 367d e7ba
000001b0: 34a2 1cba b511 e0ba cf1a 05bb 1e07 d63a
000001c0: 6781 823b 0a22 7cbb ab04 9c3b 6db7 913b
000001d0: d4f8 76b9 13fe 85bb 1a9e 97bb 4e4c 86ba
000001e0: e74b 8ab9 f9b3 95bb cc27 b6bb b96d ed3a
000001f0: 532d f839 a677 863b 55ca 953a dbdb 153b
00000200: ac17 243a 02c9 213b 082d 2ebb 540f f337
00000210: 597a 4e3b afec fd3a e08c 353b 99c9 a8bb
00000220: 206d 27b8 467d 48bb d96d b7ba 07e5 2d3b
00000230: 6b3a 9cba c40a 38bb 3b12 04b9 456f 73bb
00000240: b211 22bb e37c 2ebb 5452 b03b c9f2 31bb
00000250: 16b0 53bb e7be c6ba 6795 8b3b 995f 0438
00000260: 32e2 65ba a5f9 573b 37fb 783b 59cd b33b
00000270: fa57 84bb fc6d 493b 4868 7fbb 3a20 3abb
00000280: c87a a03b 0020 083b 4f8b 30bb c637 c2ba
00000290: 1d25 633b dc39 893a cd5c a6ba 5fa3 c8ba
000002a0: 5c87 e2ba dcbc 70ba b99c 943b 08ce 88bb
000002b0: d39f 793b dda9 783a 9cb8 c03b 8160 003b
000002c0: 4635 c2bb 60da 08bb b1dd 82ba 26a0 073b
000002d0: 73ec b2bb 4845 053b 8bb2 a0ba 4f53 5bbb
000002e0: 88e7 89bb 2b9e 6fbb 7046 acbb daa0 e1b9
000002f0: 87ff 193b 345e 59bb 9ea1 5ebb 5707 6c39
00000300: a0f1 9dbb ebb0 88bb f4cd ceba 9cc0 803b
00000310: 3e92 463b 49c4 903a 629a 00bb 1e24 a5bb
00000320: 5821 653b 3431 6439 58f2 243b 602d 58b9
00000330: fb0f 513b c9ef 38b8 34ef 473b 4f2c 7dba
00000340: f55f feba 9ff0 983a 9c35 bfbb 9604 92bb
00000350: b117 1b3a c4d1 b93b f9d0 d6ba 647a f5ba
00000360: 9ed0 623b d4cb a43b c49c 6abb edf6 ad3b
00000370: a544 fbba d762 523b ab00 e53a 24fa 503a
00000380: 8241 9c3b 9c8a 91ba c150 c1b9 34d3 733b
00000390: 4dd8 15bb 2ebd c23a 4431 633b 1e63 8d39
000003a0: 84bf ba3b 2ab1 c739 e10f 273b 2911 5b3b
000003b0: 07bf a03b 7b2b 35bb a97b 1db9 0be6 1bbb
000003c0: f6cf 2ebb b53b 20bb fcad 433a f750 87bb
000003d0: 102d 1cbb d482 993b d8aa fd3a 2a64 c23b
000003e0: 1cc9 68ba d440 6cb9 155b 47bb 7d2e 6d3a
000003f0: 01d7 b93a 58b5 903b d96e 92bb 36e3 f0ba
-0.0024803819 0.002208763 -0.005363369 -0.005895469 -0.0037704841 -0.005649848 -0.0020348763 -0.0054196157
-0.00068477885 0.0031434516 -0.004884508 -0.005691986 0.0034293996 -0.0019467318 0.0024171744 0.0026560868
-0.0012877705 -0.0003959928 -7.7610835e-05 -0.0046896893 0.0054020397 -0.00029498508 0.0021077984 0.0009453986
0.0049439585 -0.004737774 -0.0039055462 -0.00014076068 -0.002324111 0.0020343272 0.005317714 -0.00032422552
-0.0051135593 0.0049396087 -0.0014799397 0.0019075543 -0.0019321489 0.00530497 -0.0033943732 0.0007442483
0.0026762034 -0.0048896335 0.0016720599 -0.0034355226 0.0052357703 0.004840536 0.0018712126 -0.0029039138
0.0002162721 0.0050709173 0.0037255774 -0.00280505 -0.0032085609 -0.001481632 -0.0016793316 -0.0028782717
-0.005817319 5.369913e-05 0.0013021581 -0.0042050914 0.0030417566 -0.0025853794 0.003624587 -0.00264159
0.005393897 -0.0034354457 0.0012558746 0.0016685162 0.0043509193 0.0029306463 -0.0046918127 -0.0010173083
-0.00029584847 0.0031809348 -0.0032562322 0.0031048036 -0.0038167927 0.0023310194 -0.004223621 0.0014102346
-2.4724202e-05 0.0044067297 -0.002743813 0.0015325325 -0.0041748523 -0.002811447 0.0032246818 0.0013005978
0.0046590376 0.002664241 0.0036443125 -0.0029930812 0.0005673362 -0.0053747003 0.0017363244 -0.001057626
0.0021737302 -0.002045337 -0.0016314666 0.0035207253 0.0034698015 0.005205223 -0.005632809 -0.0020481045
-0.005115805 0.0011692538 0.0051523265 -0.0017661217 -0.0005975098 -0.0017095121 -0.0020310169 0.0016329025
0.003982711 -0.0038472437 0.0047612987 0.004446915 -0.00023553084 -0.004089126 -0.0046270015 -0.0010246129
-0.00026377963 -0.0045685736 -0.0055589434 0.0018114365 0.00047336015 0.0041036187 0.0011428097 0.002286664
0.0006259631 0.002468646 -0.0026577134 2.8974995e-05 0.003150603 0.0019372905 0.0027702376 -0.0051509854
-3.9917533e-05 -0.0030592247 -0.0013994529 0.0026534216 -0.0011919265 -0.0028082589 -0.00012595292 -0.003714518
-0.0024729786 -0.0026624731 0.005380908 -0.0027152768 -0.0032301 -0.0015163095 0.0042597535 3.1560285e-05
-0.00087693625 0.0032955196 0.0037991533 0.005487126 -0.004038808 0.0030735722 -0.0038972069 -0.0028400556
0.004897449 0.0020771027 -0.0026938503 -0.0014817647 0.0034659572 0.0010469514 -0.0012692452 -0.0015307477
-0.0017282772 -0.00091834157 0.0045352844 -0.0041749515 0.0038089647 0.0009485761 0.005881382 0.001958877
-0.005926761 -0.0020882115 -0.0009984282 0.002069482 -0.005460316 0.0020335484 -0.0012260241 -0.0033466404
-0.004208509 -0.0036562781 -0.0052574202 -0.00043035188 0.0023498253 -0.0033167722 -0.0033970843 0.00022509448
-0.0048200637 -0.004171481 -0.0015777932 0.003929211 0.003029957 0.0011044826 -0.001962327 -0.005039706
0.0034962501 0.00021762104 0.0025168862 -0.00020616269 0.0031900394 -4.4092336e-05 0.0030507566 -0.00096577866
-0.001940726 0.001166839 -0.005835248 -0.004456113 0.0005916311 0.005670758 -0.0016389183 -0.0018728492
0.0034609209 0.005029181 -0.0035799006 0.005308977 -0.0019170238 0.003210237 0.0017471513 0.0007971844
0.0047685513 -0.0011103931 -0.00036871995 0.0037204744 -0.002286452 0.0014857405 0.0034666816 0.00026967464
0.0056991 0.00038088235 0.0025491642 0.0033426976 0.0049055847 -0.0027644325 -0.00015018754 -0.002378824
-0.0026674247 -0.002444965 0.00074645854 -0.004129525 -0.002383057 0.0046847854 0.0019353284 0.0059323506
-0.0008880065 -0.00022530864 -0.003041928 0.000904776 0.0014178456 0.004416149 -0.0044687805 -0.0018378261

_func._drift._model.2.bias f4 [16]
00000000: d3a0 a53b e263 81bb ebd3 233b c348 8dbb
00000010: 9206 30bb 1c6f b7bb 7ab7 5dbb 5c09 3dbb
00000020: da03 9f3b 369b 79bb 1c1e 873b ed36 2a3a
00000030: 104e 2c3b b163 833b fa1d 913b 8294 96bb
0.005054572 -0.0039486745 0.002499814 -0.0043116524 -0.0026859385 -0.005597962 -0.0033831284 -0.002884469
0.004852754 -0.0038086898 0.0041234624 0.000649317 0.0026291646 0.004009687 0.0044286223 -0.00459534

_func._diffusion._model.0.weight f4 [16, 17]
00000000: 6785 a33d e2c8 7fbd 3f0f 2bbd 7b36 953d
00000010: 184b e8bd 1d4a 3cbd 27a8 583d f79e 733c
00000020: 62ac b2bc b3cc a73d 5fed 883d 010e 7a3d
00000030: bf74 cc3c 6fc0 c23c 13dd 03bd 7463 d83c
00000040: e683 84bd ab9b 4dbd a152 353c 9a29 6bbd
00000050: 9578 b6bc 63f8 49bc 0b71 2f3d a92d b73c
00000060: 8cd6 413d 37c0 f13c 3a15 8abc 5259 5f3c
00000070: da15 80ba b3f9 313d efb2 253d 90df 5d3b
00000080: b7fa 90bc e8b7 9cbd 7312 683c 2b39 0e3d
00000090: 2b10 1d3d 6793 593d d700 15bd d36d 603d
000000a0: 7c9d 5bbd ef96 07bb c372 0b3d b3db 0a3d
000000b0: 8010 5a3d 4f44 853d 987a 54bd 1ecc deba
000000c0: 0686 2a3d 6ee6 9a3c 23b8 c43b a1c0 e93c
000000d0: fa61 4c3c 8946 3fbc 2061 b7bc d910 f6bd
000000e0: 10a6 cc3c 5f0a 87bc d0c3 d63c 391c aabd
000000f0: efe0 933d 8ba9 8a3c 1c73 2e3d fafb 063d
00000100: 805d fcbc 832a a1bd 9b42 19bd 2522 4bbd
00000110: 4d91 abbd a872 513c 3e6a d03c 994e 94bd
00000120: f5cf 823d a6b7 8abd 8887 2a3b 609b c6bd
00000130: 20da f73c b1d0 e4bd bff7 36bd 48b9 d0bc
00000140: b89d b3bd 16b3 14bd 715b 913b a5e8 35bd
00000150: 020c 313c 21ae b23d 446a abbd 60af a33c
00000160: 046f a5bc d425 d1bd 98ed 5ebd 718a f8bc
00000170: 2c6a 273b bb98 9fbd 7cac 843d 1f21 bdbc
00000180: c804 913d 2521 4fbd 28e2 39bd 7828 043d
00000190: c950 403d 118f d03a e13e efbd 2dd7 98bc
000001a0: 3b59 cbbc c5ca 5abd d940 173b da53 87bd
000001b0: bb13 f73b 3750 97bc 5f47 623d b94c abbd
000001c0: f622 6abd 29d7 54bd 9b42 7bbd 7ce3 19bd
000001d0: f0a2 303d 6855 b9bd 9170 273d 9505 0fbd
000001e0: a11d 23bb 295f 97bc 4c80 aebd bd6f c2bb
000001f0: ea08 8fbc 6bac 13bd 4d99 82bd 4189 7f3b
00000200: 2bf1 95bd 2f01 52bd bb51 a2bd 4e5a fbbc
00000210: 759e d43b bf17 d8bc 0823 87bd 10db ed3c
00000220: ebb8 183d 4b36 95bd f1aa d3bb ffb6 f73c
00000230: db32 c5bd b8c5 75bc cc81 173d aeae 733d
00000240: bb2e 27bb 6aef f5bb 7315 cb3b da2f 4d3d
00000250: 909b 40bd 6d90 f23c 1008 6bbd e1f2 993c
00000260: e3b9 52bd 78e4 15bd df21 393d 00ba 843b
00000270: d0a1 e2bd 3730 8f3b 5daa 0fbd 584b 0abd
00000280: b002 82bd bfee 2a3d 88d4 42bd 9bc5 b8bd
00000290: 82ed 27bd 8367 54bc fee0 62bb 417e e3b9
000002a0: 389a 9fbd 3da1 323d 7941 ccbd 00f4 32bd
000002b0: 969a 2cbd 7034 c8bc d366 473d fdfa a53c
000002c0: 64fa 8cbd 4c1f 34bd 8fc0 723d 82fb 00be
000002d0: 9117 88bd a487 f7bc 6abd 3bbd 4de3 d53b
000002e0: 675e 0abd fcba 43bd b6df b93c 0e41 003c
000002f0: ca77 c83c 6764 83bb 68e5 0a3d e947 1ebc
00000300: a1cf 60bc a8eb bebb c9a3 5d3d 0b6c acbd
00000310: bd20 013c fa1a e9bc a0ce 7a3d e7b8 013d
00000320: f9dd b2bd d81d a6bc 2a94 6a3d e357 81bd
00000330: 076e 7fbd 9582 333b e6a5 c13b 7a5b bdbd
00000340: fb47 1f3d 3902 803b 7e7d 83bd ce14 a4bd
00000350: 11ae 763c fa77 3ebd b8ec 9fbd eed8 60bd
00000360: 07b9 2dbd f8a4 d43c 3855 81bc b717 3dbd
00000370: 45bb 6e3d c749 843d 98fa 463c 3466 63bb
00000380: 7795 823d fade 8dbd c07d 1abd 576e 76bc
00000390: 99e5 053d 19a0 65bd 067c 9d3d fd8a 883d
000003a0: 4ad8 5c3d ab88 af3c d400 8b3c 7aef 7abc
000003b0: 6dcc 80bc da78 4ebc af14 183c 5f6e ce3a
000003c0: 5414 c63c 0d98 f93b 970d 9bbc 1ac3 213c
000003d0: b650 bebb 30c2 143d 7072 9dbd b493 6c3c
000003e0: 4221 de3c 8496 033d adaa bbbb 9cc1 b8bd
000003f0: a284 03bd 4399 1f3d b07b d3bc c493 57bb
0.07984429 -0.062447436 -0.041762587 0.07285782 -0.11342448 -0.045969117 0.052894738 0.014869443
-0.021810714 0.0819334 0.066859 0.06104851 0.024958013 0.0237734 -0.032193255 0.02641461
-0.0647047 -0.050197285 0.011067064 -0.05741272 -0.022274295 -0.012327286 0.042832416 0.02236064
0.04732375 0.0295106 -0.016855825 0.0136321355 -0.0009772137 0.043451022 0.040453847 0.0033855177
-0.017697675 -0.07652265 0.014164555 0.03472249 0.038345497 0.05311909 -0.036377754 0.054792237
-0.053616986 -0.0020689329 0.034044992 0.033900928 0.053238392 0.065071695 -0.051874727 -0.0016998088
0.04163172 0.018908706 0.006003396 0.028534235 0.012474531 -0.011674532 -0.02238518 -0.12014932
0.024981529 -0.016484438 0.026216418 -0.08306164 0.07220637 0.016926548 0.042590246 0.032955147
-0.030806303 -0.078694366 -0.037417036 -0.04959311 -0.08377323 0.012783684 0.025441285 -0.07241554
0.06387321 -0.067733094 0.0026020724 -0.09697604 0.030255377 -0.11172617 -0.044669863 -0.025478974
-0.08770317 -0.036303602 0.0044359495 -0.04441132 0.010806086 0.08724619 -0.08369878 0.019981086
-0.020194538 -0.10212293 -0.054425806 -0.030339452 0.002554546 -0.07792803 0.06478211 -0.023087082
0.0708099 -0.05056872 -0.045381695 0.032265157 0.046952043 0.0015911778 -0.11681915 -0.018657291
-0.024822822 -0.053416032 0.0023079424 -0.0660779 0.007540194 -0.018470867 0.055243846 -0.08364243
-0.057162248 -0.051963005 -0.061342817 -0.03757046 0.04312414 -0.09049493 0.040878836 -0.034917433
-0.0024889486 -0.018477993 -0.085205644 -0.0059337304 -0.017460305 -0.036053102 -0.06376896 0.0038991722
-0.0732139 -0.05127066 -0.07925745 -0.030682709 0.006488616 -0.02637851 -0.065984786 0.029035121
0.037285727 -0.07285746 -0.006459587 0.030238627 -0.096288405 -0.015000753 0.03698902 0.05949276
-0.0025510031 -0.007505347 0.0061976253 0.050094463 -0.047023356 0.029609883 -0.057380736 0.018792571
-0.051446807 -0.036594838 0.045198318 0.0040504932 -0.110660195 0.0043697613 -0.03507458 -0.03376326
-0.06348169 0.041731592 -0.047565967 -0.09022065 -0.04099799 -0.012964132 -0.003461897 -0.0004339088
-0.07793087 0.0436108 -0.099734254 -0.043689728 -0.042139612 -0.024439067 0.048682045 0.020261282
-0.06883696 -0.04397516 0.05926567 -0.12595943 -0.0664512 -0.030216046 -0.045834936 0.0065273405
-0.033781435 -0.047785744 0.022689682 0.00782801 0.024471182 -0.0040097716 0.033910185 -0.009660699
-0.013721378 -0.0058264323 0.054111276 -0.08419045 0.007881341 -0.028455246 0.06123221 0.031670477
-0.08733744 -0.020277902 0.057270207 -0.06315591 -0.06236079 0.0027391065 0.005909669 -0.092459634
0.038887005 0.003906515 -0.0642042 -0.08011781 0.015056149 -0.046501137 -0.078088224 -0.05489438
-0.042412784 0.02595757 -0.015787706 -0.046165194 0.058284063 0.064593844 0.012144707 -0.003469837
0.063761644 -0.06927295 -0.03771758 -0.0150409555 0.032689665 -0.056060884 0.07689671 0.06667135
0.053917207 0.021427473 0.016968168 -0.015315885 -0.015722478 -0.012602055 0.009282275 0.0015749446
0.024179615 0.007617003 -0.018927379 0.009873176 -0.0058079613 0.036318004 -0.07687843 0.014439512
0.027115468 0.032125965 -0.0057271332 -0.09021303 -0.03210891 0.03896452 -0.025815815 -0.0032894472

_func._diffusion._model.0.bias f4 [16]
00000000: f5cc db3d 275c 673c 1d33 803c ee8d c73d
00000010: b571 27bc 0399 773c 7671 70bd 9f6e cebd
00000020: e503 713d e820 e1bc 951b a9bc f6a0 4d3d
00000030: 3c8a a7bd ad70 be3d cd79 9f3d 4021 113c
0.10732452 0.014121092 0.015649373 0.09743868 -0.010219981 0.015112164 -0.058701955 -0.10079693
0.058841605 -0.027481511 -0.020643035 0.050202332 -0.08180663 0.09298835 0.077869035 0.008858025

_func._diffusion._model.2.weight f4 [48, 16]
00000000: 40a2 943d acdd 573d 2127 0abc 3a05 3f3d
00000010: f65e c8bd a494 283d a445 593b 5e0d dfbb
00000020: cf8c 1b3d ce09 b1bd f4ae 2e3c bddf 7b3d
00000030: 81bb 69bd a7e6 cfbc f2cb 93bc 9da3 923d
00000040: cad5 123d 8f8e 1fbd 28de e1bc f738 443c
00000050: f5a2 94bd a26b 533d 9573 11bd d617 b6bd
00000060: 160c a03d da52 24bc ac00 053c befe 8a3d
00000070: 8f65 7abc c3de ccbc 1968 ebbc dd26 60bc
00000080: e8c5 223c dd9e bcbc 9627 0ebd 4fe6 c73d
00000090: a82e b1bd 24c7 233d 9732 3fbd f882 bb3c
000000a0: 92e2 53bc 9689 01bd 0da0 b7bd 4197 b1bc
000000b0: a5f5 fdbc ec25 523a 17cd b63c e033 9bbc
000000c0: 97d4 953d 265b 6d3d 2571 56bd 2560 683c
000000d0: 7081 9d3b 3b22 89bc 3074 34bd ec50 0ebd
000000e0: d13f 653d 9275 2fbd b359 96bc 77de 48bc
000000f0: 11c1 c5bc 174c d4bb 9624 803d 951c 273d
00000100: 6ab6 893d 3049 fc3b e03b 12bc 1548 c53d
00000110: a1e3 2dbd e99d 8b3d 89bd 8dbd 0495 053c
00000120: 93cc 423d 78fa a9bd 14af 13bd 8638 1abd
00000130: 30df e4bc 5ad3 b63b 750f 453b 5926 743c
00000140: ee8c b93d ef4b 8a3c 094e 50bd 1e22 8a3d
00000150: c034 f2bc 84d9 383d 4462 f9bc 4b97 a1bc
00000160: a4bf 0e3d 4489 2fbd 386f b0bb a56c 743d
00000170: 209b bfbd 62fa bd3c 5f90 a73c ba61 7c3d
00000180: d1f0 a03d 7425 1e3d 7cd5 75bd 9dbb d53c
00000190: 6ad8 753b 1c8d 073c ff00 38bd 76f8 92bd
000001a0: 58e1 533d 11e3 aebc 0ffb 25bd 7b1d 3a3d
000001b0: 8fe6 3abd 6db3 a4bb 7f78 983d 3273 533d
000001c0: 1542 b03d 3200 ca3b 2a35 0fbd 93c3 883c
000001d0: 63b2 81bd 13c2 b43a 4e9f 60bc a266 80bd
000001e0: 6a1a bf3d 927c aebd 8243 c6bc 5de8 6e3d
000001f0: d7f5 b5bd 056b 2f3d ee19 a63d 669c 273d
00000200: cf73 ddbc 1411 bcbc 763e 78ba 7c09 193d
00000210: dc25 65bd 6818 3e3d b635 c8bc 0b30 963c
00000220: aca0 2a3d e3fe e33b cd47 38bd a02e bc3c
00000230: d625 963b 840e e13c e095 893d c0f0 6e3d
00000240: 8dfc 8fba a249 62bc 2f7d 20bc 2218 9c3c
00000250: 393a e7bc f070 403d 42b7 063c 1321 a2bd
00000260: 57d5 443d 454a 1dbd 10fc 7dbd 0248 863d
00000270: d040 babd d90a 273b e525 763d e07c f5bc
00000280: 5a19 ec3a 2bb1 dbbb 41d4 293d a9c1 363d
00000290: e052 d5bd 3054 933b 8e56 87bd 039a 94bd
000002a0: fbf1 7d3c 949f 86bd 9faf cfbd 9f60 243d
000002b0: 0668 5cbd 52b5 963d fa68 a73c 5e32 863d
000002c0: ac6a b03d bdb5 503b d413 21bd 11f1 fc3c
000002d0: 5f5e bbbd 5f39 d33c 2ac4 89bd 278a a3bd
000002e0: 59ac b3bc a282 b1bc 736e 593c 671b 47bc
000002f0: b8d5 abbd 202a 8d3c 9d2c 063d 3943 953d
00000300: a1d8 05bd 5764 b43c 1d19 473c f334 4dbd
00000310: 67b5 343b ac69 4fbd 106a 083c 5ce3 dcbc
00000320: da29 8bbc d9ae b23c 6e5a 6b3d 79dc 90bc
00000330: b887 793d 21f5 45bd 101e abbd b576 95bd
00000340: efbc 263c 7b7b 04bc fb31 8dba a706 cabd
00000350: 55ae 833c e05b 81bd dfaf bb3b 1c11 083d
00000360: 6852 91bd 9390 693c eeef 303d 3b4e 2bbd
00000370: 7b29 5e3d 024e f33c 95ff 163d 3f94 c53c
00000380: 89b7 53bd 78ad c03c 25d9 183d c3d6 51bd
00000390: 1e63 913d 8441 203c e01e 093d 20a0 ae3d
000003a0: 1031 e8bc 1a57 993d 577e e03b 3b05 c0bc
000003b0: 8d5a a93d 091b 54bd daf1 19bd 9e83 a1bd
000003c0: 97e7 efbb 0b4d d4bb 467c 30bd c831 ed3c
000003d0: cefb 27bd 7fc7 37ba 8c0b 89bd ed94 a8bc
000003e0: 42d0 a93b 8e79 b6bd a0b1 81bd a0d8 4b3d
000003f0: b5f0 513a 5d36 883d e522 2fbb d4b1 fa3c
0.07257509 0.052701637 -0.008432181 0.046635844 -0.09783737 0.04115738 0.0033153081 -0.0068070134
0.037976082 -0.08644448 0.010661829 0.06149267 -0.057063583 -0.025378538 -0.018041585 0.07160113
0.035848416 -0.038954314 -0.027571753 0.011976472 -0.07257644 0.05161632 -0.03551062 -0.08891265
0.07814805 -0.010029519 0.008117836 0.067868695 -0.0152830025 -0.025008565 -0.028736161 -0.013681141
0.00993488 -0.02302497 -0.03470572 0.09760725 -0.08651477 0.039984837 -0.046679106 0.0228896
-0.012932437 -0.031625353 -0.08966074 -0.021678569 -0.031000922 0.0008016515 0.022314591 -0.018945634
0.07315939 0.057948254 -0.052353997 0.014183079 0.00480669 -0.016739955 -0.044056118 -0.034745142
0.055969063 -0.042836733 -0.018353319 -0.012260071 -0.024139913 -0.006478797 0.06256978 0.040798742
0.06724246 0.0076991543 -0.008925408 0.09632889 -0.042453412 0.06817228 -0.069209166 0.008153204
0.04755838 -0.08299726 -0.03605564 -0.03765156 -0.027938455 0.0055793943 0.0030069028 0.014901721
0.09060083 0.016881911 -0.05085567 0.067447886 -0.029566169 0.045129314 -0.030442365 -0.019725462
0.03485073 -0.042855516 -0.005384352 0.059673924 -0.093557596 0.02319068 0.020454584 0.061616637
0.07858432 0.038609937 -0.060018048 0.026090438 0.0037513026 0.008273389 -0.044922825 -0.071762964
0.051728576 -0.021348508 -0.04052263 0.04543827 -0.045630034 -0.005026272 0.07444858 0.05162353
0.08606354 0.006164574 -0.03496281 0.01669482 -0.06332853 0.0013790749 -0.013709856 -0.06269576
0.0933121 -0.08519854 -0.024202112 0.058327068 -0.08884781 0.04282667 0.081104144 0.040920638
-0.02703276 -0.022957362 -0.00094697566 0.03736256 -0.05594431 0.046409994 -0.024439674 0.018333456
0.041657135 0.006957875 -0.04499035 0.022971451 0.004582147 0.027472742 0.067180395 0.058335066
-0.00109853 -0.013811501 -0.009795471 0.019054476 -0.028226005 0.046982706 0.008222403 -0.07916465
0.04805502 -0.038400907 -0.062007964 0.06556703 -0.09094393 0.0025488643 0.060094733 -0.029966772
0.0018012926 -0.0067044697 0.041462187 0.044618282 -0.10416198 0.00449612 -0.06608306 -0.07255938
0.015499587 -0.06573406 -0.10140919 0.040131208 -0.053810142 0.07358803 0.020435799 0.065525755
0.08614096 0.0031846606 -0.03932555 0.030876668 -0.09148859 0.025784193 -0.067268685 -0.07985335
-0.021932768 -0.021668736 0.013270962 -0.012152529 -0.08390373 0.017232 0.03275739 0.07288212
-0.032677297 0.022020502 0.012151984 -0.050099324 0.0027573945 -0.050637886 0.0083260685 -0.026963882
-0.01698773 0.02181189 0.057459287 -0.017683255 0.060920447 -0.048329476 -0.08355343 -0.07298032
0.010176881 -0.008086081 -0.0010772342 -0.0986455 0.016074339 -0.06316352 0.0057277526 0.03321944
-0.07095796 0.014255661 0.043197565 -0.041822653 0.054238778 0.029700283 0.036864836 0.02411854
-0.051688705 0.023520216 0.03731646 -0.051230203 0.07098983 0.009781245 0.03347671 0.08526635
-0.028343707 0.074873164 0.0068509984 -0.023439994 0.08269224 -0.051783595 -0.037584163 -0.07886432
-0.007321309 -0.006478911 -0.043087266 0.028954402 -0.041011624 -0.0007010623 -0.066916555 -0.020578826
0.005182297 -0.089099035 -0.063327074 0.049767137 0.00080085854 0.06650994 -0.002672368 0.030602373

_func._diffusion._model.2.bias f4 [48]
00000000: d410 8a3d 9106 b23d e1a4 ca3d 0875 a03d
00000010: 954b f33c 925b 533d 3b95 163d 45f1 6c3d
00000020: d831 b63c e217 eb3c 9ad3 e13d 3e21 df3c
00000030: 92bf 2abd 9f61 72bc bc23 9fbd 590a 863a
00000040: d8d2 c03b 7c83 8c3d 65c8 66bd 0643 dcbd
00000050: 03c9 bdbd a97a 1fbc 1274 4bbd a592 d0bd
00000060: 7743 cdbc 21b4 b6bc 1799 673d 6e40 92bd
00000070: 27e0 d9bc 6588 33bd d615 66bc 55ee 6bbd
00000080: bf03 ddbd f2fb bf3d 928a 923d 6e8f b13d
00000090: 81cd 2f3d fcc7 2d3c 0b90 973c d829 f23b
000000a0: 9645 b6bc c9ca 8abd 7aea 3a3d ddd9 903d
000000b0: 853f c43d 6813 5cbd aef2 8ebc a6e7 cc3a
0.06741491 0.08692659 0.098947294 0.07834822 0.029699126 0.051601 0.03676341 0.05784728
0.022240564 0.028697912 0.11026688 0.02723753 -0.041686602 -0.0147937825 -0.07770488 0.0010226473
0.0058845095 0.06861016 -0.056343455 -0.10754971 -0.092668556 -0.009733834 -0.04967124 -0.1018422
-0.025056584 -0.022302689 0.056542482 -0.07141195 -0.026596142 -0.043831248 -0.014043292 -0.057600338
-0.1079173 0.09374227 0.071553364 0.08669935 0.042920593 0.010606762 0.018501302 0.007390242
-0.022249978 -0.067769594 0.04563377 0.07072804 0.09582428 -0.053729445 -0.017449703 0.0015633001

_readout.weight f4 [1, 16]
00000000: eebd c1bd 0a17 45be 662b 77be bf1b 52be
00000010: 0dda 9d3d c7b9 cabd 1cfc d83b f620 053e
00000020: 9d07 f1bc 5037 8d3d 163b ae3d a64c 8bbe
00000030: 6556 71be c8cf a1bb 65d4 8ebd 7069 163e
-0.09460054 -0.1924707 -0.24137649 -0.20518397 0.077076055 -0.098987155 0.0066218507 0.13000855
-0.029422576 0.06895316 0.085073635 -0.27206916 -0.23568113 -0.0049380995 -0.06974105 0.14688659

_initial._model.0.weight f4 [16, 2]
00000000: 3fea 26b6 1af1 b1be 82c2 32b6 f8b5 993f
00000010: e2c4 c634 7537 37bf cafc bc36 60ba 11bf
00000020: 57e4 8cb6 6e4b a1be 0667 4036 7bd5 31bf
00000030: 15cc 4336 ed75 623f e939 e4b5 0925 aa3f
00000040: 783c 6334 95a0 3dbf a564 59b6 0f1e 3a3f
00000050: 39d2 81b6 7a99 f13d 0a30 be36 92e7 aebe
00000060: fb71 c4b6 464b b1bf 3995 3b36 c77c b93e
00000070: 6236 a135 2c41 1c3f d233 deb5 7bdc 1c3f
-2.4872277e-06 -0.34754258 -2.6637285e-06 1.2008657 3.7023625e-07 -0.71568996 5.632265e-06 -0.5692501
-4.1989074e-06 -0.3150286 2.8670197e-06 -0.6946637 2.9176056e-06 0.8846119 -1.7004178e-06 1.3292552
2.1163021e-07 -0.74073154 -3.2394103e-06 0.72702116 -3.8689727e-06 0.117968515 5.6680337e-06 -0.3416105
-5.8545243e-06 -1.3851097 2.795203e-06 0.3622801 1.2011262e-06 0.61036944 -1.6555371e-06 0.61273926

_initial._model.0.bias f4 [16]
00000000: c50f 01bf 37a5 f9bc 094e 9c3d 38cc 0b3f
00000010: 3901 7dbe b132 ec3a e8f4 a4be 1fca 04bf
00000020: 6741 413f 907e 143e d24f 96bd 5c0c fbbd
00000030: c291 5cbe b214 b2be 9a78 853d 4e4c bd3e
-0.5041469 -0.030474288 0.076320715 0.5460849 -0.24707498 0.0018020478 -0.322181 -0.5187091
0.7549042 0.14501405 -0.07339443 -0.12258217 -0.21539977 -0.34781414 0.065171435 0.36972278

_initial._model.2.weight f4 [16, 16]
00000000: 7b00 1dbd 09c2 f7be 83e2 9ebc d472 7cbd
00000010: 1565 7cbe 416b 1dbe 7324 1cbe feef 43be
00000020: 6764 36bd 84b6 5bbe 7776 bd3a 7639 2cbe
00000030: 12f8 3cbe c770 dabd c29f ae3d b512 54be
00000040: e731 d03d 3bd8 bf3e 4054 d73e b3c9 8a3e
00000050: 3b99 283e a58f c23e c3b9 6e3e 23c4 873e
00000060: 6153 553e 8229 613e b6b3 66bb b043 0e3e
00000070: e214 013f 6dc4 36be 637d 853d 9303 903e
00000080: 52c8 8ebe 88a4 c13e 8196 053e da64 1f3e
00000090: fe8f bebe 5ddb 173e c4ea 8b3d c656 fa3d
000000a0: a744 803e 41e7 e23e d13d 8abe e560 88be
000000b0: 609e 903e 7395 dfbc 1505 893d 9ac6 073f
000000c0: 8f3a 723c 7e47 1a3f 9b4c 303e 10f5 cd3d
000000d0: 345e 93bd afd0 b53d 081e a63e 6467 da3e
000000e0: 8e6f 383e a300 ea3d e206 45be bdd5 323e
000000f0: bfb9 8c3e 3883 0ebd 6e98 a33e d73e ae3c
00000100: b32e debd cfdc e53e cb05 403e 9b48 203e
00000110: 1574 84bd e608 ab3e 2ca9 c13d 257b fc3e
00000120: 6082 21be 068c 993e 45a6 46be 18f0 ed3d
00000130: 265e 1b3f aa6c 063d d44b 9fbd f98a 79bc
00000140: f341 c93c 6849 033f aa42 7cbd d984 bf3d
00000150: 7f5b 723e 76eb 5f3e c230 8e3e f44f ee3e
00000160: faf2 a83d eaed 993e b4e2 043e 9983 a1bd
00000170: 219a a13e 2e6d 273e faaa de3d 8f56 8bbd
00000180: 2dda 5b3e f5aa 48bb 64b2 b23b 4a85 d5bd
00000190: 849f 9f3e 75b2 b7bd 8afe c03d 4ccf 35bc
000001a0: 4ca9 28be fa18 d5be de6a bc3d 38b2 cb3e
000001b0: 1d73 153e 7788 2ebc e33d 5dbd 7f56 9bbd
000001c0: 2cd7 1fbe 38ad a2be 9ede 523d 3f78 91be
000001d0: 12b4 9b3d b7ce 05be 9a77 30be 6d82 d2be
000001e0: 84e0 0abe 8080 043c dfad fe3d 4024 14bd
000001f0: 0582 19bf 459d 883d 2ae2 433d cbc6 74be
00000200: 1b6b 9d3e 5013 0a3e 0c56 6abd d221 e73d
00000210: 7f23 163e 82f9 b13d 1262 a63e 3f6e 003f
00000220: f0e1 ddbd 8ad5 5e3e 9bb2 06bc 13c1 403e
00000230: bada 1c3f bc4f 063e b946 29be 7214 643e
00000240: f552 0a3e 32d4 69be c34c 6fbe 65ce 2dbc
00000250: 430a 08be b455 eabe 3e8d 7abe 99ea 92be
00000260: 858b 59be c58b cbbb f0b9 523e bce1 723d
00000270: d6cc 1fbf 32a4 03be 4e8a f8bd 6076 773c
00000280: 1fa2 f6bd b83e 083e 0ad6 413e 45a1 15be
00000290: f527 8dbd 5918 d43e aa3a 943e fe90 a83e
000002a0: ed78 053c 93a4 7b3e eaaa c6bd a287 8c3e
000002b0: 00c0 5d3e af99 2e3e cb04 97bc 4e86 5bbd
000002c0: 58c2 b6bd 644e 7a3e d381 3a3e d4b3 d03d
000002d0: 4e18 4e3e 3492 b83e 09d1 4e3e d53b d63d
000002e0: 1401 533e 0bc2 4a3d 5414 abbd 5d76 9a3d
000002f0: 4a7a 163f 87fb 16be db02 233e 8071 a73d
00000300: 3aef 12bd 7105 973e 785f 0c3e 62d0 3bbe
00000310: 0a92 a73d 2065 9f3e 2bdb a03e 3c61 b13e
00000320: 11a6 4e3e 9c52 6c3e c6f7 acbd db63 9dbd
00000330: 609d 0c3f 15e2 ae3e a71f 5f3e 62b2 2f3e
00000340: 720a 203e 5567 be3e 9895 c23e f155 8b3e
00000350: b1c3 95bd 48a2 ee3e 2c8c a33e 21ba 973d
00000360: e6b2 2e3e 1791 ff3b 551c e2bd 9d6d d23d
00000370: 2782 1b3f bc4d 1ebe 3596 2c3e cdc1 583e
00000380: ea01 a23e 21e7 76be c850 9b3e 27d0 353e
00000390: 8a6c 1c3e 07bb e33e 2bb0 233e 7690 28bd
000003a0: 56da 88bd 8c09 a4bd d57d d1bc 71f8 d23e
000003b0: ad06 b73e e6a8 78bd f259 93bd f112 9cbe
000003c0: e954 313a dcca d2be e3c7 6ebe 7f5f 873d
000003d0: df82 6ebe f941 4ebe 085e 96be 03b3 cebe
000003e0: 3576 21be ffaf 06be 2c13 a2bc 1032 51be
000003f0: 0679 ebbe ef70 6dbe db9b 15bb 4574 a9bd
-0.038330536 -0.48390225 -0.019395119 -0.061632946 -0.24647935 -0.15372945 -0.1524828 -0.19134519
-0.044529345 -0.21456343 0.0014454861 -0.16818795 -0.18454006 -0.10666042 0.08526565 -0.20710261
0.10165768 0.37469658 0.42056465 0.2710701 0.16464703 0.38000217 0.2331305 0.26516828
0.20832588 0.2198849 -0.003520233 0.13893008 0.5042249 -0.17848368 0.06518056 0.28127727
-0.27887207 0.3782084 0.13045694 0.15565816 -0.37219232 0.14829774 0.06831887 0.12223582
0.25052378 0.44317058 -0.27000287 -0.26636425 0.2824583 -0.027292943 0.066904224 0.53037417
0.014784469 0.6026534 0.17216723 0.100565076 -0.07195702 0.08877694 0.32444787 0.42657006
0.18011305 0.11425903 -0.19240907 0.17464347 0.27485463 -0.03479311 0.31952232 0.021270199
-0.10848751 0.44895026 0.1875221 0.15652697 -0.064674534 0.33405226 0.09456095 0.49312702
-0.1577239 0.29989642 -0.19399364 0.1161806 0.60690534 0.032818474 -0.07778135 -0.015230888
0.02456758 0.51283884 -0.061587013 0.093515106 0.23667715 0.21867165 0.27771574 0.46545374
0.08249469 0.30064327 0.12977105 -0.078864284 0.31562904 0.16350242 0.10872455 -0.06803619
0.21469946 -0.0030619476 0.0054533947 -0.104258135 0.31176388 -0.08969585 0.094235495 -0.011096787
-0.16470832 -0.41620618 0.09200071 0.39784408 0.14594693 -0.010652653 -0.054014098 -0.07584857
-0.15609425 -0.3177278 0.051481836 -0.28412053 0.07602705 -0.13067137 -0.17233124 -0.41115132
-0.13562208 0.008087277 0.12435507 -0.036167383 -0.5996402 0.06670622 0.04782311 -0.23903958
0.30745777 0.1348393 -0.057210967 0.112857476 0.14661978 0.08690168 0.32496697 0.5016822
-0.1083411 0.21761146 -0.008221294 0.18823652 0.6127125 0.13116354 -0.16530885 0.22273424
0.13508208 -0.22834852 -0.23369126 -0.01060829 -0.13285165 -0.4576851 -0.24467942 -0.2869461
-0.21244629 -0.00621173 0.20578742 0.05929731 -0.6242193 -0.12855604 -0.121357545 0.015103906
-0.12042641 0.13305175 0.18929306 -0.146123 -0.06892387 0.41424826 0.28951007 0.3292312
0.008146507 0.24574499 -0.09700568 0.2744723 0.21655273 0.17050813 -0.018434903 -0.05359488
-0.08923787 0.24443966 0.18213587 0.101905495 0.20126459 0.36049044 0.20196928 0.10460631
0.2060588 0.04950146 -0.08353487 0.07542107 0.5878035 -0.14744388 0.15919058 0.08175945
-0.035872675 0.2949634 0.13708293 -0.1834121 0.081821516 0.3113184 0.31417212 0.34644496
0.20180537 0.23078388 -0.084456965 -0.076850615 0.54927635 0.34156862 0.21789418 0.17157891
0.15628985 0.3718821 0.38004756 0.27214006 -0.07312716 0.46608186 0.3194288 0.07408548
0.17060432 0.0077992785 -0.1104056 0.10274813 0.6074547 -0.15459341 0.16854174 0.21167679
0.31642085 -0.24111606 0.3033507 0.17755185 0.1527578 0.44478628 0.15985171 -0.041153394
-0.06682269 -0.080096334 -0.025572697 0.4120517 0.3574728 -0.06070795 -0.0719489 -0.304832
0.0006764667 -0.41170394 -0.23318438 0.06610011 -0.23292111 -0.20142354 -0.29368615 -0.4037095
-0.15767749 -0.13153075 -0.019784532 -0.20429254 -0.4599077 -0.23187612 -0.0022828493 -0.0827413

_initial._model.2.bias f4 [16]
00000000: 208c ac3e 09b3 dc3d 40ea a13e d605 9bbc
00000010: 0f20 5ebe 5b65 e83d 6e35 aebe 6131 e53c
00000020: 424b 7bbe 41e5 68be 0090 d43d b451 443e
00000030: c312 a3bd 1b17 313d 1458 95be 4fa4 193e
0.33700657 0.10776336 0.3162403 -0.018923681 -0.21691917 0.11347457 -0.3402514 0.027977647
-0.24540427 -0.22743703 0.10379028 0.19171792 -0.07962563 0.043234926 -0.2916876 0.15004085
