hyperparameter_tuning/ray_results/SUD_learning_rate_tuning/MyTrainableClass_23e173b7_14_batch_size=16,name=SUD_v2,patience=1000,steps=200,steps_per_print=5,swa_step_start=2500,t_size=7,trai_2024-03-11_19-06-22/checkpoint_000000/checkpoint.pt (torch, 61346 bytes, 66 tensors)

_initial._model.0.weight f4 [16, 5]
00000000: 445b 54bf 15c5 06c0 dbdd b8bf 783e 91bf
00000010: 9fb1 31c0 f562 e0bf b050 5bc0 80f0 71c0
00000020: 5a0c 51c0 9d12 2140 e073 3940 de0d 21c0
00000030: e265 5240 0040 63c0 0a78 ff3f 42e0 813f
00000040: 432a 4b40 c126 14c0 24f7 4a40 3868 653e
00000050: 4047 2f40 4c34 8bbf 531c 59be 9665 1cc0
00000060: a003 af3f 0048 2dc0 928e 87bf 41b6 3ec0
00000070: 2194 d3bf 9615 f83d 6afa 4ec0 9fcd 463f
00000080: 284e 27c0 1595 b7bd f123 65bf 7b54 5cbf
00000090: d157 51bf 1561 ca3f 3884 1d3f 74a8 0240
000000a0: 1d90 0bbf 2e28 68c0 eb76 5cc0 10af 6c40
000000b0: e4fc 5bc0 38ce 2640 1634 223f b12f cb3f
000000c0: 6f2b df3f 3d91 fdbe b26f 3b40 995b fa3d
000000d0: 4a29 f1bf e37b 1fbf ba20 c0bf 102e 873f
000000e0: a9b9 2cc0 30f3 61c0 5a3d 6440 66e5 433f
000000f0: 5696 863e 0454 9b3f 50f0 1140 0585 40be
00000100: b3e6 2340 8737 78c0 ecab f4bf 6dfd 1fbf
00000110: 1673 e63f 2a8e 18c0 2e79 3c40 a889 4f40
00000120: aa42 4240 3338 77c0 8c9f 55c0 4dd9 83bf
00000130: 32c8 f13e 91f4 4940 ecc9 413f bb52 5a40
-0.8295176 -2.105779 -1.4442705 -1.1347189 -2.7764661 -1.7530199 -3.4267998 -3.780304
-3.2663789 2.516761 2.8976974 -2.5164714 3.2874684 -3.5507812 1.9958508 1.0146563
3.1744545 -2.3148654 3.1713343 0.22403038 2.7387238 -1.0875335 -0.21202211 -2.4437003
1.3672981 -2.7075195 -1.0590384 -2.979874 -1.652958 0.12113492 -3.234034 0.776575
-2.6141453 -0.08963982 -0.8950797 -0.86066407 -0.8177462 1.5810877 0.61529875 2.0415316
-0.54516774 -3.6274524 -3.4447582 3.698185 -3.4373102 2.6063366 0.63360727 1.5873929
1.743513 -0.4952487 2.9286923 0.12224502 -1.8840725 -0.6229841 -1.5009987 1.0560932
-2.6988318 -3.530468 3.5662446 0.7652191 0.26286572 1.2135015 2.2802925 -0.18800743
2.5609558 -3.8783891 -1.9114966 -0.6249607 1.8003871 -2.383677 2.9448962 3.2427769
3.0353189 -3.8628051 -3.337863 -1.030069 0.4722305 3.1555521 0.75698733 3.4112995

_initial._model.0.bias f4 [16]
00000000: e448 f63f 0b9f 5cc0 0e16 c4bf a141 473f
00000010: b147 d23e 2bc1 60c0 cdaa d0bf dedd 1d40
00000020: 8cf7 e73f 4b75 48bf 3262 60c0 1c4b 6440
00000030: a2ff 03c0 154c a53f 351e 1abf 6c36 463e
1.9240994 -3.4472072 -1.531923 0.77834517 0.4107032 -3.51179 -1.6302124 2.4666667
1.812242 -0.78303975 -3.5059934 3.5670843 -2.0624776 1.2913843 -0.6020234 0.19356698

_initial._model.2.weight f4 [16, 16]
00000000: 6692 5ebe e6a8 9fbe 7b68 453d bbf8 c2bf
00000010: 67d0 fa3f 6a64 d2bf be69 303f d2e6 313e
00000020: ad77 4dbf bb9d df3f 9110 9bbe d1a2 bfbf
00000030: df19 213f d41d 2bbf 8c5a d23f 1497 04c0
00000040: 1cec 933f 14ad 04bf b746 19c0 9f0d 0740
00000050: 01da be3f 2369 1f3f 1500 643f fd64 ddbf
00000060: 5e16 1440 41b9 2a3b 4d0e efbe 2735 03c0
00000070: b83c b3bf 5334 c8be 047b 69bf 4541 963f
00000080: 4213 2ebd 037b d93f f432 0e3f 70e9 73bf
00000090: 7cee 6a3f d07f 1540 3fb7 39bf 6d3b 50bf
000000a0: df82 67be 4b10 4a3f 4c36 aebf f160 52be
000000b0: 9d5a a6bf d857 c23f e1b0 febe d214 bf3f
000000c0: b66e c4be e6a3 f8bf 68c0 803f 3a23 98bf
000000d0: 48ae f2bf 60aa 1340 3a36 ecbe f6ed 943e
000000e0: 3633 c6bf 6380 02c0 845b b53f 83bb 42bf
000000f0: 41d0 5c3f d752 3f3f 245b 763f 9243 0fc0
00000100: 813f 21bf 7038 023f 7bfc d5bf 5626 f73f
00000110: 8a8e b23f c4ce 0dc0 0b82 e23f 39b9 4a3f
00000120: fba4 ce3f da74 bb3f 17a2 933f 7be3 5e3f
00000130: eb8c b23f 8a3f 47bf ea1b a53f 2525 e8bf
00000140: 03c9 29bf 0605 0d3f 57b3 01c0 f5e1 1b40
00000150: f9e2 8abf bebf abbf 037d d0bf 5cc6 08bf
00000160: 1934 b3bf 7062 0140 7d4c de3e 4d79 e73f
00000170: 6039 c03e a8c2 eebf 9d2f 4f3f aa04 27bc
00000180: b156 adbd 3284 04bf 3214 723e be15 eb3e
00000190: 9aba 4d3f fc62 bbbd 5642 843f 8664 143f
000001a0: 2aa7 d63f 70c4 2abd fc71 27bf ee31 9dbf
000001b0: e7c5 f43f 239e 8a3f 962f d03f d94d 5a3f
000001c0: b9a6 78bd 486f 11c0 f9bc acbf e531 b7be
000001d0: 6633 7f3f cdda 07c0 beee 14c0 e509 d53f
000001e0: 9c03 adbf 64cc ad3e 586e 1a3f 10a7 913f
000001f0: 9ffc 163d fd21 97bf 9273 ccbe 2554 2bbf
00000200: cf89 b23f 9838 273f c14f 973e 7210 bf3f
00000210: 13c7 15c0 4a95 20be b91f 213f 166a ee3e
00000220: f00b a3bf d413 e9bf 2f20 e8be 8b21 5fbe
00000230: 7b23 d7bf beb0 9b3e f55a 6d3f a225 143f
00000240: 2819 8b3f 6925 0f3e 718b 0740 3236 913f
00000250: dc9c 6cbf f289 0fc0 60e6 4cbe f95a 333f
00000260: 43ed f93f e0ea 15bf 8707 e83c c125 57bf
00000270: 337e 3d3f 5568 2d3e 6896 083f fce8 bcbf
00000280: aba5 923f 3305 11c0 2a1d 9a3f cdf8 c2be
00000290: d24b aebf 8286 7c3f 7808 a0bf bcae f73f
000002a0: 57bc fa3f 2f34 f0bf b0b5 e2bf e8a9 423f
000002b0: 74a5 c2bf b958 a6bf dbc6 823f 8101 f13f
000002c0: 3ff5 163e b47c bdbf 70e4 723f d3ec 9dbd
000002d0: 00b7 cfbf 3e16 1140 3991 b1bf 60ec 0fbf
000002e0: d43b 023f 47f6 83bf 3f57 21bf 2244 5a3f
000002f0: 6239 d8be 571e 6d3d 0a07 973f d94c 8e3f
00000300: 4110 94bf d97a e0bf b427 ef3f 72e2 913d
00000310: 183b bebf f6c2 f8bf 0cac a7bf 390c 01be
00000320: c920 bcbe 061b 4dbf 8e66 0140 41e3 1240
00000330: 0425 db3f 8ce8 f9bf 0928 b0bf b743 c73f
00000340: bcbe 50bf 1396 cabd 284e 47bf da3b f73f
00000350: 8220 1140 9c74 b03f f613 e83f b05a cdbf
00000360: 53e2 ef3f 8e00 b03d a84d 08c0 f49a d0bd
00000370: 8a14 cb3f 304e 3bbf b798 04bf 7746 27bf
00000380: 842e 85bf f8c2 be3f dd11 993f acdd c43c
00000390: 9c68 dd3f 7dbb 2b3f 7ec4 6fbf ac54 d3bf
000003a0: cd92 8e3e 5911 42bf 99c0 1fbf 400a a93f
000003b0: cabd b03f 439d e0be 4c62 22bf 852b 473f
000003c0: 13fc 8e3e 9176 353f 97c3 623f 97f3 b53f
000003d0: ac15 f0bf a999 993d 2ca1 1d3f a687 d13e
000003e0: f934 3fbf 23fa ebbf 3a91 fb3f 6556 d5bf
000003f0: 8ef3 9f3f 90d8 0ec0 1e32 013f c62a e13f
-0.21735534 -0.31183547 0.048195343 -1.5232157 1.9594849 -1.6436894 0.6891135 0.17373207
-0.80260736 1.747001 -0.30286077 -1.4971563 0.629301 -0.6684239 1.6433883 -2.071721
1.155643 -0.51826596 -2.394941 2.1102064 1.491028 0.622698 0.89062625 -1.7296444
2.3138652 0.0026050361 -0.46690598 -2.0501192 -1.4002905 -0.3910242 -0.9120333 1.1738669
-0.042498834 1.6990665 0.555465 -0.9527807 0.9177015 2.335926 -0.72545236 -0.81340677
-0.22608517 0.7893111 -1.361032 -0.20544793 -1.2996403 1.5183058 -0.49744323 1.4928229
-0.38365716 -1.9425018 1.0058718 -1.188575 -1.8959436 2.3072739 -0.46135122 0.290878
-1.5484378 -2.039086 1.4168553 -0.7606737 0.8625527 0.7473578 0.9623282 -2.2384992
-0.62987524 0.50867367 -1.6717676 1.9308574 1.394975 -2.215745 1.7695936 0.7918888
1.6144098 1.4645035 1.1533841 0.8706586 1.3949255 -0.7783133 1.2899144 -1.8136336
-0.66322345 0.5508579 -2.026571 2.4356663 -1.0850517 -1.341789 -1.628815 -0.5342767
-1.4000274 2.0216331 0.4341773 1.8083893 0.37543774 -1.8653154 0.8093203 -0.010193983
-0.08463801 -0.51764214 0.23640516 0.45915025 0.80362856 -0.09149739 1.0332744 0.57965887
1.6769764 -0.041691244 -0.654083 -1.2280862 1.9122895 1.082951 1.6264522 0.85275036
-0.060705874 -2.272417 -1.349517 -0.35780254 0.996878 -2.1227295 -2.3270717 1.6643645
-1.3516726 0.33945 0.6032462 1.1379108 0.036862012 -1.1807247 -0.39931923 -0.6692527
1.3948306 0.6532073 0.29553035 1.4926894 -2.3402755 -0.1568195 0.6293903 0.46565312
-1.2738018 -1.8209176 -0.45337054 -0.2179014 -1.6807703 0.3040828 0.92716914 0.57869923
1.0867052 0.13979115 2.1178858 1.1344664 -0.9242685 -2.2427945 -0.20009756 0.7006069
1.9525532 -0.58561516 0.028323902 -0.8404198 0.7402069 0.16934331 0.533545 -1.4758601
1.1456808 -2.2659423 1.204015 -0.38080445 -1.3616889 0.9864274 -1.2502584 1.93502
1.9588727 -1.8765925 -1.7711697 0.76040506 -1.5206742 -1.2995826 1.0216936 1.8828584
0.14741991 -1.4803681 0.9487982 -0.07711186 -1.6227722 2.2669826 -1.3872443 -0.56220055
0.5087254 -1.0309533 -0.6302375 0.8526021 -0.4223128 0.057890262 1.1799023 1.1117202
-1.156746 -1.753749 1.8683991 0.07123269 -1.4861784 -1.9434497 -1.309938 -0.12602319
-0.36743763 -0.8011936 2.0218844 2.2951205 1.7120671 -1.9524093 -1.3762218 1.556754
-0.8154104 -0.09891906 -0.7785363 1.931514 2.2676091 1.3785586 1.8131092 -1.6043301
1.8740944 0.08593856 -2.1297398 -0.10185805 1.5865643 -0.7316618 -0.51795524 -0.65341896
-1.040482 1.490325 1.1958576 0.024031483 1.7297549 0.6708296 -0.936592 -1.6510215
0.27846375 -0.7580772 -0.62403256 1.3206253 1.3807919 -0.4386998 -0.6343124 0.7780078
0.27926692 0.7088404 0.88579696 1.4214963 -1.8756614 0.075000115 0.61574054 0.40923804
-0.74690205 -1.8435711 1.9653695 -1.666699 1.2496202 -2.231968 0.504671 1.7591178

_initial._model.2.bias f4 [16]
00000000: 64ad 073f 5826 a4be fc76 1b40 5ec6 9bbf
00000010: d220 1ac0 854e 363e 3be1 92bf 2140 68bf
00000020: 0b8a e43f 3f83 98bb 3947 0cc0 89a6 27bf
00000030: 78b2 aebf 953c 11c0 b662 613f 53e3 09c0
0.5299895 -0.32060504 2.4291372 -1.2169912 -2.4082532 0.1780339 -1.1474985 -0.9072285
1.7854627 -0.0046543176 -2.191847 -0.6548849 -1.3648214 -2.2693226 0.88041246 -2.1544998

_func._drift._model.0.weight f4 [16, 17]
00000000: b713 333a 0662 b2bb 48d2 a03b cbd1 a8b9
00000010: be2a ed3a 7b4a 913a 6ac0 36bb e4d9 df39
00000020: 3ee9 e73a 9123 adbb ffe5 92bb 3fcf 8ebb
00000030: 9592 95b9 dba5 39bb e45f b0bb c806 ab3b
00000040: 821d 973b 56b6 04bb 6b85 85bb 009c 313b
00000050: d170 80ba 8e7a 50bb b429 acbb 40bb 4138
00000060: 5cea 3ebb 68ad c33a 8a18 c03a adb7 34ba
00000070: 12ee bd3b 0aa9 92ba c5d8 b83b 63ec e03a
00000080: 7128 e03a 3e04 9c3b f705 fdba 7ab7 b03b
00000090: b330 293b 5170 d5ba 1bb2 2e3b 2d59 b7bb
000000a0: 2df3 3d3a de72 a6ba dd7e 9bba 7cf6 97bb
000000b0: 827b 3d3b 69f2 043b 6767 1ebb a803 963b
000000c0: f1ab 90ba 50bb 12b9 eb3d 64bb 0ae3 f13a
000000d0: 157d 093b 029b 853a c9e6 c139 1384 b9bb
000000e0: fd42 a03b 8d36 71b9 ae0a 613b c3ab 693b
000000f0: 06cc a5bb 9d1d 7d3b 0f52 81bb b182 f03a
00000100: c170 a43b b7d9 a33b 4c9a ec3a 7b38 a9bb
00000110: 6919 4b3b e02b 65bb e210 193b 5f97 b2bb
00000120: 9642 1ebb af1c 91bb a238 93ba 2f10 02bb
00000130: fb4c b8bb 3468 babb 34f7 4b3a e25d 4f3a
00000140: 50db 15bb 528f 49bb ee83 91bb 860f 68bb
00000150: 693d 12bb 6a1f 1dbb ae15 713b ea34 c53a
00000160: 7fa2 9c3b 968f 9dbb c298 063b 6b30 ae3a
00000170: 7af3 99bb e192 4b3b f667 23bb 11ff 16bb
00000180: 6a1b 053b 4fb7 b13a de40 a439 cec3 aa3b
00000190: 9f5b d9ba 94cf 68bb 82fc bdbb 804a a23a
000001a0: 9e7e 93bb 1198 9a3b ba6d e13a b834 b4ba
000001b0: 0550 733b 882a a63b 0eaf 8b3b 0e8c 12bb
000001c0: 9d2d 083a 7a2a 4abb 9da0 6c3b dfa3 b33b
000001d0: 96a4 2fb9 f954 7b3b 3d82 003b 1974 3a3b
000001e0: 07e5 8dbb b95d 83bb a067 a2bb 8f33 b63b
000001f0: 587b 1b3b 4d76 8c3b 9560 833b 2e77 993b
00000200: ffe9 b8ba 0941 b9bb 2ee2 383a a343 1cbb
00000210: 00eb 1f3b 20af 233b de50 133a d37a b6bb
00000220: 214b cd3a 6500 51bb 6127 2fbb fff4 913b
00000230: 204c 44bb bca0 f13a 89a2 daba 5e9a 7539
00000240: bf6b 31bb f7ba 09bb 7328 a23b 7053 503b
00000250: 28b6 a1bb 88c8 a93b efd8 64bb 3c60 75bb
00000260: 7f07 a9bb b4d5 aeb9 68fb 2dbb 63cf b9bb
00000270: 6805 223b c558 baba 1b90 123b 8a15 91bb
00000280: 8cd9 71bb b172 5abb d57f c7b9 22ac a7bb
00000290: 4de5 863a cc59 4cb8 2415 9b3b 217a aeb9
000002a0: 90fd a43b cfb6 423b e345 9736 139b 7bb9
000002b0: f639 e139 dc6a 023a 6d39 baba c452 65bb
000002c0: 458a 38ba baf0 45bb cfbf b6ba e284 9abb
000002d0: 8f89 973b 31cc 313b 203f dbba 8d37 fdba
000002e0: 1f72 b53b 95af b0bb bf01 b7bb efb4 96ba
000002f0: 3a92 c83a db1b 91bb ca0f 6f3b 6b8b d2ba
00000300: 0973 8f3b a3d1 7b3b 9040 85bb 154d 513b
00000310: ec11 3f3b cebb 6aba 1c54 853b 5d93 9dbb
00000320: 0424 a83a f31b b5ba 11d5 aeb8 ba51 10bb
00000330: 063c 22bb e634 7d3b 6e89 5d3b 2014 863b
00000340: 8232 93bb e9dd 393a 9d68 c339 1a21 89bb
00000350: fbc7 6f3b e87f f1ba 9e7f 47bb 0a88 82b9
00000360: 4518 313b 863d df3a 0a4d 983b 96bc 0e3a
00000370: 5c5e 9fbb f05b 08bb c309 5cba 5650 a93b
00000380: 2ec1 293b 5ce9 cf3a 3dec 9abb c419 29bb
00000390: 2c81 183b 7cc9 4dbb ce98 07bb ff67 b53b
000003a0: bbce 9e3a ec4c 233b 11e8 713b 2860 b4bb
000003b0: 87c2 d43a c0de 8dbb 1aa6 eaba 4264 363b
000003c0: 00be b5bb 81bf 853b 7b19 ea3a e06d 633b
000003d0: 1455 2c3b a42f 213b 1c85 1cb9 1e1f b13b
000003e0: 287e 4bbb 49a6 25ba 5163 a1ba 82b9 cf3a
000003f0: 5037 3d3b 902a 663b 8161 333b f284 81bb
0.0006831246 -0.005443814 0.00490788 -0.00032199765 0.0018094403 0.0011084819 -0.0027885684 0.00042696216
0.0017693413 -0.005283781 -0.004482984 -0.0043582018 -0.00028528707 -0.0028327617 -0.005382525 0.0052193142
0.004611672 -0.0020250282 -0.0040747426 0.002710104 -0.0009799247 -0.003181133 -0.005253995 4.6189176e-05
-0.0029131388 0.0014928998 0.0014655751 -0.0006893825 0.0057962025 -0.0011189294 0.0056410753 0.0017160292
0.0017101896 0.004761248 -0.0019304146 0.005392966 0.002581638 -0.0016284083 0.0026656452 -0.0055953474
0.0007246014 -0.0012699028 -0.001186337 -0.0046375375 0.0028912728 0.002028609 -0.002417052 0.0045780726
-0.0011037571 -0.00013993424 -0.0034826945 0.0018454504 0.0020979096 0.0010193291 0.00036983777 -0.0056614964
0.004890798 -0.00023003873 0.003433864 0.0035655356 -0.005059722 0.0038622387 -0.0039465497 0.0018349496
0.005018324 0.005000319 0.0018051355 -0.0051642037 0.0030990487 -0.0034968778 0.002335601 -0.0054501737
-0.0024148575 -0.004428468 -0.0011232088 -0.0019846072 -0.005624411 -0.0056886915 0.00077806716 0.0007910413
-0.0022866316 -0.0030755592 -0.004440776 -0.0035409643 -0.0022314435 -0.0023975023 0.0036786604 0.0015045677
0.004780113 -0.0048083765 0.0020537828 0.0013289576 -0.004698214 0.0031062888 -0.0024933792 -0.0023040215
0.002031053 0.0013558659 0.00031328847 0.00521133 -0.0016583091 -0.0035524117 -0.0057979235 0.0012381822
-0.004501178 0.0047178348 0.0017198839 -0.0013748622 0.0037126553 0.005070988 0.0042628115 -0.002236131
0.0005194785 -0.0030848072 0.0036106475 0.0054821814 -0.00016750614 0.0038350208 0.0019608878 0.0028450547
-0.0043302807 -0.0040089753 -0.0049562007 0.0055603455 0.0023724642 0.0042865635 0.004009316 0.004683397
-0.0014107822 -0.0056535047 0.00070527464 -0.0023844026 0.0024401546 0.0024976209 0.0005619655 -0.005568841
0.0015662649 -0.0031891104 -0.0026726353 0.0044542546 -0.00299526 0.0018434743 -0.0016680519 0.00023422527
-0.0027072278 -0.002101598 0.0049486696 0.0031788014 -0.004935045 0.005181376 -0.0034919342 -0.0037441393
-0.0051583643 -0.00033347087 -0.0026547555 -0.0056704744 0.002472246 -0.0014217129 0.0022363726 -0.0044276165
-0.003690335 -0.0033332522 -0.0003805148 -0.0051169554 0.0010291726 -4.872102e-05 0.004732745 -0.0003327886
0.00503511 0.0029711013 4.5082866e-06 -0.00023994995 0.00042958529 0.000497503 -0.0014207788 -0.003499196
-0.0007039647 -0.0030203299 -0.0013942661 -0.004715548 0.0046245526 0.0027129764 -0.0016727187 -0.0019318924
0.005537286 -0.0053920248 -0.005584925 -0.0011498014 0.0015302368 -0.0044283695 0.0036477917 -0.0016063278
0.004377727 0.0038424514 -0.0040665343 0.0031936814 0.002915497 -0.00089543767 0.0040688645 -0.004808827
0.0012828116 -0.0013817534 -8.336653e-05 -0.002202137 -0.0024755015 0.0038636266 0.0033803838 0.0040917546
-0.004492105 0.0007090257 0.0003727124 -0.004184854 0.0036587704 -0.001842496 -0.0030441056 -0.0002489689
0.0027022522 0.0017031885 0.0046478556 0.00054449716 -0.0048635434 -0.0020806752 -0.00083937886 0.0051670475
0.0025902498 0.0015862393 -0.004727869 -0.002580271 0.0023270352 -0.0031400612 -0.0020690444 0.005536079
0.0012116054 0.0024917675 0.0036912004 -0.005504627 0.001623229 -0.0043295324 -0.0017902285 0.0027830754
-0.0055463314 0.004081667 0.0017860377 0.0034702942 0.0026295828 0.0024595046 -0.00014926906 0.005405321
-0.0031050537 -0.0006319029 -0.0012312924 0.0015848132 0.002887208 0.0035120584 0.002737135 -0.003952616

_func._drift._model.0.bias f4 [16]
00000000: c80a b63b 6dba c5b9 f674 183b aa30 0e3b
00000010: fdfe c7b7 5710 15bb 1309 813b 9f45 adbb
00000020: dc8b abbb 995c a8bb 71f8 0abb c6c5 ab3a
00000030: b925 acb9 1046 f838 06d0 973b 37d0 98bb
0.0055554844 -0.00037713666 0.0023263074 0.0021696487 -2.3841387e-05 -0.0022745335 0.0039378493 -0.0052878405
-0.0052351784 -0.0051379916 -0.0021205212 0.0013105206 -0.00032834502 0.00011838612 0.0046329526 -0.004663493

_func._drift._model.2.weight f4 [16, 16]
00000000: 7e8f 23bb 48a6 113b b6d5 b0bb e660 c2bb
00000010: c8a1 78bb b647 babb e12e 06bb 72b0 b2bb
00000020: 2e9f 34ba ca48 4f3b df0b a1bb 67ab bbbb
00000030: e923 623b ec5e 00bb 7964 1f3b 8f25 2f3b
00000040: dbd5 a9ba 3ce6 d0b9 e6c4 a3b8 7c9f 9abb
00000050: 161c b23b 489d 9bb9 e1fd 0a3b 535d 793a
00000060: a101 a33b 5635 9cbb eac4 80bb 0a83 14b9
00000070: 7141 19bb 9c25 063b 5b54 af3b 2b0a abb9
00000080: 2899 a8bb f2dc a23b e82d c3ba 1493 fb3a
00000090: 70d1 feba cce8 ae3b 9fd4 5fbb cf4e 443a
000000a0: 2979 303b 1337 a1bb 4784 dc3a 448b 62bb
000000b0: b2a0 ac3b b498 9f3b 1ec8 f63a 267d 3fbb
000000c0: 742e 6439 3731 a73b b8ab 753b 38f8 38bb
000000d0: ed93 53bb 0d67 c3ba d179 ddba 4bcc 3dbb
000000e0: 40cd bfbb e99f 6238 9dbb ab3a 34a5 8abb
000000f0: 1194 483b f57b 2abb e502 6f3b dc30 2ebb
00000100: 57d7 b13b f889 62bb 00a1 a53a a40c dc3a
00000110: 1274 8f3b 6f40 413b 68b1 9abb 7e2a 86ba
00000120: e611 9cb9 94c1 513b adb8 56bb 60bc 4c3b
00000130: 8aaf 7bbb 13b6 193b 9841 8bbb 86fc b93a
00000140: 79af d0b7 254b 913b 7cee 34bb 8e1d ca3a
00000150: f9a5 89bb 3864 39bb 0ca4 543b f986 ab3a
00000160: bf9c 993b 3baf 2f3b de4f 703b 685e 45bb
00000170: f5a4 153a 5435 b1bb 00fe e43a b27b 8bba
00000180: dd56 0f3b 78df 06bb c829 d7ba 9229 683b
00000190: efcd 643b d99e ab3b e5b7 b9bb 2c0e 07bb
000001a0: 1cac a8bb 8234 9a3a 59e0 a93b 05ec e8ba
000001b0: 6a9a 1dba c274 e1ba b7ed 05bb 445a d73a
000001c0: 2e50 833b 90b1 7dbb e3fb 9c3b 559e 923b
000001d0: 2880 78b9 68d2 86bb 568e 98bb 1d21 87ba
000001e0: 0d27 8bb9 2aa1 96bb 7048 b7bb f2e5 ee3a
000001f0: 93b6 f939 b94c 873b adb7 963a 55c9 163b
00000200: b51b 253a 5ec9 223b 0941 2fbb 7d90 f437
00000210: 84c1 4f3b 107f ff3a 8dac 363b 08d5 a9bb
00000220: 7076 28b8 f7ba 49bb 7f90 b8ba 95f8 2e3b
00000230: fb31 9dba 632e 39bb 86e3 04b9 02f1 74bb
00000240: 7d12 23bb 6091 2fbb b769 b13b c50c 33bb
00000250: 83ff 54bb d6f9 c7ba 9772 8c3b 5731 0538
00000260: 734e 67ba e24f 593b c485 7a3b 47ea b43b
00000270: ab29 85bb 2dad 4a3b 837e 80bb 2a47 3bbb
00000280: 1379 a13b aff7 083b 0ea3 31bb 896b c3ba
00000290: 0b8d 643b 4f13 8a3a 7164 a7ba 51e1 c9ba
000002a0: 50ee e3ba 543a 72ba 3188 953b cfa6 89bb
000002b0: 5e2b 7b3b eb33 7a3a fde9 c13b f42b 013b
000002c0: 0369 c3bb 39b3 09bb 09ad 83ba 1077 083b
000002d0: f507 b4bb 7818 063b 2fb1 a1ba d8ae 5cbb
000002e0: 0ec2 8abb dc19 71bb 6957 adbb 6106 e3b9
000002f0: 90f3 1a3b a6b6 5abb 6902 60bb 5a7d 6d39
00000300: e0eb 9ebb 8489 89bb a215 d0ba a58c 813b
00000310: e4cc 473b aca9 913a 2766 01bb c929 a6bb
00000320: 698c 663b ca9a 6539 b8f7 253b e883 59b9
00000330: 3e5b 523b d414 3ab8 072c 493b 7fbd 7eba
00000340: 11f3 ffba fee2 993a 9964 c0bb f6eb 92bb
00000350: 720d 1c3a 35f8 ba3b 6525 d8ba 5aff f6ba
00000360: 0538 643b f6d0 a53b 8810 6cbb 930a af3b
00000370: cfd2 fcba 39b0 533b 896b e63a 4645 523a
00000380: 2039 9d3b 3a71 92ba 1383 c2b9 9355 753b
00000390: bec5 16bb c0f1 c33a 4699 643b 2643 8e39
000003a0: 6fe7 bb3b 95ed c839 9b18 283b 4a6c 5c3b
000003b0: c4bd a13b 8e4a 36bb 3575 1eb9 1add 1cbb
000003c0: f3e4 2fbb 9539 21bb 0ee4 443a 6327 88bb
000003d0: 8724 1dbb 1276 9a3b d43c ff3a 2f98 c33b
000003e0: fb39 6aba 31b7 6db9 f796 48bb 52a6 6e3a
000003f0: 7dfd ba3a a99a 913b e256 93bb ed60 f2ba
-0.0024957354 0.0022224355 -0.00539657 -0.0059319614 -0.0037938226 -0.005684818 -0.002047472 -0.005453163
-0.00068901747 0.003162908 -0.004914745 -0.00572722 0.0034506267 -0.0019587828 0.002432136 0.0026725268
-0.0012957411 -0.0003984439 -7.809121e-05 -0.004718719 0.005435477 -0.00029681087 0.0021208453 0.00095125026
0.0049745594 -0.0047671003 -0.003929724 -0.00014163196 -0.0023384953 0.0020469194 0.005350632 -0.00032623237
-0.005145211 0.0049701864 -0.0014891 0.0019193613 -0.0019441079 0.00533781 -0.0034153832 0.000748855
0.0026927686 -0.0049198954 0.001682409 -0.0034567872 0.00526818 0.0048704986 0.001882795 -0.0029218881
0.0002176108 0.0051023024 0.0037486386 -0.0028224122 -0.0032284216 -0.0014908031 -0.0016897266 -0.002896088
-0.005853325 5.4031527e-05 0.0013102178 -0.0042311195 0.0030605833 -0.0026013826 0.003647023 -0.0026579415
0.005427282 -0.00345671 0.0012636483 0.0016788435 0.0043778503 0.0029487868 -0.0047208555 -0.0010236052
-0.00029767974 0.003200625 -0.0032763884 0.003124021 -0.003840419 0.0023454472 -0.0042497627 0.0014189638
-2.4877243e-05 0.0044340068 -0.0027607968 0.0015420185 -0.0042006937 -0.0028288495 0.0032446412 0.001308649
0.004687875 0.0026807326 0.0036668698 -0.0030116085 0.00057084794 -0.0054079685 0.0017470717 -0.0010641722
0.0021871843 -0.0020579975 -0.001641565 0.0035425168 0.0034912785 0.005237442 -0.005667674 -0.0020607812
-0.00514747 0.0011764916 0.005184215 -0.0017770535 -0.0006012084 -0.0017200934 -0.0020435879 0.00164301
0.004007361 -0.0038710572 0.0047907694 0.004474441 -0.00023698865 -0.004114438 -0.0046556396 -0.0010309551
-0.0002654124 -0.004596849 -0.005593352 0.0018226488 0.0004762901 0.004129019 0.0011498831 0.0023008187
0.0006298379 0.0024839262 -0.0026741645 2.915435e-05 0.0031701038 0.0019492824 0.0027873844 -0.005182866
-4.0164625e-05 -0.0030781606 -0.0014081149 0.002669846 -0.0011993045 -0.0028256408 -0.0001267326 -0.0037375097
-0.0024882846 -0.002678953 0.0054142135 -0.0027320844 -0.003250093 -0.0015256952 0.004286121 3.1755622e-05
-0.00088236405 0.0033159186 0.0038226703 0.005521092 -0.004063805 0.0030925975 -0.0039213314 -0.0028576353
0.0049277632 0.0020899584 -0.0027105245 -0.0014909367 0.0034874107 0.0010534319 -0.0012771023 -0.0015402233
-0.0017389748 -0.0009240259 0.0045633544 -0.0042007933 0.003832541 0.00095444795 0.005917786 0.0019710036
-0.005963446 -0.0021011366 -0.0010046075 0.002082292 -0.0054941126 0.0020461362 -0.001233613 -0.003367355
-0.004234559 -0.0036789095 -0.005289961 -0.00043301567 0.002364371 -0.0033373027 -0.0034181124 0.00022648778
-0.004849896 -0.0041973013 -0.0015875588 0.0039535337 0.0030487115 0.0011113188 -0.0019744725 -0.005070899
0.0035178906 0.00021896805 0.0025324654 -0.00020743872 0.0032097842 -4.4365253e-05 0.0030696408 -0.0009717568
-0.0019527395 0.0011740623 -0.005871367 -0.004483695 0.0005952931 0.005705858 -0.0016490637 -0.0018844411
0.003482343 0.0050603105 -0.0036020596 0.0053418367 -0.00192889 0.0032301082 0.0017579655 0.0008021187
0.0047980696 -0.001117266 -0.0003710022 0.003743504 -0.0023006047 0.0014949366 0.0034881397 0.0002713438
0.005734376 0.00038323985 0.0025649432 0.0033633881 0.004935952 -0.0027815434 -0.00015111717 -0.0023935498
-0.0026839345 -0.0024600972 0.00075107894 -0.004155086 -0.002397807 0.004713782 0.0019473084 0.0059690694
-0.00089350314 -0.00022670325 -0.003060756 0.0009103763 0.0014266219 0.0044434858 -0.004496441 -0.0018492021

_func._drift._model.2.bias f4 [16]
00000000: 4ba7 a63b e130 82bb 85d7 243b a528 8ebb
00000010: 7f1d 31bb c491 b8bb cc16 5fbb ea34 3ebb
00000020: d1ff 9f3b b926 7bbb 39f4 873b a544 2b3a
00000030: 1b5f 2d3b e833 843b f203 923b 1c83 97bb
0.005085861 -0.003973112 0.0025152874 -0.0043383413 -0.0027025638 -0.005632611 -0.0034040688 -0.0029023238
0.0048827906 -0.003832264 0.0041489867 0.0006533361 0.0026454392 0.004034508 0.0044560367 -0.0046237838

_func._diffusion._model.0.weight f4 [16, 17]
00000000: 81a2 a33d 5239 7dbd 4c3c 28bd 3435 963d
00000010: f4c8 e6bd 682e 3bbd bf87 5a3d 4708 713c
00000020: ea5e aebc b782 a83d d4db 893d 5d9b 7a3d
00000030: 9fa9 cf3c a855 c63c 1986 01bd 5ce2 da3c
00000040: 5728 84bd a93e 4ebd 30ef 383c 1cf2 6bbd
00000050: 485d aebc 4798 46bc 43ec 2e3d 29e8 b63c
00000060: 35b0 403d 4657 f43c 395d 89bc 12d9 5d3c
00000070: 55bc 5bba 7d09 333d 7bd1 273d 32a5 553b
00000080: b851 8ebc 5c9d 9cbd 3ebf 643c f056 0d3d
00000090: 9ac9 1f3d 53cb 583d 6680 14bd 5789 5f3d
000000a0: be17 5dbd aac1 f5ba 3d49 0a3d c64c 0a3d
000000b0: 8a8f 5a3d 1243 853d 848b 54bd b5c6 01bb
000000c0: 47b8 2a3d 25b1 973c 391b be3b 2473 ea3c
000000d0: 9aef 4f3c 3ed0 31bc 6208 b6bc cc48 f5bd
000000e0: 6905 cf3c 48a0 82bc 73dc d53c 6932 a9bd
000000f0: a688 943d 594f 8f3c 052b 2f3d ba74 093d
00000100: 4bf4 f8bc 5c9a 9fbd 163e 17bd f86b 4abd
00000110: fba3 acbd e3b3 583c 629f d33c 0ee5 93bd
00000120: 498c 843d 83ba 8bbd 5599 403b 884a c8bd
00000130: 34c6 fb3c 155b e4bd 438b 38bd c55a d0bc
00000140: c139 b2bd 2315 13bd 01a4 a03b b4eb 34bd
00000150: 44ca 343c 0950 b23d 59a8 aabd 5633 a83c
00000160: 93d7 a2bc d41d d0bd e99b 5ebd afe8 f4bc
00000170: e299 043b 956e 9ebd 6b1b 853d 5709 bdbc
00000180: 7d0e 913d 34c6 4dbd c438 38bd 744a 063d
00000190: 4f39 423d f3a2 f43a b2fd eebd e9f4 97bc
000001a0: 7fac c7bc 6178 58bd 79c7 1e3b 516c 87bd
000001b0: a0b7 013c b317 9abc 5a38 623d 5a22 aabd
000001c0: b418 6cbd a870 56bd e73a 7bbd 5421 1abd
000001d0: 40f0 313d 82bb b8bd 80ae 273d b747 0dbd
000001e0: bc48 24bb 0290 95bc b770 adbd 829a c3bb
000001f0: 74f4 90bc 2be6 13bd a4d9 83bd af6c 7a3b
00000200: e138 95bd 6f6b 53bd a337 a3bd f87c fdbc
00000210: 530b d13b 2e4d d7bc 7ec8 86bd 4af8 ea3c
00000220: fc25 183d 6863 94bd 9c1b c9bb a1a8 fc3c
00000230: 7efc c3bd 41e4 73bc 1250 193d d0b3 713d
00000240: 29ff f0ba 141b ecbb dce3 c83b 75d5 4d3d
00000250: a676 3cbd 84ed f63c 74f3 69bd 19b6 9c3c
00000260: d548 51bd 4c6a 15bd ddee 3a3d 8cef 913b
00000270: 94b7 e1bd f066 9b3b 461b 11bd 2def 09bd
00000280: c6a2 82bd bd5e 2c3d 8cd7 40bd b41a b9bd
00000290: e735 27bd 8381 4ebc 3ecd 56bb adcc 8fb9
000002a0: 093f 9fbd ae2e 333d 839b cbbd ff1f 33bd
000002b0: c8c1 2dbd 2d2b c2bc 11d3 463d 5be1 a13c
000002c0: bdc2 8ebd 1b81 32bd 227b 743d 67e9 00be
000002d0: d97e 88bd 81c9 f5bc b0bf 3bbd a3f0 e23b
000002e0: f504 0bbd 14a4 42bd f4f5 b83c eb76 fb3b
000002f0: 98ab cc3c 54dd 5bbb 97cf 0f3d 9999 12bc
00000300: 7adb 60bc 9543 afbb 0beb 5b3d f50b abbd
00000310: f449 053c 8e15 e9bc dcd4 7a3d 6879 033d
00000320: f9aa b1bd c9ff a0bc 2efd 6c3d 85d0 80bd
00000330: ebb5 80bd 1031 693b 43c3 ca3b 6716 bcbd
00000340: 673a 223d 9e7d 533b 653e 83bd 4469 a5bd
00000350: d6d9 7e3c d6f5 3cbd 618f a0bd 3acd 60bd
00000360: 7a98 2bbd c844 d83c 5351 7dbc 4ed2 3bbd
00000370: 6331 703d 751d 843d 0866 4c3c f747 38bb
00000380: aea3 833d 54c1 8cbd 55d9 19bd 1b85 6abc
00000390: 3a7f 033d 7013 62bd 85e7 9d3d abd0 883d
000003a0: 79b6 5c3d 22e9 b23c b638 8f3c 4fc7 70bc
000003b0: 4bc4 78bc d8e8 48bc 8aff 143c 10f2 0c3b
000003c0: 462d ce3c f35d 0a3c a536 94bc 8d8f 203c
000003d0: 529b adbb 0efb 123d 9f4e 9cbd b31d 723c
000003e0: 2669 de3c da01 033d 7249 b1bb b7b4 b7bd
000003f0: 3f68 01bd 2111 213d 8b04 d1bc 4f13 54bb
0.079899795 -0.061822243 -0.04107313 0.073343664 -0.112687975 -0.045698553 0.053352114 0.014711446
-0.021285493 0.08228057 0.06731382 0.061183322 0.025349436 0.024210766 -0.031622026 0.026719265
-0.06453007 -0.050352726 0.0112874955 -0.05760394 -0.021284714 -0.012121267 0.042705785 0.0223275
0.047043044 0.029826771 -0.016768085 0.013540523 -0.00083822507 0.04371022 0.04097126 0.0032599685
-0.01737295 -0.076472014 0.013961611 0.03450674 0.03901062 0.05292828 -0.036255263 0.054574337
-0.05397772 -0.0018749733 0.03376125 0.033764623 0.053359546 0.06506933 -0.051890865 -0.0019802277
0.041679647 0.018517086 0.005801585 0.028619356 0.012691403 -0.010852871 -0.022220794 -0.119767755
0.025271134 -0.015945569 0.026106095 -0.08261568 0.07252626 0.01749389 0.042765636 0.033558585
-0.030389925 -0.077931136 -0.036924444 -0.049419373 -0.08429714 0.013226482 0.025832836 -0.07221423
0.0647207 -0.06822684 0.0029388268 -0.09779841 0.030734159 -0.11150185 -0.045054685 -0.025433907
-0.08702422 -0.03590883 0.0049023633 -0.044170097 0.011034552 0.08706672 -0.08332891 0.020532291
-0.019878184 -0.10161939 -0.054347906 -0.029896108 0.0020233323 -0.077359356 0.0649937 -0.023075743
0.070828415 -0.05023785 -0.04497601 0.032785848 0.047417935 0.0018664285 -0.11669482 -0.0185494
-0.024374245 -0.052849177 0.0024227782 -0.066124566 0.007917315 -0.018810129 0.055229522 -0.08307333
-0.057640746 -0.05235353 -0.06133547 -0.03762944 0.04344201 -0.09020139 0.0409379 -0.03449222
-0.0025067767 -0.018257145 -0.08468764 -0.0059693465 -0.01769469 -0.036108177 -0.06437996 0.0038211753
-0.072862394 -0.05161613 -0.07969596 -0.030943379 0.006379524 -0.02628192 -0.065812096 0.028682847
0.0371456 -0.07245523 -0.0061373245 0.030842127 -0.095696434 -0.014885963 0.037429877 0.059009373
-0.001838659 -0.0072053764 0.0061306786 0.050252397 -0.04601159 0.030142553 -0.05711694 0.0191298
-0.05109485 -0.036478326 0.045637954 0.004453605 -0.11021343 0.0047424957 -0.0354264 -0.03367536
-0.06378703 0.042082537 -0.04708056 -0.09038296 -0.04082289 -0.01260412 -0.0032776142 -0.0002742758
-0.07775695 0.04374569 -0.09941771 -0.043731686 -0.042421132 -0.023702228 0.048541132 0.019760778
-0.06970737 -0.043580156 0.05968774 -0.12589036 -0.06664819 -0.030003311 -0.045837104 0.006925659
-0.033940274 -0.04751976 0.022578217 0.0076740882 0.024984166 -0.003354867 0.035110082 -0.008947753
-0.013724202 -0.0053486326 0.05369095 -0.0835189 0.008135308 -0.02845266 0.061238155 0.032098204
-0.086751886 -0.019653218 0.05785864 -0.06289772 -0.06284698 0.0035582222 0.006187828 -0.091839604
0.039606478 0.0032270919 -0.06408385 -0.080767184 0.015554866 -0.046132885 -0.07839847 -0.05488322
-0.04189346 0.026399985 -0.015461284 -0.04585486 0.05864085 0.06450931 0.012475498 -0.0028119066
0.06427704 -0.06872812 -0.03756078 -0.014313961 0.032103755 -0.05519432 0.077101745 0.06680425
0.053884957 0.021839682 0.017483097 -0.014695956 -0.015183519 -0.0122625455 0.009094128 0.0021506585
0.025168072 0.008445251 -0.018092463 0.00979985 -0.0052980566 0.035883956 -0.07632183 0.014777589
0.027149748 0.031984188 -0.0054103667 -0.089700155 -0.031593557 0.039322976 -0.025514862 -0.0032360142

_func._diffusion._model.0.bias f4 [16]
00000000: 74d8 db3d d908 693c d7e0 793c 927f c73d
00000010: b906 2ebc 5ca0 733c 26f1 6fbd 74d6 cdbd
00000020: 1c4f 703d 6135 e1bc 5e15 a8bc 70ba 4c3d
00000030: 10b8 a8bd 05d2 bd3d 99a5 9e3d 9bab 0d3c
0.107346445 0.014223301 0.01525136 0.09741129 -0.01062172 0.014869776 -0.058579586 -0.10050669
0.058669195 -0.027491273 -0.020518001 0.04998249 -0.08238232 0.09268574 0.07746429 0.008646871

_func._diffusion._model.2.weight f4 [48, 16]
00000000: 5881 943d 5a16 573d 86b0 08bc 5bc6 3d3d
00000010: a320 c8bd a95f 273d 68ed 793b ca49 d0bb
00000020: 380a 1a3d c16d b0bd 70f5 313c c207 7b3d
00000030: ab60 68bd b568 d0bc 32e5 95bc f0b3 913d
00000040: 5f7d 113d a022 21bd 7639 e3bc e8cf 313c
00000050: aa47 94bd 9d87 503d da44 0fbd ea21 b5bd
00000060: f242 9f3d 5d80 1ebc 3b52 113c a48a 893d
00000070: 1d16 76bc 3db2 d2bc 0bc5 f0bc 534c 6bbc
00000080: fc3b 243c 596a bdbc 69bc 0bbd 9b12 c83d
00000090: d7c9 afbd 6463 243d 7dfe 39bd 216e c73c
000000a0: 9faf 56bc f6c4 fabc 3831 b6bd 593d afbc
000000b0: bed8 f5bc b14a 933a 5a1d b93c 2abc 9bbc
000000c0: aaaa 953d c80c 6d3d 9f24 56bd d202 643c
000000d0: f4fd a33b b403 8bbc 2bba 32bd c6c1 0cbd
000000e0: 1edf 633d b20d 2ebd 4c3e 95bc 71a2 4bbc
000000f0: f409 c3bc 586e d6bb 9273 7f3d 78cb 253d
00000100: 0dbe 893d 62b2 f63b ec77 0ebc 9985 c33d
00000110: d847 2dbd ceed 8a3d 14e2 8cbd 9066 0c3c
00000120: cc46 423d f26a a9bd 7076 12bd 3010 1cbd
00000130: fb4d e3bc 1b1b b23b d3c4 293b 976a 6e3c
00000140: 6ba9 b93d 76ed 893c 5c01 4ebd 3870 893d
00000150: 6a8e ecbc 859c 383d 7a4c f1bc 986f 97bc
00000160: 29e7 0d3d 2640 2cbd 007f 9cbb 4d22 743d
00000170: e9e4 bdbd 5515 bf3c aae1 a63c 561b 7b3d
00000180: 9126 a13d c654 1e3d f9d5 74bd ece6 d33c
00000190: 3eff 7f3b a8e8 033c 8799 36bd ae59 92bd
000001a0: 1b0c 533d d4cb acbc 99ee 25bd 6bb9 393d
000001b0: 41d1 39bd 2fc5 a3bb 5721 983d 3120 523d
000001c0: a681 b03d 5fe1 c63b 1fba 0dbd 8d07 853c
000001d0: c983 81bd 4a69 9e3a f65c 5bbc 41a4 7fbd
000001e0: fe01 bf3d d925 aebd 8c9b c4bc bca8 6d3d
000001f0: c7a1 b5bd 44da 2f3d 458e a53d 96e7 263d
00000200: 5503 ddbc 8fc1 bbbc 472b 9db9 07b2 183d
00000210: 7a48 62bd 9e16 3e3d f174 bfbc b9e7 a03c
00000220: 89e0 293d 4d2b 003c 81d2 35bd 035e bd3c
00000230: 76c7 b33b 15fa e23c d4d8 893d 0f28 6e3d
00000240: 6750 a8ba 1484 66bc e1e5 1fbc 15c8 983c
00000250: 3d58 e5bc 23cc 3e3d 984e 0f3c 3d34 a1bd
00000260: f002 433d 648e 1bbd 0f48 7dbd bed0 853d
00000270: 6688 b9bd 658b 213b 4c25 753d 8d15 fabc
00000280: 7017 d43a edb4 e5bb bdd3 293d fa9f 323d
00000290: f8f6 d4bd d2e2 813b 5443 86bd 49a4 93bd
000002a0: 9ec4 793c 05f3 85bd 008c cebd f0f4 203d
000002b0: ae65 5bbd 38ac 953d 1552 a13c db13 853d
000002c0: 8359 b03d 92ce 413b 58d3 1ebd 32ca fb3c
000002d0: 04d8 b9bd 2b58 d33c f31d 87bd 3e8f a0bd
000002e0: 274a b6bc afd4 a8bc 127d 663c c75a 44bc
000002f0: 63ba a9bd ead1 8e3c 4adf 063d 5ba6 943d
00000300: dda0 06bd 6ed5 b33c a151 403c 2d4a 4cbd
00000310: cec9 2c3b ac5f 4ebd 2899 033c a5ad dfbc
00000320: 400c 8abc a15e b13c 2fdb 6b3d 3b34 90bc
00000330: 8cf0 783d cc81 46bd 19cc aabd b3dd 94bd
00000340: dfb3 253c d500 04bc 99a1 afba 89eb c8bd
00000350: d8fc 823c d2b7 80bd 4fdc b23b 4416 073d
00000360: f433 91bd f95e 673c ac6e 303d 83e3 29bd
00000370: aac5 5d3d c673 f33c 039b 183d 09a4 c73c
00000380: db27 54bd df51 c03c f022 163d e38b 51bd
00000390: c134 903d 6e41 1f3c 021e 053d 4084 ac3d
000003a0: ccec e6bc 21e2 973d 5690 ce3b 3948 c1bc
000003b0: 59d0 a73d 6e39 55bd 309e 1abd 162f a1bd
000003c0: c662 f2bb 6c10 d4bb 5d26 30bd 0b1f eb3c
000003d0: 1d82 27bd 09ad 73ba e36d 88bd 0205 a6bc
000003e0: 361d a03b 0728 b6bd a0b5 81bd 894f 4b3d
000003f0: 7ac0 8a3a 2b1a 883d bc24 3abb 4f33 f83c
0.07251233 0.05251155 -0.008342868 0.046331745 -0.0977185 0.040862713 0.003813589 -0.0063564526
0.0376074 -0.08614684 0.0108617395 0.061286695 -0.056732815 -0.025440553 -0.018297765 0.071143985
0.035519954 -0.03933966 -0.02773736 0.010852791 -0.07240231 0.05091058 -0.03497777 -0.08844359
0.07776441 -0.009674159 0.008869703 0.06715897 -0.015019921 -0.025719756 -0.029390832 -0.014361459
0.010024067 -0.023122 -0.03411523 0.09769174 -0.0858342 0.04013385 -0.045408715 0.024344506
-0.013103395 -0.030611496 -0.088961065 -0.021391558 -0.030010577 0.001123747 0.022597004 -0.019010622
0.07307942 0.057873517 -0.05228102 0.013916688 0.005004639 -0.01696954 -0.043634575 -0.034364484
0.055632703 -0.04249353 -0.018218182 -0.012428866 -0.023808457 -0.0065439157 0.062366076 0.040477246
0.067257024 0.007528589 -0.008695584 0.09546966 -0.042304844 0.06783639 -0.068790585 0.008569375
0.0474308 -0.08272351 -0.035757482 -0.038101375 -0.027747145 0.00543536 0.002590467 0.01455178
0.09065517 0.016836863 -0.050294265 0.06710857 -0.028876502 0.045071144 -0.029455412 -0.01848583
0.03464428 -0.042053364 -0.004775882 0.059603024 -0.09272177 0.023325602 0.020371277 0.061305366
0.07868684 0.038655065 -0.059774373 0.025866948 0.0039062048 0.008051075 -0.04458001 -0.07146011
0.051525217 -0.021093287 -0.040510748 0.045342844 -0.045365576 -0.0049978714 0.07428234 0.05130023
0.086184785 0.006069347 -0.034601327 0.016238952 -0.06323964 0.0012085822 -0.013388863 -0.062412504
0.09326552 -0.085033126 -0.023999952 0.058022246 -0.08868747 0.042932764 0.080837764 0.0407482
-0.026979128 -0.022919444 -0.00029977618 0.037279155 -0.0552449 0.04640829 -0.023371192 0.019641744
0.0414739 0.007822824 -0.044390205 0.023116117 0.005486424 0.027707139 0.0673081 0.05814367
-0.0012841345 -0.014069576 -0.009759397 0.018650094 -0.027996177 0.0465814 0.008746766 -0.07871292
0.047610223 -0.03797759 -0.0618363 0.06533955 -0.09059219 0.0024649736 0.059850022 -0.030527854
0.0016181301 -0.0070100934 0.041461695 0.043609597 -0.10398668 0.0039638067 -0.065558106 -0.07209069
0.015244631 -0.06540493 -0.10085297 0.03929609 -0.053563766 0.07308239 0.01969246 0.06497928
0.08610823 0.0029572588 -0.03877577 0.030736063 -0.09074405 0.025798878 -0.06597509 -0.07839821
-0.022252155 -0.020609228 0.014067905 -0.011984534 -0.082875036 0.01743408 0.03292779 0.07258292
-0.032868255 0.021952357 0.011738212 -0.049875427 0.0026365402 -0.05038421 0.008032121 -0.02730448
-0.016851544 0.021651568 0.057582077 -0.01760303 0.06077628 -0.048463628 -0.0833971 -0.07268848
0.010113685 -0.008056839 -0.00133996 -0.0981055 0.015989706 -0.06285061 0.0054583917 0.03298022
-0.070899874 0.014121764 0.043074295 -0.041476738 0.054143585 0.029718291 0.037257206 0.02437021
-0.05179582 0.02347654 0.036654413 -0.051158797 0.07041312 0.0097201895 0.03249932 0.08423662
-0.028189085 0.074161775 0.0063038273 -0.023594009 0.08194036 -0.052056722 -0.037748516 -0.07870309
-0.0073970286 -0.006471684 -0.043005336 0.028701326 -0.04089557 -0.00092954986 -0.06661584 -0.02026606
0.0048862947 -0.08894353 -0.0633347 0.049636398 0.0010585927 0.06645616 -0.0028403243 0.030297903

_func._diffusion._model.2.bias f4 [48]
00000000: 93c9 893d 3109 b13d 515d ca3d fe42 a03d
00000010: 9c5f f23c 409e 523d c4fb 163d cefa 6c3d
00000020: 80ae b53c 551d e93c 6a03 e13d 0cde dc3c
00000030: b17d 2bbd 18a8 73bc 3418 9fbd bf8b 843a
00000040: fcb4 bd3b 987b 8c3d 7db6 63bd e3db d9bd
00000050: 8aad bcbd 5432 20bc 1b7c 4cbd 40e6 d0bd
00000060: ee26 c9bc a78d b2bc ea6c 693d 30b1 91bd
00000070: 1f95 d7bc b40a 32bd 49ae 61bc 9da8 6abd
00000080: 2a35 dcbd 1314 c03d 8065 923d 4b8e b13d
00000090: 604c 2f3d f4ae 293c def1 963c 864d c53b
000000a0: 0483 c5bc 15d2 8dbd 5914 3b3d 04a9 903d
000000b0: 0419 c43d c3f1 5cbd ce96 8fbc d1ad c43a
0.067279 0.08644331 0.0988108 0.07825278 0.029586606 0.05142045 0.036861196 0.057856373
0.022177935 0.02845637 0.10986979 0.026961349 -0.041867916 -0.01487162 -0.07768288 0.0010112448
0.0057893973 0.06859511 -0.055593956 -0.10637643 -0.092127874 -0.009777624 -0.049923044 -0.10200167
-0.024554696 -0.02179606 0.056988634 -0.07113874 -0.026316224 -0.04346724 -0.013774463 -0.05728971
-0.10752328 0.09378829 0.07148266 0.08669718 0.042797446 0.0103566535 0.018425878 0.0060212044
-0.024110325 -0.069248356 0.045673702 0.07063487 0.09575084 -0.0539415 -0.017527964 0.0015005415

_readout.weight f4 [1, 16]
00000000: 71c5 c0bd f81b 45be 834d 77be 73b0 51be
00000010: 97e1 9d3d af8a cbbd 93ca e93b 8a21 053e
00000020: 479a eabc 20f8 8d3d ba82 af3d e255 8bbe
00000030: cbc9 71be f74e a3bb ce94 8fbd 1bc3 163e
-0.09412659 -0.1924895 -0.24150662 -0.20477466 0.077090435 -0.09938561 0.0071347444 0.13001075
-0.028638018 0.06932092 0.08569856 -0.2721396 -0.23612134 -0.0049837786 -0.07010804 0.14722864

_initial._model.0.weight f4 [16, 2]
00000000: 9ff3 26b6 c8f4 b1be e2cb 32b6 1cb3 993f
00000010: 0acf c634 2a37 37bf f206 bd36 4bba 11bf
00000020: 5feb 8cb6 f34b a1be 2e71 4036 23d5 31bf
00000030: 05d7 4336 3670 623f a145 e4b5 2122 aa3f
00000040: 3048 6334 4ca1 3dbf 5d70 59b6 6218 3a3f
00000050: 41d9 81b6 a4c2 f13d 323a be36 05e8 aebe
00000060: 617c c4b6 044b b1bf 619f 3b36 a373 b93e
00000070: fa3e a135 7b3b 1c3f 8a3f deb5 b9d6 1c3f
-2.4877734e-06 -0.34757066 -2.6642742e-06 1.2007785 3.7031015e-07 -0.7156855 5.6334475e-06 -0.56924886
-4.199726e-06 -0.31503257 2.8676109e-06 -0.69465846 2.9182422e-06 0.8845247 -1.7007588e-06 1.3291665
2.1167284e-07 -0.74074244 -3.2400924e-06 0.72693455 -3.8697913e-06 0.11804703 5.669216e-06 -0.34161392
-5.855735e-06 -1.3851018 2.7957942e-06 0.36221036 1.2013763e-06 0.6102826 -1.6558781e-06 0.6126514

_initial._model.0.bias f4 [16]
00000000: 3810 01bf c374 f9bc f159 9c3d aacd 0b3f
00000010: 85fa 7cbe 7f3a ef3a d3f1 a4be 92c8 04bf
00000020: e242 413f 8f84 143e 8e5b 96bd 4bff fabd
00000030: 9e8b 5cbe 5911 b2be 4484 853d 344f bd3e
-0.5041537 -0.030451184 0.076343425 0.54610693 -0.2470494 0.0018251686 -0.32215747 -0.51868546
0.7549268 0.14503692 -0.073416814 -0.122557245 -0.21537635 -0.3477886 0.06519368 0.3697449

_initial._model.2.weight f4 [16, 16]
00000000: 49e7 1cbd 86bd f7be ea15 9fbc 258c 7cbd
00000010: cb5e 7cbe b772 1dbe f51d 1cbe 7ee9 43be
00000020: af7d 36bd 83bc 5bbe e7a6 c03a 2b33 2cbe
00000030: ccf1 3cbe 0664 dabd 5794 ae3d ed18 54be
00000040: b226 d03d d5d3 bf3e 1b57 d73e 84cc 8a3e
00000050: a093 283e b993 c23e f2b3 6e3e 33c1 873e
00000060: 0659 553e c22e 613e 871f 68bb 1f3e 0e3e
00000070: 7b13 013f 1bca 36be 3687 853d 5206 903e
00000080: 6fca 8ebe 9c9e c13e fe9a 053e 2869 1f3e
00000090: 1192 bebe 38e7 173e 19e1 8b3d 124d fa3d
000000a0: d346 803e d8e8 e23e 0640 8abe f162 88be
000000b0: 379c 903e a8b8 dfbc 5309 893d 93c7 073f
000000c0: 34d8 713c 3645 1a3f db52 303e 7101 ce3d
000000d0: 756a 93bd 11e0 b53d d51a a63e 3264 da3e
000000e0: b675 383e 480c ea3d 130d 45be 98cf 323e
000000f0: a8b6 8c3e 179c 0ebd 359b a33e 426f ae3c
00000100: ea3a debd 8cd8 e53e fd0b 403e c64e 203e
00000110: 3f80 84bd 860c ab3e 919c c13d f377 fc3e
00000120: 367c 21be ed8e 993e 71ac 46be f8e3 ed3d
00000130: 9d5c 1b3f f053 063d a740 9fbd 652a 79bc
00000140: f80e c93c 0a47 033f a328 7cbd ad91 bf3d
00000150: 2455 723e 24f3 5f3e 752d 8e3e a34c ee3e
00000160: ccff a83d e3f0 993e 44dc 043e 4590 a1bd
00000170: ec96 a13e c266 273e 5bb6 de3d 094a 8bbd
00000180: cfde 5b3e d709 45bb 2910 b23b dc8e d5bd
00000190: cca1 9f3e 4ac9 b7bd c209 c13d 4c74 35bc
000001a0: 17ae 28be e019 d5be 0275 bc3d 6cb4 cb3e
000001b0: e077 153e 5538 2ebc 5a3a 5dbd 845e 9bbd
000001c0: 20d1 1fbe cea8 a2be f3c5 523d 457b 91be
000001d0: 1fc0 9b3d 68d6 05be 6671 30be 3f7f d2be
000001e0: 90e6 0abe 5125 043c 1eba fe3d 4d0c 14bd
000001f0: 8080 19bf 76a9 883d 8dcc 433d becc 74be
00000200: b967 9d3e 4608 0a3e 603a 6abd 562f e73d
00000210: cf1c 163e a109 b23d 8d5e a63e 7e6c 003f
00000220: 6fd4 ddbd c4db 5e3e 4f20 07bc 72ba 403e
00000230: 11d9 1c3f e148 063e f740 29be fb1a 643e
00000240: e758 0a3e 7fcc 69be ba52 6fbe a22d 2ebc
00000250: 5404 08be 1a59 eabe 3b87 7abe 91e7 92be
00000260: 7091 59be 6443 ccbb e3bf 523e 52f9 723d
00000270: 5acb 1fbf 419e 03be 7795 f8bd 5918 773c
00000280: 94ae f6bd 2635 083e 5fdc 413e 0c9b 15be
00000290: 5a34 8dbd 531c d43e 6637 943e b98d a83e
000002a0: f8dc 053c 69aa 7b3e 86b7 c6bd 8f84 8c3e
000002b0: cdb9 5d3e 6e93 2e3e 0ad9 96bc e26d 5bbd
000002c0: fdcd b6bd 0745 7a3e c087 3a3e 87bf d03d
000002d0: 8212 4e3e 6096 b83e f6ca 4e3e 9a2f d63d
000002e0: ef06 533e acd7 4a3d 3320 abbd d66a 9a3d
000002f0: d378 163f 6801 17be e107 233e d97c a73d
00000300: 3e09 13bd d400 973e 1666 0c3e dac9 3bbe
00000310: 0f85 a73d ae68 9f3e d5d7 a03e e65d b13e
00000320: 99ac 4e3e c758 6c3e f504 adbd bd70 9dbd
00000330: c19b 0c3f cade ae3e 9e25 5f3e c5b8 2f3e
00000340: 1405 203e a862 be3e 6098 c23e ac58 8b3e
00000350: 6fce 95bd dba6 ee3e 5289 a33e b0ae 973d
00000360: 55b8 2e3e 0917 003c 5b27 e2bd f162 d23d
00000370: cd80 1b3f 3253 1ebe b39a 2c3e 0cc7 583e
00000380: 0404 a23e e3d7 76be 874e 9b3e e5cb 353e
00000390: ab70 1c3e d8b3 e33e 47b5 233e dd7b 28bd
000003a0: dfe2 88bd 250d a4bd b959 d1bc 75fa d23e
000003b0: db08 b73e 0597 78bd 0759 93bd cc14 9cbe
000003c0: 8da9 373a f7c5 d2be 5ece 6ebe c552 873d
000003d0: 8d7c 6ebe ec49 4ebe b85a 96be afaf cebe
000003e0: 907c 21be ecb5 06be bedf a1bc c62b 51be
000003f0: d975 ebbe 836a 6dbe 4dff 16bb b080 a9bd
-0.03830651 -0.48386782 -0.01941963 -0.06165709 -0.24645536 -0.15375791 -0.15245803 -0.19132039
-0.044553455 -0.2145863 0.0014698178 -0.16816394 -0.18451613 -0.10663609 0.08524387 -0.20712633
0.101636305 0.37466303 0.42058644 0.27109158 0.16462564 0.38003328 0.23310831 0.26514587
0.20834741 0.21990493 -0.0035419182 0.13890885 0.5042035 -0.17850535 0.0651993 0.28129822
-0.2788882 0.37816322 0.13047406 0.15567458 -0.37220815 0.14834297 0.06830043 0.12221731
0.25054035 0.4431827 -0.2700197 -0.26637986 0.28244182 -0.02730973 0.066912316 0.530389
0.0147610195 0.6026186 0.17219107 0.10058869 -0.071980394 0.08880628 0.32442346 0.42654568
0.18013653 0.11428124 -0.19243269 0.17462003 0.27483106 -0.034816828 0.3195435 0.021293286
-0.10851081 0.44891775 0.18754573 0.1565505 -0.064697735 0.33407992 0.09453691 0.49310264
-0.15770039 0.29991856 -0.19401719 0.11615747 0.6068819 0.032794893 -0.07776003 -0.015207862
0.02454327 0.5128027 -0.06156219 0.09353957 0.23665291 0.21870095 0.27769056 0.46542844
0.082519144 0.30066594 0.1297465 -0.07888845 0.31560457 0.16347793 0.10874625 -0.068012305
0.21471713 -0.003006568 0.0054340553 -0.10427639 0.3117813 -0.0897394 0.09425689 -0.011075091
-0.1647266 -0.41621304 0.09202005 0.39786088 0.1459651 -0.010633548 -0.054010727 -0.07586387
-0.15607119 -0.31769413 0.05145831 -0.2841436 0.076050036 -0.1307007 -0.17230758 -0.41112706
-0.13564515 0.008065538 0.12437843 -0.036144543 -0.599617 0.06672947 0.047802497 -0.23906228
0.30743197 0.13479719 -0.057184577 0.112883255 0.14659427 0.08693243 0.32494012 0.50165546
-0.10831534 0.21763521 -0.008247449 0.18821123 0.6126872 0.13113739 -0.16528688 0.22275917
0.13510476 -0.22831915 -0.23371401 -0.010630997 -0.13282901 -0.45771104 -0.24465649 -0.28692296
-0.21246886 -0.0062336195 0.20581011 0.0593198 -0.62419665 -0.12853338 -0.12137883 0.0150814885
-0.12045017 0.13301525 0.18931721 -0.14609927 -0.06894751 0.4142786 0.28948516 0.32920626
0.008170359 0.24576725 -0.09702973 0.27444884 0.21652909 0.17048427 -0.01841404 -0.05357159
-0.08926008 0.24440394 0.18215847 0.10192781 0.20124248 0.36052227 0.20194611 0.10458298
0.20608114 0.049522087 -0.08355751 0.075399086 0.58778113 -0.1474663 0.15920974 0.0817811
-0.035897486 0.2949282 0.13710818 -0.18338719 0.08179676 0.31134552 0.31414667 0.3464195
0.20183028 0.23080741 -0.08448211 -0.07687519 0.5492516 0.3415435 0.21791694 0.17160328
0.15626937 0.37184644 0.38006878 0.2721609 -0.07314765 0.46611676 0.31940705 0.07406366
0.17062505 0.007817992 -0.11042663 0.10272778 0.6074341 -0.15461424 0.16855888 0.2116968
0.3164369 -0.24105792 0.3033335 0.17753561 0.15277354 0.44473147 0.1598712 -0.04113375
-0.06683897 -0.080103196 -0.025555478 0.4120671 0.35748944 -0.0606909 -0.07194715 -0.30484617
0.0007006161 -0.4116666 -0.2332091 0.06607584 -0.232897 -0.20145386 -0.29366088 -0.4036841
-0.15770173 -0.13155335 -0.019760009 -0.20426854 -0.45988348 -0.23185162 -0.0023040355 -0.08276498

_initial._model.2.bias f4 [16]
00000000: f988 ac3e 40be dc3d 62ec a13e 92d4 9abc
00000010: e819 5ebe 2572 e83d c837 aebe 1201 e53c
00000020: 8b44 7bbe 33eb 68be 789c d43d 9457 443e
00000030: bc05 a3bd b42c 313d 395a 95be f59d 193e
0.33698252 0.10778475 0.31625658 -0.01890019 -0.2168957 0.11349896 -0.34026933 0.027954612
-0.24537866 -0.22745971 0.103814065 0.19174033 -0.07960078 0.043255523 -0.29170397 0.15001662
