hyperparameter_tuning/ray_results/SUD_learning_rate_tuning/MyTrainableClass_504881d1_23_batch_size=16,name=SUD_v2,patience=1000,steps=200,steps_per_print=5,swa_step_start=2500,t_size=7,trai_2024-03-12_14-37-28/checkpoint_000000/checkpoint.pt (torch, 61346 bytes, 66 tensors)

_initial._model.0.weight f4 [16, 5]
0	0xbf545e68	-0.8295655
1	0xc006db5c	-2.1071386
2	0xbfb8e4ad	-1.4444786
3	0xbf9146ab	-1.1349691
4	0xc031c6d1	-2.7777598
5	0xbfe063b1	-1.7530423
6	0xc05b6b49	-3.4284232
7	0xc071fc5d	-3.781028
8	0xc0511730	-3.2670403
9	0x40212597	2.5179193
10	0x4039562e	2.895885
11	0xc020e41a	-2.5139222
12	0x405242eb	3.2853343
13	0xc0632026	-3.5488372
14	0x3fff4fac	1.9946189
15	0x3f81f9b6	1.0154331
16	0x404b4376	3.1759925
17	0xc01435b7	-2.3157785
18	0x404b1f37	3.1737802
19	0x3e657fd9	0.22412051
20	0x402f6bcd	2.7409546
21	0xbf8b578a	-1.088609
22	0xbe590587	-0.21193515
23	0xc01c7ee4	-2.4452448
24	0x3faf2edc	1.3686175
25	0xc02d3ce9	-2.7068427
26	0xbf87808d	-1.0586106
27	0xc03eaa67	-2.9791505
28	0xbfd387b2	-1.6525786
29	0x3df7a410	0.12091839
30	0xc04f0f8e	-3.2353244
31	0x3f4700a2	0.7773534
32	0xc0275c30	-2.6150017
33	0xbdb6ad65	-0.08919791
34	0xbf654492	-0.89557755
35	0xbf5c69e8	-0.860991
36	0xbf51712e	-0.81813323
37	0x3fcaa701	1.5832216
38	0x3f1dcc21	0.616396
39	0x4002c5c7	2.0433214
40	0xbf0b8834	-0.54504704
41	0xc0683c1a	-3.6286683
42	0xc05c8142	-3.4453893
43	0x406cc883	3.6997383
44	0xc05c0cd0	-3.438282
45	0x4026f88a	2.6089196
46	0x3f227518	0.6345992
47	0x3fcb6d5a	1.5892746
48	0x3fdf62e4	1.7452054
49	0xbefdfc50	-0.49606562
50	0x403b8fe1	2.9306567
51	0x3dfa97ac	0.1223596
52	0xbff14ce1	-1.8851587
53	0xbf1f9764	-0.6234038
54	0xbfc04604	-1.5021367
55	0x3f871344	1.0552754
56	0xc02caab8	-2.6979198
57	0xc061e917	-3.5298517
58	0x40641f70	3.5644188
59	0x3f43c9c5	0.7647975
60	0x3e86c753	0.26323947
61	0x3f9b7c54	1.2147317
62	0x40122027	2.2832124
63	0xbe40d855	-0.18832524
64	0x40240a2a	2.5631204
65	0xc0782279	-3.877104
66	0xbff49413	-1.9107689
67	0xbf200c69	-0.62518936
68	0x3fe6488c	1.799089
69	0xc0187dad	-2.3826706
70	0x403c8b11	2.945988
71	0x404fa4c9	3.2444327
72	0x40425cbd	3.0369103
73	0xc0774dd8	-3.8641262
74	0xc055b886	-3.3393874
75	0xbf83b3ac	-1.0289207
76	0x3ef19c4e	0.47189564
77	0x4049c390	3.1525612
78	0x3f4175db	0.7557046
79	0x405a2bb8	3.4089184

_initial._model.0.bias f4 [16]
0	0x3ff698a4	1.9265332
1	0xc05c8655	-3.445699
2	0xbfc486d5	-1.5353647
3	0x3f4809a6	0.7813972
4	0x3ed3ed84	0.41392148
5	0xc060d475	-3.5129673
6	0xbfd07636	-1.6286075
7	0x401e168a	2.4701257
8	0x3fe8431d	1.8145481
9	0xbf47bdce	-0.78023994
10	0xc06043ea	-3.5041451
11	0x40642122	3.5645223
12	0xc003d22b	-2.0597026
13	0x3fa4fd5e	1.2889822
14	0xbf1974f5	-0.5994409
15	0x3e42b814	0.19015533

_initial._model.2.weight f4 [16, 16]
0	0xbe603899	-0.2189659
1	0xbea02fb2	-0.3128639
2	0x3d3a2f6c	0.04545538
3	0xbfc348b7	-1.5256566
4	0x3ffa78c0	1.95681
5	0xbfd26b4e	-1.6438997
6	0x3f303282	0.6882707
7	0x3e2e5bc7	0.17027198
8	0xbf4df235	-0.80447704
9	0x3fdf4660	1.7443352
10	0xbe9bb804	-0.3041383
11	0xbfbff1b9	-1.4995643
12	0x3f209ca3	0.6273901
13	0xbf2b8e6a	-0.6701418
14	0x3fd20498	1.6407652
15	0xc004ca1f	-2.0748365
16	0x3f93b6c6	1.1540153
17	0xbf04f0d9	-0.51930004
18	0xc0197464	-2.397729
19	0x4006e4c1	2.107712
20	0x3fbe8201	1.4883424
21	0x3f1f5ba4	0.6224921
22	0x3f63c8a5	0.88978034
23	0xbfddd6dc	-1.7331195
24	0x4013f6f1	2.311947
25	0xb8a7cfdb	-8.001897e-05
26	0xbeefb6ae	-0.4681906
27	0xc0035d9c	-2.0525885
28	0xbfb37bba	-1.4022133
29	0xbec9165f	-0.3927488
30	0xbf6a2806	-0.9146732
31	0x3f95dba0	1.1707649
32	0xbd34b8a5	-0.044121403
33	0x3fd958c0	1.6980209
34	0x3f0d7e44	0.5527079
35	0xbf748ab6	-0.95524156
36	0x3f6a3d86	0.9150013
37	0x40157c58	2.3357143
38	0xbf39eed6	-0.7263006
39	0xbf512029	-0.816897
40	0xbe6970a3	-0.22796874
41	0x3f495fc9	0.7866178
42	0xbfae60b1	-1.3623258
43	0xbe54dd59	-0.20787562
44	0xbfa699b8	-1.3015661
45	0x3fc21ef6	1.5165699
46	0xbf0005de	-0.5000895
47	0x3fbeaed9	1.4897109
48	0xbec5420f	-0.3852696
49	0xbff8c5f9	-1.9435416
50	0x3f8066a1	1.003132
51	0xbf987359	-1.1910201
52	0xbff30627	-1.8986253
53	0x4013a6ec	2.307063
54	0xbeeca4c8	-0.46219468
55	0x3e932776	0.28741044
56	0xbfc670bd	-1.5503155
57	0xc002acc8	-2.0417957
58	0x3fb53189	1.4155742
59	0xbf4359b4	-0.7630875
60	0x3f5c52d2	0.86063874
61	0x3f3ee220	0.7456379
62	0x3f75aea2	0.95969594
63	0xc00f76b1	-2.2416193
64	0xbf20d632	-0.62826836
65	0x3f027bfa	0.50970423
66	0xbfd5a364	-1.6690488
67	0x3ff775fa	1.9332879
68	0x3fb2e5bc	1.3976359
69	0xc00dcb5c	-2.215537
70	0x3fe29e00	1.7704468
71	0x3f4b9aaf	0.79532903
72	0x3fcee24e	1.6162813
73	0x3fbbcc0e	1.4671648
74	0x3f93cc5d	1.1546742
75	0x3f5f80cd	0.8730591
76	0x3fb2cb83	1.3968357
77	0xbf46cf56	-0.7766012
78	0x3fa57185	1.2925268
79	0xbfe7c084	-1.8105626
80	0xbf2a332a	-0.6648432
81	0x3f0cc129	0.5498224
82	0xc001e10e	-2.0293612
83	0x401bb912	2.4331708
84	0xbf8b3b08	-1.087739
85	0xbfabc6a0	-1.341999
86	0xbfd09916	-1.6296718
87	0xbf09aa8a	-0.53775847
88	0xbfb371e3	-1.401913
89	0x400135dd	2.0189126
90	0x3edda3f4	0.4328915
91	0x3fe72a03	1.8059696
92	0x3ebf3ded	0.37351933
93	0xbfeefb7e	-1.8670499
94	0x3f4e8291	0.8066798
95	0xbc59f24b	-0.013302396
96	0xbdaa4313	-0.08313575
97	0xbf044461	-0.5166684
98	0x3e74b01d	0.23895307
99	0x3eec3e86	0.46141452
100	0x3f4e5dbd	0.80611783
101	0xbdbafc54	-0.09130159
102	0x3f845d49	1.0340968
103	0x3f1531d1	0.5827914
104	0x3fd6e0ae	1.6787317
105	0xbd20b3a9	-0.039233837
106	0xbf27237e	-0.6528853
107	0xbf9ce8bd	-1.2258526
108	0x3ff5020c	1.914125
109	0x3f8ad32c	1.0845695
110	0x3fd07fae	1.6288965
111	0x3f5b05d9	0.855558
112	0xbd71ffaa	-0.05908171
113	0xc0115e07	-2.271364
114	0xbfac62df	-1.3467673
115	0xbeb5ef71	-0.35534242
116	0x3f7fe443	0.99957675
117	0xc007d758	-2.1225185
118	0xc014e09e	-2.3262095
119	0x3fd57c26	1.6678512
120	0xbfacc5b0	-1.349783
121	0x3eaf2dd9	0.34214666
122	0x3f1ac302	0.6045381
123	0x3f91f68b	1.1403364
124	0x3d1edc5c	0.03878437
125	0xbf96e912	-1.1789877
126	0xbecb18b2	-0.3966728
127	0xbf2a87ee	-0.6661366
128	0x3fb25390	1.3931751
129	0x3f26f380	0.652153
130	0x3e95e30d	0.29274788
131	0x3fbebf31	1.4902097
132	0xc015f48e	-2.3430514
133	0xbe20cb94	-0.15702659
134	0x3f20e7ba	0.62853587
135	0x3eec9a31	0.4621139
136	0xbfa34ad6	-1.2757213
137	0xbfe96dcf	-1.8236636
138	0xbee8cc92	-0.45468575
139	0xbe61a643	-0.2203608
140	0xbfd76375	-1.6827227
141	0x3e9acb2d	0.30233136
142	0x3f6cab74	0.92449117
143	0x3f135633	0.57553405
144	0x3f8b4e06	1.0883186
145	0x3e1031ab	0.14081447
146	0x4007b8c6	2.1206527
147	0x3f9185c9	1.1368953
148	0xbf6bedfc	-0.9216001
149	0xc00f868c	-2.242587
150	0xbe4c0a66	-0.19925842
151	0x3f343c60	0.70404625
152	0x3ffa2a74	1.9544206
153	0xbf153cd3	-0.58295935
154	0x3cf27916	0.029598754
155	0xbf568882	-0.83802044
156	0x3f3dfb25	0.7421134
157	0x3e2f289c	0.17105335
158	0x3f0941d2	0.5361606
159	0xbfbc847d	-1.4727932
160	0x3f92da8a	1.1472943
161	0xc010f422	-2.2649007
162	0x3f9a767a	1.2067406
163	0xbec1b99c	-0.3783692
164	0xbfadf47d	-1.3590237
165	0x3f7c9404	0.98663354
166	0xbf9fecab	-1.24941
167	0x3ff81f72	1.9384596
168	0x3ffaf98c	1.9607406
169	0xbfefdd46	-1.8739402
170	0xbfe28bef	-1.7698954
171	0x3f434749	0.7628065
172	0xbfc266fe	-1.5187681
173	0xbfa62068	-1.297864
174	0x3f831c80	1.0243073
175	0x3ff1661b	1.8859285
176	0x3e154bbb	0.1457967
177	0xbfbd9eff	-1.4814147
178	0x3f722f8c	0.946038
179	0xbda2f87b	-0.0795755
180	0xbfd00f55	-1.6254679
181	0x401112c6	2.2667708
182	0xbfb1ad4e	-1.3881013
183	0xbf10d159	-0.5656944
184	0x3f01c060	0.50684166
185	0xbf844e80	-1.0336456
186	0xbf21abae	-0.6315259
187	0x3f59a4fd	0.8501738
188	0xbed93580	-0.4242363
189	0x3d66086f	0.056160387
190	0x3f96b066	1.1772583
191	0x3f8de6c7	1.1086053
192	0xbf944598	-1.1583738
193	0xbfe09d09	-1.7547923
194	0x3feecdb8	1.865653
195	0x3d8cda83	0.06877615
196	0xbfbe9327	-1.4888657
197	0xbff8c9d7	-1.9436597
198	0xbfa7c814	-1.3107934
199	0xbe049cb1	-0.12950398
200	0xbebd16fe	-0.36931604
201	0xbf4dcb0b	-0.80387944
202	0x40015118	2.0205746
203	0x4012bacc	2.2926512
204	0x3fdae615	1.7101465
205	0xbffa2157	-1.9541425
206	0xbfb07e6f	-1.3788584
207	0x3fc6de08	1.5536509
208	0xbf512a42	-0.81705105
209	0xbdcca8f4	-0.09993163
210	0xbf480dce	-0.78146064
211	0x3ff6e867	1.9289674
212	0x4010f18a	2.2647424
213	0x3fb06edb	1.378383
214	0x3fe7f8a5	1.8122755
215	0xbfcdd3e3	-1.6080288
216	0x3fefa3d0	1.8721867
217	0x3daa7acd	0.08324204
218	0xc0086407	-2.1311052
219	0xbdd5c935	-0.10438768
220	0x3fcad6a0	1.5846748
221	0xbf3bc2d1	-0.7334414
222	0xbf054c07	-0.52069134
223	0xbf2819fa	-0.6566464
224	0xbf856454	-1.0421243
225	0x3fbea090	1.489275
226	0x3f98b71f	1.1930884
227	0x3cb094e9	0.02155538
228	0x3fdd0fd7	1.7270459
229	0x3f2badfc	0.67062354
230	0xbf6ffc6a	-0.9374453
231	0xbfd3c7dc	-1.6545367
232	0x3e8d9a83	0.27656946
233	0xbf42c321	-0.76078993
234	0xbf20158d	-0.62532884
235	0x3fa8ba49	1.318185
236	0x3fb07e85	1.3788611
237	0xbee1813d	-0.44043913
238	0xbf2310d2	-0.6369754
239	0x3f465dd9	0.7748695
240	0x3e8fd122	0.28089243
241	0x3f35baac	0.70987964
242	0x3f63787f	0.8885574
243	0x3fb64438	1.4239569
244	0xbfefbd5b	-1.8729662
245	0x3d9a04a0	0.075204134
246	0x3f1dd8dc	0.61659026
247	0x3ed351bc	0.41273296
248	0xbf3eb94f	-0.7450151
249	0xbfeba1dd	-1.8408772
250	0x3ffbbbd2	1.9666693
251	0xbfd506d6	-1.6642711
252	0x3fa032b8	1.2515478
253	0xc00ebba1	-2.230202
254	0x3f01dfd0	0.50732136
255	0x3fe190ef	1.7622355

_initial._model.2.bias f4 [16]
0	0x3f06f9cc	0.5272491
1	0xbea58f2a	-0.32335788
2	0x401b4926	2.4263396
3	0xbf9c1fea	-1.2197239
4	0xc019f392	-2.4054914
5	0x3e337c15	0.17527802
6	0xbf928f6a	-1.1450016
7	0xbf678af0	-0.90446377
8	0x3fe42e96	1.7826717
9	0xbafcde70	-0.0019292366
10	0xc00c19f7	-2.1890848
11	0xbf285bcd	-0.65765077
12	0xbfaf0c59	-1.3675643
13	0xc0116c8e	-2.2722507
14	0x3f60ac4e	0.87762916
15	0xc009b568	-2.1516972

_func._drift._model.0.weight f4 [16, 17]
0	0x3a347e03	0.0006885232
1	0xbbb3cae1	-0.0054868315
2	0x3ba219d7	0.004946928
3	0xb9aa26cf	-0.0003245384
4	0x3aef0a7e	0.001823738
5	0x3a9271c8	0.0011172825
6	0xbb383257	-0.0028106177
7	0x39e1a122	0.00043035398
8	0x3ae9be14	0.0017833137
9	0xbbae818a	-0.005325501
10	0xbb9410a5	-0.0045185857
11	0xbb8ff167	-0.004392791
12	0xb996c2c7	-0.0002875535
13	0xbb3b1dcc	-0.0028551696
14	0xbbb1c493	-0.005425045
15	0x3bac6065	0.0052605146
16	0x3b9850e7	0.004648316
17	0xbb05c389	-0.0020410737
18	0xbb86944d	-0.0041070343
19	0x3b330340	0.002731517
20	0xba817521	-0.0009876826
21	0xbb5221e5	-0.003206366
22	0xbbad85ac	-0.005295476
23	0x384343fc	4.655494e-05
24	0xbb406d3a	-0.002936198
25	0x3ac53a2b	0.0015047243
26	0x3ac19dda	0.0014771775
27	0xba362563	-0.000694832
28	0x3bbf6ee4	0.0058420766
29	0xba93d32f	-0.0011278148
30	0x3bba4f0d	0.005685693
31	0x3ae2b5d8	0.0017296625
32	0x3ae1f04f	0.0017237755
33	0x3b9d41cf	0.0047991048
34	0xbaff06a4	-0.0019456935
35	0x3bb21ce3	0.0054355725
36	0x3b2a867c	0.00260201
37	0xbad721ef	-0.0016413311
38	0x3b301352	0.0026866985
39	0xbbb8cc57	-0.0056395936
40	0x3a3f740d	0.00073033647
41	0xbaa7c2fa	-0.0012799196
42	0xba9cbb5d	-0.0011957694
43	0xbb992ba0	-0.00467439
44	0x3b3efb67	0.0029141547
45	0x3b060015	0.0020446826
46	0xbb1fa9e5	-0.002436274
47	0x3b9734c3	0.004614444
48	0xba91d1f7	-0.0011125196
49	0xb913e599	-0.00014104544
50	0xbb660e42	-0.0035103713
51	0x3af3cc94	0.0018600398
52	0x3b0a9431	0.0021145458
53	0x3a86aa12	0.0010274074
54	0x39c36fda	0.00037276634
55	0xbbbafbbd	-0.005706279
56	0x3ba18956	0.004929702
57	0xb9731eaf	-0.00023185716
58	0x3b62d464	0.0034611458
59	0x3b6b843f	0.003593698
60	0xbba71ac4	-0.0050996263
61	0x3b7f1e77	0.003892807
62	0xbb825838	-0.0039778017
63	0x3af2695e	0.0018494537
64	0x3ba5bfc8	0.0050582625
65	0x3ba5278f	0.005040116
66	0x3aee78df	0.0018193981
67	0xbbaa8e51	-0.0052049537
68	0x3b4cb594	0.0031236159
69	0xbb66fe27	-0.0035246701
70	0x3b1a4851	0.002354164
71	0xbbb400ad	-0.0054932446
72	0xbb1f84d1	-0.002434064
73	0xbb92439e	-0.004463627
74	0xba9463f6	-0.0011321295
75	0xbb0317e2	-0.002000325
76	0xbbb9c21c	-0.0056688916
77	0xbbbbe1b8	-0.005733695
78	0x3a4d952c	0.0007842358
79	0x3a5102e8	0.00079731504
80	0xbb170c1d	-0.0023047992
81	0xbb4b2849	-0.0030999354
82	0xbb92abb2	-0.004476034
83	0xbb69e4ab	-0.0035689275
84	0xbb1366af	-0.0022491624
85	0xbb1e5f48	-0.0024165679
86	0x3b72fd8f	0.0037077402
87	0x3ac6c4d9	0.0015164866
88	0x3b9de15d	0.004818125
89	0xbb9ed059	-0.0048466143
90	0x3b07a9de	0.0020700614
91	0x3aaf9090	0.0013394523
92	0xbb9b2cc0	-0.004735559
93	0x3b4d3009	0.0031309149
94	0xbb24b4e0	-0.0025132224
95	0xbb18323b	-0.00232233
96	0x3b06296f	0.0020471474
97	0x3ab31ecb	0.0013665793
98	0x39a58f8b	0.000315782
99	0x3bac1cd5	0.0052524605
100	0xbadb1561	-0.0016714745
101	0xbb6aa648	-0.0035804678
102	0xbbbf7d73	-0.005843812
103	0x3aa3951c	0.0012480351
104	0xbb94aa7c	-0.004536925
105	0x3b9bd2aa	0.0047553377
106	0x3ae3383e	0.0017335487
107	0xbab5a15c	-0.0013857293
108	0x3b753c85	0.0037420106
109	0x3ba77a0b	0.005110984
110	0x3b8ccab8	0.004296627
111	0xbb13b5f9	-0.0022538884
112	0x3a094203	0.0005235972
113	0xbb4bc4b2	-0.0031092581
114	0x3b6e7f3c	0.0036391756
115	0x3bb50f5b	0.005525512
116	0xb93107c0	-0.00016882923
117	0x3b7d521b	0.0038653675
118	0x3b0186b5	0.001976413
119	0x3b3bedb5	0.002867562
120	0xbb8f0548	-0.0043646432
121	0xbb846820	-0.004040733
122	0xbba3b274	-0.0049956385
123	0x3bb7a459	0.0056043086
124	0x3b1cb7d0	0.0023913272
125	0x3b8d9394	0.004320571
126	0x3b846b00	0.0040410757
127	0x3b9aaf70	0.004720621
128	0xbaba606b	-0.0014219409
129	0xbbbab829	-0.005698223
130	0x3a3a5889	0.00071085297
131	0xbb1d81bd	-0.002403363
132	0x3b2130a4	0.0024595642
133	0x3b24fc96	0.0025174967
134	0x3a147c61	0.0005664286
135	0xbbb7ec2f	-0.005612872
136	0x3aceebd5	0.0015786836
137	0xbb52a8c9	-0.003214406
138	0xbb30898e	-0.0026937458
139	0x3b931dac	0.004489621
140	0xbb45da2a	-0.003018985
141	0x3af389ba	0.0018580474
142	0xbadc5ef5	-0.0016812967
143	0x39778b9e	0.00023607767
144	0xbb32d2a0	-0.0027286187
145	0xbb0ad295	-0.0021182646
146	0x3ba372bb	0.004988042
147	0x3b51fa71	0.0032040144
148	0xbba2ff87	-0.004974309
149	0x3bab1f8d	0.005222267
150	0xbb66aa8a	-0.0035196864
151	0xbb775101	-0.003773749
152	0xbbaa5cf3	-0.0051990687
153	0xb9b03734	-0.00033610465
154	0xbb2f5b26	-0.002675721
155	0xbbbb47a8	-0.005715329
156	0x3b234f71	0.0024919177
157	0xbabbd229	-0.00143296
158	0x3b13ba0e	0.0022541317
159	0xbb923c6a	-0.0044627683
160	0xbb73c303	-0.0037195093
161	0xbb5c2eb3	-0.003359717
162	0xb9c91485	-0.00038352996
163	0xbba8fec6	-0.0051573245
164	0x3a87f706	0.0010373301
165	0xb84df891	-4.9107304e-05
166	0x3b9c50c3	0.0047703697
167	0xb9afdae1	-0.0003354168
168	0x3ba64aa7	0.005074817
169	0x3b44418f	0.0029946303
170	0x36987995	4.544107e-06
171	0xb97d98ca	-0.00024184879
172	0x39e3040b	0.00043299826
173	0x3a03734b	0.00050144334
174	0xbabbb291	-0.0014320185
175	0xbb67255a	-0.0035270066
176	0xba39ffe9	-0.00070953235
177	0xbb478230	-0.0030442588
178	0xbab831bb	-0.0014052907
179	0xbb9bbf57	-0.004753034
180	0x3b98bdd3	0.0046613007
181	0x3b3333db	0.002734414
182	0xbadcfccc	-0.0016860007
183	0xbaff3899	-0.0019471823
184	0x3bb6e157	0.005581062
185	0xbbb214f0	-0.005434625
186	0xbbb87435	-0.0056290873
187	0xba97e77c	-0.0011589373
188	0x3aca2926	0.001542364
189	0xbb9242c8	-0.0044635274
190	0x3b70f37a	0.0036766217
191	0xbad43705	-0.0016190714
192	0x3b909686	0.004412475
193	0x3b7dcfca	0.0038728588
194	0xbb864ee0	-0.004098758
195	0x3b52f61d	0.0032190152
196	0x3b40951f	0.0029385758
197	0xba6c9680	-0.0009025112
198	0x3b866293	0.0041011064
199	0xbb9ed427	-0.004847068
200	0x3aa97798	0.0012929318
201	0xbab68a79	-0.0013926766
202	0xb8b03690	-8.402497e-05
203	0xbb117704	-0.0022196183
204	0xbb23867e	-0.002495199
205	0x3b7f35ed	0.0038942054
206	0x3b5f4bdc	0.0034072315
207	0x3b872425	0.004124182
208	0xbb945dc7	-0.0045277807
209	0x3a3b564e	0.0007146344
210	0x39c4f4cf	0.0003756643
211	0xbb8a3777	-0.0042180377
212	0x3b71ad25	0.0036876884
213	0xbaf368a5	-0.0018570615
214	0xbb49144e	-0.0030682269
215	0xb98390b9	-0.00025094094
216	0x3b327e76	0.002723602
217	0x3ae1037b	0.0017167175
218	0x3b9982e3	0.0046847924
219	0x3a0fde98	0.0005488186
220	0xbba0a2e4	-0.0049022306
221	0xbb0970b3	-0.0020971715
222	0xba5dc915	-0.00084604445
223	0x3baaa65a	0.005207819
224	0x3b2b1821	0.0026106911
225	0x3ad18f7f	0.00159882
226	0xbb9c2788	-0.0047654547
227	0xbb2a6f62	-0.002600633
228	0x3b19b779	0.0023455305
229	0xbb4f6b3f	-0.0031649617
230	0xbb08abfc	-0.0020854464
231	0x3bb6d721	0.0055798446
232	0x3aa01213	0.0012212418
233	0x3b249996	0.0025115958
234	0x3b73d1a5	0.0037203815
235	0xbbb5cd29	-0.0055481386
236	0x3ad672b7	0.0016361092
237	0xbb8efef3	-0.0043638884
238	0xbaec809f	-0.0018043703
239	0x3b37d56f	0.00280508
240	0xbbb72dd4	-0.00559018
241	0x3b86ced8	0.004114013
242	0x3aebf2dc	0.0018001455
243	0x3b653c87	0.0034978704
244	0x3b2db15f	0.0026503426
245	0x3b2277f8	0.0024790745
246	0xb91dc3b2	-0.00015045589
247	0x3bb2855a	0.0054480257
248	0xbb4d1b25	-0.0031296697
249	0xba26f4ba	-0.00063688646
250	0xbaa2ac01	-0.001241088
251	0x3ad15f48	0.0015973831
252	0x3b3eb6a9	0.0029100573
253	0x3b67fee6	0.0035399734
254	0x3b34cc6e	0.002758767
255	0xbb828b7e	-0.003983914

_func._drift._model.0.bias f4 [16]
0	0x3bb77b37	0.005599405
1	0xb9c74b6d	-0.00038012434
2	0x3b19ab25	0.0023447957
3	0x3b0f5187	0.0021868662
4	0xb7c994b1	-2.4030307e-05
5	0xbb163f7b	-0.002292602
6	0x3b820ea9	0.003969033
7	0xbbaea3e5	-0.0053295963
8	0xbbace681	-0.0052765016
9	0xbba9b0af	-0.005178533
10	0xbb0c12a1	-0.0021373408
11	0x3aad20f0	0.0013208669
12	0xb9ad81aa	-0.0003309374
13	0x38fa3cdb	0.00011932264
14	0x3b9904e0	0.0046697706
15	0xbb9a071f	-0.004700556

_func._drift._model.2.weight f4 [16, 16]
0	0xbb24dcb5	-0.0025155966
1	0x3b12ce50	0.0022400804
2	0xbbb23b58	-0.005439203
3	0xbbc3eaf2	-0.0059789354
4	0xbb7a9952	-0.0038238359
5	0xbbbbc0f6	-0.00572979
6	0xbb073f21	-0.0020636993
7	0xbbb419ed	-0.0054962547
8	0xba360cb0	-0.00069446396
9	0x3b50eda6	0.003187993
10	0xbba253d9	-0.004953843
11	0xbbbd2786	-0.005772534
12	0x3b63efe6	0.0034780442
13	0xbb016319	-0.0019742905
14	0x3b20a90d	0.0024514825
15	0x3b3087b8	0.0026936363
16	0xbaab2cfd	-0.0013059672
17	0xb9d28e70	-0.00040160445
18	0xb8a51290	-7.871271e-05
19	0xbb9bda23	-0.0047562285
20	0x3bb38463	0.005478428
21	0xb99cda05	-0.00029917076
22	0x3b0c181b	0.0021376673
23	0x3a7b5663	0.0009587763
24	0x3ba44db5	0.005014146
25	0xbb9d734b	-0.0048050038
26	0xbb81c9e8	-0.0039608367
27	0xb915b107	-0.00014275695
28	0xbb1a794d	-0.0023570836
29	0x3b0735c7	0.002063142
30	0x3bb0b6dd	0.0053928928
31	0xb9ac63ce	-0.00032880757
32	0xbba9edb3	-0.0051858067
33	0x3ba428b4	0.005009735
34	0xbac4b9a2	-0.0015008936
35	0x3afd90bb	0.0019345501
36	0xbb006aeb	-0.0019594978
37	0x3bb04a6c	0.0053799655
38	0xbb619bd1	-0.003442515
39	0x3a45dce1	0.0007547867
40	0x3b31de0d	0.002714041
41	0xbba27f73	-0.004959041
42	0x3ade449b	0.0016957702
43	0xbb645818	-0.0034842547
44	0x3badfd98	0.0053097717
45	0x3ba0ddb1	0.00490924
46	0x3af8bbd0	0.0018976871
47	0xbb410138	-0.002945019
48	0x3965feac	0.00021934015
49	0x3ba882de	0.0051425537
50	0x3b779d1a	0.0037782849
51	0xbb3a6ec1	-0.0028447362
52	0xbb5541ad	-0.0032540367
53	0xbac4f33c	-0.0015026103
54	0xbadf3c1d	-0.0017031465
55	0xbb3f4cd9	-0.0029190092
56	0xbbc151f6	-0.005899663
57	0x38646ce3	5.4460845e-05
58	0x3aad16b0	0.0013205614
59	0xbb8bbeb6	-0.004264678
60	0x3b4a2b01	0.0030848386
61	0xbb2bd46b	-0.002621914
62	0x3b70e674	0.0036758455
63	0xbb2f9102	-0.0026789312
64	0x3bb33f16	0.005470167
65	0xbb6456ca	-0.003484177
66	0x3aa6ef65	0.001273614
67	0x3addcbfd	0.0016921755
68	0x3b909790	0.004412599
69	0x3b42c825	0.0029721346
70	0xbb9bec37	-0.0047583836
71	0xba873ab4	-0.0010317178
72	0xb99d4f90	-0.00030004652
73	0x3b536b89	0.003226014
74	0xbb586cf3	-0.0033023923
75	0x3b4e5bf0	0.0031487904
76	0xbb7dad68	-0.0038708095
77	0x3b1aeedd	0.0023640909
78	0xbb8c5c61	-0.0042834734
79	0x3abb752a	0.0014301885
80	0xb7d25739	-2.5074567e-05
81	0x3b927272	0.0044692094
82	0xbb365ca1	-0.0027826207
83	0x3acbb7ae	0.0015542412
84	0xbb8abd6b	-0.004234006
85	0xbb3adb9f	-0.0028512252
86	0x3b565405	0.0032703888
87	0x3aace196	0.0013189788
88	0x3b9ad555	0.004725138
89	0x3b31127a	0.002701907
90	0x3b723623	0.0036958538
91	0xbb46eea9	-0.0030354655
92	0x3a16d54b	0.0005753829
93	0xbbb29bbd	-0.0054506944
94	0x3ae6cfe7	0.0017609567
95	0xba8c96f2	-0.0010726138
96	0x3b107a1d	0.0022045441
97	0xbb07f125	-0.0020743099
98	0xbad8defd	-0.0016545948
99	0x3b69feee	0.0035704928
100	0x3b669f74	0.0035190256
101	0x3bacf9aa	0.0052787857
102	0xbbbb2ffc	-0.0057125073
103	0xbb08203d	-0.0020771169
104	0xbbaa00d3	-0.0051880865
105	0x3a9b6e4d	0.0011858434
106	0x3bab3793	0.005225131
107	0xbaeac2f5	-0.0017910885
108	0xba1edb42	-0.00060598936
109	0xbae33f53	-0.0017337598
110	0xbb06fd73	-0.0020597845
111	0x3ad90fd9	0.0016560509
112	0x3b845a7d	0.0040391074
113	0xbb7fb39a	-0.0039016963
114	0x3b9e3b76	0.0048288656
115	0x3b93c864	0.0045099724
116	0xb97a7771	-0.00023886353
117	0xbb87e3f9	-0.0041470495
118	0xbb99c4bb	-0.0046926416
119	0xba883354	-0.0010391274
120	0xb98c419d	-0.00026751767
121	0xbb97d391	-0.004633375
122	0xbbb8bb77	-0.005637582
123	0x3af0c949	0.0018370535
124	0x39fbb05d	0.00048005852
125	0x3b885f49	0.0041617495
126	0x3a97ea3f	0.0011590197
127	0x3b17fc09	0.0023190996
128	0x3a266900	0.00063480437
129	0x3b2414fd	0.0025036924
130	0xbb30a364	-0.0026952857
131	0x37f67f94	2.9384893e-05
132	0x3b51675a	0.0031952471
133	0x3b00c26d	0.0019647137
134	0x3b381e53	0.0028094247
135	0xbbab2c2a	-0.0052237706
136	0xb829cab4	-4.0481522e-05
137	0xbb4b544a	-0.0031025582
138	0xbaba0631	-0.0014192519
139	0x3b305a5a	0.0026909322
140	0xba9e71fc	-0.0012088413
141	0xbb3aa55c	-0.002847991
142	0xb905f114	-0.00012773677
143	0xbb76e0e3	-0.0037670664
144	0xbb245eb9	-0.0025080873
145	0xbb30f468	-0.0027001146
146	0x3bb2d093	0.005456993
147	0xbb347701	-0.0027536752
148	0xbb56b03b	-0.003275885
149	0xbac98f81	-0.001537785
150	0x3b8d8fd7	0.0043201256
151	0x38063f8c	3.2007272e-05
152	0xba692208	-0.00088933157
153	0x3b5b0987	0.0033422427
154	0x3b7c813b	0.0038529176
155	0x3bb6585f	0.005564734
156	0xbb8637d0	-0.004096009
157	0x3b4c4873	0.0031171113
158	0xbb8182f1	-0.003952377
159	0xbb3cc27d	-0.0028802447
160	0x3ba2c1f6	0.0049669696
161	0x3b0a0db9	0.0021065308
162	0xbb330a5e	-0.0027319412
163	0xbac4f7c1	-0.001502745
164	0x3b665e06	0.0035151257
165	0x3a8b2ba4	0.0010617864
166	0xbaa8b677	-0.0012871762
167	0xbacb7aee	-0.0015524307
168	0xbae5be03	-0.0017527941
169	0xba742494	-0.0009313312
170	0x3b96b84f	0.004599608
171	0xbb8abe42	-0.0042341063
172	0x3b7d2830	0.003862869
173	0x3a7c2eb5	0.0009619997
174	0x3bc37315	0.0059646466
175	0x3b0231c7	0.0019866095
176	0xbbc4f535	-0.0060106763
177	0xbb0acac7	-0.0021177994
178	0xba84b81a	-0.0010125667
179	0x3b098c0d	0.0020988018
180	0xbbb57440	-0.0055375397
181	0x3b072887	0.0020623521
182	0xbaa2fa86	-0.0012434281
183	0xbb5e6f7e	-0.0033940966
184	0xbb8bdbcd	-0.0042681457
185	0xbb7301c5	-0.0037079912
186	0xbbaeb5cf	-0.005331732
187	0xb9e4d432	-0.00043645647
188	0x3b1c2ee7	0.0023831667
189	0xbb5c7336	-0.0033638007
190	0xbb61c9f4	-0.0034452649
191	0x396f5dc3	0.00022827745
192	0xbba02f7f	-0.0048884745
193	0xbb8aa0ba	-0.004230586
194	0xbad1bc28	-0.001600151
195	0x3b829340	0.0039848387
196	0x3b496237	0.0030728707
197	0x3a92d1c0	0.0011201426
198	0xbb026c7d	-0.001990109
199	0xbba7794c	-0.0051108953
200	0x3b68618c	0.0035458533
201	0x39676df7	0.00022070842
202	0x3b2746ce	0.002552438
203	0xb95b3e02	-0.00020908567
204	0x3b54067b	0.0032352495
205	0xb83b8dac	-4.4716217e-05
206	0x3b4ac42d	0.0030939684
207	0xba8060db	-0.000979449
208	0xbb00fce4	-0.0019681985
209	0x3a9b1c1d	0.001183394
210	0xbbc1ea89	-0.0059178513
211	0xbb9416a8	-0.0045193024
212	0x3a1d4b15	0.0006000263
213	0x3bbc72e4	0.0057510007
214	0xbad9dc9e	-0.0016621535
215	0xbaf8f384	-0.0018993472
216	0x3b660851	0.0035100172
217	0x3ba71fbd	0.005100219
218	0xbb6dedfc	-0.003630518
219	0x3bb06c80	0.005384028
220	0xbafed309	-0.0019441555
221	0x3b555e33	0.0032557368
222	0x3ae84066	0.0017719388
223	0x3a53f055	0.00080848235
224	0x3b9e792e	0.004836223
225	0xba939aef	-0.0011261384
226	0xb9c40d6b	-0.0003739403
227	0x3b774641	0.0037731084
228	0xbb17f86b	-0.002318884
229	0x3ac57f12	0.0015067777
230	0x3b666a5a	0.0035158605
231	0x398f642a	0.00027349713
232	0x3bbd640e	0.0057797497
233	0x39ca853f	0.00038627718
234	0x3b296c1c	0.0025851792
235	0x3b5e2c6a	0.0033900985
236	0x3ba30731	0.0049752225
237	0xbb37bb89	-0.0028035364
238	0xb91fb7d7	-0.00015231907
239	0xbb1e1c67	-0.0024125816
240	0xbb3148a9	-0.0027051365
241	0xbb2281fa	-0.002479671
242	0x3a467354	0.0007570286
243	0xbb893bbb	-0.0041880286
244	0xbb1e646f	-0.002416875
245	0x3b9bb06b	0.0047512553
246	0x3b00a107	0.001962723
247	0x3bc524c6	0.0060163466
248	0xba6c139f	-0.00090056093
249	0xb96f9813	-0.00022849468
250	0xbb4a2ded	-0.0030850128
251	0x3a708925	0.00091757096
252	0x3abc7837	0.0014379089
253	0x3b92c29c	0.0044787657
254	0xbb948271	-0.0045321514
255	0xbaf44b7a	-0.0018638216

_func._drift._model.2.bias f4 [16]
0	0x3ba7f7c9	0.005125974
1	0xbb8338de	-0.004004582
2	0x3b26261e	0.002535231
3	0xbb8f4972	-0.004372769
4	0xbb3283b9	-0.0027239157
5	0xbbba0778	-0.00567716
6	0xbb60dc74	-0.0034311088
7	0xbb3fb650	-0.0029252954
8	0x3ba145a8	0.0049216338
9	0xbb7d2382	-0.00386259
10	0x3b890823	0.004181878
11	0x3a2c9ebe	0.0006584934
12	0x3b2ebd8e	0.0026663276
13	0x3b854008	0.004066471
14	0x3b932cbd	0.004491417
15	0xbb98b753	-0.004660526

_func._diffusion._model.0.weight f4 [16, 17]
0	0x3da35173	0.079745196
1	0xbd7ad1ad	-0.06123512
2	0xbd25bee9	-0.04046527
3	0x3d97e687	0.074170165
4	0xbde5aa6a	-0.112141445
5	0xbd3a63f7	-0.04550549
6	0x3d5c2ccb	0.053753655
7	0x3c76adfe	0.015056131
8	0xbcac55ff	-0.0210371
9	0x3daa3955	0.083117165
10	0x3d8ab4cb	0.06772765
11	0x3d7be77c	0.061500058
12	0x3cdc90cf	0.026924519
13	0x3cc93420	0.024560988
14	0xbcffcf25	-0.031226704
15	0x3ce1f3ea	0.027582128
16	0xbd834d8d	-0.06411276
17	0xbd4d9c2f	-0.050197776
18	0x3c3a2b92	0.011362927
19	0xbd6b0100	-0.057374
20	0xbcaaac14	-0.020834006
21	0xbc464950	-0.01210244
22	0x3d3009b1	0.042977992
23	0x3cb87637	0.022517307
24	0x3d41b6fc	0.047293648
25	0x3cf430e0	0.029808462
26	0xbc842d88	-0.016134992
27	0x3c62b6c0	0.013837516
28	0xba2326cf	-0.00062237395
29	0x3d359aa6	0.044336937
30	0x3d280a5a	0.041025497
31	0x3b6aa803	0.003580571
32	0xbc8c921b	-0.017159512
33	0xbd9c547c	-0.076333016
34	0x3c5ec745	0.013597314
35	0x3d0e7b5f	0.034785625
36	0x3d1fc84b	0.039009374
37	0x3d572430	0.052524745
38	0xbd133ae8	-0.03594485
39	0x3d5e9d87	0.05434945
40	0xbd5ca6b2	-0.05386991
41	0xbb0f26bc	-0.0021843156
42	0x3d0b4b4a	0.034007348
43	0x3d0902f1	0.03345007
44	0x3d595660	0.05306089
45	0x3d84903c	0.06472823
46	0xbd5625ec	-0.05228226
47	0xbb0029ac	-0.0019556088
48	0x3d2a2e07	0.0415478
49	0x3c959371	0.018258782
50	0x3bbee25e	0.005825325
51	0x3ce950eb	0.028480968
52	0x3c5aa92e	0.013346
53	0xbc28ac55	-0.010294993
54	0xbcac6b03	-0.02104712
55	0xbdf40385	-0.11914734
56	0x3ccff907	0.0253873
57	0xbc7f9055	-0.015598376
58	0x3cd8c475	0.026460866
59	0xbda8859a	-0.082286075
60	0x3d966860	0.07344127
61	0x3c932a1c	0.017964415
62	0x3d30041f	0.04297268
63	0x3d0f3eb1	0.034971897
64	0xbcf61571	-0.030039521
65	0xbd9f0b4e	-0.07765828
66	0xbd142655	-0.03616937
67	0xbd48a5c7	-0.048986223
68	0xbdae0a7b	-0.08498093
69	0x3c63b7c5	0.013898795
70	0x3cdbb336	0.026818853
71	0xbd929492	-0.07157244
72	0x3d867f6b	0.06567272
73	0xbd8cbfbe	-0.068725094
74	0x3b4bc153	0.0031090572
75	0xbdc9680b	-0.09834298
76	0x3d002cdb	0.031292778
77	0xbde396f2	-0.11112775
78	0xbd3a0ffd	-0.045425404
79	0xbcd4ae88	-0.02596213
80	0xbdb15d70	-0.086604
81	0xbd1194d7	-0.035542335
82	0x3badc281	0.0053027277
83	0xbd338051	-0.043823544
84	0x3c418b49	0.011812993
85	0x3db17581	0.0866499
86	0xbda9acf4	-0.08284941
87	0x3cad04ef	0.021120517
88	0xbc9b5457	-0.018961115
89	0xbdcef465	-0.10105208
90	0xbd5edaa1	-0.05440772
91	0xbcf2ac5a	-0.0296232
92	0x3b05508b	0.0020342197
93	0xbd9dc07f	-0.07702731
94	0x3d86ac63	0.06575849
95	0xbcbc4177	-0.022980435
96	0x3d910cb9	0.07082505
97	0xbd47a975	-0.04874559
98	0xbd360f97	-0.04444846
99	0x3d079c35	0.033107955
100	0x3d450b56	0.048106514
101	0x3b137497	0.0022499913
102	0xbdee349f	-0.116311304
103	0xbc9797aa	-0.018504936
104	0xbcc57063	-0.024101442
105	0xbd55f017	-0.05223092
106	0x3b185541	0.0023244175
107	0xbd876267	-0.06610566
108	0x3c0a4776	0.008439889
109	0xbc972434	-0.01844988
110	0x3d6489a2	0.05579532
111	0xbda83217	-0.08212679
112	0xbd6e5fe1	-0.058196906
113	0xbd564a8b	-0.052317183
114	0xbd7afe57	-0.061277714
115	0xbd18e9b3	-0.037332248
116	0x3d315a87	0.043299224
117	0xbdb897f9	-0.090133615
118	0x3d2b0216	0.041750036
119	0xbd0ac771	-0.03388161
120	0xbb1a5622	-0.0023549874
121	0xbc97f6f8	-0.018550381
122	0xbdabdcdc	-0.08391735
123	0xbbc65fbd	-0.0060538934
124	0xbc92d48f	-0.017923621
125	0xbd134f6c	-0.035964414
126	0xbd837598	-0.064189136
127	0x3b89ecb8	0.0042091273
128	0xbd93b3d0	-0.07212031
129	0xbd558c7a	-0.052135922
130	0xbda33b6f	-0.079703204
131	0xbcff373c	-0.031154267
132	0x3bd2a2f0	0.006428115
133	0xbcdba59d	-0.026812369
134	0xbd866871	-0.06562889
135	0x3ced8d17	0.028997941
136	0x3d16c369	0.03680745
137	0xbd93a15f	-0.072085135
138	0xbbb53fd5	-0.005531291
139	0x3d01c540	0.031682253
140	0xbdc3162d	-0.09525714
141	0xbc7321d8	-0.014839612
142	0x3d1a65be	0.037694685
143	0x3d72578a	0.059165515
144	0xbad6886c	-0.0016367561
145	0xbbd35323	-0.0064491197
146	0x3bd13f92	0.006385752
147	0x3d4e78fb	0.050408345
148	0xbd383131	-0.044968788
149	0x3cfc196c	0.03077384
150	0xbd681a07	-0.056665447
151	0x3ca3707d	0.0199511
152	0xbd4ff920	-0.050774693
153	0xbd148522	-0.036259778
154	0x3d3df0d5	0.046372253
155	0x3ba29c31	0.004962467
156	0xbde08bdd	-0.10964177
157	0x3bb3d57a	0.005488095
158	0xbd111b31	-0.035426322
159	0xbd088c7a	-0.033337094
160	0xbd824593	-0.063609265
161	0x3d2e828a	0.04260496
162	0xbd3dc001	-0.046325687
163	0xbdb908ac	-0.09034857
164	0xbd26cc86	-0.040722392
165	0xbc41cd32	-0.0118287075
166	0xbb54526a	-0.0032397755
167	0xb9a51810	-0.0003148918
168	0xbd9f4b1d	-0.077779986
169	0x3d3623c2	0.044467695
170	0xbdc931ae	-0.09823929
171	0xbd36282e	-0.044471912
172	0xbd31e571	-0.043431703
173	0xbcb86451	-0.022508772
174	0x3d42ad63	0.047528636
175	0x3c9e3331	0.01931152
176	0xbd8fea51	-0.07027114
177	0xbd2f9f21	-0.042876367
178	0x3d76ddd5	0.06027015
179	0xbe010dc1	-0.12602903
180	0xbd889cd6	-0.06670539
181	0xbceddf95	-0.029037276
182	0xbd3b9ca8	-0.045803696
183	0x3bfd3d3a	0.007728246
184	0xbd0f351e	-0.034962766
185	0xbd4004c4	-0.046879545
186	0x3cb80096	0.022461217
187	0x3bf6e8ac	0.007535061
188	0x3cd1684b	0.025562426
189	0xbb3e27a4	-0.0029015327
190	0x3d132ae7	0.035929587
191	0xbc08c301	-0.008347274
192	0xbc5e2324	-0.013558183
193	0xbba1d322	-0.004938499
194	0x3d5cd00d	0.05390935
195	0xbdaa5c39	-0.08318371
196	0x3c114c13	0.008868235
197	0xbce63110	-0.028099567
198	0x3d7ba422	0.061435826
199	0x3d089c26	0.03335204
200	0xbdb0f7c7	-0.0864101
201	0xbc9debbd	-0.019277448
202	0x3d6fde5f	0.05856168
203	0xbd7fe34c	-0.062472627
204	0xbd81a22d	-0.06329761
205	0x3b86b274	0.0041106287
206	0x3be64ba9	0.0070280624
207	0xbdba44f1	-0.09095181
208	0x3d25fca8	0.040524155
209	0x3b3acf2e	0.0028504836
210	0xbd82bdac	-0.06383833
211	0xbda5c5e7	-0.080943875
212	0x3c8423ba	0.016130317
213	0xbd3a7f5b	-0.045531612
214	0xbda10724	-0.0786269
215	0xbd615b0d	-0.055018473
216	0xbd282e9c	-0.041060075
217	0x3cdbdc20	0.026838362
218	0xbc796564	-0.015221927
219	0xbd3ab969	-0.045586977
220	0x3d733e6d	0.059385706
221	0x3d8367e7	0.06416302
222	0x3c57bdfa	0.013167853
223	0xbb0f45ab	-0.0021861594
224	0x3d85a792	0.06526102
225	0xbd8b46a1	-0.06800581
226	0xbd19ae8c	-0.037519976
227	0xbc64c0a4	-0.013961945
228	0x3d040175	0.032227952
229	0xbd60c5c3	-0.0548761
230	0x3d9f5906	0.07780652
231	0x3d895fb1	0.06707705
232	0x3d5c7d73	0.053830575
233	0x3cbdbe01	0.02316189
234	0x3c92068d	0.01782539
235	0xbc6a2032	-0.0142899025
236	0xbc6da461	-0.014504523
237	0xbc424a76	-0.011858573
238	0x3c11b180	0.008892417
239	0x3b30ce3c	0.0026978394
240	0x3cd26aaf	0.025685636
241	0x3c15f89b	0.00915351
242	0xbc8ff088	-0.017570749
243	0x3c23a7e3	0.009988758
244	0xbba0e44a	-0.0049100267
245	0x3d14150c	0.036152884
246	0xbd9bbf95	-0.07604901
247	0x3c7dd76a	0.015493253
248	0x3ce13b04	0.027493961
249	0x3d03fab2	0.032221504
250	0xbb8590b6	-0.004076089
251	0xbdb72703	-0.08942988
252	0xbcffb748	-0.031215325
253	0x3d239a28	0.039941937
254	0xbccdecb8	-0.02513729
255	0xbb6b6feb	-0.0035924863

_func._diffusion._model.0.bias f4 [16]
0	0x3ddbf078	0.10739225
1	0x3c6bbdc7	0.014388508
2	0x3c7392bf	0.01486653
3	0x3dc77ed1	0.09740985
4	0xbc389f57	-0.011268458
5	0x3c6fa471	0.014626608
6	0xbd6dcc6d	-0.058056284
7	0xbdcca8c7	-0.09993129
8	0x3d6fd5e8	0.058553606
9	0xbcdfcd30	-0.02731952
10	0xbc9cc615	-0.019137422
11	0x3d4c9f09	0.049956355
12	0xbda9bb0e	-0.08287631
13	0x3dbd5faf	0.09246766
14	0x3d9ea6de	0.07746671
15	0x3c0ad1ea	0.008472899

_func._diffusion._model.2.weight f4 [48, 16]
0	0x3d946784	0.072463065
1	0x3d578ab1	0.0526225
2	0xbc02412c	-0.0079501085
3	0x3d3cbda5	0.046079297
4	0xbdc6f3ee	-0.09714495
5	0x3d25b775	0.04045816
6	0x3b90ab13	0.004414925
7	0xbbb8c355	-0.00563852
8	0x3d18e452	0.03732712
9	0xbdaf7989	-0.08568103
10	0x3c33e6ff	0.010980367
11	0x3d7b3205	0.061327
12	0xbd65dd89	-0.056119476
13	0xbccf5854	-0.025310673
14	0xbc9616da	-0.018321443
15	0x3d90e3cb	0.07074698
16	0x3d1002d4	0.035158947
17	0xbd226c31	-0.03965396
18	0xbce30aae	-0.027715053
19	0x3c27f224	0.010250602
20	0xbd92cd8c	-0.07168111
21	0x3d4e0b6b	0.050303858
22	0xbd0b4f21	-0.03401101
23	0xbdb30abf	-0.08742284
24	0x3d9e21d5	0.07721297
25	0xbc115d55	-0.00887235
26	0x3c1382c6	0.009003347
27	0x3d892535	0.0669655
28	0xbc69037f	-0.014222025
29	0xbcd3bc68	-0.025846675
30	0xbcf31c45	-0.029676566
31	0xbc760786	-0.015016442
32	0x3c1f00f9	0.009704822
33	0xbcbe918b	-0.02326276
34	0xbd0b9935	-0.034081656
35	0x3dc6b5e6	0.09702663
36	0xbdaeb4fb	-0.08530613
37	0x3d21f9d9	0.039544914
38	0xbd37d3aa	-0.044879593
39	0x3ccd331f	0.02504879
40	0xbc5d94f1	-0.01352428
41	0xbcf6d825	-0.030132363
42	0xbdb63cdd	-0.088983275
43	0xbcb10eb3	-0.021613454
44	0xbcf148d8	-0.02945368
45	0x3a699284	0.0008910077
46	0x3cb64f63	0.022254651
47	0xbca12ad2	-0.019673739
48	0x3d95d5bb	0.073161565
49	0x3d6dc469	0.05804864
50	0xbd5474e0	-0.051869273
51	0x3c621901	0.013799907
52	0x3bb8a696	0.005635093
53	0xbc8cbcfc	-0.017179959
54	0xbd309cab	-0.04311816
55	0xbd0a1b7c	-0.033717617
56	0x3d63514a	0.055497445
57	0xbd2c3f8a	-0.042052783
58	0xbc951ac7	-0.018201245
59	0xbc49cc65	-0.012316798
60	0xbcbe456f	-0.023226468
61	0xbbcf2e60	-0.006322667
62	0x3d7fb55f	0.06242883
63	0x3d24d3e5	0.04024114
64	0x3d898034	0.06713906
65	0x3bf08432	0.0073399777
66	0xbc0a08a5	-0.008424913
67	0x3dc2a22d	0.09503589
68	0xbd2ac962	-0.04169596
69	0x3d89e199	0.067324825
70	0xbd8b7be5	-0.068107404
71	0x3c19764c	0.009366583
72	0x3d40ba2b	0.047052544
73	0xbda859b0	-0.082202315
74	0xbd1315fc	-0.035909638
75	0xbd1c1ccf	-0.03811341
76	0xbcdf0334	-0.027223207
77	0x3bb66ac5	0.005566927
78	0x3b230e80	0.002488047
79	0x3c64651c	0.013940122
80	0x3db9a7ad	0.09065185
81	0x3c8a4065	0.016876409
82	0xbd4c1fc4	-0.04983498
83	0x3d88e0cc	0.066835016
84	0xbce89d31	-0.028395267
85	0x3d36dc80	0.04464388
86	0xbcee21e9	-0.029068904
87	0xbc936bfa	-0.017995823
88	0x3d0d0fed	0.034439016
89	0xbd2abe88	-0.04168561
90	0xbba166d8	-0.00492559
91	0x3d74bb4f	0.059748944
92	0xbdbd1ee3	-0.09234407
93	0x3cc0deb0	0.023543686
94	0x3ca6db85	0.020368347
95	0x3d788eda	0.06068311
96	0x3da1970b	0.07890137
97	0x3d1f61d5	0.03891166
98	0xbd725c9b	-0.059170347
99	0x3cd3c445	0.025850425
100	0x3b9282d7	0.0044711637
101	0x3c00bde8	0.007857777
102	0xbd34e91e	-0.04416763
103	0xbd914822	-0.07093836
104	0x3d52cc0c	0.051464126
105	0xbca9e05b	-0.020736864
106	0xbd265ffd	-0.040618885
107	0x3d3aa186	0.045564197
108	0xbd37cdcd	-0.044874
109	0xbb96c7cd	-0.004601455
110	0x3d98755f	0.07444262
111	0x3d514815	0.051094133
112	0x3db069a1	0.08613897
113	0x3bc28fe3	0.005937563
114	0xbd0c5486	-0.034260295
115	0x3c81abca	0.015828986
116	0xbd806c9e	-0.06270717
117	0x3a378444	0.0007000605
118	0xbc51ec52	-0.012812691
119	0xbd7d094a	-0.061776437
120	0x3dbe554c	0.09293613
121	0xbdad4ab0	-0.08461511
122	0xbcc68a27	-0.024235798
123	0x3d6dc55c	0.058049545
124	0xbdb4d974	-0.088305384
125	0x3d30aaad	0.04313152
126	0x3da56522	0.0807593
127	0x3d241815	0.04006203
128	0xbcdd5f6a	-0.027023036
129	0xbcbb959c	-0.022898488
130	0x38ba5e1b	8.8867e-05
131	0x3d1733c3	0.0369146
132	0xbd603769	-0.054740343
133	0x3d3c5f14	0.04598911
134	0xbcbc0f37	-0.022956474
135	0x3ca55e9c	0.020186715
136	0x3d2905f3	0.04126544
137	0x3c06ee0b	0.008235465
138	0xbd3693bb	-0.04457448
139	0x3cbe46cc	0.023227118
140	0x3bc2a2dc	0.0059398245
141	0x3ce3e895	0.027820865
142	0x3d89c5bb	0.06727167
143	0x3d6bf273	0.057604264
144	0xbab2efbd	-0.001365177
145	0xbc65f866	-0.014036274
146	0xbc1b0c10	-0.009463325
147	0x3c96827c	0.018372767
148	0xbcdf817d	-0.027283425
149	0x3d3d4f52	0.046218224
150	0x3c1a84c1	0.009431065
151	0xbd9f97fd	-0.07792661
152	0x3d41faa8	0.047358185
153	0xbd19172a	-0.037375607
154	0xbd7cc0c9	-0.06170729
155	0x3d85cd2e	0.065332755
156	0xbdb816d5	-0.0898873
157	0x3b2523ba	0.0025198297
158	0x3d74b8da	0.0597466
159	0xbcfcc411	-0.03085521
160	0x3a9f35ac	0.0012146733
161	0xbbf17a5b	-0.0073693222
162	0x3d2a0e2c	0.04151742
163	0x3d2fe761	0.04294527
164	0xbdd371ea	-0.10324462
165	0x3b54fd73	0.00324997
166	0xbd84484b	-0.06459101
167	0xbd917d1e	-0.07103942
168	0x3c6faa8f	0.014628067
169	0xbd84586c	-0.06462178
170	0xbdce8d56	-0.100855514
171	0x3d20311a	0.039109327
172	0xbd583774	-0.05278726
173	0x3d956a31	0.07295645
174	0x3c9efe35	0.019408325
175	0x3d839607	0.064251
176	0x3dafb1ba	0.085788205
177	0x3b36e76c	0.0027908934
178	0xbd1ea705	-0.0387335
179	0x3cf6377b	0.030055752
180	0xbdb8959f	-0.09012913
181	0x3cce4657	0.025180025
182	0xbd85f331	-0.06540526
183	0xbd9f2601	-0.077709205
184	0xbcb9d706	-0.022685539
185	0xbca47041	-0.020073058
186	0x3c67fc1a	0.014159227
187	0xbc48fc46	-0.012267178
188	0xbda88758	-0.0822894
189	0x3c8cbf06	0.01718093
190	0x3d05303c	0.032516703
191	0x3d93206c	0.07183918
192	0xbd07a5ab	-0.033116978
193	0x3cb1d791	0.021709235
194	0x3c35d7df	0.011098831
195	0xbd4c6d90	-0.049909174
196	0x3b0a0bf7	0.002106426
197	0xbd4dcb42	-0.05024267
198	0x3bfadabf	0.007655471
199	0xbce3f784	-0.027827986
200	0xbc89e1c9	-0.016831296
201	0x3caed2a9	0.021340685
202	0x3d6caa8a	0.057779826
203	0xbc92a3d9	-0.017900394
204	0x3d774ac6	0.060374044
205	0xbd486118	-0.04892072
206	0xbdab384e	-0.08360349
207	0xbd94817d	-0.072512604
208	0x3c24fbe6	0.010069823
209	0xbc02534d	-0.007954431
210	0xbadbec17	-0.0016778734
211	0xbdc8659f	-0.09785008
212	0x3c7e22a7	0.015511191
213	0xbd80228e	-0.06256591
214	0x3ba17054	0.0049267206
215	0x3d04b8ef	0.03240293
216	0xbd90cbc9	-0.07070119
217	0x3c610954	0.013735134
218	0x3d31d749	0.043418203
219	0xbd2a52b4	-0.041582778
220	0x3d5ca21f	0.05386555
221	0x3cf13c90	0.029447824
222	0x3d1895d8	0.037252277
223	0x3ccacd21	0.024756016
224	0xbd540bc0	-0.05176902
225	0x3cc00a94	0.023442544
226	0x3d149a9a	0.036280252
227	0xbd503fa3	-0.05084194
228	0x3d8f73b3	0.0700449
229	0x3c261ece	0.01013918
230	0x3d03b6f6	0.032156907
231	0x3dabb36f	0.083838336
232	0xbce54acc	-0.027989767
233	0x3d974c0e	0.07387553
234	0x3bd4dc5f	0.006495997
235	0xbcc1e005	-0.023666391
236	0x3da7360e	0.08164607
237	0xbd55d24d	-0.05220251
238	0xbd1a4357	-0.037661877
239	0xbda00bc9	-0.07814748
240	0xbbec77a2	-0.00721641
241	0xbbcd3902	-0.0062628994
242	0xbd2e32e0	-0.042528987
243	0x3ceb0630	0.028689474
244	0xbd255670	-0.040365636
245	0xba8938d5	-0.0010469208
246	0xbd8793f5	-0.066200174
247	0xbca15439	-0.01969348
248	0x3b9f8011	0.0048675616
249	0xbdb5839b	-0.088629924
250	0xbd81edf9	-0.06344218
251	0x3d4c15a7	0.049825337
252	0x3ad01b64	0.0015877304
253	0x3d88c97b	0.06679054
254	0xbb31a4b4	-0.0027106227
255	0x3cf72e91	0.030173572

_func._diffusion._model.2.bias f4 [48]
0	0x3d89bb2d	0.06725154
1	0x3db04816	0.08607499
2	0x3dc9f2c6	0.098607585
3	0x3da078f9	0.07835574
4	0x3cf1d3fd	0.02952003
5	0x3d530341	0.051516775
6	0x3d17f074	0.03709455
7	0x3d6d181d	0.057884324
8	0x3cb61f31	0.02223167
9	0x3ce83daf	0.028349726
10	0x3de040af	0.109498374
11	0x3cda8df4	0.026679017
12	0xbd2c9aac	-0.042139694
13	0xbc75496a	-0.014971117
14	0xbd9f4aa3	-0.07777908
15	0x3aa04839	0.0012228555
16	0x3bbd0f0a	0.005769615
17	0x3d8c4ec5	0.068509616
18	0xbd5f33ba	-0.05449269
19	0xbdd70723	-0.10499408
20	0xbdbc39d3	-0.091907166
21	0xbc257c9c	-0.01010051
22	0xbd4d80ec	-0.050171778
23	0xbdd1a3f5	-0.102363504
24	0xbcc1a2ca	-0.023637194
25	0xbcaca213	-0.021073377
26	0x3d6df900	0.058098793
27	0xbd917755	-0.07102839
28	0xbcd56902	-0.026051048
29	0xbd30cf71	-0.04316658
30	0xbc5e8b49	-0.013583013
31	0xbd6938a4	-0.056938782
32	0xbddbd132	-0.1073326
33	0x3dc06fc5	0.09396318
34	0x3d924c74	0.071434885
35	0x3db16702	0.08662225
36	0x3d2f7acb	0.042841714
37	0x3c270e4b	0.010196279
38	0x3c956862	0.01823825
39	0x3b8eaa5b	0.004353804
40	0xbcd4e56c	-0.025988303
41	0xbd917c74	-0.07103816
42	0x3d3c400d	0.04595952
43	0x3d90af91	0.07064737
44	0x3dc448ca	0.09584196
45	0xbd5e7673	-0.05431218
46	0xbc909190	-0.017647535
47	0x3a9c21d0	0.0011911932

_readout.weight f4 [1, 16]
0	0xbdc40931	-0.095720656
1	0xbe4593b2	-0.19294623
2	0xbe75d7dc	-0.24008125
3	0xbe54448a	-0.2072927
4	0x3da272fb	0.07932087
5	0xbdcb9d74	-0.09942141
6	0x3c1a13c8	0.00940413
7	0x3e041f12	0.12902477
8	0xbcdf662d	-0.0272704
9	0x3d9284af	0.07154214
10	0x3db4cd9e	0.08828281
11	0xbe8a2e9b	-0.26988682
12	0xbe7220c1	-0.23645307
13	0xbb94c3c5	-0.004539939
14	0xbd8be657	-0.06831043
15	0x3e1513aa	0.14558282

_initial._model.0.weight f4 [16, 2]
0	0xb60ef6ea	-2.1303372e-06
1	0xbea47198	-0.32117915
2	0xb6191ba8	-2.2814875e-06
3	0x3fa7a459	1.309703
4	0x34aa3f32	3.1710948e-07
5	0xbf3cff83	-0.7382738
6	0x36a1dea7	4.824094e-06
7	0xbf0e1668	-0.5550294
8	0xb671594a	-3.5963772e-06
9	0xbea04559	-0.31302908
10	0x3624cb1e	2.4556134e-06
11	0xbf37eaf3	-0.7184288
12	0x3627b3d7	2.498962e-06
13	0x3f7eddf4	0.99557424
14	0xb5c37a22	-1.4564177e-06
15	0x3fb82a8d	1.4387985
16	0x3442a116	1.812626e-07
17	0xbf3d5bd1	-0.73968226
18	0xb63a3310	-2.7745882e-06
19	0x3f576d6d	0.84151345
20	0xb65e6315	-3.3138251e-06
21	0x3d22aa57	0.03971323
22	0x36a2e5b3	4.8547167e-06
23	0xbead3765	-0.33831325
24	0xb6a841e0	-5.014459e-06
25	0xbfb3e0fd	-1.4053036
26	0x3620aace	2.394128e-06
27	0x3efd1cb7	0.4943597
28	0x358a1462	1.0287733e-06
29	0x3f401e5f	0.7504634
30	0xb5be5138	-1.4179741e-06
31	0x3f39c0fe	0.7256011

_initial._model.0.bias f4 [16]
0	0xbf04d1c8	-0.518826
1	0xbd1216f1	-0.03566641
2	0x3d2e0b29	0.042491112
3	0x3f03633d	0.513233
4	0xbe8ce30e	-0.2751698
5	0xbd05d241	-0.032671217
6	0xbea0b89d	-0.3139085
7	0xbeff95d6	-0.49919003
8	0x3f380081	0.7187577
9	0x3e0cb3b9	0.13740434
10	0xbd50ca13	-0.050973963
11	0xbe1853cb	-0.14875714
12	0xbe7ea34d	-0.24866982
13	0xbeb565bc	-0.3542918
14	0x3d71e367	0.05905476
15	0x3eb81a26	0.3595745

_initial._model.2.weight f4 [16, 16]
0	0xbd832f9c	-0.06405565
1	0xbf112ff0	-0.5671377
2	0x3c1a3c15	0.009413739
3	0xbcc5ca55	-0.024144331
4	0xbe8518b2	-0.25995404
5	0xbe02330d	-0.12714787
6	0xbe5fe1ef	-0.2186353
7	0xbe8448e9	-0.25836876
8	0xbc0e7337	-0.008694462
9	0xbe9e07d1	-0.30865338
10	0xbd29260f	-0.04129606
11	0xbe2321d4	-0.15930873
12	0xbe52f99d	-0.20603032
13	0xbe260c9f	-0.16215752
14	0xbbe079df	-0.0068504657
15	0xbe8a179a	-0.26971132
16	0x3df21a73	0.11821451
17	0x3eebd83b	0.46063408
18	0x3ec57689	0.38566998
19	0x3e6c6027	0.23083554
20	0x3e23802e	0.15966865
21	0x3eb06db0	0.34458685
22	0x3e9ac2b8	0.30226684
23	0x3eab5b4d	0.33468094
24	0x3e2e6409	0.17030348
25	0x3ea0ea0e	0.3142857
26	0x3d2a4edb	0.04157911
27	0x3dd2b45f	0.10288309
28	0x3f05fba5	0.52337104
29	0xbdf43b29	-0.119253464
30	0x3e206c8f	0.15666412
31	0x3eb5a9c4	0.35481083
32	0xbe99638c	-0.2995876
33	0x3ef3295f	0.474925
34	0x3d879159	0.0661952
35	0x3dc7c888	0.09755045
36	0xbedaf6ec	-0.4276651
37	0x3d8b0fd6	0.0679013
38	0x3e161286	0.14655504
39	0x3e4d6238	0.20056999
40	0x3e47302d	0.19451971
41	0x3f08670e	0.5328225
42	0xbe5ce264	-0.21570736
43	0xbeb02d36	-0.34409493
44	0x3e97a0fa	0.29615003
45	0x3d39d341	0.045367483
46	0x3e2bd3b2	0.16779974
47	0x3f1e5adc	0.6185739
48	0x3d1b899b	0.037973028
49	0x3f2fd4c5	0.68684036
50	0x3e109013	0.1411746
51	0x3d7e705c	0.062118873
52	0xbd837f27	-0.06420737
53	0x3d728a8f	0.05921417
54	0x3ec8905e	0.39172643
55	0x3efd2e21	0.49449256
56	0x3e12f3ff	0.1435089
57	0x3e5653f7	0.20930468
58	0xbe1866b5	-0.1488293
59	0x3e23203c	0.15930265
60	0x3e975350	0.2955575
61	0x3cb44d0d	0.022009397
62	0x3ed2b523	0.4115382
63	0x3db26e10	0.08712399
64	0xbdab5db3	-0.08367481
65	0x3f07f5ea	0.5310961
66	0x3e24a88d	0.16079922
67	0x3df88f5b	0.12136718
68	0xbd4fc2e1	-0.05072296
69	0x3e9e80b3	0.30957565
70	0x3e235818	0.15951574
71	0x3f0f260a	0.5591742
72	0xbe43e8d9	-0.19131793
73	0x3ec8a9cb	0.39192042
74	0xbe1c8a2d	-0.15287085
75	0x3ddfbe7d	0.10925005
76	0x3f20ad2e	0.6276425
77	0x3db125fb	0.08649822
78	0x3c698b3e	0.014254389
79	0x3d390fc7	0.045181062
80	0x3d477a5b	0.04870067
81	0x3f18ef3c	0.5974004
82	0xbdbf1eaf	-0.09332024
83	0x3d5d7ddc	0.054075107
84	0x3e7bc3a0	0.24586344
85	0x3e412458	0.1886152
86	0x3eb0be32	0.34520108
87	0x3f089bfb	0.5336301
88	0x3d37bdd6	0.044858776
89	0x3ecad4aa	0.39615375
90	0x3e31fa1c	0.17380565
91	0xbdbf4d73	-0.09340944
92	0x3eac7cc6	0.33688945
93	0x3e61fd7b	0.22069351
94	0x3e4dc8d1	0.20096137
95	0xbb3c3d23	-0.0028722964
96	0x3e81cd52	0.2535196
97	0xbdd5151c	-0.10404417
98	0x3d92d69e	0.07169841
99	0xbd37aa88	-0.044840366
100	0x3ec022bb	0.37526497
101	0xbbddd499	-0.0067697284
102	0x3c44850e	0.011994613
103	0xbdbf951d	-0.09354613
104	0xbddc4e6f	-0.107571475
105	0xbf047ac0	-0.517498
106	0x3d1356d2	0.03597147
107	0x3ef4128b	0.47670397
108	0x3e0d24bc	0.13783544
109	0xbdb1ab45	-0.08675245
110	0xbe2f081f	-0.17092942
111	0xbe24d1d1	-0.16095664
112	0xbe38a736	-0.18032536
113	0xbecdd41d	-0.40200892
114	0x3da76f7d	0.081755616
115	0xbe7bb469	-0.2458054
116	0x3d886414	0.066597134
117	0xbdd07a9e	-0.10179637
118	0xbe7565e9	-0.23964657
119	0xbef54f09	-0.47911862
120	0xbdcafc7f	-0.09911441
121	0xbdb27ae7	-0.08714848
122	0x3da56338	0.08075565
123	0xbcb4fff8	-0.022094712
124	0xbf1eeb1f	-0.62077516
125	0x3c24707a	0.010036582
126	0xbd353cbc	-0.044247374
127	0xbe9c6b76	-0.30550736
128	0x3ea8e9f4	0.32990992
129	0x3e630fed	0.22174044
130	0xbdbc3df0	-0.09191501
131	0x3d91b51d	0.07114623
132	0x3e1956e5	0.14974554
133	0x3d57f0e9	0.052719984
134	0x3eca2fa5	0.39489475
135	0x3f127ba4	0.5721991
136	0xbe178e3d	-0.14800353
137	0x3ea035a2	0.3129092
138	0x3d1b827e	0.037966244
139	0x3e26f76c	0.16305321
140	0x3f224899	0.63392025
141	0x3e43c6ce	0.19118807
142	0xbd95a1fe	-0.07306288
143	0x3e94d316	0.29067296
144	0x3de08ae6	0.10963993
145	0xbe9cef93	-0.3065153
146	0xbe577cab	-0.21043651
147	0x3cafb1d5	0.021447102
148	0xbe1aa874	-0.15103322
149	0xbee0291e	-0.4378137
150	0xbe9c8bdc	-0.30575454
151	0xbeb3123e	-0.34974855
152	0xbe39f574	-0.18160039
153	0xbdc07fdd	-0.09399388
154	0x3e2bcc7d	0.16777225
155	0x3d717e1c	0.058958158
156	0xbf2508b7	-0.6446642
157	0xbe368e0c	-0.17827624
158	0xbe5886b1	-0.2114513
159	0xbcf22a1d	-0.029561097
160	0xbdc8750b	-0.09787949
161	0x3e5fe01a	0.21862832
162	0x3e1f7d41	0.15575124
163	0xbe3f16b1	-0.18661
164	0xbd846dd6	-0.06466262
165	0x3ec356d6	0.38152188
166	0x3eb76c8d	0.35825005
167	0x3ecc0590	0.39847994
168	0xbcf8f3f9	-0.030389773
169	0x3eaeb54d	0.34122697
170	0xbd548272	-0.051882215
171	0x3e816a41	0.25276378
172	0x3e731ffe	0.23742673
173	0x3e6acadd	0.22928949
174	0x3d967656	0.073467895
175	0x3c6d8b0b	0.014498482
176	0xbd90c8cd	-0.0706955
177	0x3ea98ae1	0.3311377
178	0x3e145c88	0.14488423
179	0x3d739718	0.059470266
180	0x3e48e03c	0.19616789
181	0x3ea5480a	0.32281524
182	0x3e8b35c3	0.27189454
183	0x3e330e36	0.1748589
184	0x3e29a78a	0.16567817
185	0x3e139ca6	0.14415225
186	0xbd183186	-0.037156604
187	0x3d15c87b	0.036568146
188	0x3f1b9c62	0.60785496
189	0xbdb1b7a8	-0.08677608
190	0x3e807a9c	0.25093544
191	0x3e1f496f	0.15555356
192	0xbc13b551	-0.009015397
193	0x3ec154a6	0.37759894
194	0x3ddf80e7	0.10913258
195	0xbe61ef02	-0.2206383
196	0x3dca6b42	0.09883739
197	0x3e928a37	0.28621075
198	0x3ec25334	0.37954104
199	0x3ed361d6	0.4128558
200	0x3e2a1941	0.16611196
201	0x3ea5e479	0.32400873
202	0xbd2c17fb	-0.042015057
203	0xbda751b0	-0.081698775
204	0x3f124444	0.57135415
205	0x3ecae296	0.39625996
206	0x3e9ed2ad	0.31020108
207	0x3e6bf2b4	0.23041803
208	0x3e2e1d32	0.17003325
209	0x3eebbd09	0.4604266
210	0x3ead1298	0.33803248
211	0x3e684375	0.22681983
212	0xbdafa53b	-0.08576437
213	0x3ed7f639	0.4218004
214	0x3ec83569	0.3910325
215	0x3e1572a0	0.14594507
216	0x3e026dec	0.12737244
217	0x3dcd5e1e	0.10027717
218	0xbd7de2b7	-0.06198379
219	0x3d361205	0.04445078
220	0x3f208bb1	0.6271315
221	0xbdba622e	-0.091007575
222	0x3e85192c	0.25995767
223	0x3e94c69a	0.2905777
224	0x3eb5e5c2	0.35526854
225	0xbeaf07ce	-0.34185642
226	0x3ebec473	0.37259254
227	0x3e751953	0.23935442
228	0x3e5f0cf0	0.21782279
229	0x3f082108	0.531754
230	0x3d9e8862	0.07740857
231	0xbdfd6c39	-0.123741575
232	0xbbeb370c	-0.007178193
233	0xbe3c3c48	-0.1838237
234	0xbda8a59a	-0.08234711
235	0x3efc3379	0.4925802
236	0x3eb20e64	0.34776604
237	0xbe0cf023	-0.1376348
238	0xbe53c274	-0.20679647
239	0xbec824a2	-0.3909045
240	0xbccc00e9	-0.024902778
241	0xbefe9c90	-0.49728823
242	0xbe4d562c	-0.20052403
243	0x3ddb21f9	0.10699839
244	0xbe77fc0e	-0.24217245
245	0xbe2e32b0	-0.17011523
246	0xbeb98959	-0.362376
247	0xbef22709	-0.47295406
248	0xbdf2e811	-0.118606694
249	0xbe68bd3d	-0.22728439
250	0xbd857126	-0.06515722
251	0xbe3fe3b9	-0.18739213
252	0xbef6c04f	-0.48193595
253	0xbe94cc55	-0.29062143
254	0xbdc138a2	-0.0943463
255	0xbe1926fa	-0.14956275

_initial._model.2.bias f4 [16]
0	0x3ebad99f	0.36494157
1	0x3dacf305	0.0844479
2	0x3e9fb5c3	0.3119336
3	0xbd3a2197	-0.04544219
4	0xbe7977bc	-0.24362081
5	0x3db04c18	0.08608264
6	0xbeb54f51	-0.35412076
7	0x3d61e1e3	0.055147063
8	0xbe8b6964	-0.27228844
9	0xbe4dd8e0	-0.20102262
10	0x3d9de721	0.077101
11	0x3e2a91c3	0.16657166
12	0xbdddb884	-0.10826209
13	0x3c9c5602	0.01908398
14	0xbe9a492b	-0.30133948
15	0x3e37140e	0.17878744
