hyperparameter_tuning/ray_results/SUD_learning_rate_tuning/MyTrainableClass_fa8800cd_3_batch_size=16,name=SUD_v2,patience=1000,steps=200,steps_per_print=5,swa_step_start=2500,t_size=7,train_2024-03-12_13-59-17/checkpoint_000000/checkpoint.pt (torch, 61346 bytes, 66 tensors)

_initial._model.0.weight f4 [16, 5]
00000000: c95a 54bf 82d6 06c0 50e0 b8bf 7144 91bf
00000010: 79c0 31c0 ff60 e0bf 7d66 5bc0 62f8 71c0
00000020: 1914 51c0 b221 2140 ad5d 3940 e8e9 20c0
00000030: 1649 5240 7626 63c0 5d58 ff3f 72f3 813f
00000040: cd3a 4b40 8030 14c0 9214 4b40 7a6f 653e
00000050: c761 2f40 124f 8bbf a107 59be e579 1cc0
00000060: 4325 af3f e541 2dc0 1c84 87bf 77ad 3ec0
00000070: 7c8d d3bf cdc6 f73d 0d09 4fc0 76fa 463f
00000080: 2558 27c0 e3bd b6bd cd3d 65bf 9064 5cbf
00000090: 1063 51bf 01a0 ca3f 09c3 1d3f 2dc0 0240
000000a0: 848a 0bbf c935 68c0 7f7e 5cc0 0fc3 6c40
000000b0: ac08 5cc0 17ed 2640 076b 223f 3559 cb3f
000000c0: 3b51 df3f 91e8 fdbe ac86 3b40 408e fa3d
000000d0: 4a3f f1bf b089 1fbf 3038 c0bf 8619 873f
000000e0: e7af 2cc0 24ec 61c0 b124 6440 44d0 433f
000000f0: 91af 863e 106e 9b3f 9815 1240 14c0 40be
00000100: deff 2340 9129 78c0 2d9c f4bf a40d 20bf
00000110: ed4e e63f 5282 18c0 c883 3c40 3c9d 4f40
00000120: 3f55 4240 b844 77c0 c3af 55c0 fdb9 83bf
00000130: 6fae f13e b8cd 4940 0a87 413f 5736 5a40
-0.8295103 -2.1068425 -1.4443455 -1.1349012 -2.7773726 -1.7529601 -3.4281304 -3.780785
-3.2668517 2.5176816 2.8963425 -2.5142765 3.2857108 -3.5492225 1.9948841 1.0152419
3.175464 -2.3154602 3.1731305 0.22405806 2.7403429 -1.0883505 -0.21194316 -2.4449399
1.3683246 -2.707147 -1.0587192 -2.9793375 -1.6527553 0.12098465 -3.2349274 0.77725923
-2.614755 -0.08922937 -0.89547426 -0.86090946 -0.8179178 1.5830079 0.61625725 2.0429795
-0.54508233 -3.6282828 -3.4452207 3.6994054 -3.4380293 2.6082208 0.6344456 1.5886599
1.7446665 -0.49591497 2.9300947 0.12234163 -1.8847439 -0.6231947 -1.5017147 1.0554664
-2.6982362 -3.5300379 3.5647395 0.76489663 0.26305822 1.2142963 2.282568 -0.18823272
2.562492 -3.877537 -1.9110161 -0.62520814 1.7992836 -2.3829541 2.9455433 3.2439718
3.036453 -3.8635693 -3.3388526 -1.0291134 0.47203395 3.153181 0.7559668 3.4095666

_initial._model.0.bias f4 [16]
00000000: b783 f63f f38c 5cc0 b071 c4bf 3cd0 473f
00000010: 1d93 d33e d4cf 60c0 a983 d0bf 2b09 1e40
00000020: 2b2f e83f 0ff2 47bf 714d 60c0 f92d 6440
00000030: afde 03c0 7d10 a53f 72ad 19bf 33ab 433e
1.9258946 -3.4461029 -1.5347195 0.78052115 0.41323176 -3.5126848 -1.629018 2.4693096
1.8139395 -0.7810373 -3.5047266 3.565306 -2.0604665 1.2895657 -0.6003028 0.19108276

_initial._model.2.weight f4 [16, 16]
00000000: 8dc7 5fbe c812 a0be 4d18 3d3d 6530 c3bf
00000010: 9989 fa3f 4b68 d2bf 2741 303f ff57 2f3e
00000020: 42ce 4dbf 385b df3f 4284 9bbe e8dc bfbf
00000030: 42c0 203f 7f66 2bbf 901a d23f c4bc 04c0
00000040: 33c5 933f 48e2 04bf 1e68 19c0 aff1 0640
00000050: d892 be3f 7761 1f3f 4fd7 633f 6eb7 ddbf
00000060: a400 1440 4fda 123a db82 efbe 6352 03c0
00000070: d969 b3bf 79c6 c8be aefb 69bf 57f5 953f
00000080: 12f4 32bd 5860 d93f d7ac 0d3f c559 74bf
00000090: b15f 6a3f e27d 1540 24e0 39bf 1de1 50bf
000000a0: 8ce0 68be c489 493f 9053 aebf fb35 54be
000000b0: d687 a6bf 3433 c23f 07b3 ffbe 93c8 be3f
000000c0: 9909 c5be 5ebe f8bf c27d 803f 0c5b 98bf
000000d0: 49f5 f2bf 78a8 1340 ab87 ecbe afa5 933e
000000e0: 985e c6bf bba1 02c0 a03e b53f ee2f 43bf
000000f0: 7b76 5c3f 0d0a 3f3f f4da 753f 5069 0fc0
00000100: 6bf2 20bf 6c6d 023f 6dba d5bf b05d f73f
00000110: ecd4 b23f e5cc 0dc0 6396 e23f e95b 4b3f
00000120: 32d0 ce3f 31b7 bb3f 38bf 933f 2557 5f3f
00000130: a9b9 b23f 33f7 46bf 8e5b a53f 20da e7bf
00000140: e816 2abf b7cf 0c3f c8d4 01c0 fac5 1b40
00000150: 312a 8bbf 9dc3 abbf 7891 d0bf 886b 09bf
00000160: bd5f b3bf e840 0140 bfd7 dd3e d63e e73f
00000170: fe84 bf3e 41e7 eebf e4ae 4e3f 2e09 4dbc
00000180: b720 abbd a752 04bf b3f9 733e 61df eb3e
00000190: 393c 4e3f 5029 bbbd b055 843f 49f4 143f
000001a0: ddce d63f c53f 23bd 5a3c 27bf 1afd 9cbf
000001b0: fbef f43f 42bf 8a3f 256a d03f 85d3 5a3f
000001c0: 9cc4 73bd f261 11c0 f679 acbf 5c51 b6be
000001d0: 1bc2 7f3f e3d8 07c0 86e4 14c0 c05c d53f
000001e0: d8d7 acbf ccd9 ae3e fba8 1a3f b3e1 913f
000001f0: 7fa3 1c3d 4efd 96bf 6171 cbbe 92bb 2abf
00000200: 1462 b23f 3802 273f 1c40 963e b1d7 be3f
00000210: 38eb 15c0 c8b4 20be 77f6 203f e017 ed3e
00000220: 8b38 a3bf bd58 e9bf 3f98 e8be 89fe 60be
00000230: 9451 d7bf 5d1b 9b3e e8d7 6c3f e389 133f
00000240: 9e3f 8b3f 32f8 0f3e 8bac 0740 8c6d 913f
00000250: 1210 6cbf 1688 0fc0 5a44 4cbe 75fd 333f
00000260: 5518 fa3f a566 15bf d53c ef3c 31b2 56bf
00000270: 87d7 3d3f 1889 2e3e 9b15 093f 289e bcbf
00000280: 22cc 923f 05f8 10c0 605f 9a3f 2a1b c2be
00000290: 5805 aebf 278e 7c3f 41f4 9fbf 0d00 f83f
000002a0: 70e7 fa3f 16f2 efbf f698 e2bf 901d 433f
000002b0: d978 c2bf 9a34 a6bf 8906 833f 654c f13f
000002c0: f4bc 153e 6597 bdbf 2e5e 723f 8470 a1bd
000002d0: 7cfe cfbf 5014 1140 b0a5 b1bf 3f92 10bf
000002e0: 5be4 013f 9939 84bf ae91 21bf cece 593f
000002f0: 46ee d8be 0788 683d 6bc6 963f 8400 8e3f
00000300: 2937 94bf 6f95 e0bf cfe4 ee3f fe61 8e3d
00000310: 4e82 bebf d7c6 f8bf 77c0 a7bf 82a0 03be
00000320: fbce bcbe 12a1 4dbf 0858 0140 01c6 1240
00000330: eef7 da3f 190d fabf 6568 b0bf c1f7 c63f
00000340: ee0d 51bf 4a3b ccbd 2add 47bf b500 f73f
00000350: f6fa 1040 b471 b03f 0d00 e83f bfb2 cdbf
00000360: feb5 ef3f 0bc9 ab3d b35c 08c0 cd72 d4bd
00000370: 90e8 ca3f 4f9a 3bbf 171f 05bf c6e4 27bf
00000380: d955 85bf 23a8 be3f 43ce 983f 25b6 b63c
00000390: b120 dd3f c9b3 2b3f afed 6fbf 69a8 d3bf
000003a0: a2e2 8d3e 0b99 42bf 78fb 1fbf 21cf a83f
000003b0: 6390 b03f 4431 e1be 67e4 22bf 9191 463f
000003c0: 9598 8f3e 14ac 353f e849 633f d72b b63f
000003d0: 32ce efbf 4fd7 993d 23ca 1d3f d2d3 d23e
000003e0: 4edd 3ebf c4b6 ebbf a7ae fb3f ad1b d5bf
000003f0: d420 a03f 38c6 0ec0 70b3 013f 3677 e13f
-0.21853466 -0.3126433 0.046165753 -1.5249144 1.9573241 -1.6438078 0.68849415 0.17123412
-0.8039285 1.7449713 -0.30374342 -1.498929 0.6279336 -0.6695327 1.6414356 -2.0740213
1.1544555 -0.5190778 -2.3969798 2.1085012 1.4888563 0.62258095 0.8900041 -1.7321603
2.312539 0.00056019885 -0.46779522 -2.0519035 -1.4016677 -0.39213923 -0.9139966 1.1715497
-0.043689795 1.6982527 0.5534186 -0.9544948 0.91552263 2.3358083 -0.72607636 -0.81593496
-0.22741908 0.7872584 -1.3619251 -0.20723717 -1.3010204 1.5171876 -0.49941275 1.490496
-0.38483885 -1.9433095 1.0038378 -1.1902785 -1.8981105 2.3071575 -0.46197256 0.28837344
-1.5497618 -2.0411212 1.4159737 -0.7624501 0.86118287 0.7462471 0.9603722 -2.2408028
-0.628699 0.50948215 -1.6697518 1.9325466 1.3971229 -2.2156308 1.7702144 0.7943712
1.6157286 1.466528 1.154273 0.87242347 1.3962909 -0.77720946 1.2918565 -1.8113441
-0.664412 0.5500445 -2.0286121 2.4339585 -1.0872251 -1.3419071 -1.6294394 -0.53679705
-1.4013592 2.0195866 0.43328664 1.8066051 0.37406152 -1.8664323 0.8073561 -0.012514396
-0.08355849 -0.5168862 0.23825721 0.46068862 0.8056064 -0.09138739 1.033865 0.5818525
1.678188 -0.039855737 -0.65326464 -1.226474 1.9135736 1.0839617 1.6282393 0.85479003
-0.059513673 -2.271603 -1.347472 -0.35608947 0.99905556 -2.1226127 -2.326448 1.666893
-1.350337 0.3415054 0.60414094 1.1397003 0.03824186 -1.1796052 -0.3973494 -0.6669246
1.3936181 0.6523776 0.29345787 1.4909574 -2.3424816 -0.15693963 0.62876076 0.46307278
-1.275163 -1.8230206 -0.45428655 -0.21972097 -1.6821771 0.30294314 0.92516947 0.57632273
1.087879 0.14059523 2.1199062 1.1361556 -0.9221202 -2.242681 -0.19947949 0.7030862
1.9538676 -0.5835975 0.029203812 -0.8386565 0.74156994 0.17044485 0.5354859 -1.4735765
1.1468546 -2.265138 1.2060356 -0.3791135 -1.3595381 0.9865441 -1.2496415 1.9375015
1.9601879 -1.8745754 -1.770293 0.76216984 -1.519313 -1.2984803 1.0236369 1.8851439
0.14622861 -1.4811827 0.94674957 -0.07882789 -1.6249537 2.2668648 -1.3878689 -0.56473154
0.5073907 -1.0330077 -0.63112915 0.85081184 -0.42369288 0.05677035 1.1779302 1.1093907
-1.1579334 -1.7545604 1.8663577 0.06952284 -1.4883516 -1.9435681 -1.3105611 -0.12854198
-0.36876664 -0.803239 2.020998 2.2933352 1.7106912 -1.9535247 -1.3781859 1.5544358
-0.8166188 -0.09972246 -0.78071845 1.9297091 2.2653174 1.37847 1.8125015 -1.6070174
1.8727415 0.08387955 -2.130658 -0.10373459 1.5852222 -0.7328233 -0.52000564 -0.65583456
-1.0416824 1.4895061 1.1937946 0.02230365 1.7275602 0.67071205 -0.9372205 -1.653577
0.2771197 -0.76014775 -0.62493086 1.3188211 1.3794063 -0.439829 -0.63629764 0.77565867
0.28046098 0.70965695 0.88784647 1.4232129 -1.8734801 0.0751177 0.6163656 0.4117723
-0.74556434 -1.8415151 1.9662675 -1.6649071 1.2510018 -2.2308483 0.50664425 1.7614505

_initial._model.2.bias f4 [16]
00000000: ae2f 073f c823 a5be 2d57 1b40 6b05 9cbf
00000010: 8501 1ac0 ce52 343e 42a9 92bf bbc0 67bf
00000020: 0249 e43f 740e 34bb f627 0cc0 e625 28bf
00000030: e0f1 aebf b25d 11c0 32e2 603f 6dc3 09c0
0.5280713 -0.3225386 2.4271958 -1.2189153 -2.4063427 0.17609712 -1.1457903 -0.9052846
1.783478 -0.0027474435 -2.189939 -0.6568283 -1.3667564 -2.2713437 0.87845147 -2.1525528

_func._drift._model.0.weight f4 [16, 17]
00000000: 3415 343a 3162 b3bb 78b9 a13b 5fc4 a9b9
00000010: 6e7f ee3a 101b 923a 2dc7 37bb 8a1b e139
00000020: 6f36 e93a 521c aebb 25b9 93bb 3f9c 8fbb
00000030: b769 96b9 6cb0 3abb 735d b1bb 65fc ab3b
00000040: 9ff6 973b 1775 05bb 6545 86bb 589b 323b
00000050: 5929 81ba 3da6 51bb e420 adbb d3d1 4238
00000060: bafc 3fbb 8bc6 c43a 922c c13a 23bb 35ba
00000070: 2cff be3b af7b 93ba 75e2 b93b 782f e23a
00000080: b76a e13a 63e4 9c3b 6c71 feba 7eb5 b13b
00000090: 0c24 2a3b 0da3 d6ba faac 2f3b 8760 b8bb
000000a0: 5504 3f3a 1a62 a7ba 655e 9cba 00d1 98bb
000000b0: af8b 3e3b 2db1 053b 084b 1fbb 01db 963b
000000c0: 077c 91ba 198e 13b9 d485 65bb 713e f33a
000000d0: e342 0a3b 2a5b 863a 6afd c239 788e babb
000000e0: 3e29 a13b 4791 72b9 044e 623b 87fb 6a3b
000000f0: 3dba a6bb 3f89 7e3b a80b 82bb 36dc f13a
00000100: 2a5d a53b 1fc5 a43b 5fee ed3a e12b aabb
00000110: 443d 4c3b 5975 66bb e9ec 193b fd97 b3bb
00000120: 3e26 1fbb feec 91bb 760c 94ba 52cb 02bb
00000130: 9b55 b9bb 3c74 bbbb 141c 4d3a dd87 503a
00000140: b0b2 16bb c1b0 4abb fa54 92bb d25c 69bb
00000150: 7c0f 13bb 5001 1ebb 2770 723b 7150 c63a
00000160: 9d83 9d3b d171 9ebb 2e5a 073b e12a af3a
00000170: 90d0 9abb 87b7 4c3b ad52 24bb 32d8 17bb
00000180: 87da 053b e3b6 b23a 1b2d a539 0bb9 ab3b
00000190: ca93 daba 4c1e 6abb bb0d bfbb 7b33 a33a
000001a0: 7152 94bb 7276 9b3b deb1 e23a e437 b5ba
000001b0: 8dad 743b 2b19 a73b e877 8c3b 795e 13bb
000001c0: 8bf1 083a 2a4d 4bbb b3f4 6d3b e3a5 b43b
000001d0: dea0 30b9 29be 7c3b ed3a 013b 2480 3b3b
000001e0: e8b0 8ebb c71a 84bb cc50 a3bb 5139 b73b
000001f0: d85a 1c3b fc3f 8d3b 9c1d 843b cb53 9a3b
00000200: d3f3 b9ba 564b babb f1eb 393a fd23 1dbb
00000210: 8cd0 203b 269a 243b b724 143a 2781 b7bb
00000220: f571 ce3a 912c 52bb 3623 30bb f4c6 923b
00000230: 3f66 45bb edfb f23a 83dc dbba 16fb 7639
00000240: b86a 32bb b980 0abb 5c11 a33b 017f 513b
00000250: a79e a2bb 55bc aa3b d221 66bb c3c0 76bb
00000260: 83fa a9bb dcd0 afb9 96f5 2ebb 48da babb
00000270: 56ee 223b c764 bbba 8e62 133b dae5 91bb
00000280: ec34 73bb 86ac 5bbb 8d9e c8b9 1e9d a8bb
00000290: 56a7 873a 797f 4db8 cbf3 9b3b ac74 afb9
000002a0: 8fea a53b b7ce 433b f91e 9836 8004 7db9
000002b0: ab7d e239 0b26 033a 3145 bbba 569c 66bb
000002c0: 5193 39ba 000d 47bb 92c6 b7ba 2763 9bbb
000002d0: 3363 983b f0cb 323b 547a dcba 61a3 feba
000002e0: 1777 b63b 99ad b1bb 9b08 b8bb a48d 97ba
000002f0: 66b2 c93a 2aec 91bb 6567 703b 05ba d3ba
00000300: 5e41 903b 5a3b 7d3b f8ff 85bb e579 523b
00000310: 9f24 403b 000d 6cba ab13 863b 9f75 9ebb
00000320: b215 a93a 3920 b6ba 38d0 afb8 1421 11bb
00000330: f924 23bb b5a0 7e3b d4c7 5e3b 95d4 863b
00000340: 4706 94bb eee8 3a3a 2f81 c439 37e6 89bb
00000350: 8520 713b 03db f2ba 569e 48bb 6143 83b9
00000360: 8e16 323b 537e e03a e727 993b 7089 0f3a
00000370: 9443 a0bb f61f 09bb d545 5dba c443 aa3b
00000380: e9b4 2a3b 0f14 d13a a1ca 9bbb f20c 2abb
00000390: 115c 193b 5ff1 4ebb 845b 08bb e16c b63b
000003a0: c3b2 9f3a 9737 243b 7b43 733b 7063 b5bb
000003b0: 27f4 d53a 93aa 8ebb 1ff7 ebba 676a 373b
000003c0: 13c3 b6bb f07f 863b 006a eb3a 97b4 643b
000003d0: 974c 2d3b 1817 223b f265 1db9 721d b23b
000003e0: c3a2 4cbb 7a94 26ba 214b a2ba d8e3 d03a
000003f0: 0147 3e3b 6675 673b 1763 343b ee3e 82bb
0.00068696146 -0.005474352 0.0049354397 -0.000323805 0.0018195936 0.0011146981 -0.0028042302 0.00042935862
0.0017792712 -0.0053134346 -0.004508155 -0.0043826397 -0.00028688993 -0.0028486503 -0.0054127513 0.0052485936
0.004637554 -0.002036398 -0.004097628 0.0027253237 -0.0009854242 -0.0031989955 -0.005283462 4.644862e-05
-0.0029294924 0.0015012784 0.0014738014 -0.00069324876 0.0058287587 -0.001125207 0.0056727477 0.0017256578
0.0017197941 0.004787968 -0.0019412464 0.005423247 0.0025961427 -0.0016375497 0.0026805983 -0.0056267413
0.00072867173 -0.0012770325 -0.0011929987 -0.0046635866 0.0029074957 0.0020399794 -0.0024306197 0.004603744
-0.0011099585 -0.00014071948 -0.0035022395 0.0018558038 0.0021096996 0.0010250558 0.00037191372 -0.005693253
0.0049182465 -0.00023133038 0.0034531364 0.0035855488 -0.0050881193 0.003883913 -0.0039686747 0.0018452469
0.0050465064 0.0050283815 0.0018152705 -0.005193219 0.0031164447 -0.003516516 0.0023487157 -0.005480765
-0.0024284269 -0.0044533005 -0.0011295218 -0.0019957614 -0.005655957 -0.0057206433 0.00078243134 0.00079548155
-0.002299469 -0.0030928107 -0.0044656964 -0.0035608304 -0.002243965 -0.002410967 0.0036993118 0.0015130175
0.0048069493 -0.0048353453 0.0020653117 0.0013364219 -0.0047245696 0.003123732 -0.0025073693 -0.0023169634
0.0020424442 0.0013634827 0.0003150486 0.0052405647 -0.0016676125 -0.0035723625 -0.005830494 0.0012451255
-0.0045264293 0.0047443444 0.001729544 -0.0013825861 0.003733489 0.005099436 0.004286755 -0.002248673
0.0005223981 -0.0031021335 0.0036309182 0.0055129393 -0.00016844596 0.0038565493 0.001971896 0.0028610313
-0.004354585 -0.0040315124 -0.004983997 0.0055915494 0.0023857858 0.004310606 0.00403185 0.004709696
-0.0014187045 -0.0056852503 0.0007092348 -0.002397775 0.0024538366 0.0025116294 0.0005651223 -0.005600113
0.0015750515 -0.003207002 -0.0026876456 0.0044792835 -0.0030120758 0.0018538214 -0.0016774092 0.00023553925
-0.0027224254 -0.0021133854 0.0049764346 0.003196657 -0.0049627605 0.005210439 -0.0035115373 -0.0037651516
-0.005187334 -0.00033534213 -0.0026696674 -0.0057022907 0.0024861298 -0.0014297002 0.0022489163 -0.0044524493
-0.0037110401 -0.003351958 -0.00038265102 -0.005145683 0.0010349553 -4.8994527e-05 0.004759287 -0.00033465528
0.005063362 0.002987785 4.5335587e-06 -0.00024129637 0.0004319971 0.0005002922 -0.0014287588 -0.0035188398
-0.0007079142 -0.003037274 -0.001402097 -0.0047420445 0.0046504973 0.00272822 -0.0016821125 -0.0019427353
0.005568396 -0.005422306 -0.00561626 -0.0011562598 0.001538825 -0.004453202 0.0036682722 -0.0016153461
0.0044023236 0.0038640113 -0.0040893517 0.0032116112 0.0029318703 -0.00090046227 0.0040917 -0.004835799
0.0012900142 -0.0013895101 -8.383434e-05 -0.002214496 -0.0024893864 0.0038853113 0.0033993619 0.004114697
-0.00451735 0.0007130046 0.00037480282 -0.004208352 0.0036793065 -0.0018528405 -0.0030611954 -0.00025036468
0.0027174088 0.0017127491 0.004673946 0.0005475497 -0.0048908684 -0.0020923591 -0.0008440887 0.0051960666
0.0026047772 0.0015951412 -0.00475438 -0.0025947657 0.0023400823 -0.0031576974 -0.00208065 0.0055671786
0.0012184012 0.0025057548 0.003711908 -0.0055355355 0.0016323373 -0.00435383 -0.0018002725 0.0027987005
-0.005577454 0.004104607 0.0017960668 0.003489768 0.0026443356 0.0024733003 -0.00015010664 0.005435639
-0.0031224943 -0.0006354522 -0.0012382009 0.0015937043 0.002903402 0.0035317778 0.0027524882 -0.003974787

_func._drift._model.0.bias f4 [16]
00000000: 2f10 b73b 65d6 c6b9 d64f 193b 27fd 0e3b
00000010: 621e c9b7 6be6 15bb 93c2 813b 6f3e aebb
00000020: 8182 acbb 5f4e a9bb f4bf 0bbb c3bc ac3a
00000030: e21c adb9 c3aa f938 40aa 983b b7ab 99bb
0.005586646 -0.0003792524 0.0023393533 0.002181837 -2.3975215e-05 -0.0022872936 0.0039599626 -0.0053175013
-0.0052645807 -0.0051668133 -0.002132413 0.0013178814 -0.0003301865 0.00011905052 0.0046589673 -0.0046896595

_func._drift._model.2.weight f4 [16, 16]
00000000: 457a 24bb 9877 123b bdd3 b1bb 1a78 c3bb
00000010: 3a07 7abb 9653 bbbb 71ef 06bb 3db1 b3bb
00000020: 89a2 35ba bb72 503b 0af3 a1bb 30b9 bcbb
00000030: be68 633b 5117 01bb bd49 203b 6021 303b
00000040: c5c9 aaba 3812 d2b9 20b0 a4b8 d87d 9bbb
00000050: e91b b33b 0d7d 9cb9 62c5 0b3b 83c3 7a3a
00000060: 0dec a33b 8b15 9dbb 207e 81bb a358 15b9
00000070: e51d 1abb 17e6 063b 8550 b03b ceff abb9
00000080: 438b a9bb 0cc7 a33b 5446 c4ba 7bfc fc3a
00000090: eb1f 00bb 14e4 af3b 3916 61bb f268 453a
000000a0: ed76 313b 931e a2bb 5bc1 dd3a f0d0 63bb
000000b0: d098 ad3b 1b7e a03b 8e2a f83a 4a90 40bb
000000c0: 5376 6539 3c21 a83b 920c 773b 2902 3abb
000000d0: e5c3 54bb 9c7f c4ba 15b8 deba 21dd 3ebb
000000e0: aee0 c0bb bbe5 6338 96b2 ac3a ae6c 8bbb
000000f0: 41b4 493b 2671 2bbb 705a 703b 522b 2fbb
00000100: 16d7 b23b a2cf 63bb 2f8f a63a bd48 dd3a
00000110: 6842 903b 1556 423b c78f 9bbb 04eb 86ba
00000120: 09f2 9cb9 04ef 523b 33ed 57bb bee2 4d3b
00000130: 0419 7dbb b792 1a3b 9109 8cbb ca07 bb3a
00000140: 41db d1b7 ba1b 923b 61f2 35bb 2640 cb3a
00000150: bf6b 8abb 906e 3abb 75d5 553b 967d ac3a
00000160: 6379 9a3b 85ab 303b 3da9 713b 357a 46bb
00000170: 3b7c 163a d533 b2bb 2f47 e63a 2244 8cba
00000180: f524 103b 75a1 07bb dd5e d8ba fe76 693b
00000190: bc16 663b aa95 ac3b 9cc2 babb 78d0 07bb
000001a0: 639e a9bb 1d12 9b3a 5bd4 aa3b d13a eaba
000001b0: ba7c 1eba eeb8 e2ba 3dae 06bb b98f d83a
000001c0: 250d 843b 331e 7fbb b6dd 9d3b e470 933b
000001d0: 59e5 79b9 4994 87bb 5369 99bb 63e3 87ba
000001e0: cdee 8bb9 b979 97bb a74f b8bb 6c3d f03a
000001f0: 7d1d fb39 f30e 883b 6790 973a 31a2 173b
00000200: e808 263a 55b3 233b 0c3d 30bb d4ef f537
00000210: eaeb 503b 4877 003b 4bb3 373b f2c8 aabb
00000220: 4468 29b8 c2dc 4abb 9999 b9ba 02f4 2f3b
00000230: df13 9eba a938 3abb 37a2 05b9 2351 76bb
00000240: 11fd 23bb a98d 30bb ab68 b23b 3f0e 34bb
00000250: ab31 56bb 3a19 c9ba 3f3c 8d3b a4f0 0538
00000260: e09a 68ba 0188 5a3b 93ed 7b3b 1fee b53b
00000270: e8e8 85bb 37d0 4b3b 2937 81bb 5554 3cbb
00000280: 1661 a23b 79bc 093b 76a2 32bb 2184 c4ba
00000290: 4ed5 653b 9cd9 8a3a cf54 a8ba 6603 cbba
000002a0: 0336 e5ba 6496 73ba 3f5f 963b 946c 8abb
000002b0: 7394 7c3b 6d9b 7b3a a000 c33b 5ce5 013b
000002c0: 9581 c4bb fd78 0abb fd69 84ba 113b 093b
000002d0: c80a b5bb ecd8 063b a699 a2ba 0fec 5dbb
000002e0: 9b89 8bbb 5d74 72bb 3f50 aebb 894c e4b9
000002f0: f1d1 1b3b bef0 5bbb 5c44 61bb b3d2 6e39
00000300: 2fd0 9fbb 4f4f 8abb b840 d1ba b046 823b
00000310: 39ec 483b 087b 923a ed1f 02bb 6c18 a7bb
00000320: bfd7 673b 90e4 6639 f4e5 263b 52bc 5ab9
00000330: 7b89 533b 4c20 3bb8 294d 4a3b db15 80ba
00000340: 30b1 00bb edbf 9a3a 4179 c1bb 28bf 93bb
00000350: 97ed 1c3a bc04 bc3b cb5b d9ba 3462 f8ba
00000360: eb7f 653b 2cbf a63b b463 6dbb 2806 b03b
00000370: f93d feba 6be0 543b c6b6 e73a 5573 533a
00000380: 031b 9e3b 6f43 93ba 939a c3b9 10b6 763b
00000390: 939e 17bb 720b c53a a2e1 653b ca0f 8f39
000003a0: 53f5 bc3b 7f0e ca39 4c0a 293b 2aa9 5d3b
000003b0: 51a6 a23b 8150 37bb de58 1fb9 a7be 1dbb
000003c0: 89e1 30bb 1a21 22bb ecfe 453a 43eb 88bb
000003d0: 6d06 1ebb 3b54 9b3b 0756 003b 26b1 c43b
000003e0: 978a 6bba f00c 6fb9 2db7 49bb 4dfd 6f3a
000003f0: 0f0a bc3a e46b 923b ba2a 94bb 4abd f3ba
-0.0025097292 0.0022349115 -0.0054268525 -0.005965245 -0.003815128 -0.0057167513 -0.0020589496 -0.005483775
-0.00069288217 0.0031806666 -0.0049423026 -0.0057593808 0.0034699882 -0.0019697736 0.0024458014 0.0026875362
-0.0013030103 -0.00040067895 -7.852935e-05 -0.0047452264 0.0054659736 -0.0002984781 0.0021327366 0.00095658767
0.0050025047 -0.004793828 -0.003951803 -0.00014242767 -0.0023516354 0.0020583922 0.0053806924 -0.0003280625
-0.005174072 0.0049980935 -0.0014974573 0.0019301319 -0.0019550275 0.005367765 -0.003434552 0.00075305917
0.0027078942 -0.0049474924 0.0016918586 -0.0034761988 0.0052977577 0.0048978454 0.0018933581 -0.0029382878
0.00021883221 0.005130915 0.0037696701 -0.0028382635 -0.0032465395 -0.0014991644 -0.0016992117 -0.0029123502
-0.005886159 5.433497e-05 0.0013175781 -0.004254899 0.0030777606 -0.002615997 0.0036674999 -0.0026728702
0.005457769 -0.003476121 0.0012707467 0.001688264 0.0044024475 0.002965336 -0.004747364 -0.0010293429
-0.0002993497 0.0032185921 -0.0032947778 0.0031415666 -0.0038619647 0.0023585984 -0.0042736013 0.0014269289
-2.501684e-05 0.0044588717 -0.0027762877 0.0015506789 -0.00422427 -0.0028447248 0.003262845 0.0013159986
0.0047141775 0.0026957702 0.0036874556 -0.0030285243 0.00057405577 -0.0054383078 0.0017568822 -0.0010701458
0.0021994684 -0.00206956 -0.0016507764 0.0035623903 0.0035108766 0.005266865 -0.005699469 -0.0020723622
-0.005176352 0.001183096 0.005213303 -0.0017870312 -0.00060458074 -0.0017297545 -0.0020550631 0.0016522325
0.0040298873 -0.0038927912 0.00481769 0.0044995416 -0.00023831929 -0.00413755 -0.004681745 -0.0010367449
-0.00026690066 -0.004622665 -0.0056247297 0.0018328852 0.0004789642 0.0041521727 0.0011563421 0.0023137445
0.00063337246 0.0024978716 -0.0026891856 2.9317955e-05 0.0031878897 0.0019602347 0.002803045 -0.005211943
-4.0389845e-05 -0.0030954336 -0.0014160156 0.002684832 -0.0012060365 -0.002841512 -0.00012744298 -0.0037584982
-0.0025022666 -0.0026939905 0.0054446063 -0.0027474312 -0.0032683413 -0.0015342601 0.0043101604 3.1933785e-05
-0.0008873176 0.0033345225 0.0038441166 0.005552068 -0.0040866025 0.0031099448 -0.003943343 -0.002873679
0.004955421 0.002101688 -0.0027257479 -0.0014992991 0.0035069766 0.0010593417 -0.0012842658 -0.0015488684
-0.001748741 -0.00092921243 0.004588991 -0.0042243693 0.003854063 0.00095980504 0.0059510022 0.0019820547
-0.0059968927 -0.0021129244 -0.0010102388 0.0020939747 -0.005524967 0.0020576073 -0.001240541 -0.0033862626
-0.004258347 -0.0036995627 -0.0053196247 -0.00043544572 0.0023776258 -0.0033560242 -0.003437302 0.0002277594
-0.0048771123 -0.00422088 -0.0015964722 0.0039757118 0.0030658378 0.0011175582 -0.0019855455 -0.005099347
0.0035376397 0.00022019655 0.0025466653 -0.00020860255 0.003227799 -4.4614353e-05 0.0030868745 -0.0009772138
-0.0019636862 0.0011806466 -0.005904347 -0.0045088716 0.00059863314 0.005737869 -0.0016583143 -0.0018950165
0.0035018872 0.0050887074 -0.0036222758 0.0053718276 -0.0019397131 0.0032482396 0.0017678372 0.0008066197
0.0048249974 -0.0011235307 -0.00037308465 0.0037645139 -0.002313529 0.0015033318 0.0035077115 0.0002728685
0.0057665496 0.00038539243 0.002579349 0.0033822753 0.004963674 -0.0027971568 -0.00015196527 -0.0024069936
-0.0026989898 -0.0024738968 0.000755294 -0.004178436 -0.0024112717 0.0047402657 0.0019582526 0.006002563
-0.000898519 -0.00022797636 -0.0030779347 0.0009154871 0.0014346259 0.004468428 -0.004521695 -0.0018595841

_func._drift._model.2.bias f4 [16]
00000000: e996 a73b 2aec 82bb 2dc4 253b 12f5 8ebb
00000010: d11b 32bb e09a b9bb 8357 60bb 4346 3fbb
00000020: 90e5 a03b cb8f 7cbb abb7 883b be3a 2c3a
00000030: fe57 2e3b e8f1 843b 05d6 923b b35c 98bb
0.0051144254 -0.003995438 0.0025293932 -0.0043627108 -0.0027177224 -0.0056642145 -0.0034231849 -0.0029186166
0.0049101785 -0.0038537856 0.0041722856 0.00065700326 0.002660274 0.004057158 0.0044810795 -0.0046497225

_func._diffusion._model.0.weight f4 [16, 17]
00000000: 8c4b a33d 9651 7bbd 5c97 26bd 0827 973d
00000010: 09e0 e5bd 6cbc 3abd 0870 5b3d d3ef 753c
00000020: 3f23 adbc 04ba a93d 20a1 8a3d a0bc 7b3d
00000030: e81b da3c e740 c73c 1fdb 00bd 4790 df3c
00000040: 5ba2 83bd e4b9 4dbd 9da3 393c cb25 6bbd
00000050: ed58 acbc d5d3 45bc edb6 2f3d aa9c b73c
00000060: 2d9a 413d a159 f33c d6b2 84bc c13e 623c
00000070: b241 30ba c0f6 343d d168 273d 94b7 643b
00000080: f4b4 8dbc 5777 9cbd 63ab 613c 287d 0e3d
00000090: 9463 1f3d a5b6 573d d5a7 13bd 8ff6 5e3d
000000a0: 7990 5cbd 9dd3 07bb b866 0b3d 9c36 093d
000000b0: bcc0 593d 12cc 843d c6b5 55bd 3f2f f9ba
000000c0: 5c2b 2a3d 8bcd 963c 4062 bf3b 305e e93c
000000d0: 6498 583c c6b4 2bbc 0006 afbc d142 f4bd
000000e0: bb57 cf3c 0f06 81bc 8660 d83c e9ac a8bd
000000f0: 1ef1 953d d9a8 923c 3fec 2f3d 1e39 0e3d
00000100: 07b4 f7bc 8170 9fbd 6636 15bd e431 49bd
00000110: 32d9 adbd 5a43 613c 3bae da3c 35f5 92bd
00000120: 4622 863d 5b6a 8cbd a166 493b 6e13 c9bd
00000130: 029b ff3c d7b9 e3bd 314a 39bd 1c5e d3bc
00000140: 9877 b1bd b9e0 11bd 38fe aa3b fbde 33bd
00000150: 32cc 3e3c e691 b13d b9d9 a9bd 8bb2 ab3c
00000160: ab9e 9dbc 3329 cfbd 0ce6 5ebd 83bf f3bc
00000170: ead0 043b 19eb 9dbd 813d 863d 382d bcbc
00000180: ea08 913d 59ef 48bd 43e1 36bd e1f9 063d
00000190: 1a33 443d a8da 0a3b 615d eebd e19f 97bc
000001a0: 2644 c6bc f2e0 56bd 31d8 1a3b 5a69 87bd
000001b0: f802 073c e235 97bc f80e 643d bc7a a8bd
000001c0: e97b 6dbd c8e5 55bd a9dc 7abd 7f25 19bd
000001d0: a02f 313d 6bbf b8bd e869 2a3d 775b 0bbd
000001e0: 935c 1abb 33df 97bc 8c4a acbd aabc c3bb
000001f0: cbcb 92bc 6bad 13bd 5b54 83bd 0ee3 853b
00000200: 96dc 93bd 2d99 54bd 7d02 a3bd 7672 febc
00000210: 318c d13b 367a dbbc e896 86bd c56d ed3c
00000220: b2c7 163d e8d0 93bd 6423 babb 518b 003d
00000230: 3339 c3bd 6174 74bc dcb2 193d 392b 723d
00000240: 8fb0 e4ba cb8f ddbb 0214 d03b 6f4a 4e3d
00000250: 0fd5 39bd d46d f93c 8ed1 68bd 31f8 a03c
00000260: 0d92 50bd c8b0 14bd 178f 3d3d 7f17 9f3b
00000270: 25e7 e0bd 176a af3b 4812 11bd 3d1d 09bd
00000280: 0e4d 82bd a9ce 2d3d a468 3ebd b4d5 b8bd
00000290: ecba 26bd 2042 43bc 2df5 57bb 168b b4b9
000002a0: c961 9fbd 6d7a 353d 36a4 c9bd 9c8e 35bd
000002b0: 733f 31bd 15ee babc 7681 433d b6da 9e3c
000002c0: 73a7 8fbd d52d 30bd f548 763d 7907 01be
000002d0: ea87 88bd 3838 efbc 635d 3bbd 9e57 f83b
000002e0: ff88 0ebd 62ab 40bd 9855 b83c 9353 f83b
000002f0: 2e22 d03c c663 47bb 42de 113d 30dd 0bbc
00000300: a418 5ebc 7544 a6bb 0be4 5c3d aaa1 aabd
00000310: fca9 0e3c ad08 e6bc c9cc 7b3d 71af 073d
00000320: 5d6b b1bd b584 9fbc 7b6e 6e3d 4c4d 80bd
00000330: e570 81bd ff07 843b 0a73 e13b 2eb3 babd
00000340: 7e2d 253d 18e2 413b acf0 82bd eca1 a5bd
00000350: 6f76 823c e7e6 3abd 54af a0bd 940a 61bd
00000360: d196 28bd ccab da3c 7e05 7bbc 9a12 3bbd
00000370: 5981 723d 7c7f 833d 9424 553c 6e17 1bbb
00000380: 6207 853d c395 8bbd 80ed 19bd 93bb 67bc
00000390: f611 043d c468 61bd 51fb 9e3d 5f6a 893d
000003a0: bfa8 5c3d 46d2 bb3c 5501 903c 0b94 6dbc
000003b0: ca24 72bc ea61 45bc c4fe 123c ea6d 273b
000003c0: 947b d03c 8795 103c 638c 91bc 59ab 233c
000003d0: 811d a6bb 212e 143d d3f1 9bbd d2cd 7a3c
000003e0: 1469 e13c 854e 043d e0c9 8cbb f275 b7bd
000003f0: ead9 00bd e145 223d 9d5c cfbc 882f 67bb
0.07973394 -0.061357103 -0.04067169 0.073804915 -0.11224372 -0.04558985 0.05357364 0.015010792
-0.02113497 0.08287433 0.067690134 0.061459184 0.026624635 0.02432294 -0.03145897 0.027290476
-0.06427451 -0.050226107 0.011330512 -0.05740909 -0.021038497 -0.0120744305 0.04289906 0.02241357
0.047266174 0.029705824 -0.016198557 0.013808907 -0.00067236566 0.04418063 0.040871445 0.003489946
-0.0172982 -0.0763995 0.013773772 0.034787327 0.038913324 0.052664418 -0.03604873 0.054434355
-0.053848717 -0.0020725497 0.034033507 0.033499345 0.05316232 0.06484236 -0.052175306 -0.0019011273
0.041545257 0.018408557 0.0058405697 0.028487295 0.0132199265 -0.010480111 -0.021365166 -0.11926807
0.025310388 -0.01574996 0.026413213 -0.08236105 0.0732138 0.017902778 0.04294991 0.03472244
-0.03023721 -0.0778513 -0.03642883 -0.049119845 -0.08488692 0.013748968 0.026694408 -0.07175676
0.06549506 -0.06856223 0.0030731338 -0.09818159 0.031201843 -0.111194305 -0.04523677 -0.02580171
-0.08665389 -0.035614703 0.0052182935 -0.043913823 0.011645364 0.08670406 -0.082934804 0.02095916
-0.019240698 -0.1011528 -0.05441861 -0.029754406 0.0020266124 -0.07710857 0.065547 -0.02297078
0.07081778 -0.049056385 -0.04464842 0.032953147 0.047900297 0.0021187458 -0.11638904 -0.018508853
-0.024202418 -0.05246062 0.0023627395 -0.06611891 0.008240454 -0.01845831 0.055678338 -0.08226535
-0.057979498 -0.05222109 -0.061245594 -0.037389275 0.04325831 -0.09020885 0.041604906 -0.034022775
-0.0023553714 -0.018539047 -0.08412656 -0.0059734182 -0.017919442 -0.036054056 -0.06412574 0.004085905
-0.07219808 -0.051903892 -0.07959459 -0.031060439 0.006394886 -0.026791673 -0.06571752 0.028983006
0.036811538 -0.0721758 -0.0056804884 0.031382862 -0.09532394 -0.014920325 0.03752409 0.05912325
-0.0017447638 -0.006761526 0.0063500414 0.050363954 -0.045369204 0.030447878 -0.056840472 0.019649597
-0.050920535 -0.036301404 0.04627904 0.004855096 -0.10981587 0.005353223 -0.035417825 -0.03347515
-0.06362353 0.042433415 -0.04648651 -0.09025136 -0.040705606 -0.011917621 -0.0032952533 -0.00034435902
-0.07782323 0.044306207 -0.09845774 -0.044325456 -0.0432734 -0.022818604 0.047730885 0.019391399
-0.0701436 -0.04301246 0.06012817 -0.12600507 -0.066665486 -0.029201612 -0.045743357 0.007578804
-0.03479862 -0.047038443 0.022501752 0.007578322 0.025406923 -0.003042446 0.035612352 -0.008536622
-0.0135556795 -0.0050740787 0.053928416 -0.08331616 0.00870752 -0.028080309 0.061474595 0.0331263
-0.08663056 -0.01947246 0.05821083 -0.06264743 -0.06320361 0.0040292735 0.006880169 -0.09116207
0.040326588 0.0029584225 -0.06393561 -0.08087525 0.015925614 -0.045630362 -0.07845941 -0.05494173
-0.041159455 0.026693247 -0.015321134 -0.045672037 0.059205387 0.064208 0.013009209 -0.0023665088
0.06495549 -0.06815674 -0.037580013 -0.014143842 0.03224369 -0.055031553 0.077627786 0.06709742
0.053871866 0.022927415 0.01757876 -0.014500628 -0.014779279 -0.01204727 0.008971874 0.0025547692
0.025449552 0.008824713 -0.017767137 0.009989583 -0.005069435 0.036176804 -0.07614484 0.01530786
0.027515925 0.032301445 -0.0042965263 -0.08958043 -0.03145782 0.039617423 -0.025312716 -0.0035276134

_func._diffusion._model.0.bias f4 [16]
00000000: 83f1 db3d 5b25 6b3c ae23 773c d27d c73d
00000010: bff1 36bc 922a 703c 5e2a 6ebd 2ddf ccbd
00000020: 4bcd 6f3d 5d00 e0bc 92eb 9ebc 82e2 4c3d
00000030: 6674 a9bd 047d bd3d 16d8 9e3d a7b4 0b3c
0.10739424 0.014352168 0.01508419 0.09740795 -0.011166035 0.014658587 -0.058145873 -0.10003505
0.058545392 -0.027343923 -0.019399438 0.050020702 -0.08274154 0.092523605 0.07756059 0.008526958

_func._diffusion._model.2.weight f4 [48, 16]
00000000: 7d6c 943d b588 573d 4674 03bc 2660 3d3d
00000010: c956 c7bd 0e0e 263d 8938 8a3b e18c bfbb
00000020: 001d 193d aacd afbd 3dca 323c e182 7b3d
00000030: aa92 66bd cc34 cfbc 215c 95bc b240 913d
00000040: 6d33 103d 8e24 22bd 5924 e3bc d12a 2a3c
00000050: 6a1f 93bd b476 4e3d d30a 0cbd 5565 b3bd
00000060: d352 9e3d 5b2f 14bc 1adf 123c f341 893d
00000070: 4187 6bbc cb89 d3bc ce66 f2bc 07db 73bc
00000080: 34eb 1f3c 6118 bebc acdd 0bbd e804 c73d
00000090: dbfd aebd f15d 223d 77b6 38bd 2c5a cb3c
000000a0: a4ae 5bbc 9b1a f8bc a375 b6bd 54da b0bc
000000b0: 9da9 f2bc 35ba 703a f1a1 b63c 611e a0bc
000000c0: 40ce 953d b5a9 6d3d 7fce 54bd 0308 643c
000000d0: 1f9b b13b 513f 8cbc ea53 31bd 18e5 0abd
000000e0: 9f76 633d 0eed 2cbd 5374 95bc bc12 49bc
000000f0: 38b5 bfbc 2a90 cfbb 0af3 7f3d b667 253d
00000100: 3e72 893d 96c0 f03b 7764 0cbc fad0 c23d
00000110: d84c 2bbd 6cfd 893d a1b6 8bbd 4b67 173c
00000120: 82d9 403d 1c92 a8bd f8f0 12bd 360b 1cbd
00000130: e0ce dfbc 9e1a b53b b711 263b 63cc 653c
00000140: e9a8 b93d 5f58 8a3c c2b3 4cbd 411f 893d
00000150: 15a7 e9bc 4434 373d 9d6b efbc 7ecb 94bc
00000160: b462 0d3d c932 2bbd 87ec a3bb 72c1 743d
00000170: b95e bdbd 81a3 c03c 4e02 a73c 7305 793d
00000180: 4178 a13d bf1f 1f3d fbe5 72bd 0f7f d43c
00000190: 880d 8c3b 2334 013c 0d7b 35bd a398 91bd
000001a0: 04c3 523d 4407 abbc f35c 26bd 53b4 3a3d
000001b0: 4a6b 38bd 5871 98bb b288 983d 86ba 513d
000001c0: 3a51 b03d 410d c23b bf3a 0dbd 2d67 823c
000001d0: 6ba2 80bd d73f 453a 456f 53bc 5468 7dbd
000001e0: 695f be3d 6675 adbd 3712 c6bc 55c8 6d3d
000001f0: befb b4bd 9562 303d 0d7b a53d f278 243d
00000200: 6056 ddbc 017e bbbc 0d62 3cb8 e2a9 173d
00000210: c8bf 60bd fdad 3c3d f677 bdbc 67e1 a33c
00000220: ab4d 293d b3f0 043c 33e5 36bd 573d be3c
00000230: 9e07 be3b c1b1 e33c 4fc9 893d ff5b 6c3d
00000240: 0eff aeba 74d4 65bc cea6 1bbc b0fa 973c
00000250: c663 e1bc f8c1 3d3d c2fb 163c 440b a0bd
00000260: 6b41 423d cce3 19bd 58fd 7cbd 6209 863d
00000270: 3079 b8bd 16c8 273b 9e3d 753d bf76 fbbc
00000280: a4fd a43a 634a efbb badd 293d 5885 303d
00000290: 2dc7 d3bd 06a3 5b3b 7fa3 84bd 7fd9 91bd
000002a0: 0b30 713c 6aae 84bd e993 cebd 6367 203d
000002b0: 3bd3 58bd a671 953d 0aba 9f3c c8df 833d
000002c0: a6db af3d 2dae 3b3b 79dc 1ebd 81bd f73c
000002d0: 86e9 b8bd 7145 cf3c ba6b 86bd d89a 9fbd
000002e0: cfa6 b8bc b5d7 a5bc cfd3 653c c81b 48bc
000002f0: d9e3 a8bd 302d 8d3c de79 053d 1c72 933d
00000300: d453 07bd ba70 b23c 5e63 383c ddc3 4cbd
00000310: 3510 163b cedb 4dbd d214 ff3b 77b2 e2bc
00000320: 3f9a 89bc d2e1 af3c 5c7d 6c3d 36d2 92bc
00000330: 18cc 773d 611a 48bd 0550 abbd 4cad 94bd
00000340: a9d6 253c d0fa 01bc 0495 c4ba b181 c8bd
00000350: f19a 7f3c ad32 80bd 24e2 a33b 6502 053d
00000360: 3ccc 90bd 3436 623c f286 313d 414e 2abd
00000370: 75c9 5c3d 50cb f13c 157b 183d 2556 ca3c
00000380: bc01 54bd d5fb bf3c fb2c 153d 2eaa 50bd
00000390: baa5 8f3d 2123 253c a450 043d eefd ab3d
000003a0: 4fc8 e5bc 7d79 973d 623a d73b 4ec5 c1bc
000003b0: 016b a73d 70a7 55bd 1e42 1abd d13b a0bd
000003c0: daca edbb 4523 cfbb 0a99 2ebd 87c9 eb3c
000003d0: fe1b 26bd 90e1 82ba a4d9 87bd 0aad a2bc
000003e0: ca7c 9f3b 39c5 b5bd 07e7 81bd 2431 4c3d
000003f0: 5992 bb3a 12b3 883d 5968 2ebb 9200 f83c
0.07247255 0.05262061 -0.008023327 0.046234272 -0.0973335 0.040540747 0.0042181653 -0.0058456515
0.037381172 -0.08584149 0.010912475 0.061404113 -0.056292213 -0.02529373 -0.018232407 0.07092418
0.035205293 -0.039585643 -0.027727293 0.010386185 -0.07183726 0.050406173 -0.03419001 -0.08759562
0.07730641 -0.009044494 0.008964324 0.06702032 -0.014375509 -0.02582254 -0.029590037 -0.014883763
0.009760667 -0.023204984 -0.03414695 0.09717733 -0.08544513 0.03964037 -0.045095887 0.02482327
-0.013408337 -0.030286124 -0.08909156 -0.021588482 -0.029621894 0.00091830204 0.022294017 -0.019545736
0.0731473 0.058023173 -0.051954743 0.013917926 0.005420103 -0.017120035 -0.043292917 -0.033909887
0.055533048 -0.04221826 -0.018243944 -0.012272533 -0.023401842 -0.0063343244 0.06248764 0.04038211
0.06711243 0.007347177 -0.008568875 0.09512515 -0.04182133 0.067377895 -0.06821943 0.009240936
0.04708243 -0.08230993 -0.035874337 -0.03809663 -0.027320325 0.0055268547 0.0025340149 0.01402578
0.0906542 0.016887842 -0.049976118 0.06695414 -0.028522054 0.04472758 -0.029226119 -0.018163439
0.03451796 -0.04179648 -0.0050025615 0.059754796 -0.092465825 0.023515465 0.020386841 0.060796212
0.07884265 0.038848635 -0.059301358 0.025939493 0.004274074 0.0078859655 -0.044306803 -0.07109191
0.051455513 -0.020877488 -0.040615987 0.045582127 -0.045024194 -0.0046521835 0.074479476 0.051203273
0.08609243 0.00592199 -0.034479853 0.015918339 -0.06280979 0.00075244665 -0.012904947 -0.061867073
0.09295542 -0.084696576 -0.024178607 0.05805238 -0.088370785 0.043062765 0.08080111 0.040154405
-0.027018726 -0.022887232 -4.491401e-05 0.037027247 -0.054870397 0.046064366 -0.02312849 0.020004941
0.041333836 0.008114028 -0.044652175 0.023222608 0.005799248 0.02779472 0.0672785 0.05770492
-0.0013351159 -0.014027704 -0.009500219 0.018552154 -0.027513396 0.04632756 0.009215297 -0.07814649
0.04742567 -0.03757076 -0.061765045 0.065447584 -0.0900749 0.0025601438 0.059873216 -0.030696271
0.0012587798 -0.0073025688 0.04147122 0.043095917 -0.10340724 0.0033513918 -0.06476497 -0.07121562
0.014720927 -0.06478579 -0.100868054 0.039161097 -0.05293582 0.07297067 0.01949789 0.06439167
0.085868165 0.0028637752 -0.038784478 0.03024173 -0.09028916 0.025301667 -0.06563516 -0.07793206
-0.022540478 -0.020244459 0.01402755 -0.012213655 -0.082465835 0.017233461 0.032586925 0.07199499
-0.03303893 0.021782268 0.01125416 -0.049991477 0.0022897844 -0.05025845 0.0077844644 -0.02767299
-0.016797183 0.021469984 0.05773674 -0.017922502 0.060497373 -0.048853282 -0.08364872 -0.07259616
0.01012198 -0.0079333335 -0.0014998023 -0.09790362 0.015600906 -0.06259666 0.0050013233 0.032472987
-0.070702046 0.013806868 0.043341585 -0.041578535 0.053903062 0.029515892 0.037226755 0.02469928
-0.051759467 0.023435513 0.03641985 -0.050943546 0.07014032 0.010079176 0.032303467 0.083980426
-0.028049616 0.07396219 0.006568239 -0.023653653 0.08174706 -0.052161634 -0.03766071 -0.07823909
-0.007256848 -0.006321343 -0.04262642 0.02878262 -0.04055404 -0.0009985436 -0.066333085 -0.019857902
0.004867171 -0.08875508 -0.06342893 0.04985155 0.0014310583 0.0667478 -0.002661249 0.03027371

_func._diffusion._model.2.bias f4 [48]
00000000: c1dd 893d 5366 b03d fd13 ca3d 9588 a03d
00000010: 0699 f13c 4613 533d 61de 173d e3db 6c3d
00000020: 5535 b63c 80f3 e83c c05c e03d 7a4d db3c
00000030: 4078 2cbd aa10 74bc 464a 9fbd 1c64 9e3a
00000040: 67d2 bb3b 775c 8c3d 915b 60bd 61b0 d7bd
00000050: e26b bcbd 2ece 24bc ddfe 4cbd 0783 d1bd
00000060: 1c7b c3bc fccb aebc 6bd0 6c3d a4a8 91bd
00000070: 7aa0 d5bc c536 31bd a33e 60bc e86b 69bd
00000080: 7afb dbbd 3d71 c03d 233b 923d 2b74 b13d
00000090: 21ab 2f3d 6d0f 273c bbd7 953c 3c08 a13b
000000a0: 88cd d0bc ac61 90bd 8417 3c3d 6198 903d
000000b0: 104b c43d 0135 5ebd d9f1 8fbc 9634 a13a
0.06731749 0.08613267 0.09867094 0.07838551 0.029491913 0.051532052 0.03707731 0.057826888
0.022242228 0.028436422 0.10955191 0.026770342 -0.042106867 -0.014896551 -0.077778384 0.0012084278
0.005731869 0.06853574 -0.054774825 -0.105316885 -0.092002645 -0.010058923 -0.050047744 -0.102300696
-0.023862414 -0.021337502 0.05781595 -0.07112244 -0.026077498 -0.043265123 -0.013686809 -0.056987673
-0.10741325 0.093965985 0.07140186 0.086647354 0.04288781 0.010196549 0.018291345 0.0049143117
-0.02548863 -0.070498794 0.045920864 0.07060314 0.095846295 -0.054249767 -0.017571377 0.0012298997

_readout.weight f4 [1, 16]
00000000: d92c c3bd 2e64 45be 5c24 76be 1b9f 53be
00000010: fd09 a13d c07d cbbd 7be3 0c3c fa5f 043e
00000020: 320e e3bc 4af4 903d c232 b33d d97a 8abe
00000030: 5f03 72be dbc4 99bb 2cbf 8cbd 8392 153e
-0.095300384 -0.19276497 -0.24037308 -0.20666163 0.07863233 -0.09936094 0.008599157 0.12927237
-0.02771673 0.070778444 0.08749916 -0.2704685 -0.23634098 -0.0046926565 -0.06872401 0.14606671

_initial._model.0.weight f4 [16, 2]
00000000: a884 26b6 808f b1be 2255 32b6 a0d8 993f
00000010: 514b c634 5850 37bf 7189 bc36 24aa 11bf
00000020: 3b8e 8cb6 1146 a1be 1ff1 3f36 aaf0 31bf
00000030: 8d54 4336 26bb 623f 50ae e3b5 af47 aa3f
00000040: 88b1 6234 6e9c 3dbf 00e0 58b6 5263 3a3f
00000050: 5183 81b6 9589 ef3d bfbb bd36 f4d6 aebe
00000060: 2efa c3b6 1058 b1bf 1f23 3b36 de02 ba3e
00000070: f2d3 a035 4486 1c3f e2ab ddb5 a221 1d3f
-2.4813144e-06 -0.34679794 -2.657362e-06 1.2019234 3.6935174e-07 -0.7160697 5.618837e-06 -0.5690024
-4.188883e-06 -0.3149877 2.8601569e-06 -0.6950785 2.910648e-06 0.88566816 -1.696355e-06 1.3303126
2.1112476e-07 -0.7406682 -3.2316893e-06 0.728078 -3.859787e-06 0.116961636 5.6544955e-06 -0.3414837
-5.8405776e-06 -1.3855 2.7885615e-06 0.36330312 1.1982613e-06 0.61142373 -1.6515808e-06 0.61379445

_initial._model.0.bias f4 [16]
00000000: b015 01bf e47a fcbc 0297 9b3d 53b5 0b3f
00000010: 1f5c 7dbe c571 be3a 1922 a5be 98e0 04bf
00000020: 812a 413f e623 143e e999 95bd 85c2 fbbd
00000030: 47ed 5cbe f941 b2be 2fc3 843d f91e bd3e
-0.5042372 -0.030820318 0.07597162 0.54573554 -0.24742173 0.0014529756 -0.32252577 -0.519052
0.7545548 0.14466819 -0.07304747 -0.12292961 -0.21574889 -0.34815958 0.06482541 0.36937693

_initial._model.2.weight f4 [16, 16]
00000000: 656c 1ebd 1803 f8be d7fc 9bbc 9d04 7bbd
00000010: c4bf 7cbe 3405 1dbe 1684 1cbe 0750 44be
00000020: 6ff6 34bd 0964 5bbe 9c2f 8f3a 8693 2cbe
00000030: 5c53 3dbe 9329 dbbd 9f31 af3d 15ba 53be
00000040: d7e7 d03d 421f c03e 7125 d73e d09b 8a3e
00000050: c1f3 283e fd53 c23e 471b 6f3e 27f5 873e
00000060: a3f7 543e 5fdb 603e ec61 4fbb 5d9d 0e3e
00000070: bb2b 013f 7267 36be 4a03 853d cbd7 8f3e
00000080: d79b 8ebe f611 c23e 6330 053e b607 1f3e
00000090: ae64 bebe d6f8 163e 83d1 8c3d 6041 fb3d
000000a0: 5716 803e c6f4 e23e ee0b 8abe 0d38 88be
000000b0: 74cb 903e fc83 dcbc 6db4 893d 54b5 073f
000000c0: efe9 773c c468 1a3f b2ef 2f3e e73d cd3d
000000d0: eda8 92bd 7bfb b43d 054e a63e a697 da3e
000000e0: 0314 383e c95d e93d 2aaa 44be bc2f 333e
000000f0: 61e7 8c3e 1211 0dbd 4075 a33e e37b ab3c
00000100: a978 ddbd bc1c e63e 3ba9 3f3e 17ed 1f3e
00000110: 8cbe 83bd d9d7 aa3e a567 c23d eeaa fc3e
00000120: d7dd 21be 4f62 993e ce49 46be 8ca4 ee3d
00000130: ff74 1b3f dedd 073d 3ee2 9fbd 7819 7fbc
00000140: 3718 cc3c ba6a 033f dab5 7dbd f9cd be3d
00000150: ecb5 723e bb7f 5f3e c260 8e3e 3e80 ee3e
00000160: 3a3c a83d 6ec5 993e 503f 053e 0cd0 a0bd
00000170: aac7 a13e 9fc9 273e 3420 de3d d606 8cbd
00000180: 3e97 5b3e 88c9 84bb 4a42 bf3b 0fe8 d4bd
00000190: 8281 9f3e 5f88 b5bd 19fd bf3d 1d1a 3ebc
000001a0: d05b 28be 4e4a d5be 07ad bb3d a19c cb3e
000001b0: 962c 153e 053a 34bc 26e7 5fbd f75d 9bbd
000001c0: 6b32 20be 59f0 a2be aa53 543d 4b4a 91be
000001d0: 47fe 9a3d 0263 05be 1fd8 30be d7b2 d2be
000001e0: ac84 0abe c797 093c c7f3 fd3d 2e8d 15bd
000001f0: eb98 19bf 8ce3 873d 03fa 443d 2e6e 74be
00000200: 4098 9d3e da9f 0a3e c6ca 6bbd 466b e63d
00000210: 667d 163e 7d04 b13d ab92 a63e aa86 003f
00000220: 4698 debd 2f89 5e3e dde5 00bc 0d1a 413e
00000230: 71f1 1c3f 3dac 063e 5d7e 29be aabd 633e
00000240: cef7 093e aa4c 6abe a1f0 6ebe 6f16 28bc
00000250: 3865 08be 712a eabe 72eb 7abe dd19 93be
00000260: 1030 59be efd0 c0bb cf5d 523e 4577 713d
00000270: b3e3 1fbf 4400 04be 3ee9 f7bd 8b10 7d3c
00000280: 64ec f5bd 5fc8 083e cb78 413e effc 15be
00000290: fb72 8cbd ebde d33e 166b 943e 9bc1 a83e
000002a0: 3f80 ff3b 4a55 7b3e f6f0 c5bd 7cb4 8c3e
000002b0: 381b 5e3e 71f6 2e3e fb08 99bc 79e5 5cbd
000002c0: 660c b6bd 76de 7a3e e523 3a3e f9fb cf3d
000002d0: d772 4e3e 4b54 b83e 0533 4f3e fd00 d73d
000002e0: 45a5 523e ae8e 493d 5b59 aabd 8029 9b3d
000002f0: 2691 163f 519e 16be 5bca 223e d2c2 a63d
00000300: 4e83 11bd 6e45 973e e802 0c3e e52b 3cbe
00000310: 6b47 a83d ac33 9f3e dc0a a13e 1791 b13e
00000320: a44a 4e3e 85ff 6b3e de3e acbd 8baf 9cbd
00000330: 2eb4 0c3f 4010 af3e 49d5 5e3e 9b59 2f3e
00000340: 4c65 203e e5b4 be3e 2f66 c23e e327 8b3e
00000350: 4b0f 95bd 015c ee3e 1dbe a33e 7083 983d
00000360: ef56 2e3e 7db7 f63b fa5f e1bd 761f d33d
00000370: fd98 1b3f 04f0 1dbe 5975 2c3e de6b 583e
00000380: 44d6 a13e e5e5 77be 5a8b 9b3e c031 363e
00000390: 481b 1c3e 8641 e43e cd22 233e c0d3 2abd
000003a0: 1f19 88bd dcc7 a4bd d8fb d4bc 2bd7 d23e
000003b0: 8bd9 b63e 7d5a 7abd 99f5 94bd 0c0a 9cbe
000003c0: 70a7 ac39 960f d3be 7d6a 6ebe 0c17 883d
000003d0: 78dd 6ebe 34cf 4dbe 8a8e 96be bfe3 cebe
000003e0: 871a 21be 8a60 06be e8fb a4bc e38b 51be
000003f0: aca6 ebbe c6cd 6dbe 3b73 05bb 68c4 a8bd
-0.03867759 -0.4843986 -0.019041462 -0.061283696 -0.24682528 -0.15334016 -0.15284762 -0.19171153
-0.04418033 -0.21424879 0.0010924223 -0.1685315 -0.1848883 -0.10701289 0.08554386 -0.20676453
0.1020047 0.37523848 0.42020753 0.27072 0.16499235 0.37954703 0.23350249 0.26554224
0.20797591 0.21958683 -0.003164406 0.13927217 0.5045735 -0.17812899 0.06494768 0.28094324
-0.2785327 0.37904328 0.1300674 0.15530285 -0.37186188 0.14743361 0.06875899 0.12268329
0.25017044 0.44327372 -0.26962227 -0.26605263 0.28280222 -0.026918404 0.067238666 0.5301106
0.015131458 0.6031611 0.1718128 0.100215726 -0.07161126 0.088370286 0.324814 0.42693824
0.17976384 0.11394841 -0.19205537 0.17498678 0.27520278 -0.034440108 0.31925392 0.020933097
-0.1081403 0.44943798 0.187169 0.15617786 -0.06432828 0.33367804 0.09492425 0.4934916
-0.15807281 0.29957816 -0.19364092 0.116524786 0.60725397 0.033170573 -0.07806824 -0.015570037
0.02491389 0.51334727 -0.061941005 0.0931663 0.2370221 0.21826069 0.27808195 0.46582216
0.08214612 0.3003344 0.13012433 -0.07852182 0.31597644 0.16385506 0.10845986 -0.06837241
0.21444413 -0.0040523447 0.0058367597 -0.10395824 0.31153494 -0.08863901 0.093744464 -0.011602906
-0.16441274 -0.41658252 0.09163862 0.39767936 0.1456779 -0.011000161 -0.0546638 -0.07586282
-0.15644233 -0.31823996 0.0518376 -0.28376994 0.07568031 -0.1302605 -0.17269944 -0.4115207
-0.13527173 0.008398003 0.124000125 -0.036511593 -0.5999896 0.06635198 0.048089992 -0.23870155
0.3078022 0.13537541 -0.057566427 0.112509295 0.14696273 0.08643434 0.32533774 0.5020548
-0.108688876 0.21732019 -0.007867304 0.18857594 0.6130591 0.13151641 -0.1655211 0.2224032
0.13473436 -0.22880808 -0.2333398 -0.010259255 -0.13319862 -0.45735505 -0.24503878 -0.2873067
-0.2120974 -0.005884282 0.20543598 0.058951635 -0.62456816 -0.12890726 -0.12105034 0.015445839
-0.120079786 0.13357686 0.18893735 -0.14647268 -0.06857868 0.4138101 0.2898795 0.3296021
0.0077972705 0.24544254 -0.096651 0.2748145 0.2169007 0.17086197 -0.01868104 -0.05392978
-0.088890836 0.24498925 0.18177755 0.10155482 0.20160995 0.3600181 0.20234306 0.104982354
0.20570858 0.049208336 -0.083178245 0.07576275 0.5881523 -0.1470883 0.15897505 0.08142628
-0.035525613 0.29545158 0.13672984 -0.1837612 0.08216747 0.3109411 0.31453598 0.34681007
0.2014566 0.23046692 -0.084104285 -0.0765067 0.5496243 0.34192085 0.2176105 0.17124026
0.15663642 0.37247387 0.37968585 0.2717887 -0.072783075 0.46554568 0.31980982 0.07446945
0.1702535 0.0075291977 -0.11004634 0.10308735 0.60780317 -0.1542359 0.1684164 0.21134898
0.31608784 -0.24208792 0.30379754 0.17792416 0.15244782 0.4458124 0.15931244 -0.041705847
-0.066454165 -0.08045933 -0.025998995 0.41179785 0.35712847 -0.061121453 -0.072734065 -0.30476415
0.00032931147 -0.4122283 -0.2328281 0.06645021 -0.23326671 -0.20098573 -0.29405624 -0.4040813
-0.15732776 -0.13122764 -0.02013965 -0.20463519 -0.46025598 -0.23223028 -0.0020362872 -0.082405865

_initial._model.2.bias f4 [16]
00000000: abb9 ac3e c0fc db3d 69bd a13e 80de 9dbc
00000010: 237b 5ebe 8daf e73d ba12 aebe 550c e83c
00000020: d2a5 7bbe 078a 68be 00da d33d 92f6 433e
00000030: e3c8 a3bd c8aa 2f3d 692b 95be 73ff 193e
0.33735403 0.107415676 0.3158982 -0.019271135 -0.2172666 0.113127805 -0.33998662 0.028326193
-0.24574974 -0.22708903 0.103443146 0.19137028 -0.079973005 0.04288748 -0.29134682 0.15038852
