hyperparameter_tuning/ray_results/SUD_learning_rate_tuning/MyTrainableClass_06071884_8_batch_size=16,name=SUD_v2,patience=1000,steps=200,steps_per_print=5,swa_step_start=2500,t_size=7,train_2024-03-12_14-35-36/checkpoint_000000/checkpoint.pt (torch, 61346 bytes, 66 tensors)

_initial._model.0.weight f4 [16, 5]
-0.82956696 -2.107141 -1.4444811 -1.1349802 -2.7777605 -1.7530442 -3.428426 -3.7810278
-3.2670426 2.5179267 2.8958766 -2.5139124 3.285326 -3.548825 1.9945852 1.015444
3.175998 -2.3157783 3.1737878 0.224125 2.740968 -1.0886267 -0.21193653 -2.4452496
1.3686473 -2.706842 -1.0586036 -2.9791508 -1.6525695 0.12091401 -3.235324 0.77736545
-2.6150012 -0.0891958 -0.895586 -0.8609981 -0.8181424 1.5832356 0.6164055 2.043329
-0.54504514 -3.6286721 -3.4453883 3.6997442 -3.4382825 2.6089435 0.6346148 1.589313
1.7452476 -0.49607798 2.9306633 0.12236075 -1.8851761 -0.62341446 -1.502164 1.055268
-2.697915 -3.5298522 3.5644162 0.7647887 0.2632474 1.2147611 2.2832296 -0.18833068
2.5631485 -3.8771038 -1.9107509 -0.6251899 1.7990688 -2.382671 2.9459956 3.244441
3.0369163 -3.8641348 -3.339395 -1.0289046 0.47188714 3.1525435 0.75568825 3.4088855
00000000: 805e 54bf 66db 06c0 c2e4 b8bf 0847 91bf
00000010: d4c6 31c0 c163 e0bf 556b 5bc0 5cfc 71c0
00000020: 3a17 51c0 b625 2140 0b56 3940 f1e3 20c0
00000030: c842 5240 f31f 63c0 914e ff3f 12fa 813f
00000040: 8d43 4b40 b635 14c0 571f 4b40 0681 653e
00000050: 056c 2f40 1f58 8bbf e405 59be f87e 1cc0
00000060: d62f af3f e63c 2dc0 5380 87bf 68aa 3ec0
00000070: 6687 d3bf c4a1 f73d 8c0f 4fc0 6c01 473f
00000080: 2e5c 27c0 4aac b6bd 2045 65bf 5f6a 5cbf
00000090: c871 51bf 77a7 ca3f c0cc 1d3f e7c5 0240
000000a0: 1488 0bbf 2a3c 68c0 3e81 5cc0 9cc8 6c40
000000b0: d20c 5cc0 eef8 2640 1e76 223f 9c6e cb3f
000000c0: 4664 df3f effd fdbe fd8f 3b40 4698 fa3d
000000d0: 734d f1bf 1798 1fbf e946 c0bf 0613 873f
000000e0: a4aa 2cc0 19e9 61c0 651f 6440 31c9 433f
000000f0: 5dc8 863e 4b7d 9b3f 6f20 1240 c2d9 40be
00000100: a00a 2440 7822 78c0 7c93 f4bf 720c 20bf
00000110: e347 e63f af7d 18c0 318b 3c40 eca4 4f40
00000120: d65c 4240 fc4d 77c0 a6b8 55c0 25b3 83bf
00000130: 319b f13e 46c3 4940 c974 413f 2e2b 5a40

_initial._model.0.bias f4 [16]
1.9265959 -3.4456983 -1.5354484 0.7814501 0.4139967 -3.512967 -1.6285803 2.4702108
1.8146064 -0.78015393 -3.5041394 3.5645082 -2.059652 1.288928 -0.5993604 0.19006656
00000000: b29a f63f 5286 5cc0 9389 c4bf 1d0d 483f
00000010: 60f7 d33e 74d4 60c0 5275 d0bf ef17 1e40
00000020: 0645 e83f 2bb8 47bf d243 60c0 e720 6440
00000030: 57d1 03c0 98fb a43f af6f 19bf cfa0 423e

_initial._model.2.weight f4 [16, 16]
-0.21899821 -0.31288004 0.04539672 -1.5257243 1.9567403 -1.643902 0.68825734 0.1701866
-0.8045148 1.7442708 -0.30416423 -1.4996179 0.6273487 -0.6701759 1.6406945 -2.0748901
1.1539875 -0.5193151 -2.397758 2.1076896 1.4882723 0.6224867 0.889767 -1.7332145
2.3119464 -0.00013792334 -0.46821663 -2.0525935 -1.4022561 -0.39278203 -0.91473544 1.1706856
-0.04415397 1.6980125 0.55265015 -0.9553008 0.9149451 2.3357139 -0.72631395 -0.81698054
-0.22800551 0.7865607 -1.3623505 -0.20792088 -1.3016089 1.51654 -0.50015163 1.4896317
-0.3853026 -1.9435502 1.0030633 -1.191088 -1.8986951 2.3070626 -0.46220875 0.28732497
-1.5503521 -2.0418282 1.4155496 -0.763134 0.86059743 0.7456038 0.95963377 -2.241673
-0.62823427 0.5097193 -1.6689802 1.9333553 1.397706 -2.2155366 1.7704524 0.7954126
1.6163179 1.4672292 1.154699 0.87310535 1.3968785 -0.7765672 1.2925973 -1.8104833
-0.6648773 0.5498073 -2.02939 2.4331481 -1.0878092 -1.3420013 -1.6296774 -0.537842
-1.4019496 2.01888 0.43286547 1.805916 0.37347817 -1.8670797 0.8066177 -0.013372744
-0.08310328 -0.5166532 0.23901126 0.46147266 0.80617434 -0.09129454 1.0341024 0.5828747
1.6787683 -0.039176576 -0.6528606 -1.2257992 1.9141681 1.084599 1.6289667 0.85562766
-0.059049156 -2.2713625 -1.3466988 -0.35528418 0.9996331 -2.122518 -2.32621 1.6679461
-1.3497463 0.34220466 0.60456383 1.1403902 0.038825445 -1.1789579 -0.39661005 -0.6660668
1.3931476 0.6521383 0.2926889 1.4901422 -2.3430715 -0.15703343 0.62852293 0.4620282
-1.2757577 -1.8237289 -0.45471165 -0.22040606 -1.6827663 0.30229822 0.9244288 0.57546395
1.0883466 0.14083137 2.1206813 1.1369631 -0.92154384 -2.2425866 -0.19924383 0.7041298
1.9544572 -0.58290213 0.029624341 -0.83797395 0.7421547 0.17108653 0.53622276 -1.472714
1.1473223 -2.2648993 1.2068092 -0.37831098 -1.3589542 0.9866389 -1.2494043 1.9385548
1.9607772 -1.8738759 -1.7698709 0.76285297 -1.5187254 -1.297834 1.0243778 1.8860077
0.14576438 -1.4814231 0.94598025 -0.0796335 -1.625538 2.2667704 -1.388107 -0.56577796
0.5068039 -1.0337101 -0.63155156 0.85012746 -0.42427748 0.056127217 1.1771877 1.108526
-1.1584016 -1.7548009 1.8655844 0.068718165 -1.4889358 -1.9436619 -1.310799 -0.12958944
-0.3693532 -0.8039367 2.020572 2.2926462 1.710104 -1.9541721 -1.378929 1.5535716
-0.81708556 -0.09994865 -0.78151774 1.9289004 2.264724 1.378381 1.8122693 -1.6081234
1.8721504 0.08318631 -2.131108 -0.1044336 1.5846343 -0.7334764 -0.5207528 -0.6567146
-1.0421516 1.4892665 1.1930199 0.021497322 1.726976 0.6706182 -0.93745846 -1.6546316
0.2765323 -0.7608471 -0.62535465 1.3181312 1.3788185 -0.44047236 -0.63703763 0.77479976
0.28092524 0.7098947 0.8886151 1.4240242 -1.8728963 0.075211205 0.61660343 0.4128185
-0.74497724 -1.8408127 1.9666941 -1.6642174 1.2515907 -2.230201 0.5073835 1.7623148
00000000: 1141 60be d031 a0be e9f1 393d ef4a c3bf
00000010: 7776 fa3f 616b d2bf a231 303f 6545 2e3e
00000020: aff4 4dbf 4444 df3f 6abb 9bbe 7bf3 bfbf
00000030: ed99 203f a690 2bbf 4702 d23f 00cb 04c0
00000040: ddb5 933f d6f1 04bf de74 19c0 63e4 0640
00000050: b57f be3f 4a5b 1f3f c5c7 633f f9d9 ddbf
00000060: eef6 1340 849f 10b9 17ba efbe b15d 03c0
00000070: 217d b3bf ba1a c9be 1a2c 6abf 07d9 953f
00000080: cbda 34bd 7958 d93f 7b7a 0d3f 988e 74bf
00000090: d839 6a3f 567c 1540 b6ef 39bf a325 51bf
000000a0: 477a 69be 0b5c 493f 8061 aebf 36e9 54be
000000b0: 1f9b a6bf fc1d c23f f009 00bf 40ac be3f
000000c0: 6246 c5be 41c6 f8bf 6164 803f 9275 98bf
000000d0: 7108 f3bf eaa6 1340 a0a6 ecbe 421c 933e
000000e0: f071 c6bf 50ad 02c0 bb30 b53f c05c 43bf
000000f0: 1d50 5c3f e4df 3e3f 8faa 753f 9277 0fc0
00000100: f6d3 20bf f77c 023f 25a1 d5bf 3078 f73f
00000110: 08e8 b23f 5acb 0dc0 2f9e e23f 29a0 4b3f
00000120: 81e3 ce3f 2bce bb3f 2dcd 933f d583 5f3f
00000130: eacc b23f 1ccd 46bf d473 a53f ebbd e7bf
00000140: 6635 2abf 2cc0 0c3f 87e1 01c0 b3b8 1b40
00000150: 553d 8bbf b3c6 abbf 4599 d0bf 03b0 09bf
00000160: 1673 b3bf 5435 0140 8ba0 dd3e 4128 e73f
00000170: 8838 bf3e 78fc eebf 7f7e 4e3f 5b19 5bbc
00000180: 0d32 aabd 6243 04bf 5ebf 743e 2546 ec3e
00000190: 7161 4e3f a2f8 babd 785d 843f 4737 153f
000001a0: e1e1 d63f 9e77 20bd df21 27bf fde6 9cbf
000001b0: 7603 f53f 24d4 8a3f fb81 d03f 6a0a 5b3f
000001c0: 87dd 71bd 015e 11c0 a060 acbf cfe7 b5be
000001d0: f4e7 7f3f 56d7 07c0 a0e0 14c0 427f d53f
000001e0: 7dc4 acbf 7335 af3e b2c4 1a3f 4ef8 913f
000001f0: 6e07 1f3d 18e8 96bf 7910 cbbe 5b83 2abf
00000200: a952 b23f 89f2 263f 52db 953e fbbc be3f
00000210: e2f4 15c0 5fcd 20be e1e6 203f f68e ec3e
00000220: 074c a3bf f36f e9bf f7cf e8be 20b2 61be
00000230: e364 d7bf d5c6 9a3e 5ea7 6c3f 9b51 133f
00000240: f14e 8b3f 1936 103e 3eb9 0740 0288 913f
00000250: 4cea 6bbf 8a86 0fc0 9306 4cbe da41 343f
00000260: a72b fa3f 1339 15bf bfae f23c 7685 56bf
00000270: dafd 3d3f 4f31 2f3e e545 093f e481 bcbf
00000280: 75db 923f 1cf4 10c0 b978 9a3f fab1 c1be
00000290: 36f2 adbf 5e94 7c3f 7bec 9fbf 9022 f83f
000002a0: bffa fa3f 2adb efbf 218b e2bf 554a 433f
000002b0: 9865 c2bf 6d1f a6bf d01e 833f b368 f13f
000002c0: 4243 153e 469f bdbf c32b 723f e316 a3bd
000002d0: a111 d0bf c412 1140 7dad b1bf d3d6 10bf
000002e0: e6bd 013f 9d50 84bf 5dad 21bf f4a1 593f
000002f0: e63a d9be a7e5 653d 16ae 963f 2ee4 8d3f
00000300: 8146 94bf 519d e0bf 78cb ee3f 1cbc 8c3d
00000310: 7395 bebf eac9 f8bf 43c8 a7bf 18b3 04be
00000320: dd1b bdbe ccce 4dbf 0d51 0140 b7ba 1240
00000330: b0e4 da3f 5022 fabf bf80 b0bf 6fdb c63f
00000340: 852c 51bf e1b1 ccbd 8c11 48bf 35e6 f63f
00000350: 3df1 1040 ca6e b03f 71f8 e73f fdd6 cdbf
00000360: a0a2 ef3f 965d aa3d 1364 08c0 49e1 d5bd
00000370: 4cd5 ca3f 1cc5 3bbf 0e50 05bf 731e 28bf
00000380: 3965 85bf 49a0 be3f e0b4 983f 271b b03c
00000390: 8d0d dd3f a2ad 2b3f 47fd 6fbf f8ca d3bf
000003a0: a495 8d3e e0c6 42bf 3e17 20bf 86b8 a83f
000003b0: 207d b03f 9885 e1be e614 23bf 4759 463f
000003c0: 6fd5 8f3e a9bb 353f 477c 633f 6d46 b63f
000003d0: 11bb efbf 5508 9a3d b9d9 1d3f f25c d33e
000003e0: d4b6 3ebf c09f ebbf a2bc fb3f 1305 d5bf
000003f0: 2034 a03f 9dbb 0ec0 e3e3 013f 8893 e13f

_initial._model.2.bias f4 [16]
0.52718574 -0.32342535 2.4262989 -1.2198117 -2.4054506 0.17521086 -1.1449145 -0.90440047
1.7825836 -0.0018620311 -2.1890442 -0.6577142 -1.3676522 -2.2722933 0.8775658 -2.1516564
00000000: a5f5 063f 0298 a5be 7b48 1b40 ca22 9cbf
00000010: e7f2 19c0 7a6a 333e 8f8c 92bf ca86 67bf
00000020: b32b e43f 650f f4ba 4d19 0cc0 f55f 28bf
00000030: 3a0f afbf 416d 11c0 27a8 603f bdb4 09c0

_func._drift._model.0.weight f4 [16, 17]
0.0006886513 -0.005487856 0.00494758 -0.00032460244 0.001824064 0.0011174455 -0.00281113 0.00043041218
0.0017836397 -0.0053265253 -0.0045192377 -0.004393443 -0.00028759424 -0.0028556352 -0.0054260693 0.005261539
0.004648968 -0.0020413997 -0.004107686 0.0027320292 -0.0009878456 -0.0032068316 -0.0052965004 4.6562214e-05
-0.0029366636 0.0015049571 0.0014774103 -0.00069496006 0.005843008 -0.0011279777 0.0056866244 0.0017298954
0.0017240084 0.0047997567 -0.0019460195 0.005436597 0.0026025223 -0.001641564 0.0026872107 -0.005640618
0.0007304529 -0.0012801758 -0.0011959324 -0.004675042 0.0029146203 0.0020450086 -0.0024366 0.004615096
-0.0011126826 -0.00014106582 -0.003510837 0.0018603657 0.0021148717 0.0010275703 0.00037282455 -0.0057072104
0.0049303537 -0.00023189791 0.0034616115 0.0035943498 -0.0051006507 0.003893459 -0.0039784536 0.0018497796
0.0050589144 0.005040768 0.0018197241 -0.005205978 0.0031240815 -0.0035251358 0.0023544899 -0.005494269
-0.00243439 -0.004464279 -0.0011322924 -0.0020006509 -0.005669916 -0.005734626 0.0007843522 0.00079743145
-0.0023051251 -0.003100401 -0.004476686 -0.0035695795 -0.0022494884 -0.0024168938 0.0037083921 0.0015167195
0.004818777 -0.0048472662 0.0020703874 0.0013397085 -0.004736211 0.0031313805 -0.0025135484 -0.0023226559
0.0020474733 0.0013668354 0.00031582275 0.005253485 -0.0016717074 -0.0035811197 -0.0058447435 0.0012481981
-0.004537577 0.0047559896 0.0017337815 -0.0013859854 0.0037426625 0.0051120087 0.004297279 -0.0022542144
0.00052367867 -0.0031097238 0.0036398275 0.0055265366 -0.00016886124 0.0038660194 0.001976739 0.0028680277
-0.004365295 -0.004041385 -0.0049962904 0.005605333 0.0023916531 0.004321223 0.0040417276 0.0047212727
-0.0014221737 -0.0056991545 0.0007109694 -0.0024036888 0.0024598902 0.0025178227 0.0005665101 -0.0056138965
0.0015789164 -0.0032148717 -0.002694258 0.004490273 -0.0030194507 0.0018583734 -0.0016815296 0.00023611842
-0.002729131 -0.0021185905 0.004988694 0.00320448 -0.004974961 0.0052232915 -0.003520152 -0.003774401
-0.005200093 -0.00033616868 -0.0026762332 -0.0057162605 0.0024922437 -0.0014331929 0.0022544577 -0.0044634202
-0.0037201613 -0.0033601827 -0.00038358817 -0.005158349 0.0010374931 -4.911458e-05 0.0047710217 -0.0003354808
0.0050758417 0.002995096 4.5447437e-06 -0.00024188953 0.00043305647 0.00050152483 -0.0014322513 -0.0035274723
-0.00070964877 -0.0030447245 -0.0014055468 -0.004753686 0.0046619526 0.0027349263 -0.0016862336 -0.0019475083
0.0055820863 -0.0054356493 -0.005630112 -0.0011591003 0.0015425968 -0.0044641793 0.0036772736 -0.0016193042
0.004413127 0.0038735108 -0.00409941 0.0032194809 0.0029390415 -0.00090267416 0.0041017584 -0.00484772
0.001293188 -0.0013929327 -8.404098e-05 -0.0022199443 -0.002495525 0.0038948574 0.0034076972 0.0041248337
-0.0045284326 0.00071475084 0.0003757225 -0.0042186896 0.0036883403 -0.0018573875 -0.0030686925 -0.00025098168
0.0027241143 0.0017169503 0.0046854443 0.0005489001 -0.0049028825 -0.0020974975 -0.00084616087 0.0052088434
0.0026112034 0.0015990528 -0.0047661066 -0.0026011453 0.0023458565 -0.0031654274 -0.0020857723 0.005580869
0.0012214048 0.0025119218 0.0037210335 -0.005549163 0.001636342 -0.0043645403 -0.0018046963 0.0028055923
-0.0055912044 0.004114665 0.0018004715 0.003498336 0.0026508549 0.0024794005 -0.00015047626 0.00544905
-0.0031301354 -0.0006370145 -0.001241251 0.0015976159 0.002910523 0.003540439 0.0027592792 -0.003984566
00000000: 9b86 343a 79d3 b3bb 4f1f a23b 672f aab9
00000010: 6e15 ef3a 4077 923a ef3a 38bb f2a8 e139
00000020: 04c9 e93a 228a aebb 1d16 94bb dff6 8fbb
00000030: 3fc8 96b9 9c25 3bbb 2bcd b1bb fd68 ac3b
00000040: 5f56 983b 01c9 05bb c599 86bb d80b 333b
00000050: 997a 81ba b529 52bb 448e adbb cc4b 4338
00000060: 0a75 40bb fb41 c53a aaa5 c13a fb2d 36ba
00000070: b476 bf3b a7d8 93ba dd56 ba3b a8bd e23a
00000080: 1ff8 e13a 4747 9d3b 9411 ffba 7b25 b23b
00000090: 148f 2a3b bf29 d7ba ea1b 303b efd4 b8bb
000000a0: dd7b 3f3a 92cb a7ba d5c0 9cba 1831 99bb
000000b0: 3703 3f3b 8d05 063b 5daf 1fbb 3b3a 973b
000000c0: 6fd7 91ba 11eb 13b9 1216 66bb 84d7 f33a
000000d0: a999 0a3b 8aaf 863a aa77 c339 8d03 bbbb
000000e0: ce8e a13b 9f29 73b9 34dc 623b 2f8f 6b3b
000000f0: 5c23 a7bb 6729 7f3b b05d 82bb 4e74 f23a
00000100: 40c5 a53b 072d a53b cf83 ee3a e996 aabb
00000110: 64bd 4c3b f705 67bb c94d 1a3b 4509 b4bb
00000120: 498a 1fbb 1649 92bb 6e69 94ba 5a1d 03bb
00000130: b4ca b9bb 88e9 bbbb fc9c 4d3a b80a 513a
00000140: 9511 17bb 1930 4bbb 2ab1 92bb 9bef 69bb
00000150: 276c 13bb c064 1ebb 7f08 733b a9cc c63a
00000160: d5e6 9d3b d1d5 9ebb 56af 073b 2899 af3a
00000170: 3832 9bbb d937 4d3b 58ba 24bb b337 18bb
00000180: e72e 063b 6327 b33a 0395 a539 6d25 ac3b
00000190: 311d dbba 38b1 6abb 4385 bfbb 949a a33a
000001a0: f4af 94bb 22d8 9b3b 0e40 e33a f4a9 b5ba
000001b0: 7547 753b a382 a73b 30d0 8c3b 71bb 13bb
000001c0: 7b47 093a 82cc 4bbb 2c8a 6e3b f317 b53b
000001d0: 5810 31b9 0b5d 7d3b 2d8c 013b 85f5 3b3b
000001e0: c00a 8fbb 986d 84bb ecb7 a3bb f1ac b73b
000001f0: 48bd 1c3b 0c99 8d3b 7870 843b e8b4 9a3b
00000200: 3b68 baba f9bf babb 5960 3a3a 3587 1dbb
00000210: 1c36 213b 0e02 253b d981 143a c7f4 b7bb
00000220: a5f3 ce3a 99b0 52bb 2692 30bb 2423 933b
00000230: fae1 45bb aa94 f33a c566 dcba 8e96 7739
00000240: 38db 32bb 0dd8 0abb 3378 a33b 4102 523b
00000250: ff04 a3bb 2528 ab3b 5ab2 66bb f15b 77bb
00000260: 8b65 aabb cc3f b0b9 be63 2fbb 784f bbbb
00000270: e954 233b f9d9 bbba 86bf 133b e241 92bb
00000280: f3cd 73bb 8336 5cbb 551c c9b9 5e07 a9bb
00000290: 7efc 873a 6100 4eb8 3b56 9c3b 79e3 afb9
000002a0: 3f53 a63b 5f49 443b 0d7f 9836 baa3 7db9
000002b0: db0b e339 c378 033a 61ba bbba 2a2d 67bb
000002c0: b907 3aba 008a 47bb 533a b8ba cfc4 9bbb
000002d0: 4bc3 983b 733c 333b 9c04 ddba 8943 ffba
000002e0: efe9 b63b 881d b2bb cd7c b8bb f4ec 97ba
000002f0: f630 ca3a 4048 92bb 6afe 703b d53e d4ba
00000300: fe9b 903b bada 7d3b 5854 86bb edfd 523b
00000310: ef9c 403b 70a1 6cba 0b68 863b 9fd9 9ebb
00000320: 3080 a93a 1193 b6ba 283f b0b8 7c7c 11bb
00000330: f68b 23bb dd40 7f3b ac53 5f3b 9d29 873b
00000340: 3f63 94bb 1e5e 3b3a 9ffc c439 ef3c 8abb
00000350: 15b8 713b 9573 f3ba 1e1c 49bb 3196 83b9
00000360: 0e87 323b 4b0b e13a 5b88 993b 10e4 0f3a
00000370: 5ca8 a0bb 2b76 09bb e5d0 5dba f2ae aa3b
00000380: b920 2b3b 4f97 d13a 002d 9cbb fa77 2abb
00000390: f1bc 193b 0f73 4fbb 74b1 08bb b9df b63b
000003a0: 8b17 a03a 0e9f 243b 95dc 733b c1d5 b5bb
000003b0: 877a d63a 6b04 8fbb 8f8b ecba 07de 373b
000003c0: 6c36 b7bb 50d4 863b ccfd eb3a 5744 653b
000003d0: f7b9 2d3b 707d 223b 2ac9 1db9 f28d b23b
000003e0: f522 4dbb 52fd 26ba 79b1 a2ba 1867 d13a
000003f0: 79be 3e3b b606 683b 06d5 343b f690 82bb

_func._drift._model.0.bias f4 [16]
0.0056004296 -0.00038018255 0.0023451217 0.0021871922 -2.4033945e-05 -0.002292928 0.0039696847 -0.005330621
-0.005277526 -0.0051795575 -0.0021376668 0.001321123 -0.0003310014 0.000119343014 0.0046704225 -0.004701208
00000000: cf83 b73b 3d53 c7b9 9db0 193b ff56 0f3b
00000010: 819c c9b7 f344 16bb 2114 823b 7dac aebb
00000020: 19ef acbb 47b9 a9bb 1918 0cbb 8829 ad3a
00000030: 428a adb9 cb47 fa38 580a 993b 970c 9abb

_func._drift._model.2.weight f4 [16, 16]
-0.0025159225 0.0022404063 -0.0054402277 -0.0059798667 -0.0038244878 -0.005730721 -0.0020640253 -0.005497279
-0.000694592 0.0031884587 -0.004954495 -0.005773465 0.0034785098 -0.0019746164 0.0024518084 0.0026941486
-0.0013062233 -0.00040166266 -7.872289e-05 -0.0047568805 0.0054794527 -0.0002992115 0.0021379932 0.00095893926
0.005014798 -0.0048056557 -0.0039614886 -0.00014277732 -0.0023574096 0.0020634679 0.005393917 -0.0003288716
-0.005186831 0.005010387 -0.0015011264 0.0019348761 -0.0019598238 0.00538099 -0.0034429806 0.0007549031
0.0027145531 -0.0049596927 0.001696003 -0.0034847204 0.005310796 0.004909892 0.001898013 -0.0029454846
0.00021936925 0.005143578 0.0037789368 -0.0028452019 -0.0032545023 -0.0015028431 -0.0017033793 -0.0029194748
-0.0059005944 5.446812e-05 0.0013208175 -0.00426533 0.0030853043 -0.0026224263 0.0036764974 -0.0026794435
0.0054711914 -0.0034846426 0.0012738701 0.0016924083 0.004413251 0.0029726003 -0.0047590355 -0.0010318807
-0.00030008727 0.0032264797 -0.003302858 0.003149256 -0.0038714614 0.0023644168 -0.0042841253 0.0014304214
-2.5078205e-05 0.0044698613 -0.002783133 0.001554474 -0.004234658 -0.0028516909 0.0032708545 0.001319235
0.00472579 0.0027024192 0.0036965057 -0.0030359311 0.0005754644 -0.005451719 0.0017611895 -0.0010727767
0.00220487 -0.0020746358 -0.0016548276 0.0035711448 0.0035194913 0.00527981 -0.0057134386 -0.0020774428
-0.005189111 0.0011860064 0.0052261553 -0.0017914145 -0.00060607085 -0.0017339926 -0.0020601104 0.0016562837
0.0040397593 -0.0039023482 0.0048295176 0.0045106243 -0.00023890428 -0.0041477014 -0.0046932935 -0.0010392903
-0.0002675584 -0.004634027 -0.0056386064 0.0018373794 0.00048014 0.0041624014 0.0011591826 0.0023194256
0.0006349324 0.0025040184 -0.002695798 2.9389987e-05 0.0031957128 0.0019650396 0.0028099369 -0.005224795
-4.0489525e-05 -0.0031030239 -0.0014194847 0.0026914445 -0.0012090043 -0.0028484566 -0.00012775714 -0.0037677183
-0.0025084133 -0.0027006269 0.0054580173 -0.0027541874 -0.0032763507 -0.0015380179 0.0043207775 3.2012365e-05
-0.00088949455 0.0033427083 0.0038535695 0.0055657583 -0.0040966608 0.003117577 -0.003953029 -0.0028807104
0.0049676215 0.0021068568 -0.0027324534 -0.0015029778 0.0035155914 0.0010619494 -0.0012874323 -0.0015526635
-0.001753027 -0.00093149417 0.00460026 -0.004234758 0.003863521 0.0009621627 0.005965578 0.0019869355
-0.0060116076 -0.0021181253 -0.0010127297 0.0020991277 -0.005538564 0.002062678 -0.0012435911 -0.0033945623
-0.0042687976 -0.0037086431 -0.0053327563 -0.00043651467 0.0023834927 -0.0033642664 -0.0034457305 0.0002283182
-0.0048891264 -0.004231238 -0.0016003838 0.0039854906 0.0030733363 0.0011203056 -0.001990435 -0.0051119197
0.003546319 0.00022073752 0.0025529503 -0.00020911478 0.0032357152 -4.4723492e-05 0.003094434 -0.000979612
-0.0019685244 0.001183557 -0.0059187827 -0.0045199543 0.00060010777 0.005751932 -0.0016623863 -0.0018996731
0.0035104828 0.0051012435 -0.00363117 0.0053850524 -0.0019444815 0.0032562024 0.0017721716 0.00080859876
0.004836875 -0.0011263014 -0.0003739985 0.0037737603 -0.00231921 0.0015070105 0.0035163262 0.00027353788
0.005780681 0.0003863354 0.0025856914 0.0033905641 0.0049758744 -0.0028040486 -0.00015233945 -0.0024129075
-0.0027056488 -0.002479997 0.000757145 -0.0041886806 -0.002417201 0.004751907 0.001963049 0.006017278
-0.0009007239 -0.00022853543 -0.0030854784 0.00091773394 0.0014381417 0.0044794176 -0.0045328033 -0.0018641476
00000000: 2de2 24bb c8d3 123b f043 b2bb c2f2 c3bb
00000010: 42a4 7abb c6c8 bbbb 9944 07bb 8522 b4bb
00000020: 4815 36ba 76f5 503b 5159 a2bb 562f bdbb
00000030: b6f7 633b 9168 01bb 85ae 203b 5090 303b
00000040: 9535 abba 4096 d2b9 0818 a5b8 9bdf 9bbb
00000050: fb8c b33b 7ddf 9cb9 931d 0c3b 5361 7b3a
00000060: 2d53 a43b c378 9dbb 60cf 81bb 7fb6 15b9
00000070: c57e 1abb 3f3b 073b 75bf b03b 666c acb9
00000080: 4bf6 a9bb 2c2e a43b 72c1 c4ba ab9b fd3a
00000090: 6370 00bb 0453 b03b a1a3 61bb b1e4 453a
000000a0: a5e6 313b eb84 a2bb 6b4c de3a e85f 64bb
000000b0: 3006 ae3b 29e3 a03b c0c6 f83a 0809 41bb
000000c0: 7c06 6639 768b a83b 0aa8 773b 9176 3abb
000000d0: 7d49 55bb 0cfb c4ba ed43 dfba a954 3fbb
000000e0: c659 c1bb b374 6438 481f ad3a 2ec4 8bbb
000000f0: d132 4a3b 03dd 2bbb 64f1 703b 9a99 2fbb
00000100: ae47 b33b 9a5e 64bb fdf7 a63a cdd3 dd3a
00000110: 089d 903b f5cf 423b aff1 9bbb 2c40 87ba
00000120: 0855 9db9 5973 533b c374 58bb c063 4e3b
00000130: 58b8 7dbb 55f4 1a3b d961 8cbb fa7c bb3a
00000140: 095f d2b7 ea77 923b 3965 36bb 7ebf cb3a
00000150: e3c2 8abb 6fe3 3abb d55b 563b 2eea ac3a
00000160: cdda 9a3b 121b 313b 1341 723b 79f6 46bb
00000170: c3da 163a 55a4 b2bb b7d7 e63a 6a9c 8cba
00000180: 957f 103b 9df6 07bb cde6 d8ba de09 6a3b
00000190: 44a7 663b 4202 ad3b cc37 bbbb b525 08bb
000001a0: 6b09 aabb c573 9b3a 2b40 ab3b e5cd eaba
000001b0: bae0 1eba 2347 e3ba eb02 07bb a917 d93a
000001c0: f55f 843b 8abe 7fbb ee40 9e3b dccd 933b
000001d0: 6182 7ab9 71e9 87bb 33ca 99bb cc38 88ba
000001e0: 1547 8cb9 09d9 97bb 0fc4 b8bb 39d4 f03a
000001f0: 4dbb fb39 c164 883b b7ef 973a 8101 183b
00000200: 9871 263a 751a 243b fcab 30bb 848a f637
00000210: 2a6f 513b e5c7 003b eb26 383b c234 abbb
00000220: 4cd3 29b8 1a5c 4bbb 010e baba f262 303b
00000230: 7477 9eba 2cad 3abb 8cf6 05b9 d3eb 76bb
00000240: 3164 24bb 00fd 30bb 2bd9 b23b 997f 34bb
00000250: 0bb8 56bb 5197 c9ba 4f95 8d3b 0445 0638
00000260: f82c 69ba 5711 5b3b 2b8c 7c3b f760 b63b
00000270: 483d 86bb 4350 4c3b 6988 81bb 4dca 3cbb
00000280: 6ec7 a23b 3113 0a3b f612 33bb 91ff c4ba
00000290: d665 663b 1c31 8b3a 0fbf a8ba be82 cbba
000002a0: d3c5 e5ba 842f 74ba c7bd 963b bac3 8abb
000002b0: 2033 7d3b a539 7c3a e57a c33b 3f37 023b
000002c0: 05fd c4bb 3fd0 0abb 92bd 84ba 8591 093b
000002d0: d87c b5bb ff2d 073b feff a2ba 4e77 5ebb
000002e0: 45e1 8bbb b50c 73bb 67be aebb 02dc e4b9
000002f0: 5f34 1c3b 067b 5cbb c4d1 61bb b368 6f39
00000300: f734 a0bb 32a6 8abb f8c3 d1ba b898 823b
00000310: 076a 493b 38d7 923a f571 02bb e481 a7bb
00000320: 5c69 683b c775 6739 664f 273b d245 5bb9
00000330: 4b0e 543b 7c95 3bb8 fdcb 4a3b 5366 80ba
00000340: 5c02 01bb 9521 9b3a 59f2 c1bb 201c 94bb
00000350: 8d50 1d3a b47a bc3b 6ee4 d9ba 74fe f8ba
00000360: 2110 663b 5528 a73b ecf8 6dbb 1875 b03b
00000370: f9dd feba 0366 553b 3648 e83a 25f8 533a
00000380: a67e 9e3b 67a0 93ba 3b15 c4b9 3151 773b
00000390: e3fd 17bb e286 c53a 2a72 663b a269 8f39
000003a0: de6b bd3b 0f8d ca39 b474 293b 3a34 5e3b
000003b0: a90c a33b 21c4 37bb 4fbd 1fb9 df21 1ebb
000003c0: 4151 31bb 7287 22bb 247b 463a 3341 89bb
000003d0: e769 1ebb e3b5 9b3b 7fa6 003b 962c c53b
000003e0: 8f1e 6cba 03a3 6fb9 bd35 4abb 1594 703a
000003f0: 0780 bc3a 14c8 923b e987 94bb 6a56 f4ba

_func._drift._model.2.bias f4 [16]
0.0051269983 -0.0040052338 0.002535633 -0.004373421 -0.002724428 -0.005678091 -0.0034315744 -0.002925761
0.0049222857 -0.003863242 0.00418253 0.00065862143 0.0026668399 0.004067123 0.004492069 -0.0046611778
00000000: 6100 a83b 563e 83bb dd2c 263b ea4e 8fbb
00000010: 518c 32bb 480f babb 44e4 60bb 20be 3fbb
00000020: 204b a13b 722e 7dbb 9b0d 893b 56a7 2c3a
00000030: 26c6 2e3b 8045 853b 3532 933b cbbc 98bb

_func._diffusion._model.0.weight f4 [16, 17]
0.07974593 -0.061225377 -0.040451344 0.074189514 -0.11213336 -0.04549855 0.053761583 0.015065042
-0.021034196 0.08313068 0.067739636 0.061507728 0.026949791 0.024569241 -0.031210179 0.027597796
-0.06411004 -0.050195105 0.011364698 -0.05737306 -0.020821003 -0.012102451 0.04298005 0.022517525
0.04729755 0.029811703 -0.016129803 0.013843247 -0.0006166809 0.044349242 0.041032728 0.003585372
-0.01715267 -0.07633196 0.013588803 0.03478832 0.039010674 0.05251941 -0.035939287 0.05434433
-0.053869396 -0.0021891566 0.03400917 0.03344774 0.053054895 0.06472245 -0.052289493 -0.0019583534
0.041545007 0.018254815 0.0058274423 0.028481428 0.013353884 -0.010280108 -0.021029593 -0.11913978
0.02539519 -0.015591747 0.026470102 -0.082283884 0.073454686 0.017976757 0.04298076 0.03499745
-0.030032253 -0.07764448 -0.036154225 -0.048984155 -0.08499413 0.013913491 0.026835898 -0.07156645
0.06569187 -0.06873022 0.0031147688 -0.09835347 0.031302743 -0.111125335 -0.045430325 -0.025971396
-0.086594194 -0.035534758 0.0053139 -0.04381668 0.011821508 0.08664608 -0.08284496 0.0211363
-0.018944178 -0.10104487 -0.054402046 -0.029617451 0.002038601 -0.07702484 0.06576941 -0.022971733
0.07083008 -0.048720438 -0.044440545 0.033122655 0.048119705 0.002251158 -0.116303846 -0.018503606
-0.024095379 -0.05222076 0.002321475 -0.06610128 0.008451165 -0.018444464 0.05580265 -0.082112774
-0.058206066 -0.052318495 -0.06127628 -0.037328348 0.043300353 -0.090129465 0.041760344 -0.033870805
-0.0023538887 -0.018554049 -0.08390573 -0.0060588 -0.017922934 -0.03595913 -0.06418913 0.004215088
-0.07211006 -0.05214681 -0.07970612 -0.031158041 0.006428954 -0.026817719 -0.065624446 0.028999168
0.03680701 -0.072078936 -0.0055201375 0.031703837 -0.09525213 -0.01483343 0.037700538 0.059172913
-0.001632913 -0.006438723 0.006395726 0.050415535 -0.044943716 0.030785186 -0.05665244 0.019966446
-0.05077304 -0.03625479 0.04638582 0.0049694274 -0.10963124 0.0055000517 -0.035425186 -0.033330627
-0.063605726 0.04261655 -0.046312638 -0.09034763 -0.040719356 -0.011814282 -0.0032379716 -0.00031569126
-0.07777922 0.04447613 -0.09821693 -0.04448521 -0.043446723 -0.022489468 0.047510702 0.01930504
-0.070280574 -0.04286442 0.060278937 -0.1260322 -0.06670347 -0.029021127 -0.045800228 0.0077392375
-0.034978848 -0.046868697 0.022459539 0.0075350646 0.025572984 -0.0028898215 0.03594892 -0.008337214
-0.013551723 -0.004929738 0.053916004 -0.08317853 0.008879134 -0.028089833 0.061441798 0.033374358
-0.08639986 -0.01926246 0.05857562 -0.06246766 -0.06330655 0.004121922 0.0070422366 -0.090942174
0.04054287 0.0028471893 -0.06383266 -0.08094849 0.0161425 -0.04552329 -0.07863066 -0.055021144
-0.04104356 0.026847735 -0.01521428 -0.045580592 0.0593967 0.06415895 0.013179134 -0.0021696994
0.06527875 -0.06799077 -0.037513908 -0.013952303 0.0322321 -0.054869115 0.07781687 0.067085735
0.05383345 0.023184942 0.017835496 -0.014272708 -0.014489445 -0.011853936 0.008890224 0.0027072593
0.025700385 0.009171815 -0.017560286 0.009993581 -0.004902928 0.03615874 -0.076045886 0.01550478
0.027502242 0.032226935 -0.00405417 -0.08942197 -0.031200012 0.039955918 -0.025132917 -0.0035960833
00000000: d651 a33d 76c7 7abd 4fb0 25bd acf0 973d
00000010: 2da6 e5bd b05c 3abd 1b35 5c3d 5ed3 763c
00000020: e84f acbc 6b40 aa3d 14bb 8a3d 87ef 7b3d
00000030: cfc5 dc3c 6f45 c93c 7dac ffbc c614 e23c
00000040: 204c 83bd 6299 4dbd 0033 3a3c 0400 6bbd
00000050: cf90 aabc 5c49 46bc d90b 303d ac76 b83c
00000060: 13bb 413d ac37 f43c a622 84bc c9ce 623c
00000070: c1a8 21ba 8da7 353d ef11 283d 8ff8 6a3b
00000080: c283 8cbc ee53 9cbd 92a3 5e3c 337e 0e3d
00000090: a8c9 1f3d 981e 573d 1335 13bd 2998 5e3d
000000a0: 28a6 5cbd f477 0fbb 334d 0b3d 7f00 093d
000000b0: 1750 593d 348d 843d 822d 56bd b857 00bb
000000c0: 192b 2a3d 1f8b 953c 21f4 be3b e251 e93c
000000d0: 40ca 5a3c e66d 28bc 4146 acbc 8fff f3bd
000000e0: 9309 d03c 8774 7fbc d4d7 d83c 7484 a8bd
000000f0: 696f 963d fe43 933c 980c 303d 7c59 0f3d
00000100: 3306 f6bc 1204 9fbd 7416 14bd 9ca3 48bd
00000110: 6711 aebd 69f5 633c f5d6 db3c 6e91 92bd
00000120: 7689 863d 6ec2 8cbd 2621 4c3b 8b6d c9bd
00000130: 4e37 003d ae95 e3bd 2615 3abd f7c1 d4bc
00000140: 4c58 b1bd e58c 11bd 3920 ae3b 1e79 33bd
00000150: 00af 413c 8073 b13d 9eaa a9bd 0926 ad3c
00000160: d230 9bbc 9df0 cebd aed4 5ebd 4ca0 f2bc
00000170: 0d9a 053b 33bf 9dbd 1db2 863d 372f bcbc
00000180: 5c0f 913d 158f 47bd 4a07 36bd 9fab 073d
00000190: 2b19 453d 2a88 133b b630 eebd e094 97bc
000001a0: ac63 c5bc 70e5 55bd e323 183b 1c60 87bd
000001b0: c176 0a3c d818 97bc 5291 643d be2a a8bd
000001c0: 7c69 6ebd eb4b 56bd d6fc 7abd 9ce5 18bd
000001d0: b65b 313d cc95 b8bd e50c 2b3d 1dbc 0abd
000001e0: b343 1abb a9fe 97bc c4d6 abbd e688 c6bb
000001f0: 1ed3 92bc e149 13bd 9775 83bd b91e 8a3b
00000200: 70ae 93bd e597 55bd f63c a3bd 263f ffbc
00000210: faa9 d23b d5b0 dbbc 1c66 86bd aa8f ed3c
00000220: f3c2 163d 1f9e 93bd 45e2 b4bb e2db 013d
00000230: 8c13 c3bd ea07 73bc e16b 1a3d 4c5f 723d
00000240: 7807 d6ba ecfb d2bb 3d93 d13b 8580 4e3d
00000250: e716 38bd 3731 fc3c 640c 68bd ac90 a33c
00000260: 64f7 4fbd e77f 14bd 0fff 3d3d 94d6 a23b
00000270: 5886 e0bd c739 b43b 001a 11bd b285 08bd
00000280: b843 82bd b18e 2e3d 52b2 3dbd 2e08 b9bd
00000290: 57c9 26bd b190 41bc 2634 54bb 5d83 a5b9
000002a0: b64a 9fbd 9a2c 363d f525 c9bd 2036 36bd
000002b0: 31f5 31bd d53b b8bc 959a 423d 9a25 9e3c
000002c0: 43ef 8fbd 9a92 2fbd 0ce7 763d 960e 01be
000002d0: d49b 88bd b7bd edbc 0599 3bbd 6e99 fd3b
000002e0: fb45 0fbd 64f9 3fbd 11fd b73c b4e8 f63b
000002f0: 6f7e d13c 2963 3dbb 2d3f 133d cf98 08bc
00000300: 0c08 5ebc a489 a1bb 07d7 5c3d 8159 aabd
00000310: ca79 113c a61c e6bc 65aa 7b3d 8db3 083d
00000320: 69f2 b0bd 4ecc 9dbc fdec 6f3d 17de 7fbd
00000330: dda6 81bd 3011 873b 90c2 e63b e43f babd
00000340: 4810 263d e997 3a3b b3ba 82bd 52c8 a5bd
00000350: 473d 843c a176 3abd 1d09 a1bd da5d 61bd
00000360: 4b1d 28bd c8ef db3c 5145 79bc b7b2 3abd
00000370: f449 733d c465 833d 4bed 573c 8431 0ebb
00000380: deb0 853d bf3e 8bbd 2fa8 19bd 3398 64bc
00000390: ce05 043d 70be 60bd 735e 9f3d 3f64 893d
000003a0: 7780 5c3d 59ee bd3c bf1b 923c 14d8 69bc
000003b0: 2365 6dbc 0337 42bc 4da8 113c 466c 313b
000003c0: 9d89 d23c 6145 163c 97da 8fbc 1ebc 233c
000003d0: bea8 a0bb 301b 143d f2bd 9bbd c307 7e3c
000003e0: 624c e13c 6400 043d d8d8 84bb de22 b7bd
000003f0: 2b97 ffbc d1a8 233d 8ce3 cdbc 44ac 6bbb

_func._diffusion._model.0.bias f4 [16]
0.10739613 0.014391528 0.01485876 0.09741347 -0.01127921 0.01462527 -0.058046337 -0.09991991
0.0585561 -0.027315235 -0.019116785 0.04995777 -0.08288522 0.09246488 0.07746743 0.008473865
00000000: 81f2 db3d 72ca 6b3c 2872 733c b780 c73d
00000010: 70cc 38bc d49e 6f3c ffc1 6dbd cfa2 ccbd
00000020: 85d8 6f3d 33c4 dfbc ce9a 9cbc 85a0 4c3d
00000030: babf a9bd 3a5e bd3d 3ea7 9e3d f7d5 0a3c

_func._diffusion._model.2.weight f4 [48, 16]
0.072464064 0.05262356 -0.007941625 0.046074066 -0.09713523 0.04045309 0.00442647 -0.0056256047
0.037322342 -0.08567251 0.010980695 0.061327707 -0.056108993 -0.025306255 -0.018322578 0.07073984
0.035156645 -0.039654467 -0.02771025 0.010242708 -0.07166782 0.050297495 -0.033993963 -0.08740591
0.07720596 -0.008858243 0.009008659 0.066963226 -0.014207936 -0.025846368 -0.029680118 -0.015024497
0.009705253 -0.02326163 -0.0340736 0.097022235 -0.08529599 0.039541792 -0.044868384 0.025063418
-0.013526969 -0.030122358 -0.088980176 -0.021611074 -0.02944162 0.00089368125 0.022255665 -0.019678457
0.07316492 0.058051318 -0.05185981 0.013797428 0.0056460886 -0.017182102 -0.043108877 -0.03370636
0.0554955 -0.04204454 -0.018203076 -0.012314613 -0.023216516 -0.0063166944 0.062429428 0.040237162
0.06714259 0.007342824 -0.008415407 0.0950315 -0.041684575 0.06732107 -0.068094395 0.009380673
0.047051236 -0.08219223 -0.03590995 -0.038113058 -0.027212514 0.0055715274 0.0024870622 0.013935012
0.09065533 0.016881105 -0.049822476 0.06683156 -0.028385747 0.044640858 -0.029060677 -0.017985692
0.03443867 -0.041678485 -0.004924864 0.059753306 -0.09233526 0.023549126 0.020370664 0.06067932
0.07890734 0.03891607 -0.05915786 0.025849449 0.004480721 0.007856364 -0.044160046 -0.07092935
0.05146409 -0.02073043 -0.04062396 0.045568462 -0.04486591 -0.00459222 0.074444965 0.051090624
0.08614322 0.0059412136 -0.034249216 0.0158249 -0.06269738 0.0006950613 -0.012801111 -0.061764754
0.09293562 -0.08460654 -0.024237687 0.058050312 -0.08829669 0.043137167 0.080758385 0.040056255
-0.027019542 -0.022894127 0.000101566715 0.036912277 -0.054730833 0.045987267 -0.022947764 0.02019788
0.041265585 0.008243357 -0.044574324 0.023232173 0.0059500416 0.027826749 0.06727479 0.057601683
-0.0013663038 -0.014037139 -0.009456187 0.018366553 -0.02726968 0.04621264 0.009444418 -0.07791189
0.047352463 -0.0373641 -0.061706115 0.06533289 -0.08987469 0.002523136 0.059745003 -0.030862806
0.0012114687 -0.007369955 0.041522987 0.042935368 -0.10323072 0.0032409756 -0.064574294 -0.07102143
0.014621131 -0.06460779 -0.100852504 0.039106075 -0.0527733 0.07295659 0.019403623 0.06424118
0.08578694 0.0027914436 -0.038725995 0.030048823 -0.090117134 0.025175396 -0.065392986 -0.07769482
-0.022689749 -0.020061748 0.014164927 -0.01226614 -0.08227675 0.017181883 0.032516222 0.07183252
-0.033123307 0.021705182 0.0110851135 -0.049908534 0.0020971133 -0.050241098 0.007647873 -0.027837506
-0.016831672 0.021335084 0.057786845 -0.01790553 0.060367428 -0.048931424 -0.08360644 -0.07250874
0.010062877 -0.007959482 -0.0016893275 -0.097849555 0.015502152 -0.062565155 0.0049168933 0.032392643
-0.07070357 0.013727301 0.04342253 -0.041586142 0.053858627 0.02943987 0.03725045 0.024757205
-0.05177311 0.02343776 0.036267877 -0.050839648 0.07003754 0.010140845 0.03214942 0.08382993
-0.027990187 0.07386984 0.006495908 -0.023670943 0.081638664 -0.052208513 -0.037664607 -0.078145
-0.0072116833 -0.006259417 -0.04251804 0.02868879 -0.040356815 -0.0010478318 -0.06619277 -0.019683816
0.0048673786 -0.08862448 -0.0634467 0.049829084 0.001596534 0.06679842 -0.0027084588 0.030170975
00000000: 0a68 943d cd8b 573d 971d 02bc 29b8 3c3d
00000010: d6ee c6bd 24b2 253d ec0b 913b fe56 b8bb
00000020: 50df 183d 1275 afbd 5fe8 333c c332 7b3d
00000030: 8bd2 65bd 104f cfbc 3b19 96bc 0de0 903d
00000040: 6a00 103d b96c 22bd 9b00 e3bc 08d1 273c
00000050: 94c6 92bd bf04 4e3d 413d 0bbd df01 b3bd
00000060: 291e 9e3d 2a22 11bc 0e99 133c 0424 893d
00000070: 67c8 68bc c3bb d3bc b823 f3bc 4f29 76bc
00000080: c802 1f3c 2d8f bebc c290 0bbd 98b3 c63d
00000090: aaaf aebd 93f6 213d e9c7 37bd cc51 cd3c
000000a0: 38a0 5dbc 2ac3 f6bc 3d3b b6bd b509 b1bc
000000b0: 8d2f f1bc ef45 6a3a 8351 b63c b734 a1bc
000000c0: 7dd7 953d 38c7 6d3d f46a 54bd 9c0e 623c
000000d0: d302 b93b 7bc1 8cbc ef92 30bd ae0f 0abd
000000e0: 404f 633d e536 2cbd 9e1e 95bc 3bc3 49bc
000000f0: 9030 bebc 46fc cebb 00b6 7f3d b9cf 243d
00000100: 0e82 893d 129c f03b c6e0 09bc e09f c23d
00000110: 72bd 2abd a1df 893d 1375 8bbd 65b1 193c
00000120: ccb8 403d 6654 a8bd 5016 13bd 701c 1cbd
00000130: c7ec debc 5c91 b63b fbfd 223b ad4f 643c
00000140: 80a9 b93d 3e4a 8a3c a712 4cbd fcde 883d
00000150: 3a89 e8bc 55d9 363d a810 eebc bb56 93bc
00000160: 900f 0d3d 0fb7 2abd c160 a1bb e2bf 743d
00000170: 451a bdbd 19ea c03c 61e0 a63c e18a 783d
00000180: 2c9a a13d 7566 1f3d 834f 72bd 39c2 d33c
00000190: 03d3 923b fbb7 003c 2ae1 34bd 6843 91bd
000001a0: 02cc 523d ddd2 a9bc 4f65 26bd ffa5 3a3d
000001b0: 51c5 37bd 557a 96bb 9a76 983d 6744 513d
000001c0: db6b b03d 83ae c23b e848 0cbd 38a3 813c
000001d0: 7c67 80bd c634 363a c0bb 51bc 0afd 7cbd
000001e0: 0855 be3d 3246 adbd 1d8e c6bc 2ac6 6d3d
000001f0: e5d4 b4bd 99b0 303d a764 a53d 0712 243d
00000200: 1658 ddbc 778c bbbc 3700 d538 5431 173d
00000210: 702d 60bd 255d 3c3d f3fc bbbc 0676 a53c
00000220: 1a06 293d 250f 073c 9193 36bd 6651 be3c
00000230: 91f8 c23b ecf4 e33c 5dc7 893d beef 6b3d
00000240: 8c15 b3ba 07fc 65bc 1fee 1abc 7475 963c
00000250: aa64 dfbc 7749 3d3d c3bc 1a3c 4590 9fbd
00000260: a8f4 413d 190b 19bd 8dbf 7cbd 40cd 853d
00000270: 3910 b8bd 335b 253b 2db7 743d ffd3 fcbc
00000280: 25ca 9e3a aa7f f1bb 0214 2a3d ffdc 2f3d
00000290: a16a d3bd 8c66 543b 873f 84bd af73 91bd
000002a0: 788d 6f3c 1751 84bd c28b cebd b12d 203d
000002b0: d128 58bd 446a 953d 59f4 9e3c e190 833d
000002c0: 10b1 af3d a7f0 363b 269f 1ebd f328 f63c
000002d0: 558f b8bd a23c ce3c c2ec 85bd 761e 9fbd
000002e0: dadf b9bc 8958 a4bc 0314 683c ecf7 48bc
000002f0: b680 a8bd 05c1 8c3c bb2f 053d ee1c 933d
00000300: 4eac 07bd 11cf b13c 569e 353c e46c 4cbd
00000310: b96f 093b 9cc9 4dbd 029b fa3b 7b0b e4bc
00000320: 93e2 89bc eac6 ae3c e6b1 6c3d 9eae 92bc
00000330: d643 773d 516c 48bd da39 abbd 767f 94bd
00000340: c4de 243c 7d68 02bc 6d6c ddba 5965 c8bd
00000350: bdfc 7d3c 2922 80bd e41d a13b 26ae 043d
00000360: 09cd 90bd 79e8 603c d3db 313d 3b56 2abd
00000370: dd9a 5c3d e22b f13c ee93 183d 9fcf ca3c
00000380: 0a10 54bd 8c00 c03c a08d 143d 3c3d 50bd
00000390: d76f 8f3d c925 263c 1caf 033d 07af ab3d
000003a0: ad4b e5bc 1249 973d a0db d43b 91e9 c1bc
000003b0: 2c32 a73d 98d8 55bd 3446 1abd 7c0a a0bd
000003c0: fc4f ecbb cc1b cdbb 6527 2ebd c104 eb3c
000003d0: 304d 25bd 6757 89ba 1390 87bd f43f a1bc
000003e0: 887e 9f3b c080 b5bd 58f0 81bd 9519 4c3d
000003f0: cb42 d13a 9ccd 883d 6680 31bb 1f29 f73c

_func._diffusion._model.2.bias f4 [48]
0.06725112 0.08607058 0.09860775 0.07835794 0.029521136 0.051520146 0.037099577 0.05788675
0.022235658 0.02834732 0.1094931 0.026676742 -0.042145308 -0.014976603 -0.0777835 0.0012274806
0.0057728486 0.06851215 -0.054471616 -0.104966976 -0.09190409 -0.01010717 -0.05017986 -0.10237221
-0.0236195 -0.021053435 0.058119796 -0.071025886 -0.026048247 -0.0431637 -0.013578858 -0.056932926
-0.10733051 0.093966834 0.07143626 0.08662515 0.0428428 0.010196257 0.018239018 0.0043135625
-0.026035635 -0.071078874 0.04596579 0.070651494 0.09584614 -0.05431991 -0.017653553 0.0011838975
00000000: f5ba 893d c645 b03d dcf2 c93d 217a a03d
00000010: 4fd6 f13c ca06 533d baf5 173d a81a 6d3d
00000020: 8e27 b63c a438 e83c eb3d e03d 2f89 da3c
00000030: 8fa0 2cbd 6d60 75bc f54c 9fbd 6ae3 a03a
00000040: 2a2a bd3b 1950 8c3d a11d 5fbd edf8 d6bd
00000050: 3638 bcbd 8b98 25bc 6689 4dbd 85a8 d1bd
00000060: af7d c1bc 4178 acbc 060f 6e3d 0576 91bd
00000070: 2263 d5bc 6bcc 30bd dc79 5ebc 8032 69bd
00000080: 19d0 dbbd af71 c03d 2d4d 923d 8768 b13d
00000090: ef7b 2f3d 340e 273c fe69 953c c958 8d3b
000000a0: af48 d5bc cd91 91bd a046 3c3d bbb1 903d
000000b0: fb4a c43d 8e7e 5ebd 2f9e 90bc 022d 9b3a

_readout.weight f4 [1, 16]
-0.095748 -0.19295703 -0.2400587 -0.20734473 0.07937368 -0.09942493 0.009469049 0.12900753
-0.027246363 0.07160935 0.08836069 -0.2698376 -0.23646112 -0.0045304373 -0.06828283 0.14555024
00000000: 8717 c4bd 8796 45be f3d1 75be 2d52 54be
00000010: ab8e a23d 4c9f cbbd 1224 1b3c 8d1a 043e
00000020: c433 dfbc eca7 923d 73f6 b43d 2728 8abe
00000030: dd22 72be 1074 94bb ded7 8bbd 1f0b 153e

_initial._model.0.weight f4 [16, 2]
-2.477065e-06 -0.3462097 -2.652817e-06 1.2030793 3.6872132e-07 -0.71648365 5.6092445e-06 -0.5687125
-4.181716e-06 -0.3149426 2.855279e-06 -0.69550115 2.9056823e-06 0.8867788 -1.6934598e-06 1.3313483
2.1076467e-07 -0.7406382 -3.2261757e-06 0.72924083 -3.8531716e-06 0.115631804 5.6448625e-06 -0.341386
-5.8305927e-06 -1.3858649 2.783789e-06 0.36453468 1.1962129e-06 0.6126188 -1.6487578e-06 0.6149678
00000000: a73b 26b6 6642 b1be 0d07 32b6 81fe 993f
00000010: acf4 c534 796b 37bf 0b37 bc36 2497 11bf
00000020: ab50 8cb6 2840 a1be 529d 3f36 5d0c 32bf
00000030: 3eff 4236 ef03 633f d64a e3b5 9f69 aa3f
00000040: 8d4e 6234 779a 3dbf 4781 58b6 87af 3a3f
00000050: 7e4a 81b6 5ed0 ec3d 0069 bd36 25ca aebe
00000060: 69a4 c3b6 0564 b1bf 21d1 3a36 4aa4 ba3e
00000070: 908d a035 96d4 1c3f e34a ddb5 886e 1d3f

_initial._model.0.bias f4 [16]
-0.5042617 -0.031080255 0.075712495 0.5454867 -0.24772002 0.0011891391 -0.32278913 -0.51931393
0.7543008 0.1444101 -0.072793946 -0.12321848 -0.21601667 -0.3484526 0.06457492 0.36912727
00000000: 4b17 01bf 059c febc 270f 9b3d 04a5 0b3f
00000010: 51aa 7dbe e3dc 9b3a 9e44 a5be c2f1 04bf
00000020: db19 413f 3ee0 133e fe14 95bd f859 fcbd
00000030: 7933 5dbe 6168 b2be db3f 843d 40fe bc3e

_initial._model.2.weight f4 [16, 16]
-0.038950752 -0.48487025 -0.018753352 -0.06100665 -0.24709667 -0.15263282 -0.15314528 -0.19201079
-0.0439036 -0.21402885 0.000810268 -0.1687991 -0.18515961 -0.10729424 0.08567277 -0.20650475
0.10224698 0.3756998 0.419947 0.2704723 0.16523227 0.3788385 0.233775 0.26581684
0.20772928 0.21942486 -0.002910552 0.13950726 0.5048137 -0.17787625 0.06501105 0.2807187
-0.27835813 0.37960187 0.12984636 0.15511239 -0.37169644 0.14661494 0.06900976 0.12293739
0.2499813 0.4435714 -0.2694107 -0.26591006 0.28297627 -0.026710356 0.06751638 0.53006554
0.01539615 0.60363156 0.17153208 0.09994688 -0.071348414 0.08765583 0.32510513 0.42723066
0.17949544 0.11374322 -0.19178097 0.17524531 0.2754656 -0.034166574 0.31916645 0.02068294
-0.10787553 0.44988403 0.18689032 0.15590951 -0.06406506 0.33300364 0.095211126 0.49377996
-0.15834084 0.29935962 -0.19336818 0.11678459 0.60751665 0.033442732 -0.07821681 -0.015822927
0.025187882 0.5138382 -0.06223135 0.09288796 0.23729427 0.2175251 0.27838346 0.4661247
0.08186823 0.30012316 0.13040845 -0.0782541 0.31624886 0.16413812 0.10837935 -0.06863111
0.21431091 -0.0046677794 0.0060523665 -0.103786916 0.31143308 -0.087813154 0.09350526 -0.011843078
-0.16424444 -0.4168344 0.09143252 0.39768955 0.14554144 -0.011201933 -0.05494862 -0.0760684
-0.15670511 -0.318709 0.05211623 -0.28350297 0.075419456 -0.12954292 -0.1729883 -0.41181123
-0.13500518 0.00860032 0.12372769 -0.03676825 -0.60025066 0.06608037 0.048169617 -0.23845348
0.30809546 0.13595223 -0.05788008 0.112210445 0.1472532 0.08561917 0.3256684 0.50238794
-0.10898725 0.21712916 -0.0075601256 0.18886042 0.61335117 0.13182235 -0.16540799 0.2221321
0.1344774 -0.22920796 -0.23307124 -0.009999389 -0.1334546 -0.45677096 -0.24531236 -0.28758097
-0.21183777 -0.0056586927 0.20517293 0.058698375 -0.6248233 -0.12916991 -0.120862335 0.01569439
-0.11981205 0.13407677 0.18865179 -0.14674506 -0.06831313 0.4130571 0.29017726 0.3299025
0.007525167 0.24525006 -0.09637186 0.27507523 0.21716693 0.17113982 -0.018677188 -0.054180145
-0.08863978 0.24548009 0.18150717 0.101298556 0.2018583 0.35925964 0.20262718 0.105268374
0.20545289 0.04905033 -0.08291469 0.07600583 0.5884017 -0.14682595 0.15909243 0.081195
-0.035238992 0.29593846 0.13642861 -0.18405159 0.08245246 0.31022692 0.31484663 0.34712246
0.2011664 0.23023109 -0.083808884 -0.07622551 0.5499091 0.3422155 0.21745479 0.17096661
0.15687102 0.37296903 0.37942886 0.27154785 -0.07255155 0.4647708 0.32008335 0.07474525
0.17001317 0.0074446197 -0.10979645 0.10331214 0.60803604 -0.15398754 0.16870558 0.21113959
0.31597382 -0.24275616 0.3039861 0.17807119 0.1523603 0.44662857 0.15908886 -0.041932322
-0.06630984 -0.0807345 -0.0261803 0.41181043 0.3570121 -0.061298307 -0.07292623 -0.30503514
5.366812e-05 -0.4127418 -0.23253481 0.066730626 -0.2335401 -0.20022419 -0.2943624 -0.4043896
-0.1570476 -0.1310278 -0.02042677 -0.20490372 -0.4605304 -0.2325164 -0.0020330476 -0.08214777
00000000: d38a 1fbd ea40 f8be a1a0 99bc 1ce2 79bd
00000010: e906 7dbe c74b 1cbe 1ed2 1cbe 7a9e 44be
00000020: 43d4 33bd 612a 5bbe 2a68 543a acd9 2cbe
00000030: 7b9a 3dbe 15bd dbbd 3575 af3d fb75 53be
00000040: dd66 d13d b95b c03e 4b03 d73e 587b 8a3e
00000050: a632 293e 1ff7 c13e b762 6f3e 2519 883e
00000060: fcb6 543e e9b0 603e f6be 3ebb feda 0e3e
00000070: 783b 013f 3125 36be 8324 853d 5dba 8f3e
00000080: f584 8ebe 2d5b c23e 72f6 043e c8d5 1e3e
00000090: ff4e bebe 3a22 163e fd54 8d3d 99c6 fb3d
000000a0: 19fb 7f3e ca1b e33e 33f0 89be 5d25 88be
000000b0: 44e2 903e adcf dabc 0746 8a3d 60b2 073f
000000c0: 2240 7c3c 9987 1a3f 1ba6 2f3e f3b0 cc3d
000000d0: 1e1f 92bd e684 b33d 2e74 a63e fabd da3e
000000e0: a7cd 373e 35f2 e83d 3b62 44be 8273 333e
000000f0: d409 8d3e 40f2 0bbd c969 a33e 456f a93c
00000100: d9ed dcbd 3357 e63e 2d60 3f3e bea6 1f3e
00000110: 8b34 83bd 747f aa3e 0dfe c23d bad0 fc3e
00000120: 1a24 22be aa45 993e 4f02 46be c22c ef3d
00000130: 3686 1b3f 3ffb 083d 2330 a0bd 159f 81bc
00000140: d156 ce3c e68a 033f 4de6 7ebd 0b3c be3d
00000150: 45fd 723e e6be 5e3e 4788 8e3e e6a7 ee3e
00000160: 88aa a73d bea9 993e cb89 053e b043 a0bd
00000170: 5feb a13e d313 283e fef5 dd3d 788e 8cbd
00000180: 5274 5b3e 2cf4 98bb ee52 c63b 3c8e d4bd
00000190: 2874 9f3e 62d7 b3bd b07f bf3d 7809 42bc
000001a0: b22f 28be 526b d5be f940 bb3d f79d cb3e
000001b0: d108 153e 5088 37bc ce11 61bd c0c9 9bbd
000001c0: 4e77 20be d32d a3be d477 553d 4d27 91be
000001d0: 8475 9a3d e6a6 04be d823 31be ecd8 d2be
000001e0: cc3e 0abe 5be8 0c3c f164 fd3d 4e9a 16bd
000001f0: 07aa 19bf 2555 873d 814d 453d 262d 74be
00000200: b0be 9d3e 1037 0b3e aa13 6dbd 97ce e53d
00000210: 8bc9 163e 1a59 af3d 02be a63e 7f9c 003f
00000220: b534 dfbd 1b57 5e3e eeba f7bb a064 413e
00000230: 9504 1d3f 70fc 063e b660 29be 9976 633e
00000240: 72b4 093e 7eb5 6abe 3aaa 6ebe 7ad4 23bc
00000250: 53a8 08be e2dd e9be 2a33 7bbe d03d 93be
00000260: 00ec 58be 8e6c b9bb da18 523e b56d 703d
00000270: 6bf4 1fbf 1e45 04be ac86 f7bd 8591 803c
00000280: 0560 f5bd 6c4b 093e ef2d 413e 5644 16be
00000290: c1e7 8bbd 387c d33e 1d92 943e fbe8 a83e
000002a0: ad95 f63b d522 7b3e 9c5e c5bd a9d6 8c3e
000002b0: 0261 5e3e 473f 2f3e e700 99bc 00ec 5dbd
000002c0: c688 b5bd 225f 7b3e 04dd 393e 9e75 cf3d
000002d0: f1b3 4e3e e1f0 b73e 807d 4f3e f296 d73d
000002e0: 3e62 523e 00e9 483d 2dcf a9bd f2a8 9b3d
000002f0: 7ea1 163f 8b59 16be 20e9 223e 9049 a63d
00000300: c356 10bd 3f85 973e f1b3 0b3e 0578 3cbe
00000310: d6dc a83d 10d6 9e3e 9433 a13e 09ba b13e
00000320: 91fe 4d3e b3c1 6b3e fea3 abbd 1f1c 9cbd
00000330: d8c6 0c3f df36 af3e 78ac 5e3e df11 2f3e
00000340: cca2 203e ccf5 be3e 8044 c23e 5208 8b3e
00000350: e895 94bd 70f6 ed3e f7e1 a33e 0a14 993d
00000360: ef17 2e3e fff1 f33b f6dc e0bd 5195 d33d
00000370: 40a8 1b3f e9ae 1dbe 28c1 2c3e fa34 583e
00000380: 52c7 a13e 1295 78be 11a4 9b3e 4b58 363e
00000390: 5704 1c3e 80ac e43e 31e8 223e 3ac1 2bbd
000003a0: 74cd 87bd 2158 a5bd 1278 d6bc d1d8 d23e
000003b0: 4aca b63e ef13 7bbd 595a 95bd 912d 9cbe
000003c0: b419 6138 e552 d3be 9b1d 6ebe 11aa 883d
000003d0: 2325 6fbe 9207 4dbe abb6 96be 270c cfbe
000003e0: 16d1 20be 272c 06be 0b56 a7bc 48d2 51be
000003f0: a4ca ebbe c718 6ebe e13c 05bb 173d a8bd

_initial._model.2.bias f4 [16]
0.33762813 0.10717234 0.3157201 -0.019536698 -0.21753214 0.11285292 -0.33984458 0.028589793
-0.24604408 -0.22683142 0.103174314 0.19111821 -0.08026047 0.0426516 -0.29122528 0.15066512
00000000: 98dd ac3e 2c7d db3d 11a6 a13e 6d0b a0bc
00000010: bfc0 5ebe 6f1f e73d 1c00 aebe 2435 ea3c
00000020: fbf2 7bbe 7f46 68be 0e4d d33d 7eb4 433e
00000030: 9a5f a4bd 72b3 2e3d 7b1b 95be f547 1a3e
