hyperparameter_tuning/ray_results/SUD_learning_rate_tuning/MyTrainableClass_9236c5c7_13_batch_size=16,name=SUD_v2,patience=1000,steps=200,steps_per_print=5,swa_step_start=2500,t_size=7,trai_2024-03-12_14-12-24/checkpoint_000000/checkpoint.pt (torch, 61346 bytes, 66 tensors)

_initial._model.0.weight f4 [16, 5]
0	0xbf545c15	-0.82953006
1	0xc006c4b2	-2.1057553
2	0xbfb8d8e8	-1.4441195
3	0xbf913d2e	-1.1346796
4	0xc031a67a	-2.775786
5	0xbfe05c24	-1.7528119
6	0xc05b5270	-3.4269066
7	0xc071eb40	-3.7799835
8	0xc0510137	-3.2656991
9	0x402102ea	2.5158029
10	0x40397141	2.8975375
11	0xc020fe24	-2.5155115
12	0x40526b48	3.287798
13	0xc06340a8	-3.5508213
14	0x3fff827c	1.9961696
15	0x3f81e200	1.0147095
16	0x404b1872	3.173367
17	0xc014222e	-2.3145862
18	0x404af34c	3.1710997
19	0x3e657200	0.22406769
20	0x402f47fe	2.738769
21	0xbf8b36b0	-1.0876064
22	0xbe595710	-0.21224618
23	0xc01c5efc	-2.4432974
24	0x3faef319	1.3667938
25	0xc02d49f9	-2.70764
26	0xbf87863b	-1.0587839
27	0xc03eba4e	-2.9801211
28	0xbfd3a2c8	-1.6534052
29	0x3df8bf95	0.121459164
30	0xc04efa9a	-3.2340455
31	0x3f46b41d	0.7761858
32	0xc027471b	-2.613715
33	0xbdb71fef	-0.08941638
34	0xbf6517bf	-0.8948936
35	0xbf5c55a4	-0.8606818
36	0xbf515903	-0.81776446
37	0x3fca70b2	1.5815642
38	0x3f1d9856	0.6156057
39	0x40029d95	2.040868
40	0xbf0b9469	-0.5452333
41	0xc06823ba	-3.6271806
42	0xc05c73f3	-3.444577
43	0x406caf00	3.6981812
44	0xc05bf198	-3.4366207
45	0x4026cba0	2.6061783
46	0x3f222914	0.6334393
47	0x3fcb147d	1.5865628
48	0x3fdf1ef7	1.7431325
49	0xbefd7d26	-0.49509543
50	0x403b6918	2.9282894
51	0x3dfa1423	0.12210872
52	0xbff118f0	-1.8835735
53	0xbf1f61db	-0.6225869
54	0xbfc003e8	-1.5001192
55	0x3f872c91	1.0560476
56	0xc02cbc4c	-2.6989927
57	0xc061f901	-3.530823
58	0x406438db	3.5659702
59	0x3f43eda8	0.7653451
60	0x3e86afa2	0.26305872
61	0x3f9b3256	1.2124736
62	0x4011e490	2.2795753
63	0xbe4095ad	-0.18807097
64	0x4023d03b	2.5595844
65	0xc07837e9	-3.8784125
66	0xbff4b07a	-1.9116356
67	0xbf2004f5	-0.62507564
68	0x3fe672ab	1.8003744
69	0xc018982f	-2.3842885
70	0x403c6e67	2.9442384
71	0x404f84d7	3.242483
72	0x4042301c	3.0341864
73	0xc077201c	-3.8613348
74	0xc05593e7	-3.3371522
75	0xbf83db1a	-1.030124
76	0x3ef1eb6c	0.47249925
77	0x404a0186	3.156343
78	0x3f41b947	0.75673336
79	0x405a6d79	3.4129317

_initial._model.0.bias f4 [16]
0	0x3ff629b5	1.9231478
1	0xc05caf18	-3.4481869
2	0xbfc3f3ce	-1.5308778
3	0x3f4737c6	0.7781948
4	0x3ed19abf	0.40938374
5	0xc060beda	-3.5116487
6	0xbfd0bbd5	-1.6307322
7	0x401dd52b	2.4661357
8	0x3fe7dbc9	1.8113948
9	0xbf48b831	-0.78406054
10	0xc0607058	-3.506857
11	0x40645fd9	3.56835
12	0xc0041616	-2.063848
13	0x3fa562d8	1.292079
14	0xbf1a8aa1	-0.6036778
15	0x3e478641	0.19484808

_initial._model.2.weight f4 [16, 16]
0	0xbe5d7d71	-0.21629883
1	0xbe9facb3	-0.31186447
2	0x3d486ea0	0.048933625
3	0xbfc2d53d	-1.5221325
4	0x3ffae328	1.9600573
5	0xbfd25f7c	-1.643539
6	0x3f307a52	0.68936646
7	0x3e3300f5	0.17480834
8	0xbf4d2850	-0.80139637
9	0x3fdfaa5b	1.7473863
10	0xbe9aea96	-0.302571
11	0xbfbf8744	-1.4963155
12	0x3f2162c8	0.63041353
13	0xbf2aed0c	-0.66767955
14	0x3fd2771b	1.6442598
15	0xc00480dd	-2.0703652
16	0x3f940eea	1.1567051
17	0xbf04af1b	-0.5182969
18	0xc0193a6e	-2.3941913
19	0x40071f88	2.1112995
20	0x3fbeed10	1.4916096
21	0x3f1f72e9	0.62284714
22	0x3f6410ad	0.89087945
23	0xbfdd4115	-1.7285486
24	0x40142a64	2.3150873
25	0x3b44158c	0.002992007
26	0xbeeee8d8	-0.4666202
27	0xc003273e	-2.0492702
28	0xbfb317c2	-1.3991625
29	0xbec7d201	-0.39027408
30	0xbf694167	-0.9111542
31	0x3f966e5f	1.1752433
32	0xbd29b5c7	-0.041433122
33	0x3fd979f5	1.6990343
34	0x3f0e6446	0.55621755
35	0xbf73a172	-0.9516822
36	0x3f6b14e2	0.9182874
37	0x40158244	2.3360758
38	0xbf39a6ac	-0.72519946
39	0xbf4ff30b	-0.8123023
40	0xbe664166	-0.22485885
41	0x3f4a29b6	0.78969896
42	0xbfae2cf7	-1.3607472
43	0xbe51807d	-0.2045917
44	0xbfa63565	-1.2985045
45	0x3fc2708a	1.5190594
46	0xbefe3d0a	-0.49655944
47	0x3fbf422d	1.494207
48	0xbec3e434	-0.38260043
49	0xbff8a4d2	-1.9425299
50	0x3f80d89d	1.0066105
51	0xbf97ffb7	-1.1874913
52	0xbff29b74	-1.895369
53	0x4013acd5	2.3074238
54	0xbeec1524	-0.4610988
55	0x3e957b30	0.29195547
56	0xbfc60b70	-1.547224
57	0xc0027a14	-2.038701
58	0x3fb564ff	1.4171447
59	0xbf428456	-0.7598318
60	0x3f5d1926	0.863665
61	0x3f3f83a7	0.7481026
62	0x3f769448	0.9632001
63	0xc00f2d50	-2.2371407
64	0xbf21845a	-0.6309258
65	0x3f023a84	0.5087054
66	0xbfd614a4	-1.6725049
67	0x3ff70331	1.9297849
68	0x3fb27bb9	1.3944007
69	0xc00dd133	-2.2158935
70	0x3fe279cb	1.7693418
71	0x3f4a72a3	0.7908117
72	0x3fce7d8b	1.6132063
73	0x3fbb6878	1.4641256
74	0x3f9398f3	1.1531051
75	0x3f5eac68	0.8698182
76	0x3fb26851	1.3938085
77	0xbf477033	-0.7790558
78	0x3fa4ffae	1.2890527
79	0xbfe85178	-1.8149862
80	0xbf298328	-0.66215754
81	0x3f0d02e9	0.55082566
82	0xc001a70a	-2.0258203
83	0x401bf3f2	2.4367642
84	0xbf8acfbf	-1.0844649
85	0xbfabbad4	-1.341639
86	0xbfd074ae	-1.6285608
87	0xbf087de8	-0.5331712
88	0xbfb30bef	-1.3988017
89	0x400168c4	2.0220194
90	0x3ede7198	0.4344604
91	0x3fe79564	1.8092465
92	0x3ec0cdba	0.37656957
93	0xbfeea9f6	-1.8645618
94	0x3f4f6986	0.8102039
95	0xbc105979	-0.008810394
96	0xbdaf2226	-0.08551435
97	0xbf0481b9	-0.5176044
98	0x3e718c73	0.23588733
99	0x3eeaa97f	0.4583244
100	0x3f4da0cf	0.803235
101	0xbdbbad0e	-0.09163867
102	0x3f843abf	1.0330428
103	0x3f143823	0.5789816
104	0x3fd68745	1.6760031
105	0xbd2bd073	-0.04194684
106	0xbf2781c3	-0.65432376
107	0xbf9d45fe	-1.2286985
108	0x3ff4aa54	1.911448
109	0x3f8a8a12	1.0823386
110	0x3fd01ae7	1.625821
111	0x3f5a0f31	0.8517943
112	0xbd7d078c	-0.061774775
113	0xc0116eb8	-2.2723827
114	0xbfacd5d3	-1.3502754
115	0xbeb7c27a	-0.3589056
116	0x3f7f0ca6	0.99628675
117	0xc007dd33	-2.122876
118	0xc014f2e1	-2.3273242
119	0x3fd4e54e	1.6632478
120	0xbfad2beb	-1.3529028
121	0x3ead9973	0.33906135
122	0x3f1a5bf5	0.60296565
123	0x3f918ac2	1.137047
124	0x3d124bfe	0.035717003
125	0xbf973ab9	-1.1814796
126	0xbecce7c7	-0.40020582
127	0xbf2baf87	-0.6706471
128	0x3fb2adb0	1.3959255
129	0x3f2735d4	0.6531651
130	0x3e97b7b2	0.29632336
131	0x3fbf3624	1.4938397
132	0xc015bcc5	-2.3396466
133	0xbe206f48	-0.1566745
134	0x3f213066	0.62964475
135	0x3eef0634	0.4668442
136	0xbfa2e25a	-1.2725327
137	0xbfe906dc	-1.8205218
138	0xbee7fcaa	-0.45309955
139	0xbe5e3498	-0.2169975
140	0xbfd6fbde	-1.6795614
141	0x3e9c16d2	0.3048616
142	0x3f6d977b	0.92809266
143	0x3f148511	0.58015543
144	0x3f8af713	1.0856651
145	0x3e0f2d29	0.13982071
146	0x40077f9d	2.117164
147	0x3f91138e	1.1334093
148	0xbf6cc14c	-0.9248245
149	0xc00f8c60	-2.2429428
150	0xbe4d27d6	-0.20034727
151	0x3f33168b	0.6995627
152	0x3ff9c641	1.9513627
153	0xbf16032c	-0.5859859
154	0x3ce5b688	0.02804114
155	0xbf575b95	-0.8412412
156	0x3f3d3673	0.7391121
157	0x3e2ca81a	0.16861
158	0x3f085ef4	0.53269887
159	0xbfbd147e	-1.4771879
160	0x3f928346	1.1446311
161	0xc01104b6	-2.2659125
162	0x3f9a0539	1.2032844
163	0xbec3857f	-0.38187787
164	0xbfae5e69	-1.3622562
165	0x3f7c7cab	0.9862773
166	0xbfa010bc	-1.2505107
167	0x3ff78be7	1.933957
168	0x3ffa94f1	1.9576703
169	0xbff040be	-1.8769758
170	0xbfe2bf14	-1.7714562
171	0x3f427350	0.759572
172	0xbfc2c95a	-1.5217698
173	0xbfa670f6	-1.3003223
174	0x3f82aa88	1.0208292
175	0x3ff0d57c	1.881515
176	0x3e180d41	0.14848806
177	0xbfbd7dbd	-1.4803997
178	0x3f7315bb	0.94955033
179	0xbd9bab97	-0.076010875
180	0xbfcfa3c9	-1.6221858
181	0x401118b3	2.2671325
182	0xbfb188eb	-1.3869909
183	0xbf0fa3cc	-0.5610931
184	0x3f028c61	0.5099545
185	0xbf83e988	-1.0305643
186	0xbf21447e	-0.62995136
187	0x3f5a7c61	0.8534604
188	0xbed7a480	-0.4211769
189	0x3d7034c5	0.058644075
190	0x3f972410	1.180788
191	0x3f8e7a52	1.1131079
192	0xbf93ed5c	-1.1556811
193	0xbfe07bdb	-1.7537798
194	0x3fef403e	1.869148
195	0x3d941fe1	0.07232643
196	0xbfbe27f0	-1.4855938
197	0xbff8be0d	-1.9432999
198	0xbfa7a3c6	-1.3096855
199	0xbdffd949	-0.12492616
200	0xbebb8079	-0.36621454
201	0xbf4d0195	-0.8008054
202	0x40016b3a	2.0221696
203	0x4012f131	2.2959712
204	0x3fdb49f8	1.7131948
205	0xbff9cff6	-1.951659
206	0xbfb00b33	-1.3753418
207	0x3fc770e2	1.5581324
208	0xbf507518	-0.8142867
209	0xbdca9040	-0.09890795
210	0xbf471ce0	-0.77778435
211	0x3ff76295	1.932696
212	0x40112a31	2.2682002
213	0x3fb07a49	1.3787318
214	0x3fe81c8a	1.813371
215	0xbfcd36e2	-1.6032374
216	0x3ff00d9c	1.8754153
217	0x3db10e39	0.08645291
218	0xc0084646	-2.1292892
219	0xbdced0a0	-0.10098386
220	0x3fcb374e	1.5876253
221	0xbf3b1a6f	-0.7308721
222	0xbf0459d3	-0.5169956
223	0xbf26ea73	-0.6520149
224	0xbf850b60	-1.0394096
225	0x3fbec1d5	1.4902903
226	0x3f992ab1	1.1966153
227	0x3ccdf46d	0.025140965
228	0x3fdd7bf9	1.7303458
229	0x3f2bc539	0.6709781
230	0xbf6fb3ef	-0.9363393
231	0xbfd32ff8	-1.6499014
232	0x3e8f3500	0.27970123
233	0xbf41f7d2	-0.7576877
234	0xbf1fadfc	-0.62374854
235	0x3fa92699	1.3214904
236	0x3fb0e363	1.3819393
237	0xbee039f9	-0.4379423
238	0xbf2227d6	-0.63342035
239	0x3f47874f	0.7794084
240	0x3e8e6fad	0.27819577
241	0x3f3578c4	0.708874
242	0x3f6291e2	0.8850385
243	0x3fb5cf4e	1.4203889
244	0xbff02907	-1.876252
245	0x3d994ba6	0.07485132
246	0x3f1d9096	0.61548746
247	0x3ed0f4d8	0.408118
248	0xbf3f85c5	-0.7481349
249	0xbfec06f3	-1.8439621
250	0x3ffb87f8	1.9650869
251	0xbfd572b9	-1.6675636
252	0x3f9fce04	1.2484746
253	0xc00ee4fb	-2.2327259
254	0x3f00f7ce	0.5037812
255	0x3fe0fcf6	1.7577198

_initial._model.2.bias f4 [16]
0	0x3f080f24	0.531481
1	0xbea36093	-0.31909618
2	0x401b8fda	2.430655
3	0xbf9b9568	-1.215497
4	0xc01a3913	-2.4097335
5	0x3e37dc21	0.17955066
6	0xbf93046d	-1.1485726
7	0xbf68a41b	-0.90875405
8	0x3fe4be2d	1.7870537
9	0xbbc82b5d	-0.006108685
10	0xc00c5f65	-2.1933224
11	0xbf2742b9	-0.65336186
12	0xbfae80f8	-1.3633108
13	0xc011214b	-2.267657
14	0x3f61c76f	0.88194937
15	0xc009fc62	-2.1560292

_func._drift._model.0.weight f4 [16, 17]
0	0x3a328c03	0.00068110245
1	0xbbb1dad9	-0.0054277
2	0x3ba05872	0.004893356
3	0xb9a851e1	-0.00032104462
4	0x3aec7706	0.0018040843
5	0x3a90dc63	0.0011052008
6	0xbb3635f0	-0.0027803145
7	0x39df3046	0.0004256984
8	0x3ae73982	0.001764104
9	0xbbaca05d	-0.00526814
10	0xbb9276b4	-0.004469717
11	0xbb8e630c	-0.0043453034
12	0xb995213f	-0.00028444265
13	0xbb39192a	-0.0028243759
14	0xbbafda3b	-0.0053665913
15	0x3baa8538	0.005203869
16	0x3b96ab01	0.004598022
17	0xbb0451c3	-0.0020190335
18	0xbb85203c	-0.0040626805
19	0x3b311568	0.0027020816
20	0xba800f79	-0.0009770236
21	0xbb4fdc95	-0.003171717
22	0xbbaba745	-0.005238446
23	0x38412878	4.6052475e-05
24	0xbb3e59ae	-0.0029045152
25	0x3ac31924	0.0014884812
26	0x3abf86fa	0.001461237
27	0xba342ebd	-0.00068734196
28	0x3bbd5e2a	0.0057790475
29	0xba9239e7	-0.0011156172
30	0x3bb84cb5	0.0056243786
31	0x3ae041f3	0.0017109498
32	0x3adf7e95	0.0017051274
33	0x3b9b8e04	0.004747154
34	0xbafc4642	-0.0019247013
35	0x3bb03194	0.005377004
36	0x3b28b07f	0.0025739965
37	0xbad4ce95	-0.0016235883
38	0x3b2e2dbc	0.0026577553
39	0xbbb6ce41	-0.0055787866
40	0x3a3d6340	0.0007224567
41	0xbaa5f4c2	-0.0012661444
42	0xba9b090d	-0.0011828259
43	0xbb978353	-0.0046238094
44	0x3b3cebea	0.002882714
45	0x3b048da4	0.0020226026
46	0xbb1def59	-0.002409896
47	0x3b9591fb	0.0045645214
48	0xba903e54	-0.0011004903
49	0xb9124c1b	-0.00013951997
50	0xbb6390f7	-0.0034723857
51	0x3af12bbd	0.0018399876
52	0x3b0914e8	0.0020917002
53	0x3a8535c8	0.0010163123
54	0x39c153d8	0.00036874297
55	0xbbb8f781	-0.005644739
56	0x3b9fc988	0.0048763193
57	0xb9707fc5	-0.00022935781
58	0x3b60602b	0.0034237008
59	0x3b68fab1	0.0035549814
60	0xbba54e69	-0.0050447476
61	0x3b7c5dd2	0.003850807
62	0xbb80f013	-0.003934869
63	0x3aefcc6e	0.0018295178
64	0x3ba3f424	0.005003469
65	0x3ba35d98	0.0049855225
66	0x3aebe703	0.0017997924
67	0xbba8b83d	-0.005148916
68	0x3b4a7f84	0.003089876
69	0xbb647e38	-0.0034865271
70	0x3b189ce4	0.0023286873
71	0xbbb2100e	-0.005434043
72	0xbb1dcaac	-0.00240771
73	0xbb90aeb8	-0.0044153593
74	0xba92c918	-0.0011198847
75	0xbb01ada2	-0.001978733
76	0xbbb7c14e	-0.0056077605
77	0xbbb9daf4	-0.005671853
78	0x3a4b5ca8	0.00077576423
79	0x3a4ec0c0	0.00078869984
80	0xbb1569c7	-0.0022798644
81	0xbb48f696	-0.0030664555
82	0xbb9115ac	-0.0044276323
83	0xbb675fae	-0.0035304832
84	0xbb11ce96	-0.002224838
85	0xbb1ca85a	-0.0023904056
86	0x3b705efe	0.0036677714
87	0x3ac49f7b	0.0015001142
88	0x3b9c2bd4	0.004765967
89	0xbb9d1833	-0.0047941445
90	0x3b0632c2	0.0020477031
91	0x3aadac6a	0.0013250236
92	0xbb997ed2	-0.0046843076
93	0x3b4af8a3	0.0030970953
94	0xbb22ec25	-0.0024859991
95	0xbb168cab	-0.0022972028
96	0x3b04b691	0.002025042
97	0x3ab130a6	0.0013518527
98	0x39a3c469	0.0003123612
99	0x3baa4265	0.005195903
100	0xbad8b6ea	-0.0016534005
101	0xbb681f29	-0.0035418964
102	0xbbbd6c8c	-0.005780762
103	0x3aa1cf8a	0.0012345177
104	0xbb930ed8	-0.0044878535
105	0x3b9a22e8	0.004703868
106	0x3ae0c2eb	0.0017147934
107	0xbab3ac2a	-0.0013707925
108	0x3b7297a5	0.0037016657
109	0x3ba5ac9f	0.0050559784
110	0x3b8b4537	0.0042501944
111	0xbb121d02	-0.0022295122
112	0x3a07c671	0.00051794114
113	0xbb499148	-0.003075676
114	0x3b6bed4d	0.0035999597
115	0x3bb31bc3	0.005465956
116	0xb92f1f7b	-0.00016701028
117	0x3b7a9685	0.003823669
118	0x3b0020da	0.001955083
119	0x3b39e6cd	0.0028366328
120	0xbb8d7984	-0.0043174643
121	0xbb82fa2c	-0.003997108
122	0xbba1ec91	-0.004941531
123	0x3bb5a981	0.005543888
124	0x3b1b0589	0.0023654422
125	0x3b8c0bda	0.0042738738
126	0x3b82fd06	0.003997448
127	0x3b9902e0	0.004669532
128	0xbab85de2	-0.0014066065
129	0xbbb8b4ae	-0.005636773
130	0x3a385615	0.000703187
131	0xbb1bcd3b	-0.002377345
132	0x3b1f71cc	0.0024329303
133	0x3b233312	0.0024902266
134	0x3a12e13b	0.000560302
135	0xbbb5f08e	-0.005552358
136	0x3accaf8e	0.0015616284
137	0xbb506201	-0.0031796696
138	0xbb2ea2ac	-0.0026647253
139	0x3b918660	0.0044410676
140	0xbb43b761	-0.002986394
141	0x3af0e99f	0.0018380171
142	0xbad9fcdf	-0.0016631148
143	0x3974e042	0.00023353196
144	0xbb30e551	-0.0026992152
145	0xbb09529b	-0.0020953778
146	0x3ba1ad8c	0.0049340185
147	0x3b4fb595	0.0031693925
148	0xbba13b9b	-0.0049204356
149	0x3ba947e2	0.00516604
150	0xbb642b89	-0.0034815988
151	0xbb74a64b	-0.0037330564
152	0xbba8876b	-0.005143096
153	0xb9ae5139	-0.00033248382
154	0xbb2d7795	-0.0026468982
155	0xbbb94299	-0.005653691
156	0x3b218aa3	0.0024649284
157	0xbab9cb93	-0.001417505
158	0x3b12210d	0.0022297532
159	0xbb90a799	-0.0044145104
160	0xbb712248	-0.0036794115
161	0xbb59cd2a	-0.003323386
162	0xb9c6e8a9	-0.00037938848
163	0xbba72d18	-0.005101811
164	0x3a867f11	0.0010261257
165	0xb84bbef5	-4.8576814e-05
166	0x3b9a9fa2	0.0047187367
167	0xb9adf5e9	-0.0003318035
168	0x3ba48094	0.0050202105
169	0x3b422340	0.0029623061
170	0x3696d33c	4.4949393e-06
171	0xb97adc6c	-0.00023923971
172	0x39e08f4b	0.0004283137
173	0x3a02080a	0.00049603044
174	0xbab9ac4f	-0.0014165732
175	0xbb64a4ff	-0.0034888384
176	0xba37fe6d	-0.00070188084
177	0xbb455abf	-0.0030113903
178	0xbab63556	-0.0013901393
179	0xbb9a0fce	-0.004701591
180	0x3b9716bb	0.004610864
181	0x3b31457d	0.0027049475
182	0xbada98fe	-0.0016677675
183	0xbafc77ab	-0.0019261738
184	0x3bb4e8a3	0.0055208965
185	0xbbb029b7	-0.0053760665
186	0xbbb67715	-0.005568395
187	0xba9642bd	-0.0011463981
188	0x3ac7fa41	0.0015257077
189	0xbb90ade5	-0.004415261
190	0x3b6e5aa7	0.003636995
191	0xbad1ebdc	-0.0016015726
192	0x3b8f0656	0.004364769
193	0x3b7b12d3	0.003831078
194	0xbb84db93	-0.0040544956
195	0x3b50ae7b	0.003184228
196	0x3b3e8126	0.0029068678
197	0xba6a09ed	-0.00089278707
198	0x3b84ef12	0.0040568197
199	0xbb9d1bf6	-0.004794593
200	0x3aa7a492	0.0012790135
201	0xbab492ba	-0.0013776638
202	0xb8ae5097	-8.3119776e-05
203	0xbb0fe45c	-0.002195618
204	0xbb21c119	-0.0024681746
205	0x3b7c7506	0.00385219
206	0x3b5ce18f	0.003370378
207	0x3b85ae80	0.00407964
208	0xbb92c2fb	-0.00447881
209	0x3a395110	0.0007069269
210	0x39c2d48b	0.0003716092
211	0xbb88b92d	-0.0041724653
212	0x3b6f124a	0.0036479407
213	0xbaf0c8e9	-0.0018370423
214	0xbb46e872	-0.003035095
215	0xb9822524	-0.00024823204
216	0x3b309213	0.0026942536
217	0x3ade945b	0.0016981469
218	0x3b97d9a2	0.004634098
219	0x3a0e5073	0.0005428858
220	0xbb9ee59c	-0.004849149
221	0xbb07f49c	-0.0020745164
222	0xba5b6308	-0.0008368944
223	0x3ba8d004	0.0051517505
224	0x3b29408a	0.0025825822
225	0x3acf4bcf	0.0015815439
226	0xbb9a76d7	-0.004713874
227	0xbb2899a8	-0.0025726352
228	0x3b180da4	0.002320149
229	0xbb4d2d94	-0.0031307684
230	0xbb073212	-0.002062921
231	0x3bb4de8a	0.005519693
232	0x3a9e5660	0.0012080185
233	0x3b22d12e	0.002484392
234	0x3b7130c1	0.0036802741
235	0xbbb3d77a	-0.0054883333
236	0x3ad42147	0.0016184234
237	0xbb8d733e	-0.0043167165
238	0xbae9f44d	-0.0017849297
239	0x3b35da0b	0.0027748372
240	0xbbb53446	-0.005529913
241	0x3b855a26	0.0040695844
242	0x3ae96817	0.001780751
243	0x3b62c18c	0.0034600226
244	0x3b2bd27a	0.0026217983
245	0x3b20b586	0.002452226
246	0xb91c0e79	-0.00014882711
247	0x3bb098e6	0.0053893207
248	0xbb4ae3f8	-0.0030958634
249	0xba2528c3	-0.00063003245
250	0xbaa0e904	-0.0012276475
251	0x3acf1c20	0.0015801229
252	0x3b3ca7ec	0.0028786613
253	0x3b657c27	0.0035016628
254	0x3b32d992	0.0027290327
255	0xbb8122c9	-0.0039409143

_func._drift._model.0.bias f4 [16]
0	0x3bb580d0	0.0055390373
1	0xb9c52494	-0.0003760202
2	0x3b180170	0.0023194216
3	0x3b0dc4ed	0.002163227
4	0xb7c7676d	-2.377081e-05
5	0xbb149f65	-0.0022678014
6	0x3b80a755	0.0039261975
7	0xbbacc259	-0.0052721915
8	0xbbab09db	-0.0052196807
9	0xbba7dd0a	-0.0051227855
10	0xbb0a8f22	-0.0021142443
11	0x3aab43a1	0.001306642
12	0xb9aba34e	-0.00032737333
13	0x38f789ed	0.000118035685
14	0x3b975d00	0.0046192408
15	0xbb985c6a	-0.0046496885

_func._drift._model.2.weight f4 [16, 16]
0	0xbb23138e	-0.0024883482
1	0x3b1137e4	0.0022158558
2	0xbbb04fb4	-0.005380595
3	0xbbc1cd99	-0.0059144017
4	0xbb77e562	-0.0037825932
5	0xbbb9ba8f	-0.0056679915
6	0xbb05c936	-0.002041412
7	0xbbb22908	-0.00543702
8	0xba34164f	-0.00068697793
9	0x3b4eabb9	0.003153546
10	0xbba091d0	-0.0049001947
11	0xbbbb1d2f	-0.005710266
12	0x3b617890	0.0034404136
13	0xbafffb46	-0.0019529841
14	0x3b1eebb3	0.0024249374
15	0x3b2ea0dc	0.0026646173
16	0xbaa9552b	-0.0012919059
17	0xb9d047f0	-0.0003972645
18	0xb8a348cf	-7.786007e-05
19	0xbb9a2a4b	-0.0047047487
20	0x3bb19523	0.00541939
21	0xb99b2762	-0.00029593246
22	0x3b0a948e	0.0021145674
23	0x3a78a05d	0.0009484345
24	0x3ba28620	0.0049598366
25	0xbb9bbef8	-0.00475299
26	0xbb806352	-0.00391809
27	0xb9141282	-0.00014121275
28	0xbb18cd55	-0.0023315747
29	0x3b05bff4	0.0020408602
30	0x3baecf7c	0.0053347927
31	0xb9aa8894	-0.00032526685
32	0xbba81966	-0.005129981
33	0x3ba26183	0.004955472
34	0xbac29a04	-0.0014846926
35	0x3afad473	0.0019136801
36	0xbafe1064	-0.0019383547
37	0x3bae643d	0.005322008
38	0xbb5f2b05	-0.0034052741
39	0x3a43ba10	0.0007466385
40	0x3b2ff36f	0.0026847979
41	0xbba0bced	-0.004905334
42	0x3adbdd31	0.0016774294
43	0xbb61df9b	-0.0034465555
44	0x3bac1ddf	0.0052525843
45	0x3b9f1fc1	0.0048560803
46	0x3af60d1d	0.0018772219
47	0xbb3eec0c	-0.0029132394
48	0x3963818d	0.00021696668
49	0x3ba6b28e	0.0050872033
50	0x3b74f18d	0.003737542
51	0xbb386c14	-0.0028140591
52	0xbb52f39b	-0.0032188657
53	0xbac2d2fc	-0.0014863904
54	0xbadcd1fd	-0.0016847249
55	0xbb3d3c76	-0.002887515
56	0xbbbf3bec	-0.0058360007
57	0x3861f42e	5.387159e-05
58	0x3aab397d	0.0013063397
59	0xbb8a3c29	-0.0042185974
60	0x3b47fc15	0.0030515243
61	0xbb29fac6	-0.0025936826
62	0x3b6e4dc8	0.003636228
63	0xbb2dacda	-0.0026500733
64	0x3bb15098	0.005411219
65	0xbb61de53	-0.003446479
66	0x3aa5237d	0.0012599077
67	0x3adb65e8	0.0016738744
68	0x3b8f075d	0.0043648914
69	0x3b40adfd	0.002940058
70	0xbb9a3c2e	-0.004706881
71	0xba85c4d4	-0.0010205754
72	0xb99b9ba0	-0.00029679853
73	0x3b51229b	0.0031911496
74	0xbb5615f4	-0.0032666894
75	0x3b4c213d	0.0031147741
76	0xbb7af0d0	-0.0038290508
77	0x3b19419e	0.0023385058
78	0xbb8ad813	-0.004237184
79	0x3ab96f96	0.0014147635
80	0xb7d01155	-2.4803603e-05
81	0x3b90dd0b	0.0044208816
82	0xbb34655d	-0.0027526238
83	0x3ac98468	0.0015374543
84	0xbb893da8	-0.004188258
85	0xbb38d7b7	-0.0028204748
86	0x3b5402ef	0.0032350381
87	0x3aab04fc	0.001304775
88	0x3b99285c	0.0046740007
89	0x3b2f2a17	0.0026727968
90	0x3b6f99c4	0.0036560157
91	0xbb44c8d7	-0.0030026936
92	0x3a15338f	0.0005691582
93	0xbbb0af0a	-0.00539196
94	0x3ae4507a	0.0017419003
95	0xba8b1203	-0.0010610226
96	0x3b0eea40	0.0021807104
97	0xbb067941	-0.002051905
98	0xbad686c1	-0.0016367064
99	0x3b6779a9	0.0035320318
100	0x3b642090	0.0034809448
101	0x3bab1ccc	0.0052219387
102	0xbbb92b2c	-0.0056508984
103	0xbb06a7da	-0.0020546825
104	0xbba82c4d	-0.005132234
105	0x3a99bfa7	0.001173009
106	0x3ba95fa6	0.005168873
107	0xbae83b89	-0.0017717938
108	0xba1d22f8	-0.00059942855
109	0xbae0c9eb	-0.001715002
110	0xbb058841	-0.0020375403
111	0x3ad6b712	0.0016381464
112	0x3b82ecb0	0.0039955005
113	0xbb7cf151	-0.0038595984
114	0x3b9c84f2	0.0047765905
115	0x3b922f3c	0.004461197
116	0xb977c3df	-0.00023628723
117	0xbb866c40	-0.00410226
118	0xbb981ac0	-0.0046418607
119	0xba86bab5	-0.0010279032
120	0xb98abd9f	-0.0002646269
121	0xbb962f0b	-0.0045832447
122	0xbbb6bd8f	-0.0055767964
123	0x3aee30eb	0.0018172538
124	0x39f8f95d	0.00047488036
125	0x3b86e635	0.0041167983
126	0x3a964578	0.0011464795
127	0x3b165711	0.002294008
128	0x3a249e91	0.0006279732
129	0x3b224e08	0.0024765749
130	0xbb2ebc38	-0.002666248
131	0x37f3d729	2.906805e-05
132	0x3b4f2418	0.0031607207
133	0x3afebd72	0.0019435121
134	0x3b362222	0.002779134
135	0xbba9545a	-0.005167526
136	0xb827f6c6	-4.004573e-05
137	0xbb49221b	-0.0030690494
138	0xbab804a1	-0.0014039465
139	0x3b2e73fd	0.0026619427
140	0xba9cbadd	-0.0011957545
141	0xbb38a212	-0.0028172773
142	0xb9047ed2	-0.00012635745
143	0xbb743765	-0.0037264463
144	0xbb2296f3	-0.002480921
145	0xbb2f0c59	-0.002671024
146	0x3bb0e34b	0.005398189
147	0xbb328515	-0.0027239968
148	0xbb545e21	-0.0032404738
149	0xbac7624d	-0.0015211791
150	0x3b8c0827	0.004273433
151	0x3804cc6b	3.166163e-05
152	0xba669f30	-0.00087975245
153	0x3b58ab33	0.0033061027
154	0x3b79c7ee	0.0038113552
155	0x3bb46129	0.0055047465
156	0xbb84c4ca	-0.0040517794
157	0x3b4a1396	0.0030834428
158	0xbb801d23	-0.0039097234
159	0xbb3ab93f	-0.0028491763
160	0x3ba0feb6	0.0049131764
161	0x3b088fec	0.0020837737
162	0xbb311c73	-0.0027025014
163	0xbac2d775	-0.0014865237
164	0x3b63dfdb	0.003477088
165	0x3a89aab4	0.0010503144
166	0xbaa6e593	-0.0012733213
167	0xbac94853	-0.0015356637
168	0xbae3419a	-0.0017338276
169	0xba7182c7	-0.0009212908
170	0x3b9516e5	0.0045498484
171	0xbb893e7d	-0.0041883574
172	0x3b7a6d0f	0.0038211977
173	0x3a79764d	0.00095162244
174	0x3bc1570a	0.0059002684
175	0x3b00ca0c	0.001965168
176	0xbbc2d4f2	-0.005945795
177	0xbb094ae1	-0.0020949172
178	0xba834948	-0.0010016346
179	0x3b080faa	0.002076129
180	0xbbb37f8e	-0.005477852
181	0x3b05b2d7	0.0020400786
182	0xbaa136aa	-0.0012299616
183	0xbb5c079e	-0.0033573876
184	0xbb8a58e5	-0.004222023
185	0xbb706329	-0.0036680198
186	0xbbacd40f	-0.005274303
187	0xb9e25a5a	-0.00043173396
188	0x3b1a7e21	0.0023573714
189	0xbb5a10ec	-0.0033274246
190	0xbb5f58a7	-0.003407994
191	0x396cc963	0.00022581736
192	0xbb9e737e	-0.004835545
193	0xbb892152	-0.0041848803
194	0xbacf77f8	-0.00158286
195	0x3b812a76	0.0039418293
196	0x3b473583	0.0030396886
197	0x3a913b4b	0.0011080293
198	0xbb01041c	-0.0019686287
199	0xbba5abe3	-0.005055891
200	0x3b65ddb7	0.003507478
201	0x3964ecd0	0.00021831994
202	0x3b2579f0	0.0025249682
203	0xb958df16	-0.00020682471
204	0x3b51bbdb	0.003200284
205	0xb83987d6	-4.4233944e-05
206	0x3b489394	0.0030605542
207	0xba7dfc7e	-0.00096888083
208	0xbaff311e	-0.0019469594
209	0x3a996e5d	0.0011705864
210	0xbbbfd2d3	-0.0058539896
211	0xbb927ca5	-0.004470425
212	0x3a1b9731	0.000593531
213	0x3bba6a87	0.0056889686
214	0xbad78196	-0.0016441818
215	0xbaf64435	-0.0018788638
216	0x3b638b17	0.0034720355
217	0x3ba55354	0.005045334
218	0xbb6b5da5	-0.003591397
219	0x3bae85ef	0.0053260247
220	0xbafc1337	-0.0019231801
221	0x3b530fcc	0.003220546
222	0x3ae5bcef	0.001752762
223	0x3a51a5f3	0.00079974456
224	0x3b9cc1fc	0.004783867
225	0xba920245	-0.0011139592
226	0xb9c1efaf	-0.00036990407
227	0x3b749ba9	0.0037324226
228	0xbb16537d	-0.0022937946
229	0x3ac35d4a	0.0014905122
230	0x3b63ec0c	0.0034778146
231	0x398dd759	0.00027054062
232	0x3bbb590b	0.005717402
233	0x39c85557	0.00038210556
234	0x3b279938	0.0025573503
235	0x3b5bc547	0.0033534335
236	0x3ba1432f	0.004921339
237	0xbb35c06d	-0.0027733103
238	0xb91dfd1e	-0.0001506698
239	0xbb1c6636	-0.0023864633
240	0xbb2f5fae	-0.002675991
241	0xbb20bf6c	-0.0024528159
242	0x3a444edb	0.0007488557
243	0xbb87c03c	-0.004142789
244	0xbb1cad74	-0.0023907097
245	0x3b9a010b	0.0046998314
246	0x3afe7b6a	0.0019415442
247	0x3bc303f9	0.0059514013
248	0xba69887e	-0.00089085835
249	0xb96d030e	-0.00022603219
250	0xbb47fef9	-0.0030516966
251	0x3a6df179	0.0009076815
252	0x3aba6fc9	0.0014223988
253	0x3b912c53	0.0044303327
254	0xbb92e73d	-0.004483132
255	0xbaf1a941	-0.0018437282

_func._drift._model.2.bias f4 [16]
0	0x3ba62900	0.0050708055
1	0xbb81ce3f	-0.003961354
2	0x3b245a97	0.002507841
3	0xbb8dbcec	-0.0043254998
4	0xbb309748	-0.002694564
5	0xbbb805e9	-0.005615939
6	0xbb5e6dc2	-0.0033939932
7	0xbb3da4cb	-0.0028937336
8	0x3b9f8699	0.00486834
9	0xbb7a686f	-0.003820922
10	0x3b878d31	0.0041367044
11	0x3a2ac2df	0.00065140234
12	0x3b2cdbb8	0.002637608
13	0x3b83cfb6	0.004022564
14	0x3b91954b	0.004442846
15	0xbb97104e	-0.004610098

_func._diffusion._model.0.weight f4 [16, 17]
0	0x3da2dab4	0.079518706
1	0xbd7d4fca	-0.06184367
2	0xbd2a3030	-0.04154986
3	0x3d94c017	0.07263201
4	0xbde68508	-0.112558424
5	0xbd3c9b4b	-0.046046536
6	0x3d59959f	0.053121205
7	0x3c69da2d	0.014273209
8	0xbcac729f	-0.02105075
9	0x3da7f348	0.08200699
10	0x3d88d6a7	0.06681567
11	0x3d783188	0.06059411
12	0x3ccb76fc	0.02483701
13	0x3cc4462a	0.023959238
14	0xbd028823	-0.03186811
15	0x3cd8d185	0.026467094
16	0xbd83e7fb	-0.06440731
17	0xbd4f1f56	-0.050566994
18	0x3c31bb50	0.010847881
19	0xbd6b91ea	-0.0575122
20	0xbcb1d65d	-0.021708662
21	0xbc454750	-0.012040928
22	0x3d2dd6fd	0.042441357
23	0x3cb4a47b	0.022051087
24	0x3d3ecc88	0.046581775
25	0x3cf5ae7a	0.029990423
26	0xbc8a8dbb	-0.016913285
27	0x3c567b24	0.013090882
28	0xbaa50c16	-0.0012592103
29	0x3d3065b9	0.04306576
30	0x3d281053	0.041031193
31	0x3b5f6aa1	0.0034090655
32	0xbc8d0772	-0.017215464
33	0xbd9c5692	-0.076336995
34	0x3c66e014	0.01409151
35	0x3d0f6387	0.035007026
36	0x3d1f058a	0.03882364
37	0x3d577863	0.052605044
38	0xbd13ab74	-0.036052182
39	0x3d60303a	0.054733492
40	0xbd5b22b8	-0.053499907
41	0xbac3291d	-0.0014889572
42	0x3d0c94fa	0.034321763
43	0x3d0a8aee	0.0338239
44	0x3d5bb096	0.053635202
45	0x3d863c60	0.06554484
46	0xbd50f07f	-0.051010605
47	0xbaddba5b	-0.00169165
48	0x3d28eb7e	0.041240208
49	0x3c9264c1	0.017870309
50	0x3bbb9f16	0.0057257516
51	0x3ce79762	0.028270427
52	0x3c53c653	0.012925702
53	0xbc3b21f5	-0.01142167
54	0xbcb9a22f	-0.022660343
55	0xbdf4d4da	-0.11954661
56	0x3ccc3626	0.024928164
57	0xbc841161	-0.016121568
58	0x3cd2ce10	0.025733024
59	0xbda88778	-0.082289636
60	0x3d94247c	0.07233521
61	0x3c8ca728	0.01716955
62	0x3d2ced4e	0.0422185
63	0x3d0842ba	0.03326676
64	0xbcfad3dd	-0.030618602
65	0xbda0633d	-0.07831428
66	0xbd185030	-0.037185848
67	0xbd49a607	-0.0492306
68	0xbdac7006	-0.08419804
69	0x3c528f8e	0.012851609
70	0x3cd4030f	0.025880365
71	0xbd93b45f	-0.072121374
72	0x3d83471f	0.0641005
73	0xbd8bac63	-0.068199895
74	0x3b398cd3	0.0028312698
75	0xbdc7ea8c	-0.09761533
76	0x3cf81abf	0.030286191
77	0xbde46a45	-0.11153082
78	0xbd391dc9	-0.04519442
79	0xbcd4e906	-0.02599002
80	0xbdb3b0c1	-0.087739475
81	0xbd132ea9	-0.03593317
82	0x3bb1323f	0.005407601
83	0xbd335361	-0.04378069
84	0x3c311e97	0.010810516
85	0x3db1cb2b	0.08681329
86	0xbda9eb0c	-0.08296785
87	0x3ca1b70e	0.019740608
88	0xbca61f30	-0.020278543
89	0xbdcfe2c4	-0.10150674
90	0xbd5fcfff	-0.05464172
91	0xbcf62dfa	-0.03005122
92	0x3ad0512c	0.0015893332
93	0xbd9e2227	-0.07721358
94	0x3d84b671	0.064801104
95	0xbcc11713	-0.023570573
96	0x3d8fd279	0.07022566
97	0xbd4f3ab3	-0.05059309
98	0xbd39233d	-0.04519962
99	0x3d056aa0	0.03257239
100	0x3d41b26c	0.047289297
101	0x3b0e3a22	0.002170213
102	0xbdeffe9e	-0.11718486
103	0xbc98bd24	-0.018644877
104	0xbcc7fbf3	-0.024412131
105	0xbd5a8361	-0.05334795
106	0x3b24b9f8	0.002513526
107	0xbd87f3e9	-0.06638319
108	0x3bfc5837	0.0077009457
109	0xbc9c7886	-0.019100439
110	0x3d628925	0.055306572
111	0xbdaa254d	-0.08307896
112	0xbd6c1d0d	-0.057644892
113	0xbd56657d	-0.05234288
114	0xbd7be974	-0.061501935
115	0xbd19ad5d	-0.037518848
116	0x3d31a9b6	0.04337474
117	0xbdb8a7b7	-0.09016364
118	0x3d2851d3	0.04109366
119	0xbd0ef66b	-0.03490297
120	0xbb24f180	-0.002516836
121	0xbc96124f	-0.018319277
122	0xbdae9f30	-0.08526456
123	0xbbbbc740	-0.0057305396
124	0xbc92e5aa	-0.017931778
125	0xbd1478e6	-0.03624811
126	0xbd83c2f7	-0.06433671
127	0x3b7dac52	0.0038707447
128	0xbd95532d	-0.07291255
129	0xbd52b969	-0.051446352
130	0xbda2f271	-0.07956398
131	0xbcfce959	-0.030872988
132	0x3bd5e875	0.006527955
133	0xbcd7bf95	-0.02633647
134	0xbd869047	-0.065704875
135	0x3cecd470	0.028909892
136	0x3d167d77	0.036740746
137	0xbd942634	-0.07233849
138	0xbbd91866	-0.006625223
139	0x3cf9033d	0.030397052
140	0xbdc3c150	-0.09558356
141	0xbc79077c	-0.015199538
142	0x3d18234d	0.03714304
143	0x3d6edc7f	0.05831575
144	0xbafefb13	-0.0019453488
145	0xbbf68fc8	-0.0075244643
146	0x3bb863a8	0.0056271143
147	0x3d4b0338	0.049563617
148	0xbd40a9ed	-0.047037054
149	0x3cf5b273	0.029992318
150	0xbd6a3373	-0.057177972
151	0x3c9d5a77	0.019208176
152	0xbd509e0f	-0.050931986
153	0xbd168ff3	-0.036758374
154	0x3d395fd8	0.04525742
155	0x3b9fb957	0.004874389
156	0xbde261a9	-0.110537834
157	0x3b92e858	0.004483264
158	0xbd10c256	-0.035341583
159	0xbd0a4169	-0.033753786
160	0xbd8379f2	-0.064197436
161	0x3d2b7388	0.041858226
162	0xbd4184d1	-0.047245804
163	0xbdb9f981	-0.09080792
164	0xbd296113	-0.041352343
165	0xbc55b180	-0.013042808
166	0xbb4aab88	-0.0030924994
167	0x395dab01	0.00021139906
168	0xbd9e9cf5	-0.07744781
169	0x3d32818a	0.04358057
170	0xbdcc069d	-0.09962199
171	0xbd333375	-0.043750245
172	0xbd2d16ef	-0.0422582
173	0xbcc413c3	-0.023935204
174	0x3d478ae6	0.04871645
175	0x3ca30795	0.019901076
176	0xbd8d9a00	-0.06914139
177	0xbd33bb71	-0.04387993
178	0x3d74721c	0.059679136
179	0xbe00c12c	-0.12573689
180	0xbd892e16	-0.06698243
181	0xbcf80b9f	-0.030278979
182	0xbd3c3f38	-0.045958728
183	0x3be16d75	0.0068795034
184	0xbd0a0459	-0.033695552
185	0xbd435d98	-0.04769668
186	0x3cbad8b4	0.02280841
187	0x3beed630	0.0072887167
188	0x3ccbd5d6	0.024882238
189	0xbb7677dc	-0.0037608063
190	0x3d0dbfb1	0.03460664
191	0xbc116a82	-0.008875491
192	0xbc68ce3b	-0.014209325
193	0xbbc73387	-0.0060791406
194	0x3d5a2a0f	0.053262766
195	0xbdab00f4	-0.08349791
196	0x3c01ffd4	0.007934529
197	0xbcecf527	-0.028925491
198	0x3d7843b4	0.06061144
199	0x3d00e4da	0.03146825
200	0xbdb20496	-0.08692281
201	0xbca3433c	-0.01992952
202	0x3d6cdcf3	0.0578279
203	0xbd809154	-0.06277719
204	0xbd809cbf	-0.06279897
205	0x3b5ddc97	0.0033853406
206	0x3bcc71c5	0.0062391483
207	0xbdbc24eb	-0.09186729
208	0x3d1fba8a	0.038996257
209	0x3b60fa6b	0.0034328948
210	0xbd833902	-0.06407358
211	0xbda57169	-0.08078272
212	0x3c7afa23	0.015318426
213	0xbd3d7243	-0.046251547
214	0xbda0b1d1	-0.07846416
215	0xbd62411b	-0.05523787
216	0xbd2dd31c	-0.042437658
217	0x3cd5f903	0.026119715
218	0xbc7689b5	-0.01504748
219	0xbd3a0e82	-0.045423992
220	0x3d6da259	0.058016155
221	0x3d83649a	0.064156726
222	0x3c4d5e46	0.012534684
223	0xbb5e3175	-0.003390399
224	0x3d829778	0.063765466
225	0xbd8c8b5c	-0.06862518
226	0xbd1b9234	-0.037981227
227	0xbc725f79	-0.01479327
228	0x3d021589	0.03175882
229	0xbd62a1cb	-0.05533008
230	0x3d9d896c	0.07692227
231	0x3d884bb4	0.06655064
232	0x3d5a8234	0.053346828
233	0x3cb07201	0.021538736
234	0x3c8bcc41	0.01706517
235	0xbc74eeb0	-0.014949486
236	0xbc7c48dd	-0.015398231
237	0xbc4750d5	-0.012165268
238	0x3c114483	0.008866432
239	0x3b060cb9	0.002045436
240	0x3ccaa9e2	0.02473921
241	0x3c007d87	0.007842428
242	0xbc937fe4	-0.018005319
243	0x3c1a1422	0.009404214
244	0xbbbb04ae	-0.005707345
245	0x3d119c63	0.035549533
246	0xbd9bf39a	-0.07614823
247	0x3c6f24c0	0.014596164
248	0x3cdb0194	0.026734151
249	0x3d00f647	0.03148487
250	0xbbc14423	-0.005898015
251	0xbdb816e7	-0.08988743
252	0xbd02b05d	-0.031906474
253	0x3d1ec7c1	0.03876472
254	0xbccf49a2	-0.025303666
255	0xbb66c414	-0.0035212087

_func._diffusion._model.0.bias f4 [16]
0	0x3ddb221d	0.10699866
1	0x3c62a292	0.013832705
2	0x3c7c293e	0.015390692
3	0x3dc6d406	0.09708409
4	0xbc2b696b	-0.010462145
5	0x3c6fd594	0.014638323
6	0xbd71a04b	-0.058990758
7	0xbdce57c0	-0.10075331
8	0x3d6ec4cf	0.05829316
9	0xbce36443	-0.02775777
10	0xbcaa1d5b	-0.02076595
11	0x3d4b5199	0.049638364
12	0xbda877a0	-0.08225942
13	0x3dbd309f	0.09237789
14	0x3d9e2344	0.0772157
15	0x3c09780f	0.008390441

_func._diffusion._model.2.weight f4 [48, 16]
0	0x3d93c882	0.07215978
1	0x3d5653e3	0.052326094
2	0xbc0dbcc2	-0.00865096
3	0x3d3d5e6c	0.046232626
4	0xbdc9067e	-0.098156914
5	0x3d26feea	0.04077045
6	0x3b52cff7	0.0032167414
7	0xbbe602b3	-0.0070193647
8	0x3d199ca8	0.037502915
9	0xbdb10430	-0.08643377
10	0x3c304930	0.010759637
11	0x3d7a6aab	0.061136883
12	0xbd6a0070	-0.057129323
13	0xbcd2a1e2	-0.025711957
14	0xbc96dc36	-0.018415552
15	0x3d917140	0.07101679
16	0x3d1091b2	0.035295196
17	0xbd22928e	-0.039690547
18	0xbce3c3fd	-0.027803415
19	0x3c2e5d9c	0.010642435
20	0xbd94e8e0	-0.0727098
21	0x3d5171ba	0.05113385
22	0xbd0f6f50	-0.035018265
23	0xbdb5482f	-0.088516586
24	0x3d9edc44	0.07756856
25	0xbc1d76ae	-0.009610815
26	0x3c0d58b9	0.00862711
27	0x3d897239	0.06711239
28	0xbc7ad484	-0.015309457
29	0xbcd4ab27	-0.025960518
30	0xbcf0abbd	-0.029378766
31	0xbc6a2118	-0.014290117
32	0x3c1c2e6b	0.009532551
33	0xbcbd5354	-0.023111023
34	0xbd0de970	-0.03464645
35	0x3dc75f66	0.09734993
36	0xbdafe864	-0.08589247
37	0x3d21f127	0.03953662
38	0xbd3afb6e	-0.04564994
39	0x3cc4cae4	0.024022527
40	0xbc5b54eb	-0.013386945
41	0xbcfc4846	-0.030796181
42	0xbdb660ea	-0.08905204
43	0xbcb20a1e	-0.02173334
44	0xbcf70730	-0.030154794
45	0x3a2b6494	0.00065381196
46	0x3cb57a06	0.022152912
47	0xbc9e3ad9	-0.01931517
48	0x3d94d5fe	0.07267378
49	0x3d6c394f	0.05767184
50	0xbd577a51	-0.052606884
51	0x3c61c704	0.013780359
52	0x3b9231f0	0.0044615194
53	0xbc8bf3f3	-0.017084097
54	0xbd34bf41	-0.044127706
55	0xbd0f6852	-0.035011597
56	0x3d63361f	0.055471536
57	0xbd2f464f	-0.04279166
58	0xbc9580cd	-0.018249894
59	0xbc4e510d	-0.012592566
60	0xbcc62e9c	-0.024192147
61	0xbbe06c88	-0.0068488754
62	0x3d7eef6f	0.06224006
63	0x3d252830	0.04032153
64	0x3d890768	0.06690866
65	0x3be84d20	0.007089272
66	0xbc10a488	-0.00882829
67	0x3dc2c92d	0.095110275
68	0xbd2e774e	-0.042594247
69	0x3d8b2201	0.06793595
70	0xbd8cf809	-0.068832465
71	0x3c0abf4d	0.008468461
72	0x3d410304	0.047122017
73	0xbda94bb1	-0.0826639
74	0xbd1336ae	-0.03594082
75	0xbd1cb9cd	-0.03826313
76	0xbce60894	-0.028080262
77	0x3ba680a8	0.005081255
78	0x3b24f40e	0.0025169882
79	0x3c6d519b	0.014484788
80	0x3db8fe08	0.090328276
81	0x3c8af991	0.016964706
82	0xbd4f25fb	-0.05057333
83	0x3d896b62	0.06709935
84	0xbcece278	-0.028916582
85	0x3d361cc0	0.044461012
86	0xbcf27114	-0.029594935
87	0xbc98d8c4	-0.01865805
88	0x3d0d0c35	0.03443547
89	0xbd2cbe7f	-0.04217386
90	0xbb9f92a3	-0.0048697754
91	0x3d74284b	0.05960874
92	0xbdbe1260	-0.092808485
93	0x3cbe378a	0.023219842
94	0x3ca5f115	0.020256558
95	0x3d7a0eda	0.06104932
96	0x3da043de	0.07825445
97	0x3d1d6ae4	0.038432017
98	0xbd763075	-0.060104806
99	0x3cd277d3	0.025691902
100	0x3b640fb7	0.0034799406
101	0x3c010096	0.007873675
102	0xbd381674	-0.044943288
103	0xbd935419	-0.07193775
104	0x3d52249c	0.051304445
105	0xbcaea1f8	-0.021317467
106	0xbd25baa2	-0.04046119
107	0x3d38c166	0.045106314
108	0xbd3afac3	-0.0456493
109	0xbbaecba1	-0.005334333
110	0x3d97bfd6	0.07409637
111	0x3d514626	0.05109229
112	0x3dafcc18	0.0858385
113	0x3bb8a02c	0.0056343284
114	0xbd0e4c74	-0.03474088
115	0x3c81dd40	0.01585257
116	0xbd820cfa	-0.06350131
117	0x3ab3a5ea	0.0013706062
118	0xbc5c8a5f	-0.013460725
119	0xbd800908	-0.062517226
120	0x3dbe5ad4	0.09294668
121	0xbdae1b7f	-0.08501338
122	0xbcc5fb7c	-0.024167769
123	0x3d6cc9c9	0.057809625
124	0xbdb6614c	-0.08905277
125	0x3d2e30c6	0.042526983
126	0x3da55d8a	0.08074482
127	0x3d264823	0.04059614
128	0xbce05ed2	-0.027388964
129	0xbcbb80f1	-0.022888632
130	0xba34a05b	-0.000689035
131	0x3d17dcc7	0.037075784
132	0xbd624a6b	-0.05524675
133	0x3d3b9093	0.045792174
134	0xbcc0a180	-0.02351451
135	0x3c9f7145	0.01946319
136	0x3d28bc85	0.04119541
137	0x3bfc9f9d	0.007709457
138	0xbd361ae4	-0.04445924
139	0x3cbbbec9	0.022918122
140	0x3bb0b763	0.005392955
141	0x3ce09900	0.027416706
142	0x3d894ad1	0.06703723
143	0x3d6cbdf8	0.057798356
144	0xbac804d8	-0.0015260233
145	0xbc6823c0	-0.01416868
146	0xbc243448	-0.01002223
147	0x3c982745	0.018573413
148	0xbceb0d16	-0.028692763
149	0x3d3e9eb5	0.046538074
150	0x3c023721	0.007947714
151	0xbda2cd0a	-0.07949264
152	0x3d42db05	0.047572155
153	0xbd1d5551	-0.038411442
154	0xbd7da1a2	-0.061921723
155	0x3d856900	0.06514168
156	0xbdba90a3	-0.091096185
157	0x3b0b3d3e	0.002124622
158	0x3d746618	0.059667677
159	0xbcfa90bc	-0.030586593
160	0x3ab18ae0	0.0013545416
161	0xbbf2099a	-0.0073863985
162	0x3d29852c	0.04138677
163	0x3d31c31f	0.043398973
164	0xbdd59a4a	-0.10429819
165	0x3b8a918d	0.004228777
166	0xbd864c09	-0.06557471
167	0xbd93be46	-0.07214026
168	0x3c7577eb	0.014982204
169	0xbd85d1fd	-0.06534193
170	0xbdcef979	-0.10106177
171	0x3d20b59e	0.039235704
172	0xbd5c932f	-0.053851303
173	0x3d9514f3	0.07279386
174	0x3ca1c126	0.01974542
175	0x3d85208b	0.06500348
176	0x3dafa585	0.08576492
177	0x3b47b78c	0.0030474393
178	0xbd209802	-0.039207466
179	0x3cfa5117	0.030556245
180	0xbdba0fdc	-0.09085056
181	0x3ccf4d04	0.025305279
182	0xbd87ad54	-0.066248566
183	0xbda1362f	-0.07871663
184	0xbcb7890e	-0.02240422
185	0xbcaa8617	-0.020815892
186	0x3c641b56	0.013922533
187	0xbc483f2a	-0.012222091
188	0xbdaa0ffa	-0.083038285
189	0x3c8c2d3d	0.017111415
190	0x3d05538f	0.03255039
191	0x3d944a11	0.072406895
192	0xbd0523a0	-0.032504678
193	0x3cb566e1	0.022143783
194	0x3c4535f4	0.012036789
195	0xbd4b96e1	-0.049704436
196	0x3b436ec8	0.002982067
197	0xbd4dd6db	-0.05025373
198	0x3c08cc87	0.008349544
199	0xbcdc2080	-0.026870966
200	0xbc888c1b	-0.01666837
201	0x3cb2d495	0.021829883
202	0x3d6b684c	0.057472512
203	0xbc8decef	-0.017324893
204	0x3d79c555	0.060979206
205	0xbd44f90a	-0.048089065
206	0xbdaa508e	-0.08316146
207	0xbd948281	-0.07251454
208	0x3c2b1071	0.010440932
209	0xbbf9e98e	-0.007626719
210	0xba9275a5	-0.0011173977
211	0xbdc81303	-0.09769251
212	0x3c84e944	0.016224511
213	0xbd80c3ae	-0.06287323
214	0x3bb3c1bb	0.005485741
215	0x3d076f5d	0.03306519
216	0xbd9097ae	-0.070601806
217	0x3c664944	0.014055554
218	0x3d30ca2d	0.04316156
219	0xbd28e902	-0.04123784
220	0x3d5f1023	0.05445875
221	0x3cf705f1	0.0301542
222	0x3d194c98	0.03742656
223	0x3cc87599	0.024470137
224	0xbd5251d7	-0.05134758
225	0x3cbfe7b6	0.023425918
226	0x3d17c00f	0.037048396
227	0xbd50dadb	-0.050989967
228	0x3d902ae6	0.07039432
229	0x3c29f9c8	0.010374494
230	0x3d0597b1	0.032615367
231	0x3dacc0ac	0.08435187
232	0xbce46c13	-0.027883565
233	0x3d981296	0.0742542
234	0x3bd0e818	0.006375324
235	0xbcbf8595	-0.023379127
236	0x3da7eee0	0.08199859
237	0xbd54143f	-0.05177712
238	0xbd19594d	-0.03743868
239	0xbda06c44	-0.0783315
240	0xbbfd4ef1	-0.007730358
241	0xbbd90470	-0.0066228434
242	0xbd315127	-0.043290284
243	0x3ce9c99b	0.028538516
244	0xbd2937f5	-0.04131313
245	0xba8b4db5	-0.0010628017
246	0xbd8935db	-0.06699725
247	0xbcaa52f6	-0.020791512
248	0x3b9bdac3	0.004756303
249	0xbdb68c5f	-0.089134924
250	0xbd8193c3	-0.063270114
251	0x3d4a5fa2	0.04940761
252	0x3a432b4e	0.00074451126
253	0x3d875d2b	0.06609567
254	0xbb459973	-0.0030151277
255	0x3cf702b0	0.030152649

_func._diffusion._model.2.bias f4 [48]
0	0x3d89a5f5	0.06721107
1	0x3db0bf9d	0.08630297
2	0x3dca0a5e	0.09865259
3	0x3d9fe4f8	0.07807344
4	0x3cf0baa0	0.029385865
5	0x3d5296b5	0.051413257
6	0x3d16122a	0.036638416
7	0x3d6c36f5	0.0576696
8	0x3cb49b7a	0.022046793
9	0x3ce88ae1	0.028386535
10	0x3de0b66b	0.109722935
11	0x3cdc4f8c	0.0268934
12	0xbd2a96e7	-0.041647818
13	0xbc6f0f2b	-0.014591019
14	0xbd9ed71a	-0.07755871
15	0x3a42b253	0.0007427085
16	0x3bb5019c	0.0055238735
17	0x3d8c0179	0.068362184
18	0xbd6712c1	-0.05641437
19	0xbddaa9a1	-0.106768854
20	0xbdbd2307	-0.092351966
21	0xbc1ae74d	-0.0094545605
22	0xbd4b5bf5	-0.049648244
23	0xbdd0aec3	-0.10189583
24	0xbccda5df	-0.025103508
25	0xbcb5894b	-0.022160193
26	0x3d68cccc	0.056835935
27	0xbd919002	-0.071075454
28	0xbcd60d2c	-0.026129328
29	0xbd31eddc	-0.04343973
30	0xbc6227a3	-0.013803395
31	0xbd6a1df5	-0.057157476
32	0xbddc359e	-0.10752414
33	0x3dbfaee5	0.0935953
34	0x3d91fc2d	0.07128177
35	0x3db1194b	0.086474024
36	0x3d2eaefb	0.042647343
37	0x3c2637a8	0.010145105
38	0x3c952789	0.018207328
39	0x3bdeee39	0.0068033007
40	0xbcb747ad	-0.022373045
41	0xbd8c41cc	-0.06848487
42	0x3d39ce3f	0.045362707
43	0x3d9013b8	0.07035011
44	0x3dc3e01b	0.09564229
45	0xbd5bb48a	-0.053638972
46	0xbc8d3ea1	-0.017241778
47	0x3ac8f9e7	0.0015333266

_readout.weight f4 [1, 16]
0	0xbdbf947b	-0.09354492
1	0xbe4484cf	-0.19191287
2	0xbe77364b	-0.24141805
3	0xbe502c2d	-0.20329352
4	0x3d9b9a09	0.07597739
5	0xbdcbc6e8	-0.09950048
6	0x3baba300	0.005237937
7	0x3e055106	0.13019189
8	0xbceeb0ca	-0.029137034
9	0x3d89f4a5	0.06736115
10	0x3dad347e	0.08457278
11	0xbe8bad53	-0.27280673
12	0xbe71b15c	-0.23602813
13	0xbbb08719	-0.0053871986
14	0xbd901a9b	-0.070363246
15	0x3e1772f9	0.14789952

_initial._model.0.weight f4 [16, 2]
0	0xb625aa9a	-2.468622e-06
1	0xbeb0ce34	-0.3453232
2	0xb6316bba	-2.643776e-06
3	0x3f9a1fa7	1.204091
4	0x34c547f4	3.6746462e-07
5	0xbf379428	-0.71710443
6	0x36bb92dc	5.590131e-06
7	0xbf117179	-0.5681377
8	0xb68bd638	-4.167461e-06
9	0xbea1301c	-0.31482017
10	0x363ef632	2.845551e-06
11	0xbf3236dc	-0.6961496
12	0x3642552b	2.8957827e-06
13	0x3f6347c8	0.88781404
14	0xb5e28484	-1.6876879e-06
15	0x3faa8efa	1.3324883
16	0x3461891b	2.1004637e-07
17	0xbf3d82ee	-0.7402791
18	0xb657c461	-3.2151804e-06
19	0x3f3aef10	0.7302103
20	0xb680d9bc	-3.840045e-06
21	0x3deb4962	0.11488606
22	0x36bcc3af	5.625617e-06
23	0xbeaeae97	-0.34117576
24	0xb6c2f9c1	-5.8107257e-06
25	0xbfb18058	-1.3867292
26	0x363a2e25	2.774302e-06
27	0x3ebb1532	0.36539608
28	0x35a00180	1.1921366e-06
29	0x3f1d10b4	0.6135361
30	0xb5dc89dd	-1.6431401e-06
31	0x3f1dacf1	0.6159201

_initial._model.0.bias f4 [16]
0	0xbf01278f	-0.50450987
1	0xbd0155bc	-0.031575903
2	0x3d9a00b6	0.07519667
3	0x3f0b82bb	0.54496354
4	0xbe7e2607	-0.24819194
5	0x3a31a9f2	0.0006777338
6	0xbea58472	-0.3232761
7	0xbf0510dc	-0.5197885
8	0x3f40f7bd	0.7537802
9	0x3e135df2	0.14391306
10	0xbd940a3b	-0.07228514
11	0xbdfd5686	-0.12370019
12	0xbe5db96e	-0.21652767
13	0xbeb2a5b3	-0.34892043
14	0x3d83365c	0.064068526
15	0x3ebcbbc0	0.36861992

_initial._model.2.weight f4 [16, 16]
0	0xbd218e64	-0.039442435
1	0xbef8a2a4	-0.48561585
2	0xbc955301	-0.018228056
3	0xbd77d3a7	-0.06050458
4	0xbe7d8678	-0.24758327
5	0xbe1c16ab	-0.15243022
6	0xbe1d622a	-0.15369478
7	0xbe452fb2	-0.19256476
8	0xbd31c695	-0.043402273
9	0xbe5ad4d3	-0.21370248
10	0x399c10ed	0.0002976725
11	0xbe2d563c	-0.16927427
12	0xbe3e1b52	-0.1856511
13	0xbddcc94a	-0.1078058
14	0x3daf9587	0.08573442
15	0xbe52fed8	-0.20605028
16	0x3dd276eb	0.10276588
17	0x3ec0cb85	0.37655273
18	0x3ed6b913	0.41938075
19	0x3e8a3569	0.26993874
20	0x3e29b8c5	0.1657439
21	0x3ec1c51a	0.3784569
22	0x3e700091	0.23437716
23	0x3e8868e2	0.2664252
24	0x3e542b53	0.20719652
25	0x3e607240	0.21918583
26	0xbb1aa97a	-0.002359955
27	0x3e0f5c8c	0.14000148
28	0x3f015da7	0.5053353
29	0xbe35958c	-0.17732829
30	0x3d85c62f	0.06531941
31	0x3e8f7de3	0.2802573
32	0xbe8e4005	-0.27783218
33	0x3ec2f74c	0.38079298
34	0x3e043222	0.12909749
35	0x3e1e36e5	0.15450628
36	0xbebe1018	-0.37121654
37	0x3e152ade	0.14567134
38	0x3d8f1451	0.06986297
39	0x3dfd8f7f	0.12380885
40	0x3e7f5df4	0.24938184
41	0x3ee38cd0	0.4444337
42	0xbe8995ef	-0.26872203
43	0xbe87f5d6	-0.26554745
44	0x3e9129df	0.28352258
45	0xbcd55521	-0.02604157
46	0x3d8d8017	0.06909197
47	0x3f07ad03	0.5299837
48	0x3c823377	0.015893681
49	0x3f1aba39	0.60440403
50	0x3e2f19ec	0.17099732
51	0x3dcba606	0.09943776
52	0xbd911d29	-0.0708564
53	0x3db30350	0.08740866
54	0x3ea6bdc9	0.3256667
55	0x3edb0846	0.4277975
56	0x3e374864	0.17898709
57	0x3de851c0	0.113437176
58	0xbe43d995	-0.1912597
59	0x3e33f10d	0.17572422
60	0x3e8d4b17	0.27596352
61	0xbd09d150	-0.03364688
62	0x3ea36fea	0.3192132
63	0x3ca5b45d	0.020227605
64	0xbddbe7d7	-0.10737579
65	0x3ee6ba20	0.45063877
66	0x3e3ed545	0.18636043
67	0x3e1f214c	0.15540045
68	0xbd8230ea	-0.06356986
69	0x3eaa65d8	0.33280826
70	0x3dc42078	0.095765054
71	0x3efd19e5	0.49433818
72	0xbe22a962	-0.15884927
73	0x3e991771	0.29900697
74	0xbe457a4e	-0.19284937
75	0x3df02ae8	0.11726934
76	0x3f1ba6fb	0.60801667
77	0x3d0b1a7d	0.033960808
78	0xbda07beb	-0.078361355
79	0xbc856fe3	-0.016288703
80	0x3cd2557e	0.025675531
81	0x3f03bc15	0.51458865
82	0xbd808682	-0.06275655
83	0x3dbd3643	0.09238865
84	0x3e737b9b	0.2377762
85	0x3e5e8122	0.21728948
86	0x3e8ed094	0.27893507
87	0x3eeef0da	0.4666813
88	0x3da6a52d	0.081369735
89	0x3e99837b	0.29983124
90	0x3e060fd1	0.13091971
91	0xbd9f4dc3	-0.07778504
92	0x3ea22b57	0.3167369
93	0x3e289982	0.16464809
94	0x3dde272f	0.108473174
95	0xbd8d77d7	-0.06907623
96	0x3e5b01e2	0.21387437
97	0xbbca1dff	-0.0061681266
98	0x3be9097b	0.007111726
99	0xbdd3326e	-0.10312353
100	0x3e9f4d64	0.31113732
101	0xbdb15831	-0.08659399
102	0x3dbcba7c	0.092152566
103	0xbc58e94c	-0.013239216
104	0xbe2786bf	-0.16359995
105	0xbed659ad	-0.41865292
106	0x3db9922d	0.09061084
107	0x3ecba438	0.39773726
108	0x3e148585	0.14504059
109	0xbc456245	-0.012047355
110	0xbd699374	-0.057025388
111	0xbd9cda40	-0.076588154
112	0xbe20fb96	-0.15720972
113	0xbea3945c	-0.31949127
114	0x3d57b04e	0.05265837
115	0xbe90e3a6	-0.28298682
116	0x3d996fdc	0.074920386
117	0xbe046493	-0.12928991
118	0xbe31b93c	-0.17355818
119	0xbed3244e	-0.41238636
120	0xbe09b7b4	-0.13448983
121	0x3c11fba6	0.008910095
122	0x3dfc4fc2	0.123199
123	0xbd1897f5	-0.037254293
124	0xbf19cb24	-0.60075593
125	0x3d8640c3	0.06555321
126	0x3d450bb7	0.048106875
127	0xbe73b410	-0.23799157
128	0x3e9dfb8a	0.30855972
129	0x3e0bf38b	0.13667123
130	0xbd6f2ddf	-0.058393355
131	0x3de4d31f	0.11173081
132	0x3e174148	0.14770997
133	0x3daec0e4	0.08532885
134	0x3ea7050c	0.32621038
135	0x3f00c071	0.5029364
136	0xbde02f85	-0.10946564
137	0x3e5e2d3a	0.2169694
138	0xbbe78272	-0.007065111
139	0x3e41d7cf	0.1892998
140	0x3f1d2314	0.6138165
141	0x3e077d7f	0.13231467
142	0xbe28ea4f	-0.16495632
143	0x3e630c0f	0.22172569
144	0x3e092edf	0.13396786
145	0xbe6b76b8	-0.22994506
146	0xbe6e1f18	-0.23254049
147	0xbc1b5ed8	-0.009483062
148	0xbe092d04	-0.13396078
149	0xbee9c9c6	-0.45661753
150	0xbe7bc3b5	-0.24586375
151	0xbe938688	-0.28813577
152	0xbe5864bd	-0.21132179
153	0xbbac058f	-0.005249686
154	0x3e518fb0	0.20464969
155	0x3d6e62ba	0.05819962
156	0xbf2015cb	-0.62533253
157	0xbe04ce47	-0.12969314
158	0xbdf6ee4c	-0.1205717
159	0x3c848a64	0.016179271
160	0xbdf45d37	-0.11931842
161	0x3e0a16e3	0.13485293
162	0x3e40a12a	0.18811479
163	0xbe16c940	-0.14725208
164	0xbd8ae86c	-0.06782612
165	0x3ed356b3	0.41277084
166	0x3e94dc5f	0.2907438
167	0x3ea933e7	0.3304741
168	0x3be6009f	0.007019117
169	0x3e7ae065	0.24499662
170	0xbdc44d65	-0.09585074
171	0x3e8d147b	0.27554688
172	0x3e5ee2a1	0.2176614
173	0x3e2fc763	0.17165904
174	0xbc96d7d4	-0.018413462
175	0xbd5fbd01	-0.054623608
176	0xbdb47ce6	-0.08812885
177	0x3e7c39ee	0.24631473
178	0x3e3949d6	0.18094572
179	0x3dce6154	0.100771576
180	0x3e4f37d6	0.20236143
181	0x3eb7c02a	0.35888797
182	0x3e5019fe	0.20322415
183	0x3dd8d35e	0.1058719
184	0x3e51d86d	0.20492716
185	0x3d481b62	0.04885424
186	0xbda8b1be	-0.08237027
187	0x3d9ca706	0.07649045
188	0x3f16c320	0.5889149
189	0xbe15cb95	-0.14628442
190	0x3e2350bf	0.15948771
191	0x3da55e16	0.08074586
192	0xbd0e60a3	-0.03476013
193	0x3e97e24b	0.29664835
194	0x3e0b2e4f	0.13591884
195	0xbe3cf806	-0.18453988
196	0x3da9d581	0.08292676
197	0x3e9ec117	0.3100669
198	0x3ea17947	0.3153784
199	0x3eb2004c	0.34765851
200	0x3e4d7ec0	0.20067883
201	0x3e6b6b47	0.22990142
202	0xbdaa9f0d	-0.08331118
203	0xbd9b28de	-0.07576154
204	0x3f0ce637	0.5503878
205	0x3eaf77ff	0.34271237
206	0x3e5e90af	0.2173488
207	0x3e2e9d33	0.17052154
208	0x3e212ce2	0.15739778
209	0x3ebf6cc1	0.3738766
210	0x3ec1f6b2	0.37883526
211	0x3e8ac075	0.27099958
212	0xbd938758	-0.07203549
213	0x3eedb5ad	0.4642767
214	0x3ea43592	0.3207212
215	0x3d9a66ab	0.075391136
216	0x3e2d88ae	0.1694667
217	0x3bf38266	0.007431316
218	0xbddfb12a	-0.10922463
219	0x3dd4969d	0.1038029
220	0x3f1bcb06	0.60856664
221	0xbe1d1a31	-0.15342022
222	0x3e2d4aa5	0.16923006
223	0x3e57c1c0	0.21070004
224	0x3ea1888b	0.31549487
225	0xbe79f079	-0.2440814
226	0x3e9c23c8	0.3049605
227	0x3e370857	0.17874275
228	0x3e1ba621	0.15200092
229	0x3ee54591	0.44779637
230	0x3e21b529	0.15791763
231	0xbd30acf1	-0.04313368
232	0xbd867578	-0.06565374
233	0xbda980d2	-0.08276524
234	0xbcdd8737	-0.027042015
235	0x3ed2d28c	0.4117626
236	0x3eb6846a	0.356479
237	0xbd7e6c6d	-0.06211512
238	0xbd9d8744	-0.076918155
239	0xbe9c6448	-0.3054526
240	0xb9e50662	-0.0004368304
241	0xbed3b697	-0.41350242
242	0xbe6d91bf	-0.23200129
243	0x3d89b22c	0.06723437
244	0xbe6fa402	-0.23402408
245	0xbe4cbfb0	-0.19994998
246	0xbe97003a	-0.2949236
247	0xbecf5672	-0.4049564
248	0xbe204d57	-0.15654503
249	0xbe05e93d	-0.13077255
250	0xbcab92f8	-0.020944104
251	0xbe524d3d	-0.20537277
252	0xbeec0af8	-0.46102118
253	0xbe6e9fdc	-0.23303169
254	0xbb165ac8	-0.0022942293
255	0xbda755a3	-0.08170631

_initial._model.2.bias f4 [16]
0	0x3ead1e4e	0.33812183
1	0x3dda6b74	0.10665026
2	0x3ea15ebd	0.31517592
3	0xbca4240e	-0.020036723
4	0xbe5f4447	-0.2180339
5	0x3de61e70	0.11236274
6	0xbeadc03a	-0.3393572
7	0x3cee5ce0	0.02909702
8	0xbe7c6d8d	-0.24651165
9	0xbe67c08d	-0.22632046
10	0x3dd248c0	0.10267782
11	0x3e432dab	0.1906039
12	0xbda55bbf	-0.0807414
13	0x3d2c862e	0.04212015
14	0xbe94d6f5	-0.2907025
15	0x3e1ac947	0.15115844
