hyperparameter_tuning/ray_results/SUD_learning_rate_tuning/MyTrainableClass_52d9d50e_4_batch_size=16,name=SUD_v2,patience=1000,steps=200,steps_per_print=5,swa_step_start=2500,t_size=7,train_2024-03-11_19-05-22/checkpoint_000000/checkpoint.pt (torch, 61346 bytes, 66 tensors)

_initial._model.0.weight f4 [16, 5]
0	0xbf545e8a	-0.82956755
1	0xc006db58	-2.1071377
2	0xbfb8e4b9	-1.4444801
3	0xbf9146fe	-1.134979
4	0xc031c69e	-2.7777476
5	0xbfe063bd	-1.7530438
6	0xc05b6b4e	-3.4284244
7	0xc071fc59	-3.781027
8	0xc0511739	-3.2670424
9	0x402125a9	2.5179236
10	0x40395627	2.8958833
11	0xc020e410	-2.5139198
12	0x405242dd	3.285331
13	0xc0631ff7	-3.548826
14	0x3fff4eda	1.9945939
15	0x3f81f9ed	1.0154396
16	0x404b4383	3.1759956
17	0xc01435a4	-2.315774
18	0x404b1f23	3.1737754
19	0x3e65812b	0.22412555
20	0x402f6be1	2.7409594
21	0xbf8b57f6	-1.0886219
22	0xbe5905ed	-0.21193667
23	0xc01c7ef1	-2.445248
24	0x3faf2f9d	1.3686405
25	0xc02d3ce9	-2.7068427
26	0xbf878061	-1.0586053
27	0xc03eaa68	-2.9791508
28	0xbfd3876e	-1.6525705
29	0x3df7a23f	0.12091493
30	0xc04f0f85	-3.2353222
31	0x3f47012f	0.7773618
32	0xc0275c28	-2.6149998
33	0xbdb6aca4	-0.08919647
34	0xbf6544be	-0.8955802
35	0xbf5c6a53	-0.8609974
36	0xbf5171c6	-0.8181423
37	0x3fcaa751	1.5832311
38	0x3f1dcca4	0.6164038
39	0x4002c5cd	2.0433228
40	0xbf0b883e	-0.54504764
41	0xc0683c20	-3.6286697
42	0xc05c8138	-3.445387
43	0x406cc882	3.699738
44	0xc05c0c9d	-3.4382699
45	0x4026f8cf	2.608936
46	0x3f2275bb	0.6346089
47	0x3fcb6e40	1.5893021
48	0x3fdf63da	1.7452347
49	0xbefdfd4a	-0.49607307
50	0x403b8fc8	2.9306507
51	0x3dfa97f4	0.12236014
52	0xbff14d0c	-1.8851638
53	0xbf1f9812	-0.62341416
54	0xbfc04680	-1.5021515
55	0x3f871326	1.0552719
56	0xc02caaac	-2.697917
57	0xc061e925	-3.529855
58	0x40641f6f	3.5644186
59	0x3f43c94f	0.7647905
60	0x3e86c819	0.26324537
61	0x3f9b7cfd	1.2147518
62	0x40122048	2.2832203
63	0xbe40da27	-0.18833219
64	0x40240a6f	2.5631368
65	0xc078227f	-3.8771055
66	0xbff493a9	-1.9107562
67	0xbf200c43	-0.6251871
68	0x3fe647fa	1.7990716
69	0xc0187de6	-2.3826842
70	0x403c8b17	2.9459894
71	0x404fa4d5	3.2444355
72	0x40425cb6	3.0369086
73	0xc0774de7	-3.8641298
74	0xc055b82d	-3.3393662
75	0xbf83b34c	-1.0289092
76	0x3ef19b9c	0.47189033
77	0x4049c372	3.152554
78	0x3f4174f4	0.7556908
79	0x405a2b58	3.4088955

_initial._model.0.bias f4 [16]
0	0x3ff69a16	1.9265773
1	0xc05c865c	-3.4457006
2	0xbfc48917	-1.5354337
3	0x3f480c40	0.7814369
4	0x3ed3f5e5	0.4139854
5	0xc060d472	-3.5129666
6	0xbfd075ba	-1.6285927
7	0x401e177c	2.4701834
8	0x3fe8446b	1.814588
9	0xbf47b91a	-0.7801682
10	0xc06043fd	-3.5041497
11	0x40642133	3.5645263
12	0xc003d193	-2.0596664
13	0x3fa4fc39	1.2889472
14	0xbf197068	-0.59937143
15	0x3e42a3fb	0.19007866

_initial._model.2.weight f4 [16, 16]
0	0xbe603ead	-0.21898909
1	0xbea031bf	-0.31287953
2	0x3d39fa67	0.045404818
3	0xbfc34a5c	-1.5257068
4	0x3ffa76f7	1.9567555
5	0xbfd26b5e	-1.6439016
6	0x3f3031ed	0.6882618
7	0x3e2e48fa	0.17020026
8	0xbf4df3fe	-0.8045043
9	0x3fdf44ae	1.7442834
10	0xbe9bba24	-0.30415452
11	0xbfbff2ef	-1.4996012
12	0x3f209a87	0.6273579
13	0xbf2b9005	-0.6701663
14	0x3fd202c6	1.6407096
15	0xc004cab1	-2.0748713
16	0x3f93b651	1.1540014
17	0xbf04f1cf	-0.5193147
18	0xc01974bc	-2.39775
19	0x4006e4a8	2.107706
20	0x3fbe8034	1.4882874
21	0x3f1f5b59	0.6224876
22	0x3f63c810	0.88977146
23	0xbfddd951	-1.7331945
24	0x4013f712	2.311955
25	0xb9065361	-0.00012810297
26	0xbeefb8cf	-0.46820685
27	0xc0035d87	-2.0525835
28	0xbfb37cba	-1.4022439
29	0xbec91983	-0.39277276
30	0xbf6a2b72	-0.9147254
31	0x3f95d9a7	1.1707047
32	0xbd34d125	-0.04414477
33	0x3fd95887	1.6980141
34	0x3f0d7af5	0.5526574
35	0xbf748db8	-0.95528746
36	0x3f6a3a61	0.9149533
37	0x40157c52	2.335713
38	0xbf39ef6a	-0.7263094
39	0xbf5124db	-0.8169686
40	0xbe6977a0	-0.2279954
41	0x3f495ca8	0.7865701
42	0xbfae6116	-1.3623378
43	0xbe54e688	-0.20791066
44	0xbfa69ab9	-1.3015968
45	0x3fc21e65	1.5165526
46	0xbf000949	-0.5001417
47	0x3fbeace0	1.4896507
48	0xbec5452c	-0.38529336
49	0xbff8c632	-1.9435484
50	0x3f8064d4	1.003077
51	0xbf9874ff	-1.1910704
52	0xbff307f1	-1.8986799
53	0x4013a6e6	2.3070617
54	0xbeeca632	-0.46220547
55	0x3e931e07	0.28733847
56	0xbfc6717b	-1.5503381
57	0xc002ad18	-2.0418148
58	0x3fb53123	1.415562
59	0xbf435c11	-0.7631236
60	0x3f5c50b7	0.8606066
61	0x3f3ee085	0.7456134
62	0x3f75ab37	0.9596438
63	0xc00f7743	-2.2416542
64	0xbf20d4a4	-0.62824464
65	0x3f027cf0	0.5097189
66	0xbfd5a199	-1.6689941
67	0x3ff7779e	1.9333379
68	0x3fb2e789	1.3976909
69	0xc00dcb56	-2.2155356
70	0x3fe29e0d	1.7704483
71	0x3f4b9f63	0.7954008
72	0x3fcee30c	1.6163039
73	0x3fbbcdc1	1.4672166
74	0x3f93ccc2	1.1546862
75	0x3f5f8327	0.873095
76	0x3fb2cc83	1.3968662
77	0xbf46cdbb	-0.7765767
78	0x3fa57355	1.2925822
79	0xbfe7be8b	-1.8105024
80	0xbf2a34b8	-0.6648669
81	0x3f0cc033	0.5498077
82	0xc001e165	-2.029382
83	0x401bb8f8	2.4331646
84	0xbf8b3cd6	-1.0877941
85	0xbfabc6b0	-1.342001
86	0xbfd09923	-1.6296734
87	0xbf09af3c	-0.5378301
88	0xbfb372a1	-1.4019357
89	0x4001358b	2.018893
90	0x3edda1d5	0.4328753
91	0x3fe728cd	1.8059326
92	0x3ebf39a3	0.3734866
93	0xbfeefc0f	-1.8670672
94	0x3f4e7f26	0.80662763
95	0xbc5ae350	-0.01335986
96	0xbdaa36ee	-0.08311258
97	0xbf04436d	-0.51665384
98	0x3e74bd3f	0.23900317
99	0x3eec4473	0.46145973
100	0x3f4e60e9	0.80616623
101	0xbdbaf8d5	-0.09129492
102	0x3f845d54	1.0340981
103	0x3f153679	0.58286244
104	0x3fd6e16b	1.6787542
105	0xbd20819f	-0.039186116
106	0xbf272281	-0.65287024
107	0xbf9ce78a	-1.225816
108	0x3ff5030c	1.9141555
109	0x3f8ad3ba	1.0845864
110	0x3fd0817c	1.6289515
111	0x3f5b09a4	0.85561585
112	0xbd71e726	-0.05905833
113	0xc0115dff	-2.271362
114	0xbfac6113	-1.3467125
115	0xbeb5e988	-0.35529733
116	0x3f7fe769	0.9996248
117	0xc007d752	-2.122517
118	0xc014e0a2	-2.3262105
119	0x3fd57e9b	1.6679262
120	0xbfacc4f3	-1.3497604
121	0x3eaf341f	0.34219453
122	0x3f1ac407	0.60455364
123	0x3f91f7c2	1.1403735
124	0x3d1efe59	0.038816784
125	0xbf96e880	-1.1789703
126	0xbecb11d5	-0.39662042
127	0xbf2a8420	-0.66607857
128	0x3fb2531c	1.3931613
129	0x3f26f28f	0.65213865
130	0x3e95dc63	0.29269704
131	0x3fbebd8b	1.4901594
132	0xc015f4bf	-2.343063
133	0xbe20cd46	-0.15703306
134	0x3f20e72b	0.62852734
135	0x3eec90b3	0.46204147
136	0xbfa34b8d	-1.2757431
137	0xbfe96f89	-1.8237163
138	0xbee8cea5	-0.45470157
139	0xbe61af6d	-0.22039576
140	0xbfd7647f	-1.6827544
141	0x3e9ac80e	0.30230755
142	0x3f6ca807	0.9244389
143	0x3f13525f	0.57547563
144	0x3f8b4e7d	1.0883328
145	0x3e103605	0.14083107
146	0x4007b91c	2.1206732
147	0x3f91876f	1.1369456
148	0xbf6bead4	-0.92155194
149	0xc00f8686	-2.2425857
150	0xbe4c077c	-0.1992473
151	0x3f344112	0.7041179
152	0x3ffa2b32	1.9544432
153	0xbf1539b1	-0.58291155
154	0x3cf29a4d	0.029614592
155	0xbf568625	-0.8379844
156	0x3f3dfd3f	0.7421455
157	0x3e2f2ee2	0.17107728
158	0x3f09453d	0.53621274
159	0xbfbc8286	-1.4727333
160	0x3f92db02	1.1473086
161	0xc010f41a	-2.2648988
162	0x3f9a7847	1.2067956
163	0xbec1b3b3	-0.37832412
164	0xbfadf2b4	-1.3589692
165	0x3f7c944f	0.986638
166	0xbf9fec9e	-1.2494085
167	0x3ff821e6	1.9385345
168	0x3ffafa4a	1.9607632
169	0xbfefdb94	-1.8738885
170	0xbfe28b89	-1.7698833
171	0x3f4349a6	0.76284254
172	0xbfc265fe	-1.5187376
173	0xbfa61fd6	-1.2978466
174	0x3f831e50	1.0243626
175	0x3ff1680f	1.8859881
176	0x3e1545a4	0.14577347
177	0xbfbd9f38	-1.4814215
178	0x3f722c3d	0.9459875
179	0xbda31014	-0.07962051
180	0xbfd01122	-1.6255229
181	0x401112c0	2.2667694
182	0xbfb1ad5b	-1.3881029
183	0xbf10d60b	-0.56576604
184	0x3f01be97	0.5068144
185	0xbf845033	-1.0336975
186	0xbf21acb3	-0.63154143
187	0x3f59a2a2	0.8501378
188	0xbed939cc	-0.42426908
189	0x3d65ef49	0.056136403
190	0x3f96ae95	1.1772028
191	0x3f8de4ce	1.1085451
192	0xbf94460d	-1.1583878
193	0xbfe09d43	-1.7547992
194	0x3feecbea	1.865598
195	0x3d8cc2ea	0.068731144
196	0xbfbe94f4	-1.4889207
197	0xbff8c9e7	-1.9436616
198	0xbfa7c821	-1.310795
199	0xbe04af87	-0.12957583
200	0xbebd1a7c	-0.36934268
201	0xbf4dce2e	-0.8039273
202	0x40015136	2.0205817
203	0x4012bae1	2.2926562
204	0x3fdae516	1.7101161
205	0xbffa21e7	-1.9541596
206	0xbfb08040	-1.3789139
207	0x3fc6dc0f	1.5535907
208	0xbf512bce	-0.81707466
209	0xbdccb186	-0.099947974
210	0xbf481109	-0.78150994
211	0x3ff6e6c7	1.9289178
212	0x4010f15b	2.2647312
213	0x3fb06ecc	1.3783813
214	0x3fe7f894	1.8122735
215	0xbfcdd64f	-1.6081027
216	0x3fefa313	1.8721641
217	0x3daa626c	0.08319554
218	0xc00863f1	-2.1311
219	0xbdd5dbe0	-0.104423285
220	0x3fcad5b3	1.5846466
221	0xbf3bc47c	-0.73346686
222	0xbf054f60	-0.5207424
223	0xbf281da6	-0.6567024
224	0xbf8564c5	-1.0421377
225	0x3fbea057	1.4892682
226	0x3f98b553	1.1930336
227	0x3cb0368b	0.021510383
228	0x3fdd0e0b	1.726991
229	0x3f2badb0	0.670619
230	0xbf6ffcfb	-0.9374539
231	0xbfd3ca51	-1.6546117
232	0x3e8d9705	0.2765428
233	0xbf42c641	-0.7608376
234	0xbf201693	-0.62534446
235	0x3fa8b912	1.3181479
236	0x3fb07d86	1.3788307
237	0xbee1845f	-0.44046304
238	0xbf23143f	-0.6370277
239	0x3f465a0c	0.7748115
240	0x3e8fd43d	0.28091612
241	0x3f35bba1	0.70989424
242	0x3f637bce	0.88860786
243	0x3fb645db	1.4240068
244	0xbfefbb8f	-1.8729113
245	0x3d9a0825	0.07521085
246	0x3f1dd96d	0.6165989
247	0x3ed35b2f	0.41280505
248	0xbf3eb785	-0.7449878
249	0xbfeba02b	-1.8408254
250	0x3ffbbc36	1.9666812
251	0xbfd5059f	-1.664234
252	0x3fa033ba	1.2515786
253	0xc00ebbbf	-2.230209
254	0x3f01e33c	0.5073736
255	0x3fe192e9	1.7622958

_initial._model.2.bias f4 [16]
0	0x3f06f662	0.527197
1	0xbea59653	-0.3234125
2	0x401b48ec	2.4263258
3	0xbf9c2217	-1.2197903
4	0xc019f356	-2.405477
5	0x3e336df6	0.17522416
6	0xbf928d40	-1.1449356
7	0xbf678787	-0.90441173
8	0x3fe42c69	1.7826053
9	0xbaf5d1b7	-0.0018754516
10	0xc00c19bd	-2.189071
11	0xbf285f38	-0.6577029
12	0xbfaf0e86	-1.3676307
13	0xc0116cd1	-2.2722666
14	0x3f60a8e5	0.8775771
15	0xc009b52d	-2.151683

_func._drift._model.0.weight f4 [16, 17]
0	0x3a348443	0.00068861636
1	0xbbb3d121	-0.0054875766
2	0x3ba21dbf	0.0049473937
3	0xb9aa2dd7	-0.0003245908
4	0x3aef1316	0.0018239941
5	0x3a9275b0	0.001117399
6	0xbb383897	-0.0028109902
7	0x39e1a69a	0.00043039472
8	0x3ae9c6ac	0.0017835698
9	0xbbae87ca	-0.005326246
10	0xbb94148d	-0.0045190514
11	0xbb8ff54f	-0.0043932567
12	0xb996c6af	-0.0002875826
13	0xbb3b240c	-0.002855542
14	0xbbb1cad3	-0.00542579
15	0x3bac676d	0.0052613528
16	0x3b9854cf	0.004648782
17	0xbb05c771	-0.0020413066
18	0xbb869835	-0.0041075
19	0x3b330980	0.0027318895
20	0xba817909	-0.000987799
21	0xbb522825	-0.0032067385
22	0xbbad8cb4	-0.005296314
23	0x38434a3c	4.656076e-05
24	0xbb40737a	-0.0029365704
25	0x3ac5406b	0.0015049105
26	0x3ac1a41a	0.0014773638
27	0xba362ba3	-0.00069492514
28	0x3bbf7524	0.0058428217
29	0xba93d717	-0.0011279312
30	0x3bba554d	0.005686438
31	0x3ae2bb50	0.0017298255
32	0x3ae1f5c7	0.0017239385
33	0x3b9d45b7	0.0047995704
34	0xbaff0f3c	-0.0019459496
35	0x3bb22323	0.0054363175
36	0x3b2a8d84	0.0026024291
37	0xbad7282f	-0.0016415174
38	0x3b301992	0.002687071
39	0xbbb8d297	-0.0056403386
40	0x3a3f7a4d	0.0007304296
41	0xbaa7ca02	-0.0012801292
42	0xba9cbf45	-0.0011958858
43	0xbb992f88	-0.0046748556
44	0x3b3f01a7	0.0029145272
45	0x3b0603fd	0.0020449155
46	0xbb1fadcd	-0.0024365068
47	0x3b9738ab	0.0046149096
48	0xba91d5df	-0.0011126361
49	0xb913e981	-0.00014106
50	0xbb6613ba	-0.0035106973
51	0x3af3d52c	0.0018602959
52	0x3b0a9819	0.0021147786
53	0x3a86adfa	0.0010275238
54	0x39c3761a	0.0003728129
55	0xbbbb01fd	-0.005707024
56	0x3ba18d3e	0.0049301675
57	0xb9732747	-0.00023188918
58	0x3b62d9dc	0.0034614718
59	0x3b6b8cd7	0.0035942101
60	0xbba721cc	-0.0051004644
61	0x3b7f270f	0.0038933193
62	0xbb825c20	-0.0039782673
63	0x3af271f6	0.0018497098
64	0x3ba5c3b0	0.005058728
65	0x3ba52b77	0.005040582
66	0x3aee8177	0.0018196543
67	0xbbaa9559	-0.005205792
68	0x3b4cbbd4	0.0031239884
69	0xbb67039f	-0.003524996
70	0x3b1a4c39	0.0023543967
71	0xbbb406ed	-0.0054939897
72	0xbb1f88b9	-0.0024342968
73	0xbb924786	-0.0044640927
74	0xba9467de	-0.0011322459
75	0xbb031bca	-0.0020005577
76	0xbbb9c85c	-0.0056696367
77	0xbbbbe7f8	-0.00573444
78	0x3a4d9b6c	0.0007843289
79	0x3a510928	0.00079740817
80	0xbb171005	-0.002305032
81	0xbb4b2e89	-0.003100308
82	0xbb92af9a	-0.0044764997
83	0xbb69ed43	-0.0035694398
84	0xbb136a97	-0.0022493952
85	0xbb1e6330	-0.0024168007
86	0x3b730627	0.0037082525
87	0x3ac6cb19	0.0015166729
88	0x3b9de545	0.004818591
89	0xbb9ed441	-0.00484708
90	0x3b07adc6	0.0020702942
91	0x3aaf96d0	0.0013396386
92	0xbb9b30a8	-0.004736025
93	0x3b4d3649	0.0031312874
94	0xbb24b8c8	-0.0025134552
95	0xbb183623	-0.0023225627
96	0x3b062d57	0.0020473802
97	0x3ab3250b	0.0013667656
98	0x39a59373	0.0003158111
99	0x3bac23dd	0.0052532987
100	0xbadb1ba1	-0.0016716608
101	0xbb6aaee0	-0.00358098
102	0xbbbf83b3	-0.005844557
103	0x3aa39904	0.0012481515
104	0xbb94ae64	-0.0045373905
105	0x3b9bd692	0.0047558034
106	0x3ae33db6	0.0017337117
107	0xbab5a79c	-0.0013859156
108	0x3b75451d	0.0037425228
109	0x3ba78113	0.0051118224
110	0x3b8ccea0	0.0042970926
111	0xbb13b9e1	-0.0022541212
112	0x3a0945eb	0.0005236554
113	0xbb4bcaf2	-0.0031096307
114	0x3b6e87d4	0.0036396878
115	0x3bb5159b	0.005526257
116	0xb9310e00	-0.00016885251
117	0x3b7d5ab3	0.0038658797
118	0x3b018a9d	0.0019766458
119	0x3b3bf3f5	0.0028679345
120	0xbb8f0930	-0.004365109
121	0xbb846c08	-0.0040411986
122	0xbba3b65c	-0.004996104
123	0x3bb7aa99	0.0056050536
124	0x3b1cbbb8	0.00239156
125	0x3b8d977c	0.004321037
126	0x3b846ee8	0.0040415414
127	0x3b9ab358	0.0047210865
128	0xbaba66ab	-0.0014221271
129	0xbbbabe69	-0.005698968
130	0x3a3a5ec9	0.0007109461
131	0xbb1d85a5	-0.0024035957
132	0x3b21348c	0.002459797
133	0x3b25007e	0.0025177295
134	0x3a148049	0.0005664868
135	0xbbb7f26f	-0.005613617
136	0x3acef215	0.0015788699
137	0xbb52af09	-0.0032147786
138	0xbb308fce	-0.0026941183
139	0x3b932194	0.004490087
140	0xbb45e06a	-0.0030193576
141	0x3af39252	0.0018583036
142	0xbadc6535	-0.001681483
143	0x39779436	0.00023610968
144	0xbb32d8e0	-0.0027289912
145	0xbb0ad67d	-0.0021184974
146	0x3ba376a3	0.004988508
147	0x3b5200b1	0.003204387
148	0xbba3036f	-0.0049747746
149	0x3bab2695	0.005223105
150	0xbb66b002	-0.0035200124
151	0xbb775999	-0.0037742613
152	0xbbaa63fb	-0.005199907
153	0xb9b03d74	-0.00033615122
154	0xbb2f6166	-0.0026760935
155	0xbbbb4de8	-0.0057160743
156	0x3b235359	0.0024921505
157	0xbabbd869	-0.0014331463
158	0x3b13bdf6	0.0022543645
159	0xbb924052	-0.004463234
160	0xbb73cb9b	-0.0037200216
161	0xbb5c34f3	-0.0033600896
162	0xb9c91ac5	-0.00038357652
163	0xbba905ce	-0.0051581627
164	0x3a87faee	0.0010374465
165	0xb84dfed1	-4.9113125e-05
166	0x3b9c54ab	0.0047708354
167	0xb9afe121	-0.00033546335
168	0x3ba651af	0.0050756554
169	0x3b4447cf	0.0029950028
170	0x36987d7d	4.5445618e-06
171	0xb97da162	-0.0002418808
172	0x39e30983	0.000433039
173	0x3a037733	0.00050150155
174	0xbabbb8d1	-0.0014322047
175	0xbb672ad2	-0.0035273326
176	0xba3a0629	-0.0007096255
177	0xbb478870	-0.0030446313
178	0xbab837fb	-0.0014054769
179	0xbb9bc33f	-0.0047534998
180	0x3b98c1bb	0.0046617663
181	0x3b333a1b	0.0027347866
182	0xbadd030c	-0.001686187
183	0xbaff4131	-0.0019474385
184	0x3bb6e797	0.005581807
185	0xbbb21b30	-0.00543537
186	0xbbb87a75	-0.0056298324
187	0xba97eb64	-0.0011590538
188	0x3aca2f66	0.0015425503
189	0xbb9246b0	-0.004463993
190	0x3b70fc12	0.003677134
191	0xbad43d45	-0.0016192576
192	0x3b909a6e	0.0044129407
193	0x3b7dd862	0.003873371
194	0xbb8652c8	-0.0040992238
195	0x3b52fc5d	0.0032193877
196	0x3b409b5f	0.0029389483
197	0xba6c9f18	-0.00090263924
198	0x3b86667b	0.004101572
199	0xbb9ed80f	-0.0048475335
200	0x3aa97ea0	0.0012931414
201	0xbab690b9	-0.0013928629
202	0xb8b03cd0	-8.403661e-05
203	0xbb117aec	-0.0022198511
204	0xbb238a66	-0.0024954318
205	0x3b7f3e85	0.0038947177
206	0x3b5f521c	0.003407604
207	0x3b87280d	0.0041246475
208	0xbb9461af	-0.0045282464
209	0x3a3b5c8e	0.00071472756
210	0x39c4fb0f	0.00037571086
211	0xbb8a3b5f	-0.0042185034
212	0x3b71b5bd	0.0036882006
213	0xbaf3713d	-0.0018573176
214	0xbb491a8e	-0.0030685994
215	0xb98394a1	-0.00025097004
216	0x3b3284b6	0.0027239746
217	0x3ae108f3	0.0017168805
218	0x3b9986cb	0.004685258
219	0x3a0fe280	0.0005488768
220	0xbba0a6cc	-0.0049026962
221	0xbb09749b	-0.0020974043
222	0xba5dcf55	-0.0008461376
223	0x3baaad62	0.005208657
224	0x3b2b1f29	0.0026111102
225	0x3ad195bf	0.0015990062
226	0xbb9c2b70	-0.0047659203
227	0xbb2a766a	-0.0026010522
228	0x3b19bb61	0.0023457634
229	0xbb4f717f	-0.0031653342
230	0xbb08afe4	-0.0020856792
231	0x3bb6dd61	0.0055805896
232	0x3aa015fb	0.0012213582
233	0x3b249d7e	0.0025118287
234	0x3b73da3d	0.0037208938
235	0xbbb5d369	-0.0055488837
236	0x3ad678f7	0.0016362955
237	0xbb8f02db	-0.004364354
238	0xbaec8937	-0.0018046264
239	0x3b37dbaf	0.0028054526
240	0xbbb73414	-0.005590925
241	0x3b86d2c0	0.004114479
242	0x3aebfb74	0.0018004016
243	0x3b6541ff	0.0034981964
244	0x3b2db867	0.0026507617
245	0x3b227be0	0.0024793074
246	0xb91dc79a	-0.00015047044
247	0x3bb28b9a	0.0054487707
248	0xbb4d2165	-0.0031300422
249	0xba26fbc2	-0.00063699123
250	0xbaa2afe9	-0.0012412044
251	0x3ad16588	0.0015975693
252	0x3b3ebce9	0.0029104298
253	0x3b68045e	0.0035402994
254	0x3b34d2ae	0.0027591395
255	0xbb828f66	-0.0039843796

_func._drift._model.0.bias f4 [16]
0	0x3bb78177	0.00560015
1	0xb9c751ad	-0.0003801709
2	0x3b19af0d	0.0023450286
3	0x3b0f556f	0.002187099
4	0xb7c99af1	-2.4033217e-05
5	0xbb164363	-0.002292835
6	0x3b821291	0.0039694984
7	0xbbaeaa25	-0.0053303414
8	0xbbaced89	-0.00527734
9	0xbba9b7b7	-0.005179371
10	0xbb0c1689	-0.0021375737
11	0x3aad27f8	0.0013210764
12	0xb9ad88b2	-0.00033098977
13	0x38fa4573	0.00011933865
14	0x3b9908c8	0.0046702363
15	0xbb9a0b07	-0.0047010216

_func._drift._model.2.weight f4 [16, 16]
0	0xbb24e09d	-0.0025158294
1	0x3b12d238	0.0022403132
2	0xbbb24198	-0.0054399483
3	0xbbc3f132	-0.0059796805
4	0xbb7aa1ea	-0.003824348
5	0xbbbbc736	-0.005730535
6	0xbb074309	-0.0020639321
7	0xbbb4202d	-0.0054969997
8	0xba3612f0	-0.0006945571
9	0x3b50f3e6	0.0031883656
10	0xbba257c1	-0.0049543087
11	0xbbbd2dc6	-0.005773279
12	0x3b63f55e	0.0034783701
13	0xbb016701	-0.0019745233
14	0x3b20acf5	0.0024517153
15	0x3b308df8	0.0026940089
16	0xbaab3405	-0.0013061768
17	0xb9d294b0	-0.00040165102
18	0xb8a51678	-7.871998e-05
19	0xbb9bde0b	-0.004756694
20	0x3bb38aa3	0.0054791733
21	0xb99cdded	-0.00029919986
22	0x3b0c1c03	0.0021379
23	0x3a7b5efb	0.00095890433
24	0x3ba4519d	0.005014612
25	0xbb9d7733	-0.0048054694
26	0xbb81cdd0	-0.0039613023
27	0xb915b4ef	-0.0001427715
28	0xbb1a7d35	-0.0023573164
29	0x3b0739af	0.0020633747
30	0x3bb0bd1d	0.005393638
31	0xb9ac6ad6	-0.00032885995
32	0xbba9f4bb	-0.005186645
33	0x3ba42c9c	0.0050102007
34	0xbac4bfe2	-0.0015010799
35	0x3afd9953	0.0019348062
36	0xbb006ed3	-0.0019597306
37	0x3bb050ac	0.0053807106
38	0xbb61a149	-0.0034428409
39	0x3a45e321	0.00075487985
40	0x3b31e44d	0.0027144135
41	0xbba2835b	-0.0049595064
42	0x3ade4adb	0.0016959565
43	0xbb645d90	-0.0034845807
44	0x3bae03d8	0.005310517
45	0x3ba0e199	0.004909706
46	0x3af8c468	0.0018979432
47	0xbb410778	-0.0029453915
48	0x39660424	0.00021936052
49	0x3ba889e6	0.005143392
50	0x3b77a5b2	0.003778797
51	0xbb3a7501	-0.0028451087
52	0xbb5547ed	-0.0032544092
53	0xbac4f97c	-0.0015027965
54	0xbadf425d	-0.0017033328
55	0xbb3f5319	-0.0029193817
56	0xbbc15836	-0.005900408
57	0x3864725b	5.4465938e-05
58	0x3aad1db8	0.0013207709
59	0xbb8bc29e	-0.0042651435
60	0x3b4a3141	0.0030852112
61	0xbb2bdb73	-0.0026223331
62	0x3b70ef0c	0.0036763577
63	0xbb2f9742	-0.0026793038
64	0x3bb34556	0.005470912
65	0xbb645c42	-0.003484503
66	0x3aa6f66d	0.0012738236
67	0x3addd23d	0.0016923618
68	0x3b909b78	0.0044130646
69	0x3b42ce65	0.0029725072
70	0xbb9bf01f	-0.0047588493
71	0xba873e9c	-0.0010318342
72	0xb99d5378	-0.00030007563
73	0x3b5371c9	0.0032263866
74	0xbb587333	-0.0033027648
75	0x3b4e6230	0.003149163
76	0xbb7db600	-0.0038713217
77	0x3b1af2c5	0.0023643237
78	0xbb8c6049	-0.004283939
79	0x3abb7b6a	0.0014303748
80	0xb7d25d79	-2.5077477e-05
81	0x3b92765a	0.004469675
82	0xbb3662e1	-0.0027829933
83	0x3acbbdee	0.0015544274
84	0xbb8ac153	-0.004234472
85	0xbb3ae1df	-0.0028515977
86	0x3b565a45	0.0032707613
87	0x3aace89e	0.0013191884
88	0x3b9ad93d	0.004725604
89	0x3b3118ba	0.0027022795
90	0x3b723ebb	0.003696366
91	0xbb46f4e9	-0.003035838
92	0x3a16d933	0.0005754411
93	0xbbb2a1fd	-0.0054514394
94	0x3ae6d55f	0.0017611197
95	0xba8c9ada	-0.0010727302
96	0x3b107e05	0.002204777
97	0xbb07f50d	-0.0020745427
98	0xbad8e53d	-0.001654781
99	0x3b6a0786	0.003571005
100	0x3b66a4ec	0.0035193516
101	0x3bad00b2	0.005279624
102	0xbbbb363c	-0.0057132524
103	0xbb082425	-0.0020773497
104	0xbbaa07db	-0.0051889247
105	0x3a9b7235	0.0011859598
106	0x3bab3e9b	0.005225969
107	0xbaeacb8d	-0.0017913446
108	0xba1edf2a	-0.0006060476
109	0xbae344cb	-0.0017339227
110	0xbb07015b	-0.0020600173
111	0x3ad91619	0.0016562372
112	0x3b845e65	0.004039573
113	0xbb7fbc32	-0.0039022085
114	0x3b9e3f5e	0.0048293313
115	0x3b93cc4c	0.004510438
116	0xb97a8009	-0.00023889555
117	0xbb87e7e1	-0.004147515
118	0xbb99c8a3	-0.004693107
119	0xba88373c	-0.0010392438
120	0xb98c4585	-0.00026754677
121	0xbb97d779	-0.0046338406
122	0xbbb8c1b7	-0.005638327
123	0x3af0d1e1	0.0018373096
124	0x39fbb8f5	0.00048012254
125	0x3b886331	0.004162215
126	0x3a97ee27	0.0011591361
127	0x3b17fff1	0.0023193324
128	0x3a267008	0.00063490914
129	0x3b2418e5	0.0025039252
130	0xbb30a9a4	-0.0026956582
131	0x37f6882c	2.9388895e-05
132	0x3b516d9a	0.0031956197
133	0x3b00c655	0.0019649465
134	0x3b382493	0.0028097972
135	0xbbab3332	-0.005224609
136	0xb829d1bc	-4.048807e-05
137	0xbb4b5a8a	-0.0031029307
138	0xbaba0c71	-0.0014194382
139	0x3b30609a	0.0026913048
140	0xba9e75e4	-0.0012089578
141	0xbb3aab9c	-0.0028483635
142	0xb905f4fc	-0.00012775132
143	0xbb76e97b	-0.0037675786
144	0xbb2462a1	-0.0025083201
145	0xbb30faa8	-0.0027004872
146	0x3bb2d6d3	0.005457738
147	0xbb347d41	-0.0027540477
148	0xbb56b67b	-0.0032762575
149	0xbac995c1	-0.0015379713
150	0x3b8d93bf	0.004320591
151	0x38064374	3.201091e-05
152	0xba692aa0	-0.0008894596
153	0x3b5b0fc7	0.0033426152
154	0x3b7c89d3	0.0038534298
155	0x3bb65e9f	0.005565479
156	0xbb863bb8	-0.0040964745
157	0x3b4c4eb3	0.0031174838
158	0xbb8186d9	-0.0039528427
159	0xbb3cc8bd	-0.0028806173
160	0x3ba2c5de	0.0049674353
161	0x3b0a11a1	0.0021067637
162	0xbb33109e	-0.0027323137
163	0xbac4fe01	-0.0015029312
164	0x3b66637e	0.0035154517
165	0x3a8b2f8c	0.0010619028
166	0xbaa8bd7f	-0.0012873857
167	0xbacb812e	-0.001552617
168	0xbae5c37b	-0.0017529571
169	0xba742d2c	-0.00093145925
170	0x3b96bc37	0.0046000737
171	0xbb8ac22a	-0.004234572
172	0x3b7d30c8	0.0038633812
173	0x3a7c374d	0.00096212776
174	0x3bc37955	0.0059653916
175	0x3b0235af	0.0019868424
176	0xbbc4fb75	-0.0060114213
177	0xbb0aceaf	-0.0021180322
178	0xba84bc02	-0.0010126831
179	0x3b098ff5	0.0020990346
180	0xbbb57a80	-0.005538285
181	0x3b072c6f	0.002062585
182	0xbaa2fe6e	-0.0012435445
183	0xbb5e75be	-0.0033944692
184	0xbb8bdfb5	-0.0042686113
185	0xbb730a5d	-0.0037085034
186	0xbbaebc0f	-0.005332477
187	0xb9e4d9aa	-0.0004364972
188	0x3b1c32cf	0.0023833995
189	0xbb5c7976	-0.0033641732
190	0xbb61cf6c	-0.0034455908
191	0x396f665b	0.00022830947
192	0xbba03367	-0.00488894
193	0xbb8aa4a2	-0.0042310515
194	0xbad1c268	-0.0016003372
195	0x3b829728	0.0039853044
196	0x3b496877	0.0030732432
197	0x3a92d5a8	0.001120259
198	0xbb027065	-0.0019903418
199	0xbba78054	-0.0051117335
200	0x3b686704	0.0035461793
201	0x3967736f	0.00022072879
202	0x3b274dd6	0.0025528572
203	0xb95b4442	-0.00020910896
204	0x3b540cbb	0.003235622
205	0xb83b93ec	-4.4722037e-05
206	0x3b4aca6d	0.003094341
207	0xba8064c3	-0.0009795654
208	0xbb0100cc	-0.0019684313
209	0x3a9b2005	0.0011835104
210	0xbbc1f0c9	-0.0059185964
211	0xbb941a90	-0.004519768
212	0x3a1d4efd	0.0006000845
213	0x3bbc7924	0.005751746
214	0xbad9e2de	-0.0016623398
215	0xbaf8fc1c	-0.0018996033
216	0x3b660dc9	0.0035103431
217	0x3ba726c5	0.0051010572
218	0xbb6df694	-0.0036310302
219	0x3bb072c0	0.005384773
220	0xbafedba1	-0.0019444117
221	0x3b556473	0.0032561093
222	0x3ae845de	0.0017721017
223	0x3a53f695	0.0008085755
224	0x3b9e7d16	0.0048366887
225	0xba939ed7	-0.0011262548
226	0xb9c413ab	-0.00037398687
227	0x3b774ed9	0.0037736206
228	0xbb17fc53	-0.0023191168
229	0x3ac58552	0.001506964
230	0x3b666fd2	0.0035161865
231	0x398f6812	0.00027352624
232	0x3bbd6a4e	0.005780495
233	0x39ca8b7f	0.00038632375
234	0x3b297324	0.0025855983
235	0x3b5e32aa	0.003390471
236	0x3ba30b19	0.004975688
237	0xbb37c1c9	-0.002803909
238	0xb91fbbbf	-0.00015233363
239	0xbb1e204f	-0.0024128144
240	0xbb314ee9	-0.002705509
241	0xbb2285e2	-0.0024799039
242	0x3a467994	0.0007571217
243	0xbb893fa3	-0.0041884943
244	0xbb1e6857	-0.0024171078
245	0x3b9bb453	0.004751721
246	0x3b00a4ef	0.0019629558
247	0x3bc52b06	0.0060170917
248	0xba6c1c37	-0.000900689
249	0xb96fa0ab	-0.0002285267
250	0xbb4a342d	-0.0030853853
251	0x3a7091bd	0.000917699
252	0x3abc7e77	0.0014380951
253	0x3b92c684	0.0044792313
254	0xbb948659	-0.004532617
255	0xbaf45412	-0.0018640778

_func._drift._model.2.bias f4 [16]
0	0x3ba7fed1	0.005126812
1	0xbb833cc6	-0.0040050475
2	0x3b262b4d	0.00253554
3	0xbb8f4d5a	-0.0043732347
4	0xbb3289f9	-0.0027242883
5	0xbbba0db8	-0.005677905
6	0xbb60e1ec	-0.0034314347
7	0xbb3fbc90	-0.002925668
8	0x3ba14990	0.0049220994
9	0xbb7d2c1a	-0.0038631023
10	0x3b890c0b	0.004182344
11	0x3a2ca5c6	0.00065859815
12	0x3b2ec3ce	0.0026667002
13	0x3b8543f0	0.0040669367
14	0x3b9330a5	0.004491883
15	0xbb98bb3b	-0.0046609915

_func._diffusion._model.0.weight f4 [16, 17]
0	0x3da351ab	0.07974561
1	0xbd7ac952	-0.06122715
2	0xbd25b46e	-0.040455274
3	0x3d97ef86	0.07418732
4	0xbde5a726	-0.11213522
5	0xbd3a5dff	-0.045499798
6	0x3d5c330a	0.053759612
7	0x3c76cb34	0.015063096
8	0xbcac4f31	-0.021033855
9	0x3daa3ee4	0.08312777
10	0x3d8ab97c	0.067736596
11	0x3d7bee3e	0.061506502
12	0x3cdcbdae	0.026945915
13	0x3cc94411	0.02456859
14	0xbcffb275	-0.031213025
15	0x3ce21125	0.027596066
16	0xbd834c37	-0.06411021
17	0xbd4d9bbb	-0.050197344
18	0x3c3a2f25	0.011363779
19	0xbd6b00df	-0.057373878
20	0xbcaa97bf	-0.020824311
21	0xbc464913	-0.012102383
22	0x3d300aad	0.04297893
23	0x3cb87273	0.022515511
24	0x3d41ba67	0.047296908
25	0x3cf43603	0.029810911
26	0xbc84263b	-0.016131511
27	0x3c62caec	0.013842326
28	0xba220fa1	-0.00061821385
29	0x3d35a3f7	0.044345822
30	0x3d281063	0.041031253
31	0x3b6ade53	0.0035838082
32	0xbc8c8720	-0.017154276
33	0xbd9c53f5	-0.07633201
34	0x3c5eab4e	0.013590647
35	0x3d0e7d72	0.034787603
36	0x3d1fc9c1	0.039010767
37	0x3d571ea4	0.052519456
38	0xbd1335a3	-0.035939824
39	0x3d5e994a	0.054345407
40	0xbd5ca56c	-0.053868696
41	0xbb0f703f	-0.0021886972
42	0x3d0b4df7	0.0340099
43	0x3d090056	0.033447586
44	0x3d5951f3	0.05305667
45	0x3d848e76	0.06472485
46	0xbd562aea	-0.05228702
47	0xbb0044a7	-0.001957217
48	0x3d2a2b50	0.041545212
49	0x3c958ad4	0.018254675
50	0x3bbee776	0.005825932
51	0x3ce95130	0.028481096
52	0x3c5ac876	0.013353458
53	0xbc2882fa	-0.0102851335
54	0xbcac4a52	-0.021031532
55	0xbdf40075	-0.1191415
56	0x3cd006ff	0.025393961
57	0xbc7f789d	-0.015592721
58	0x3cd8d45b	0.026468446
59	0xbda88483	-0.082283996
60	0x3d966e03	0.07345202
61	0x3c933e41	0.01797402
62	0x3d300b08	0.04297927
63	0x3d0f5523	0.034993302
64	0xbcf607fe	-0.030033108
65	0xbd9f056a	-0.077647045
66	0xbd141881	-0.03615618
67	0xbd48a336	-0.048983775
68	0xbdae0f38	-0.084989965
69	0x3c63e93f	0.013910591
70	0x3cdbcfd5	0.0268325
71	0xbd9291ab	-0.0715669
72	0x3d8686d6	0.06568687
73	0xbd8cc0ed	-0.06872735
74	0x3b4c3209	0.0031157753
75	0xbdc96c44	-0.09835103
76	0x3d00363b	0.03130172
77	0xbde39708	-0.11112791
78	0xbd3a1478	-0.045429677
79	0xbcd4bee3	-0.025969928
80	0xbdb159aa	-0.0865968
81	0xbd118da7	-0.03553548
82	0x3bae1a7e	0.0053132167
83	0xbd3378ac	-0.043816254
84	0x3c41a320	0.011818677
85	0x3db17372	0.086645976
86	0xbda9aad5	-0.08284537
87	0x3cad1816	0.02112965
88	0xbc9b351d	-0.018946225
89	0xbdcef164	-0.10104635
90	0xbd5ed819	-0.054405306
91	0xbcf2a3b3	-0.029619073
92	0x3b0593e1	0.0020382332
93	0xbd9dbfa2	-0.07702567
94	0x3d86b102	0.0657673
95	0xbcbc3343	-0.022973662
96	0x3d910e9e	0.07082866
97	0xbd479426	-0.04872527
98	0xbd36095b	-0.044442516
99	0x3d07a86c	0.033119604
100	0x3d451742	0.048117884
101	0x3b1396e3	0.0022520355
102	0xbdee311e	-0.11630462
103	0xbc979495	-0.018503467
104	0xbcc56a1f	-0.024098454
105	0xbd55e5df	-0.052221175
106	0x3b181c64	0.0023210282
107	0xbd875fb4	-0.06610051
108	0x3c0a7297	0.008450172
109	0xbc9717c3	-0.018443948
110	0x3d64903c	0.055801615
111	0xbda82c40	-0.08211565
112	0xbd6e673c	-0.05820392
113	0xbd564b26	-0.05231776
114	0xbd7afd7d	-0.0612769
115	0xbd18e627	-0.037328865
116	0x3d315c2e	0.0433008
117	0xbdb89572	-0.090128794
118	0x3d2b0a1b	0.041757684
119	0xbd0abe28	-0.033872753
120	0xbb1a4d59	-0.0023544638
121	0xbc97feca	-0.01855411
122	0xbdabd700	-0.08390617
123	0xbbc685a2	-0.0060584107
124	0xbc92d216	-0.017922442
125	0xbd134a85	-0.03595974
126	0xbd837519	-0.06418819
127	0x3b8a17a6	0.004214245
128	0xbd93af6f	-0.07211196
129	0xbd55951e	-0.052144162
130	0xbda33c3c	-0.07970473
131	0xbcff3c2c	-0.031156622
132	0x3bd2b006	0.006429675
133	0xbcdbadf0	-0.026816338
134	0xbd86662e	-0.06562458
135	0x3ced9040	0.028999448
136	0x3d16c219	0.0368062
137	0xbd939e8b	-0.07207974
138	0xbbb5062a	-0.0055244165
139	0x3d01d99f	0.03170168
140	0xbdc31447	-0.09525352
141	0xbc730fe8	-0.014835335
142	0x3d1a69cb	0.03769855
143	0x3d725eca	0.05917243
144	0xbad62815	-0.001633885
145	0xbbd314dc	-0.0064416956
146	0x3bd18190	0.006393619
147	0x3d4e7ed0	0.050413907
148	0xbd381c6b	-0.044948976
149	0x3cfc2c8b	0.030782958
150	0xbd680ffc	-0.05665587
151	0x3ca38bcd	0.019964123
152	0xbd4ff6da	-0.050772525
153	0xbd148087	-0.036255386
154	0x3d3dfbdc	0.04638277
155	0x3ba2bb2d	0.0049661607
156	0xbde0881c	-0.10963461
157	0x3bb4107e	0.00549513
158	0xbd1118a7	-0.0354239
159	0xbd0885f7	-0.033330884
160	0xbd824344	-0.06360486
161	0x3d2e8cd2	0.042614765
162	0xbd3db75a	-0.046317436
163	0xbdb90833	-0.09034767
164	0xbd26c8b9	-0.040718768
165	0xbc41a01c	-0.011817958
166	0xbb542517	-0.003237074
167	0xb9a54adb	-0.00031527024
168	0xbd9f49e3	-0.07777765
169	0x3d362b33	0.04447479
170	0xbdc92791	-0.09822
171	0xbd363396	-0.04448279
172	0xbd31f323	-0.043444764
173	0xbcb83fca	-0.022491354
174	0x3d429cd8	0.04751286
175	0x3c9e2754	0.019305862
176	0xbd8fee94	-0.07027927
177	0xbd2f9429	-0.042865906
178	0x3d76e4d7	0.060276832
179	0xbe010e91	-0.12603213
180	0xbd889c19	-0.06670398
181	0xbcedc297	-0.029023452
182	0xbd3b9a4e	-0.045801453
183	0x3bfd9102	0.0077382335
184	0xbd0f4331	-0.034976188
185	0xbd3ffb88	-0.04687074
186	0x3cb7fd36	0.022459608
187	0x3bf6e6ce	0.0075348383
188	0x3cd178b8	0.025570258
189	0xbb3da08d	-0.0028934807
190	0x3d133c56	0.035946213
191	0xbc08a518	-0.008340143
192	0xbc5e0b25	-0.013552462
193	0xbba19b64	-0.004931854
194	0x3d5cd6aa	0.053915657
195	0xbdaa5a2c	-0.0831798
196	0x3c116c65	0.008875941
197	0xbce6208e	-0.028091695
198	0x3d7ba9da	0.06144128
199	0x3d08af97	0.03337058
200	0xbdb0f357	-0.086401634
201	0xbc9dd1af	-0.019265024
202	0x3d6feb86	0.058574222
203	0xbd7fdef4	-0.062468484
204	0xbd81a55e	-0.063303694
205	0x3b86fae2	0.004119263
206	0x3be69da8	0.007037837
207	0xbdba4102	-0.090944305
208	0x3d26099b	0.040536504
209	0x3b3acbc5	0.0028502804
210	0xbd82ba99	-0.06383247
211	0xbda5c6f5	-0.08094589
212	0x3c84389b	0.016140273
213	0xbd3a7a29	-0.045526657
214	0xbda10877	-0.07862943
215	0xbd615c01	-0.055019382
216	0xbd282167	-0.04104748
217	0x3cdbee0a	0.026846904
218	0xbc7949da	-0.0152153615
219	0xbd3ab228	-0.04558006
220	0x3d7347b6	0.05939456
221	0x3d8365f9	0.06415934
222	0x3c57ea17	0.01317837
223	0xbb0e8635	-0.0021747474
224	0x3d85afb8	0.06527656
225	0xbd8b3fce	-0.06799279
226	0xbd19a967	-0.03751507
227	0xbc649f9e	-0.013954071
228	0x3d040634	0.03223248
229	0xbd60bf4d	-0.05486994
230	0x3d9f5d3e	0.077814564
231	0x3d89634e	0.06708394
232	0x3d5c7fd9	0.053832863
233	0x3cbde59b	0.023180773
234	0x3c9217b2	0.017833564
235	0xbc69e6d2	-0.014276223
236	0xbc6d6db0	-0.014491484
237	0xbc4234f1	-0.0118534425
238	0x3c11a6da	0.008889878
239	0x3b314b24	0.0027052844
240	0x3cd27fdc	0.025695734
241	0x3c163e12	0.009170072
242	0xbc8fe0dd	-0.017563278
243	0x3c23b643	0.009992185
244	0xbba0bad8	-0.004905086
245	0x3d141a53	0.036157917
246	0xbd9bbe07	-0.07604604
247	0x3c7dfc54	0.015502054
248	0x3ce1476e	0.02749988
249	0x3d040001	0.032226566
250	0xbb84f607	-0.004057649
251	0xbdb72331	-0.08942259
252	0xbcff9d35	-0.031202892
253	0x3d23a856	0.03995546
254	0xbccde4a1	-0.025133433
255	0xbb6ba95a	-0.0035959096

_func._diffusion._model.0.bias f4 [16]
0	0x3ddbf224	0.10739544
1	0x3c6bc60f	0.014390483
2	0x3c737539	0.014859491
3	0x3dc78020	0.09741235
4	0xbc38bf2a	-0.011276046
5	0x3c6f9f54	0.014625389
6	0xbd6dc319	-0.058047388
7	0xbdcca38e	-0.09992133
8	0x3d6fd8a0	0.0585562
9	0xbcdfc345	-0.027314791
10	0xbc9ca115	-0.019119779
11	0x3d4ca0d0	0.04995805
12	0xbda9bded	-0.082881786
13	0x3dbd5e9d	0.09246562
14	0x3d9ea70c	0.077467054
15	0x3c0aceaa	0.008472124

_func._diffusion._model.2.weight f4 [48, 16]
0	0x3d9467e3	0.07246377
1	0x3d578b2c	0.05262296
2	0xbc022472	-0.00794326
3	0x3d3cb8e7	0.046074774
4	0xbdc6eff9	-0.0971374
5	0x3d25b31c	0.040454015
6	0x3b90fa9e	0.004424407
7	0xbbb86bc9	-0.0056280834
8	0x3d18e09b	0.037323575
9	0xbdaf75bb	-0.08567377
10	0x3c33dfd0	0.010978654
11	0x3d7b31ad	0.06132667
12	0xbd65d46b	-0.05611078
13	0xbccf5184	-0.025307424
14	0xbc961a7f	-0.018323181
15	0x3d90e079	0.07074065
16	0x3d10005a	0.035156585
17	0xbd226d2e	-0.039654903
18	0xbce30275	-0.027711133
19	0x3c27d7dc	0.010244336
20	0xbd92c8c2	-0.07167198
21	0x3d4e067d	0.050299156
22	0xbd0b4342	-0.03399969
23	0xbdb304bb	-0.08741137
24	0x3d9e1eaf	0.07720696
25	0xbc113b38	-0.0088642165
26	0x3c138c42	0.009005608
27	0x3d892468	0.06696397
28	0xbc68e05f	-0.0142136505
29	0xbcd3bb70	-0.025846213
30	0xbcf32177	-0.029679043
31	0xbc7622da	-0.015022958
32	0x3c1eff54	0.00970443
33	0xbcbe8e93	-0.023261344
34	0xbd0b92a3	-0.03407539
35	0x3dc6b3b5	0.09702245
36	0xbdaeafd8	-0.08529633
37	0x3d21f632	0.03954143
38	0xbd37c91c	-0.044869527
39	0x3ccd4c57	0.025060816
40	0xbc5d9f17	-0.0135266995
41	0xbcf6c624	-0.030123778
42	0xbdb63b66	-0.08898048
43	0xbcb10b14	-0.021611728
44	0xbcf13306	-0.029443275
45	0x3a69fcc5	0.000892591
46	0x3cb64ffa	0.022254933
47	0xbca1340b	-0.019678136
48	0x3d95d6d4	0.07316366
49	0x3d6dc626	0.058050297
50	0xbd546cfa	-0.05186174
51	0x3c620bd8	0.013796769
52	0x3bb8ee3a	0.005643633
53	0xbc8cc27e	-0.017182585
54	0xbd309487	-0.043110397
55	0xbd0a11d9	-0.033708427
56	0x3d634f3a	0.05549548
57	0xbd2c3822	-0.04204572
58	0xbc95216c	-0.018204413
59	0xbc49c8bd	-0.012315926
60	0xbcbe341f	-0.023218213
61	0xbbcf0b62	-0.0063184956
62	0x3d7fb4d6	0.062428318
63	0x3d24cf69	0.040236864
64	0x3d898162	0.06714131
65	0x3bf097a7	0.007342297
66	0xbc09e826	-0.008417165
67	0x3dc2a062	0.09503247
68	0xbd2ac18b	-0.041688483
69	0x3d89e04b	0.067322336
70	0xbd8b77a8	-0.06809932
71	0x3c199c76	0.009375682
72	0x3d40b935	0.047051627
73	0xbda8571d	-0.082197405
74	0xbd131860	-0.035911918
75	0xbd1c1bf0	-0.03811258
76	0xbcdef702	-0.027217392
77	0x3bb68ca9	0.005570967
78	0x3b23084f	0.0024876778
79	0x3c6453a3	0.013935956
80	0x3db9a88f	0.09065353
81	0x3c8a49a7	0.016880823
82	0xbd4c15de	-0.04982554
83	0x3d88deb2	0.06683101
84	0xbce88a51	-0.028386267
85	0x3d36d86f	0.04464
86	0xbcee1206	-0.029061329
87	0xbc9359f2	-0.017987225
88	0x3d0d0f38	0.03443834
89	0xbd2ab804	-0.041679397
90	0xbba15dad	-0.004924497
91	0x3d74bea7	0.059752133
92	0xbdbd1ac0	-0.09233618
93	0x3cc0e5ef	0.02354714
94	0x3ca6dd4c	0.020369194
95	0x3d788ae0	0.060679317
96	0x3da1996c	0.07890591
97	0x3d1f64e1	0.038914565
98	0xbd725215	-0.05916031
99	0x3cd3c07f	0.025848625
100	0x3b92c0bb	0.0044785417
101	0x3c00b512	0.0078556705
102	0xbd34e22d	-0.04416101
103	0xbd91442c	-0.07093081
104	0x3d52cbdc	0.051463947
105	0xbca9d434	-0.02073107
106	0xbd266579	-0.040624116
107	0x3d3aa404	0.045566574
108	0xbd37c68f	-0.044867095
109	0xbb968d71	-0.004594498
110	0x3d9875d6	0.074443504
111	0x3d514473	0.05109067
112	0x3db06b17	0.08614176
113	0x3bc2abcf	0.0059408913
114	0xbd0c4b05	-0.03425123
115	0x3c81a57d	0.015825981
116	0xbd80697c	-0.062701195
117	0x3a368614	0.0006962728
118	0xbc51cfa1	-0.01280585
119	0xbd7d01ea	-0.061769404
120	0x3dbe5531	0.09293593
121	0xbdad48b4	-0.08461133
122	0xbcc69192	-0.024239335
123	0x3d6dc676	0.058050595
124	0xbdb4d73b	-0.088301145
125	0x3d30afe6	0.0431365
126	0x3da564df	0.0807588
127	0x3d2412c9	0.040056977
128	0xbcdd5bb7	-0.027021272
129	0xbcbb8db9	-0.022894727
130	0x38ce67c4	9.842173e-05
131	0x3d17309b	0.03691159
132	0xbd602e00	-0.05473137
133	0x3d3c5c66	0.045986556
134	0xbcbbfed9	-0.02294867
135	0x3ca571b0	0.020195812
136	0x3d2905ac	0.041265175
137	0x3c070a84	0.008242253
138	0xbd3692c8	-0.044573575
139	0x3cbe4ee2	0.023230974
140	0x3bc2ecd0	0.0059486404
141	0x3ce3f11e	0.027824935
142	0x3d89c697	0.06727331
143	0x3d6bef6f	0.05760139
144	0xbab31cdf	-0.001366522
145	0xbc65fcb8	-0.014037304
146	0xbc1af548	-0.009457894
147	0x3c967756	0.01836745
148	0xbcdf6abe	-0.027272578
149	0x3d3d49f3	0.0462131
150	0x3c1ab2c0	0.009442031
151	0xbd9f91ba	-0.07791467
152	0x3d41f5f3	0.047353696
153	0xbd190d24	-0.037366048
154	0xbd7cc209	-0.061708484
155	0x3d85ccdc	0.065332144
156	0xbdb81154	-0.0898768
157	0x3b254699	0.0025219081
158	0x3d74b6a8	0.059744507
159	0xbcfcd265	-0.030862043
160	0x3a9ec4fe	0.0012113152
161	0xbbf18297	-0.007370304
162	0x3d2a12a5	0.041521687
163	0x3d2fdef8	0.04293725
164	0xbdd36d01	-0.10323525
165	0x3b5483a3	0.0032427094
166	0xbd844296	-0.06458013
167	0xbd9176b8	-0.07102722
168	0x3c6f90fa	0.014621967
169	0xbd845428	-0.06461364
170	0xbdce8d2b	-0.100855194
171	0x3d202e9f	0.03910696
172	0xbd582ef0	-0.052779138
173	0x3d956a55	0.07295672
174	0x3c9ef6d5	0.019404808
175	0x3d83919f	0.064242594
176	0x3dafb0c6	0.08578639
177	0x3b36fdbc	0.0027922234
178	0xbd1ea0e3	-0.038727652
179	0x3cf62a71	0.030049535
180	0xbdb88fd3	-0.09011807
181	0x3cce3b9d	0.02517491
182	0xbd85eda7	-0.06539469
183	0xbd9f1fb9	-0.077697225
184	0xbcb9de9e	-0.02268916
185	0xbca45bfb	-0.020063391
186	0x3c680f20	0.014163762
187	0xbc48f99b	-0.012266542
188	0xbda881a9	-0.08227856
189	0x3c8cbf25	0.017180989
190	0x3d052f31	0.03251571
191	0x3d931d48	0.07183319
192	0xbd07aa9b	-0.033121686
193	0x3cb1d281	0.021706821
194	0x3c35a9af	0.011087819
195	0xbd4c6c05	-0.049907703
196	0x3b098f9f	0.0020990146
197	0xbd4dc969	-0.050240908
198	0x3bfaa241	0.0076487367
199	0xbce40872	-0.027836058
200	0xbc89e1f2	-0.016831372
201	0x3caec7d0	0.021335512
202	0x3d6cb163	0.057786357
203	0xbc92a9ef	-0.017903296
204	0x3d7744a1	0.060368184
205	0xbd486986	-0.04892876
206	0xbdab3903	-0.083604835
207	0xbd947f92	-0.072508946
208	0x3c24e8ca	0.010065267
209	0xbc026277	-0.007958046
210	0xbadd1705	-0.0016867822
211	0xbdc8654e	-0.09784947
212	0x3c7e09d0	0.015505269
213	0xbd80226a	-0.06256564
214	0x3ba141c2	0.004921169
215	0x3d04b288	0.032396823
216	0xbd90cc89	-0.07070262
217	0x3c60fb1b	0.013731743
218	0x3d31dc95	0.043423254
219	0xbd2a560c	-0.041585967
220	0x3d5c9ed6	0.053862415
221	0x3cf12ecf	0.029441265
222	0x3d1893eb	0.03725044
223	0x3ccacf88	0.024757162
224	0xbd540e51	-0.051771466
225	0x3cc001be	0.02343833
226	0x3d149073	0.03627057
227	0xbd503c7e	-0.05083894
228	0x3d8f6fd2	0.0700375
229	0x3c2628d0	0.010141566
230	0x3d03afbf	0.032150026
231	0x3dabafaa	0.08383115
232	0xbce54afb	-0.027989855
233	0x3d97495f	0.07387041
234	0x3bd4d7d6	0.006495456
235	0xbcc1e73e	-0.023669835
236	0x3da73272	0.081639186
237	0xbd55d6da	-0.05220685
238	0xbd1a44d8	-0.03766331
239	0xbda00a55	-0.07814471
240	0xbbec5f32	-0.0072134966
241	0xbbcd27d7	-0.006260853
242	0xbd2e29d0	-0.042520344
243	0x3ceb021e	0.028687533
244	0xbd254f34	-0.040358737
245	0xba89727b	-0.0010486388
246	0xbd879095	-0.06619374
247	0xbca1437a	-0.019685496
248	0x3b9f784a	0.0048666345
249	0xbdb580f7	-0.08862489
250	0xbd81f083	-0.06344702
251	0x3d4c17f7	0.049827542
252	0x3ad1135d	0.0015951205
253	0x3d88cc41	0.06679583
254	0xbb319746	-0.0027098223
255	0x3cf727fc	0.030170433

_func._diffusion._model.2.bias f4 [48]
0	0x3d89bac5	0.067250766
1	0x3db046c2	0.08607246
2	0x3dc9f276	0.09860699
3	0x3da0798f	0.078356855
4	0x3cf1d7ed	0.029521907
5	0x3d5304be	0.051518194
6	0x3d17f3f6	0.037097894
7	0x3d6d1b6c	0.05788748
8	0x3cb623b7	0.022233827
9	0x3ce838c4	0.02834738
10	0x3de03f09	0.10949523
11	0x3cda88b2	0.02667651
12	0xbd2c9ea2	-0.04214347
13	0xbc755d52	-0.014975863
14	0xbd9f4c0e	-0.07778178
15	0x3aa0a7ae	0.0012257004
16	0x3bbd2742	0.005772502
17	0x3d8c4f7c	0.06851098
18	0xbd5f21b2	-0.054475494
19	0xbdd6fcf7	-0.10497468
20	0xbdbc3839	-0.09190411
21	0xbc258f39	-0.010104948
22	0xbd4d8838	-0.050178736
23	0xbdd1a74b	-0.10236987
24	0xbcc1873a	-0.023624051
25	0xbcac8178	-0.02105783
26	0x3d6e0af5	0.05811592
27	0xbd917603	-0.07102587
28	0xbcd56644	-0.02604974
29	0xbd30cc5f	-0.043163653
30	0xbc5e7bcd	-0.013579321
31	0xbd693519	-0.056935403
32	0xbddbcff2	-0.10733022
33	0x3dc070fd	0.09396551
34	0x3d924d92	0.071437016
35	0x3db167e2	0.08662392
36	0x3d2f7b1b	0.042842012
37	0x3c271111	0.01019694
38	0x3c956834	0.018238164
39	0x3b8db2a7	0.0043242755
40	0xbcd53209	-0.026024835
41	0xbd918c3c	-0.07106826
42	0x3d3c446c	0.04596369
43	0x3d90b16f	0.07065093
44	0x3dc44a16	0.09584443
45	0xbd5e7c15	-0.054317553
46	0xbc909c4a	-0.01765265
47	0x3a9b80b3	0.0011863917

_readout.weight f4 [1, 16]
0	0xbdc414b8	-0.09574264
1	0xbe4595f2	-0.19295481
2	0xbe75d27e	-0.24006078
3	0xbe544efd	-0.20733257
4	0x3da288ca	0.07936247
5	0xbdcb9faf	-0.099425666
6	0x3c1aed8c	0.00945605
7	0x3e041b5e	0.12901065
8	0xbcdf425b	-0.02725332
9	0x3d92a02f	0.07159459
10	0x3db4ef39	0.088346906
11	0xbe8a295d	-0.26984683
12	0xbe722281	-0.23645975
13	0xbb9485a5	-0.004532533
14	0xbd8bd995	-0.0682861
15	0x3e150d75	0.14555915

_initial._model.0.weight f4 [16, 2]
0	0xb61f8abb	-2.3773598e-06
1	0xbeaaad85	-0.3333551
2	0xb62adc94	-2.5460367e-06
3	0x3f9c58da	1.2214615
4	0x34bdfcde	3.5387978e-07
5	0xbf397ce3	-0.72456187
6	0x36b4a3a5	5.3834688e-06
7	0xbf108a7f	-0.5646133
8	0xb686aaca	-4.0133937e-06
9	0xbea12f68	-0.3148148
10	0x3637e6e8	2.740353e-06
11	0xbf3435bf	-0.7039451
12	0x363b25fb	2.788728e-06
13	0x3f67be1d	0.90524465
14	0xb5da24bf	-1.625296e-06
15	0x3facca4f	1.349924
16	0x3459329a	2.0228109e-07
17	0xbf3d9155	-0.74049884
18	0xb64fca57	-3.096318e-06
19	0x3f3f6374	0.7476113
20	0xb6782c85	-3.6980794e-06
21	0x3dcad81a	0.09904499
22	0x36b5c930	5.4176417e-06
23	0xbeae3953	-0.3402811
24	0xb6bbc47e	-5.595909e-06
25	0xbfb26c84	-1.3939366
26	0x36334c1d	2.6717382e-06
27	0x3ec450ad	0.383428
28	0x359a1732	1.1480645e-06
29	0x3f21c82b	0.6319606
30	0xb5d462a7	-1.5823942e-06
31	0x3f220bdb	0.6329934

_initial._model.0.bias f4 [16]
0	0xbf018a18	-0.5060134
1	0xbd123126	-0.035691403
2	0x3d90c244	0.07068303
3	0x3f0a6890	0.540658
4	0xbe818af1	-0.25301316
5	0xbb8089dd	-0.0039226846
6	0xbea780ea	-0.3271554
7	0xbf05f276	-0.5232309
8	0x3f3fd267	0.74930423
9	0x3e0f3e55	0.13988622
10	0xbd8baa61	-0.068196066
11	0xbe038f93	-0.12847738
12	0xbe626b64	-0.22111279
13	0xbeb4f4d6	-0.35343045
14	0x3d760f91	0.06007344
15	0x3ebac544	0.36478627

_initial._model.2.weight f4 [16, 16]
0	0xbd345e5c	-0.0440353
1	0xbefecd14	-0.49765837
2	0xbc598a7c	-0.013277646
3	0xbd63e77c	-0.055640683
4	0xbe8101fd	-0.2519683
5	0xbe15471a	-0.14577904
6	0xbe24ba45	-0.16086681
7	0xbe4cb58a	-0.19991127
8	0xbd1e0a6e	-0.038584165
9	0xbe648af9	-0.22318639
10	0xbba9def3	-0.0051840483
11	0xbe3153cd	-0.17317124
12	0xbe42f850	-0.19040036
13	0xbde865d9	-0.11347551
14	0x3d96a229	0.07355148
15	0xbe519a00	-0.20468903
16	0x3dda57e9	0.10661299
17	0x3ec75ed2	0.3893953
18	0x3ed43610	0.41447496
19	0x3e87fa71	0.2655826
20	0x3e2d5150	0.1692555
21	0x3ebd6afe	0.3699569
22	0x3e77925d	0.24176927
23	0x3e8c4c9c	0.27402198
24	0x3e4fc6c1	0.20290662
25	0x3e6c29a4	0.2306276
26	0x3b3cd622	0.0028814157
27	0x3e121e89	0.1426946
28	0x3f02738f	0.5095758
29	0xbe300e85	-0.17193039
30	0x3d9f6fd4	0.077850014
31	0x3e8fd2ab	0.28090414
32	0xbe8d3345	-0.27578178
33	0x3ecb1abe	0.3966884
34	0x3dfb3116	0.12265222
35	0x3e19eb3e	0.15031144
36	0xbebdd580	-0.3707695
37	0x3e0792f7	0.13239656
38	0x3da33d1c	0.0797064
39	0x3e090ec1	0.13384534
40	0x3e7b482c	0.2453925
41	0x3eea7c84	0.45798123
42	0xbe8638c9	-0.262152
43	0xbe8a22c4	-0.2697965
44	0x3e92aebf	0.28648946
45	0xbc9e71a7	-0.019341303
46	0x3db2c7ae	0.08729492
47	0x3f0a78c9	0.54090554
48	0x3ca59905	0.020214567
49	0x3f1ddf5c	0.61668944
50	0x3e2a0e71	0.16607071
51	0x3dc21337	0.09476321
52	0xbd88c687	-0.06678491
53	0x3da44538	0.08021015
54	0x3eaa70af	0.33289096
55	0x3eded2db	0.43520245
56	0x3e328ce3	0.17436557
57	0x3dfd574c	0.12370166
58	0xbe3e5549	-0.18587221
59	0x3e378394	0.17921287
60	0x3e8fa21d	0.2805337
61	0xbce6119a	-0.028084565
62	0x3ea9c6f2	0.33159596
63	0x3c9fc21c	0.019501738
64	0xbdd2c8eb	-0.10292228
65	0x3eecbbe2	0.46237093
66	0x3e39efe8	0.18157923
67	0x3e1a55da	0.15071812
68	0xbd72d53a	-0.05928538
69	0x3ea7312f	0.32654712
70	0x3dd23c02	0.10265352
71	0x3f005dbd	0.50143033
72	0xbe276a05	-0.16349037
73	0x3e9d7a76	0.30757493
74	0xbe401a98	-0.18760145
75	0x3df82cbb	0.12117907
76	0x3f1cd7dc	0.61266875
77	0x3d2150ef	0.039383825
78	0xbd883de3	-0.06652429
79	0xbc931ec2	-0.017959002
80	0x3cf6ea5b	0.030141046
81	0x3f06e7c7	0.52697414
82	0xbd8ad4ab	-0.067788444
83	0x3db354ed	0.08756433
84	0x3e77c922	0.2419782
85	0x3e571695	0.21004708
86	0x3e92947a	0.28628904
87	0x3ef2ca49	0.47419956
88	0x3d9ce02a	0.076599434
89	0x3e9edbc3	0.3102704
90	0x3e0bbc0f	0.13645957
91	0xbd97f8d7	-0.07420509
92	0x3ea490f2	0.32141834
93	0x3e2e769e	0.17037436
94	0x3df7a94a	0.12092836
95	0xbd8ed5af	-0.06974351
96	0x3e5aac99	0.21354903
97	0xbcbacf4d	-0.022803927
98	0x3c7164f7	0.014733545
99	0xbdca7f0c	-0.098875135
100	0x3ea0ad0f	0.31382033
101	0xbd93db22	-0.07219531
102	0x3da54f92	0.080718175
103	0xbccbde8b	-0.02488639
104	0xbe238470	-0.1596849
105	0xbee0acc9	-0.43881825
106	0x3da9cc81	0.08290959
107	0x3ecfa1ad	0.40553036
108	0x3e1293a5	0.14314134
109	0xbca276ce	-0.019832041
110	0xbd9f270b	-0.07771119
111	0xbdb42ba7	-0.087973885
112	0xbe258d64	-0.16167217
113	0xbea9e4d2	-0.3318239
114	0x3d6c188b	0.057640593
115	0xbe8e7045	-0.2782003
116	0x3d90c8fb	0.07069584
117	0xbdf9d8e8	-0.12199575
118	0xbe392c9e	-0.18083426
119	0xbed6f62e	-0.41984695
120	0xbe04de53	-0.12975435
121	0xbac4c49a	-0.0015012205
122	0x3df11ca7	0.11773043
123	0xbd2791ad	-0.04091041
124	0xbf1aff5e	-0.6054591
125	0x3d755864	0.05989875
126	0x3d121408	0.035663635
127	0xbe72dce9	-0.23717083
128	0x3ea051e7	0.31312487
129	0x3e197bbf	0.14988612
130	0xbd82bc15	-0.0638353
131	0x3dda526a	0.106602505
132	0x3e1b7ba2	0.15183881
133	0x3d9d59f4	0.07683173
134	0x3eab11f3	0.33412132
135	0x3f02cf96	0.51098
136	0xbdea8af6	-0.11452286
137	0x3e6a890a	0.22903839
138	0xba8a71a5	-0.0010562433
139	0x3e44f318	0.19233358
140	0x3f1e5a98	0.61856985
141	0x3e0dd9d7	0.1385263
142	0xbe1bab57	-0.1520208
143	0x3e64bdb4	0.22337991
144	0x3e04b5ea	0.1296002
145	0xbe766120	-0.24060488
146	0xbe698559	-0.22804774
147	0xbba40228	-0.00500514
148	0xbe0d90ad	-0.1382472
149	0xbee739df	-0.4516134
150	0xbe8115c6	-0.25211924
151	0xbe96d70c	-0.29460943
152	0xbe53d682	-0.20687297
153	0xbc29ebd9	-0.010371172
154	0x3e4c8c6a	0.19975439
155	0x3d5d61a6	0.054048203
156	0xbf214125	-0.6299003
157	0xbe09fa1d	-0.13474317
158	0xbe0596f6	-0.13045868
159	0x3c99c3d1	0.01877013
160	0xbdeb628f	-0.11493408
161	0x3e171ff6	0.14758286
162	0x3e3b60a6	0.18298587
163	0xbe1bb990	-0.15207505
164	0xbd8295ed	-0.06376252
165	0x3ecf4636	0.40483254
166	0x3e98b958	0.29828906
167	0x3ead261a	0.33818132
168	0x3b13ef56	0.0022573075
169	0x3e833249	0.25624302
170	0xbdb8c810	-0.09022534
171	0x3e8ec0ff	0.2788162
172	0x3e63a534	0.22230989
173	0x3e35bb74	0.17747289
174	0xbbbdcb45	-0.005792054
175	0xbd5f12c5	-0.05446126
176	0xbdac3edd	-0.08410428
177	0x3e84d17f	0.25941083
178	0x3e340c24	0.17582756
179	0x3dc4fe1f	0.09618782
180	0x3e52f1cc	0.2060005
181	0x3eb33d6a	0.35007793
182	0x3e57f37f	0.2108898
183	0x3de8e2b3	0.113713644
184	0x3e4d3997	0.200415
185	0x3d788dfd	0.060682286
186	0xbd9d6184	-0.07684615
187	0x3da21df6	0.07915871
188	0x3f17e471	0.5933295
189	0xbe0ff5a9	-0.14058556
190	0x3e304f57	0.17217766
191	0x3da818e4	0.082078725
192	0xbcf5ff5b	-0.03002899
193	0x3e9dfa64	0.30855095
194	0x3e06195a	0.13095608
195	0xbe420fd3	-0.18951349
196	0x3db31ed7	0.087461166
197	0x3e9b84a8	0.30374646
198	0x3ea5237b	0.32253632
199	0x3eb5bfc3	0.35497865
200	0x3e487223	0.1957479
201	0x3e74ae17	0.23894535
202	0xbd9f3ff8	-0.07775873
203	0xbd92d7a8	-0.071700394
204	0x3f0e2162	0.5551969
205	0x3eb268c8	0.34845567
206	0x3e6aef33	0.2294281
207	0x3e2cea30	0.1688621
208	0x3e250531	0.16115262
209	0x3ec67088	0.3875773
210	0x3ebf4281	0.37355426
211	0x3e887212	0.2664953
212	0xbd8ce1ac	-0.06878981
213	0x3ee89f38	0.45433974
214	0x3ea85175	0.32874647
215	0x3dab3163	0.08359029
216	0x3e29033a	0.16505137
217	0x3ca22ae2	0.019795839
218	0xbdd42026	-0.10357694
219	0x3dd8654b	0.10566195
220	0x3f1ce137	0.6128115
221	0xbe172455	-0.14759953
222	0x3e3a7943	0.1821032
223	0x3e5bd11e	0.2146649
224	0x3ea13a5e	0.31489843
225	0xbe858801	-0.26080325
226	0x3ea03361	0.312892
227	0x3e3b8734	0.18313295
228	0x3e1e039d	0.15431066
229	0x3eed00ad	0.46289578
230	0x3e15e3ba	0.14637652
231	0xbd60da28	-0.05489555
232	0xbd7c3be0	-0.06158054
233	0xbdd7ef9f	-0.10543751
234	0xbd0d9cc7	-0.034573343
235	0x3ed69db5	0.41917196
236	0x3eb57220	0.35438633
237	0xbd8ede2d	-0.069759704
238	0xbdc87498	-0.097878635
239	0xbea26bec	-0.31722963
240	0xbba68ab2	-0.0050824517
241	0xbeda3e7b	-0.42625794
242	0xbe6834d7	-0.22676407
243	0x3d9403c2	0.07227279
244	0xbe7415ac	-0.23836392
245	0xbe44b467	-0.19209443
246	0xbe9ae855	-0.3025538
247	0xbed35231	-0.41273645
248	0xbe1b33b0	-0.15156436
249	0xbe117686	-0.1420537
250	0xbcdb070a	-0.026736755
251	0xbe55f666	-0.20894775
252	0xbeee856b	-0.46586165
253	0xbe74c32b	-0.23902576
254	0xbc754f7f	-0.014972567
255	0xbda71758	-0.08158749

_initial._model.2.bias f4 [16]
0	0x3eaf7d0e	0.34275097
1	0x3dd25cd1	0.102716096
2	0x3ea0129e	0.31264204
3	0xbcc7f8e4	-0.024410672
4	0xbe63da6a	-0.22251287
5	0x3ddcdc3e	0.10784195
6	0xbead170a	-0.3380664
7	0x3d09a6a9	0.033606205
8	0xbe809b93	-0.25118694
9	0xbe634814	-0.22195464
10	0x3dc927b1	0.09822024
11	0x3e3ef4dc	0.18648094
12	0xbdaf1d45	-0.085505046
13	0x3d1c9071	0.038223688
14	0xbe940e11	-0.28916982
15	0x3e1f9c00	0.15586853
