hyperparameter_tuning/ray_results/SUD_learning_rate_tuning/MyTrainableClass_cd4e4ed9_6_batch_size=16,name=SUD_v2,patience=1000,steps=200,steps_per_print=5,swa_step_start=2500,t_size=7,train_2024-03-11_19-05-34/checkpoint_000000/checkpoint.pt (torch, 61346 bytes, 66 tensors)

_initial._model.0.weight f4 [16, 5]
000000 68 54 54 bf 17 cf 06 c0 12 de b8 bf 2a 3e 91 bf
       -0.82941294 -2.1063898 -1.444277 -1.1347096
000010 65 bb 31 c0 51 5e e0 bf 8b 5d 5b c0 b0 f6 71 c0
       -2.7770627 -1.7528783 -3.4275844 -3.7806816
000020 36 0e 51 c0 fd 1c 21 40 0f 64 39 40 e9 f0 20 c0
       -3.2664924 2.5173943 2.896732 -2.514704
000030 2a 4f 52 40 05 2e 63 c0 40 62 ff 3f a5 f0 81 3f
       3.2860818 -3.5496838 1.9951859 1.0151564
000040 2d 38 4b 40 c1 2e 14 c0 94 0f 4b 40 77 5c 65 3e
       3.1753037 -2.3153536 3.1728258 0.22398554
000050 12 59 2f 40 68 48 8b bf 6f 06 59 be f2 72 1c c0
       2.7398114 -1.0881472 -0.2119386 -2.4445157
000060 8a 1a af 3f 2d 43 2d c0 82 8a 87 bf 82 b0 3e c0
       1.3679974 -2.707225 -1.0589144 -2.9795232
000070 ee 92 d3 bf 0e f6 f7 3d 67 06 4f c0 5a f4 46 3f
       -1.6529214 0.12107478 -3.2347658 0.777166
000080 16 55 27 c0 cd d1 b6 bd 7e 30 65 bf 56 5f 5c bf
       -2.6145682 -0.08926735 -0.8952712 -0.8608297
000090 03 55 51 bf ce 9c ca 3f df be 1d 3f b4 bc 02 40
       -0.8177034 1.5829103 0.6161937 2.0427675
0000a0 96 86 0b bf a0 2e 68 c0 23 7c 5c c0 42 bc 6c 40
       -0.54502237 -3.6278458 -3.4450767 3.6989903
0000b0 51 03 5c c0 08 e5 26 40 43 62 22 3f da 53 cb 3f
       -3.4377024 2.607729 0.63431185 1.5884964
0000c0 bc 47 df 3f 5f ce fd be e0 7c 3b 40 1c 58 fa 3d
       1.7443767 -0.4957151 2.9294968 0.12223837
0000d0 9d 33 f1 bf 18 80 1f bf 6e 2e c0 bf 79 1a 87 3f
       -1.8843876 -0.6230483 -1.5014169 1.0554954
0000e0 c4 b5 2c c0 2c ef 61 c0 f6 2b 64 40 33 d8 43 3f
       -2.698594 -3.530223 3.5651832 0.7650177
0000f0 8f a4 86 3e 4b 63 9b 3f 32 13 12 40 8c bd 40 be
       0.26297423 1.2139677 2.2824216 -0.18822306
000100 39 fa 23 40 e0 2a 78 c0 14 a6 f4 bf 1f 0e 20 bf
       2.5621474 -3.877617 -1.9113183 -0.6252155
000110 37 59 e6 3f 7f 86 18 c0 c8 7e 3c 40 1d 98 4f 40
       1.7995976 -2.383209 2.945238 3.2436593
000120 d5 51 42 40 23 3f 77 c0 d6 ab 55 c0 e3 be 83 bf
       3.0362446 -3.8632286 -3.338613 -1.0292629
000130 22 ab f1 3e 23 d0 49 40 33 89 41 3f 14 3d 5a 40
       0.47200876 3.1533287 0.75599974 3.409978

_initial._model.0.bias f4 [16]
000000 e1 77 f6 3f 41 92 5c c0 43 5b c4 bf eb c6 47 3f
       1.9255334 -3.4464266 -1.5340351 0.780379
000010 d6 35 d3 3e ea cb 60 c0 f6 8e d0 bf 00 05 1e 40
       0.4125201 -3.512446 -1.6293628 2.4690552
000020 aa 23 e8 3f 4d 13 48 bf a4 57 60 c0 4e 34 64 40
       1.8135884 -0.7815445 -3.5053492 3.5656924
000030 77 e3 03 c0 fa 1b a5 3f 62 c2 19 bf d8 15 44 3e
       -2.0607584 1.2899163 -0.6006223 0.19148958

_initial._model.2.weight f4 [16, 16]
000000 8b 5f 5f be cc f2 9f be dc 22 3e 3d 98 20 c3 bf
       -0.2181379 -0.31239927 0.046419963 -1.5244322
000010 75 a0 fa 3f e0 64 d2 bf a7 4c 30 3f a7 90 2f 3e
       1.9580218 -1.6437035 0.6886696 0.17145024
000020 33 b8 4d bf e6 6b df 3f 8c 4d 9b be 45 d1 bf bf
       -0.8035919 1.7454803 -0.303326 -1.4985739
000030 f0 cf 20 3f 41 5f 2b bf 16 29 d2 3f 23 b7 04 c0
       0.6281729 -0.6694222 1.6418788 -2.0736778
000040 45 d2 93 3f 3c d2 04 bf eb 63 19 c0 91 f9 06 40
       1.1548544 -0.5188329 -2.3967235 2.1089823
000050 c6 a9 be 3f 2d 68 1f 3f c5 e2 63 3f 42 b0 dd bf
       1.4895561 0.62268335 0.890179 -1.7319415
000060 25 06 14 40 72 c2 8c 3a e6 4b ef be 89 4c 03 c0
       2.312875 0.0010739102 -0.46737593 -2.0515463
000070 f0 61 b3 bf ec b7 c8 be 80 de 69 bf af 00 96 3f
       -1.4014263 -0.3920282 -0.91355133 1.1718959
000080 06 51 31 bd 5f 68 d9 3f b0 bd 0d 3f 17 3a 74 bf
       -0.04329016 1.6984977 0.55367565 -0.9540114
000090 b7 8d 6a 3f 8c 7f 15 40 ae d4 39 bf a5 d2 50 bf
       0.9162249 2.3359098 -0.7259015 -0.8157142
0000a0 83 87 68 be 91 ab 49 3f cd 45 ae bf 02 d8 53 be
       -0.22707944 0.78777415 -1.3615052 -0.20687869
0000b0 ec 7f a6 bf d6 36 c2 3f 86 78 ff be f1 d3 be 3f
       -1.3007789 1.5172985 -0.4989664 1.4908429
0000c0 a0 d5 c4 be 60 b6 f8 bf 0e 86 80 3f 35 4b 98 bf
       -0.38444233 -1.9430656 1.004091 -1.1897951
0000d0 6b de f2 bf 1f aa 13 40 c4 70 ec be db c1 93 3e
       -1.8974127 2.3072584 -0.46179783 0.28858837
0000e0 8b 53 c6 bf 62 99 02 c0 4c 4c b5 3f aa 18 43 bf
       -1.5494245 -2.0406117 1.4163909 -0.7620951
0000f0 30 86 5c 3f 43 11 3f 3f 07 f8 75 3f b2 63 0f c0
       0.86142254 0.74635714 0.96081585 -2.24046
000100 76 0c 21 bf 68 5d 02 3f c2 c2 d5 bf 05 4e f7 3f
       -0.6290964 0.50923777 -1.670006 1.9320685
000110 1a be b2 3f 8c ce 0d c0 9b 90 e2 3f 97 4d 4b 3f
       1.3964264 -2.2157316 1.770038 0.7941527
000120 1c c5 ce 3f 68 a6 bb 3f 80 b1 93 3f bf 3f 5f 3f
       1.6153903 1.4660158 1.1538544 0.87206644
000130 cc b1 b2 3f 84 fe 46 bf 0f 4d a5 3f 63 e5 e7 bf
       1.3960509 -0.7773211 1.2914141 -1.8116878
000140 bf fc 29 bf bd df 0c 3f 91 d0 01 c0 de cd 1b 40
       -0.66401285 0.550289 -2.028355 2.4344401
000150 3c 13 8b bf 34 c0 ab bf ab 8b d0 bf 1e 5d 09 bf
       -1.0865245 -1.3418031 -1.6292623 -0.5365771
000160 a0 54 b3 bf 51 49 01 40 98 0e de 3e 8c 4a e7 3f
       -1.40102 2.0200999 0.4337051 1.8069625
000170 8b a4 bf 3e 9f e3 ee bf 16 cc 4e 3f 48 5e 47 bc
       0.37430224 -1.8663214 0.8078016 -0.0121684745
000180 29 e7 ab bd 54 62 04 bf 23 bd 73 3e a9 a2 eb 3e
       -0.083937 -0.51712537 0.23802619 0.46022537
000190 29 11 4e 3f 2d 5e bb bd f9 4f 84 3f a8 e7 14 3f
       0.80494934 -0.09148822 1.0336906 0.5816598
0001a0 65 c4 d6 3f 5d 29 25 bd 76 56 27 bf 15 08 9d bf
       1.6778685 -0.04032265 -0.65366304 -1.2268091
0001b0 59 e8 f4 3f e9 bb 8a 3f d1 5c d0 3f 7a be 5a 3f
       1.9133407 1.0838596 1.6278325 0.85446894
0001c0 e4 68 75 bd f0 65 11 c0 6e 82 ac bf bb 90 b6 be
       -0.059914485 -2.2718468 -1.3477304 -0.35657296
0001d0 02 94 7f 3f 8d da 07 c0 65 e7 14 c0 71 55 d5 3f
       0.99835217 -2.1227143 -2.3266232 1.66667
0001e0 0b e3 ac bf fb 95 ae 3e 58 8d 1a 3f e8 d5 91 3f
       -1.3506788 0.340988 0.60371923 1.1393404
0001f0 94 a6 1b 3d fc 00 97 bf 04 ac cb be 5c d2 2a bf
       0.03800066 -1.1797175 -0.39779675 -0.6672723
000200 69 6f b2 3f 58 12 27 3f ae 62 96 3e 85 e7 be 3f
       1.394025 0.65262365 0.29372162 1.4914404
000210 94 df 15 c0 c8 99 20 be 03 02 21 3f af 36 ed 3e
       -2.3417711 -0.15683663 0.62893695 0.46330783
000220 3a 2d a3 bf 90 47 e9 bf de 5f e8 be 13 9e 60 be
       -1.2748177 -1.8224964 -0.4538564 -0.219353
000230 af 49 d7 bf 9d 2a 9b 3e 76 f5 6c 3f ee a0 13 3f
       -1.6819361 0.3030595 0.92562044 0.57667434
000240 a9 32 8b 3f 51 b8 0f 3e 60 a8 07 40 d3 5d 91 3f
       1.0874835 0.14035155 2.1196518 1.1356758
000250 9c 3d 6c bf b7 89 0f c0 05 72 4c be 71 ef 33 3f
       -0.9228151 -2.2427804 -0.1996537 0.70287234
000260 56 0d fa 3f 0a 88 15 bf da d4 eb 3c 68 c9 56 bf
       1.953532 -0.58410704 0.028788019 -0.8390107
000270 e0 c7 3d 3f 75 6c 2e 3e a4 f8 08 3f 4b a9 bc bf
       0.7413311 0.1703356 0.53504395 -1.4739164
000280 32 bf 92 3f 03 fc 10 c0 1b 57 9a 3f 1d 5a c2 be
       1.1464598 -2.2653816 1.2057832 -0.37959376
000290 16 1c ae bf 74 87 7c 3f f8 f9 9f bf 0f f9 f7 3f
       -1.3602321 0.98644185 -1.249816 1.9372882
0002a0 6b dc fa 3f b3 02 f0 bf 89 a6 e2 bf 64 06 43 3f
       1.9598516 -1.8750824 -1.7707072 0.76181626
0002b0 b3 80 c2 bf 2e 38 a6 bf 10 f8 82 3f 3d 41 f1 3f
       -1.5195526 -1.2985895 1.0231953 1.8848034
0002c0 ac 25 16 3e 5e 8f bd bf 02 6f 72 3f cf 72 a0 bd
       0.14662808 -1.4809377 0.94700634 -0.07834398
0002d0 71 e7 cf bf fc 15 11 40 e3 9f b1 bf cc 83 10 bf
       -1.6242505 2.2669668 -1.3876919 -0.56451106
0002e0 a3 fa 01 3f b6 28 84 bf 25 76 21 bf 45 e6 59 3f
       0.50773066 -1.0324924 -0.630709 0.8511699
0002f0 a0 ce d8 be 25 fd 68 3d 0c d5 96 3f e6 0b 8e 3f
       -0.42345142 0.056882042 1.1783767 1.1097381
000300 1a 2a 94 bf 71 8d e0 bf 37 ed ee 3f 56 5f 8f 3d
       -1.1575348 -1.7543164 1.8666142 0.07000606
000310 57 6b be bf 6b c3 f8 bf af ba a7 bf 11 67 03 be
       -1.4876508 -1.9434637 -1.3103846 -0.12832285
000320 92 a2 bc be 5e 7f 4d bf e0 5e 01 40 dc cb 12 40
       -0.3684278 -0.8027247 2.0214157 2.2936926
000330 dc ff da 3f 75 09 fa bf d4 59 b0 bf 16 03 c7 3f
       1.7109332 -1.9534136 -1.3777413 1.5547817
000340 0c f5 50 bf a9 b6 cb bd dd ce 47 bf 9f 11 f7 3f
       -0.8162391 -0.09946949 -0.78050023 1.9302253
000350 3f 06 11 40 d6 74 b0 3f b5 05 e8 3f 24 ad cd bf
       2.2660062 1.3785655 1.8126742 -1.6068463
000360 a0 c0 ef 3f 59 c0 ac 3d 15 56 08 c0 d1 c3 d3 bd
       1.873066 0.08435125 -2.130254 -0.103400834
000370 14 f0 ca 3f de 93 3b bf d4 02 05 bf 0f cf 27 bf
       1.5854516 -0.732725 -0.5195744 -0.6555032
000380 b4 48 85 bf 33 b0 be 3f bd d6 98 3f a2 b0 ba 3c
       -1.0412812 1.4897522 1.1940533 0.022789303
000390 d1 37 dd 3f 82 ba 2b 3f 39 e2 6f bf 14 a1 d3 bf
       1.7282659 0.67081463 -0.93704563 -1.6533532
0003a0 5d 0f 8e 3e 12 77 42 bf de df 1f bf f5 da a8 3f
       0.27746096 -0.75962937 -0.6245097 1.319182
0003b0 4b 98 b0 3f 6e 22 e1 be f3 c6 22 bf 6c a8 46 3f
       1.3796476 -0.4397158 -0.6358482 0.7760074
0003c0 02 64 8f 3e 05 9c 35 3f fb 38 63 3f fd 1b b6 3f
       0.28005987 0.7094119 0.8875882 1.4227291
0003d0 37 e5 ef bf 7b a1 99 3d b3 be 1d 3f 84 b6 d2 3e
       -1.8741826 0.07501503 0.6161911 0.41154873
0003e0 a8 f3 3e bf b4 c7 eb bf d5 a0 fb 3f 77 27 d5 bf
       -0.7459054 -1.842032 1.9658457 -1.6652669
0003f0 f0 18 a0 3f 17 c8 0e c0 1f 96 01 3f cf 6b e1 3f
       1.250761 -2.2309625 0.5061969 1.7611026

_initial._model.2.bias f4 [16]
000000 bd 45 07 3f 29 f7 a4 be c5 5c 1b 40 58 fa 9b bf
       0.5284079 -0.32219818 2.4275372 -1.2185774
000010 11 07 1a c0 55 ac 34 3e 49 b3 92 bf 58 d7 67 bf
       -2.4066813 0.17643864 -1.1460963 -0.90562963
000020 ae 54 e4 3f b0 fe 49 bb 71 2d 0c c0 82 0f 28 bf
       1.7838342 -0.0030821972 -2.1902735 -0.65648663
000030 b1 e6 ae bf e3 58 11 c0 d5 f8 60 3f 14 c9 09 c0
       -1.3664151 -2.2710502 0.8787969 -2.1528978

_func._drift._model.0.weight f4 [16, 17]
000000 53 e3 33 3a e2 30 b3 bb b0 8c a1 3b 7f 95 a9 b9
       0.0006862182 -0.005468474 0.0049301013 -0.00032345575
000010 ae 3d ee 3a f4 f2 91 3a 4d 94 37 bb 65 dd e0 39
       0.0018176341 0.0011135028 -0.0028011978 0.0004288956
000020 14 f6 e8 3a 52 ec ad bb 66 90 93 bb cd 74 8f bb
       0.0017773532 -0.0053077126 -0.0045032976 -0.0043779374
000030 03 40 96 b9 03 7d 3a bb 3d 2c b1 bb 08 cd ab 3b
       -0.00028657922 -0.002845586 -0.005406885 0.0052429475
000040 d0 cc 97 3b 16 50 05 bb 25 20 86 bb f0 69 32 3b
       0.00463257 -0.0020341924 -0.0040931874 0.0027223788
000050 98 05 81 ba 3e 6c 51 bb 3c f1 ac bb e6 9b 42 38
       -0.0009843586 -0.0031955387 -0.005277781 4.6398396e-05
000060 9a c7 3f bb 3f 90 c4 3a 40 f7 c0 3a 23 89 35 ba
       -0.002926326 0.0014996602 0.0014722124 -0.0006925037
000070 2f ca be 3b 0f 53 93 ba fc ae b9 3b 1c f1 e1 3a
       0.005822442 -0.0011239963 0.0056666117 0.0017237994
000080 45 2c e1 3a 17 b9 9c 3b 4f 2b fe ba 68 84 b1 3b
       0.0017179331 0.0047828066 -0.0019391569 0.0054173954
000090 db f4 29 3b c1 67 d6 ba 8a 7c 2f 3b bf 2d b8 bb
       0.0025933299 -0.0016357825 0.0026777112 -0.0056206877
0000a0 52 cf 3e 3a ef 33 a7 ba 30 33 9c ba c3 a6 98 bb
       0.0007278818 -0.0012756566 -0.001191711 -0.0046585514
0000b0 36 57 3e 3b 75 8c 05 3b e3 1e 1f bb 83 b1 96 3b
       0.002904368 0.0020377908 -0.0024279885 0.0045987978
0000c0 90 53 91 ba 79 65 13 b9 7d 46 65 bb 71 fb f2 3a
       -0.0011087526 -0.00014056814 -0.0034984641 0.001853807
0000d0 9b 1c 0a 3b c7 35 86 3a 93 c7 c2 39 1c 5b ba bb
       0.002107418 0.0010239416 0.00037151258 -0.0056871306
0000e0 b6 fc a0 3b 2a 4e 72 b9 8a 0f 62 3b a7 ba 6a 3b
       0.004912938 -0.00023108037 0.0034494125 0.003581682
0000f0 3d 8c a6 bb 0e 43 7e 3b dc e7 81 bb 7d 99 f1 3a
       -0.0050826357 0.0038797292 -0.0039644074 0.0018432584
000100 40 2f a5 3b cf 97 a4 3b 93 ac ed 3a a6 fc a9 bb
       0.005041033 0.00502298 0.0018133096 -0.0051875887
000110 e6 04 4c 3b 88 35 66 bb 4e c2 19 3b 6c 66 b3 bb
       0.003113085 -0.0035127122 0.0023461762 -0.005474856
000120 02 fa 1e bb 0e c5 91 bb 3b e3 93 ba ee a6 02 bb
       -0.0024257903 -0.0044485396 -0.001128293 -0.0019935924
000130 b6 22 b9 bb 43 40 bb bb b2 e3 4c 3a 4f 4e 50 3a
       -0.00564989 -0.0057144477 0.00078159117 0.0007946239
000140 ee 88 16 bb fd 78 4a bb 87 2c 92 bb 8b 1c 69 bb
       -0.00229698 -0.0030894869 -0.0044608745 -0.0035569991
000150 ed e6 12 bb a7 d5 1d bb 28 2d 72 3b 8f 19 c6 3a
       -0.0022415475 -0.0024083646 0.0036953185 0.0015113818
000160 01 58 9d 3b 1b 46 9e bb ae 34 07 3b 64 fa ae 3a
       0.0048017506 -0.0048301346 0.0020630765 0.0013349769
000170 e9 a5 9a bb d7 7e 4c 3b 58 25 24 bb 33 ae 17 bb
       -0.004719485 0.0031203532 -0.0025046673 -0.0023144602
000180 cf b5 05 3b 59 85 b2 3a 3d ff a4 39 cf 89 ab 3b
       0.0020402556 0.0013620063 0.00031470685 0.005234934
000190 8e 57 da ba 7a dd 69 bb ad d8 be bb b6 06 a3 3a
       -0.0016658173 -0.0035684989 -0.0058241696 0.0012437913
0001a0 94 29 94 bb 57 4b 9b 3b 11 73 e2 3a a7 05 b5 ba
       -0.004521558 0.004739206 0.0017276724 -0.0013810889
0001b0 13 6a 74 3b 13 eb a6 3b d8 50 8c 3b d9 35 13 bb
       0.003729467 0.005093941 0.0042820983 -0.0022462516
0001c0 5b cb 08 3a e4 14 4b bb ea b2 6d 3b 14 74 b4 3b
       0.00052182906 -0.0030987794 0.0036269971 0.0055070017
0001d0 30 70 30 b9 53 78 7c 3b 0f 17 01 3b 32 4c 3b 3b
       -0.00016826461 0.0038523867 0.0019697582 0.0028579351
0001e0 8f 89 8e bb 10 f6 83 bb e7 23 a3 bb ba 06 b7 3b
       -0.0043498944 -0.0040271357 -0.004978645 0.0055855187
0001f0 a8 2f 1c 3b fe 18 8d 3b f0 f8 83 3b 10 29 9a 3b
       0.0023832116 0.004305958 0.0040274784 0.004704602
000200 45 c0 b9 ba d7 17 ba bb 6d b8 39 3a e6 f8 1c bb
       -0.0014171681 -0.0056791115 0.00070846715 -0.0023952066
000210 56 a4 20 3b d6 6c 24 3b 82 fb 13 3a 5f 4e b7 bb
       0.0024512014 0.0025089285 0.00056450826 -0.0055940594
000220 10 39 ce 3a b3 f2 51 bb 75 f2 2f bb 54 9e 92 3b
       0.0015733559 -0.003203553 -0.0026847397 0.0044744406
000230 b9 2f 45 bb d3 b8 f2 3a 01 a0 db ba 11 b7 76 39
       -0.003008826 0.0018518217 -0.0016756059 0.00023528586
000240 80 39 32 bb 9c 5a 0a bb 8a e4 a2 3b f3 44 51 3b
       -0.0027194917 -0.0021111136 0.0049710916 0.0031931966
000250 8b 71 a2 bb 75 8d aa 3b 3a e2 65 bb ad 7c 76 bb
       -0.004957383 0.0052048513 -0.0035077468 -0.0037610934
000260 87 cb a9 bb 6c a0 af b9 26 c5 2e bb b8 a6 ba bb
       -0.005181733 -0.00033498125 -0.0026667803 -0.005696144
000270 41 c1 22 3b c7 30 bb ba ee 39 13 3b da bd 91 bb
       0.0024834427 -0.0014281505 0.0022464949 -0.004447681
000280 e9 f1 72 bb ef 6f 5b bb 15 67 c8 b9 76 6e a8 bb
       -0.003707046 -0.0033483466 -0.00038223775 -0.005140121
000290 d6 81 87 3a ad 46 4d b8 d3 c8 9b 3b 58 44 af b9
       0.0010338377 -4.894163e-05 0.0047541647 -0.0003342952
0002a0 d8 bc a5 3b 8b 98 43 3b 42 f5 97 36 bb be 7c b9
       0.0050579123 0.0029845561 4.5287024e-06 -0.00024103645
0002b0 10 3f e2 39 03 02 03 3a 53 11 bb ba 95 5c 66 bb
       0.00043153064 0.0004997553 -0.0014272131 -0.0035150398
0002c0 35 60 39 ba 40 d6 46 bb b2 93 b7 ba 21 38 9b bb
       -0.0007071526 -0.0030340105 -0.0014005809 -0.0047369157
0002d0 1e 39 98 3b 4f 9a 32 3b 4e 3d dc ba 17 5d fe ba
       0.004645481 0.002725262 -0.0016802938 -0.0019406405
0002e0 61 44 b6 3b 7f 7c b1 bb dd d5 b7 bb 87 63 97 ba
       0.0055623506 -0.0054164524 -0.0056102113 -0.0011550047
0002f0 c8 7a c9 3a 38 c4 91 bb ed 24 70 3b 6d 7f d3 ba
       0.0015371675 -0.00444844 0.0036643103 -0.0016135998
000300 79 19 90 3b 8b f5 7c 3b 2a db 85 bb b6 3f 52 3b
       0.004397568 0.0038598503 -0.0040849643 0.0032081432
000310 7f ef 3f 3b eb cb 6b ba bc ee 85 3b e4 49 9e bb
       0.0029287038 -0.0008994925 0.0040872972 -0.004830586
000320 01 e7 a8 3a ec ed b5 ba c8 9f af b8 26 f9 10 bb
       0.0012886227 -0.001388011 -8.374412e-05 -0.002212116
000330 2c f8 22 bb 6f 5a 7e 3b 39 8a 5e 3b b3 af 86 3b
       -0.002486716 0.0038811227 0.00339569 0.0041103004
000340 15 dd 93 bb 5e b5 3a 3a 30 4b c4 39 ef bf 89 bb
       -0.004512439 0.0007122363 0.00037440052 -0.0042037885
000350 f0 dd 70 3b dc 97 f2 ba de 66 48 bb 71 1f 83 b9
       0.0036753379 -0.0018508392 -0.0030578892 -0.00025009693
000360 82 e5 31 3b 49 40 e0 3a 87 fd 98 3b 1b 62 0f 3a
       0.0027144854 0.0017109002 0.0046688947 0.0005469636
000370 0c 17 a0 bb f3 f9 08 bb de 08 5d ba 90 14 aa 3b
       -0.00488556 -0.0020900934 -0.0008431802 0.0051904395
000380 09 86 2a 3b 53 da d0 3a be 9f 9b bb de dd 29 bb
       0.0026019833 0.0015934206 -0.0047492674 -0.0025919597
000390 e1 31 19 3b 14 b8 4e bb 04 36 08 bb 38 3a b6 3b
       0.0023375677 -0.0031542825 -0.002078415 0.0055611394
0003a0 e8 86 9f 3a 32 0a 24 3b 7d 00 73 3b 3f 31 b5 bb
       0.0012170943 0.002503049 0.0037079148 -0.005529552
0003b0 23 b9 d5 3a 44 83 8e bb 1f b6 eb ba 9f 37 37 3b
       0.0016305785 -0.004349144 -0.0017983353 0.0027956737
0003c0 ca 90 b6 bb 70 5a 86 3b db 28 eb 3a 80 75 64 3b
       -0.0055714594 0.0041001365 0.0017941253 0.0034860075
0003d0 ef 1c 2d 3b 90 ea 21 3b 7f 3a 1d b9 5e ec b1 3b
       0.002641495 0.002470646 -0.00014994478 0.0054297885
0003e0 0a 6a 4c bb 65 66 26 ba 75 1e a2 ba 4e aa d0 3a
       -0.0031191134 -0.00063476554 -0.0012368696 0.0015919895
0003f0 99 12 3e 3b 5c 35 67 3b 78 31 34 3b fe 1a 82 bb
       0.0029002784 0.0035279607 0.0027495306 -0.003970503

_func._drift._model.0.bias f4 [16]
000000 c9 dd b6 3b 8f 9f c6 b9 90 25 19 3b 59 d5 0e 3b
       0.005580638 -0.00037884383 0.0023368336 0.0021794646
000010 cd e6 c8 b7 03 bd 15 bb c9 9e 81 3b 97 0e ae bb
       -2.3949333e-05 -0.0022848255 0.0039556962 -0.005311798
000020 cb 52 ac bb ce 1f a9 bb 89 99 0b bb ee 8c ac 3a
       -0.005258893 -0.005161262 -0.002130123 0.0013164559
000030 3a ed ac b9 db 65 f9 38 10 80 98 3b 7a 81 99 bb
       -0.00032983144 0.00011892217 0.004653938 -0.0046846243

_func._drift._model.2.weight f4 [16, 16]
000000 f8 4c 24 bb f8 4e 12 3b b7 a2 b1 bb 32 42 c3 bb
       -0.002507029 0.00223249 -0.0054210084 -0.005958819
000010 01 c2 79 bb a8 1f bb bb 81 ca 06 bb 8d 7f b3 bb
       -0.003811002 -0.005710561 -0.002056748 -0.0054778517
000020 79 70 35 ba 24 39 50 3b 71 c6 a1 bb 06 85 bc bb
       -0.0006921362 0.003177234 -0.004936986 -0.0057531623
000030 14 2a 63 3b af f3 00 bb 35 1d 20 3b a2 f0 2f 3b
       0.0034662532 -0.0019676497 0.0024431471 0.002684631
000040 d8 9a aa ba 68 d8 d1 b9 d0 82 a4 b8 c6 52 9b bb
       -0.0013016118 -0.00040024822 -7.844495e-05 -0.004740092
000050 7b ea b2 3b ad 51 9c b9 03 9f 0b 3b 65 7e 7a 3a
       0.005460081 -0.00029815492 0.0021304495 0.00095555774
000060 bd be a3 3b 8b ea 9c bb 30 5a 81 bb 57 2f 15 b9
       0.004997103 -0.004788702 -0.0039475188 -0.00014227383
000070 04 f3 19 bb 36 c1 06 3b 8c 1f b0 3b 6d d0 ab b9
       -0.0023490796 0.002056194 0.0053748544 -0.0003277095
000080 83 5c a9 bb bc 99 a3 3b 1a 10 c4 ba b3 b6 fc 3a
       -0.005168499 0.004992692 -0.0014958412 0.0019280523
000090 f2 f8 ff ba a4 b3 af 3b 19 d8 60 bb 6d 32 45 3a
       -0.0019529148 0.005361991 -0.0034308492 0.00075224676
0000a0 b5 45 31 3b 0b f2 a1 bb ea 83 dd 3a e1 91 63 bb
       0.0027049605 -0.004942184 0.0016900275 -0.0034724402
0000b0 cd 68 ad 3b d9 51 a0 3b 30 e6 f7 3a 1e 5b 40 bb
       0.0052920342 0.0048925695 0.0018913206 -0.0029351185
0000c0 f6 36 65 39 1e f3 a7 3b 7d c8 76 3b 99 ce 39 bb
       0.00021859616 0.0051254174 0.0037656121 -0.0028351902
0000d0 39 89 54 bb 9f 49 c4 ba 89 7a de ba 4b a8 3e bb
       -0.0032430424 -0.0014975554 -0.0016973774 -0.002909201
0000e0 8e ab c0 bb 98 a6 63 38 bb 82 ac 3a dc 45 8b bb
       -0.005879826 5.427617e-05 0.0013161519 -0.0042502712
0000f0 a1 7c 49 3b 8b 41 2b bb f3 17 70 3b d5 fa 2e bb
       0.003074445 -0.0026131596 0.0036635369 -0.00266998
000100 7c a5 b2 3b 95 90 63 bb 17 61 a6 3a c4 0b dd 3a
       0.005451856 -0.0034723629 0.001269373 0.0016864468
000110 81 1a 90 3b 6b 20 42 3b c0 64 9b bb 1b c6 86 ba
       0.0043976908 0.0029621373 -0.004742235 -0.0010282429
000120 d8 c6 9c b9 b9 b4 52 3b 8c b1 57 bb c5 a9 4d 3b
       -0.0002990279 0.0032151176 -0.0032912223 0.0031381708
000130 47 d3 7c bb 5e 68 1a 3b 21 e3 8b bb 35 d4 ba 3a
       -0.003857808 0.0023560743 -0.0042690192 0.0014253916
000140 5a a1 d1 b7 9d f3 91 3b 4b c0 35 bb e6 07 cb 3a
       -2.4989877e-05 0.00445409 -0.0027733024 0.0015490025
000150 94 45 8a bb 24 3b 3a bb 91 9a 55 3b e5 4d ac 3a
       -0.00421972 -0.0028416598 0.003259335 0.0013145773
000160 f5 4e 9a 3b ea 7a 30 3b 71 66 71 3b 31 43 46 bb
       0.0047091194 0.0026928731 0.0036834741 -0.0030252452
000170 6c 52 16 3a a5 02 b2 bb 74 07 e6 3a 56 1d 8c ba
       0.0005734328 -0.005432444 0.0017549829 -0.0010689895
000180 1d fd 0f 3b f5 7b 07 bb 3a 23 d8 ba b5 36 69 3b
       0.0021970936 -0.002067325 -0.001648999 0.0035585586
000190 2f d7 65 3b da 65 ac 3b 1d 8f ba bb cd aa 07 bb
       0.0035070886 0.005261165 -0.00569333 -0.002070117
0001a0 8a 6f a9 bb 25 e7 9a 3a 61 a5 aa 3b 0a fa e9 ba
       -0.005170767 0.0011818154 0.005207703 -0.0017851007
0001b0 fa 50 1e ba 1f 7a e2 ba 0b 89 06 bb e4 53 d8 3a
       -0.0006039288 -0.0017278827 -0.0020528461 0.0016504494
0001c0 6d e8 83 3b a6 d7 7e bb f6 b1 9d 3b 44 48 93 3b
       0.00402551 -0.003888586 0.0048124744 0.0044946987
0001d0 3e a0 79 b9 c9 6e 87 bb 23 3f 99 bb c5 bd 87 ba
       -0.00023806185 -0.0041330797 -0.004676716 -0.0010356238
0001e0 85 c8 8b b9 b8 4f 97 bb df 1c b8 bb e3 fa ef 3a
       -0.00026661545 -0.0046176575 -0.005618676 0.0018309023
0001f0 11 d8 fa 39 73 e9 87 3b 46 66 97 3a 01 78 17 3b
       0.00047844698 0.0041477024 0.0011550866 0.00231123
000200 09 db 25 3a 05 86 23 3b 2b 0c 30 bb fe ab f5 37
       0.0006326889 0.0024951708 -0.0026862721 2.9286366e-05
000210 58 b2 50 3b 7d 53 00 3b 61 80 37 3b 09 9a aa bb
       0.0031844582 0.0019581013 0.0028000104 -0.0052063507
000220 b1 39 29 b8 ce a4 4a bb 76 66 b9 ba 7c c3 2f 3b
       -4.034647e-05 -0.0030920985 -0.0014144916 0.0026819399
000230 41 e8 9d ba 21 05 3a bb 74 7d 05 b9 f2 0c 76 bb
       -0.0012047366 -0.0028384405 -0.00012730603 -0.0037544337
000240 a4 cf 23 bb d8 5c 30 bb 73 37 b2 3b 51 dc 33 bb
       -0.002499559 -0.0026910808 0.005438739 -0.0027444551
000250 68 f6 55 bb a3 e1 c8 ba 47 15 8d 3b ec cb 05 38
       -0.003264809 -0.0015326034 0.004305515 3.1899588e-05
000260 98 5a 68 ba c0 4b 5a 3b 31 a8 7b 3b 10 bc b5 3b
       -0.0008863597 0.003330931 0.003839981 0.0055461004
000270 30 c4 85 bb 16 98 4b 3b 51 13 81 bb 3b 20 3c bb
       -0.0040822253 0.0031065992 -0.0039390703 -0.0028705734
000280 4d 34 a2 3b 63 96 09 3b 05 71 32 bb 1f 4e c4 ba
       0.0049500824 0.0020994178 -0.002722801 -0.0014976895
000290 01 96 65 3b 54 b3 8a 3a 85 26 a8 ba 49 cb ca ba
       0.0035032036 0.0010582008 -0.0012828863 -0.0015471961
0002a0 8b f6 e4 ba 20 53 73 ba 9a 35 96 3b 69 46 8a bb
       -0.0017468495 -0.0009282101 0.0045840265 -0.0042198193
0002b0 8c 4e 7c 3b f3 55 7b 3a ca ca c2 3b ac c1 01 3b
       0.0038498966 0.00095876976 0.0059445845 0.0019799275
0002c0 97 4b c4 bb db 52 0a bb bd 45 84 ba 4d 15 09 3b
       -0.0059904563 -0.0021106515 -0.0010091584 0.0020917237
0002d0 c8 d8 b4 bb 0c b4 06 3b 90 6c a2 ba a3 ae 5d bb
       -0.0055190064 0.0020554094 -0.0012391973 -0.0033826015
0002e0 c5 62 8b bb 5a 31 72 bb 69 20 ae bb 8f 0d e4 b9
       -0.0042537176 -0.0036955685 -0.005313922 -0.0004349765
0002f0 13 a7 1b 3b 2e b4 5b bb 0f 06 61 bb a7 90 6e 39
       0.0023750707 -0.0033524144 -0.0034335887 0.00022751336
000300 2c a4 9f bb 10 29 8a bb e8 06 d1 ba c0 22 82 3b
       -0.0048718657 -0.004216321 -0.0015947493 0.0039714277
000310 8a b4 48 3b 68 52 92 3a ff fb 01 bb 54 ea a6 bb
       0.0030625188 0.0011163475 -0.001983404 -0.005093852
000320 ad 97 67 3b f7 a4 66 39 0d b8 26 3b 1b 80 5a b9
       0.0035338209 0.00021995963 0.0025439293 -0.00020837823
000330 16 4f 53 3b 9a ec 3a b8 2d 15 4a 3b f4 e4 7f ba
       0.0032243184 -4.4566208e-05 0.0030835376 -0.00097615947
000340 f4 8d 00 bb 5e 95 9a 3a 98 43 c1 bb 60 96 93 bb
       -0.001961586 0.0011793782 -0.0058979504 -0.00450401
000350 5d c2 1c 3a ff d0 bb 3b f1 1f d9 ba b3 1d f8 ba
       0.000597989 0.0057317014 -0.0016565305 -0.001892975
000360 92 40 65 3b 30 91 a6 3b 2d 22 6d bb 8c d5 af 3b
       0.0034981114 0.0050832257 -0.00361837 0.005366033
000370 e1 f7 fd ba a1 a5 54 3b a6 76 e7 3a 07 39 53 3a
       -0.0019376242 0.0032447355 0.0017659261 0.0008057509
000380 69 ef 9d 3b e0 1a 93 ba a1 64 c3 b9 f6 71 76 3b
       0.0048197997 -0.0011223219 -0.00037268273 0.0037604547
000390 63 74 17 bb d9 d4 c4 3a 48 a2 65 3b f2 e7 8e 39
       -0.0023110143 0.0015017047 0.0035039354 0.00027257163
0003a0 48 c1 bc 3b 7d d6 c9 39 94 db 28 3b d1 6b 5d 3b
       0.0057603456 0.00038497514 0.0025765644 0.0033786187
0003b0 2a 79 a2 3b ce 1d 37 bb c7 2c 1f b9 e7 92 1d bb
       0.0049582915 -0.002794135 -0.00015180102 -0.002404386
0003c0 ec b0 30 bb 92 f4 21 bb 3c c8 45 3a 1d c5 88 bb
       -0.0026960922 -0.0024712426 0.0007544791 -0.0041738884
0003d0 c7 da 1d bb 43 29 9b 3b 39 32 00 3b f2 7a c4 3b
       -0.00240867 0.0047351434 0.0019561185 0.0059961015
0003e0 80 49 6b ba c2 ca 6e b9 8a 7f 49 bb f9 ba 6f 3a
       -0.0008975491 -0.00022772982 -0.0030746185 0.00091449876
0003f0 4b d6 bb 3a 4f 43 92 3b 89 01 94 bb e3 79 f3 ba
       0.0014330832 0.00446359 -0.0045167846 -0.0018575754

_func._drift._model.2.bias f4 [16]
000000 79 68 a7 3b b3 c7 82 bb a9 96 25 3b 50 cd 8e bb
       0.0051088897 -0.003991091 0.0025266802 -0.0043579713
000010 bf ea 31 bb bb 67 b9 bb 68 19 60 bb 78 11 3f bb
       -0.0027147976 -0.0056581176 -0.003419483 -0.00291547
000020 3e b9 a0 3b e2 49 7c bb d8 91 88 3b 16 0b 2c 3a
       0.004904895 -0.0038496186 0.0041677766 0.0006562931
000030 1f 28 2e 3b 30 cd 84 3b 53 ad 92 3b a8 32 98 bb
       0.0026574207 0.0040527806 0.0044762283 -0.0046447106

_func._diffusion._model.0.weight f4 [16, 17]
000000 ad 1b a3 3d 1e 43 7b bd e8 5d 27 bd 65 37 97 3d
       0.07964263 -0.061343305 -0.04086104 0.073836125
000010 1f d0 e5 bd a7 b9 3b bd c4 93 5b 3d af 7e 72 3c
       -0.112213366 -0.04583135 0.053607717 0.014800712
000020 bb b5 ac bc 67 98 a9 3d f4 f2 89 3d 57 d6 7a 3d
       -0.02108275 0.082810216 0.06735793 0.061239567
000030 1d 76 d7 3c b5 0c c8 3c 9c 00 01 bd 2b cc de 3c
       0.026301438 0.024420122 -0.03149472 0.027196964
000040 15 28 83 bd ba 7d 4d bd a5 9e 3a 3c a1 a1 6b bd
       -0.064041294 -0.05016873 0.011390363 -0.05752719
000050 e7 46 ac bc 32 d5 46 bc 09 e1 2f 3d bb 91 b7 3c
       -0.021029903 -0.012135791 0.04293922 0.022408357
000060 1b 48 41 3d f0 61 f3 3c 09 76 86 bc 3d 23 60 3c
       0.047187906 0.029709786 -0.016413705 0.013680276
000070 cc 65 4e ba f6 db 33 3d 4a 6a 27 3d 5d a1 62 3b
       -0.0007873445 0.043910943 0.04087285 0.0034581043
000080 43 05 8d bc 90 9a 9c bd 20 e4 60 3c 4d 6a 0e 3d
       -0.017214423 -0.07646668 0.013726264 0.034769345
000090 8e 08 20 3d 5b 43 57 3d 65 66 13 bd ec 2d 5f 3d
       0.03907066 0.05255447 -0.035986323 0.054487154
0000a0 f4 3e 5c bd 07 75 07 bb 0a 45 0b 3d 31 10 0a 3d
       -0.053770974 -0.002066912 0.034001388 0.033706848
0000b0 6c 0d 5a 3d a1 d0 84 3d 68 47 55 bd a3 92 f7 ba
       0.053235456 0.06485105 -0.05207005 -0.0018888306
0000c0 6b 81 2a 3d 3b 9a 95 3c d0 fd c0 3b da 07 e8 3c
       0.04162733 0.01826202 0.005889632 0.028324056
0000d0 6c 6d 59 3c d9 e4 2e bc 63 76 af bc a2 1c f4 bd
       0.013270717 -0.010674679 -0.021418756 -0.11919524
0000e0 3a 96 cd 3c 26 c3 80 bc 2f dc d6 3c cc 7e a8 bd
       0.025096048 -0.015718054 0.026228039 -0.082273096
0000f0 18 ca 95 3d e1 59 90 3c df fc 2e 3d d0 ee 0c 3d
       0.07313937 0.017620983 0.042721625 0.034407437
000100 3e cd f6 bc 83 8c 9f bd 8d 34 16 bd 9a 3a 48 bd
       -0.030127164 -0.07790472 -0.03667121 -0.04888401
000110 a0 a3 ad bd 9a 11 61 3c de e3 d7 3c cf ff 92 bd
       -0.084784746 0.013737107 0.026353773 -0.07177698
000120 eb 9b 85 3d 98 ba 8c bd 36 72 3f 3b 11 f4 c8 bd
       0.065238796 -0.068715274 0.0029212362 -0.09812177
000130 c5 a4 fe 3c b5 fb e3 bd 8a ec 39 bd 10 66 d3 bc
       0.031084428 -0.11131994 -0.045391597 -0.025805503
000140 69 20 b2 bd 91 31 12 bd 1b 59 a3 3b 86 3a 34 bd
       -0.08697588 -0.0356918 0.0049849874 -0.044001125
000150 d9 d1 3f 3c 75 53 b1 3d 34 98 a9 bd 75 c3 a9 3c
       0.011707746 0.08658496 -0.082809836 0.020723084
000160 8a ab 9e bc 82 08 cf bd 95 ac 5f bd f1 8f f3 bc
       -0.019368906 -0.101090446 -0.054607946 -0.029731723
000170 42 78 f0 3a 8d bd 9d bd cf 01 86 3d 44 c7 be bc
       0.0018346386 -0.077021696 0.06543314 -0.023288377
000180 ca 95 90 3d a6 fd 49 bd 2b 97 36 bd 9a 7a 06 3d
       0.0705982 -0.049314164 -0.04457776 0.032831766
000190 f1 bf 43 3d 34 f5 19 3b 30 c6 ee bd 4a 54 97 bc
       0.04779047 0.00234921 -0.11658895 -0.01847281
0001a0 2d 14 c7 bc 98 2a 57 bd 87 0d 1c 3b 68 9e 87 bd
       -0.024301613 -0.052530855 0.0023811774 -0.066220105
0001b0 cb 47 07 3c 30 32 98 bc 0d 25 64 3d 2c 0a a9 bd
       0.008256863 -0.018578619 0.055699397 -0.08253893
0001c0 c2 b9 6d bd fa 74 56 bd a1 78 7b bd 4c fa 18 bd
       -0.05803848 -0.05235765 -0.061394338 -0.037348077
0001d0 14 4e 31 3d 5e b2 b8 bd 1e aa 2a 3d 1f 80 0c bd
       0.04328735 -0.09018396 0.041666143 -0.034301873
0001e0 ec af 19 bb 85 d5 97 bc 9c 8f ac bd 30 9e c1 bb
       -0.0023450805 -0.018534431 -0.08425829 -0.00590875
0001f0 77 21 93 bc 21 7a 13 bd 21 90 83 bd 6e 7c 87 3b
       -0.017960293 -0.036005143 -0.06423975 0.004134706
000200 9a 34 94 bd cb fa 54 bd df 37 a3 bd 86 91 fe bc
       -0.072365955 -0.051996987 -0.07969641 -0.03107525
000210 a8 04 d4 3b 82 9b da bc 74 a1 86 bd f3 48 ee 3c
       0.0064702816 -0.02668548 -0.065737635 0.02908752
000220 70 9c 16 3d f3 9c 93 bd ed 90 c1 bb 51 3e 00 3d
       0.036770284 -0.0720767 -0.005907169 0.03130943
000230 24 20 c3 bd 8e 7c 76 bc e7 a4 19 3d 93 b0 71 3d
       -0.09527615 -0.015044345 0.03751078 0.059006285
000240 4e 1e de ba 89 b9 dd bb d9 dc c7 3b 78 7d 4d 3d
       -0.0016946287 -0.0067665023 0.006099325 0.050168484
000250 2e 66 3a bd ca 41 fa 3c cd 26 69 bd 67 2b a1 3c
       -0.045507602 0.030548949 -0.05692177 0.019674016
000260 d4 ce 4f bd 1d 5b 15 bd a7 29 3d 3d 8b f9 99 3b
       -0.050734356 -0.036463846 0.0461823 0.0046989373
000270 2d 17 e1 bd 4e 7e ad 3b bf b1 11 bd 37 65 09 bd
       -0.109907486 0.0052945977 -0.035569903 -0.03354379
000280 6e 81 82 bd ad a1 2d 3d b4 67 3f bd 2f 2c b9 bd
       -0.06372343 0.042390514 -0.04672976 -0.090416305
000290 4d 4c 27 bd 8b 24 47 bc 97 e5 52 bb ba fc a2 b9
       -0.04084425 -0.012154709 -0.0032180303 -0.00031087344
0002a0 50 2a 9f bd 92 c5 35 3d 8b 34 ca bd 72 bd 34 bd
       -0.07771742 0.04437787 -0.09873303 -0.04412598
0002b0 0f 74 30 bd 0f ec bb bc 72 70 44 3d 32 f9 9e 3c
       -0.043079432 -0.02293971 0.0479588 0.019405935
0002c0 de 64 8f bd 94 e6 30 bd d9 47 76 3d 77 07 01 be
       -0.07001661 -0.043188646 0.060127113 -0.12600504
0002d0 a9 cd 88 bd 9e 0d f1 bc b2 eb 3b bd a3 08 f5 3b
       -0.066798516 -0.029425438 -0.045879073 0.007477836
0002e0 97 d5 0d bd fb 34 41 bd 6b a8 b8 3c 35 03 f5 3b
       -0.034627523 -0.047169667 0.022541245 0.007477189
0002f0 bb 1f d1 3c 43 66 58 bb 93 bf 11 3d 89 2c 0a bc
       0.025527826 -0.0033019937 0.03558309 -0.00843347
000300 08 cb 62 bc 22 53 a9 bb f9 09 5c 3d 06 7a aa bd
       -0.013842352 -0.005167381 0.05372045 -0.083240554
000310 c7 2c 0b 3c c4 a7 e8 bc 14 c0 7a 3d 17 7c 06 3d
       0.0084945625 -0.02840031 0.061218336 0.032833185
000320 01 61 b1 bd 14 b5 a0 bc 5f 9a 6e 3d dc db 7f bd
       -0.0866108 -0.019617595 0.05825269 -0.062465534
000330 7a 63 81 bd 74 41 84 3b 04 bf db 3b fd 2a bb bd
       -0.06317802 0.004036123 0.0067061204 -0.09139059
000340 cf bf 24 3d 4d 2d 3d 3b 08 fe 82 bd f7 9b a5 bd
       0.040221985 0.0028866113 -0.06396109 -0.080863886
000350 35 a1 82 3c 31 d0 3b bd 65 f3 a0 bd c5 60 61 bd
       0.01594601 -0.045852844 -0.07858924 -0.055023927
000360 a0 f2 29 bd fc a1 da 3c ac f6 7b bc 12 75 3b bd
       -0.04149115 0.026688568 -0.015378635 -0.045765944
000370 7a 95 72 3d ec 55 83 3d 80 a0 55 3c f4 4a 2d bb
       0.059224583 0.06412873 0.013038754 -0.002644238
000380 cb e4 84 3d 5d 7c 8b bd 40 c6 1a bd d7 f9 68 bc
       0.06488951 -0.0681083 -0.037786722 -0.014219723
000390 f4 79 03 3d 82 3a 61 bd 66 d1 9e 3d 3e cd 88 3d
       0.032098725 -0.054987438 0.07754783 0.06679772
0003a0 c3 d6 5b 3d 3b 50 b9 3c 11 b3 90 3c 91 65 6f bc
       0.05367161 0.022621265 0.01766351 -0.014611618
0003b0 c7 4e 74 bc 30 5b 41 bc 5a d3 11 3c 37 87 2d 3b
       -0.01491136 -0.011801526 0.008900488 0.00264783
0003c0 a2 70 ce 3c 7d 6d 11 3c 77 d0 90 bc fb 6c 20 3c
       0.025200192 0.008876202 -0.017677529 0.009791608
0003d0 e0 24 a6 bb 1e 4c 13 3d b9 d8 9b bd 1d 31 78 3c
       -0.005070314 0.035961263 -0.07609696 0.015148428
0003e0 39 aa de 3c e1 1f 03 3d 99 82 98 bb e4 72 b7 bd
       0.027180778 0.032012824 -0.0046542403 -0.089574605
0003f0 9f 11 01 bd e6 47 22 3d ab a3 cd bc 6f 21 70 bb
       -0.031510945 0.03961935 -0.025102457 -0.0036641022

_func._diffusion._model.0.bias f4 [16]
000000 8a 81 db 3d 3b fb 69 3c 1a 86 76 3c 33 26 c7 3d
       0.10718067 0.014281089 0.015046621 0.09724083
000010 19 27 36 bc 24 92 6d 3c 77 5e 6f bd 86 61 cd bd
       -0.01111772 0.014500175 -0.058439698 -0.10028367
000020 1d 4c 6f 3d fa 88 e1 bc b9 1e a1 bc a1 11 4c 3d
       0.058422197 -0.027531136 -0.01966797 0.0498215
000030 3a 86 a9 bd 6b 3a bd 3d e6 6e 9e 3d 3b 23 08 3c
       -0.08277555 0.09239658 0.07735996 0.008309181

_func._diffusion._model.2.weight f4 [48, 16]
000000 e6 49 94 3d 1e 6a 57 3d a5 b7 05 bc 38 39 3d 3d
       0.072406575 0.052591436 -0.00816146 0.046197146
000010 5c 4a c7 bd 19 1d 26 3d ad 96 87 3b b2 f0 c3 bb
       -0.0973098 0.040555093 0.004137835 -0.005979621
000020 4b 1f 19 3d 90 e0 af bd 31 96 33 3c b5 41 7b 3d
       0.03738336 -0.08587754 0.010961101 0.06134196
000030 25 d8 66 bd 7b 1a d0 bc 14 db 95 bc ee 36 91 3d
       -0.056358475 -0.025403252 -0.018292941 0.07090555
000040 c4 d0 0f 3d 60 86 22 bd 0a 30 e4 bc 9c 31 29 3c
       0.035111204 -0.03967893 -0.027854938 0.010326769
000050 42 5e 93 bd 7e 5a 4e 3d 51 6d 0c bd 5e 90 b3 bd
       -0.071957126 0.05037927 -0.03428394 -0.0876777
000060 d3 33 9e 3d 66 2d 15 bc 59 af 12 3c 3e 2a 89 3d
       0.077247284 -0.009105062 0.008952939 0.0669751
000070 da 23 6d bc 80 1e d4 bc 4a e6 f2 bc 91 0b 74 bc
       -0.01447388 -0.02589345 -0.029650826 -0.014895336
000080 47 64 1d 3c 94 cb bf bc 1d 64 0c bd bb af c6 3d
       0.0096064275 -0.023412503 -0.034275163 0.09701487
000090 a2 12 af bd 3f f4 21 3d b5 de 38 bd 9b cf ca 3c
       -0.08548476 0.03953957 -0.045134265 0.024757197
0000a0 c5 5f 5e bc 93 9c f8 bc 19 49 b6 bd 3b fd b1 bc
       -0.013572638 -0.030348098 -0.08900661 -0.021727195
0000b0 81 05 f3 bc 46 1e 4c 3a 5b bb b5 3c 3c 64 a1 bc
       -0.02966571 0.00077864935 0.022184065 -0.019701116
0000c0 86 a3 95 3d 8e 7b 6d 3d 6d 62 55 bd e0 33 63 3c
       0.0730658 0.05797916 -0.05209582 0.013867348
0000d0 f9 02 b2 3b 10 30 8c bc 79 8d 31 bd 5f 60 0b bd
       0.0054324833 -0.017112762 -0.04334781 -0.034027454
0000e0 c0 5e 63 3d de 10 2d bd f9 c5 94 bc 48 f3 49 bc
       0.055510283 -0.042252414 -0.018160807 -0.012326069
0000f0 a9 2a c0 bc 09 77 d3 bb 04 b7 7f 3d 14 51 25 3d
       -0.023457842 -0.006453399 0.062430397 0.040360525
000100 90 37 89 3d 01 c4 ed 3b 47 52 0e bc f8 9e c2 3d
       0.06700051 0.0072560315 -0.008686609 0.09502977
000110 17 cb 2b bd c6 e4 89 3d f4 db 8b bd 3d 46 16 3c
       -0.04194173 0.06733088 -0.06829062 0.00917202
000120 b8 85 40 3d 84 a3 a8 bd 41 d4 12 bd 32 67 1c bd
       0.047002524 -0.08234313 -0.035846952 -0.038184352
000130 2d 9d e0 bc a6 8a b2 3b b6 69 1f 3b ab 65 65 3c
       -0.027418697 0.005448657 0.0024324483 0.01400129
000140 c8 57 b9 3d 4c 5f 88 3c ee 53 4d bd 35 d2 88 3d
       0.09049946 0.016647004 -0.05012887 0.06680719
000150 79 20 ea bc c4 d1 36 3d 6b cc ef bc 94 3d 95 bc
       -0.028579937 0.04463364 -0.029272279 -0.01821784
000160 83 af 0c 3d a6 6c 2b bd 21 3b a1 bb cf 22 74 3d
       0.03434707 -0.041851662 -0.004920379 0.05960351
000170 f7 72 bd bd 3b 94 bf 3c ad 06 a6 3c d2 4b 78 3d
       -0.092504434 0.023386111 0.020266855 0.060619183
000180 ed 3e a1 3d 88 ef 1e 3d bc b2 73 bd 58 ad d3 3c
       0.0787333 0.038802654 -0.059496626 0.025839493
000190 46 1c 8d 3b b9 bb 00 3c a5 a5 35 bd 41 c6 91 bd
       0.004306349 0.007857257 -0.044347424 -0.07117892
0001a0 07 9a 52 3d b5 2a ab bc e1 e2 25 bd d2 45 3a 3d
       0.051416423 -0.020894388 -0.04049957 0.045476742
0001b0 e1 89 38 bd c2 9a 9e bb cf 41 98 3d 9a 7a 51 3d
       -0.045053367 -0.004840226 0.07434427 0.051142313
0001c0 21 10 b0 3d de eb be 3b bf ad 0d bd 58 6f 81 3c
       0.08596826 0.0058264574 -0.034589525 0.015800163
0001d0 af d6 80 bd 96 c7 35 3a 08 5c 54 bc 5d a3 7d bd
       -0.06290948 0.00069343427 -0.012961395 -0.061923373
0001e0 a2 2f be 3d a4 82 ad bd 1a b8 c5 bc cb 45 6d 3d
       0.09286429 -0.08472183 -0.024135638 0.057927888
0001f0 30 2a b5 bd 57 01 30 3d 01 35 a5 3d d9 47 24 3d
       -0.08845937 0.042970028 0.0806675 0.04010758
000200 30 ba de bc f1 64 bd bc ab 4a 49 b9 b3 f0 16 3d
       -0.02718839 -0.023119422 -0.0001919667 0.036850642
000210 4d f3 60 bd bb 34 3c 3d c2 b0 bd bc 20 90 a3 3c
       -0.05491953 0.045948725 -0.023155574 0.019966185
000220 d1 8c 28 3d 16 10 04 3c 9b 6c 36 bd 13 df bc 3c
       0.041149918 0.008060476 -0.044537168 0.023055589
000230 75 a2 bc 3b 96 73 e2 3c c7 86 89 3d 73 9c 6b 3d
       0.005756671 0.027643006 0.0671516 0.05752225
000240 75 8e b6 ba 84 2d 66 bc 99 d9 1d bc 65 82 97 3c
       -0.0013927954 -0.014048938 -0.009634399 0.018494794
000250 f4 86 e1 bc 5e bb 3d 3d 55 6e 15 3c a6 57 a0 bd
       -0.027530171 0.046321265 0.0091205435 -0.078292176
000260 84 3c 42 3d 22 29 1a bd cd c8 7c bd a7 df 85 3d
       0.047420993 -0.037636884 -0.061714936 0.06536799
000270 86 aa b8 bd d8 b6 20 3b 1f ef 74 3d 67 94 fb bc
       -0.090169 0.0024523046 0.059798356 -0.030710412
000280 6a 03 98 3a cf 66 f2 bb 7f 47 29 3d 7c 36 30 3d
       0.0011597697 -0.0073975096 0.04132795 0.04302071
000290 c6 0d d4 bd 29 fb 59 3b 72 d8 84 bd 1e 03 92 bd
       -0.103541896 0.0033261275 -0.06486596 -0.07129501
0002a0 3d 38 70 3c f9 ce 84 bd 28 89 ce bd 24 36 20 3d
       0.014661846 -0.064847894 -0.10084754 0.039114133
0002b0 cd 4a 59 bd ba 49 95 3d 4b 2d 9f 3c 2e d6 83 3d
       -0.05304985 0.07289453 0.019430777 0.06437336
0002c0 8c 8a af 3d f1 78 2e 3b c9 6c 1f bd 4f 69 f6 3c
       0.085713476 0.002662238 -0.038922105 0.030079512
0002d0 c2 12 b9 bd bf 70 ce 3c 47 8d 86 bd de c7 9f bd
       -0.09036781 0.025200246 -0.06569915 -0.078017935
0002e0 86 f9 b9 bc 40 82 a6 bc 97 44 66 3c d4 74 4a bc
       -0.02270199 -0.02032578 0.014054439 -0.012356956
0002f0 46 05 a9 bd 9f 0a 8c 3c cd fa 04 3d a2 1d 93 3d
       -0.08252959 0.017094908 0.032465745 0.071833864
000300 43 eb 06 bd fd b5 b2 3c d7 95 3b 3c 69 48 4c bd
       -0.032939207 0.021815294 0.011449299 -0.049873743
000310 11 71 13 3b 53 ac 4d bd da 0b 00 3c 02 f3 e1 bc
       0.0022497813 -0.05021317 0.007815326 -0.027581695
000320 60 5d 89 bc 02 f2 af 3c 03 f8 6b 3d 11 87 91 bc
       -0.016768157 0.021477703 0.05760957 -0.0177646
000330 19 d5 77 3d 08 4c 47 bd ca f8 aa bd 54 8f 94 bd
       0.06050596 -0.048656493 -0.08348234 -0.072539
000340 e5 22 28 3c 94 f9 ff bb 3e 5d b6 ba cd 3d c8 bd
       0.010262226 -0.0078117345 -0.0013913286 -0.097774126
000350 ae 86 80 3c 3d 08 80 bd b1 7d a5 3b d3 33 05 3d
       0.01568922 -0.06251571 0.005050384 0.032520127
000360 b8 8e 90 bd 7b 6f 62 3c 16 3b 31 3d 14 c2 29 bd
       -0.070584714 0.013820524 0.04326924 -0.041444853
000370 e0 12 5d 3d 4c 98 f2 3c f7 00 19 3d e3 c1 ca 3c
       0.05397308 0.029613636 0.037354436 0.024750656
000380 e7 60 53 bd c8 e6 c1 3c 2a b5 15 3d 07 06 50 bd
       -0.051606085 0.023669615 0.036549725 -0.050786998
000390 07 b0 8f 3d 0a a6 26 3c ef 6c 04 3d 03 04 ac 3d
       0.070159964 0.010171423 0.03233045 0.08399203
0003a0 65 5f e4 bc 9f 8b 97 3d b5 ab d3 3b 8e 9b c0 bc
       -0.027877519 0.073996775 0.006459678 -0.023511674
0003b0 1a 72 a7 3d 00 1d 55 bd 2b d3 19 bd 04 e5 9f bd
       0.0817606 -0.05202961 -0.0375549 -0.07807353
0003c0 90 07 f1 bb e9 6e d0 bb 33 4f 2f bd 34 0f eb 3c
       -0.007355638 -0.006360878 -0.04280014 0.028693773
0003d0 27 e7 25 bd 8b 1c 86 ba 62 e8 87 bd 86 71 a3 bc
       -0.040503647 -0.0010231895 -0.066361204 -0.019951593
0003e0 23 48 9e 3b 47 c8 b5 bd cc a8 81 bd 0e de 4b 3d
       0.0048303767 -0.088760905 -0.063310236 0.049772315
0003f0 15 5d b6 3a 8b 60 88 3d 7c 68 34 bb 90 a9 f7 3c
       0.0013913239 0.06659039 -0.0027528098 0.03023222

_func._diffusion._model.2.bias f4 [48]
000000 9b bb 89 3d f5 41 b0 3d 38 c8 c9 3d 1e 58 a0 3d
       0.06725236 0.0860633 0.09852642 0.07829307
000010 0a ed f0 3c a0 84 52 3d 33 5f 17 3d 8a 78 6c 3d
       0.029409904 0.051396012 0.036956023 0.057732143
000020 f1 e2 b4 3c 63 77 e8 3c 17 3a e0 3d 4f 41 da 3c
       0.02208087 0.02837724 0.1094858 0.02664247
000030 fc f2 2b bd 5f 3f 72 bc 45 fd 9e bd 1c 57 8f 3a
       -0.041979775 -0.014785617 -0.07763151 0.0010935995
000040 38 12 b8 3b 17 0f 8c 3d da 17 61 bd ef 04 d8 bd
       0.005617406 0.06838816 -0.054954387 -0.10547816
000050 22 38 bc bd c5 af 22 bc 11 87 4c bd 11 35 d1 bd
       -0.09190394 -0.009929602 -0.049933497 -0.102152
000060 f3 2e c5 bc 3a c0 af bc 66 4b 6c 3d 3c 8c 91 bd
       -0.024070239 -0.021453965 0.057689093 -0.07106826
000070 17 04 d5 bc 47 ba 30 bd c4 a3 5f bc a7 39 69 bd
       -0.026002927 -0.043146398 -0.013649885 -0.056939747
000080 64 c4 db bd f4 37 c0 3d df 0e 92 3d 6e 22 b1 3d
       -0.10730818 0.09385672 0.07131743 0.08649145
000090 f9 54 2f 3d d6 99 25 3c 21 a3 94 3c c4 11 ab 3b
       0.042805646 0.010107478 0.018144192 0.0052206237
0000a0 af b8 ce bc d4 e3 8f bd 43 99 3b 3d 49 5d 90 3d
       -0.025234548 -0.07025877 0.04580046 0.07049043
0000b0 bb fa c3 3d fc 97 5d bd f1 03 8f bc fe ef b4 3a
       0.095693074 -0.05410002 -0.017457934 0.0013804433

_readout.weight f4 [1, 16]
000000 1a b0 c2 bd 81 56 45 be 39 6c 76 be ea 13 53 be
       -0.09506245 -0.1927128 -0.24064721 -0.20613065
000010 8a 0d a0 3d 60 38 cb bd f6 d6 07 3c 52 99 04 3e
       0.07815082 -0.09922862 0.008290997 0.12949112
000020 4b f8 e3 bc 09 e2 8f 3d 27 2b b2 3d 01 b9 8a be
       -0.027828356 0.07025535 0.08699637 -0.27094272
000030 0d e0 71 be 05 31 9f bb ae 81 8d bd c4 d2 15 3e
       -0.23620625 -0.0048581385 -0.069095 0.14631182

_initial._model.0.weight f4 [16, 2]
000000 8f 6c 25 b6 9e c1 b0 be 40 29 31 b6 24 3c 9a 3f
       -2.4650105e-06 -0.34522718 -2.6399066e-06 1.2049603
000010 0b fe c4 34 7b 9d 37 bf 94 4c bb 36 3a 69 11 bf
       3.6692686e-07 -0.7172467 5.581949e-06 -0.5680119
000020 d7 a1 8b b6 56 2d a1 be ac ae 3e 36 eb 42 32 bf
       -4.1613634e-06 -0.314799 2.8413879e-06 -0.6963336
000030 5d 0c 42 36 8e 83 63 3f ad 2f e2 b5 61 ac aa 3f
       2.891545e-06 0.8887261 -1.6852188e-06 1.3333856
000040 9b 34 61 34 5c 8d 3d bf 94 73 57 b6 88 29 3b 3f
       2.0973896e-07 -0.7404382 -3.2104772e-06 0.73110247
000050 73 a9 80 b6 03 88 e9 3d fc 7c bc 36 64 a2 ae be
       -3.8344238e-06 0.11402895 5.6173867e-06 -0.3410827
000060 b6 b0 c2 b6 62 80 b1 bf 66 e8 39 36 a3 9a bb 3e
       -5.8022224e-06 -1.3867304 2.7702422e-06 0.36641416
000070 94 c5 9f 35 62 4c 1d 3f 3b 37 dc b5 d4 e6 1d 3f
       1.1903926e-06 0.61444676 -1.6407351e-06 0.6168034

_initial._model.0.bias f4 [16]
000000 8c 2b 01 bf 9d 14 03 bd 4f 19 99 3d 6f 66 0b 3f
       -0.5045707 -0.03200208 0.0747553 0.54453176
000010 46 9f 7e be 05 61 73 39 ea bb a5 be f1 2b 05 bf
       -0.24865445 0.00023210428 -0.3236993 -0.52020174
000020 0f db 40 3f 8f ee 12 3e 35 2b 93 bd cb 46 fe bd
       0.75334257 0.14348815 -0.071859755 -0.124158464
000030 81 2f 5e be c3 e0 b2 be 02 59 82 3d 1b 85 bc 3e
       -0.21697809 -0.34937105 0.06364633 0.368203

_initial._model.2.weight f4 [16, 16]
000000 1a 5e 23 bd 0b 31 f9 be 3b 48 91 bc be f3 75 bd
       -0.039884664 -0.4867023 -0.017734637 -0.060046904
000010 72 f8 7d be a7 53 1b be c2 f2 1d be e8 c1 45 be
       -0.24801806 -0.1516863 -0.15424636 -0.1931225
000020 4e e8 2f bd 2f d3 5a be 50 18 42 b9 07 c4 2d be
       -0.042946152 -0.21369623 -0.00018510339 -0.1696931
000030 b3 8e 3e be 3b c5 dd bd d2 3c ad 3d 1e 9d 52 be
       -0.18609123 -0.10828634 0.08458866 -0.20567748
000040 3f 50 d3 3d 17 64 c1 3e 81 79 d6 3e 3d fc 89 3e
       0.1031804 0.37771675 0.41889575 0.26950255
000050 8b 22 2a 3e b9 79 c1 3e 05 93 70 3e 2a b3 88 3e
       0.1661474 0.3778818 0.23493584 0.2669919
000060 87 b9 53 3e 59 05 61 3e f5 97 f7 ba 1f c0 0f 3e
       0.20676242 0.21974696 -0.0018889891 0.14038132
000070 7f 78 01 3f 30 1b 35 be 1f e2 87 3d 25 55 8f 3e
       0.5057449 -0.17686152 0.06634926 0.27994648
000080 7e 17 8e be a3 97 c3 3e ae a4 03 3e b5 cf 1d 3e
       -0.27752298 0.38201627 0.12855789 0.15411265
000090 d7 ee bd be c7 ec 14 3e 2c a0 90 3d 66 26 ff 3d
       -0.37096283 0.14543448 0.070618 0.12458496
0000a0 f7 f8 7e 3e 72 f4 e3 3e 14 52 89 be d0 ec 87 be
       0.2489966 0.44522434 -0.26820433 -0.2654786
0000b0 9c 52 91 3e 75 40 d1 bc c6 f0 93 3d 60 d5 07 3f
       0.28383338 -0.02554343 0.07223658 0.5305996
0000c0 57 c1 85 3c cc 02 1b 3f 6f 99 2e 3e 95 b9 ca 3d
       0.016327543 0.6055114 0.17050718 0.09898678
0000d0 2e 3e 90 bd 02 9c b1 3d 3d 06 a7 3e a2 51 db 3e
       -0.0704311 0.08672334 0.32621947 0.42835718
0000e0 98 d2 36 3e c5 9a e8 3d 19 5c 43 be e7 5b 34 3e
       0.17853773 0.11357645 -0.19078101 0.17613183
0000f0 92 83 8d 3e 3e de 07 bd 3d 0d a4 3e aa ca a2 3c
       0.27639443 -0.03317093 0.3204135 0.019872028
000100 53 02 db bd 04 44 e7 3e ec 55 3e 3e cc aa 1e 3e
       -0.10693803 0.4516908 0.18587464 0.15494841
000110 f5 4e 81 bd ec 0c aa 3e 62 3a c5 3d 13 61 fd 3e
       -0.06313888 0.33212984 0.09630276 0.49488124
000120 7e 1f 23 be f6 0a 99 3e e3 fd 44 be 4e 05 f1 3d
       -0.15929982 0.29891175 -0.19237475 0.1176859
000130 70 c3 1b 3f 13 0a 0d 3d 1a 88 9e bd b0 84 88 bc
       0.6084509 0.034433436 -0.07740803 -0.016664833
000140 9d f4 d5 3c c4 05 04 3f 5c 8c 81 bd 55 45 bc 3d
       0.026117617 0.515713 -0.063255996 0.091929115
000150 40 ed 73 3e 92 bd 5d 3e 86 1a 8f 3e b4 3b ef 3e
       0.23820972 0.21654347 0.27949923 0.46725237
000160 24 b5 a5 3d c1 9a 99 3e d1 8f 06 3e 34 74 9e bd
       0.080911905 0.3000088 0.13140799 -0.07737008
000170 ff 64 a2 3e bf 18 29 3e 8f 9e e0 3d eb 34 8e bd
       0.3171768 0.16513346 0.10967743 -0.06943687
000180 dd ce 5a 3e f2 43 e9 bb 48 ce fa 3b b6 74 d2 bd
       0.21367975 -0.0071186954 0.007653985 -0.10276167
000190 53 4c 9f 3e bd 18 b1 bd 21 02 bb 3d a5 f1 66 bc
       0.31112918 -0.086472966 0.091312654 -0.0140956985
0001a0 c5 2b 27 be 09 45 d7 be 7a 42 b8 3d eb c7 cb 3e
       -0.1632529 -0.42044857 0.089970544 0.39800963
0001b0 b0 45 14 3e 76 14 4e bc 09 75 6f bd 89 2a 9e bd
       0.14479709 -0.01257812 -0.058461223 -0.07722957
0001c0 c8 6d 21 be 47 26 a4 be 78 b3 59 3d 4f a8 90 be
       -0.15764534 -0.32060453 0.05314967 -0.2825341
0001d0 ed 8f 98 3d 96 ab 03 be a8 4a 32 be ed 6d d3 be
       0.07449327 -0.12858424 -0.17411292 -0.41294804
0001e0 7b 41 09 be d9 77 0f 3c e7 53 fb 3d 28 45 1a bd
       -0.13403885 0.008756601 0.122718625 -0.03766361
0001f0 7b e7 19 bf 4e 46 85 3d 71 1d 40 3d 78 56 73 be
       -0.60118836 0.0650755 0.046903078 -0.23763454
000200 c1 36 9e 3e 47 2f 0d 3e ed 50 71 bd 8b da e3 3d
       0.3090115 0.13787566 -0.058915067 0.11125668
000210 a1 b4 17 3e 09 e3 ac 3d 91 54 a7 3e c2 e8 00 3f
       0.14814998 0.08441741 0.32681707 0.5035516
000220 e3 26 e1 bd 36 f6 5e 3e f0 b7 d6 bb 8d 44 42 3e
       -0.10993745 0.2177361 -0.006552689 0.18971463
000230 b3 40 1d 3f d2 02 08 3e 45 d0 27 be ea b4 62 3e
       0.6142685 0.13282326 -0.16388042 0.22139326
000240 89 bd 08 3e 46 71 6c be 75 a3 6d be 32 1b 14 bc
       0.13353552 -0.23090085 -0.23206885 -0.009039687
000250 13 9d 09 be 6c 79 e9 be e5 48 7c be a5 c9 93 be
       -0.13438825 -0.4560045 -0.24637182 -0.2886478
000260 ca f0 57 be d1 1b a4 bb 48 17 51 3e cf ad 6c 3d
       -0.21087947 -0.005008199 0.20419037 0.057782944
000270 d5 31 20 bf 70 46 05 be fe 85 f7 bd 1a ba 87 3c
       -0.6257604 -0.13015151 -0.12086104 0.016568232
000280 e7 77 f3 bd 39 46 0b 3e e7 1d 40 3e 15 41 17 be
       -0.11888104 0.13601007 0.18761407 -0.1477092
000290 56 08 8a bd 28 f7 d2 3e 7c 27 95 3e 0d 80 a9 3e
       -0.06739871 0.4120419 0.29131687 0.33105507
0002a0 61 17 d7 3b a3 54 7b 3e b7 4c c3 bd b9 49 8d 3e
       0.0065640663 0.24544005 -0.095361166 0.27595308
0002b0 c8 54 5f 3e d5 46 30 3e 14 72 8d bc 97 23 61 bd
       0.21809685 0.1721452 -0.01726631 -0.05496558
0002c0 9f 9e b3 bd 45 72 7d 3e 86 c7 38 3e 09 77 cd 3d
       -0.08770489 0.24750622 0.18044862 0.1003247
0002d0 da a3 4f 3e d4 6d b7 3e 6f b1 50 3e cf 06 da 3d
       0.20277348 0.3582598 0.20380186 0.1064583
0002e0 e1 63 51 3e 07 14 4b 3d c8 b3 a7 bd d2 71 9d 3d
       0.20448257 0.049579646 -0.081885874 0.07687725
0002f0 b0 de 16 3f c5 4d 15 be 95 53 24 3e 46 bc a4 3d
       0.58933544 -0.14580448 0.16047509 0.08043723
000300 b5 87 0c bd 37 6f 98 3e 9b ab 0a 3e 08 72 3d be
       -0.034309108 0.2977235 0.13542025 -0.1850053
000310 4c be aa 3d 53 4f 9e 3e 10 c2 a1 3e d9 49 b2 3e
       0.083370775 0.30919895 0.3159337 0.34821966
000320 1e 05 4d 3e 7a 58 6b 3e 89 9e a9 bd c5 47 9a bd
       0.20021483 0.2298297 -0.08282191 -0.0753322
000330 ad 03 0d 3f e0 b7 af 3e 50 a0 5f 3e 19 38 2e 3e
       0.55083734 0.34319973 0.21838498 0.17013587
000340 07 98 21 3e 41 0f c0 3e 65 b5 c1 3e 22 87 8a 3e
       0.1578065 0.37511638 0.37833706 0.27056223
000350 2d b9 92 bd 3b 6f ed 3e a4 83 a4 3e 85 a4 9b 3d
       -0.07164226 0.46373925 0.32131684 0.07599739
000360 bf 16 2d 3e 38 74 0b 3c 17 b3 de bd 0b 53 d5 3d
       0.16903208 0.008511595 -0.108740024 0.1041623
000370 99 e5 1b 3f cb 9c 1c be a4 12 2e 3e 20 81 57 3e
       0.60897213 -0.15294187 0.16999298 0.21045351
000380 63 73 a1 3e ec 02 7b be 7c 6f 9c 3e 9c 5d 37 3e
       0.31533346 -0.24512833 0.30553806 0.17906803
000390 78 a8 1b 3e 5b 5c e5 3e 9b c9 20 3e ac 72 34 bd
       0.15200984 0.44797024 0.15701906 -0.044054672
0003a0 f6 d2 85 bd a8 34 ae bd e4 f7 e1 bc ef fe d2 3e
       -0.06534378 -0.08506137 -0.027584024 0.41210124
0003b0 a6 6b b6 3e ea 3f 80 bd 37 66 9d bd 3c b2 9c be
       0.35629004 -0.06262191 -0.076855116 -0.30604732
0003c0 d8 0a 67 ba 7b 4e d4 be 2e 0d 6d be 44 a5 8a 3d
       -0.00088135665 -0.41466126 -0.23149559 0.06769803
0003d0 05 16 70 be 0a ef 4b be 22 4c 97 be 55 a3 cf be
       -0.234459 -0.19915405 -0.29550272 -0.405543
0003e0 4b d4 1f be 27 58 06 be ce a2 af bc da b9 52 be
       -0.15608327 -0.13119565 -0.021439936 -0.20578709
0003f0 28 45 ec be 0c 21 6f be 24 fd 62 bb d3 9d a6 bd
       -0.46146512 -0.2335245 -0.0034635747 -0.08135571
